shanghai_road_delivery/results_centralized/best_centralized_episode_0.pth_centralized_critic.pth (torch, 919224 bytes, 7 tensors)

fc1.weight f4 [256, 378]
0	0xbcb22595	-0.021746436
1	0x3c2f5f04	0.010703806
2	0x3caa2928	0.020771578
3	0xbc0e5212	-0.008686559
4	0x3caa4fac	0.020789944
5	0xbbe493d8	-0.006975632
6	0x3cb7a8c1	0.022419335
7	0xbc3ba269	-0.011452296
8	0x3bdd722c	0.006757995
9	0x3cc0fb08	0.023557201
10	0x3c2f8636	0.010713151
11	0xbc8e5ca1	-0.017378153
12	0x3c50843b	0.012726839
13	0xbca7c5e0	-0.020480096
14	0xbc0fc1b8	-0.0087742135
15	0xbaea1e10	-0.0017861743
16	0xbc9a0e60	-0.018805683
17	0xbc4f2678	-0.012643449
18	0x3c1f0556	0.009705862
19	0x3c33ea0e	0.010981096
20	0x3cde7ec7	0.027160062
21	0xbcc08d96	-0.023505013
22	0x3bf79908	0.0075560845
23	0xbcc06513	-0.023485696
24	0xbba2817d	-0.004959284
25	0x3c658be5	0.014010404
26	0x3af93c80	0.0019015223
27	0xbc48e5d4	-0.012261827
28	0xbb3728b8	-0.0027947854
29	0x3c2d4fd8	0.010578118
30	0x3c364654	0.011125166
31	0xbcc07ac4	-0.02349604
32	0x3ca5dde8	0.020247415
33	0x3a8d7538	0.001079238
34	0xbcb0b111	-0.021568807
35	0x3c59fcbc	0.0133048855
36	0xbc91ca06	-0.017796528
37	0xbc0df7a0	-0.008664995
38	0x3cbd1e02	0.023085598
39	0x3caa79fb	0.020810118
40	0xbdf313da	-0.11869021
41	0x3d174763	0.036933314
42	0xbc83bfac	-0.016082607
43	0xbbbd9561	-0.0057856296
44	0x3afdecf4	0.0019372986
45	0xbb26488a	-0.0025372826
46	0xb8dbbf00	-0.0001047831
47	0xbc0c0b3a	-0.0085475985
48	0xbc43a2d1	-0.011940674
49	0x3b96ae5e	0.004598423
50	0x3cb4a5e9	0.022051768
51	0x3c7626a2	0.015023859
52	0xbc3af8c0	-0.011411846
53	0x3b05ffb8	0.002044661
54	0x3c87c6a2	0.016574208
55	0x3b9a6422	0.004711644
56	0x3b980e3a	0.004640368
57	0xbbd07160	-0.0063611716
58	0x3ca3f9a7	0.020016504
59	0xbbedff6d	-0.007263115
60	0x3cc0e0a5	0.023544619
61	0xbc47e122	-0.012199672
62	0xbb12977c	-0.0022368124
63	0xbbeac97e	-0.007165133
64	0x3ab72fe8	0.0013976069
65	0xbc9aa30d	-0.018876577
66	0xbc011a92	-0.00787987
67	0xbcb9e158	-0.02269046
68	0xbd334950	-0.043771088
69	0x3cbab461	0.02279109
70	0x3bbfcdec	0.005853405
71	0xbc0065fc	-0.007836815
72	0xbc3a32b0	-0.011364624
73	0xbcb027a1	-0.021503272
74	0x3c4c699b	0.01247635
75	0x3cae4af6	0.021275979
76	0x3bcb4a29	0.006203909
77	0xbc53d79e	-0.012929825
78	0xbbdb6c24	-0.006696241
79	0xbc466332	-0.012108611
80	0x3c8771b7	0.016533716
81	0x3cbb9c59	0.0229017
82	0xbc10980c	-0.008825313
83	0xbb80962e	-0.003924153
84	0xbbf4e56f	-0.0074736397
85	0x3a63e610	0.0008693645
86	0x3b47ade4	0.0030468637
87	0x3c4324be	0.0119106155
88	0xbc55af9b	-0.013042356
89	0xbbfbc829	-0.007683773
90	0x3bd099ef	0.0063660066
91	0xbbe89d2b	-0.007098814
92	0xbde8d876	-0.11369412
93	0x3c9e363f	0.019312976
94	0xbcb03085	-0.02150751
95	0xbc68da34	-0.01421218
96	0x3bc6ca2e	0.006066582
97	0x3c675ba3	0.014120969
98	0x3c371954	0.011175472
99	0xbc068ea3	-0.008212718
100	0xba9f87a8	-0.0012171166
101	0x3ca9c5a3	0.020724123
102	0xbc45a3a8	-0.0120629445
103	0x3c5d5a61	0.013510318
104	0xbd01dbc6	-0.031703733
105	0x3ae211e8	0.0017247768
106	0xbc0d52ea	-0.008625725
107	0x3c10928e	0.008824004
108	0x3c807590	0.015681058
109	0xbc17b579	-0.009259575
110	0xbb92fe76	-0.0044859005
111	0x3cb5e744	0.022205003
112	0xbacfe858	-0.001586209
113	0x3c90b05c	0.01766222
114	0x3a1f2240	0.00060704723
115	0xbc7020a2	-0.014656218
116	0x3c522aa3	0.012827548
117	0xbb502bfe	-0.0031764503
118	0xbcc19296	-0.023629468
119	0xbd10850e	-0.03528314
120	0xbc148be6	-0.0090665575
121	0xbbfb711d	-0.0076733963
122	0xbc03c5ba	-0.008042747
123	0xba859e08	-0.0010194192
124	0xbc8634a0	-0.016382515
125	0x3bfe0e46	0.0077531664
126	0x3c489de5	0.012244676
127	0x3c670f18	0.01410272
128	0xbbd2be62	-0.006431387
129	0xbc5d8afc	-0.013521906
130	0x3be9dd1f	0.0071369554
131	0x3c295ef1	0.010337577
132	0xbcb3726b	-0.021905145
133	0x3cada8ed	0.021198714
134	0x3c4edaf0	0.012625441
135	0xbc09ffec	-0.008422833
136	0xbcc45c5b	-0.02396982
137	0x3bbe4450	0.0058064833
138	0x3bbbdda4	0.0057332087
139	0x392ae3c0	0.00016297307
140	0x3c1b08b8	0.009462528
141	0x3c9ac47d	0.018892521
142	0x3c6ae824	0.014337573
143	0x3ca99ccc	0.02070465
144	0xbdee0448	-0.1162191
145	0x3d0eb94e	0.03484469
146	0x3ab75b38	0.0013988977
147	0xbbf729c2	-0.0075428197
148	0x3c627dfe	0.013823984
149	0x3cbb7c2e	0.022886362
150	0xbba02156	-0.0048867865
151	0x3c59807c	0.013275262
152	0xbc11c71f	-0.008897572
153	0x3c200a79	0.009768122
154	0x3a8a5f90	0.0010557044
155	0x3c8077f8	0.015682206
156	0xbc5db1a7	-0.013531125
157	0x3c4e29de	0.012583224
158	0xbba19f7a	-0.004932341
159	0xbc178c03	-0.00924969
160	0x39c14598	0.0003686368
161	0xbb9d65da	-0.0048034014
162	0xbcb94630	-0.022616476
163	0xbc8dd287	-0.017312301
164	0x3b217162	0.0024634232
165	0x3c5f3610	0.013623729
166	0x3c2b3738	0.010450177
167	0xbca3dfaa	-0.020004112
168	0x3c5b9648	0.013402529
169	0x3c9564d4	0.018236555
170	0x3c07bfb9	0.008285456
171	0xbc9b2fde	-0.018943723
172	0xbc9714c6	-0.018442523
173	0xbbe05342	-0.0068458626
174	0x3c52e2de	0.012871472
175	0x3c08d86c	0.00835238
176	0xbc716eca	-0.014735887
177	0x3c1c2e8e	0.009532584
178	0x3c37c505	0.011216407
179	0xbc4c23f2	-0.012459742
180	0xbc546d1c	-0.012965467
181	0xbc49ca40	-0.012316287
182	0xba07cb70	-0.0005180156
183	0x3bbe998e	0.005816645
184	0x3c680f4b	0.014163802
185	0x3a1e0650	0.00060281623
186	0xbc25a7b6	-0.010110786
187	0x3bfaa079	0.0076485244
188	0x3c4dfb7a	0.012572164
189	0xbc17ffd1	-0.0092773
190	0x3b7b0698	0.003830349
191	0xbcbd0454	-0.023073353
192	0x3c464d31	0.012103365
193	0x3ca1dde8	0.019759133
194	0x3c05aeb9	0.008159333
195	0x3ca95489	0.020670192
196	0xbdcd6db9	-0.100306936
197	0x3d171b93	0.03689153
198	0x3c0992e3	0.008396837
199	0xbc42ef0e	-0.011897815
200	0xbc32625e	-0.01088771
201	0xbaba8774	-0.0014231042
202	0x3ba0b2af	0.0049041132
203	0x3c3ea49e	0.0116359275
204	0xb97b2c00	-0.00023953617
205	0xbbb8b44c	-0.0056367274
206	0x3cbf51b1	0.023354383
207	0x3c42c0b5	0.011886765
208	0x3cbecac8	0.023290053
209	0x3cd1fca8	0.025633171
210	0xbc0834a8	-0.0083133355
211	0x3c442e2c	0.011973899
212	0x39e86778	0.00044327579
213	0x3ca74c1d	0.020422036
214	0x3ba5b070	0.0050564334
215	0x3c19a889	0.009378561
216	0x3be8e49d	0.007107331
217	0xbc119e12	-0.008887785
218	0xbc03f9da	-0.008055175
219	0xbca0c974	-0.01962731
220	0x3c16c446	0.009202069
221	0xbc2d78bd	-0.010587868
222	0x3b8c0c0e	0.004273898
223	0xbaa0cc88	-0.0012267986
224	0xbcdc3f89	-0.026885765
225	0xbcc093a5	-0.023507902
226	0x3c662847	0.014047689
227	0xbc07cf41	-0.008289159
228	0xbc9b0708	-0.018924251
229	0x3c26f51c	0.010190275
230	0x3c26dd34	0.010184575
231	0x3c6462fa	0.0139396135
232	0xba7411a0	-0.00093104877
233	0xbb131618	-0.0022443589
234	0xbbed5ea0	-0.007243946
235	0xbc4a1332	-0.012333678
236	0x39e86c40	0.0004433114
237	0xbcb7b741	-0.02242625
238	0xbc988c57	-0.018621607
239	0x3bf6259a	0.0075118067
240	0xbc5bb34c	-0.013409447
241	0xbcabeaaf	-0.02098593
242	0x3cb4f058	0.022087261
243	0xbc5e3dd8	-0.013564549
244	0x3c281b30	0.010260388
245	0xbc0cbf2d	-0.008590502
246	0x3bcdda48	0.0062821247
247	0x3c6fd7a0	0.014638811
248	0xbe3e23e7	-0.18568383
249	0x3c97d9fe	0.018536564
250	0xba948e88	-0.0011333982
251	0xbad86e60	-0.0016512387
252	0x3cb41795	0.021983901
253	0xbc2ad7cc	-0.010427427
254	0x3c43d42c	0.011952441
255	0x3c0d607f	0.0086289635

fc1.bias f4 [256]
0	0xbbb0f47a	-0.0054002376
1	0x3d58666e	0.05283206
2	0x3cbfae38	0.023398504
3	0x3ceab60a	0.028651256
4	0xbe47577e	-0.1946697
5	0x3d4e5ae0	0.050379634
6	0xbe66c757	-0.2253698
7	0x3db28e4d	0.08718548
8	0x3d848183	0.06470015
9	0xbd60c95b	-0.054879528
10	0xbe587c61	-0.21141197
11	0xbca5c094	-0.02023343
12	0xbdad1e6a	-0.08453067
13	0xbe7a183d	-0.24423309
14	0x3d5ba833	0.053627204
15	0x3d0dcf44	0.034621492
16	0x3ce6943a	0.028146852
17	0x3d8b29c4	0.067950755
18	0x3d0b6edd	0.034041274
19	0xbd0cba54	-0.034357384
20	0xbe197797	-0.14987026
21	0x3d2c50da	0.042069294
22	0xbd1e4c4c	-0.03864698
23	0x3d3f0612	0.04663665
24	0xbe48646f	-0.19569562
25	0x3cfbbc30	0.030729383
26	0xbe3d8eea	-0.18511549
27	0xbc135ab8	-0.008993797
28	0xbe5c7216	-0.21527895
29	0x3c92055b	0.01782482
30	0xbcb3f71b	-0.021968415
31	0xbb35032c	-0.0027620299
32	0xbd977e8f	-0.07397186
33	0xbcf4a1ba	-0.029862273
34	0xbc0e9778	-0.008703105
35	0xbe08fec2	-0.13378432
36	0xbd945fd8	-0.07244843
37	0xbd909c99	-0.07061119
38	0x3c7704aa	0.015076796
39	0xbe8ea102	-0.27857214
40	0xbe675402	-0.2259064
41	0xbd3ec4fc	-0.046574578
42	0xbe865df9	-0.2624357
43	0xbe593b65	-0.21214063
44	0xbe2fa3e4	-0.17152363
45	0xbd710215	-0.058839876
46	0xbe6efd5d	-0.23338838
47	0xbe007f5b	-0.12548582
48	0x3da63301	0.08115197
49	0xbe6a07dc	-0.2285456
50	0xbe7021ed	-0.23450442
51	0xbe82347a	-0.2543066
52	0x3d0d7622	0.03453649
53	0xbe7a2144	-0.24426752
54	0xbca12294	-0.019669808
55	0xbcddfe23	-0.02709872
56	0xbe804b17	-0.2505729
57	0x3ca53ccf	0.020170597
58	0xbd924b9c	-0.071433276
59	0x3c8c0b0c	0.017095111
60	0x3e6472c0	0.22309399
61	0xbe7aeee3	-0.2450519
62	0xbd464070	-0.048401296
63	0x3c994873	0.018711304
64	0x3c1676c6	0.009183591
65	0xbd0bdaaa	-0.03414408
66	0xbdef9ced	-0.11699853
67	0xbde5513c	-0.11197135
68	0x3be2d3c2	0.006922216
69	0xbb51a044	-0.0031986395
70	0x3d8db935	0.06920091
71	0xbe822a70	-0.25423002
72	0x3d6fac60	0.058514
73	0x3c0e5de1	0.008689375
74	0xbe632271	-0.22181107
75	0x3d838775	0.06422321
76	0x3c71946b	0.014744858
77	0xbca30636	-0.019900423
78	0xbd8dcbe2	-0.06923653
79	0x3ddcdce5	0.1078432
80	0xbafd4230	-0.0019322094
81	0x3d14aa48	0.036295205
82	0x3d26bef9	0.04070947
83	0x3c55cf13	0.013049859
84	0xbe671a74	-0.22568685
85	0xbbb04afe	-0.0053800335
86	0x3d39376c	0.04521887
87	0xbd946b48	-0.07247025
88	0xbd25ab4a	-0.040446557
89	0xbe814186	-0.25245303
90	0xbdb6c4ff	-0.08924293
91	0xbe0cdcd6	-0.13756117
92	0xbb5aebac	-0.0033404632
93	0x3d1ccec2	0.038283117
94	0x3b944fcc	0.004526114
95	0x3a1988e0	0.0005856883
96	0xbe3488a5	-0.17630251
97	0xbe12fb32	-0.14353636
98	0xbd9b9be4	-0.07598093
99	0x3d4f11fc	0.05055426
100	0xbd775866	-0.060387038
101	0x3d1371a0	0.035997033
102	0xbd3652d5	-0.04451259
103	0x3d523502	0.051320083
104	0x3c8ddea6	0.017318081
105	0xbe68e5f2	-0.22743967
106	0xbe1c68df	-0.1527438
107	0xbcb642e1	-0.022248687
108	0x3d2f876b	0.042853754
109	0xbe0c3eb2	-0.13695791
110	0xbe6cc969	-0.23123707
111	0xbe645c3b	-0.22300808
112	0xbc1434e8	-0.009045817
113	0xbdb4be85	-0.08825401
114	0x3cfc8040	0.030822873
115	0xbe2152ce	-0.15754244
116	0xbe6e948e	-0.23298857
117	0x3ba4e914	0.005032668
118	0xbddfad72	-0.10921754
119	0xbcb8eccd	-0.022573853
120	0x3d92fb40	0.071768284
121	0xbdc30be1	-0.0952375
122	0xbe03027e	-0.1279392
123	0xbe33a12d	-0.17541952
124	0xbaf94ba8	-0.001901974
125	0xbe724b4e	-0.23661539
126	0xbd396092	-0.045258112
127	0xbcdc3b18	-0.026883647
128	0x3e2aea82	0.1669102
129	0xbd1496ff	-0.036276814
130	0xbde06095	-0.109559216
131	0xbdd05daa	-0.10174115
132	0xbdafe1e6	-0.085880086
133	0xbe232b90	-0.15934587
134	0xbe2f675c	-0.17129272
135	0x3d28e6bc	0.04123567
136	0xbe64521a	-0.22296944
137	0xbdd95f14	-0.10613838
138	0x3ccd9c4b	0.02509894
139	0xbc2316f1	-0.0099542
140	0xbd50eeed	-0.051009107
141	0xbba3ea50	-0.0050022975
142	0xbc4e7350	-0.012600735
143	0xbd9a7628	-0.07542068
144	0x3db33fab	0.08752378
145	0xbdfda2c1	-0.123845585
146	0xbd5ffe86	-0.05468609
147	0xbd98f43c	-0.07468459
148	0xbcd00eed	-0.025397742
149	0xbe420471	-0.18947007
150	0xbc3aba44	-0.011396948
151	0xbe543d04	-0.207264
152	0xbd94c5b4	-0.072642714
153	0xbd385f0d	-0.045012522
154	0xbd899ba4	-0.06719139
155	0xbe5f5b49	-0.21812166
156	0xbd67ac2d	-0.056560684
157	0x3bae4400	0.005318165
158	0xbd656e04	-0.056013122
159	0xbdba82fa	-0.09107013
160	0xbe58a111	-0.21155192
161	0xbe0cb6e5	-0.13741644
162	0xbddf6425	-0.10907773
163	0xbe2ce6da	-0.16884938
164	0x3d702ee8	0.058638483
165	0xbd9e4da6	-0.07729654
166	0xbd8d06c9	-0.0688606
167	0xbcd79d4f	-0.026320128
168	0xbb72a7b0	-0.003702622
169	0xbe0596a0	-0.1304574
170	0xbc90c456	-0.017671745
171	0xbe8b80b2	-0.27246624
172	0xbdd7ef14	-0.105436474
173	0xbce8ab3f	-0.028401969
174	0xbe4b0a89	-0.19828238
175	0x3d70e443	0.058811437
176	0xbe8d17c4	-0.27557194
177	0x3e4a1b3e	0.19736955
178	0x3ce84394	0.028352536
179	0xbe2da6c6	-0.1695815
180	0xbe761235	-0.24030383
181	0xbe8b8d5e	-0.27256292
182	0x3a8965dc	0.0010482627
183	0xbe727bf6	-0.236801
184	0xbe562980	-0.20914268
185	0x3bd21054	0.006410638
186	0xbca47e8e	-0.020079877
187	0x3ca88214	0.020569839
188	0xbe0c627b	-0.13709442
189	0xbe5bb300	-0.21455002
190	0xbd347af6	-0.044062577
191	0xbe250e78	-0.161188
192	0xbd0f8332	-0.035037227
193	0xbe413e63	-0.18871455
194	0xbdbf3d0c	-0.09337816
195	0xbe15cfa7	-0.14629994
196	0x3d19edca	0.03758029
197	0x3d535993	0.051599097
198	0xbe22e696	-0.15908274
199	0x3d9d2e4f	0.07674848
200	0xbc622f38	-0.013805203
201	0xbd99513f	-0.074861996
202	0xbe6e665e	-0.23281237
203	0xbe2720bf	-0.16321085
204	0xbdfc7c09	-0.12328345
205	0xbe23b9ff	-0.1598892
206	0xbaa67d00	-0.0012702048
207	0xbdea840a	-0.11450966
208	0xbdae6d72	-0.08516969
209	0xbe86ac0c	-0.26303136
210	0x3d61a7ab	0.05509154
211	0x3c75b853	0.01499756
212	0xbcbcaa60	-0.02303046
213	0xbe5a34b9	-0.21309175
214	0xbe585563	-0.21126322
215	0xbdac35e8	-0.08408719
216	0xbe4bda8d	-0.1990759
217	0x3e38ffba	0.18066302
218	0xbd0fab72	-0.035075612
219	0xbe0915db	-0.13387243
220	0xbe7c89fb	-0.2466201
221	0xbe2edee2	-0.1707721
222	0xbe613081	-0.21991159
223	0xbd6406a6	-0.055670403
224	0xbe4c38d1	-0.19943549
225	0xbc851af6	-0.016248208
226	0x3c8c3c15	0.017118493
227	0xbd714b6b	-0.058909815
228	0x3e3d7420	0.1850133
229	0xbe4d5b59	-0.20054378
230	0x3de840ef	0.1134051
231	0xbe60258c	-0.21889323
232	0xbc852907	-0.016254915
233	0xbe725d26	-0.23668346
234	0xbe3fd17f	-0.1873226
235	0xbe2c6e14	-0.16838866
236	0xbc371c18	-0.011176132
237	0xbd09e5aa	-0.03366629
238	0x3e2a3413	0.16621427
239	0xbc8dd841	-0.017315032
240	0x3d94f8cd	0.072740175
241	0xbdd433d1	-0.10361446
242	0x3d2a542a	0.04158417
243	0xbcb32904	-0.021870144
244	0x3d80967d	0.06278703
245	0xbe896400	-0.26834106
246	0xbcbbcf11	-0.022925885
247	0xbe52b07b	-0.20575134
248	0x3d7ee00a	0.06222538
249	0xbdd85e52	-0.10564865
250	0xbe315637	-0.17318045
251	0x3d603e77	0.05474707
252	0xbc05474f	-0.008134677
253	0xbd393830	-0.0452196
254	0x3d04e0d2	0.032440968
255	0x3cd63a9e	0.026150998

fc2.weight f4 [256, 256]
0	0xbd9e95b9	-0.07743401
1	0x3d38f6d0	0.045157254
2	0xbcbe476d	-0.023227418
3	0x3b825a20	0.003978029
4	0x3d88b8cc	0.06675872
5	0x3c17fffc	0.00927734
6	0x3d441bf1	0.04787821
7	0xbc5f9ab0	-0.01364772
8	0x3d856f24	0.06515339
9	0x3d9556b8	0.07291931
10	0xbdeb65ea	-0.11494048
11	0x3de95335	0.113928236
12	0x3c748f21	0.014926703
13	0x3cad9896	0.021190923
14	0x3c191f47	0.009345836
15	0x3c0ca08f	0.008583202
16	0x3c63a4cc	0.013894271
17	0xbcfff3ea	-0.031244237
18	0xbd46ab63	-0.04850329
19	0x3e039c18	0.12852514
20	0x3cce81c1	0.025208356
21	0x3c813cb9	0.015776025
22	0xbb1703e4	-0.002304309
23	0xbdaf08f4	-0.085466295
24	0xbdbbf33d	-0.091772534
25	0x3c467a08	0.012114055
26	0xbd86d1a2	-0.06582953
27	0x3c125472	0.008931266
28	0xbcae1c49	-0.021253722
29	0xbc0d5f8c	-0.008628737
30	0x3ce0cf52	0.027442608
31	0xbcb941c7	-0.022614373
32	0xbd1359e8	-0.035974413
33	0xbd090c6c	-0.033459112
34	0xbd0b4596	-0.03400191
35	0x3bd8db62	0.0066179493
36	0xbd098000	-0.033569336
37	0xba41df10	-0.00073956046
38	0xbc8537a2	-0.01626188
39	0xbe00fc58	-0.12596262
40	0x3d104e5c	0.03523098
41	0x3c988d52	0.018622074
42	0xbcd547a6	-0.026035141
43	0xbb01f238	-0.0019828212
44	0xbe089610	-0.13338494
45	0xbd9554e8	-0.07291585
46	0xbcac11b8	-0.021004543
47	0x3e239fcb	0.15978925
48	0x3cbb2fca	0.022849936
49	0x3cded8e8	0.027203038
50	0xbd3a725c	-0.045519218
51	0x3d0ffde8	0.035154253
52	0xbdd3fb1b	-0.10350629
53	0xbdb4939e	-0.08817218
54	0x3c7d4ee8	0.015460707
55	0xbcb63bbe	-0.022245284
56	0x3d06a8d4	0.03287585
57	0xbd8e1a9a	-0.069386676
58	0x3dd064d5	0.10175482
59	0x3cb03d59	0.021513628
60	0x3cdd5a29	0.02702053
61	0x3d66f08c	0.056381747
62	0x3d41db14	0.04732807
63	0x3d170f82	0.036880024
64	0xbcf61fe9	-0.030044513
65	0xbe31176b	-0.1729409
66	0xbe29edbc	-0.16594595
67	0xbd8d3664	-0.0689514
68	0xbdd75808	-0.105148375
69	0x3d88f085	0.066865005
70	0xbc0ce375	-0.008599152
71	0xbe1bbf43	-0.1520968
72	0x3cf7cd76	0.030249339
73	0x3e091dba	0.13390246
74	0x3c035ba6	0.008017456
75	0xbd977503	-0.07395365
76	0x3cd6b1b6	0.026207786
77	0x3cdb3da1	0.026762785
78	0x3da985c8	0.0827747
79	0xba870178	-0.001030012
80	0x3dbde326	0.09271841
81	0xbd8319d1	-0.064014085
82	0x3c336d31	0.010951326
83	0x3cf846bc	0.030307166
84	0x3c3a3fa9	0.011367717
85	0xbcb290b6	-0.02179752
86	0x3c8c081a	0.017093707
87	0xbd000cfe	-0.03126239
88	0x3d2609ab	0.040536564
89	0xbd7722fc	-0.060336098
90	0xbdf31577	-0.118693285
91	0xbd1c1e2d	-0.038114715
92	0x3d27dba8	0.040980965
93	0xbb9605da	-0.0045783343
94	0xbddb8bc4	-0.107200176
95	0xbdc345e2	-0.095348135
96	0x3c1c294f	0.009531333
97	0x3d3d27d5	0.046180565
98	0xbdd39e89	-0.103329726
99	0xbc876679	-0.016528355
100	0xbdddff18	-0.10839671
101	0xbdc33b48	-0.095327914
102	0xbd2eb3ae	-0.042651825
103	0x3c2d3c34	0.010573436
104	0xbe332ecf	-0.17498325
105	0x3d03116d	0.03199904
106	0xbde1065c	-0.10987541
107	0xbdce2e3a	-0.10067411
108	0xbd321ff4	-0.043487504
109	0x3d552b92	0.052043505
110	0x3cc973a4	0.024591275
111	0xbd9cfdb2	-0.07665576
112	0x3d9efb63	0.07762792
113	0x3d812681	0.06306172
114	0xbd4b28ea	-0.049599566
115	0x3abec00c	0.0014553084
116	0x3d20acb1	0.03922719
117	0xbd4ce54c	-0.050023362
118	0xbdfc68cd	-0.12324677
119	0xbcc6af53	-0.024253523
120	0x3cb89736	0.02253304
121	0x3cc78614	0.024355926
122	0xbc027628	-0.007962741
123	0x3e7f6712	0.24941662
124	0x3d2d77ef	0.042350706
125	0xbdba7da0	-0.09105992
126	0x3c00da64	0.007864568
127	0x3c96b28f	0.01839569
128	0xbe284223	-0.16431479
129	0x3c2728c7	0.010202593
130	0x3dba6a70	0.091023326
131	0x3de3d210	0.111240506
132	0xbdf0fda1	-0.11767126
133	0xbcc34086	-0.023834478
134	0xbddd83c9	-0.10816152
135	0x3d8e5a6d	0.06950841
136	0xbdcda7de	-0.10041784
137	0xbbba1756	-0.0056790514
138	0x3b43eead	0.00298969
139	0x3c5195a2	0.012792023
140	0x3cd5e7a9	0.02611144
141	0xbdddf45f	-0.10837626
142	0x3b611480	0.0034344494
143	0x3e0beb50	0.13663983
144	0x3d322317	0.043490496
145	0xbbdc5f94	-0.006725261
146	0xbdb4347b	-0.08799072
147	0xbc1dd060	-0.0096322
148	0x3c9991bc	0.01874625
149	0xbdcd4b27	-0.100241
150	0xbd7083b2	-0.058719344
151	0x3d1b3a8b	0.037897628
152	0xbd51d68d	-0.051230002
153	0xbd312de5	-0.04325666
154	0xb9e17180	-0.00042999908
155	0xbc92d9a2	-0.017926041
156	0xbe16a3dc	-0.14710945
157	0x3d348a00	0.04407692
158	0xbcee2538	-0.029070482
159	0x3cd831ea	0.026390988
160	0xbdad2312	-0.08453955
161	0xbc19020d	-0.009338868
162	0x3e24a6a4	0.16079193
163	0x3d2615c3	0.040548097
164	0x3bab8d0c	0.00523532
165	0xbcb1599c	-0.021649174
166	0x3b596e14	0.0033177184
167	0x3def09eb	0.116718136
168	0xbdcf2b49	-0.10115678
169	0xbd21ea6a	-0.039530195
170	0xbd982a1f	-0.07429909
171	0xbd56ef7b	-0.05247448
172	0x3b5940b0	0.003315013
173	0xbd298362	-0.041385062
174	0x3ca05881	0.019573452
175	0x3becaf70	0.007223062
176	0x3d182e1b	0.037153345
177	0xbebb5ac7	-0.36592695
178	0xbca31a31	-0.01990995
179	0x3e4cf52f	0.20015405
180	0xbd89d81d	-0.067306735
181	0x3d26615d	0.040620197
182	0xbe13a1dc	-0.14417213
183	0x3cb5311c	0.022118144
184	0xbde63d10	-0.112421155
185	0x3b1d6b60	0.00240203
186	0xbe13001c	-0.1435551
187	0xbcef3828	-0.029201582
188	0x3d038f5a	0.032119133
189	0x3d552fc4	0.052047506
190	0x3ba8f99a	0.005156708
191	0x3e5231ee	0.20526859
192	0x3d417285	0.047228355
193	0xbb037dc4	-0.0020063976
194	0x3cbcd697	0.023051543
195	0x3c9b0780	0.018924475
196	0xbdc57f64	-0.096434385
197	0xbd900bf5	-0.070335306
198	0xbdbf0aa5	-0.09328202
199	0x3ccbad7a	0.024862994
200	0xbd921731	-0.0713333
201	0xbdbe5be4	-0.092948705
202	0xbcbc1a9e	-0.02296191
203	0x3b173234	0.0023070695
204	0xbcf2cc3b	-0.0296384
205	0x3e170b61	0.14750434
206	0x3d6c9df8	0.05776784
207	0xbd3fefb0	-0.046859443
208	0x37aa5000	2.0302832e-05
209	0x3d7f793e	0.062371485
210	0x3d54c5c3	0.051946413
211	0xbcfad8ed	-0.030621016
212	0x3cc89a74	0.024487711
213	0xbd46aefe	-0.04850673
214	0xbcb7d37a	-0.022439707
215	0xbc0ee305	-0.008721118
216	0xbd87c53f	-0.066294186
217	0xbbc0966c	-0.0058773067
218	0x3c867bdc	0.016416483
219	0x3d49c9d5	0.049264748
220	0xbddc4254	-0.107548386
221	0x3dfce69d	0.123486735
222	0xbc533fbe	-0.012893615
223	0x3c991991	0.018688949
224	0xbcbee2bd	-0.023301477
225	0x3cad09d0	0.021122843
226	0x3d75c4f5	0.060002286
227	0x3e547d00	0.20750809
228	0xbef0a589	-0.47001293
229	0x3ceddee2	0.029036943
230	0xbebd3c46	-0.36960047
231	0xbdbfcc5a	-0.09365149
232	0xbbafa3a8	-0.0053600855
233	0x3cd29679	0.025706517
234	0xbb384294	-0.0028115856
235	0xbde5f87c	-0.11229035
236	0xbd696128	-0.05697742
237	0xbc42193a	-0.011846835
238	0xbea0dee8	-0.31420064
239	0x3dce503d	0.10073898
240	0xbc82f152	-0.015984211
241	0xbbfe1c2c	-0.007754823
242	0x3bfd714a	0.0077344524
243	0x3e0f5fe7	0.14001428
244	0x3c8b70bb	0.017021528
245	0xbda2b354	-0.079443604
246	0x3d22c739	0.039740775
247	0xbdb49768	-0.08817941
248	0x3b29e0d4	0.0025921362
249	0xbc912966	-0.017719936
250	0x3e976a68	0.2957337
251	0x3d02c7ae	0.03192871
252	0x3cb33b6a	0.021878917
253	0xbdbfa0be	-0.09356831
254	0xbcbe807b	-0.023254624
255	0xbd9fa558	-0.07795209

fc2.bias f4 [256]
0	0xbe0e3a46	-0.13889417
1	0xbe20974e	-0.15682718
2	0xbdab7dfe	-0.083736405
3	0xbd949bff	-0.072563164
4	0xbd745f16	-0.059660994
5	0xbdb1cf39	-0.08682103
6	0xbe0d8e97	-0.13823925
7	0xbe2374ee	-0.15962574
8	0x3cfcb7a8	0.030849293
9	0xbe2096fd	-0.15682597
10	0xbd8eb7e1	-0.06968666
11	0x3c2632ca	0.010143945
12	0xbe02bcfe	-0.12767407
13	0xbd1b5b6e	-0.03792899
14	0xbdf80fbc	-0.12112376
15	0xbde9b1fd	-0.11410902
16	0xbd2476ce	-0.040152363
17	0x3e241d71	0.16026856
18	0xbe467f92	-0.19384602
19	0xbd433c7a	-0.047665097
20	0x3d665e12	0.056242056
21	0xbe3c1e00	-0.18370819
22	0xbd30f1da	-0.043199398
23	0xbe1dd6e1	-0.15414001
24	0xbe479305	-0.19489677
25	0xbd78320a	-0.060594596
26	0xbe53f9b0	-0.20700717
27	0xbe467aae	-0.19382736
28	0xbe326d7d	-0.17424579
29	0xbcf53f66	-0.029937457
30	0xbe0fef5f	-0.14056157
31	0x3e339874	0.17538625
32	0xbe5ee4c2	-0.21766952
33	0xbdddeb89	-0.108359404
34	0xbc8f8e6e	-0.01752397
35	0xbda94496	-0.08265035
36	0xbd9679c1	-0.073474415
37	0xbdfcd848	-0.1234594
38	0x3d3aaf6c	0.04557745
39	0xbdb3dff9	-0.08782954
40	0xbd775b8e	-0.060390048
41	0xbd4db812	-0.05022437
42	0x3d754128	0.05987659
43	0xbda61b85	-0.08110718
44	0x3ebf1d59	0.37327078
45	0xbe837851	-0.25677732
46	0xbd690fbe	-0.05689978
47	0xbe7fcbe9	-0.2498013
48	0xbe59deb5	-0.21276362
49	0xbe07156a	-0.13191763
50	0xbe022736	-0.1271027
51	0xbc9d0511	-0.019167455
52	0xbe25d87a	-0.1619586
53	0xbe2ac8a4	-0.16678101
54	0x3dca2cd2	0.0987183
55	0x3da7857e	0.081797585
56	0x3ea5cf15	0.32384554
57	0x3d7e3d12	0.06206996
58	0xbe3f8811	-0.18704249
59	0xbd5fb314	-0.05461414
60	0x3d7e8f2e	0.062148266
61	0xbe5cd11b	-0.21564142
62	0xbe86b2c1	-0.26308253
63	0xbd30345d	-0.043018688
64	0xbdb04a6f	-0.08607947
65	0xbcce56cd	-0.025187874
66	0xbe5796f1	-0.21053673
67	0xbe17047a	-0.14747801
68	0xbe204571	-0.1565149
69	0xbdd1b16b	-0.10238918
70	0xbe3fe11b	-0.18738215
71	0xbd661ea7	-0.056181576
72	0xbd499e2e	-0.049223118
73	0xbc54e87d	-0.012994883
74	0xbe1cf1fd	-0.15326686
75	0x3c47c561	0.012193055
76	0xbe6c7814	-0.23092681
77	0xbe3041c6	-0.1721259
78	0xbe2ff4a9	-0.17183174
79	0x3e9779e4	0.29585183
80	0xbe48eb37	-0.19620977
81	0xbd4b3751	-0.0496133
82	0xbd881da7	-0.06646281
83	0xbda30621	-0.07960153
84	0xbe84f045	-0.2596456
85	0xbe7f1b75	-0.24912818
86	0xbdfb268b	-0.12263211
87	0xbcf0dff8	-0.029403672
88	0xbe1c05a9	-0.15236534
89	0xbe646a22	-0.22306111
90	0xbe498561	-0.19679786
91	0xbe59fab7	-0.21287046
92	0xbe2fcc0f	-0.17167686
93	0xbe43ef24	-0.19134194
94	0xbd5c0d12	-0.053723402
95	0xbd50b0a4	-0.050949708
96	0xbd7f2d67	-0.06229916
97	0xbe249d3e	-0.16075608
98	0x3e8c7a13	0.27436885
99	0x3e9c5818	0.3053596
100	0x3ded7e69	0.115963764
101	0x3e35042b	0.17677371
102	0xbe2eeab1	-0.17081715
103	0xbe102178	-0.14075267
104	0xbcbc8a02	-0.023015026
105	0xbe140d9c	-0.14458317
106	0xbe2a6c43	-0.16642861
107	0xbe689adf	-0.22715329
108	0xbc31b5d2	-0.010846572
109	0x3bf52dbc	0.0074822586
110	0xbd31d5f2	-0.043416925
111	0xbcfa9f6f	-0.030593602
112	0xbe197b5a	-0.14988461
113	0xbe980be2	-0.29696566
114	0x3d2e0bc8	0.042491704
115	0xbd840737	-0.064466886
116	0xbe312f1e	-0.1730313
117	0x3d00ba90	0.03142792
118	0x3c75eb24	0.015009675
119	0xbd6abcd3	-0.057308983
120	0xbe2801f9	-0.16407003
121	0xbdd79db4	-0.10528126
122	0xbda13ae4	-0.078725606
123	0xbe05a5c2	-0.13051513
124	0xbe53510d	-0.20636387
125	0xbd917698	-0.07102698
126	0xbe71f5dc	-0.23628944
127	0xbde794b0	-0.11307657
128	0xbe132c92	-0.14372471
129	0xbd1b090c	-0.037850425
130	0x3d3cc1a6	0.046083115
131	0xbea333dc	-0.31875503
132	0xbe9286d6	-0.28618497
133	0xbd981f8a	-0.074278906
134	0xbdfaa4aa	-0.122384384
135	0xbe07251b	-0.13197748
136	0xbe94f034	-0.2908951
137	0x3ae42aa8	0.0017407732
138	0xbd96ebac	-0.073691696
139	0x3e33e102	0.17566302
140	0x3e8786ff	0.2647018
141	0xbd793fb2	-0.06085176
142	0xbe82a3c2	-0.25515562
143	0xbe1bcb59	-0.1521429
144	0xbdfb343b	-0.122658215
145	0x3da64b10	0.08119786
146	0xbdeb409a	-0.11486931
147	0xbd977f26	-0.073972985
148	0xbe1d72d8	-0.1537584
149	0xbdeff6a3	-0.11716964
150	0xbd888979	-0.06666846
151	0xbd7edb13	-0.062220644
152	0xbe20cc96	-0.15703043
153	0xbe00e330	-0.12586665
154	0x3e34a8f5	0.17642577
155	0xbcebc310	-0.028779536
156	0xbdebfe2f	-0.11523091
157	0xbd855403	-0.065101646
158	0x3e57f704	0.21090323
159	0xbd8bc172	-0.06824006
160	0x3e1bc3cd	0.15211411
161	0x3be9f3d5	0.0071396627
162	0xbdbb5ce1	-0.091485746
163	0xbcea7d4a	-0.028624196
164	0xbcd620d3	-0.026138699
165	0xbe0e220b	-0.13880174
166	0xbe868627	-0.26274225
167	0xbe73aebe	-0.23797128
168	0x3e16c9d5	0.1472543
169	0xbdbeb626	-0.09312086
170	0xbe0be2f9	-0.13660802
171	0xbdc4a561	-0.09601856
172	0xbe0b2b89	-0.13590826
173	0xbd61d9b0	-0.055139244
174	0xbe127b01	-0.14304735
175	0xbdaa8b2f	-0.083273284
176	0x3e8801aa	0.2656377
177	0x3cdd3c23	0.027006214
178	0xbe1d4b83	-0.15360837
179	0xbd791d8f	-0.060819205
180	0xbe121c06	-0.14268503
181	0x3e57a138	0.21057594
182	0xbe6954ac	-0.22786206
183	0xbdc3127a	-0.095250085
184	0xbe8f11cd	-0.27943268
185	0xbe187aff	-0.1489067
186	0xbe230add	-0.15922113
187	0xbe915090	-0.28381777
188	0x3e271ccf	0.16319583
189	0xbe284e23	-0.16436057
190	0xbc8a949a	-0.016916562
191	0xba056f80	-0.0005090162
192	0xbdf6942b	-0.120399795
193	0xbd728a0a	-0.059213676
194	0xbd2ab911	-0.0416804
195	0xbe4bafb3	-0.19891243
196	0x3e28e87e	0.16494939
197	0xbe1f0379	-0.15528668
198	0xbe6c97b2	-0.23104742
199	0xbdbb8f92	-0.09158243
200	0xbdb2cd75	-0.08730594
201	0xbe5796fe	-0.21053693
202	0x3ed111b3	0.40833816
203	0xbe4e81cf	-0.20166706
204	0xbe454fac	-0.19268674
205	0xbcadee44	-0.021231778
206	0x3d9fb380	0.07797909
207	0xbdfa1252	-0.122105256
208	0xbe657ee4	-0.22411686
209	0x3eb98579	0.36234644
210	0xbe0baf21	-0.13641025
211	0xbdf408ba	-0.11915727
212	0x3ce0748d	0.027399326
213	0xbd184c34	-0.037182048
214	0xbe4e0de6	-0.2012249
215	0xbe7346a0	-0.2375741
216	0xbdbb5ae4	-0.091481954
217	0xbe25e680	-0.1620121
218	0xbe2efa36	-0.17087635
219	0x3bdc6338	0.006725695
220	0xbdd94f40	-0.10610819
221	0x3decf2ca	0.11569746
222	0xbe23ce0d	-0.15996571
223	0xbd553128	-0.052048832
224	0x3dd7497c	0.10512063
225	0xbd51323f	-0.05107331
226	0xbdf53698	-0.119733036
227	0xbe1451af	-0.14484285
228	0xbdc5fe79	-0.096676774
229	0xbe506ccb	-0.20354001
230	0x3b78ac24	0.00379444
231	0xbda1634b	-0.07880267
232	0xbd0fca7d	-0.035105217
233	0xbe2e5140	-0.17023182
234	0xbe5e0616	-0.21682009
235	0x3d410592	0.047124453
236	0xbd5b918d	-0.053605605
237	0xbe32d9b1	-0.17465855
238	0x3d008fec	0.031387255
239	0xbe04e163	-0.12976603
240	0x3bacd878	0.0052748285
241	0xbe024f17	-0.12725483
242	0x3db958bb	0.09050127
243	0xbe8457f8	-0.25848365
244	0xbd6c21b8	-0.057649344
245	0xbd83b7c1	-0.06431533
246	0x3e2fe102	0.17175677
247	0xbe5ea678	-0.2174319
248	0x3dce8fe5	0.100860395
249	0xbe867c3e	-0.26266664
250	0xbe65ed95	-0.22453912
251	0xbe70c32d	-0.23511954
252	0x3c1bbbd2	0.009505229
253	0xbe9d6966	-0.30744475
254	0xbe2c93e5	-0.16853292
255	0xbe187aaa	-0.14890543

fc3.weight f4 [256, 256]
0	0xbddbdf1d	-0.10735915
1	0xbd8a52a0	-0.06754041
2	0xbd7fb24c	-0.062425897
3	0x3ca1396a	0.019680697
4	0xbe241637	-0.160241
5	0xbd80ddfe	-0.06292342
6	0x3cb07dee	0.021544423
7	0x3d1b4056	0.037903152
8	0xbc1add1a	-0.009452129
9	0xbdb15722	-0.086591974
10	0xbc9fe42c	-0.01951798
11	0xbc458a72	-0.012056934
12	0xbcc40370	-0.02392742
13	0xbdca1bb0	-0.09868562
14	0x3cb9bc43	0.022672778
15	0xbdae4c6a	-0.085106686
16	0x3a931918	0.0011222688
17	0xbdd61abc	-0.10454318
18	0xbc886aac	-0.016652428
19	0xbdd84cd4	-0.10561529
20	0x3c18c727	0.009324825
21	0x3d1cb8c5	0.038262147
22	0xbd06cad9	-0.032908294
23	0x3d691c33	0.05691166
24	0xbd881be6	-0.06645946
25	0x3d050557	0.032475796
26	0xbdbdf572	-0.092753306
27	0x3ca659c4	0.020306475
28	0x3c01fd45	0.007933919
29	0xbcab134e	-0.020883229
30	0x3cf2a294	0.029618539
31	0x3c0f380c	0.00874139
32	0xbc05218e	-0.008125676
33	0xbdf8ea39	-0.121540494
34	0xbd0f7578	-0.035024136
35	0xbcee8fc0	-0.02912128
36	0xbe00ec06	-0.12590036
37	0x3c01cff5	0.007923116
38	0xbe26bfff	-0.16284178
39	0x3bc9625e	0.0061457595
40	0x3cd989c6	0.026554953
41	0xbae3b590	-0.0017372835
42	0x3d29abdb	0.04142366
43	0x3c995334	0.018716432
44	0xbd2c99f3	-0.042139005
45	0xbca1a310	-0.019731075
46	0xbd95b209	-0.07309348
47	0xbd1f736c	-0.038928434
48	0xbcc28b28	-0.023747995
49	0xbc4373a8	-0.01192943
50	0xbd97ffc5	-0.07421831
51	0xbcb4ca30	-0.022069067
52	0x3ca07532	0.019587133
53	0xbe295db3	-0.1653965
54	0xbc1764a7	-0.009240306
55	0xbd2bfc67	-0.041988757
56	0xbc97dd79	-0.018538224
57	0x3cda987c	0.026684038
58	0xbcd5d1d8	-0.026101038
59	0xbc17bae4	-0.009260867
60	0x3ccbb6c0	0.024867415
61	0xbd752874	-0.059853032
62	0xbd267e3d	-0.040647734
63	0xbaab43b8	-0.0013066446
64	0x3c4aacdc	0.012370314
65	0xbe0431a0	-0.12909555
66	0xbca1d82e	-0.019756403
67	0x3caae77f	0.020862339
68	0xbd85a992	-0.065264836
69	0xbcc49f7e	-0.024001833
70	0xbc7e3e7e	-0.015517829
71	0xbc61937d	-0.013768074
72	0xbc9fa49c	-0.019487672
73	0xbd0eb47d	-0.034840096
74	0xbb9831a0	-0.0046445876
75	0x3be98282	0.0071261534
76	0x3d3e9e9a	0.046537973
77	0x3ce6a61e	0.028155383
78	0x3c5ea558	0.013589226
79	0xbd41d794	-0.047324732
80	0x3cfd9aa8	0.030957535
81	0x3d313a84	0.043268695
82	0x3d1fa5e0	0.03897655
83	0xbdd0dc5c	-0.1019828
84	0x3d38dae0	0.04513061
85	0xbdb74749	-0.089491434
86	0xbd47040f	-0.048587855
87	0x3ca88f7c	0.020576231
88	0xbe1aa7f7	-0.15103136
89	0xbcf7f124	-0.030266352
90	0xbcb68c1c	-0.022283606
91	0xbcb71f45	-0.022353778
92	0xbde428ac	-0.1114057
93	0xbdfb2be5	-0.122642316
94	0x3d250029	0.040283356
95	0x3b3a462c	0.0028423173
96	0x3d3410b9	0.04396126
97	0xbbade97c	-0.0053073745
98	0xbc9a6b3c	-0.018849961
99	0xbdc3b034	-0.095550925
100	0xbb882f4a	-0.004156028
101	0xbd1066a4	-0.035254136
102	0xbe1425fd	-0.14467616
103	0xbd6970e9	-0.056992445
104	0x3d09029d	0.033449758
105	0xbc5389ac	-0.0129112415
106	0xbd35357e	-0.044240467
107	0xbdbe876f	-0.09303176
108	0x3c0e8100	0.008697748
109	0xbd079d3e	-0.033108942
110	0xba3b3120	-0.0007140804
111	0x3cf3f4ca	0.02977981
112	0x3bdcdb5c	0.006740017
113	0x3ad29a98	0.0016067801
114	0xbcd20589	-0.025637405
115	0xbd0d71f3	-0.0345325
116	0x3d18d365	0.037310977
117	0xbe008901	-0.12552263
118	0xbbee179a	-0.007265997
119	0x3c9b264c	0.01893916
120	0xbc96794f	-0.018368391
121	0x3c9a14a4	0.01880867
122	0xbdace7e2	-0.08442666
123	0xbb90e778	-0.0044221245
124	0xbe06911d	-0.13141294
125	0xbda20f1c	-0.07913038
126	0xbe43bf3b	-0.19115917
127	0x3be30438	0.006927993
128	0x3d36e487	0.044651534
129	0xbcc246bd	-0.023715371
130	0x3b85be62	0.0040815333
131	0x3cbb72aa	0.022881825
132	0xbd8194a2	-0.063271776
133	0xbcbaf685	-0.022822628
134	0xbbf1579e	-0.007365181
135	0xbc99521d	-0.018715912
136	0xbcaeed6e	-0.02135345
137	0xbcc4f7c8	-0.024043933
138	0xbd86c83b	-0.0658116
139	0xbb698f08	-0.0035638232
140	0xbd657f32	-0.056029506
141	0x3d2d6b20	0.04233849
142	0x3c21bbda	0.009871447
143	0xbde92d90	-0.113856435
144	0xbd858032	-0.06518592
145	0x3d45ff74	0.048339322
146	0xbcab2e01	-0.02089596
147	0xbe0bb9a8	-0.13645041
148	0x3b394c9c	0.0028274423
149	0x3bd9899c	0.006638719
150	0xbcb800b5	-0.022461275
151	0x3a6c7248	0.0009019715
152	0x3d5fac53	0.0546077
153	0xbce3af7b	-0.027793637
154	0xbe19223e	-0.14954469
155	0x3c3429aa	0.010996262
156	0xbc12b56d	-0.008954388
157	0xbd0332d0	-0.03203088
158	0x3d0158b2	0.031578727
159	0x3bee30e6	0.0072690127
160	0xbdc62b6a	-0.09676249
161	0xbc62f10e	-0.013851417
162	0x3d0dc5f2	0.034612603
163	0xbdd3688f	-0.10322677
164	0xbce02fb5	-0.027366498
165	0x3b2e798c	0.002662274
166	0xbc34bab3	-0.011030841
167	0x3d636262	0.055513747
168	0x3cf9558c	0.0304363
169	0x3cb05058	0.021522686
170	0xbc0f8486	-0.008759623
171	0xbdd0162a	-0.101604775
172	0xbdadb708	-0.08482176
173	0xbe18b7e8	-0.14913905
174	0xbca50270	-0.020142764
175	0xbb8ece8c	-0.0043581184
176	0x3d1fdc52	0.039028473
177	0x3c89ce96	0.01682214
178	0x3c102e1c	0.008800056
179	0x3d39b6c3	0.04534031
180	0x3cbe7ef9	0.023253905
181	0x3c5bba28	0.013411082
182	0xbdab86ec	-0.08375344
183	0xbc495f76	-0.012290826
184	0xbdecbaae	-0.11559044
185	0x3c4c4754	0.012468178
186	0xbd582504	-0.052769676
187	0xbdb86556	-0.09003703
188	0x3cc109b0	0.02356419
189	0x3cc17cc6	0.023619067
190	0x3cc14080	0.023590326
191	0xbc2fc7d8	-0.010728799
192	0x3d80b8a5	0.06285218
193	0xbdf1e72c	-0.11811671
194	0xbc0ec09c	-0.008712914
195	0xbddfcab0	-0.109273314
196	0xbd0a6136	-0.033784114
197	0xbdc60865	-0.0966957
198	0xbbcb35da	-0.006201488
199	0xbcab720c	-0.020928405
200	0xbc854912	-0.016270194
201	0x3d02c6b2	0.031927772
202	0x3d444874	0.04792066
203	0x3c62ff16	0.013854763
204	0x3bcf2591	0.006321617
205	0x3c68af42	0.014201941
206	0xbd58db92	-0.052943774
207	0xbe59b234	-0.21259385
208	0xbda35eb1	-0.07977045
209	0x393fdb40	0.00018296856
210	0xbd94afbc	-0.07260081
211	0x398442e0	0.00025226828
212	0x3c652dfc	0.013988014
213	0xbd266d41	-0.040631536
214	0xbc539676	-0.012914291
215	0xbdb877c2	-0.09007217
216	0xbdd134c2	-0.10215141
217	0x3d3ae2ab	0.045626324
218	0xbd6b2a93	-0.05741365
219	0xbc9183b6	-0.017763
220	0xbd0520c7	-0.032501962
221	0x3cbc113c	0.022957437
222	0x3cc49260	0.023995578
223	0xbdd705b6	-0.10499136
224	0xbcb2b75e	-0.021815952
225	0xbdae8118	-0.085207164
226	0x3c56af8d	0.013103378
227	0x3adbde10	0.0016774554
228	0x3ba61e68	0.0050695427
229	0x3bb08856	0.0053873463
230	0xbdaec863	-0.085343145
231	0xbbc7c1e6	-0.0060961125
232	0x3d1629bb	0.03666089
233	0x3d50b7c4	0.050956503
234	0xbd3c2cb0	-0.045941055
235	0x3c971ecb	0.0184473
236	0xbdc10c38	-0.09426159
237	0xbe10f609	-0.14156355
238	0x3c49f1ef	0.012325748
239	0xbdceb170	-0.10092437
240	0xbc071726	-0.008245265
241	0x3baf054e	0.0053412085
242	0x3c129167	0.008945799
243	0x3d02378a	0.031791247
244	0xbdd9ad8f	-0.10628807
245	0xbd9f4698	-0.077771366
246	0xbe0fa3eb	-0.14027373
247	0x3d39647a	0.045261838
248	0xbdcc3f84	-0.09973052
249	0xbe022d33	-0.12712555
250	0xbd26f19b	-0.040757757
251	0xbde7b579	-0.1131391
252	0x39cb6820	0.00038796756
253	0xbdbb14b1	-0.09134806
254	0x3cecf941	0.028927447
255	0xbccaf7d8	-0.024776384

fc3.bias f4 [256]
0	0xbbd87d66	-0.0066067455
1	0xbda45064	-0.08023146
2	0xbccd9de2	-0.025099698
3	0x3e22026e	0.1582124
4	0xbc05e492	-0.008172171
5	0x3da2ec84	0.07955268
6	0xbda9b292	-0.08286013
7	0x3e653b85	0.22385986
8	0x3e9e9a66	0.30977172
9	0x3eaebf3f	0.34130284
10	0xbd3d3240	-0.0461905
11	0x3e8a0dbc	0.26963603
12	0xbdb8b31a	-0.09018536
13	0x3e80aabf	0.2513027
14	0xbb28bb9c	-0.002574659
15	0xbe2cc40e	-0.16871664
16	0xbd240e7b	-0.040052872
17	0x3e50ecc8	0.20402825
18	0x3e8803d7	0.2656543
19	0x3ce8ca7e	0.028416868
20	0xbde837c7	-0.11338764
21	0x3d437ed0	0.04772836
22	0x3e924384	0.28567135
23	0x3d1cac81	0.03825045
24	0xbd2c30d4	-0.042038754
25	0x3e331244	0.17487437
26	0xbe64763a	-0.22310725
27	0xbdb11646	-0.086468264
28	0x3d755243	0.059892904
29	0x3ed63885	0.41839996
30	0x3d997f76	0.07495014
31	0xba81163c	-0.0009848545
32	0x3df1d818	0.11808795
33	0x3cc6eb17	0.024282021
34	0xbcbce392	-0.023057733
35	0xbdb2ff86	-0.087401435
36	0x3e0669a7	0.1312624
37	0xbd55f678	-0.052237004
38	0x3da02ec7	0.07821422
39	0x3e082df2	0.13298777
40	0xbc3e3ff5	-0.011611928
41	0x3d63440d	0.05548482
42	0x3d879200	0.06619644
43	0xbcd156d5	-0.0255541
44	0x3d10b4d4	0.0353287
45	0x3ca9814f	0.020691542
46	0xbd7d2858	-0.061806053
47	0x3e06bf2e	0.13158867
48	0x3d0a45a8	0.033757836
49	0x3d11d4f5	0.035603482
50	0x3e3fb144	0.18719965
51	0x3e47ddd9	0.19518222
52	0x3e03e702	0.12881091
53	0xbe281fb8	-0.1641835
54	0xbdbf6ea2	-0.093472734
55	0x3e3c5052	0.18390015
56	0x3c40a6ad	0.011758489
57	0x3cf248f2	0.029575799
58	0xbd7efefb	-0.062254887
59	0x3eb79ca0	0.35861683
60	0x3df678eb	0.12034782
61	0x3eb81038	0.35949874
62	0x3b2c7490	0.0026314594
63	0x3ca547f7	0.020175917
64	0xbc41387b	-0.011793251
65	0xbde7da7a	-0.11320968
66	0x3d9f41ea	0.07776244
67	0x3e10e6e3	0.14150576
68	0xbc8569f0	-0.016285866
69	0x3d844d18	0.06460017
70	0xbd2e1dfd	-0.042509068
71	0x3dbdc490	0.09266007
72	0xbdb0e165	-0.086367406
73	0xbc2101d8	-0.0098271
74	0x3e032625	0.1280752
75	0xbc55e707	-0.0130555695
76	0xbdd231e8	-0.10263425
77	0x3d8891fd	0.0666847
78	0x3eb68813	0.3565069
79	0xbdfadcae	-0.122491226
80	0x3cc0e073	0.023544526
81	0x3e0b40d6	0.13598952
82	0xbda80fbd	-0.08206127
83	0x3d495678	0.04915473
84	0x3d025629	0.03182045
85	0x3c905286	0.017617475
86	0xbd2b205b	-0.041778903
87	0xbd1fbc62	-0.038998015
88	0xbb025e14	-0.00198925
89	0x3d0351ba	0.032060362
90	0xbc8ff92e	-0.017574873
91	0xbdc754a6	-0.09732942
92	0x3e050e4b	0.12993734
93	0x3c4cab18	0.012491964
94	0x3cd42fc0	0.025901675
95	0x3d3f5e4c	0.046720788
96	0x3e98e66c	0.29863298
97	0x3c6bd899	0.014394903
98	0xbda169fd	-0.07881544
99	0xbc82bc38	-0.01595889
100	0x3d6ba808	0.057533294
101	0x3e54ed26	0.2079359
102	0x3a628ea0	0.00086424686
103	0x3e23053c	0.15919966
104	0x3e64e7e8	0.2235409
105	0x3ea6f3aa	0.32607776
106	0x3e21e19f	0.15808724
107	0xbd21b3a5	-0.039477963
108	0xbc9b8042	-0.018982057
109	0x3deb92ba	0.11502595
110	0x3dfa2190	0.12213433
111	0x3da497b3	0.08036747
112	0x3e3021a9	0.1720034
113	0xbdbac175	-0.0911893
114	0xbdd25fdc	-0.1027219
115	0x3ceca5eb	0.02888771
116	0x3ccdd55f	0.025126157
117	0x3e28fc6f	0.16502546
118	0x3e0937b2	0.13400152
119	0xbdc172f4	-0.09445754
120	0xbde19bff	-0.11016082
121	0x3e5f2c79	0.21794309
122	0x3ce8d2ec	0.028420888
123	0x3ecd27b2	0.40069348
124	0xbbbbbcf6	-0.005729313
125	0xbd90f64d	-0.07078228
126	0x3e97b1aa	0.29627734
127	0xbd348280	-0.044069767
128	0x3d19ad7d	0.037518967
129	0x3e183356	0.14863333
130	0xbb1208d0	-0.0022283085
131	0x3e00ea10	0.12589288
132	0xbc8a8b92	-0.016912255
133	0x3e84b1f4	0.25917017
134	0xbc49184c	-0.012273859
135	0x3de2bfae	0.11071716
136	0x3e1e6c1e	0.15470931
137	0x3e2a75d9	0.16646518
138	0xbe36d73a	-0.1785554
139	0x3edafe33	0.42772064
140	0xbc8888d6	-0.016666811
141	0xbe2e2d29	-0.17009415
142	0xbd77cdaa	-0.06049887
143	0x3dbabc84	0.09117988
144	0x3cde7f8c	0.027160428
145	0x3e17df0e	0.14831182
146	0x3b92e7c6	0.004483196
147	0xbdc9ec38	-0.09859508
148	0x3e77e727	0.24209271
149	0x3de7455e	0.112925276
150	0x3d83c3c4	0.06433824
151	0x3e07fb90	0.13279557
152	0x3e8e9880	0.27850723
153	0x3c9c6862	0.019092742
154	0x3e051912	0.12997845
155	0x3e89771c	0.26848686
156	0xbd9e34cb	-0.07724913
157	0x3e84954c	0.25895154
158	0x3a453740	0.00075231865
159	0xbcf0328c	-0.029320978
160	0x3dc1d032	0.09463538
161	0xbd1562fa	-0.036471345
162	0xbd75655a	-0.05991111
163	0x3cd7dbb4	0.02634988
164	0xbd8cb57b	-0.06870552
165	0xbdbd5ddf	-0.0924642
166	0xbd1feb58	-0.0390428
167	0x3dfcdde3	0.12347009
168	0x3db78e37	0.08962672
169	0xbcfa6c79	-0.030569302
170	0x3cfb4d2e	0.03067645
171	0x3e1b2214	0.15149719
172	0xbe07e4f4	-0.13270932
173	0x3e0a6aeb	0.13517348
174	0xbd685328	-0.05671993
175	0xbd9ec649	-0.07752664
176	0x3c744f20	0.014911443
177	0xbc7d0cd8	-0.015444957
178	0x3d2ec0ee	0.04266446
179	0xbca74cc4	-0.020422347
180	0x3d7e8204	0.06213571
181	0xbdac93aa	-0.08426602
182	0x3de2382d	0.11045871
183	0xbbece6bc	-0.007229654
184	0x3d97fc59	0.07421178
185	0x3d84b0a1	0.06479002
186	0x3e0f02a0	0.13965845
187	0x3e989e69	0.29808357
188	0x3e393c98	0.18089521
189	0xbda735ca	-0.08164556
190	0x3d031bbe	0.03200888
191	0x3e91ad4f	0.28452536
192	0xbdc858d3	-0.09782567
193	0x3dd9f7fb	0.10643002
194	0x3dcf145f	0.10111307
195	0x3e4d63e2	0.20057634
196	0x3df0b1e5	0.11752681
197	0x3d2d6d04	0.042340294
198	0xbd7116f6	-0.058859788
199	0xbd57c56c	-0.05267851
200	0x3e8a457d	0.2700614
201	0x3c9980a1	0.018738093
202	0xbd821c7f	-0.063530914
203	0x3ddda533	0.10822525
204	0xbd3930e9	-0.04521266
205	0x3d87f22d	0.06637988
206	0x3eb41299	0.3517044
207	0xbd067482	-0.032825954
208	0x3baf90a2	0.0053578177
209	0x3dad7a11	0.08470548
210	0x3e0553f6	0.1302031
211	0xbb2d3110	-0.0026426949
212	0x3cff3247	0.031151904
213	0x3e3d2daf	0.18474458
214	0x3cb55e64	0.022139736
215	0xbe0aeba4	-0.13566452
216	0x3dee6397	0.11640089
217	0x3d89846e	0.06714712
218	0x3d4fce0b	0.050733607
219	0x3d0ffebc	0.035155043
220	0x3d6b7fbe	0.05749487
221	0x3ea673a1	0.32510093
222	0xbe07361b	-0.13204233
223	0x3e1d9aaf	0.15391038
224	0xbe6bd8ff	-0.23031996
225	0xbd9e9fd4	-0.077453285
226	0xbb5680e4	-0.0032730633
227	0xbd887058	-0.06662053
228	0x3e9f26d5	0.31084314
229	0x3d849dea	0.06475432
230	0xbcc68bc0	-0.02423656
231	0x3ccf46ec	0.025302373
232	0x3cc427ff	0.023944853
233	0x3d2ef36d	0.042712618
234	0x3e1e22c5	0.15442951
235	0x3ead1e4c	0.33812177
236	0xbd7779d8	-0.060418934
237	0x3d01064a	0.03150014
238	0x3e4f1bd7	0.20225464
239	0x3e26b8c0	0.16281414
240	0x3da6f2a0	0.08151746
241	0x3d3ad04a	0.045608796
242	0x3e0207d4	0.12698299
243	0x3e598bbb	0.21244709
244	0xbde42595	-0.11139981
245	0xbd7fc7e2	-0.062446482
246	0xbdc1fa42	-0.09471561
247	0x3e588189	0.21143164
248	0xbd7726e0	-0.06033981
249	0x3e1a4ae4	0.15067631
250	0x3d1bc898	0.038033098
251	0x3cf81548	0.030283585
252	0xbe352201	-0.17688753
253	0x3e31b6af	0.17354845
254	0x3eaa5f15	0.33275667
255	0x3ea31fc3	0.3186017

fc4.weight f4 [1, 256]
0	0x3e840d0a	0.25791198
1	0x3e8434e8	0.25821614
2	0x3d3e6a2a	0.046487965
3	0x3e6b1fd0	0.22961354
4	0x3e800995	0.2500731
5	0x3e3218ea	0.17392316
6	0xbc2f28af	-0.010690852
7	0xbc27d717	-0.0102441525
8	0x3c06008a	0.008178839
9	0x3cb58e7a	0.022162665
10	0xbd5cb374	-0.053882077
11	0xbd017789	-0.03160814
12	0x3db46d2b	0.08809885
13	0x3db3ef64	0.087858945
14	0x3e845a33	0.25850067
15	0x3da3f98c	0.08006582
16	0x3e361e3f	0.17784975
17	0x3cab0d0d	0.020880247
18	0x3cf21b2c	0.029553972
19	0xbe1e5455	-0.15461858
20	0x3e365172	0.17804506
21	0x3c560e05	0.013064866
22	0x3dfb4668	0.12269288
23	0x3e62bd12	0.22142437
24	0xbe2a1166	-0.166082
25	0xbd718242	-0.058962114
26	0x3e1823f2	0.14857462
27	0x3d43c16d	0.047791887
28	0xbdcbb3ef	-0.09946429
29	0x3d51d943	0.051232588
30	0xbd57277b	-0.052527886
31	0xbe14622a	-0.14490572
32	0xbdac49a6	-0.08412485
33	0xbe20dc5f	-0.15709065
34	0x3e84e3ae	0.25954956
35	0xbe019883	-0.12655835
36	0xbd54b145	-0.05192687
37	0xbe1516b1	-0.14559437
38	0x3b2b0dfc	0.0026100865
39	0x3b0a6654	0.0021118121
40	0x3e0f29ea	0.13980833
41	0x3e143a9b	0.14475481
42	0xbd243544	-0.04008986
43	0x3e5b0f43	0.2139254
44	0xbe339ea4	-0.17540985
45	0x3e853ec1	0.2602444
46	0x3e442bad	0.19157286
47	0xbd8c1cd5	-0.06841437
48	0x3e853f66	0.26024932
49	0xbe21a99e	-0.1578736
50	0x3a3c1360	0.0007174518
51	0x3ddab1d4	0.10678449
52	0x3d737f5d	0.059447635
53	0x3cd8f162	0.026482288
54	0x3e4ca9ef	0.199867
55	0x3e3754fa	0.1790351
56	0x3e6bf223	0.23041587
57	0xbe3a1959	-0.18173732
58	0x3e3b865d	0.18312974
59	0x3cdd2166	0.026993465
60	0x3e54dd65	0.2078758
61	0x3e172f9f	0.1476426
62	0xbe28d7d3	-0.1648858
63	0x3e852925	0.26007953
64	0x3c9ebf18	0.01937823
65	0x3d40e3e4	0.047092333
66	0x3e180dc2	0.14848998
67	0xbd82fd29	-0.06395943
68	0x3db704b4	0.08936444
69	0xbc7264ef	-0.014794572
70	0x3e81c67c	0.25346744
71	0x3e05bd74	0.13060552
72	0x3d3cff58	0.046141952
73	0x3d391035	0.04518147
74	0xbd40e580	-0.04709387
75	0x3e84c13b	0.25928673
76	0x3d409cd0	0.047024548
77	0x3e3cec6e	0.18449566
78	0x3d0ed8af	0.034874614
79	0x3ba0ed67	0.004911113
80	0xbe33a60a	-0.17543808
81	0xbcf7038e	-0.030153062
82	0xbda8a27d	-0.08234117
83	0xbdf9900c	-0.12185678
84	0xbe2582cb	-0.16163175
85	0x3e84a46f	0.25906703
86	0x3ca7bbfb	0.020475378
87	0xbddbacde	-0.10726331
88	0xbd9741d3	-0.07385602
89	0x3e830a82	0.25593954
90	0xbd3e523b	-0.04646514
91	0x3e51909b	0.20465319
92	0xbd6a90f6	-0.05726715
93	0xbd62bd8e	-0.055356555
94	0x3e83a811	0.25714162
95	0x3e792980	0.24332237
96	0x3d588fb8	0.052871436
97	0x3e5daa8d	0.21647091
98	0x3e614380	0.21998405
99	0x3e6190b4	0.22027856
100	0xbdf695d3	-0.120402955
101	0xbc40c182	-0.011764886
102	0xbe323836	-0.17404255
103	0x3e3a42f7	0.18189608
104	0xbd50cd8c	-0.050977275
105	0x3d1c371b	0.03813849
106	0x3e3da2eb	0.1851918
107	0xbdea309f	-0.11435055
108	0x3d9b47bb	0.07582041
109	0xbd886db6	-0.06661551
110	0xbdb4d8a5	-0.08830384
111	0xbe0d20a7	-0.13781987
112	0x3e1eac79	0.1549548
113	0x3e833494	0.2562605
114	0x3d1e8648	0.03870228
115	0x3d4f1326	0.05055537
116	0xbdaadaf5	-0.08342544
117	0x3e17ed82	0.14836696
118	0xbe21f71e	-0.15816924
119	0x3d914b2e	0.070944175
120	0x3cff1d91	0.031142028
121	0x3d0408ba	0.032234885
122	0x3d4a6356	0.04941114
123	0x3e19b985	0.15012176
124	0xbe39b44e	-0.18135187
125	0x3d459d64	0.048245803
126	0x3dd89b64	0.105765134
127	0x3e3bf6cc	0.18355864
128	0xbe30dac3	-0.17270951
129	0xbd3869f7	-0.04502293
130	0x3e853b85	0.26021972
131	0x3e511244	0.20417124
132	0xbc86e977	-0.016468747
133	0x3cde5f73	0.027145123
134	0x3e34bfc9	0.17651285
135	0x3e7e3de6	0.248283
136	0xbd61ce29	-0.05512825
137	0x3d31cf5c	0.043410644
138	0x3e0c1614	0.13680297
139	0x3d71cfd1	0.05903608
140	0xbdef9872	-0.116989985
141	0x3e0bcddd	0.1365275
142	0x3d169f8e	0.036773257
143	0xbd808d98	-0.06277007
144	0xbdca10d1	-0.09866489
145	0xbdb604bf	-0.08887624
146	0x3dd5308b	0.104096495
147	0x3cd53271	0.026025029
148	0x3c991ead	0.018691385
149	0xbc519b56	-0.012793383
150	0x3e710aab	0.23539226
151	0xbcac19bb	-0.021008363
152	0xbc5f25be	-0.013619838
153	0xbe1bb82e	-0.15206978
154	0xbc1f4296	-0.009720465
155	0x3e2f9ada	0.17148915
156	0x3e84823f	0.2588062
157	0x3bb1f1ec	0.0054304507
158	0x3e845796	0.25848073
159	0xbe24f64b	-0.16109578
160	0x3e048baa	0.12943903
161	0x3e13cbdb	0.14433233
162	0x3e84a38c	0.25906026
163	0xbbc73357	-0.0060791182
164	0x3df19694	0.117962986
165	0x3e03da94	0.1287635
166	0x3e76d019	0.2410282
167	0xbc959924	-0.0182615
168	0x3d17ec32	0.037090488
169	0x3e8477c2	0.25872618
170	0xbe3337c9	-0.17501749
171	0xbcafc162	-0.021454517
172	0xbd179ead	-0.03701656
173	0xbd4b99c2	-0.04970718
174	0xbcacc6d0	-0.021090895
175	0x3e131b68	0.14365923
176	0x3e84d690	0.25944948
177	0x3e5663b0	0.20936465
178	0x3d7558c4	0.059899107
179	0xbdbde82d	-0.092728
180	0xbd960352	-0.07324852
181	0xbb615d20	-0.0034387782
182	0x3e5a7707	0.21334468
183	0xbddadd4b	-0.106867395
184	0xbbd22c6d	-0.0064139874
185	0x3e751e76	0.23937401
186	0xba7ba86c	-0.0009599987
187	0x3e492dc5	0.19646366
188	0x3dd631ec	0.104587406
189	0xbe00b5d9	-0.1256937
190	0xbe357d3c	-0.17723554
191	0x3d61bf6f	0.055114206
192	0x3c4f9220	0.012669116
193	0x3cc499fc	0.023999207
194	0xbbb3f00a	-0.0054912614
195	0x3e85b4bc	0.26114452
196	0xbd68e241	-0.056856398
197	0xbcc7af96	-0.024375718
198	0x3e79b7c9	0.24386515
199	0xbd63b39c	-0.05559121
200	0xb9b970a0	-0.00035369862
201	0xbe077848	-0.13229477
202	0x3e8480fe	0.25879663
203	0xbd619998	-0.05507812
204	0x3e816ef4	0.25279963
205	0xbd8258c4	-0.06364587
206	0x3d3a7b69	0.04552785
207	0x3c0f808c	0.008758675
208	0x3e84407f	0.25830457
209	0xbd8fa499	-0.070138164
210	0x3e1b9166	0.15192184
211	0x3e845d76	0.25852555
212	0xbc79acc2	-0.015238943
213	0x3ce8a1c4	0.028397448
214	0x3e025e0b	0.12731187
215	0x3db8ef41	0.09030009
216	0xbd66da59	-0.056360576
217	0xbdd3f07f	-0.10348605
218	0x3e827a1a	0.2548378
219	0xbb25f8e8	-0.0025325362
220	0xbd103d59	-0.035214756
221	0x3e1adc2d	0.15123053
222	0x3d12c9cd	0.035836983
223	0x3e60a8ae	0.21939346
224	0x3e0c1d40	0.13683033
225	0x3e846d4a	0.2586463
226	0x3e84c24d	0.2592949
227	0x3c9ae8fa	0.01890992
228	0x3e03e38e	0.12879774
229	0x3e66ac71	0.22526719
230	0xbe0031ae	-0.12518951
231	0x3e8234fd	0.25431052
232	0xbe005d9a	-0.12535706
233	0x3cc9e2de	0.024644312
234	0xbd02f7f6	-0.031974755
235	0x3d452a92	0.0481363
236	0xbdc23679	-0.09483046
237	0xbe353d27	-0.17699109
238	0xbce9bdae	-0.02853283
239	0x3d25ad3e	0.04044842
240	0x3d8ef496	0.06980245
241	0xbe2da56b	-0.16957633
242	0x3ca3ae73	0.019980645
243	0xbc3174e9	-0.010831096
244	0x3d8b599f	0.06804203
245	0x3e847fc9	0.25878742
246	0x3cc3f156	0.023918789
247	0xbd670911	-0.05640513
248	0xbd5baa10	-0.05362898
249	0xbceeda57	-0.029156847
250	0x3e849bef	0.25900218
251	0xbdfccad4	-0.12343374
252	0x3e56c822	0.20974782
253	0x3d158738	0.036505908
254	0x3e09125a	0.13385907
255	0x3cc62b23	0.024190491
