shanghai_road_delivery/results_centralized/best_centralized_episode_2.pth_centralized_critic.pth (torch, 919224 bytes, 7 tensors)

fc1.weight f4 [256, 378]
000000 27 2d 11 bd e0 af 0f bd 41 8c f8 bd 6e 87 f1 bd
       -0.03544345 -0.035079837 -0.12136126 -0.11793409
000010 f1 89 f7 bd fd f8 f0 bd 74 b5 00 39 35 27 26 38
       -0.12086857 -0.11766241 0.00012274628 3.9614e-05
000020 00 3d ce 35 fa 56 c6 38 aa da ae 38 ac 8e b7 bd
       1.5365949e-06 9.4575764e-05 8.337696e-05 -0.089627594
000030 05 f8 23 3c ee 7c 14 3a 50 55 6d bc a5 18 0d bb
       0.010007863 0.0005664368 -0.014485672 -0.0021529582
000040 48 d5 98 3b 62 bf fa b7 7c a5 58 ba a6 34 80 bb
       0.004664097 -2.9891442e-05 -0.0008264405 -0.003912526
000050 8b 7e e0 3c 70 c1 c3 36 e9 a5 30 bc e4 0b 03 b9
       0.02740409 5.833972e-06 -0.010781744 -0.00012497563
000060 e0 f5 03 39 1c 2c 71 38 cc 39 88 37 92 b2 a9 38
       0.00012584729 5.7499958e-05 1.6239377e-05 8.091809e-05
000070 e3 d3 aa 3b f0 ef b7 38 c6 07 ac 3b 35 04 00 b9
       0.005213247 8.770812e-05 0.00524995 -0.00012208598
000080 b4 65 ae 3b 14 db 46 38 61 4e ab 3b 10 54 79 38
       0.0053221826 4.741091e-05 0.0052278494 5.9444516e-05
000090 28 39 1a bc c2 ce f2 bd 8c fe 99 3b 0c 14 f8 bd
       -0.009413041 -0.11855842 0.004699534 -0.12113199
0000a0 e8 7c 9f bd 30 9c 54 3c a6 ea 81 bb ba 09 3c bc
       -0.07787496 0.012976691 -0.00396474 -0.011476928
0000b0 c7 a0 f2 bd 61 5e 3f 3c 01 3f 01 bc 63 a4 05 3c
       -0.11847072 0.0116802165 -0.007888556 0.008156869
0000c0 e7 0a 28 b8 3a 85 f4 bd 9c be c0 38 38 0c f6 bd
       -4.0064475e-05 -0.119394735 9.190777e-05 -0.12014049
0000d0 f4 ee 8d bd 37 1b 04 bd 3d 5f f6 bd 80 20 f5 bd
       -0.06930342 -0.032252517 -0.12029884 -0.119690895
0000e0 2d f1 f4 bd 92 b1 f0 bd 18 54 82 b7 46 ec 79 38
       -0.11960063 -0.11752619 -1.5536367e-05 5.9586273e-05
0000f0 a6 76 d7 38 4a e5 9a 38 cb f9 e5 38 a7 b8 b7 bd
       0.00010274099 7.386001e-05 0.000109660985 -0.089707665
000100 de 79 25 3c 82 f2 12 3a b1 02 6e bc 4e b0 10 bb
       0.010099856 0.00056055945 -0.014527009 -0.0022077742
000110 03 5e 99 3b f2 ac 09 b9 28 78 c2 39 43 fc 7c bb
       0.0046803965 -0.00013129765 0.00037092087 -0.0038602508
000120 fe b1 e0 3c 30 51 f2 38 05 4b db 3c 40 e0 cb b9
       0.027428623 0.000115545816 0.02676917 -0.00038886257
000130 5c 50 d5 bc 06 89 5c b8 76 60 9f ba 60 3e 8e b8
       -0.026039295 -5.25797e-05 -0.0012159485 -6.782706e-05
000140 0c 60 65 3b 90 dc 01 b9 25 1d aa 3b 3a 7b 96 37
       0.0034999875 -0.00012384565 0.0051914626 1.7938775e-05
000150 96 e9 aa 3b c2 51 64 38 e2 96 ab 3b d8 5d d0 b7
       0.005215834 5.443558e-05 0.0052364925 -2.4839232e-05
000160 60 b1 17 bc 04 3b f3 bd 63 2d a8 3b 79 56 f3 bd
       -0.009258598 -0.11876491 0.0051323636 -0.11881728
000170 da 5c 3b bd e8 4c 07 3c 0f bc 52 3b 17 16 89 bb
       -0.045742847 0.008258082 0.0032155549 -0.0041835415
000180 d5 79 ab bd 06 87 54 3c 73 0f 05 3b d0 3c 53 bb
       -0.08372847 0.012971645 0.0020303398 -0.0032232292
000190 f4 c5 10 3b f3 2c f9 bd e6 68 81 b8 fe c5 f5 bd
       0.0022090646 -0.121667765 -6.170738e-05 -0.12000655
0001a0 44 2c ba bd 23 73 67 bc f7 e9 f2 bd 7c d0 f3 bd
       -0.09090474 -0.014126572 -0.118610315 -0.119049996
0001b0 3d 58 f5 bd 11 be eb bd 56 80 95 38 a4 b0 dc 38
       -0.11979721 -0.11510862 7.128778e-05 0.00010523319
0001c0 38 68 70 37 c3 36 e6 38 6c d3 93 38 3e a2 b7 bd
       1.432938e-05 0.00010977455 7.0488866e-05 -0.08966492
0001d0 16 01 24 3c 36 e4 83 b9 54 4b 6f bc a3 fa 0e bb
       0.0100100245 -0.00025156297 -0.014605362 -0.0021816872
0001e0 4b 16 8d 3b c3 9e 06 38 68 85 42 ba 9b 80 7c bb
       0.004305636 3.2095948e-05 -0.0007420392 -0.0038528803
0001f0 03 0c e0 3c a0 2d ab 36 f8 f2 e0 3c d6 9a 01 b8
       0.027349478 5.1015086e-06 0.027459607 -3.09002e-05
000200 68 9e cf 3c d6 4d c2 38 16 71 cd b7 87 53 1c b8
       0.025344089 9.265139e-05 -2.4490564e-05 -3.727109e-05
000210 a9 27 4c 3b 38 d7 75 37 25 36 ac 3b 6e 66 30 b8
       0.003115157 1.46532475e-05 0.005255478 -4.2057065e-05
000220 7b 2b aa 3b 0c 59 8d 38 42 6c ab 3b 54 df 89 38
       0.0051931716 6.73999e-05 0.005231411 6.574267e-05
000230 42 18 13 bc 44 00 f7 bd a2 e3 aa 3b b2 a0 f8 bd
       -0.0089779515 -0.120605975 0.005215124 -0.12140025
000240 c5 93 22 be ac aa 00 3c 15 c6 ab 3b 64 9a e1 bb
       -0.15876682 0.007853191 0.005242119 -0.00688486
000250 de 15 2c be 6a 1f 52 3c 9c f4 aa 3b 58 cc 36 bc
       -0.16805217 0.0128248725 0.005217148 -0.011157118
000260 d0 66 ae 3a 8b 70 f6 bd 28 7f 94 38 da 2d f6 bd
       0.0013305787 -0.120331846 7.080875e-05 -0.12020464
000270 08 67 b8 bd 4c f4 15 3d f0 a0 f3 bd 8d 2e ef bd
       -0.09004027 0.036609933 -0.11895931 -0.11678801
000280 cf 38 f1 bd 3a 87 ee bd 20 89 11 39 28 48 f9 b8
       -0.117784135 -0.11646886 0.0001387936 -0.000118866854
000290 2c 11 a9 37 2a 30 c5 b8 54 46 49 b8 9c 69 b7 bd
       2.0154366e-05 -9.402663e-05 -4.7987633e-05 -0.0895569
0002a0 9e ea 23 3c 2e ce e7 39 be bc 6c bc f6 16 09 bb
       0.010004668 0.0004421337 -0.0144492965 -0.0020918227
0002b0 54 95 99 3b b0 73 2e b7 de c8 38 3a b6 99 85 bb
       0.0046869908 -1.0398144e-05 0.00070489745 -0.0040771617
0002c0 f6 4d e0 3c c8 a2 b6 b8 c1 fa dc 3c 77 e7 86 38
       0.027380925 -8.708757e-05 0.026975038 6.4327316e-05
0002d0 61 2c f6 3a 7f 34 b1 38 6b db 22 3b a6 8d 8b b8
       0.0018781536 8.449796e-05 0.0024850022 -6.6544206e-05
0002e0 93 35 62 3b 10 c6 93 38 7a 38 aa 3b 28 f3 15 37
       0.0034516796 7.046398e-05 0.005194721 8.937706e-06
0002f0 b6 34 ac 3b 0e 34 bf 37 cb 5d ab 3b 07 40 e0 38
       0.005255307 2.2793214e-05 0.005229687 0.000106930784
000300 7b 64 17 bc eb 54 f7 bd 5c 6a a5 3b 71 a9 f8 bd
       -0.009240265 -0.12076744 0.0050480794 -0.121416934
000310 3e e2 2a be 2a b2 6c 3c b5 66 ac 3b 1f c2 6f bc
       -0.16687867 0.0144467745 0.005261267 -0.014633684
000320 42 c6 3f be f9 56 e3 3c 9b 5a 7e bc a9 9f 1f 3b
       -0.18727973 0.027751433 -0.015524532 0.002435664
000330 8a 6d ce ba a2 11 f6 bd c0 96 70 b8 38 83 f5 bd
       -0.0015749198 -0.12015082 -5.7360856e-05 -0.119879186
000340 aa 15 2e 3d ef 3b 55 bc e1 11 f3 bd 9c 42 fa bd
       0.04250113 -0.013014778 -0.118686445 -0.12219736
000350 e6 20 f9 bd a4 3e fc bd 13 60 90 3c e2 3a bf b8
       -0.12164478 -0.12316635 0.017623937 -9.1185575e-05
000360 49 db 80 b8 f2 58 c5 b8 98 cf f3 36 00 71 b7 bd
       -6.144361e-05 -9.4102594e-05 7.2661314e-06 -0.089571
000370 1f a5 23 3c bc 88 24 b9 2d f8 6e bc ba d3 0c bb
       0.009988098 -0.00015691196 -0.014585537 -0.0021488504
000380 80 89 9e 3b c2 42 f8 b8 00 b7 eb b8 2d 91 83 bb
       0.0048381686 -0.00011837996 -0.000112397596 -0.004015109
000390 f0 67 df 3c 12 8e b6 b7 0b 1d df 3c 9a 65 a3 b8
       0.027271241 -2.1762247e-05 0.027235528 -7.7913704e-05
0003a0 12 c4 43 3b ce f3 e5 38 6f 37 4d 3b 7c 10 b2 38
       0.0029871506 0.00010964983 0.0031313559 8.490772e-05
0003b0 69 6d 70 3b 0e 45 01 b9 9e 01 aa 3b 34 dc 10 37
       0.0036686307 -0.00012328124 0.005188181 8.634339e-06
0003c0 34 e3 a9 3b a2 de af 38 24 6c ae 3b d0 06 c4 38
       0.0051845554 8.386119e-05 0.00532295 9.347277e-05
0003d0 62 66 18 bc af b8 f2 bd 0e a0 a5 3b 82 f9 f5 bd
       -0.009301754 -0.11851632 0.0050544804 -0.120104805
0003e0 f3 08 18 bb 1b e5 46 3c a4 76 5c 3b b9 00 60 bc
       -0.0023198694 0.012139584 0.0033640051 -0.013672047
0003f0 7c 3e cd bb 41 8b 4f 3c 40 05 ac 3b dc 98 8d bc
       -0.0062635522 0.012667478 0.0052496493 -0.017284803

fc1.bias f4 [256]
000000 cd 92 f3 bd 2a c4 53 bd db 6a cb bc 5a 30 e9 bd
       -0.118932344 -0.05170075 -0.024831226 -0.113861755
000010 d9 cf c6 bd 27 31 4b be e8 fb 15 bc 92 8e 5c bb
       -0.097076125 -0.19842969 -0.009154297 -0.0033654314
000020 07 6c f3 bb 70 86 8b b9 68 c4 4e be dd 90 a1 bd
       -0.0074286493 -0.0002661231 -0.2019211 -0.078889586
000030 36 31 2a be ea e7 ce bd 24 68 08 be c5 a6 be bd
       -0.16620335 -0.10102828 -0.13320976 -0.093091525
000040 d7 65 69 bd 98 c8 f9 bd 17 6a 8f bc 26 3e ce bb
       -0.056981888 -0.12196463 -0.017506642 -0.0062940298
000050 a9 d4 04 bc 3e 4d 47 3c 41 da 7d be 8d 68 75 3c
       -0.008107343 0.012164412 -0.24790289 0.01497854
000060 92 b1 d7 ba 7d 33 dc bc b2 ec 5b bc f1 d9 89 bd
       -0.0016456118 -0.02688002 -0.013423132 -0.06731022
000070 06 23 3d bd 5a e1 86 be 82 00 7c bc af 4b ea bb
       -0.04617598 -0.26343805 -0.01538098 -0.0071501355
000080 b2 41 ea bc 04 79 d2 bc 2a ba 37 be ac fb 1b bb
       -0.02859578 -0.02569247 -0.1794211 -0.0023801131
000090 ea 52 58 bc e5 f9 4d bc 10 00 3b bc 90 f5 ad bb
       -0.013203362 -0.0125717865 -0.011413589 -0.0053088143
0000a0 33 5a 1f bc e2 c8 62 bb 41 67 85 3b b9 86 5d be
       -0.009726095 -0.0034604599 0.0040711467 -0.21633424
0000b0 5a b1 9b bc 17 c7 85 bd 7a 23 a2 bb de 02 63 3a
       -0.019005466 -0.06532114 -0.004948077 0.000865979
0000c0 a1 a9 42 bc ca 78 d9 3a 61 55 e8 bc be be b3 bb
       -0.011881263 0.0016591784 -0.028361024 -0.0054853847
0000d0 7f b9 ee bb 4f bf b8 ba 9a 48 16 bd 37 98 64 be
       -0.0072852965 -0.00140951 -0.036690332 -0.2232369
0000e0 9d de 22 bc 61 59 f6 bc 0e 5c 80 ba b5 99 38 bd
       -0.00994077 -0.030071916 -0.000979306 -0.04506846
0000f0 82 62 3f 3d ef 2d 77 bc ea 1e 9d bb 51 6c 95 bd
       0.046724804 -0.015086635 -0.004794945 -0.0729605
000100 ac e6 19 bd 7e 7e 28 3d ae e4 2f be 74 38 86 bc
       -0.0375735 0.041136257 -0.17177078 -0.01638434
000110 6b c0 a3 bd 93 6a fc bd d5 57 41 bd 6f 6c 1b ba
       -0.07995685 -0.12325015 -0.047202904 -0.00059289386
000120 fd 23 c1 bd 8a a7 ac bd 5c 5a 02 bb a0 e8 3c bb
       -0.09430692 -0.08430393 -0.0019890284 -0.0028825179
000130 a7 bc d3 bd 8f 9c 0f be eb e0 1a bb 23 bb f9 bd
       -0.10338717 -0.14024566 -0.0023632597 -0.121938966
000140 db c6 6f bc 67 88 78 bd f1 d3 cc bb ea 44 fd ba
       -0.014634813 -0.06067696 -0.0062508513 -0.0019322906
000150 2d 81 d6 bc cb d9 2b be 50 33 94 ba 8e f5 1e be
       -0.026184643 -0.167823 -0.0011306796 -0.15523359
000160 a0 0b 88 bd dd 4f b8 ba 95 68 88 be e6 2f 23 bd
       -0.06642842 -0.0014061887 -0.2664229 -0.0398406
000170 31 c3 0c be 83 7a 38 be e8 41 01 bd 2c dd e2 bd
       -0.13746335 -0.18015485 -0.031556994 -0.110773414
000180 17 9e bb bc 20 0e 87 bb 23 23 b2 bd 7a 90 73 bd
       -0.022902532 -0.004121557 -0.08698108 -0.059463955
000190 23 4e a9 bd 58 47 b6 3d 73 81 7d be f4 7a 86 bd
       -0.082668565 0.089003265 -0.24756412 -0.0656642
0001a0 81 62 a7 bd c9 96 da bd a2 db e5 bc d3 72 68 3c
       -0.08173085 -0.10673291 -0.02805883 0.0141875325
0001b0 06 de 83 bd 11 52 ce bc 13 9f 12 bd c0 f8 42 bc
       -0.06438832 -0.025185617 -0.035796236 -0.011900127
0001c0 f9 67 4c 3e a6 fd f1 bd 74 5b 50 3e fa 8f 25 be
       0.19961537 -0.11815958 0.20347387 -0.16168204
0001d0 3c 55 b1 bb 57 9d c7 bd 68 7d 56 bd 21 68 26 3e
       -0.005411772 -0.09746807 -0.05236569 0.1625066
0001e0 70 86 a6 bc 60 65 b3 bb 16 39 a7 3d 20 3a 8c 3b
       -0.020327777 -0.0054747313 0.08165185 0.00427939
0001f0 c6 f3 f6 bc a6 7c e9 b9 2e c2 87 be c0 0d 98 bb
       -0.030145537 -0.00044534093 -0.26515335 -0.004640311
000200 dc ce b1 bb 48 b6 30 bb 66 c7 99 bc 26 34 0f be
       -0.005426271 -0.0026964117 -0.018771838 -0.13984737
000210 7b 2e 22 bd 37 8d f3 bb 40 45 13 bd 07 cc 45 bd
       -0.03959511 -0.0074326056 -0.035954714 -0.04829028
000220 b8 77 23 bc 80 dd 59 bd 2f 4f 76 bd d8 61 29 bd
       -0.009977274 -0.053189754 -0.06013411 -0.041353077
000230 82 a9 91 bc 77 4e 2d be bd 70 a6 bd 0c 16 3b bc
       -0.017781023 -0.16924463 -0.08126972 -0.011418831
000240 de 8e 25 bc 5b 54 8b bd ab f1 96 bd 82 46 85 bc
       -0.010104863 -0.06803199 -0.07370313 -0.016268972
000250 a6 1d ff 3d 68 c7 94 bc 0f f4 04 bc aa 05 84 bc
       0.12456827 -0.01816149 -0.008114829 -0.016115982
000260 a5 39 b9 bb 48 bf 8b bd 3e 8c 73 be 96 9e a3 bc
       -0.0056526237 -0.068235934 -0.23783967 -0.01997308
000270 75 1f cb bd 7e 7d 5f 3c 89 a7 2b be 36 fd b0 bd
       -0.09918109 0.0136407595 -0.16763128 -0.08642046
000280 ae 4c bf bc 23 b9 8b bc d1 ac c4 bb ec e5 ef bc
       -0.023351993 -0.017056054 -0.0060020466 -0.02928444
000290 4d 18 85 bd 44 17 b0 bc e9 4b e7 be 3c 74 a5 bd
       -0.06498776 -0.021495469 -0.45175102 -0.080788106
0002a0 51 d0 75 bb 0a 47 2d bc 41 d7 29 bc 74 fe 17 bc
       -0.00375082 -0.010576019 -0.010366262 -0.009276975
0002b0 ee 17 91 bd 16 89 a8 bc 69 b4 31 bc 38 d1 a4 ba
       -0.07084642 -0.02057318 -0.010846236 -0.0012574559
0002c0 12 69 b7 bb b5 95 e4 3d 3a b7 35 bc fe ab 22 bc
       -0.005597242 0.11161367 -0.011091048 -0.009928701
0002d0 d4 f0 2a 3a 74 88 93 38 62 0d a0 be 7d 6c ea b8
       0.00065208715 7.0349226e-05 -0.3126021 -0.00011178197
0002e0 74 60 d6 bb 8c 9d 92 bc c0 68 87 bb d6 d4 a1 3c
       -0.00654226 -0.01789739 -0.00413236 0.019754808
0002f0 4c 32 91 bd 08 ef 06 3b be b8 11 3b b9 c7 02 be
       -0.070896715 0.002058925 0.002223536 -0.127715
000300 b4 d9 e7 bd 76 3f d1 bc 2d 92 b2 bc e2 8f 74 bd
       -0.113208205 -0.025542956 -0.021798218 -0.05970753
000310 c7 c9 dd ba 78 1c c4 bd 62 57 a4 ba 8b c9 7d ba
       -0.0016921096 -0.095757425 -0.0012538249 -0.00096812163
000320 a2 a9 5f bd ec 8c 84 bd c4 4d 45 bb bc 55 34 3c
       -0.054605134 -0.06472191 -0.0030106166 0.011006769
000330 18 fa a3 bc 50 22 82 3d f5 92 b6 bd 2d 5c e7 bc
       -0.020016715 0.06354201 -0.089147486 -0.028242195
000340 00 bd cb ba b8 bb b3 bc 3d d2 d6 bc 7f e8 36 be
       -0.0015543997 -0.021940097 -0.026223296 -0.17862128
000350 73 ae e0 bc de ae 04 bb 7e 03 36 3a bc a8 cc bd
       -0.027426934 -0.002024583 0.00069432694 -0.09993121
000360 5f af 78 bd 61 90 11 bd da 25 44 bd 04 b2 c3 bb
       -0.060714122 -0.03553808 -0.04788766 -0.005972149
000370 3b b6 56 ba b4 8d 55 bd 41 06 0d bb f3 e0 31 bc
       -0.00081906066 -0.05213709 -0.002151862 -0.010856855
000380 28 98 50 bc fe c0 8d bc 0f 54 8f bd 67 1f 8a bc
       -0.012731589 -0.01730394 -0.06998455 -0.016860677
000390 dc 78 31 3e c9 12 9a bd 4f 31 56 3d 9a 33 21 bc
       0.1733126 -0.07523114 0.052293118 -0.009838963
0003a0 b8 2a 7f bd e1 66 d2 bd 2b fd 55 bb 93 d2 24 bb
       -0.0622966 -0.10273529 -0.003265212 -0.0025149926
0003b0 a4 ec 28 be 17 cd 45 bd 97 c9 05 3e 1f 83 7e bd
       -0.16496521 -0.048291292 0.13065182 -0.062136766
0003c0 13 b4 2a 3e 5f d7 b8 bc 24 3d 25 bd 9f 69 70 bc
       0.16670255 -0.022563634 -0.04034151 -0.0146736195
0003d0 56 dd 58 bb 20 20 d0 bc 83 c4 22 3d b8 b8 9d bb
       -0.003309091 -0.025405943 0.03973819 -0.00481328
0003e0 c0 c8 51 38 56 c6 0b be 88 c6 18 bc 6b 6b 36 be
       5.0016446e-05 -0.13649878 -0.009324677 -0.17814414
0003f0 52 fc eb be 5a df 9a bd 2c 2c 3e be 79 90 e5 3d
       -0.46090943 -0.07562132 -0.18571538 0.112091966

fc2.weight f4 [256, 256]
000000 20 7e 3d 3d c8 60 0f 38 0d 98 49 3c 33 fe c5 3b
       0.04626286 3.418399e-05 0.012304318 0.006042266
000010 dd 1b 30 bd 52 93 00 bd 8b 72 81 3d 7e 09 10 bc
       -0.042995322 -0.031390496 0.063206755 -0.008791326
000020 f5 70 a5 3d 9c fc 08 bc 73 30 83 3c 29 f9 d5 3e
       0.080781855 -0.008361008 0.016014313 0.41791657
000030 06 f9 9d 3e 01 bb 72 3d 0c 8e 8a bb 7d 9b d4 3d
       0.30854052 0.059260372 -0.004228359 0.103812195
000040 a1 a9 9e be c0 fa 3a be 5b 44 14 3e 26 04 73 bb
       -0.30988792 -0.18259716 0.144792 -0.003708133
000050 26 11 ed 3a 3c 02 ab be 1a 78 76 bc 19 80 14 be
       0.0018086776 -0.33400142 -0.015043283 -0.1450199
000060 ab 7c 41 3a fe f1 eb 3c c8 03 15 3a 7c 50 a9 3c
       0.00073809427 0.028801914 0.00056844624 0.02066826
000070 34 b1 91 3c 97 27 ce 3e 4e e2 d6 bb f9 b2 06 39
       0.017784692 0.4026458 -0.0065577393 0.00012845908
000080 34 1a 83 bd ff d1 9f bd 87 7e f6 bd 7b 0e 74 3d
       -0.06401482 -0.078037255 -0.12035852 0.059584122
000090 ce 17 b9 3d f3 a9 1f bc 5e 6f 66 3e 31 e0 9b 3b
       0.090377435 -0.009745109 0.2250342 0.0047569503
0000a0 f2 ac 47 ba 1e 44 d9 bb 8a a2 27 3d 1a 3a 89 bd
       -0.00076170184 -0.0066304347 0.040926494 -0.06700535
0000b0 5a 98 88 3b d3 38 b2 bd 2d fa ee bb 45 26 04 bb
       0.0041685523 -0.087022446 -0.007293007 -0.0020164412
0000c0 86 76 8a 3d 06 f3 01 3a 60 4e 32 3c 8f 87 1d 3b
       0.06760888 0.0004957173 0.010882944 0.0024037098
0000d0 90 33 67 3e 30 3b ed 3a 42 b7 1f 3d 5a 12 3f 3d
       0.22578263 0.0018099304 0.038993128 0.04664836
0000e0 69 5a 72 3b be 77 d8 39 2d 71 3d 3d e4 dd 49 be
       0.0036980158 0.00041287945 0.04625051 -0.19713551
0000f0 35 89 f0 3d 95 ee 2a 3c 0f 89 df b8 90 bb f8 b6
       0.1174492 0.010432859 -0.00010658998 -7.412811e-06
000100 d9 9e a5 bb 7d a3 d1 bd e4 90 03 bf 12 bd af bd
       -0.0050543365 -0.10236261 -0.5139296 -0.08580984
000110 5a 97 84 b9 44 f9 c4 3c 13 dc c4 3c 7b d3 20 3a
       -0.00025289768 0.02404464 0.02403072 0.00061350287
000120 78 a1 83 3b 55 46 50 bc 50 f5 68 3d 4f 47 18 bb
       0.0040170513 -0.012712081 0.056874573 -0.0023235863
000130 b0 85 76 bc 6f 5a 6c 3d a4 48 29 b8 43 42 93 b9
       -0.015046522 0.05770343 -4.036039e-05 -0.00028087394
000140 f3 67 1d 3b be 1c 22 3a 07 d7 40 3e 9d 17 f8 bb
       0.0024018257 0.00061840925 0.18832026 -0.0075711743
000150 94 2b b0 bc df fa a9 3d c8 93 6a 3a fa aa 07 be
       -0.021505155 0.08299803 0.0008948413 -0.13248816
000160 8a d2 8d bc dc fe 39 b8 79 04 a3 3d 1c 14 7d 3e
       -0.017312307 -4.4344793e-05 0.079598375 0.24714702
000170 50 1a 59 3d 5b 64 2f be c6 51 7b ba 2b 25 fa 3e
       0.05300361 -0.17128126 -0.00095870753 0.48856482
000180 07 de f3 39 58 28 9a 3a 01 bc e5 bd 97 f7 74 bc
       0.00046513995 0.0011761291 -0.112174995 -0.014951608
000190 1a ef 15 39 18 78 90 bc a1 de bf 3b 71 a8 ec bb
       0.0001429882 -0.01763539 0.005855397 -0.007222228
0001a0 55 5c b8 3e aa 92 39 3d 8c b0 93 b9 d0 55 71 3e
       0.36007944 0.045305885 -0.00028169563 0.23567891
0001b0 64 f7 1f 3e ab ce c8 3c ba d1 24 bd 1c bf 03 3d
       0.15621716 0.02451261 -0.040239073 0.032164678
0001c0 10 e9 55 bd e5 03 ac 3c 67 10 9d 3d 70 1b b8 bd
       -0.05222422 0.02099795 0.07669144 -0.08989608
0001d0 81 7d 93 bc b6 3f 6e be 2e 5d d7 39 5b ce 76 be
       -0.01800418 -0.23266491 0.0004107742 -0.24102156
0001e0 c0 fc d8 3b ba 7f 1b b9 c0 25 eb bd d5 b8 1c 3e
       0.006621927 -0.00014829534 -0.114818096 0.15304883
0001f0 9c 6d 87 be c0 3e b5 3a e8 3d 82 3d 83 99 b1 3a
       -0.26450813 0.0013827905 0.06359464 0.0013549778
000200 47 83 03 bd 54 93 f8 bb de 10 52 3d 00 1e 83 38
       -0.032107618 -0.0075859223 0.051285617 6.252155e-05
000210 56 d9 3e ba 26 8c 21 3c bc 2d 16 ba 8b 92 23 bc
       -0.00072803104 0.009860074 -0.0005728861 -0.009983669
000220 ab bf 2b 3c 40 7d 1d b9 37 57 8c bc 86 ea e7 3b
       0.010482709 -0.00015019346 -0.017131431 0.007077518
000230 2a 72 05 bc c9 a4 c8 38 93 c1 c7 bc 42 98 cd 3d
       -0.008144895 9.567437e-05 -0.024384296 0.100388065
000240 29 02 af ba fc 13 14 37 9e 03 6b 3f 3f 1d b6 bc
       -0.0013352084 8.82614e-06 0.91802394 -0.022230742
000250 d9 f3 af 3e 30 e6 56 38 1c 64 a5 3a 91 8b 14 3d
       0.34365728 5.1235955e-05 0.0012618336 0.036265913
000260 3e 7f b4 3c c7 54 91 bd 40 76 b8 3d 9c c4 48 3c
       0.02203333 -0.07096248 0.090069294 0.012253907
000270 9d ee 6e bd b6 66 58 3e 71 1f b3 3e 6c c8 2d 39
       -0.058333028 0.21132931 0.34984925 0.00016573229
000280 cf 08 dd ba 6e d1 8e 3c 49 c3 dd ba ca 7b 13 3d
       -0.0016863587 0.017433848 -0.0016919161 0.036006726
000290 ab ab b2 bc 4f bd 0b bd 54 a5 11 bf fa 49 1a 3e
       -0.021810373 -0.034116086 -0.56892896 0.15067282
0002a0 7a b5 fa 3c 37 1e b8 3b 90 f4 26 3c 06 ef 75 bb
       0.030604113 0.0056188363 0.010190144 -0.0037526502
0002b0 03 07 28 3e a9 26 25 bd b3 3f 6d 3c 34 87 9e 3a
       0.16408925 -0.040320072 0.014480519 0.0012094737
0002c0 e9 81 3a bc 90 bc 06 3e 9b 78 0a bc 2e 4d 51 ba
       -0.011383512 0.13157868 -0.008451606 -0.0007984218
0002d0 88 61 e2 3a 6f 02 fc 38 68 bb 82 bd b2 b7 77 39
       0.0017271498 0.0001201675 -0.06383401 0.00023624187
0002e0 9b 0a b8 3c 81 22 72 3b 31 03 39 ba 58 4c 00 3f
       0.022465995 0.0036946835 -0.00070576655 0.5011649
0002f0 3f 20 5f b9 4c b8 2a bb 48 e1 48 3b 5a 7d 8a be
       -0.0002127895 -0.002604979 0.0030651856 -0.2704876
000300 36 81 a9 bd 52 12 f9 38 0e 86 cc bc f8 24 c0 b7
       -0.08276598 0.00011876658 -0.024966266 -2.2905399e-05
000310 52 a1 b8 ba 5c 07 84 bd 24 f1 5f 3b 5f ec a3 bb
       -0.0014086163 -0.06446716 0.003417083 -0.005002543
000320 0f b5 8a 3e a8 87 d5 bc 69 57 81 3b 2c 69 61 3d
       0.27091262 -0.026065663 0.0039471877 0.05503194
000330 68 f1 a9 38 3b 34 e0 3e ff 09 32 3b 11 02 a9 bd
       8.1035134e-05 0.4378985 0.0027166603 -0.08252347
000340 ea a8 29 3d 91 6e b1 bd a9 9a dc b9 87 ed 70 3f
       0.041420855 -0.08663667 -0.000420769 0.9411244
000350 8c 95 91 3d 39 5a 35 bb 6e d3 e0 b9 1e f5 53 ba
       0.07108602 -0.0027672185 -0.00042882137 -0.00080855365
000360 92 22 99 bd c2 d5 a2 be 89 3a 07 bd aa 4a 59 b9
       -0.07477297 -0.3180371 -0.033014808 -0.00020722547
000370 e0 57 52 b8 05 06 d9 3a d2 f5 cd 39 24 b2 21 3c
       -5.014974e-05 0.001655758 0.00039283797 0.009869132
000380 d8 3f 65 38 6e 8b 83 3e c1 67 d0 b9 7e a0 05 3e
       5.4657314e-05 0.25692314 -0.00039750154 0.13049504
000390 2b ae 28 bf c5 33 03 3a 92 64 32 be 48 d4 f8 3b
       -0.6589076 0.00050049677 -0.17421177 0.0075936653
0003a0 50 1c 70 3d 76 a8 c2 bc 1b 96 08 bc 15 5d 6f bb
       0.05862075 -0.023761969 -0.008336569 -0.0036523987
0003b0 63 bc 9b 3e 64 88 b7 bd 6f 1d 9a bc 8f ad 55 3d
       0.30417165 -0.08961561 -0.018812863 0.05216747
0003c0 ec 6d 50 be 46 97 24 38 6f d4 09 bc 2b 82 a7 3d
       -0.20354432 3.924153e-05 -0.0084124645 0.081791244
0003d0 e9 f3 d3 ba 06 4e 89 bc cf f8 5d be c3 39 2a 3a
       -0.0016170713 -0.016760837 -0.21676944 0.00064935925
0003e0 9c 6d 2a 39 51 0d 52 3e da e4 48 3d 68 a9 40 be
       0.00016253296 0.20512892 0.049046375 -0.18814623
0003f0 7f 48 08 bd 46 36 e0 bd 9a e3 cd bc 85 95 2f 3f
       -0.033272263 -0.10947852 -0.025132943 0.68587524

fc2.bias f4 [256]
000000 e4 55 4f bb 50 d9 33 bd c5 c2 1c bd 9f c8 f2 bb
       -0.0031636888 -0.043908417 -0.038271684 -0.00740917
000010 90 ff e5 bc 1d 0c f1 bb b5 67 68 bc e0 48 1c be
       -0.028075963 -0.0073561803 -0.014184882 -0.15262175
000020 c1 10 e7 3c 9e bb af bb a0 bf 18 3d f1 49 e8 bc
       0.028206231 -0.005362942 0.037292123 -0.02835557
000030 94 c2 7e 3c 8b 97 aa bb fd d1 c1 bd a5 e1 43 bb
       0.015549321 -0.0052060536 -0.0946388 -0.0029889133
000040 f4 47 b0 3b 07 08 21 bd 97 04 6a bb bb f5 76 bd
       0.005379671 -0.039314296 -0.0035708302 -0.06029294
000050 12 49 48 3d 32 e5 25 3d 58 b1 a7 3c d0 58 f1 bc
       0.04889781 0.04050178 0.020470306 -0.029461294
000060 79 98 5d bd 1d ca 20 3e b6 b0 84 bb e7 13 99 bc
       -0.054100487 0.157021 -0.004049386 -0.018686248
000070 0d 3e 38 bc 6a 34 70 3e ce dc 05 3e 63 f7 87 3e
       -0.011245263 0.23457494 0.13072512 0.2655593
000080 70 d2 b9 bc 40 61 83 bd a3 ad b2 bc 3a b0 4f 3c
       -0.022683352 -0.06415033 -0.021811312 0.012676293
000090 cb 55 db bc a7 ad e6 bc 33 8c 78 bc d9 76 96 bc
       -0.026774308 -0.028158976 -0.015170145 -0.018367218
0000a0 bf e0 44 3c 15 ed c4 3a bd b8 12 bd 57 0e d5 bc
       0.012016474 0.0015024269 -0.03582071 -0.026007814
0000b0 7c 3f a1 3e a7 9a 56 bc 48 f2 c9 bc 33 94 34 bc
       0.31493747 -0.013098395 -0.024651662 -0.011021662
0000c0 24 6e 2e bd 8d 27 33 bc 6f 1c 65 bc d9 07 f5 3c
       -0.042585507 -0.010934723 -0.01398383 0.029910969
0000d0 bb 94 a8 3c 17 05 00 3b 1b 11 77 3d 90 a6 5d 3e
       0.020578733 0.0019534284 0.060319047 0.2164557
0000e0 e6 3e 4b 3e 25 40 1e bd 94 38 c3 bc 19 30 1c bc
       0.19848213 -0.03863539 -0.02383069 -0.009532952
0000f0 f7 91 50 bc 20 8b 75 bc ba 36 88 bd c1 05 8e bc
       -0.012730113 -0.014986783 -0.06651063 -0.017336728
000100 61 9f df bd 6d 98 1b bd 1d a8 37 3b f6 82 3c bc
       -0.10919071 -0.03798716 0.0028023787 -0.011505833
000110 d8 c7 97 bc f5 d0 ef 3c d5 62 44 bd 81 fb c2 bc
       -0.01852791 0.029274443 -0.047945816 -0.023801567
000120 31 34 db bd 97 f6 1e bd e8 bf dc bb 81 f3 9f bc
       -0.10703314 -0.038809385 -0.006736744 -0.019525291
000130 32 51 49 bd cb 2e 42 bc fd 55 31 bd a4 43 f4 3e
       -0.0491497 -0.011851977 -0.043294895 0.47707856
000140 8d ad 38 bb d6 c8 d6 3a 0f d2 0c bb cf 89 f7 bc
       -0.0028179616 0.0016386758 -0.002148751 -0.03021708
000150 a8 fa 9a 3b 3a f9 77 3b c4 2e 31 bd 6f d6 17 bc
       0.0047295876 0.003783776 -0.04325749 -0.009267434
000160 ac 42 f4 bc e7 bc 52 bd 9e bd 45 bd fc ac 1d bd
       -0.029816948 -0.051449683 -0.048276536 -0.03849505
000170 cc bd 50 bb 54 aa a7 3b fa d0 9f bc e5 52 be bb
       -0.003185141 0.0051167402 -0.019508827 -0.0058082216
000180 e9 e9 b0 3c 8e 75 70 bd c8 27 ad 3e 53 09 a1 3e
       0.021595912 -0.05870586 0.33819413 0.31452426
000190 71 14 c0 3e 20 ef c1 3d 9f 77 06 bc 66 79 03 bd
       0.37515596 0.094694376 -0.008207231 -0.032098196
0001a0 54 eb 58 3e a4 10 a6 bb 2e ef c0 bb 25 e0 d8 bc
       0.2118352 -0.0050679017 -0.0058878874 -0.026474068
0001b0 75 68 6e bd f5 4a 5f 3b 1b 3b 5d 3e b9 a1 74 bc
       -0.058205087 0.0034071777 0.21604578 -0.014931136
0001c0 4d 77 f9 3c d0 2d 9e bc 3a e6 32 bc e6 f1 c4 3a
       0.030452395 -0.019308954 -0.010919148 0.0015025705
0001d0 46 72 a7 3d f2 35 94 3b 9d ad 8a 3e 45 d6 f9 bc
       0.08176093 0.0045230323 0.2708558 -0.03049768
0001e0 76 3e 8f bd 63 e8 7c bb 5e 86 ce ba b5 89 ee 3c
       -0.06994335 -0.0038590662 -0.0015756597 0.029118398
0001f0 f2 3f a0 3d ad 3c 15 bd 30 5f 4e bc b7 73 c8 3b
       0.078246966 -0.036434818 -0.012595937 0.00611731
000200 4a 49 93 bc f6 6e 21 3c f4 fb 91 3e f1 05 00 be
       -0.017979283 0.009853115 0.28512537 -0.12502266
000210 84 59 3c bc b5 94 3f bb 41 78 bc bd 21 4e 81 bb
       -0.011495952 -0.0029232923 -0.09202624 -0.0039460813
000220 6c 49 8f bd 68 a1 a4 bc ae f4 02 bc bb 45 6a 3e
       -0.06996426 -0.020096496 -0.0079929065 0.22878163
000230 6b fa b1 3e fa b6 c2 bd 29 49 1c bd a6 91 2f 3c
       0.34761366 -0.09507556 -0.03815571 0.010715878
000240 6f a3 e7 bb a6 27 b6 bc c9 ff 0d be dc 9e 85 3e
       -0.0070690433 -0.022235703 -0.13867106 0.26097763
000250 c1 46 99 bc e1 2f 13 bd 7f b9 94 bd d6 99 c6 3a
       -0.018710496 -0.035934333 -0.07261943 0.0015152048
000260 83 88 54 bd 2b 45 0d bd ce 71 71 3e ae df 38 bd
       -0.051888 -0.03448979 0.2357857 -0.045135193
000270 1c 18 6d 3c fe 05 0e bc 45 6d 0d 3e 85 96 20 3d
       0.01447108 -0.008668421 0.13811214 0.039206047
000280 b1 30 5a bc 87 23 82 bd 76 36 0d bc 97 4a 07 bb
       -0.013317273 -0.063544326 -0.0086189415 -0.0020643824
000290 2b 74 5c 3c e3 70 84 bb a4 ff 80 3b 06 17 0e 3b
       0.013455431 -0.0040417775 0.0039367247 0.0021681204
0002a0 98 9a b5 bc bf 9d 00 be 5d d6 ab bc 26 c7 a1 bd
       -0.022168443 -0.12560175 -0.02097624 -0.07899313
0002b0 1e 72 3b 3c 16 cb ef 3e 28 df 81 bc 86 47 79 bc
       0.011440782 0.4683463 -0.01585348 -0.015214806
0002c0 9b 57 7e 3e ef 77 9f 3d fc f6 8a 3b 81 de d4 bc
       0.24838106 0.077865474 0.0042408686 -0.025985004
0002d0 8c 49 13 bc 96 0d 84 3e 01 04 51 bd aa 8d 13 3b
       -0.008989703 0.25791615 -0.05102921 0.0022514858
0002e0 24 cf 8a 3a c8 51 87 3d 74 1a e0 3c 9f d1 8f bc
       0.0010590297 0.066073954 0.027356364 -0.01755601
0002f0 40 b7 b9 3e 71 96 24 bc 34 50 05 bd 32 e9 0c be
       0.3627262 -0.010045634 -0.03254719 -0.13760832
000300 bb 4f a0 bc 62 e2 22 bd 38 d5 97 bd d7 49 ad 3c
       -0.019569268 -0.039766677 -0.07413715 0.021153374
000310 c5 f8 09 3d fd 0a 0d bd a9 f7 d4 39 34 93 53 bd
       0.03368451 -0.034434307 0.00040620312 -0.051654056
000320 e4 88 f0 bb 54 95 b8 bd 2a 94 cb 3e 6c 84 88 3c
       -0.0073405374 -0.09012857 0.39761478 0.016664706
000330 0a e2 bb 3d d6 ab d1 bc 72 23 d7 bc 0c d4 8a bd
       0.09173973 -0.025594633 -0.026262019 -0.06778726
000340 2f 2b 41 3b 9d 45 9f 3e 62 f1 7b bd a2 60 fb b9
       0.0029475202 0.31107798 -0.061509497 -0.00047946448
000350 e2 e5 59 bd 94 33 39 3c 7c 1f da bd 1f 00 61 bc
       -0.05319775 0.011303801 -0.106505364 -0.013732939
000360 32 35 95 bb 12 64 a3 3a e7 87 95 3d 32 f8 a9 bb
       -0.0045534605 0.0012465736 0.07301312 -0.005187058
000370 32 64 2f bd e6 37 ac 3e bf e8 9f bd f7 a1 c5 bd
       -0.042820163 0.33636397 -0.07808065 -0.09650033
000380 b4 3b 9a 3e f6 77 23 3a 0e 87 2b bc b2 64 97 3b
       0.30123675 0.0006235832 -0.010469211 0.004620158
000390 71 18 c3 3b 64 c0 d9 3a 86 b5 18 bc 31 e5 3d bc
       0.0059538414 0.0016613123 -0.009320622 -0.011590288
0003a0 f7 47 0b bc a6 40 a3 bc 51 4e 2b 3b cc 2c 2f 3c
       -0.0085010445 -0.019928288 0.002613921 0.010691833
0003b0 58 b0 89 bd fb 21 54 bd 50 27 b6 bc 23 9a 58 bd
       -0.06723088 -0.05179022 -0.022235543 -0.05288137
0003c0 60 0c 8a bb 7e 58 d1 3b fd 8e ca bc e0 37 0e 3c
       -0.004212901 0.006388723 -0.024726385 0.008680314
0003d0 17 be 34 bd c7 c2 ca 3c 17 69 0b 3c d5 db aa 3b
       -0.044126596 0.02475108 0.008508942 0.0052141943
0003e0 a7 80 1e bd 1c 99 8a bc 6c 51 9f bb 86 42 5c bd
       -0.03869691 -0.016918711 -0.004862001 -0.05377438
0003f0 48 79 dd bc 32 c4 a4 bd d6 79 bf bd 37 83 2e bc
       -0.02703537 -0.08045234 -0.0934941 -0.010651401

fc3.weight f4 [256, 256]
000000 10 5a 13 be f6 fd 39 3a e2 00 59 3a 2c db b0 b7
       -0.14389825 0.0007095033 0.00082780246 -2.1082895e-05
000010 33 59 22 ba cf 7b 65 bd ae d2 48 38 51 60 40 b9
       -0.0006193101 -0.056026276 4.7879927e-05 -0.00018346428
000020 8c 19 1e b9 91 fa 8d 3b 00 5b 8b 36 6f ac ed b9
       -0.00015077571 0.0043328484 4.1531166e-06 -0.00045332636
000030 3c dc 47 b9 54 f0 27 be 64 4e 16 b9 44 84 05 3a
       -0.00019060163 -0.16400272 -0.00014334318 0.00050932565
000040 1f 99 8b b9 2c 16 d5 bd 4f 0e 87 38 8d 36 05 3b
       -0.0002662623 -0.104046196 6.439967e-05 0.0020326704
000050 47 37 de bb 45 00 33 bc ad 9b 16 be ea 86 e0 b9
       -0.006781492 -0.010925357 -0.14707823 -0.00042825128
000060 e2 32 31 3a ce 1f 2c 3b 56 73 72 b9 b9 6e 98 bd
       0.0006759596 0.0026264074 -0.00023121884 -0.07442994
000070 8e 69 c6 38 26 63 0d 39 6c cf 5f bd d4 4d 80 be
       9.461037e-05 0.00013483744 -0.054641172 -0.25059378
000080 60 95 b0 36 d9 95 a4 bb 57 24 15 39 45 45 83 b9
       5.2625983e-06 -0.005022746 0.00014223285 -0.00025037877
000090 18 93 0f bc f0 23 8f b9 c0 b7 73 ba be b2 79 38
       -0.008763097 -0.0002730186 -0.0009297095 5.9532693e-05
0000a0 61 36 f4 bc 68 2b 0c b9 44 6b d6 39 c4 d3 a2 bc
       -0.029811086 -0.0001336761 0.0004089718 -0.019876368
0000b0 32 41 1a bf e0 84 6c 38 a9 10 1e 3a 8b 95 11 bc
       -0.6025573 5.6390534e-05 0.0006029704 -0.0088857515
0000c0 df fa 3b bc 90 dc c9 36 86 f0 78 b9 2e b9 09 b9
       -0.011473387 6.0159437e-06 -0.00023740725 -0.00013134323
0000d0 df 4d 9e 39 99 08 7c 3a ce d0 10 bd ac 1f d4 bd
       0.00030194127 0.0009614318 -0.03535538 -0.103576034
0000e0 6f e9 f2 be 97 a4 4e 39 8c 5d 35 39 28 4a 7f be
       -0.4744372 0.00019707005 0.00017296354 -0.24930632
0000f0 2e 7d 0a b9 06 c5 c3 39 62 20 af bd 3a fb 35 3a
       -0.00013207339 0.00037340092 -0.085510984 0.0006942038
000100 06 71 ed be 1d f2 ba 3a de 59 32 b8 e0 82 8b 39
       -0.46375293 0.0014262829 -4.2522202e-05 0.00026609655
000110 23 12 7e 3b 9d 60 ac bd 51 7d 5c ba e5 3e 6a bd
       0.0038768135 -0.08416865 -0.00084110076 -0.057188887
000120 b0 1e ec 3b fc 43 06 bd 06 9d ae ba da b5 02 be
       0.0072058067 -0.03277968 -0.0013321943 -0.12764683
000130 30 c9 74 38 ca 1e ec bc 0c de 8e b9 d8 4d ae bd
       5.8361504e-05 -0.028823275 -0.00027249788 -0.08510941
000140 75 3c c1 39 5b 80 84 b9 f7 e3 7f 39 73 dc bf bd
       0.00036856873 -0.00025272634 0.00024403619 -0.09368219
000150 73 58 18 bc 14 1e 31 b8 2b 4e 8e 3a bc f3 ed 37
       -0.009298432 -4.22281e-05 0.0010857036 2.83661e-05
000160 b8 21 45 3a 3e 56 7c 3b 20 f7 a1 3a a9 62 b0 bd
       0.0007519978 0.0038503553 0.0012356974 -0.08612568
000170 c5 d2 cf 39 7d d2 4c ba 64 1e 87 b9 f0 d7 fd 39
       0.00039639152 -0.00078133476 -0.0002577185 0.00048416806
000180 19 09 39 3b 72 10 da bb 0a d3 54 be be 20 ca 3b
       0.0028234182 -0.0066547925 -0.2078363 0.006168454
000190 10 45 92 be ff b5 13 bf ca d9 1f bb e4 7b a7 bb
       -0.28568316 -0.5769958 -0.0024391287 -0.0051112045
0001a0 84 78 86 3b d8 07 6c 38 81 f2 10 bb a8 92 00 b7
       0.004103722 5.627409e-05 -0.00221172 -7.663541e-06
0001b0 0f 37 9d ba 92 00 de 3a f3 18 b5 bb ba 3f e4 bb
       -0.0011994558 0.0016937426 -0.005526656 -0.0069656046
0001c0 32 db be 3a 14 84 9b b9 cf 98 b5 bb 07 67 fb ba
       0.0014561175 -0.0002966231 -0.005541898 -0.0019180485
0001d0 a4 a4 85 38 b9 d4 a7 be 44 30 30 bb 7a 4e 14 bc
       6.372601e-05 -0.32779482 -0.0026884237 -0.009051913
0001e0 50 bb f8 ba 20 39 78 39 9d 96 f1 38 b3 2b 17 bd
       -0.0018976722 0.00023672404 0.000115198294 -0.03690691
0001f0 16 3f 48 bd d0 50 ec 39 50 f0 0b 3a 94 09 63 b8
       -0.04888829 0.00045073638 0.00053382386 -5.4129938e-05
000200 58 36 1a 38 75 dd 20 3a 80 b3 a6 bd a4 bc 2a 3a
       3.6767073e-05 0.00061365153 -0.08139706 0.0006513095
000210 a8 bc ec 39 73 bf cd bc 0c 70 91 3a 7b c3 97 3a
       0.00045153988 -0.025115704 0.0011096015 0.0011578643
000220 38 84 b7 ba 0e 8f 58 bd c6 ba 59 bc 0b 05 94 bd
       -0.0014001196 -0.052870803 -0.013289159 -0.07227524
000230 af c3 05 bf 93 98 2f 3b 68 22 fe 38 5a 1b 38 ba
       -0.52251714 0.0026793822 0.000121180725 -0.00070231187
000240 26 0a 6f 3b 63 90 22 3b 0a a1 05 b8 d0 cf 9e bd
       0.0036474555 0.00248053 -3.185965e-05 -0.07754481
000250 b1 73 f9 39 b5 28 80 39 35 59 f5 bd 97 9c 57 ba
       0.00047579178 0.00024444392 -0.119799055 -0.0008224933
000260 1c 45 ea b9 69 1a ab ba e6 1d bf be 94 6c 70 bd
       -0.00044683449 -0.0013054135 -0.37327498 -0.0586973
000270 db 9b 56 bc aa e6 a2 3a f3 c0 0f bf ca 18 b7 b9
       -0.013098682 0.0012428362 -0.5615379 -0.0003492295
000280 53 85 a5 be cc 2e f5 b9 fa 7b d1 b9 3b 30 13 ba
       -0.3232828 -0.00046764908 -0.00039955956 -0.0005614792
000290 d2 d8 3a b9 32 88 6c 39 58 c6 da b9 40 17 b7 b9
       -0.00017819114 0.0002255745 -0.00041727978 -0.00034921803
0002a0 9a c7 a3 bc 6e 11 09 bb 80 6a 7b 3a 3a 23 b5 ba
       -0.019992638 -0.002091493 0.000959076 -0.0013819702
0002b0 0b 18 7e 39 2e dc 89 bc 0a 12 12 b8 7e 4a c0 3a
       0.00024232284 -0.016828623 -3.4825913e-05 0.0014670638
0002c0 61 1e 04 be 53 6e 83 be ae 8f c9 bc 60 95 b1 bd
       -0.12902214 -0.25670108 -0.024604645 -0.08671069
0002d0 32 29 f8 b8 b0 c6 40 bd 6b df c0 39 4b fe c1 3a
       -0.00011833235 -0.047064483 0.00036787553 0.0014800517
0002e0 eb fb 23 3a 93 cf 49 bd b3 24 a9 bd 14 2c a8 bc
       0.0006255495 -0.049270224 -0.08258953 -0.02052883
0002f0 d7 3f c6 be ba e0 6a b9 37 e1 83 3a 44 66 1d b8
       -0.3872058 -0.00022399696 0.0010061626 -3.752696e-05
000300 0e 1f 53 bd 16 90 d4 3a db d9 d4 bb b2 51 b3 3a
       -0.051543288 0.0016217257 -0.006495697 0.0013680963
000310 81 68 ca be 03 10 a3 bd 98 78 9b b8 a3 46 4f bb
       -0.39532855 -0.07962038 -7.413438e-05 -0.0031627796
000320 46 ad 65 38 59 d5 96 bd ba 95 65 bb 24 26 b4 b8
       5.4759228e-05 -0.073649116 -0.003503187 -8.590173e-05
000330 2e a7 9e 38 90 d8 17 39 ca 77 6d 3e ce 8d 65 ba
       7.565167e-05 0.00014481158 0.23190227 -0.0008756787
000340 3f 33 a5 b9 51 49 e6 be 48 fb aa 3b 98 58 36 3a
       -0.00031509434 -0.4497781 0.0052179433 0.00069559505
000350 7f 31 a4 bc ab 45 b2 bd ae 36 d6 38 20 32 2c 39
       -0.020043133 -0.08704694 0.000102145 0.00016421871
000360 ec 60 ab b8 7c 0b 88 b8 48 b8 6f b9 90 11 51 3a
       -8.1719685e-05 -6.4871245e-05 -0.00022861466 0.00079753343
000370 f7 78 b2 3a 42 48 a1 be cc ad 30 3c 32 9e 17 bb
       0.0013616373 -0.3150044 0.010783624 -0.0023135063
000380 75 4d e4 be f4 88 9b 37 87 fa 1c bd c8 82 a9 38
       -0.44590345 1.8541214e-05 -0.03832486 8.082908e-05
000390 52 b6 8e b8 a9 52 be 39 13 be 51 bd bc b5 64 bc
       -6.8050475e-05 0.0003630121 -0.05120666 -0.0139593445
0003a0 5c f2 fd 3b 3b 10 06 bd 01 1e 40 ba d6 4d 8f 3c
       0.0077498388 -0.032730322 -0.00073286897 0.01749317
0003b0 c1 ce 14 bd a4 21 66 3a 9e 19 a5 38 bd 57 96 bb
       -0.03632999 0.00087788166 7.872585e-05 -0.004588096
0003c0 f8 bd 33 37 ac b4 34 39 99 09 f2 3b 56 fc ab b8
       1.0713462e-05 0.00017233443 0.007386398 -8.200917e-05
0003d0 b6 98 2c bb cd 4a c9 bd af 66 b0 be c2 0c ca 3a
       -0.002633614 -0.0982872 -0.3445334 0.0015415179
0003e0 72 65 2d 3e 29 bb 8d b9 c4 92 8e b9 f0 fc 37 ba
       0.1693323 -0.0002703306 -0.000271937 -0.00070185866
0003f0 33 24 86 b9 1b 54 94 bd cc d5 54 bc 7a e2 18 39
       -0.00025585442 -0.07242604 -0.012990426 0.00014580219

fc3.bias f4 [256]
000000 26 c6 8c ba 80 d6 01 3e b6 4c 9a 39 e2 b1 39 3e
       -0.0010740205 0.12679482 0.00029430323 0.18134263
000010 b4 82 d2 3a 57 7e 08 3e 6c 4e 98 b9 9e 91 af 3b
       0.0016060681 0.13329445 -0.00029050128 0.005357935
000020 16 d6 89 3b fc dd 88 bb 0e d2 c5 b9 f8 88 12 bb
       0.0042064292 -0.004176853 -0.0003773127 -0.0022359472
000030 ec f0 52 b9 0a 82 35 3e 25 a0 6b 3d 55 96 aa ba
       -0.00020116911 0.17725387 0.057525773 -0.0013014773
000040 d5 6c ef 3a 8e 2f 82 3c 0e 07 dc 3a 68 59 ad bc
       0.0018266687 0.015891816 0.001678677 -0.021160796
000050 d0 48 e4 b8 ca b8 e7 38 c2 1a a6 3e ef a7 49 bd
       -0.000108854496 0.00011049358 0.3244229 -0.04923242
000060 04 fa 93 ba 13 d2 b4 3a 93 80 01 be 0d af 4b b9
       -0.001128972 0.0013795517 -0.12646703 -0.000194248
000070 34 4f 68 3b 1b 1b 2d ba fb 6a d0 39 79 83 ea 3a
       0.00354476 -0.00066034653 0.00039752558 0.0017891965
000080 c2 ae 23 3e 50 56 ff bd dc 7e 37 39 e0 4c c5 b9
       0.15984634 -0.12467635 0.00017499499 -0.00037632044
000090 3a 72 f6 39 f6 c6 25 3a 99 49 a4 3a 0f 15 21 bb
       0.00047005882 0.0006323898 0.0012534141 -0.0024579202
0000a0 85 3f cd bb 78 0b 84 ba 41 4e 44 3a 23 81 10 ba
       -0.0062636756 -0.0010074219 0.00074884674 -0.0005512407
0000b0 1a 55 83 3c 38 fc b2 3b f0 12 d7 ba f4 a8 99 3b
       0.01603179 0.0054621957 -0.0016408842 0.0046893302
0000c0 a9 84 2b 3e e0 25 01 bd cd 89 79 3c 31 41 15 3c
       0.16749825 -0.03153026 0.015230608 0.009109781
0000d0 18 3c 42 3c 1c f0 2a ba 58 19 25 ba 55 9e a7 3d
       0.011855148 -0.00065207644 -0.0006298027 0.08184496
0000e0 00 5e 62 bb f6 32 ee bb 50 24 29 b9 a4 20 40 bc
       -0.0034540892 -0.0072692586 -0.00016130623 -0.011726532
0000f0 5f 16 3a 3b fc 3d b8 3e 56 c6 44 bc 79 17 4c 3c
       0.0028394682 0.3598479 -0.012010178 0.012456768
000100 97 f4 44 b9 62 da f9 38 66 e1 56 3c c4 78 7e bb
       -0.00018783133 0.00011913922 0.013115263 -0.0038829306
000110 65 40 4f b9 f7 47 6d bb 7a 31 7e 39 52 42 a8 bc
       -0.00019765047 -0.0036206224 0.00024241759 -0.020539436
000120 3f c3 39 ba 54 7c bd b7 3e 10 af bb 87 e4 9b b9
       -0.0007086284 -2.258845e-05 -0.0053425124 -0.0002973417
000130 e3 47 da b8 f4 5b 21 3c b0 aa b8 bb 74 9e b4 b9
       -0.0001040844 0.0098485835 -0.005635582 -0.00034450332
000140 9b c7 8a bd 24 ff c5 b8 f0 4c 1f 3c c7 78 16 bc
       -0.06776353 -9.441216e-05 0.009722933 -0.009184069
000150 ea 69 5b 3c c5 73 a6 ba 55 44 3c b9 13 07 e5 3a
       0.013391951 -0.0012699297 -0.00017954533 0.0017473422
000160 a4 1e d7 39 70 e0 9c bc 07 2d f0 39 c3 d3 d8 bd
       0.00041030825 -0.019149989 0.00045809915 -0.10587265
000170 c2 82 be bb 30 a3 cb 38 00 0a a5 37 1a 98 eb bb
       -0.0058139274 9.71019e-05 1.967419e-05 -0.007189763
000180 e4 e3 a4 3b 3b 8d 2a bb a4 a9 10 ba 49 ac 59 bc
       0.0050320495 -0.0026024121 -0.00055184425 -0.013285705
000190 ae 6b 19 bc e2 4a 7b bc 85 e6 f3 bb 94 d3 d9 bc
       -0.009364052 -0.015337678 -0.0074432516 -0.026590146
0001a0 9d 79 32 bc 8e 28 b6 3a 73 80 8a bb 58 18 d1 3b
       -0.010893253 0.0013897584 -0.004226738 0.006381076
0001b0 b9 05 6f 39 82 2b 82 bd 4c a9 3e 3c 95 00 8b 3b
       0.00022794948 -0.06355955 0.011637043 0.0042420127
0001c0 9e 8e 4b 3a da 31 0b 3a 18 25 29 ba 81 1e 55 b9
       0.0007765087 0.00053098577 -0.0006452366 -0.00020324627
0001d0 4c 6c 00 bc 1b 7f 0e bc 8a 8c dd bb 83 e9 b8 38
       -0.00783832 -0.0086972965 -0.0067611383 8.817299e-05
0001e0 54 a1 3b ba 5c ef e1 ba 0b 6c c2 39 28 55 6a 3e
       -0.00071575237 -0.0017237472 0.00037083062 0.22884047
0001f0 9e 9c 8f bb 8e 3e b9 b9 b7 ea 80 3e a7 31 40 ba
       -0.004382684 -0.00035332557 0.25179073 -0.00073316175
000200 20 ea 56 ba 6d 3b b9 3c 53 b3 21 3a a2 36 ff 3c
       -0.00081983395 0.022611344 0.0006168384 0.03115398
000210 3b 70 f8 b9 ac 20 41 3c 52 ce d1 b9 a1 88 93 3d
       -0.00047385864 0.011787575 -0.00040017307 0.07203794
000220 1f 46 8f bc f8 cf 3c bc a3 dc f4 bd bd 2d b3 bc
       -0.017489491 -0.011524193 -0.119561456 -0.021872396
000230 a2 0b 20 3d 8c 16 ed bd c5 06 14 3a 3c 9d 23 b9
       0.039073594 -0.11576566 0.00056467607 -0.00015603466
000240 f0 6d 67 3b 1b 44 ac 3a 70 54 31 3c fd bc 37 ba
       0.003531333 0.0013142856 0.010823354 -0.00070090574
000250 53 c0 2f 3a 01 60 80 bb 14 e3 92 ba 21 8c a8 ba
       0.0006704379 -0.0039176946 -0.001120659 -0.0012859144
000260 8e 16 b3 bb 1c d8 de bd 9e c1 b0 ba 7b 13 fd 3e
       -0.005465335 -0.10881063 -0.0013485437 0.49428925
000270 44 f9 5e 3b 30 10 49 39 fd 82 15 bd a0 01 de b9
       0.0034023086 0.00019174884 -0.036501873 -0.0004234435
000280 c5 4e f8 bb c6 50 a5 b9 59 46 93 bb c4 e0 83 38
       -0.0075777494 -0.00031531433 -0.00449447 6.2884326e-05
000290 2a 16 80 39 8e e6 5f ba 41 e1 af b9 05 7d 27 ba
       0.00024430576 -0.000854113 -0.00033546428 -0.0006389174
0002a0 42 5a 0e 3d 84 ca 92 bb c0 09 4d 3c b9 e0 72 3d
       0.034754045 -0.004479708 0.012514532 0.059296343
0002b0 a3 1e 61 ba 08 52 45 ba bc 57 00 ba 3d 38 a8 b9
       -0.0008587634 -0.0007527177 -0.0004895886 -0.00032085358
0002c0 cd 7c 1d 3a ae 06 f7 3d a6 f7 d0 b9 69 a4 3b 3b
       0.00060076715 0.12061821 -0.00039857364 0.0028631932
0002d0 3b 6c d5 b9 83 69 85 39 31 69 81 3e bd f4 5b bd
       -0.00040707164 0.0002544635 0.25275567 -0.053700197
0002e0 ee 3d 72 3a e9 8b 93 bb 33 54 e7 38 42 92 d4 3e
       0.00092407956 -0.0045027626 0.00011030622 0.41517836
0002f0 b3 15 74 3d 4b aa d0 3c 63 eb f1 bb bb f5 3d 3c
       0.059591006 0.025471827 -0.0073827966 0.011594231
000300 d8 53 b1 39 35 a5 b5 3a a1 44 ad bb 32 9f 9c 3e
       0.0003382254 0.001385844 -0.005287722 0.30590206
000310 c2 7d dc bc 0d 21 d6 38 80 1a ef 39 0d fb df bd
       -0.026915435 0.000102104714 0.00045605376 -0.10936556
000320 a1 3b d4 bb a3 80 21 bc af 9a 21 3e 19 9b 46 bb
       -0.006476835 -0.00985733 0.15781663 -0.0030304848
000330 f9 d4 59 bb 8a 43 fc b9 db 5a 5e 3c b3 24 44 b9
       -0.0033238514 -0.00048115506 0.013571466 -0.00018705688
000340 c6 cc e5 3c 2c df c4 ba 1b d0 33 bc 35 62 1e 3b
       0.028051745 -0.0015020124 -0.010974909 0.0024167423
000350 68 e3 e5 bc 83 d8 13 3d 7e 2a aa bb 8e 10 c1 39
       -0.028062537 0.036095154 -0.0051930537 0.00036824163
000360 80 41 cf bc c2 0c 09 bd 37 98 45 3b 08 c5 96 3a
       -0.025299788 -0.033459432 0.0030150542 0.0011502812
000370 2c 38 84 ba 1e dc ca 3e 21 59 28 ba 35 31 a3 3d
       -0.0010087541 0.3962106 -0.00064219726 0.0796837
000380 45 84 15 be 17 b9 93 3e 07 7e 91 bb d6 de e4 b9
       -0.14601238 0.2885215 -0.0044400725 -0.00043653575
000390 6a 6f 77 3e 54 0f 61 3d d8 37 cd 3b 3a 47 03 3b
       0.24163595 0.05494626 0.0062627606 0.0020031468
0003a0 4c d7 f8 3a dc bf 17 39 a9 66 e2 ba 66 b9 7d bc
       0.0018985062 0.00014471955 -0.0017273027 -0.015486097
0003b0 55 0a b7 bb 4e ed 3e 3b 15 08 e4 3b 86 59 de ba
       -0.0055859485 0.0029133144 0.0069589713 -0.0016963936
0003c0 32 b1 19 bb c8 0e 2a 3c f6 51 37 3a 10 1e 41 bc
       -0.0023451564 0.010379501 0.0006993109 -0.011786953
0003d0 8c 5f e4 b8 7d 47 bd ba 90 1a ea b9 c0 ea 7a ba
       -0.00010889684 -0.0014440861 -0.0004465175 -0.00095717236
0003e0 c0 28 0a bc 24 f5 d8 ba 78 28 1c 3e 2d 30 c2 bb
       -0.008432567 -0.001655255 0.15249813 -0.005926153
0003f0 99 98 21 3b 70 2a 76 b8 74 e9 a7 3e 3a 2d 0d 3c
       0.0024657606 -5.8690493e-05 0.32795298 0.00861674
