shanghai_road_delivery/results_centralized/best_centralized_episode_0.pth_centralized_actor.pth (torch, 922162 bytes, 20 tensors)

fc1.weight f4 [256, 364]
0	0xbc33fe94	-0.010985989
1	0x3cc0a1d4	0.023514666
2	0xbc5ccb02	-0.013476135
3	0x3c9792df	0.01850265
4	0x3b133f00	0.002246797
5	0x3c967d4f	0.018370299
6	0x3cc0d853	0.023540651
7	0xbc41065e	-0.011781303
8	0xbbf9c63c	-0.0076225083
9	0xbc064951	-0.008196191
10	0xbc0cbbea	-0.008589724
11	0x3c644830	0.0139332265
12	0xbc9e1a3e	-0.019299623
13	0xbb6309be	-0.0034643258
14	0xbc3f4536	-0.011674216
15	0x3cb70e50	0.022345692
16	0xbb9a369e	-0.004706218
17	0x3cc0f7e5	0.023555705
18	0x3c635384	0.013874892
19	0x3c54dd64	0.012992237
20	0x39384b60	0.00017575687
21	0x3c5ceb4b	0.013483833
22	0xbca08dd2	-0.019598875
23	0xbc35d2ee	-0.011097653
24	0x3c8a3600	0.016871452
25	0x3c3a3bf2	0.011366831
26	0x3ae95548	0.0017801905
27	0x3c9f1833	0.019420719
28	0xbc50b7cc	-0.012739133
29	0x3b92e425	0.0044827634
30	0x3ba07526	0.0048967777
31	0x3cbcbb69	0.023038583
32	0xbcb840b2	-0.022491787
33	0xbc17392c	-0.009229939
34	0x3bdd15b2	0.006746971
35	0xbc017b0d	-0.007902873
36	0x3cbf5c2e	0.023359384
37	0x3a4afd98	0.0007743477
38	0x3c17ff18	0.009277128
39	0x3c7e2c11	0.015513436
40	0x3d23a095	0.039948065
41	0x3c7a2ab8	0.015268974
42	0x3c58c6da	0.013231004
43	0x3c60c92b	0.013719837
44	0x3d2052cc	0.03914146
45	0xbc3a4dc1	-0.011371077
46	0xbb90162c	-0.0043971743
47	0xbc283707	-0.010267026
48	0xbc47ba62	-0.012190433
49	0x3ca0c5f6	0.019625645
50	0x3c94db57	0.018170996
51	0x3b8591ca	0.0040762173
52	0xbcb7d1d4	-0.022438921
53	0xbc1e9731	-0.0096796015
54	0x3c98d5b5	0.018656591
55	0xbcadd4b3	-0.021219587
56	0xbc89d766	-0.016826343
57	0x3b9b594e	0.0047408706
58	0xbc457c8b	-0.012053619
59	0xbc15887a	-0.009126777
60	0x3c3de178	0.0115894005
61	0xbc580fa0	-0.013187319
62	0x3c4aaf3c	0.012370881
63	0xbc9514ac	-0.018198334
64	0x3c4fe807	0.012689597
65	0x3cc00940	0.02344191
66	0x3c6658d2	0.014059262
67	0x39a3e5d0	0.00031261006
68	0x3c2d07ec	0.010560971
69	0xbcb0d80a	-0.02158739
70	0xbc17242a	-0.009224931
71	0xbc3d6fae	-0.011562271
72	0xbc0f2d7a	-0.00873887
73	0x3c917500	0.017755985
74	0x3afb8418	0.0019189147
75	0xbcb1540b	-0.02164652
76	0x3cbd1393	0.023080623
77	0xbc404985	-0.011736278
78	0xbc4b9432	-0.012425469
79	0x3bb8b9cb	0.0056373826
80	0x3c3c90ed	0.011509162
81	0xbc0885e0	-0.0083327
82	0x3ca3a9a6	0.019978356
83	0x3c25f49c	0.01012912
84	0x3cbf5058	0.02335374
85	0x3cb6e283	0.022324806
86	0x3cab920b	0.020943662
87	0xbcbb76fe	-0.022883888
88	0xbbeb5760	-0.007182047
89	0xbbf62a5a	-0.007512373
90	0x3cbb9274	0.022896983
91	0xbc804dd2	-0.015662108
92	0xbc571ff5	-0.013130178
93	0x3c80e76b	0.015735349
94	0x3bdb8a4b	0.0066998354
95	0x3b5c7d90	0.0033644177
96	0x3c5a68dd	0.013330665
97	0x3c9b65df	0.018969474
98	0xbb4cdb06	-0.0031258478
99	0x3c884058	0.016632244
100	0xbbe404d3	-0.006958583
101	0xbc84f009	-0.016227739
102	0x3cc00e76	0.023444396
103	0x3bb23a18	0.005439054
104	0x3c831fb0	0.01600632
105	0xbbe1c03c	-0.006889371
106	0xbc9b433c	-0.018952958
107	0x3c349100	0.011020899
108	0xbc901f1f	-0.017592965
109	0xbcb421b7	-0.021988733
110	0x3cbae5e9	0.022814708
111	0xbbed825f	-0.0072482075
112	0x3cbff624	0.023432799
113	0x3ba7e6b4	0.0051239375
114	0x3b276eba	0.0025548176
115	0x3c63d377	0.013905398
116	0x3b973db1	0.0046155085
117	0x3c1d17f8	0.009588234
118	0xbc0ded24	-0.008662496
119	0x3c039e8f	0.008033409
120	0x3cb184d3	0.02166978
121	0xbbe3690c	-0.006940013
122	0xb87db880	-6.049173e-05
123	0x3c610592	0.013734238
124	0xbc040eb2	-0.008060144
125	0xbc073d8b	-0.008254419
126	0xbba849be	-0.005135744
127	0x3c17acce	0.009257508
128	0x3c180122	0.009277614
129	0x3c9a0f45	0.01880611
130	0xbcc00ce8	-0.023443654
131	0xbcc0b08f	-0.02352169
132	0x3cb59c5a	0.02216928
133	0x3a8c2c00	0.0010694265
134	0xbaea7e08	-0.0017890343
135	0x3cb8b951	0.022549303
136	0xbcbfbc28	-0.02340515
137	0xbc2f4de2	-0.010699721
138	0xbc015d26	-0.0078957435
139	0x3c1a4ed3	0.009418207
140	0xbc4c1558	-0.012456261
141	0x3c9429ac	0.018086277
142	0x3cb80010	0.022460967
143	0x3c814b09	0.01578285
144	0x3b45c0f8	0.0030174833
145	0x3c7251d3	0.014790016
146	0xbb8e389d	-0.004340245
147	0x3be044c2	0.006844134
148	0xbc84bf44	-0.016204484
149	0x3ca41aa3	0.020032233
150	0x3c4dee86	0.012569075
151	0x3bc5b87d	0.0060339556
152	0xbc4c3884	-0.012464646
153	0x3c96aec0	0.018393874
154	0x3ba9dc28	0.0051837154
155	0xbc342d6c	-0.010997158
156	0x392542a0	0.00015760446
157	0xbb9d4602	-0.0047996053
158	0xbcab6de9	-0.020926433
159	0xbc2e99b1	-0.01065676
160	0xbcb1e59f	-0.021715937
161	0x3c8847f9	0.016635882
162	0xbc53703e	-0.012905179
163	0x39e697a0	0.00043981988
164	0x3c12a234	0.008949805
165	0xbca01ae8	-0.01954408
166	0xbc4595c2	-0.012059631
167	0xbbb48654	-0.005509177
168	0x3cbb4881	0.022861721
169	0x3cb68bcf	0.022283463
170	0xbbd803af	-0.006592236
171	0x3cbf5676	0.023356657
172	0xbc3260b0	-0.01088731
173	0xbca42794	-0.020038404
174	0xbc11b8fa	-0.0088941995
175	0xb9cb31e0	-0.00038756337
176	0x3cc26191	0.023728164
177	0x3bdea3b4	0.0067944173
178	0xbcbd1ab8	-0.02308403
179	0x3cb94476	0.022615653
180	0xbb02e6b4	-0.0019973936
181	0xbc29d4ce	-0.010365678
182	0xbbedb736	-0.0072545065
183	0xbcb9deaa	-0.022689182
184	0x3c6352ca	0.013874719
185	0x3cb7bcb1	0.022428842
186	0xbc0f74f4	-0.008755911
187	0xbca7d1e9	-0.020485835
188	0xbc0bdc5b	-0.008536424
189	0xbc5adb13	-0.013357895
190	0xbc0291c3	-0.007969323
191	0xbc0f00c8	-0.008728214
192	0x3c73e0e2	0.014885159
193	0xbca6ae46	-0.020346772
194	0xbc535a15	-0.012899895
195	0x3c8eecaf	0.017446844
196	0xbc2fe15e	-0.010734884
197	0x3c45688e	0.012048854
198	0x3c149512	0.009068744
199	0x3c3809f4	0.011232842
200	0x3d12e629	0.03586403
201	0xbcab6a6b	-0.020924767
202	0xbcb1d7fb	-0.021709433
203	0x3c2d7ac7	0.010588354
204	0xbcb35a23	-0.021893566
205	0x3c6f483f	0.014604627
206	0xbc593312	-0.013256805
207	0xbb86ae40	-0.0041101277
208	0x3b42e710	0.0029739775
209	0xbc1ee271	-0.0096975425
210	0x3c8c4bb7	0.017125947
211	0xb8059800	-3.1851232e-05
212	0x3c8b2ec4	0.016990073
213	0xbb4ac3ac	-0.0030939383
214	0x3c4b8c9f	0.012423663
215	0xbca29a10	-0.019848853
216	0x3cc0ee97	0.023551269
217	0x3bf8fc00	0.0075984
218	0x3c07d0a7	0.008289493
219	0x3bd26b03	0.006421448
220	0xbc1212d7	-0.008915625
221	0x3cbc4a97	0.022984786
222	0xbc47080e	-0.0121479165
223	0xb9934390	-0.00028088363
224	0x3a74e8c0	0.0009342544
225	0xb88b81c0	-6.652204e-05
226	0x3bb46dcb	0.0055062524
227	0x3c0af322	0.008480819
228	0xbc49a947	-0.012308425
229	0xbc366ef9	-0.011134856
230	0x3c4cf588	0.012509711
231	0x3cb935d6	0.022608679
232	0xbcb99656	-0.022654694
233	0xbb94579b	-0.004527045
234	0xbc43093d	-0.011904058
235	0x3c5c7266	0.013455009
236	0x3c9e4d24	0.019323893
237	0x3cb404ec	0.021975003
238	0xbcbaf304	-0.022820957
239	0x3c67199a	0.014105225
240	0xbc97b31e	-0.018518027
241	0x3c17ba2d	0.009260696
242	0x3c4cad0c	0.012492429
243	0x3c996a65	0.01872749
244	0x3c478808	0.0121784285
245	0xbb8214e4	-0.0039697755
246	0x3c342a98	0.010996483
247	0xb9e55240	-0.00043739565
248	0xbcd2866a	-0.02569886
249	0x3c9ad565	0.018900583
250	0xbc2272dc	-0.00991508
251	0x3c113c10	0.008864418
252	0x3ce016a6	0.02735455
253	0xb9ee9ed0	-0.00045513222
254	0x3bceef91	0.0063151796
255	0xbb9730b8	-0.004613962

fc1.bias f4 [256]
0	0x3c9d7100	0.019218922
1	0x3c74caa7	0.014940894
2	0xbccc7173	-0.02495644
3	0xbca6b1a5	-0.02034838
4	0x3b868fba	0.004106489
5	0x3c5580e4	0.013031218
6	0xbc5e8aa2	-0.013582857
7	0x3b9a45ea	0.0047080414
8	0xbbfec726	-0.007775205
9	0x3c9ec2d8	0.019380018
10	0xbd13d7f6	-0.03609463
11	0xbc2b157a	-0.010442132
12	0xbc288dfb	-0.010287757
13	0xbc84871e	-0.01617771
14	0xbcb22ff7	-0.021751387
15	0x3a48a830	0.00076544564
16	0xbb2e1254	-0.0026561217
17	0xbc41928e	-0.0118147265
18	0xbcaf335a	-0.021386791
19	0x3d3e5a01	0.046472553
20	0xbc4413c2	-0.011967601
21	0xbcf0ee50	-0.029410511
22	0x3c9c3451	0.019067915
23	0xbd34028f	-0.043947753
24	0xbd3cabe3	-0.04606236
25	0x3c67ee17	0.014155886
26	0xbb640416	-0.0034792474
27	0x3d3e0225	0.046388764
28	0x3d35bccc	0.044369504
29	0x3c05e9fa	0.00817346
30	0xbcac3875	-0.021023015
31	0x3bb17e38	0.005416658
32	0x3ce3f366	0.027826022
33	0xbc8aa056	-0.016922157
34	0x3c581830	0.0131893605
35	0x3d2486bc	0.040167555
36	0xbd38234e	-0.044955544
37	0xbc20a6a9	-0.00980536
38	0x3c0b0f14	0.008487482
39	0x3cfd9777	0.030956013
40	0xbcb433f2	-0.021997426
41	0x3b9cf916	0.0047904355
42	0x3c88660c	0.016650222
43	0xbc67ba7d	-0.014143583
44	0xbca9a559	-0.020708727
45	0xbc769861	-0.015050978
46	0xbc7ef7c5	-0.015562003
47	0x3cabf96b	0.020992955
48	0xbca7e8a2	-0.02049667
49	0xbc451822	-0.0120296795
50	0x3c73fab6	0.014891317
51	0xbcfb6ea3	-0.030692404
52	0xbcb38702	-0.021914963
53	0x3b89072d	0.0041817636
54	0xbc734d73	-0.014850008
55	0xbb26dfd6	-0.0025463006
56	0xbcdf81a4	-0.027283497
57	0x3d2bcbbf	0.041942354
58	0x3cb0cbac	0.021581493
59	0x3c30c4ae	0.01078908
60	0x3a494d00	0.00076790154
61	0x3c0463fe	0.008080481
62	0xbbbc0126	-0.0057374416
63	0x3d398be6	0.045299433
64	0x3d3a267a	0.04544685
65	0x3d148747	0.036261823
66	0xbc27813c	-0.010223683
67	0x3b9ee3ec	0.0048489477
68	0x3ba5b9d0	0.005057551
69	0x3d1d4dd1	0.03840429
70	0x3bce2701	0.0062912707
71	0x3ba5bbe2	0.005057798
72	0xbceddd98	-0.029036328
73	0xbc39b8d2	-0.0113355685
74	0xbc66006c	-0.0140381865
75	0xbc52ee1c	-0.0128741525
76	0xbc20a46a	-0.009804824
77	0xbc568ba1	-0.013094814
78	0xbd59f521	-0.05321229
79	0xbd20a0f9	-0.039216015
80	0x3d02fc2e	0.03197878
81	0xbd25a7df	-0.040443297
82	0xbb6a7f48	-0.0035781432
83	0xbd4a35cb	-0.049367707
84	0xbd0979ec	-0.03356354
85	0xbd21f3a1	-0.039538983
86	0xbc99d74c	-0.01877942
87	0x3c4bfde4	0.012450669
88	0xbc928a85	-0.017888317
89	0xbd59010b	-0.05297951
90	0xbd55ed11	-0.052228037
91	0xbb98366c	-0.0046451595
92	0xbc1ad54b	-0.009450267
93	0x3d0cdadd	0.03438841
94	0xbb9ff56a	-0.0048815506
95	0xbc03a1f7	-0.008034221
96	0xbca103cc	-0.01965513
97	0xbd319c5f	-0.043362018
98	0x3b67ceca	0.0035371059
99	0xbca51285	-0.020150432
100	0xbc412f4e	-0.0117910635
101	0xbcb5c81a	-0.022190142
102	0xbd5639a9	-0.052301083
103	0x3a129258	0.0005591265
104	0x398febe0	0.00027450826
105	0x3d4ce51d	0.050023187
106	0x3c539701	0.01291442
107	0x3cb21987	0.021740688
108	0x3be2d29c	0.0069220793
109	0x3bfac878	0.0076532923
110	0xbd474cdb	-0.04865728
111	0xbc675948	-0.014120407
112	0x3cb04a32	0.021519754
113	0x3c0ef69e	0.00872579
114	0xbc66f730	-0.01409702
115	0xbc96a8a6	-0.018390965
116	0x3b97d15e	0.004633113
117	0x3b4b4440	0.0031016022
118	0x3c0d4039	0.008621269
119	0xbcda9ac0	-0.026685119
120	0xbd38ccac	-0.045117065
121	0xbc81cb15	-0.015843907
122	0x3c86263c	0.016375653
123	0xbc9d0a62	-0.01916999
124	0x3cc12eb2	0.023581836
125	0x3baa2e34	0.005193496
126	0xbc80e1c6	-0.015732657
127	0xbc294076	-0.01033031
128	0xbccb4928	-0.024815157
129	0x3cb01634	0.021494962
130	0xbbd8622e	-0.006603501
131	0x3cd35345	0.025796542
132	0xbc7f05fe	-0.0155653935
133	0xbd554f54	-0.052077606
134	0xbc80d164	-0.015724845
135	0x3d1c671b	0.038184267
136	0xbcbe868e	-0.02325752
137	0xb9d7f5c0	-0.00041191094
138	0xbc90fa50	-0.017697483
139	0xbae22688	-0.0017253915
140	0x3d6b008e	0.057373576
141	0xbcecadac	-0.028891407
142	0x3c274972	0.010210382
143	0xbc879225	-0.01654918
144	0x3d5fa162	0.054597266
145	0x3d287629	0.04112831
146	0xbc8d4ca9	-0.017248468
147	0xbd35b5f5	-0.04436298
148	0x3c246cc4	0.010035697
149	0xbbcfd992	-0.006343075
150	0x3c21a95e	0.00986704
151	0xbcb4cec7	-0.022071255
152	0x3c2fd1b4	0.010731149
153	0x3c517976	0.012785306
154	0x3ce73dee	0.028227773
155	0x3bc0602c	0.0058708396
156	0x3c4a4502	0.012345554
157	0xbceb06e9	-0.028689818
158	0x3d2d9831	0.04238147
159	0xbd1cf85c	-0.03832279
160	0xbc0a7b8a	-0.008452306
161	0x3b6d29f4	0.0036188336
162	0xbc859674	-0.016307093
163	0x3c8734a0	0.016504586
164	0xbd400800	-0.04688263
165	0x3bd0e172	0.0063745314
166	0xbcf6d1b5	-0.030129293
167	0x3c9b0c33	0.018926715
168	0xbc62a52c	-0.013833325
169	0xbc4c7262	-0.012478443
170	0x3d4df5a5	0.050283093
171	0x3d26cdab	0.040723484
172	0x3caea2cd	0.021317864
173	0xbbff6690	-0.007794209
174	0x3c241a00	0.0100159645
175	0xbc111e1c	-0.008857276
176	0x3c5010cd	0.012699318
177	0xbd20cef8	-0.03925988
178	0xbbab4d2c	-0.0052277055
179	0x3c895f0f	0.01676896
180	0x3cdaa7c0	0.026691318
181	0xbc66f863	-0.014097306
182	0x3c35dbf1	0.011099801
183	0x3c13e1da	0.009026015
184	0x3c047bb2	0.008086132
185	0x3d362b89	0.044475112
186	0x3c665b6c	0.014059883
187	0xbca4bfad	-0.02011093
188	0xbc89ef79	-0.016837822
189	0xbbd5c1a3	-0.0065233274
190	0x3d2f334d	0.042773534
191	0x3ba3fdb0	0.005004607
192	0x3cb1b498	0.02169256
193	0xbd097386	-0.033557437
194	0x3bd64a26	0.006539601
195	0x3c07173b	0.008245285
196	0xbccaf05f	-0.024772821
197	0xbc45a61f	-0.012063532
198	0xbd24b550	-0.040211976
199	0x3cece934	0.028919794
200	0x3d20ad7e	0.039227955
201	0x3d17c8d8	0.037056774
202	0x3cae8c01	0.021306993
203	0x3bba5f27	0.0056876126
204	0xbd2503f1	-0.040286962
205	0xbd129aa6	-0.035792015
206	0x3c0536c5	0.008130734
207	0x3c3f0d9b	0.011660959
208	0xbb80504d	-0.0039158226
209	0xbc627f92	-0.01382436
210	0x3b01fa0a	0.0019832873
211	0x3cd77ec9	0.026305573
212	0xbc0b4b8d	-0.008501899
213	0xbd5dab43	-0.054118406
214	0x3d4ed57b	0.05049656
215	0x3c974262	0.018464271
216	0xbcafbfcc	-0.02145376
217	0x3c224dbc	0.009906229
218	0xbc9fc212	-0.01950172
219	0x3c5bd0a6	0.013416445
220	0xbc89edbc	-0.016836993
221	0x3bd698c0	0.006548971
222	0x3c1a4d34	0.009417821
223	0xbbd44be8	-0.0064787753
224	0xbd29715f	-0.041367885
225	0x3c912607	0.017718328
226	0x3bfdfe9a	0.007751298
227	0x3b830caa	0.0039993124
228	0xbd4e627c	-0.05038689
229	0xbc2f0003	-0.010681155
230	0x3c1709e5	0.009218668
231	0xbc668c3d	-0.014071521
232	0xbd477328	-0.048693806
233	0xbc1f7282	-0.009731891
234	0xbc007095	-0.007839342
235	0xbc22774c	-0.009916138
236	0x3ce8481b	0.028354695
237	0xbc2818a6	-0.010259783
238	0x3cc76fda	0.024345327
239	0xbc62f611	-0.013852612
240	0xbc150b17	-0.009096882
241	0x3cc348d3	0.023838436
242	0x3c1d7b9e	0.009611992
243	0xbc06c39a	-0.008225346
244	0x3cbbf4f0	0.022943944
245	0xbcd690af	-0.026192037
246	0x3c27596b	0.01021419
247	0x3c2aff34	0.010436822
248	0xbc08bcd8	-0.008345805
249	0x3c63a901	0.013895274
250	0x3d2490c5	0.040177125
251	0xbc579e04	-0.013160232
252	0xbc132e73	-0.008983242
253	0xbcef06ed	-0.029178107
254	0xbc22fa07	-0.0099473065
255	0x3baa38d6	0.0051947637

fc2.weight f4 [256, 256]
0	0xbc5f9159	-0.013645493
1	0x3b9c905e	0.004777952
2	0x3d9b1a12	0.07573332
3	0x3ce4248d	0.02784946
4	0x3cc92e79	0.024558293
5	0x3c882b13	0.016622102
6	0xbd39ec34	-0.045391276
7	0x3c7d1719	0.015447401
8	0xbc483b25	-0.012221132
9	0x3ce97f85	0.028503189
10	0xb9997b60	-0.00029274356
11	0x3cadc046	0.021209847
12	0xbc611ae3	-0.01373932
13	0x3e0dc4ff	0.1384468
14	0x3cb626b5	0.022235254
15	0xbc036bf7	-0.008021346
16	0x3de58663	0.11207273
17	0xbd2a11fb	-0.041521054
18	0xbc1d4dac	-0.009601038
19	0xbce98ed8	-0.028510496
20	0x3c96d85f	0.01841372
21	0xbc9b80f8	-0.018982396
22	0x3d1c710d	0.03819375
23	0x3d8905df	0.06690573
24	0xbd645ed0	-0.055754483
25	0xbcc5b7f1	-0.024135562
26	0xbcbd718d	-0.023125434
27	0x3d3dc48a	0.046330012
28	0x3dbdf03e	0.09274338
29	0xbc319dd3	-0.010840851
30	0x3cf93ad0	0.030423552
31	0x3ab5bfc4	0.0013866355
32	0xbd231e59	-0.039823864
33	0xbcdd895c	-0.027043037
34	0x3c38720d	0.011257661
35	0x3dbc5cf5	0.09197418
36	0x3d2c588e	0.04207664
37	0xbc0fc7df	-0.00877568
38	0xb9bd1720	-0.0003606612
39	0xbd22f504	-0.039784446
40	0xbb578474	-0.0032885345
41	0x3cbea1de	0.023270544
42	0x3bd9533c	0.0066322368
43	0x3a880928	0.0010378705
44	0x3ba9ac21	0.00517799
45	0x3d89c59a	0.06727143
46	0x3d667e60	0.056272864
47	0xbca031fc	-0.019555084
48	0xbc9f419b	-0.019440463
49	0x3b98cc84	0.004663052
50	0x3d4576cf	0.048209008
51	0x3be2a7fa	0.006916997
52	0xbcbf1359	-0.023324655
53	0x3cbc2948	0.022968903
54	0xbba8cbf2	-0.0051512653
55	0xbb0ef63a	-0.0021814243
56	0x3db5983e	0.088669285
57	0x3d3e1cd5	0.046414215
58	0x3c6e17cd	0.014532042
59	0x3d2d8f80	0.04237318
60	0xbada815c	-0.0016670632
61	0xbc4fcf00	-0.01268363
62	0x3e014672	0.12624529
63	0xbc15a1a0	-0.009132773
64	0x3ce67868	0.028133586
65	0xbd4882f1	-0.048953
66	0xbc3debc0	-0.011591852
67	0xbca489ab	-0.020085176
68	0x3cf17caa	0.02947839
69	0x3c5fee3f	0.013667642
70	0xbd821df6	-0.06353371
71	0xbd6db24f	-0.058031376
72	0xbcf24dac	-0.029578052
73	0x3caff7e8	0.021480516
74	0xbc179b34	-0.009253312
75	0x3cb5e5cf	0.022204308
76	0x3c9e8bce	0.019353773
77	0x3c313656	0.010816177
78	0x3dee0f81	0.11624051
79	0x3d9070d1	0.07052768
80	0xbd0cd2f1	-0.034380857
81	0x3dbcde0d	0.0922204
82	0xbd58282b	-0.052772682
83	0xbcb6b2d9	-0.022302078
84	0x3d27e220	0.040987134
85	0xbc873b30	-0.016507715
86	0xbc4e64ae	-0.012597246
87	0xbbdd7181	-0.0067579155
88	0x3c65e1a2	0.014030846
89	0xbd80735b	-0.06272002
90	0x3d6db3ae	0.058032684
91	0xbba05e76	-0.004894073
92	0xbd1b1859	-0.037865017
93	0xbcf738a1	-0.03017837
94	0xbc41c53d	-0.01182681
95	0x3d1fae7a	0.038984753
96	0xbab38580	-0.0013696402
97	0x3dac30e6	0.08407764
98	0x3c8205f6	0.015871983
99	0xbc666f52	-0.014064627
100	0xbd401e8f	-0.046904143
101	0x3ce25872	0.027630065
102	0x3e026e8d	0.12737484
103	0x3c34ebdb	0.01104256
104	0xbc12fc82	-0.008971335
105	0x3dece8d5	0.11567847
106	0x3d8ec935	0.06971971
107	0x3ba833c7	0.0051331255
108	0x3c15159c	0.00909939
109	0xbc4a4475	-0.012345423
110	0x3de5d7a5	0.112227716
111	0x3df8f296	0.121556446
112	0xbd0ed8a9	-0.034874592
113	0x3c62c72c	0.013841432
114	0x3c915428	0.017740324
115	0x3d73c122	0.059510358
116	0x3c8983a1	0.016786398
117	0xbd1c38ce	-0.03814011
118	0x3cad4ba1	0.021154227
119	0x3d54aada	0.05192075
120	0xbc0d58ee	-0.0086271595
121	0xbcbe3910	-0.023220569
122	0xbd17fd1e	-0.037106626
123	0xbcc172fe	-0.023614403
124	0xbd1d7682	-0.038443096
125	0x3cc94c38	0.024572477
126	0x3c7ec544	0.0155499615
127	0xbbb84192	-0.005623051
128	0x3cef91e9	0.02924438
129	0x3de40d04	0.11135295
130	0xbce0b145	-0.027428279
131	0x3d61537e	0.055011265
132	0xb98ad480	-0.00026479736
133	0xbd34caa0	-0.04413855
134	0x3d7e62a1	0.06210578
135	0xbb76e02c	-0.0037670238
136	0x3ce4c7be	0.027927276
137	0xbd2f4e8e	-0.042799525
138	0x3dc433af	0.0958017
139	0xbc1afdcf	-0.009459927
140	0x3d8c179d	0.068404414
141	0x3cbf7999	0.023373412
142	0x3c93395a	0.017971683
143	0xbc3e6518	-0.011620782
144	0xbd0ee6d2	-0.034888096
145	0x3e5591f4	0.20856458
146	0xbc8e8114	-0.017395534
147	0x3c9535db	0.018214157
148	0xbc177db3	-0.009246278
149	0x3c9574a2	0.018244091
150	0xbc1a2ac0	-0.009409606
151	0xbc291030	-0.010318801
152	0x3dcec2dc	0.1009576
153	0x3b76edc6	0.0037678345
154	0x3cb56a54	0.022145428
155	0xbca3eae2	-0.020009462
156	0x3c0cf161	0.008602471
157	0x3d205c60	0.039150596
158	0x3d5d3528	0.054005772
159	0xbbf31736	-0.0074185384
160	0xbd02e12b	-0.03195302
161	0x3d4ea0b3	0.050446223
162	0x3c0263b0	0.007958338
163	0xbd78fe7a	-0.060789563
164	0xbd879d9d	-0.06621859
165	0x3aee6728	0.0018188702
166	0x3c959c86	0.018263113
167	0x3cb77b4a	0.022397656
168	0x3c4c743b	0.012478883
169	0x3adf05b0	0.0017015245
170	0xbb4fad50	-0.0031688996
171	0x3cfbaadc	0.03072112
172	0x3c4ae5a0	0.012383848
173	0x3d8fc300	0.07019615
174	0xbbb6c54e	-0.00557772
175	0xbbe2094c	-0.006898081
176	0x3cb6291c	0.0222364
177	0xbd06dfea	-0.032928385
178	0x3b43426e	0.0029794234
179	0x3cd233bf	0.02565944
180	0xbd1fc3ce	-0.039005093
181	0xbbbf52fc	-0.00583875
182	0xbc06fff0	-0.008239731
183	0xbbe1b97e	-0.0068885675
184	0x3c3a3362	0.01136479
185	0xbd076f4d	-0.03306513
186	0x3dea747d	0.114479996
187	0xbd3c0638	-0.04590437
188	0xbcfeb87b	-0.031093827
189	0x3c1675fc	0.009183403
190	0xbd5dd3fa	-0.054157235
191	0xbc198aef	-0.009371503
192	0xbd174dd2	-0.03693945
193	0xbd65fb76	-0.056148015
194	0x3c4f42fa	0.012650246
195	0x3d33c8bc	0.043892607
196	0x3c9440a0	0.018097222
197	0x3dfd2c98	0.12362021
198	0x3da78a2c	0.08180651
199	0x3c29d657	0.010366044
200	0xbc09a001	-0.008399964
201	0x3da5dcbc	0.08098742
202	0x3e3e025b	0.18555586
203	0xbc9e5a69	-0.01933022
204	0x3d0dc7cb	0.034614366
205	0x3da39334	0.07987061
206	0x3ba639b8	0.0050727986
207	0xbc92794c	-0.017880104
208	0xbd06e16a	-0.032929815
209	0xbd6301d3	-0.05542166
210	0xbc95a7f9	-0.018268572
211	0xbd04b882	-0.032402523
212	0xbbb7b5b8	-0.0056063794
213	0xbc81f7a6	-0.015865158
214	0xbd048555	-0.032353718
215	0x3cb441a7	0.022003962
216	0x3e09fec5	0.13476093
217	0xbc453e36	-0.012038758
218	0x3c91ec21	0.01781279
219	0x3c83ca4e	0.016087677
220	0x3de2ff2c	0.110838264
221	0xbd6635b0	-0.056203544
222	0x3c4daacd	0.012552929
223	0x3bc2ac53	0.005940953
224	0xbd181290	-0.037127078
225	0xbcac7334	-0.021051027
226	0x3c1ff623	0.009763273
227	0x3ce2fe10	0.027709037
228	0x3c25836a	0.010102132
229	0x3ded7344	0.11594251
230	0x3de83f30	0.11340177
231	0xbce4b763	-0.027919477
232	0x3dbb0827	0.09132414
233	0x3d9d3b74	0.076773554
234	0xbcaa7dc5	-0.020811925
235	0xbb547154	-0.0032416182
236	0xbd425a23	-0.047449242
237	0xbc587c2c	-0.013213199
238	0x3ccd6172	0.02507088
239	0xbd46c18a	-0.048524417
240	0xbd5fd5fe	-0.05464744
241	0x3daff768	0.08592111
242	0x3c7b2610	0.015328899
243	0x3c6f753a	0.014615351
244	0x3c67ecca	0.014155576
245	0xbd3efbe0	-0.046626925
246	0x3b0b22a6	0.002123037
247	0x3dd7e736	0.10542147
248	0x3c6330ab	0.013866584
249	0x3cb63269	0.022240834
250	0x3da9129c	0.082555026
251	0x3af508a8	0.0018694596
252	0xbd18e830	-0.037330806
253	0x3caf33bc	0.021386974
254	0xbd172b00	-0.036906242
255	0x3c3bcafd	0.01146197

fc2.bias f4 [256]
0	0xbd367c7b	-0.044552308
1	0x3ce11ebd	0.027480477
2	0x3a064608	0.000512213
3	0x3be2076f	0.006897859
4	0x3d2f1b7a	0.042750813
5	0xbc5882ab	-0.013214747
6	0xbb9ef912	-0.004851469
7	0xbd5b1972	-0.053491063
8	0x3d123d0a	0.035702743
9	0xbd86f25e	-0.065891966
10	0x3ca1344d	0.01967826
11	0xbc63dbc5	-0.013907378
12	0xbc94db6e	-0.018171038
13	0xbb2f17f8	-0.0026717167
14	0x3d39affa	0.04533384
15	0xbca20c37	-0.019781215
16	0xbce0c23b	-0.027436366
17	0xbd482154	-0.04885991
18	0x3cab81e0	0.020935953
19	0xbbdd4ed8	-0.0067537837
20	0x3ce7f56f	0.028315274
21	0xbc829732	-0.015941236
22	0x3cb0fac7	0.021603955
23	0x3cdbca4e	0.026829865
24	0x3c080e91	0.008304254
25	0xbca3030b	-0.019898912
26	0x3c4d08f5	0.012514343
27	0xbd2d6937	-0.04233667
28	0x3d235884	0.039879337
29	0xbcd9bb79	-0.026578652
30	0x3c4648a1	0.012102277
31	0x3b941de4	0.004520165
32	0x3c6355ef	0.013875469
33	0xbc27138e	-0.010197533
34	0xbd0925d6	-0.03348335
35	0xbbff2311	-0.0077861627
36	0x3b435c80	0.0029809773
37	0xbd438013	-0.047729563
38	0xbd07eaf1	-0.033183042
39	0x3c90c014	0.017669715
40	0xbc817ec4	-0.015807517
41	0x3c6a8c1a	0.014315629
42	0xbc604f50	-0.013690785
43	0x3cf0c815	0.029392282
44	0x3ca8735c	0.02056282
45	0x3c4b0620	0.012391597
46	0x3c262507	0.010140664
47	0xbce938e2	-0.028469507
48	0xbc9a2c76	-0.018820029
49	0x3c9f4f1a	0.019446898
50	0xbd21268d	-0.039343406
51	0xbd399c85	-0.045315284
52	0xbd19dfba	-0.037566878
53	0xbcacd118	-0.021095797
54	0x3ce39442	0.027780656
55	0x3c58737a	0.0132111255
56	0x3d56415e	0.052308433
57	0x3bd20c0e	0.0064101284
58	0x3c0fb932	0.008772181
59	0x3cb15858	0.02164857
60	0xbcb03a6a	-0.021512229
61	0xb9a77e20	-0.00031946693
62	0xbb9f6564	-0.0048643816
63	0x3d5778ae	0.052605323
64	0xbd23889a	-0.039925195
65	0x3c642b88	0.013926394
66	0x3d31aeb1	0.04337949
67	0x3ce3219a	0.027725983
68	0xbd116fef	-0.03550714
69	0x3bf91be8	0.0076022036
70	0xbd3eb68c	-0.04656081
71	0x3baeabe1	0.005330548
72	0x3a3d1dd0	0.000721422
73	0x3ba26e23	0.004956977
74	0xbccd8242	-0.025086526
75	0x3bf5e361	0.0075039123
76	0xbb872b04	-0.004125001
77	0xbd2f3574	-0.042775586
78	0xbd6742a3	-0.056460034
79	0xbc31a9e7	-0.0108437305
80	0xbd10e152	-0.035371132
81	0xbca99e78	-0.020705447
82	0x3c4d5ab6	0.012533834
83	0x3d2b2117	0.041779604
84	0xbd33716d	-0.043809343
85	0xbd0aa713	-0.03385074
86	0xbc4f8aae	-0.012667341
87	0x3bd71df0	0.006564848
88	0xbcc18d94	-0.02362708
89	0xba571370	-0.00082044955
90	0x3c3bdf7e	0.011466859
91	0xbd391cfb	-0.045193654
92	0xbc8ee922	-0.01744515
93	0xbc59fe2c	-0.013305228
94	0x3cd7e4f2	0.026354287
95	0xbc37d46a	-0.011220077
96	0xbc0022b2	-0.007820772
97	0xbcef05fe	-0.029177662
98	0xbc56cfe4	-0.013111088
99	0xbc46caf8	-0.012133352
100	0x3c45052a	0.012025157
101	0x3b1c1cd0	0.0023820885
102	0xbc20a252	-0.009804325
103	0x3bbcd22c	0.005762359
104	0x3d780204	0.060548797
105	0xbbdc7884	-0.006728234
106	0x3d15cb6f	0.036570963
107	0xbd1afedc	-0.03784071
108	0x3d2e4ba7	0.042552616
109	0x3b87fa75	0.00414973
110	0xbd440279	-0.04785392
111	0xbd5ee0de	-0.05441367
112	0xbc8f2b9e	-0.017476853
113	0xbd27908f	-0.040909346
114	0x3d4ca1fb	0.049959164
115	0x3d50c5ee	0.05097001
116	0xbc09afa6	-0.008403694
117	0x3c1eed99	0.009700202
118	0xbc17601e	-0.009239225
119	0x3d04e513	0.032445025
120	0xbd18e131	-0.037324134
121	0xbc134dd4	-0.008990724
122	0x3c061ff6	0.008186331
123	0x3d1d2af8	0.038371056
124	0xbc3b22f3	-0.011421907
125	0x3cb873e0	0.022516191
126	0x3b1ddf38	0.0024089348
127	0xbd348ca6	-0.044079445
128	0xbc8455b6	-0.016154151
129	0x3c2a960a	0.010411749
130	0xbcb3d616	-0.02195267
131	0xbb8e1e5c	-0.004337115
132	0x3cbc81e9	0.023011165
133	0x3c6a2630	0.014291331
134	0xbd3f0608	-0.04663661
135	0x3d3427c2	0.04398323
136	0xbd13fbe5	-0.036128897
137	0x3b7c8408	0.0038530845
138	0x3c8e541a	0.017374087
139	0xbbcd214d	-0.0062600733
140	0x3cb4993b	0.022045722
141	0x3c36e7b7	0.011163644
142	0xbcb76b92	-0.02239016
143	0xbcbb820c	-0.02288916
144	0xbd185675	-0.037191827
145	0xbc498311	-0.012299315
146	0xbd1d77e3	-0.03844441
147	0xbc7b69bc	-0.015345033
148	0x3c7936cf	0.015210821
149	0xbd3aa738	-0.04556963
150	0x3d1981fc	0.03747748
151	0x3c9f4785	0.019443283
152	0xbd34b012	-0.044113226
153	0x3c6256c1	0.013814629
154	0x3d068978	0.032845944
155	0x3c90a5ff	0.017657278
156	0x3c83c961	0.016087236
157	0xbc8d5b4c	-0.017255448
158	0x3d3dc141	0.04632688
159	0xbd44c291	-0.048037115
160	0xbcea675c	-0.028613739
161	0x3c166a90	0.00918068
162	0xbd1ce8ac	-0.03830783
163	0xbd31824a	-0.043337144
164	0xbc0817a8	-0.008306421
165	0xbc7d2130	-0.015449807
166	0x3c34ea4a	0.011042187
167	0x3d26707a	0.04063461
168	0x3cbfd948	0.023419037
169	0x3ad28460	0.0016061179
170	0xbd513c52	-0.051082917
171	0x3d161aab	0.036646526
172	0x3cee5703	0.029094225
173	0x391d6a20	0.00015012221
174	0xbd1dd8e5	-0.038536925
175	0x3d408445	0.047001142
176	0xbbea4666	-0.0071495054
177	0xbca79c8f	-0.020460395
178	0x3ce7ae6c	0.028281413
179	0xbc1d90ee	-0.009617073
180	0x3c28de3d	0.010306892
181	0x3c0e4936	0.008684447
182	0x3cd40592	0.025881562
183	0xbc5559e4	-0.01302192
184	0x3c17faa3	0.009276065
185	0xbd58e1bd	-0.052949656
186	0x3ca0d6c0	0.01963365
187	0x3cd5edd5	0.026114384
188	0x3ba1cf3e	0.0049380353
189	0xbae39f10	-0.001736613
190	0x3c88acc6	0.016683947
191	0x3d32054d	0.043462086
192	0xbcf02040	-0.029312253
193	0x3d003ee3	0.031309973
194	0x3c809134	0.015694238
195	0x3c79fa38	0.015257411
196	0xbc306824	-0.010767017
197	0xbae817f0	-0.0017707329
198	0x3a727538	0.00092490343
199	0x3b40a0bc	0.002939268
200	0xbd8880ce	-0.066651925
201	0x3cca509c	0.02469664
202	0x3b8191c0	0.0039541423
203	0xbc573ac6	-0.013136571
204	0xbabfe8a8	-0.001464148
205	0xbc54d9f2	-0.012991415
206	0x3be07679	0.0068500605
207	0xbbf22e1f	-0.007390752
208	0x3cac0afd	0.021001333
209	0x3d342407	0.04397967
210	0xbd0c60e4	-0.03427209
211	0xbb6a0d90	-0.003571365
212	0x3a4843d8	0.0007639504
213	0xbc1ce73d	-0.009576616
214	0xbc864452	-0.01639
215	0xbbcc7194	-0.0062391255
216	0x3c37498b	0.011186968
217	0x3c577587	0.013150579
218	0x3bdc4c96	0.006722997
219	0xbd29f79f	-0.041495916
220	0x3a407250	0.00073412526
221	0xbc7cedf2	-0.01543759
222	0x3d4944aa	0.04913775
223	0x3c0bae0c	0.008525383
224	0x3c1e2996	0.00965347
225	0x3c472cb5	0.012156655
226	0x3bdbc7b0	0.006707154
227	0xbc51895f	-0.0127890995
228	0x3b6cc440	0.0036127716
229	0x3ba9c6ce	0.00518117
230	0xbcd15503	-0.025553232
231	0xbd00589f	-0.031334516
232	0x38c9ca00	9.622052e-05
233	0xbca90586	-0.020632517
234	0xbd613d8c	-0.054990336
235	0x3c8887ac	0.016666256
236	0x3c238ae5	0.0099818455
237	0x3d03e942	0.032204874
238	0x3d5a724a	0.05333165
239	0x3bad4820	0.005288139
240	0x3bebbf52	0.007194438
241	0xbc06770b	-0.008207093
242	0x3c4467fc	0.011987682
243	0x3d475072	0.048660703
244	0xba5247d0	-0.0008021565
245	0xbd0af72a	-0.03392712
246	0x3d05b40e	0.032642417
247	0x3c6d6bb4	0.01449101
248	0xbc82b1e8	-0.015953973
249	0x3c981794	0.01856593
250	0x3d1064aa	0.03525225
251	0xbbd909c4	-0.0066234786
252	0x3c49511f	0.012287407
253	0xbd2dcfe7	-0.0424346
254	0x3c5300e9	0.012878635
255	0xbc464cf5	-0.012103309

fc3.weight f4 [256, 256]
0	0x3da439cc	0.080188364
1	0x3c2f5d34	0.010703374
2	0x3c513689	0.01276935
3	0xbc3635e5	-0.011121248
4	0x3d5545bd	0.05206846
5	0xbd8df5c5	-0.069316424
6	0xbc60473f	-0.013688861
7	0x3d89af1a	0.06722851
8	0xbd71a2c8	-0.05899313
9	0x3c3558cb	0.011068533
10	0x3b417a18	0.0029522236
11	0x3ccac555	0.024752298
12	0x3c8e613b	0.017380347
13	0xbc34f647	-0.011045045
14	0x3cd076d8	0.025447294
15	0x3d5fe3b4	0.054660514
16	0x3caa5d05	0.020796308
17	0xbd675b77	-0.056483712
18	0xbd0db75a	-0.034598686
19	0x3c2f461c	0.010697868
20	0xbca5ef9e	-0.02025586
21	0xbd4ac032	-0.049499698
22	0xbce4a8d8	-0.027912542
23	0xbd236adc	-0.03989683
24	0xbd3d654e	-0.04623919
25	0xb9e38600	-0.00043396652
26	0xbd091fbf	-0.03347754
27	0x3df81e78	0.121151865
28	0x3c13c925	0.009020125
29	0xbd179403	-0.03700639
30	0x3d318e40	0.04334855
31	0x3cb84e68	0.022498325
32	0xbb86976a	-0.0041074054
33	0x3be6e81a	0.0070467116
34	0x3db3286d	0.08747945
35	0x3d2543d0	0.040347874
36	0x3c32a698	0.010903977
37	0x3dff5159	0.12466688
38	0x3d96f565	0.07371024
39	0x3ca5619a	0.020188142
40	0x3dcc5bdc	0.09978458
41	0xbc59534f	-0.013264491
42	0xbb1f7e28	-0.002433667
43	0xbd44c4f2	-0.048039384
44	0x3cb66cfa	0.022268761
45	0x3c419c22	0.01181701
46	0xbd1d0b65	-0.038340945
47	0xbbb9a086	-0.005664888
48	0xbd15f47c	-0.03661011
49	0xbce9526c	-0.028481685
50	0x3da4afc9	0.08041341
51	0xbd08fa70	-0.03344196
52	0xbd269878	-0.04067275
53	0x3bed9ae8	0.0072511323
54	0x3cc40bb8	0.02393137
55	0x3a56e130	0.00081970077
56	0x3e188b5f	0.14896916
57	0x3cbb871a	0.02289157
58	0xbcd5a85c	-0.026081257
59	0x3d9d3c64	0.07677534
60	0xb9024240	-0.00012422446
61	0x3c86663c	0.016406171
62	0x3c29472c	0.01033191
63	0x3ba5c540	0.0050589144
64	0x3e30bbe9	0.17259182
65	0xbcb9dfa2	-0.022689644
66	0x3d45a833	0.04825611
67	0xbc6526da	-0.013986314
68	0xbb967660	-0.004591748
69	0xbd127f14	-0.035765722
70	0x3d0c753e	0.0342915
71	0x3cae642f	0.021288006
72	0x3d741b44	0.059596315
73	0x3ad614a8	0.001633306
74	0xbd053454	-0.032520607
75	0xbc9b0bea	-0.01892658
76	0xbcb02647	-0.021502627
77	0xbd3bd8c6	-0.045861028
78	0x3d7a76e8	0.061148554
79	0x3d0b294b	0.033974927
80	0x3dd04fa3	0.101714395
81	0x3d52c527	0.05145755
82	0x3befd580	0.0073191524
83	0x3d779158	0.060441345
84	0xbd35638a	-0.04428438
85	0x3d0564f8	0.032566994
86	0x3c962626	0.018328737
87	0x3c4ba5e5	0.012429689
88	0xbd3f4e6d	-0.046705652
89	0x3c39d15b	0.011341418
90	0xbb79d0fc	-0.003811895
91	0xbcc8631a	-0.024461318
92	0x3d96e334	0.07367554
93	0x3bbf1eb6	0.0058325185
94	0x3db340a9	0.08752567
95	0x3c4b96d5	0.012426098
96	0x3c5199bb	0.012793
97	0x3c8fc06f	0.017547814
98	0x3d1a0340	0.037600756
99	0xbd71144a	-0.05885724
100	0xbc4ab85a	-0.012373054
101	0xbd31ce34	-0.04340954
102	0xbd10e87e	-0.03537797
103	0xbd17db41	-0.03707433
104	0x3d9445e1	0.07239891
105	0x3b7f8eb4	0.003899497
106	0x3dc9730a	0.09836395
107	0xbd1d9172	-0.038468786
108	0xbd1c7577	-0.03819796
109	0xbd11cd0d	-0.035595942
110	0x3ce3393a	0.027737249
111	0xbca0ae87	-0.019614471
112	0x3c2d7eb8	0.010589294
113	0x3d96fca3	0.073724054
114	0x3dba1166	0.0908535
115	0x3caec008	0.021331802
116	0x3dabdb91	0.08391488
117	0x3c029054	0.007968981
118	0x3cefa153	0.02925173
119	0x3e4c0098	0.19922101
120	0x3c1bc0b6	0.009506395
121	0x3c5b1bee	0.013373358
122	0x3c90712b	0.017632088
123	0xbc2a4b0a	-0.010393867
124	0xbcc0bcc8	-0.023527518
125	0x3ccb9a5a	0.024853874
126	0x3cdc7ca1	0.026914896
127	0xbb5b8e9c	-0.003350175
128	0xbca7e6ef	-0.02049586
129	0x3d5b7724	0.05358042
130	0xbd0781c9	-0.033082757
131	0x3c51aa0b	0.012796889
132	0xbc3a15d7	-0.011357746
133	0xbcda6fc1	-0.026664617
134	0x3dd43919	0.10362453
135	0x3e1ef14f	0.1552174
136	0x3c05adde	0.008159129
137	0x3c624a3e	0.013811646
138	0x3e5147d8	0.20437562
139	0xbd01f2f0	-0.031725824
140	0x3ccfe16c	0.025376044
141	0xbcb840b9	-0.0224918
142	0xbc3a26ba	-0.011361772
143	0x3ccd0e54	0.025031246
144	0x3ced9cb4	0.029005386
145	0x3d88e03c	0.06683394
146	0xbd46e44f	-0.048557576
147	0xbcf347ac	-0.029697262
148	0x3ca2b2b0	0.019860595
149	0xbcf1cbd6	-0.029516142
150	0x3dfbd8e1	0.12297226
151	0xbd442c43	-0.047893774
152	0xbb808e80	-0.0039232373
153	0x3d521aca	0.05129508
154	0xbd2166e6	-0.039404772
155	0x3cc6930a	0.024240036
156	0x3d0a7bc0	0.033809423
157	0xbc57e400	-0.013176918
158	0x3be35ab4	0.006938303
159	0xbd3d4cb3	-0.046215724
160	0x3d1441d8	0.036195606
161	0xbc441e2b	-0.011970083
162	0x3d5f0fef	0.054458555
163	0x3cab90d8	0.02094309
164	0x3ca63d29	0.020292835
165	0x3d36d681	0.04463816
166	0xbbc7057f	-0.006073653
167	0x3d8e77c7	0.069564395
168	0xbd46a69a	-0.048498727
169	0xbcf40bf0	-0.029790848
170	0x3d8c0625	0.068371095
171	0x3d52c013	0.051452707
172	0xba89d128	-0.0010514604
173	0x3c5de97f	0.013544439
174	0x3d0fd5e9	0.03511611
175	0xbc7bfb77	-0.015379778
176	0xbd3012f9	-0.042986844
177	0xbc5bf6ba	-0.013425523
178	0xbd2e63d8	-0.042575687
179	0x3bbc4766	0.005745816
180	0x3cb3adca	0.021933455
181	0xbc62f6e2	-0.013852807
182	0x3c62a216	0.01383259
183	0x3dbcf7ac	0.09226927
184	0x3c48a5ae	0.012246532
185	0xbc5ca31d	-0.013466624
186	0xbce44779	-0.027866112
187	0x3cd18016	0.025573771
188	0xbd2600ef	-0.040528234
189	0x3cb877d5	0.022518078
190	0xbcfe629f	-0.031052886
191	0xbc97bcb4	-0.018522598
192	0xbcf6a67d	-0.030108685
193	0xbd853ab5	-0.06505338
194	0xbc9a3434	-0.01882372
195	0x3da95a77	0.08269208
196	0x3dfb07b9	0.12257332
197	0x3dc135a3	0.094340585
198	0xbcca9e50	-0.024733692
199	0x3d057487	0.032581832
200	0x3cad0736	0.021121603
201	0xbd1495fd	-0.036275852
202	0x3c162608	0.009164341
203	0xbc674418	-0.014115356
204	0x3a577840	0.0008219518
205	0x3cafab38	0.021443948
206	0xbd9355b6	-0.071940824
207	0xbbe0db92	-0.0068621123
208	0x3c61e9c3	0.013788643
209	0x3d8f20f2	0.06988706
210	0x3d203402	0.0391121
211	0x3c90b7d8	0.017665789
212	0xbc5e3012	-0.013561266
213	0x3c45072f	0.0120256385
214	0x3c967646	0.018366944
215	0xbd8057fa	-0.0626678
216	0xbc071bbc	-0.0082463585
217	0x3ca2fb40	0.019895196
218	0x3b36352c	0.002780269
219	0x3c7f2cb7	0.015574626
220	0x3c77eb10	0.015131727
221	0xb92a8de0	-0.00016265316
222	0x3ccd285a	0.025043655
223	0x3daabdd8	0.08336991
224	0x3c2d4691	0.010575906
225	0x3bdc4cb5	0.0067230114
226	0xbd1930d5	-0.037400085
227	0xbcb49ecc	-0.022048377
228	0x3dd82646	0.10554175
229	0xbd8716ad	-0.06596122
230	0x3ba5e90a	0.005063181
231	0xbcd74598	-0.026278302
232	0x3cca75f2	0.024714444
233	0x3d869aee	0.06572519
234	0xbd882116	-0.06646936
235	0x3de6773a	0.112532094
236	0xbcb2fa0b	-0.021847745
237	0x3caa86ea	0.020816285
238	0xbd170cf5	-0.03687759
239	0xbc18e6d1	-0.009332375
240	0x3d0c28bc	0.034218535
241	0x3c808f9c	0.015693478
242	0xbab04bb4	-0.0013450296
243	0x3dc2cc00	0.09511566
244	0x3d4b7e19	0.049680803
245	0xbc745854	-0.014913637
246	0xbd16099f	-0.03663027
247	0x3e1e092e	0.1543319
248	0x3cd2a559	0.02571361
249	0xbb965a7b	-0.004588423
250	0x3d89aeba	0.067227796
251	0xbb8162c0	-0.0039485395
252	0xbb8f765c	-0.004378123
253	0x3bff134e	0.0077842837
254	0x3d990c6b	0.07473072
255	0x3c19d598	0.009389304

fc3.bias f4 [256]
0	0xbbc32752	-0.005955615
1	0xbde8dc6f	-0.11370169
2	0xbd3a589b	-0.045494657
3	0x3c67515d	0.01411852
4	0x3bace85c	0.005276723
5	0xbbe56267	-0.007000256
6	0x3cae056b	0.021242818
7	0xbcc1d0df	-0.023659168
8	0x3d717ed6	0.05895885
9	0xbc0b93a7	-0.00851909
10	0x3c56b127	0.01310376
11	0x3db20f5f	0.08694338
12	0xbdb70bb9	-0.08937783
13	0xbb7a327e	-0.0038177068
14	0x3bd4596a	0.0064803855
15	0x3cf8b4b0	0.030359596
16	0x3c0a2554	0.008431751
17	0x3c5cfcd0	0.01348801
18	0xbc848a74	-0.0161793
19	0xbd53ea94	-0.051737383
20	0x3d460cea	0.04835216
21	0xbd451f44	-0.04812552
22	0x3d67aab5	0.056559283
23	0x3cddd197	0.02707748
24	0x3aeabfa0	0.0017909892
25	0x3ad4a23c	0.0016222666
26	0xbb3a87f2	-0.0028462377
27	0xbc7851da	-0.015156234
28	0x3c214bf1	0.009844766
29	0xbce887a3	-0.02838499
30	0x3a9831bc	0.0011611502
31	0x3cb9c554	0.022677101
32	0xbc162dec	-0.009166222
33	0x3a878058	0.0010337932
34	0x3d83c792	0.064345494
35	0x3d1769d8	0.036966175
36	0xbd798584	-0.060918346
37	0x3d491854	0.049095467
38	0xbd11d45a	-0.035602905
39	0x3c8c99b6	0.017163139
40	0xbcb34b08	-0.021886364
41	0xbb9b5356	-0.004740159
42	0x3d2fa8d1	0.042885605
43	0xba4f2cb0	-0.00079030823
44	0x3c12f60f	0.008969798
45	0xbc4be2cc	-0.012444209
46	0x3d0b1572	0.033956
47	0xbc5f1b59	-0.01361736
48	0xbacf6720	-0.001582358
49	0x3c1aedbe	0.009456096
50	0xbd12e5d6	-0.03586372
51	0x3c43d15f	0.011951773
52	0xbcd6ae28	-0.026206091
53	0x3d2998e4	0.041405573
54	0xbd574003	-0.05255128
55	0xbd604dff	-0.054761883
56	0x3b65542e	0.0034992802
57	0xbc366dee	-0.011134608
58	0xbd1bc136	-0.038026057
59	0x3d1bedd6	0.038068615
60	0xbdf945cb	-0.12171515
61	0xbc7256a8	-0.014791168
62	0x3d387511	0.04503352
63	0xb81acf00	-3.6909245e-05
64	0x3c392cad	0.011302155
65	0xbd142608	-0.036169082
66	0xbc7c8b83	-0.015414122
67	0xbcc2631f	-0.023728905
68	0xbdc6570d	-0.09684572
69	0xbbe70f4a	-0.007051383
70	0xbcac2e32	-0.021018121
71	0x3beeba9f	0.0072854306
72	0xbcfaddc4	-0.030623324
73	0xbd58dd49	-0.05294541
74	0x3c5fbb62	0.013655515
75	0x3cbb1062	0.02283496
76	0xbca1bbf2	-0.01974294
77	0x3cc19a8c	0.023633264
78	0x3c66883c	0.014070567
79	0xbd25c260	-0.040468574
80	0xbb380438	-0.0028078686
81	0xbd00e20a	-0.031465568
82	0x3d17e7cd	0.037086297
83	0x3d3c6235	0.045992095
84	0x3d18028c	0.037111804
85	0x3d442cbf	0.047894236
86	0xbc2eaff8	-0.010662071
87	0x3c2e9bdd	0.010657278
88	0x3bc46064	0.005992936
89	0x3d42459c	0.047429666
90	0xbc050fd4	-0.0081214495
91	0x3caa74a6	0.020807575
92	0xbc465e40	-0.012107432
93	0x3d42168a	0.047384776
94	0xbb9612ce	-0.0045798784
95	0xbd46434d	-0.048404027
96	0xbbdf3e76	-0.006812866
97	0x3bc04ed6	0.005868773
98	0x3cd97a1f	0.02654749
99	0xbd421e13	-0.047391962
100	0x3d6cd6fa	0.057822205
101	0x3d9ffef8	0.07812303
102	0xbd3f88cc	-0.04676132
103	0x3ce817da	0.028331686
104	0xbd308860	-0.043098807
105	0x3ba2b802	0.004965783
106	0xbdc048b1	-0.09388865
107	0x3c0eafbd	0.008708891
108	0x3d3ac8eb	0.045601767
109	0xbca0a378	-0.019609198
110	0x3a9933f0	0.0011688452
111	0x3c9c0771	0.019046517
112	0x3c9cf969	0.019161897
113	0x3dc4aeb7	0.09603637
114	0x3d467734	0.048453525
115	0x3d7a54de	0.061116092
116	0x3caff6ba	0.021479953
117	0x3c379220	0.0112042725
118	0xbd6f3a78	-0.05840537
119	0xbd0ad668	-0.03389588
120	0x3cb6d7b0	0.022319645
121	0x3c7771b2	0.015102791
122	0x3d19d2d6	0.037554584
123	0xbca4d530	-0.020121187
124	0xbbb2cbd6	-0.005456428
125	0x3cebe078	0.028793558
126	0x3c485605	0.01222754
127	0xbcaa482e	-0.020786371
128	0x3c223d6d	0.00990234
129	0x3d1bff50	0.03808528
130	0x3cd1f8a7	0.025631262
131	0x3cfc89d0	0.030827433
132	0x3d1218d4	0.03566821
133	0x3c9dfb76	0.019284945
134	0xbd98c51e	-0.07459472
135	0x3b476b00	0.0030428767
136	0x3d201883	0.039085876
137	0xbd0a9336	-0.033831798
138	0x3d3494b9	0.044087145
139	0x3bc4ac2f	0.006001971
140	0x3c985710	0.018596202
141	0x3b31fd54	0.0027159052
142	0x3c0071a5	0.007839595
143	0x3bf7ee25	0.007566231
144	0xbc587833	-0.0132122515
145	0x3add4384	0.0016881083
146	0x3c3e1cfb	0.011603589
147	0xba8e0c30	-0.0010837372
148	0x3d237880	0.03990984
149	0xbdf9d924	-0.121996194
150	0xbc6f07d5	-0.01458927
151	0x3b633abc	0.003467246
152	0xbcc42162	-0.0239417
153	0xbc3de1da	-0.011589492
154	0x3dc993bd	0.09842632
155	0xbd1a9b50	-0.037745774
156	0x3b7bfe96	0.0038451306
157	0x3d17c135	0.03704949
158	0xbbf4e3f2	-0.0074734623
159	0x3c22d944	0.0099394955
160	0xbd11468e	-0.035467677
161	0xbcd88ca0	-0.026434243
162	0x3be2665a	0.006909174
163	0xbc1d5acd	-0.009604168
164	0x3cab577c	0.02091574
165	0x3a79e8a0	0.000953326
166	0x3cbb6cd7	0.022879047
167	0x3c52b904	0.012861494
168	0x3c3005bc	0.010743555
169	0x3d6cb1f7	0.057786908
170	0xbc71831c	-0.014740732
171	0x3c8ba050	0.017044216
172	0xbd65e7b8	-0.056129187
173	0xbc66ed4e	-0.014094664
174	0xbd3adcda	-0.045620777
175	0x3ca3bf4c	0.019988678
176	0x3b8a9623	0.0042293235
177	0xbc60825e	-0.013702957
178	0x3b989718	0.0046566837
179	0xbd49634c	-0.049166963
180	0x3c7177fc	0.014738079
181	0x3b7c2158	0.0038472023
182	0x3dc2e847	0.0951696
183	0xbcd61b33	-0.026136016
184	0xbd2cdbdd	-0.042201865
185	0xbc589fb0	-0.013221666
186	0xbbfd0b46	-0.007722291
187	0x3c5eb039	0.013591819
188	0x3bc9d24a	0.0061591016
189	0x3d475e54	0.048673943
190	0x3c27954c	0.010228466
191	0x3c456fd2	0.012050586
192	0x3cd286ee	0.025699105
193	0xbd01fd70	-0.031735837
194	0xbbf18c12	-0.007371434
195	0x3b52b6c2	0.003215239
196	0xbd1b87a9	-0.037971172
197	0xbd170bde	-0.03687655
198	0xbcf413cc	-0.029794596
199	0xbcdcb33f	-0.02694094
200	0x3db05874	0.08610621
201	0x3ce9fdcd	0.028563404
202	0xbc154eeb	-0.009113054
203	0x3c955b60	0.018232048
204	0xbd1426cf	-0.036169823
205	0x3b81ee7c	0.003965197
206	0xbd572569	-0.05252591
207	0xbbf113fb	-0.007357118
208	0xbcb8784c	-0.0225183
209	0x3d2bcd3b	0.04194377
210	0x3d3c5394	0.045978144
211	0xbc9af6de	-0.018916544
212	0x3d399f18	0.04531774
213	0x3bafeb98	0.005368661
214	0xbdce84b8	-0.10083908
215	0xbc20f2c1	-0.009823502
216	0x3cbb6c30	0.022878736
217	0xbc443f72	-0.011978017
218	0x3d22db76	0.039760076
219	0x3cae7f5d	0.021300966
220	0x3bd02b6a	0.0063528316
221	0xba97ac60	-0.0011571757
222	0xbd22223f	-0.03958344
223	0xbacf5c50	-0.0015820358
224	0xbc5021a5	-0.012703334
225	0xbc425794	-0.011861701
226	0x3cdbcac2	0.02683008
227	0x3a9fa4c4	0.0012179841
228	0xbd60cc39	-0.054882262
229	0x3d095664	0.033529654
230	0x3bd2c030	0.006431602
231	0x3d2e764a	0.042593278
232	0x3c0f71ec	0.008755188
233	0x3d9e0476	0.077156946
234	0xbcf4fac5	-0.029904732
235	0x3cb0dd2f	0.021589844
236	0xbc5a4a14	-0.013323326
237	0x3bec7c86	0.007216993
238	0x3c92767e	0.017878767
239	0xbc437c49	-0.011931487
240	0x3d4ddafa	0.05025766
241	0xbd92ce3d	-0.07168243
242	0x3d90b734	0.07066193
243	0x3ce3f112	0.027824912
244	0x3c5d51a8	0.013508238
245	0xbc234dc6	-0.009967273
246	0x3c014e90	0.007892266
247	0x3c3597ae	0.011083527
248	0x3ca16f7e	0.019706484
249	0xbcd8afda	-0.02645104
250	0x3cc178f0	0.023617238
251	0xbda248a9	-0.07924015
252	0xba844ae0	-0.0010093115
253	0xbbe76672	-0.007061773
254	0xbc173992	-0.009230034
255	0xbd51ed99	-0.05125198

action_heads.0.weight f4 [2, 256]
0	0xbe85ae29	-0.26109436
1	0xbe83a480	-0.2571144
2	0xbe6e453c	-0.23268598
3	0xbc420b4e	-0.011843516
4	0xbe4b49a6	-0.19852313
5	0x3c314528	0.010819711
6	0xbe551444	-0.20808512
7	0xbe758274	-0.23975545
8	0xbe821906	-0.25409716
9	0x3c26f4f9	0.010190242
10	0xbe41a6f3	-0.18911342
11	0xbe8453e6	-0.2584526
12	0xbe8382ca	-0.25685722
13	0x3c2fd17c	0.010731097
14	0xbe84ba0e	-0.25923198
15	0xbe67e53e	-0.22646043
16	0x3c5ba80f	0.0134067675
17	0xbc2831b3	-0.0102657555
18	0xbe818ad8	-0.25301242
19	0xbe829727	-0.25505945
20	0xbe469ed7	-0.1939653
21	0xbe83d53c	-0.25748622
22	0xbde8863d	-0.11353729
23	0xbe782407	-0.24232493
24	0xbe839746	-0.2570135
25	0xbc28ad9f	-0.010295301
26	0xbc28c29a	-0.010300303
27	0xbe8215c1	-0.25407222
28	0xbe85babe	-0.26119035
29	0xbe850368	-0.2597916
30	0xbc26f05c	-0.010189142
31	0xbe70b444	-0.23506266
32	0xbc27e7f6	-0.010248175
33	0xbe7565ca	-0.2396461
34	0xbe8473aa	-0.25869495
35	0xbe74161c	-0.23836559
36	0xbe77ca90	-0.24198365
37	0xbe84f14c	-0.25965345
38	0xbe850eed	-0.2598795
39	0xbe771c16	-0.24131808
40	0xbe80c66c	-0.25151384
41	0x3d1f076d	0.03882544
42	0xbe79f7a2	-0.2441087
43	0xbd9944f0	-0.07483852
44	0x3c2746fa	0.010209793
45	0xbd0b359a	-0.033986665
46	0xbe828c2f	-0.25497577
47	0xbc2720ee	-0.010200722
48	0xbd9ad0fb	-0.07559391
49	0xbe81e444	-0.25369465
50	0xbe7d2f06	-0.2472497
51	0xbe7dd812	-0.24789456
52	0xbe81d78a	-0.25359756
53	0xbe814aba	-0.25252324
54	0xbe086a16	-0.13321719
55	0xbe81aa73	-0.25325355
56	0xbc9e9380	-0.019357443
57	0xbac2c63c	-0.0014860104
58	0xbe556fa4	-0.20843369
59	0xbe7d9743	-0.24764733
60	0xbe83b0d8	-0.2572086
61	0xbe108d47	-0.14116393
62	0xbe71ebc6	-0.23625097
63	0xbe71ae1b	-0.23601572
64	0xbe83d127	-0.25745508
65	0xbe80f28a	-0.25185043
66	0xbe8205ca	-0.25395042
67	0xbe81896d	-0.2530016
68	0xbe822628	-0.25419736
69	0xbc1bfb15	-0.009520312
70	0xbe8597f4	-0.26092494
71	0x3c270610	0.0101943165
72	0xbe80fa22	-0.25190836
73	0xbe848904	-0.25885785
74	0xbe839c8f	-0.25705382
75	0xbe7ca605	-0.24672706
76	0xbe7d67d8	-0.24746644
77	0xbe15eff4	-0.14642316
78	0xbc270d4a	-0.010196039
79	0xbe6138a1	-0.21994258
80	0xbe75c83b	-0.24002163
81	0xbe836251	-0.25660947
82	0xbe6e8d14	-0.23296005
83	0xbe82b9cb	-0.25532374
84	0xbe821b58	-0.25411487
85	0xbe62d4cd	-0.2215149
86	0x3c49d851	0.01231964
87	0xbe7467a6	-0.23867664
88	0xbe83b640	-0.25724983
89	0xbe806c20	-0.25082493
90	0xbcd12f7a	-0.025535334
91	0xbc12774c	-0.008939575
92	0xbc2aa1ee	-0.010414584
93	0xbe69a62a	-0.22817293
94	0xbe81e0c9	-0.2536681
95	0xbe820f2d	-0.25402203
96	0x3c5b6424	0.013390575
97	0xbe602918	-0.21890676
98	0xbe55661d	-0.20839734
99	0xbe715423	-0.23567252
100	0xbe82e26d	-0.25563374
101	0xbe844a14	-0.25837767
102	0xbe85bcc3	-0.26120576
103	0xbe82d7db	-0.2555531
104	0xbe84d8d9	-0.25946692
105	0xbd4e6118	-0.050385565
106	0xbe85e2c4	-0.2614957
107	0xbe81e6a2	-0.2537127
108	0xbe07e072	-0.13269213
109	0xbe840e99	-0.25792387
110	0xbe83037a	-0.2558859
111	0x3cae0430	0.021242231
112	0x3c2b6fd4	0.010463674
113	0xbe83ab8c	-0.25716817
114	0xbe830035	-0.25586095
115	0xbe845033	-0.25842437
116	0x3d435b08	0.047694236
117	0xbe850d47	-0.25986692
118	0xbe8088b8	-0.25104308
119	0xbe534f9d	-0.20635839
120	0xbe82e492	-0.2556501
121	0xbe14d56d	-0.1453454
122	0xbe818c8f	-0.2530255
123	0xbe7f1233	-0.24909286
124	0xbc3048cd	-0.010759545
125	0xbe8092a7	-0.25111887
126	0x3c2be843	0.010492387
127	0x3d05634b	0.032565396
128	0xbdca35b8	-0.09873527
129	0xbe217332	-0.157666
130	0xbda54d54	-0.0807139
131	0xbe173430	-0.14766002
132	0xbe83ab21	-0.25716498
133	0xbe80c4c1	-0.2515011
134	0xbe80fc2f	-0.251924
135	0x3d41b9d2	0.047296353
136	0xbe6f7f6b	-0.2338845
137	0xbe84d9d3	-0.25947437
138	0xbe6b443f	-0.22975253
139	0xbd9f7b36	-0.077871725
140	0x3d453919	0.048150156
141	0xbe7e2695	-0.24819405
142	0xbe84a7f6	-0.25909394
143	0x3d0a32f4	0.03374
144	0xbd6fe360	-0.05856645
145	0xbc2dbeda	-0.010604585
146	0xbe2d00a1	-0.16894771
147	0xbe804d5b	-0.25059018
148	0xbe853029	-0.26013306
149	0xbe85f377	-0.2616231
150	0xbe84ef24	-0.259637
151	0x3cbe9488	0.023264185
152	0xbe6be6ad	-0.23037215
153	0x3a923270	0.0011153948
154	0xbe831b0c	-0.25606573
155	0xbe816c69	-0.25278023
156	0xbcafb2f0	-0.021447629
157	0xbe8016f8	-0.25017524
158	0xbe7629b3	-0.24039344
159	0xbe69d056	-0.2283338
160	0xbe85a0a7	-0.2609913
161	0xbe68bd60	-0.22728491
162	0x3c46a7d5	0.012124975
163	0xbe556268	-0.2083832
164	0xbe8401dc	-0.2578267
165	0xbe75d038	-0.2400521
166	0xbe80e421	-0.2517405
167	0x3c49b7de	0.012311904
168	0x3a950b40	0.0011371151
169	0xbe81b148	-0.25330567
170	0xbe05e5ad	-0.13075896
171	0xbe3d6687	-0.18496142
172	0xbe84bebd	-0.25926772
173	0xbc501189	-0.012699493
174	0xbe6a54f2	-0.22883967
175	0xbe80b8a9	-0.25140885
176	0xbd26878a	-0.040656604
177	0xbc26f79a	-0.010190869
178	0xbde84545	-0.11341337
179	0xbe8135f5	-0.25236478
180	0xbe851ec0	-0.26000023
181	0xbe00833a	-0.12550059
182	0xbe863172	-0.262096
183	0xbe8614c6	-0.26187724
184	0xbe81951e	-0.2530908
185	0x3c2766ba	0.010217363
186	0x3c2855ec	0.010274392
187	0xbe65806b	-0.22412269
188	0xbd256bf2	-0.040386148
189	0xbe815247	-0.25258085
190	0xbaa6c404	-0.0012723212
191	0xbe7fbfd3	-0.24975519
192	0xbe744c98	-0.23857343
193	0xbe81f7cb	-0.25384364
194	0x3d40a0b8	0.047028273
195	0x3d31ddd3	0.04342444
196	0xbe81c2f9	-0.25344065
197	0xbe7a0f82	-0.24419978
198	0xbe82d800	-0.2555542
199	0xbe7f2476	-0.24916252
200	0xbe840fd4	-0.25793326
201	0xbe83302d	-0.25622693
202	0x3c47b354	0.012188751
203	0xbe852780	-0.260067
204	0xbe845322	-0.25844675
205	0x3d3e889c	0.046517
206	0xbe7139f5	-0.23557265
207	0xbc5b92e8	-0.013401724
208	0xbe800bdd	-0.2500905
209	0xbe6a8ded	-0.22905703
210	0xbe817028	-0.2528088
211	0xbdd6dda5	-0.10491494
212	0xbe7b8609	-0.24562849
213	0xbe800335	-0.25002447
214	0xbe82872d	-0.25493756
215	0xbe6b034c	-0.22950476
216	0xbe13e2aa	-0.14441934
217	0xbcc9f98e	-0.02465513
218	0xbe8374ea	-0.25675136
219	0xbe834afd	-0.2564315
220	0xbe84d50d	-0.25943795
221	0xbe40aa44	-0.18814951
222	0xbe83e99b	-0.25764164
223	0xbe7def30	-0.24798274
224	0xbe83ceaa	-0.2574361
225	0x3b3b8bb6	0.002861721
226	0xbe2692db	-0.16266958
227	0x3d26842b	0.04065339
228	0xbe4936fd	-0.19649883
229	0xbe831da5	-0.25608554
230	0xbd964378	-0.073370874
231	0xbe82aff3	-0.25524864
232	0xbc49dc00	-0.0123205185
233	0xbe856002	-0.2604981
234	0xbe643305	-0.22285087
235	0xbe802195	-0.2502562
236	0xbd439fe9	-0.047759924
237	0xbe8342dc	-0.25636947
238	0xbe7ac538	-0.24489295
239	0xbc1b4833	-0.009477663
240	0xbe83c519	-0.2573631
241	0xbe81c74b	-0.2534736
242	0xbe8384af	-0.25687167
243	0xbe6eddbd	-0.23326774
244	0x3c270d66	0.0101960655
245	0x3ca3e782	0.020007852
246	0xbc2736db	-0.01020595
247	0xbe811f6a	-0.2521928
248	0xbe806a04	-0.25080884
249	0xbe751706	-0.23934564
250	0xbe454099	-0.19262923
251	0xbe83cd7b	-0.25742707
252	0x3cfea638	0.031085119
253	0xbe835187	-0.25648138
254	0xbc2b9e2d	-0.010474724
255	0xbe7f2797	-0.24917446

action_heads.0.bias f4 [2]
0	0xbe83c4f3	-0.25736198
1	0x3e72c791	0.23708941
