shanghai_road_delivery/results_centralized/best_centralized_episode_379.pth_centralized_actor.pth (torch, 922210 bytes, 20 tensors)

fc1.weight f4 [256, 364]
-8.798513e-09 1.5405599e-09 7.6058875e-09 7.6954345e-09 7.687776e-09 7.672239e-09 2.0809603e-06 -2.1661686e-11
-4.56085e-09 -4.6771156e-11 -0.0001148085 2.2091464e-09 -1.047401e-12 -1.11307394e-10 4.8356804e-16 2.5731283e-12
3.3408293e-12 -4.777709e-13 2.5886086e-12 -2.0836761e-12 -8.928689e-10 2.4675344e-05 2.5390006e-09 4.356872e-12
1.4353216e-05 2.5934368e-12 -0.0007051076 3.697419e-07 -3.656195e-15 -1.9642693e-08 9.788252e-16 -6.31865e-10
-1.3913702e-15 -8.369918e-12 -5.635266e-19 3.2625173e-11 2.5111435e-18 7.6059115e-09 -1.4155074e-15 7.6059115e-09
-7.4777e-11 -2.6987048e-11 2.5370255e-11 -2.3043943e-11 -3.880818e-15 -2.2600537e-15 8.6135326e-16 -3.4128437e-16
1.7160713e-12 7.6059115e-09 -1.18319525e-14 7.6059115e-09 -4.97275e-09 8.883022e-11 7.605857e-09 7.572706e-09
7.5937105e-09 7.477543e-09 -1.4810463e-05 0.00040791224 -1.3814787e-07 9.021174e-11 1.864928e-07 2.2091464e-09
-7.6523076e-13 -0.0008058486 4.85229e-16 2.573719e-12 3.3374171e-12 -4.98105e-10 -1.0042423e-12 -2.0867654e-12
-8.928689e-10 4.125885e-39 1.297112e-09 -3.053729e-06 4.8275006e-09 -9.8532155e-11 1.8802479e-07 1.5228245e-09
1.8619542e-18 7.5546865e-05 9.380244e-16 9.4029474e-08 -1.3911357e-15 -0.00010907636 -5.932258e-19 5.2984506e-05
2.3755068e-18 7.6059115e-09 -1.4160707e-15 7.6059115e-09 8.590674e-11 -3.408647e-11 2.3597013e-11 -1.8832842e-11
-4.318173e-16 -1.8353902e-16 -1.2863595e-15 -6.2180466e-16 -9.063131e-07 7.235336e-09 -0.0002612805 7.6059115e-09
-3.1725276e-09 -4.711952e-10 7.605888e-09 7.591512e-09 7.600308e-09 7.527213e-09 -7.187282e-10 -1.9084018e-07
4.3318366e-10 -0.00015482167 0.0005298243 2.2091464e-09 6.5083735e-13 1.1418206e-06 4.8538217e-16 2.573719e-12
3.338092e-12 -5.111375e-06 1.9996574e-12 -2.0719529e-12 -8.928689e-10 1.6411152e-06 2.2655322e-09 1.346701e-12
-1.0630374e-09 1.6960825e-05 -5.740801e-05 -2.448426e-10 3.0580307e-18 -0.0010939635 -2.8983278e-15 1.26837e-40
-1.3913702e-15 0.004779712 -5.678844e-19 -0.0011854405 2.3044857e-18 7.6059115e-09 -1.4154985e-15 7.6059115e-09
1.1175537e-10 -2.6687076e-11 2.5962817e-11 2.237358e-11 1.2919007e-16 -2.0370435e-15 -9.217307e-18 -6.4993314e-16
-2.7590465e-07 7.3867406e-09 -0.00080609566 7.6059115e-09 -2.2816984e-09 6.5091676e-10 7.60586e-09 7.3955926e-09
7.4126056e-09 7.3641617e-09 -2.9244092e-09 2.591407e-10 3.0749254e-09 -2.7569119e-12 -0.0011424762 2.2091464e-09
2.0898566e-13 8.463427e-12 5.362366e-16 2.5722202e-12 3.3400097e-12 -0.0010968074 -1.941258e-12 -2.0867654e-12
-8.928689e-10 3.7220474e-08 2.351713e-09 -4.4999616e-12 5.0993653e-15 6.0247385e-13 5.183852e-05 -2.155589e-10
2.8270812e-18 4.1860986e-09 -2.8757251e-15 3.697e-42 9.850074e-16 2.0309887e-09 -5.609756e-19 -1.7812305e-12
2.5341698e-18 7.6059115e-09 -1.4161131e-15 7.6059115e-09 1.2404982e-12 -3.458203e-11 2.3615342e-11 1.336607e-11
-1.7257304e-15 -1.7810134e-15 -9.172458e-16 4.0273876e-17 4.867864e-06 7.476712e-09 -9.089959e-09 7.6059115e-09
7.5905915e-10 -1.885454e-10 7.6058875e-09 7.4535915e-09 7.5392546e-09 6.8647084e-09 1.6193956e-06 3.7026846e-05
3.1205067e-12 -1.117937e-11 5.9186365e-05 2.2091464e-09 4.9465613e-13 -3.188331e-08 4.918122e-16 2.573719e-12
3.3379254e-12 -1.7065668e-11 -2.1695861e-12 -2.0802559e-12 -8.928689e-10 -0.00016272935 -8.278347e-10 1.8773368e-12
3.584199e-13 -1.2241568e-07 3.3128494e-13 1.3845175e-10 1.1140704e-18 -4.2017763e-09 -2.7492466e-15 -1.150023e-09
9.925431e-16 -0.00016678862 -1.3913702e-15 -1.1887325e-08 2.3972172e-18 7.6059115e-09 -1.4151395e-15 7.6059115e-09
4.593472e-11 -3.4485557e-11 2.3619764e-11 1.3740861e-11 3.4707986e-15 2.580315e-15 1.351652e-15 -9.164018e-16
00000000: 4528 17b2 a2bb d330 0cab 0232 e134 0432
00000010: 3213 0432 ddce 0332 a0a6 0b36 c889 bead
00000020: a9b5 9cb1 a4b3 4dae 58c5 f0b8 b7cf 1731
00000030: 9968 93ab 7ec4 f4ae 0661 0b26 5c11 352c
00000040: 0817 6b2c 067b 06ab 3a28 362c 2ca0 12ac
00000050: 106e 75b0 e6fd ce37 927a 2e31 374b 992c
00000060: 98ce 7037 347f 362c f8d6 38ba f180 c634
00000070: 72ba 83a7 bdba a8b2 4710 8d26 8caf 2db0
00000080: 8084 c8a6 c23e 13ad de52 26a1 ae7c 0f2e
00000090: 294a 3922 27ab 0232 01ff cba6 27ab 0232
000000a0: b56f a4ae 6e61 edad bc28 df2d 59b2 caad
000000b0: 3ad2 8ba7 a2da 22a7 a744 7826 afbc c4a5
000000c0: fc83 f12b 27ab 0232 4025 55a8 27ab 0232
000000d0: c6dc aab1 f856 c32e eaaa 0232 1d19 0232
000000e0: 7e75 0232 9576 0032 747a 78b7 0edd d539
000000f0: cc55 14b4 b260 c62e c03e 4834 b7cf 1731
00000100: b064 57ab 963f 53ba 95db 0b26 001c 352c
00000110: 90d9 6a2c 06eb 08b0 a455 8dab d3d7 12ac
00000120: 106e 75b0 4aed 2c00 1246 b230 aaee 4cb6
00000130: 25df a531 acac d8ae dce3 4934 a04b d130
00000140: 5263 0922 ea6e 9e38 fe2e 8726 40ed c933
00000150: d97b c8a6 edbf e4b8 e016 2fa1 ae3b 5e38
00000160: 0e48 2f22 27ab 0232 ca13 cca6 27ab 0232
00000170: 32e9 bc2e f4e9 15ae c08f cf2d caa7 a5ad
00000180: fcec f8a5 289b 53a5 4a62 b9a6 1639 33a6
00000190: 5d49 73b5 b09a f831 7afc 88b9 27ab 0232
000001a0: b203 5ab1 6a85 01b0 0dab 0232 d36b 0232
000001b0: 8292 0232 0851 0132 0090 45b0 c0e9 4cb4
000001c0: 2e25 ee2f a057 22b9 e8e3 0a3a b7cf 1731
000001d0: c631 372b a840 9935 e2e6 0b26 001c 352c
000001e0: b8e5 6a2c 6082 abb6 a0b6 0c2c fccc 11ac
000001f0: 106e 75b0 4a44 dc35 aaaf 1b31 0488 bd2b
00000200: 4e1a 92b0 1847 8e37 62c9 70b8 889a 86af
00000210: 91a4 6122 5363 8fba b6d8 50a7 9261 0100
00000220: 8084 c8a6 219f 9c3b 229c 27a1 c860 9bba
00000230: 810a 2a22 27ab 0232 adfe cba6 27ab 0232
00000240: aec0 f52e f4bd eaad 115f e42d d3cc c42d
00000250: 2ef2 1425 d2c8 12a7 8007 2aa3 9a54 3ba6
00000260: 0c20 94b4 75ce fd31 2a50 53ba 27ab 0232
00000270: 10cc 1cb1 32ec 3230 edaa 0232 521c fe31
00000280: f8b1 fe31 da07 fd31 c0f6 48b1 d076 8e2f
00000290: a94e 5331 1c00 42ac 24bf 95ba b7cf 1731
000002a0: 044c 6b2a e3e3 142d 478f 1a26 0001 352c
000002b0: 4408 6b2c c0c2 8fba 989a 08ac d3d7 12ac
000002c0: 106e 75b0 58dc 1f33 c69b 2131 0d54 9eac
000002d0: 58b9 b727 d194 292b 306d 5938 7002 6daf
000002e0: 0e9a 5022 50d5 8f31 c437 4fa7 4e0a 0000
000002f0: 5cf4 8d26 8891 0b31 1e92 25a1 98af faab
00000300: 1dfd 3a22 27ab 0232 5a15 cca6 27ab 0232
00000310: a895 ae2b e817 18ae 06b9 cf2d 6e23 6b2d
00000320: 37b4 f8a6 e655 00a7 6630 84a6 00bb 3924
00000330: a256 a336 ed72 0032 102a 1cb2 27ab 0232
00000340: 0aa6 5030 d04e 4faf 0cab 0232 3e0d 0032
00000350: fe85 0132 9dde eb31 025a d935 464d 1b38
00000360: 0d96 5b2c 68ab 44ad e03e 7838 b7cf 1731
00000370: bb3b 0b2b 12f0 08b3 56c1 0d26 001c 352c
00000380: b8e2 6a2c 781c 96ad caab 18ac 8f62 12ac
00000390: 106e 75b0 54a2 2ab9 b08d 63b0 181b 042c
000003a0: c0c5 c92a 5e71 03b4 317f ba2a b43a 182f
000003b0: 6468 a421 375f 90b1 a61a 46a7 d60e 9eb0
000003c0: 610a 8f26 fbe3 2eb9 8084 c8a6 0239 4cb2
000003d0: 27e2 3022 27ab 0232 6ff1 cba6 27ab 0232
000003e0: e605 4a2e 49ab 17ae fbc2 cf2d 56bb 712d
000003f0: ef18 7a27 69ee 3927 28cb c226 4211 84a6

fc1.bias f4 [256]
7.6059115e-09 -4.2573784e-06 -4.6967475e-06 5.288627e-07 9.067152e-07 0.0005372019 -0.00084113784 -6.5763835e-08
-0.00045101112 7.916619e-06 9.037185e-05 1.5487658e-12 -2.3345518e-05 3.960543e-07 -1.1488688e-06 -1.9656732e-06
-9.462575e-09 1.0952019e-07 6.780444e-09 -3.1913096e-06 -2.9704468e-11 -0.005827346 -1.0088528e-11 -8.002654e-08
-9.55346e-08 6.559644e-08 2.2898634e-09 2.598841e-05 -3.6198699e-06 0.037591044 -4.7220647e-06 -5.4037486e-09
-2.195899e-06 -3.354048e-09 2.5475465e-11 -3.4924108e-10 1.0812772e-09 -6.96617e-11 1.2153286e-06 6.508094e-05
1.2510419e-08 -3.9716355e-10 0.00012705145 -0.014611185 -1.4291756e-08 0.23792213 -2.799735e-05 5.626682e-14
5.2327573e-06 2.9293774e-09 -4.7260195e-07 -3.1063097e-18 -1.0631027e-08 -6.6816438e-06 -5.817025e-06 0.0021676864
-0.0002527011 -5.3299126e-10 -0.0006926988 -3.2124534e-09 -6.266793e-10 2.822593e-10 -0.050355192 -1.0639953e-08
2.1271416e-07 1.0503106e-08 4.9063376e-10 9.418207e-09 9.365935e-06 4.5471036e-09 2.024617e-06 -6.179917e-09
-1.0488276e-08 -6.5815307e-06 -1.1489716e-05 -2.831237e-12 -1.4749797e-10 -5.4973475e-09 0.24775617 -0.008647811
1.11153426e-07 -5.2356084e-09 -3.0353262e-09 -3.087386e-09 -3.6275424e-11 -2.7339822e-10 9.2130556e-08 -0.0010732758
0.005760196 1.1225255e-06 1.5331343e-05 -2.3680667e-07 4.4433464e-11 -2.0671544e-10 6.3777534e-08 2.1704e-06
0.00026885956 6.953158e-08 1.097319e-08 -4.59875e-11 -2.0364435e-09 -2.5594272e-06 6.536113e-05 -3.275984e-12
-0.018256279 -3.1594553e-08 -0.041697886 -0.08891939 -7.873514e-09 -7.437509e-13 -1.0301305e-06 1.0018532e-06
-7.028502e-07 -1.471561e-06 -9.783474e-10 -0.00046920628 3.2014107e-08 3.3955246e-08 3.6243794e-08 0.00015564103
1.2196902e-09 -7.5611124e-06 2.753614e-10 1.3603337e-05 -1.7426643e-08 1.4144633e-05 9.291113e-09 -5.826167e-10
-2.157492e-05 -7.697716e-05 8.169177e-06 1.4871191e-09 3.6391558e-08 -4.7654703e-07 1.462736e-05 -1.7763528e-08
2.5941525e-05 -2.8250952e-07 -2.7163536e-05 -2.7403075e-06 -3.177419e-06 6.0428937e-07 -0.00017265606 -9.0875085e-12
-1.2769357e-06 3.1629324e-11 5.1478764e-06 -3.880309e-05 -2.2616456e-10 -0.037992757 -4.6554844e-05 -4.6845043e-09
-1.1540745e-07 5.86501e-07 -9.477535e-09 3.8533795e-05 3.2526376e-10 -1.1603142e-08 1.8550714e-09 3.897635e-05
-2.4053963e-05 2.752472e-07 1.4125472e-12 -1.338824e-09 -0.00019628395 -4.752983e-06 -0.03979635 3.0251708e-06
1.5612856e-19 -4.3144377e-09 0.12510103 -5.0204555e-05 -0.0011074578 7.6494485e-05 7.4823964e-07 -6.4317106e-08
-9.950841e-06 1.7531192e-10 3.703842e-07 2.0533837e-06 1.4763233e-07 1.47392275e-05 -0.00037310028 -1.643177e-07
-9.105695e-08 -8.861392e-09 -5.1632058e-05 7.709301e-06 2.1973372e-10 2.36784e-06 3.4510245e-10 -3.518862e-06
6.080673e-06 1.8739705e-09 -3.2927696e-07 -3.297561e-24 -6.419377e-08 -9.882882e-07 -7.531358e-13 -2.736615e-09
-5.359866e-06 1.6605993e-10 -2.90059e-08 6.126244e-08 -1.0622899e-07 -1.971975e-09 -8.637007e-09 -0.0039093615
4.164599e-06 1.266149e-08 -0.002082263 0.04983394 -4.221875e-05 3.039301e-06 -1.7223951e-07 0.09143381
4.6253585e-06 2.9522075e-06 0.0010803107 -9.5732026e-11 -1.2749743e-09 4.372086e-08 -1.780835e-05 -2.0301647e-07
-5.1750876e-06 -0.0027557106 -1.6732178e-05 -5.3962203e-06 -0.0005290289 0.005305917 -2.6664834e-08 -1.6260132e-06
1.0357108e-05 0.021464054 0.02512803 0.00022362337 -0.0014706553 -8.145775e-07 -7.790865e-09 -9.854721e-06
-0.003807578 -0.00013767084 -7.330261e-08 2.4114004e-09 -1.022159e-09 -1.2790402e-10 1.5821592e-05 -1.7744984e-16
-3.4632703e-05 5.3785756e-05 1.1857628e-06 -8.5868505e-06 -8.304265e-07 -7.579375e-08 3.6970637e-06 2.528634e-07
00000000: 27ab 0232 9ada 8eb6 c198 9db6 2bf7 0d35
00000010: fe64 7335 02d3 0c3a ce7f 5cba 0d3a 8db3
00000020: b075 ecb9 9fd1 0437 0486 bd38 2bf8 d92b
00000030: 1ed6 c3b7 4aa1 d434 d532 9ab5 02ea 03b6
00000040: d890 22b2 5c31 eb33 6bf9 e831 482a 56b6
00000050: 42a4 02ae 52f3 bebb b17a 31ad 0edb abb3
00000060: b428 cdb3 06de 8c33 b45b 1d31 af01 da37
00000070: e4ec 72b6 11f9 193d 3a72 9eb6 e0ab b9b1
00000080: 425d 13b6 097d 66b1 a615 e02d 50ff bfaf
00000090: 0f9c 9430 0d30 99ae 5f1e a335 107c 8838
000000a0: 68ed 5632 cd57 daaf 1d39 0539 c063 6fbc
000000b0: cf87 75b2 dca1 733e dadb eab7 3a67 7d29
000000c0: 0b95 af36 274e 4931 ebb9 fdb4 8834 65a2
000000d0: c0a3 36b2 e232 e0b6 dd2f c3b6 be0f 0e3b
000000e0: f87c 84b9 ed81 12b0 3b96 35ba 14c2 5cb1
000000f0: a342 2cb0 772c 9b2f 3f41 4ebd 02cb 36b2
00000100: 6c66 6434 2671 3432 48dd 0630 b6cd 2132
00000110: 6222 1d37 bf3c 9c31 a8de 0736 2057 d4b1
00000120: ed2f 34b2 ebd6 dcb6 f4c3 40b7 083b 47ac
00000130: fd2c 22af 2ee3 bcb1 cbb3 7d3e 8caf 0dbc
00000140: 3eb3 ee33 e6e4 b3b1 0696 50b1 de29 54b1
00000150: 7f8a 1fae 614d 96af 4fd9 c533 29ad 8cba
00000160: 07c0 bc3b afa9 9635 cf9b 8037 ec44 7eb4
00000170: a26b 432e 3949 63af 12f6 8833 30a7 1136
00000180: b8f5 8c39 6451 9533 9a84 3c32 5241 4aae
00000190: 7ef1 0bb1 a0c2 2bb6 7d12 8938 e286 66ac
000001a0: 318e 95bc 94b2 07b3 67cb 2abd 5f1b b6bd
000001b0: 1544 07b2 e758 51ab 0443 8ab5 6a77 8635
000001c0: 7fab 3cb5 7382 c5b5 8a76 86b0 cdff f5b9
000001d0: e27f 0933 30d6 1133 79aa 1b33 9233 2339
000001e0: 09a2 a730 76b5 fdb6 ac61 972f e339 6437
000001f0: 98b1 95b2 bc4e 6d37 bf9e 1f32 0126 20b0
00000200: cafb b4b7 cc6e a1b8 590e 0937 5a63 cc30
00000210: f14c 1c33 20d8 ffb4 0868 7537 6996 98b2
00000220: 009d d937 d0ab 97b4 40dd e3b7 20e6 37b6
00000230: a53b 55b6 7336 2235 020b 35b9 80de 1fad
00000240: 2d63 abb5 741b 0b2e ecbb ac36 80c0 22b8
00000250: aaab 78af 4b9e 1bbd e243 43b8 56f5 a0b1
00000260: ebd5 f7b3 0b70 1d35 a4d2 22b2 599f 2138
00000270: ced0 b22f 2857 47b2 86f5 fe30 8a7a 2338
00000280: 7ec7 c9b7 b0c5 9334 60cc c62b af01 b8b0
00000290: 92d1 4db9 d07b 9fb6 7f01 23bd 0a04 4b36
000002a0: f652 3820 323e 94b1 7c1a 003e bb92 52b8
000002b0: 1e28 91ba aa6b a038 a3da 4835 b41e 8ab3
000002c0: 89f2 26b7 ebc1 402f 38d9 c634 ddcc 0936
000002d0: de84 1e34 8048 7737 ac9c c3b9 4e6f 30b4
000002e0: 168b c3b3 d03c 18b2 808f 58b8 3257 0137
000002f0: 8b99 712f 2ee7 1e36 dab8 bd2f 9725 6cb6
00000300: 9508 cc36 3dc7 0031 7bc7 b0b4 ed22 7f98
00000310: e6da 89b3 53a5 84b5 27fd 53ab 0a0f 3cb1
00000320: e6d8 b3b6 b795 362f a628 f9b2 628f 8333
00000330: 0120 e4b3 5a83 07b1 f561 14b2 1a1a 80bb
00000340: a2bd 8b36 d285 5932 9376 08bb ac1e 4c3d
00000350: 0a14 31b8 cbf6 4b36 d6f0 38b4 a641 bb3d
00000360: 8733 9b36 8a1e 4636 3699 8d3a 5784 d2ae
00000370: 2c3b afb0 98c7 3b33 2463 95b7 befc 59b4
00000380: aaa5 adb6 2799 34bb 145c 8cb7 2e11 b5b6
00000390: 87ae 0aba 42dd ad3b 970c e5b2 633d dab5
000003a0: 71c3 2d37 62d5 af3c 4cd9 cd3c 717c 6a39
000003b0: 01c3 c0ba 57a9 5ab5 96d8 05b2 b455 25b7
000003c0: 8f88 79bb bc5b 10b9 896a 9db3 ceb5 2531
000003d0: 067c 8cb0 c8a1 0caf 9cb8 8437 f395 4ca5
000003e0: 9542 11b8 0498 6138 8026 9f35 3e10 10b7
000003f0: 79ea 5eb5 0ec4 a2b3 121b 7836 48c1 8734

fc2.weight f4 [256, 256]
-9.424982e-12 -6.14484e-09 1.36406615e-11 -2.0158472e-08 0.0012863972 2.0350617e-06 1.9128813e-06 6.783038e-38
-2.4703322e-08 5.073099e-06 3.808434e-06 -2.2468851e-13 1.4273235e-12 2.5200755e-08 -2.2499094e-05 0.00014988892
8.257736e-09 -8.809319e-15 -3.5678255e-12 9.7188995e-08 0.00031157502 7.868106e-08 -1.5261924e-27 -0.00015140089
2.4299242e-19 9.857733e-06 1.7360398e-07 -1.5179776e-12 -9.554146e-09 8.040607e-08 -0.0005285818 -0.0021154024
-5.1533985e-05 -8.69693e-12 1.2536354e-15 -0.004594491 1.2401911e-12 -5.755679e-17 -8.108976e-05 2.607204e-10
2.808489e-13 -9.603173e-15 -8.181587e-08 -2.3208473e-09 1.1114859e-12 0.00010545359 2.5069067e-09 6.477114e-17
1.6218151e-13 -1.5715623e-15 3.3906766e-05 -3.428774e-39 3.767191e-05 -4.002823e-05 6.525724e-08 -3.3374067e-06
-7.1737475e-08 9.01042e-07 -5.805358e-09 -5.939966e-10 -1.7008003e-16 3.8252533e-15 -1.0611887e-07 6.392465e-11
4.1562738e-15 -0.001009736 2.055792e-20 6.8871905e-12 -8.154384e-11 8.31079e-08 1.4694075e-08 -0.0015384064
7.7020995e-18 1.1807728e-09 -2.2788058e-10 -3.362463e-39 1.0366266e-12 -2.0344194e-05 1.0312245e-07 1.2616074e-06
-8.026571e-11 3.876054e-28 -4.3357077e-13 -4.3250744e-05 2.117376e-39 -7.7536247e-13 1.9159022e-06 2.7001468e-10
-7.100979e-07 -2.9239835e-08 -7.925468e-12 -5.972729e-07 1.1156149e-12 -7.830253e-14 -3.498685e-05 -6.8145184e-08
0.000374556 -3.1044725e-05 7.124521e-19 -2.8627372e-09 3.4446306e-12 2.7474485e-07 -2.8541298e-17 9.849865e-27
-6.325461e-06 1.5750409e-12 -6.1633266e-08 -4.0105106e-09 6.7555335e-09 -2.4412408e-12 2.0934335e-06 -7.500936e-09
-2.3394386e-10 3.0413813e-17 -4.653397e-05 1.759756e-08 -1.226546e-05 -8.6457674e-10 -1.0689526e-05 -4.0533556e-05
5.9846806e-12 -6.8806044e-11 -1.22421726e-11 -9.004244e-11 -3.3649028e-15 -3.947909e-05 5.0538754e-11 -2.4029943e-13
-0.0010865645 -8.913408e-08 1.9872615e-12 2.886143e-11 5.5648708e-11 0.00040852895 5.738174e-06 3.4671914e-09
-4.3858673e-08 -2.6844345e-12 -6.678947e-09 5.5705957e-08 6.824982e-11 0.00023807136 1.70123e-07 7.097381e-14
0.0009781166 2.4685576e-14 9.496165e-06 -1.14810045e-11 -8.00665e-06 -4.3655325e-19 -2.670073e-07 -1.6716832e-07
4.4079512e-10 7.418868e-17 1.13017995e-05 1.685539e-10 1.7676536e-12 8.298019e-07 -6.31695e-11 -4.4893858e-09
5.1263726e-16 -6.2537435e-07 9.101231e-15 -1.818279e-19 -2.1154816e-05 1.0362359e-12 -4.094745e-21 9.300001e-07
8.011735e-15 -5.3518406e-16 -7.699906e-07 5.003937e-09 -3.4377717e-07 -5.5488376e-06 3.218606e-12 8.364864e-07
-6.533776e-11 7.521538e-13 7.5162636e-05 -1.0165897e-09 9.862014e-08 -2.87893e-09 5.67824e-06 0.00013785626
1.9504624e-13 5.189186e-10 1.0648231e-08 -1.7569965e-07 -1.839205e-16 -3.4810124e-16 -2.2338258e-15 9.072528e-11
0.0004290348 -3.334885e-13 -6.437758e-05 -1.2539185e-20 -1.4284283e-10 -0.0039137057 1.58808e-40 -1.5249434e-38
-9.253188e-07 -4.4030844e-17 -5.3456824e-18 9.631683e-07 -1.5367941e-24 -8.1285656e-08 -1.6937151e-11 1.9208834e-05
-7.00696e-07 3.0989844e-10 -4.0246364e-06 -8.0732025e-06 -3.819382e-08 -3.72284e-11 4.123473e-07 2.2822655e-06
-2.228896e-15 -1.1136625e-07 -1.4155432e-06 3.3865415e-13 1.88568e-09 -8.045835e-12 4.6714185e-08 -3.0116286e-08
-2.3661418e-11 -5.473256e-12 0.0010255103 4.8535095e-18 -9.837923e-05 -7.981332e-05 5.1347246e-11 5.254205e-15
6.5260665e-11 2.1486684e-08 -2.4300283e-07 -2.6690387e-07 -2.2762183e-07 -1.8083981e-27 -2.29565e-14 3.2845433e-06
-3.516625e-24 -1.7800761e-12 2.8760905e-07 2.2583982e-21 4.1226796e-12 2.1534183e-14 0.00043321247 -1.727156e-39
7.364391e-12 -0.0045203213 4.043127e-10 1.440029e-09 -9.669126e-10 1.7024864e-05 -9.0820106e-14 1.2767802e-09
00000000: 58ce 25ad 9622 d3b1 14f8 6f2d f328 adb2
00000010: 549c a83a 1892 0836 0d5f 0036 e0a6 b801
00000020: 2e33 d4b2 9739 aa36 6694 7f36 0efa 7caa
00000030: c0e0 c82b 0c79 d832 70bc bcb7 802b 1d39
00000040: e8dd 0d32 d0b1 1ea8 3b10 7bac 37b6 d033
00000050: e45a a339 5ff7 a833 b8d5 f192 5ec1 1eb9
00000060: fa6f 8f20 a462 2537 e667 3a34 e8a2 d5ab
00000070: 9423 24b2 b4ab ac33 8690 0aba 90a2 0abb
00000080: 3226 58b8 7eff 18ad fcaa b426 628d 96bb
00000090: 988a ae2b 88b7 84a4 bc0e aab8 2255 8f2f
000000a0: 981a 9e2a d2fe 2ca8 c0b2 afb3 c77c 1fb1
000000b0: 806d 9c2b f726 dd38 f845 2c31 225a 9524
000000c0: a399 362a 6a7c e2a6 1d37 0e38 0756 2580
000000d0: e801 1e38 fce3 27b8 8c23 8c33 36f8 5fb6
000000e0: 180e 9ab3 22df 7135 7878 c7b1 cb46 23b0
000000f0: c416 44a5 bcd1 8927 77e3 e3b3 6192 8c2e
00000100: dcbe 9527 1e59 84ba 002a c21e 4c52 f22c
00000110: 1a51 b3ae 0d79 b233 3a71 7c32 5aa4 c9ba
00000120: 2314 0e23 c048 a230 ae8e 7aaf 2e9d 2480
00000130: 69e4 912b d3a8 aab7 2b74 dd33 8054 a935
00000140: 9481 b0ae 92ac f511 2214 f4aa 2268 35b8
00000150: 620e 1700 c13e 5aab f392 0036 3071 942f
00000160: 8e9d 3eb5 142b fbb2 226d 0bad 4854 20b5
00000170: 4302 9d2b 5652 b0a9 d8be 12b8 3657 92b3
00000180: 0e60 c439 0536 02b8 5c47 5221 ceb9 44b1
00000190: f364 722c a580 9334 9e9f 03a4 c018 4314
000001a0: 4c3f d4b6 d4aa dd2b 3f5b 84b3 d3cc 89b1
000001b0: 4d1e e831 7cc9 2bac ea7c 0c36 77dd 00b2
000001c0: ac9c 80af 4b42 0c24 782d 43b8 7229 9732
000001d0: c0c7 4db7 2ea7 6db0 2a57 33b7 9302 2ab8
000001e0: 3691 d22c 5c4e 97ae d85d 57ad 6301 c6ae
000001f0: 8077 72a7 5a96 25b8 9445 5e2e cc46 87aa
00000200: 0e6b 8eba fb69 bfb3 52d7 0b2c 2ade fd2d
00000210: e0be 742e d42f d639 8a8a c036 7a43 6e31
00000220: 1f5f 3cb3 79e6 3cac a47c e5b1 5941 6f33
00000230: 3c15 962e cba2 7939 0eab 3634 9ed1 9f29
00000240: 2634 803a 1059 de28 b851 1f37 d9f9 49ad
00000250: 4d54 06b7 08d9 00a1 3459 8fb4 e17e 33b4
00000260: 6654 f22f 4411 ab24 dc9c 3d37 b453 392f
00000270: 6fc6 f82b 8dbf 5e35 44e9 8aae 0e41 9ab1
00000280: f4c1 1326 66df 27b5 05f4 2328 1caa 56a0
00000290: 9f75 b1b7 55d6 912b f2b1 9a9d 1fa5 7935
000002a0: 9b53 1028 9d41 1aa6 5ab1 4eb5 18ef ab31
000002b0: 6090 b8b4 2730 bab6 407d 622c e88a 6035
000002c0: e4ad 8fae 65b6 532b a2a0 9d38 12b8 8bb0
000002d0: ffc8 d333 acd6 45b1 b687 be36 828d 1039
000002e0: 409a 5b2a a6a3 0e30 6aef 3632 f4a7 3cb4
000002f0: c00b 54a5 adaa c8a5 d0f6 20a7 cb81 c72e
00000300: 13f0 e039 c2bc bbaa 7302 87b8 c7db 6c9e
00000310: af0e 1daf 8b3e 80bb b1ba 0100 380d a680
00000320: 6c63 78b5 720e 4ba4 8b38 c5a2 3646 8135
00000330: b0ce ed97 438f aeb3 13fb 94ad a822 a137
00000340: 7617 3cb5 545e aa2f 5d0b 87b6 2472 07b7
00000350: 8d0a 24b3 74bb 23ae 9560 dd34 0629 1936
00000360: e09b 20a7 3e28 efb3 b2fd bdb5 35a5 be2a
00000370: 3c95 0131 388b 0dad caa2 4833 3559 01b3
00000380: c720 d0ad b592 c0ac 6a6a 863a 1a10 b322
00000390: f250 ceb8 7361 a7b8 dcd3 612e 7d4d bd27
000003a0: 7d82 8f2e b891 b832 0e76 82b4 fd4a 8fb4
000003b0: 3668 74b4 ac46 0f93 16c6 cea8 066c 5c36
000003c0: f80a 8898 0086 faab b068 9a34 c6a3 2a1d
000003d0: cc0d 912c 72f6 c128 cb20 e339 9cce 1280
000003e0: 458e 012d 341f 94bb f445 de2f 84ea c530
000003f0: 36e4 84b0 9ed0 8e37 3a82 cca9 b67a af30

fc2.bias f4 [256]
-8.487852e-07 0.001339396 -1.8766055e-05 0.23133004 -5.729871e-08 1.4058339e-05 -5.2160713e-06 -0.035956748
-1.7664933e-10 -0.0017838301 9.786852e-08 -0.003932997 0.0030607383 -7.1255144e-08 -1.9317659e-08 8.286322e-08
-1.6701257e-08 0.14335532 7.442661e-11 6.0005083e-12 -1.909956e-05 2.0359092e-08 -4.1044248e-05 -0.00015471941
1.080914e-05 4.601488e-08 8.296312e-08 0.25469956 1.3725715e-06 -4.6241762e-08 0.0060292105 2.755023e-07
9.652213e-05 -7.595275e-08 1.2304439e-12 -0.0033076997 1.4179438e-05 -8.376157e-09 3.2765615e-06 -7.176068e-06
-5.727233e-06 -0.029421167 -5.4712647e-08 0.11546031 -3.3174867e-05 -1.4379754e-11 -0.0009956564 -7.8826884e-10
8.7602864e-05 -6.238316e-07 -1.3389307e-05 -5.268543e-08 -0.0007029792 -1.2822632e-09 -3.3110518e-06 -8.897181e-08
-3.798848e-08 0.25199878 -1.6488559e-06 5.3194293e-07 -7.034363e-05 -9.496257e-06 -8.911245e-07 -0.0017287798
-1.3349642e-05 -4.6842175e-10 0.017816314 -7.585888e-05 4.3112203e-05 -9.972366e-07 -4.4785265e-06 -0.0001333038
0.0018279387 -0.00012467649 2.2523174e-08 8.4145757e-10 -4.942472e-07 -6.7333895e-07 -3.3801388e-09 0.00015925126
8.9222474e-10 -6.493301e-07 4.7814e-07 0.00018457674 0.030609604 -3.5133414e-07 3.7623235e-05 -2.3638264e-12
-0.00018924169 -0.00027133862 4.9475492e-08 -2.4549763e-06 -2.7745324e-07 -0.00070667407 1.2965864e-05 -1.0892423e-05
-3.778314e-05 -4.8267335e-10 0.00011902498 -0.0002718487 0.0006933221 -4.125941e-06 -0.03477318 -4.651392e-06
-4.744167e-08 -1.5011715e-09 -1.2649302e-07 7.7719443e-07 1.560439e-07 3.515148e-06 0.09476003 0.00024873854
0.0033555096 4.2914933e-05 -0.005160517 -5.5876762e-06 4.3562136e-09 4.5701978e-05 7.5509524e-07 -8.2294384e-05
0.26348132 8.277555e-16 -9.346157e-05 -5.2639516e-06 3.8533653e-07 -1.8222801e-06 3.833626e-05 0.04467698
1.9353487e-05 0.23569626 -0.0018799405 -1.347486e-10 4.3144058e-07 -3.7705342e-06 -0.030835237 -8.6274986e-07
-1.0099663e-09 -2.1130293e-06 9.251908e-06 1.498497e-06 1.540085e-05 0.5583172 2.3318196e-07 -3.273582e-05
7.0197024e-07 -9.557297e-10 6.698666e-07 6.127265e-05 -0.016749416 0.027600482 2.4274298e-09 -2.3307597e-07
4.610498e-07 3.1507068e-25 0.0034744143 -4.696521e-07 3.1516404e-06 6.589255e-05 -7.798458e-06 0.0059284684
-0.015983634 -2.0227365e-07 0.03716264 6.787923e-09 -0.00063075917 2.8224945e-06 -2.5214579e-06 -2.1106858e-08
0.05143299 -2.0283022e-07 7.2683235e-07 -0.004058528 -0.0011611411 -4.4415597e-08 -2.207211e-06 -4.203468e-10
0.0009896442 2.186064e-08 -0.00015827139 3.6178665e-06 4.930499e-06 -1.3862262e-05 0.052460488 3.078759e-08
-5.2255746e-07 0.000105377774 1.7270006e-05 0.0005040192 -4.44967e-07 -3.2464507e-07 0.0014581573 0.1842997
-5.198796e-09 -0.008213613 -3.0378706e-05 7.103074e-11 4.1869136e-08 0.00023369087 -1.5538706e-06 8.7431024e-10
-0.030011015 -1.0121163e-08 2.7113511e-09 3.068954e-06 -0.037224587 -1.0409295e-07 -1.468897e-07 0.0044577885
-4.2548143e-09 -0.022615407 6.262856e-06 0.019338274 -3.8308377e-07 0.000105970976 0.09514589 1.258672e-10
0.0072308374 -1.8103322e-06 -1.0697012e-09 9.996979e-08 -5.0946674e-05 -0.0004268162 -0.00067931536 -1.6082114e-07
0.0013399895 0.00073604163 0.000121552366 -1.2031068e-05 -3.703798e-06 0.00073476904 1.4441446e-06 -0.00019104693
-3.3180708e-08 3.0711366e-05 -2.4566385e-05 -2.8199209e-25 3.8446968e-11 0.0050165337 0.0040303892 7.116647e-12
-4.158652e-09 4.2545167e-10 -1.135198e-07 -1.1364814e-06 1.4277529e-07 0.013899902 -4.6463907e-07 -6.381446e-08
-7.365053e-10 0.17221223 0.0065194615 6.1816468e-06 3.384923e-05 -6.0503553e-06 0.00648414 6.465998e-07
00000000: 13d8 63b5 ac8e af3a cc6b 9db7 c8e1 6c3e
00000010: 9918 76b3 1bdc 6b37 b605 afb6 6247 13bd
00000020: 5e3a 42af 68cf e9ba ca2b d233 5fe0 80bb
00000030: ab96 483b ee04 99b3 fbef a5b2 89f2 b133
00000040: 7476 8fb2 bdcb 123e 75aa a32e c61f d32c
00000050: fe37 a0b7 1ee2 ae32 ed26 2cb8 2d3c 22b9
00000060: e758 3537 e5a1 4533 7529 b233 fb67 823e
00000070: 3339 b835 5b9b 46b3 af90 c53b bfe8 9334
00000080: ed6b ca38 771b a3b3 6a2b ad2b fec5 58bb
00000090: 39e4 6d37 bae6 0fb2 e6e2 5b36 f4c9 f0b6
000000a0: 8f2c c0b6 a904 f1bc 31fd 6ab3 7476 ec3d
000000b0: 3e25 0bb8 a8f8 7cad af80 82ba 7dad 58b0
000000c0: 6eb7 b738 6275 27b5 a3a2 60b7 3e48 62b3
000000d0: 2348 38ba a03b b0b0 7033 5eb6 c510 bfb3
000000e0: c728 23b3 fc05 813e 424e ddb5 d7ca 0e35
000000f0: 7385 93b8 1d52 1fb7 9c35 6fb5 3998 e2ba
00000100: 47f8 5fb7 40c2 00b0 85f3 913c 6d16 9fb8
00000110: 60d3 3438 cad8 85b5 4046 96b6 77c7 0bb9
00000120: 7297 ef3a 97bb 02b9 fc78 c132 504c 6730
00000130: 69ac 04b5 80bf 34b5 0848 68b1 affc 2639
00000140: bc40 7530 a04d 2eb5 8859 0035 f18a 4139
00000150: fec0 fa3c ff9e bcb4 a4cd 1d38 e956 26ac
00000160: 2e6f 46b9 7442 8eb9 e17e 5433 2cc0 24b6
00000170: e2f4 94b4 1840 39ba f687 5937 9abe 36b7
00000180: 5679 1eb8 1ead 04b0 0d9d f938 ea86 8eb9
00000190: 0fc0 353a 9071 8ab6 526e 0ebd 2713 9cb6
000001a0: abc2 4bb3 c751 ceb0 23d2 07b4 65a0 5035
000001b0: 058d 2734 c8e5 6b36 8c11 c23d 1f69 8239
000001c0: 1ce8 5b3b 8fff 3338 8e19 a9bb c67d bbb6
000001d0: a9ad 9531 20b0 3f38 c0b1 4a35 7695 acb8
000001e0: 06e7 863e 9395 6e26 cc00 c4b8 00a1 b0b6
000001f0: 40e0 ce34 1195 f4b5 3fcb 2038 35ff 363d
00000200: 4c59 a237 5c5a 713e 5668 f6ba 5c28 14af
00000210: bea0 e734 4909 7db6 2e9a fcbc b897 67b5
00000220: 08cf 8ab0 91cd 0db6 a438 1b37 f71f c935
00000230: 1331 8137 e0ed 0e3f 9260 7a34 d24d 09b8
00000240: 076f 3c35 c05a 83b0 e2d0 3335 817f 8038
00000250: 1236 89bc 681a e23c cccf 2631 6f43 7ab4
00000260: 3486 f734 f104 c316 00b3 633b 7e24 fcb4
00000270: c580 5336 cb2f 8a38 1fd6 02b7 9943 c23b
00000280: 1cf0 82bc 8f30 59b4 da37 183d 343b e931
00000290: 8859 25ba 166a 3d36 5136 29b6 794e b5b2
000002a0: 66ab 523d 8cc9 59b4 8a1b 4335 67fd 84bb
000002b0: 6e31 98ba 77c3 3eb3 991f 14b6 8e16 e7af
000002c0: f3b6 813a 0ec8 bb32 a7f5 25b9 79ca 7236
000002d0: aa70 a536 f691 68b7 cfe0 563d 503b 0433
000002e0: e045 0cb5 43fe dc38 0edf 9037 2820 043a
000002f0: cce3 eeb4 e14a aeb4 a41f bf3a 10b9 3c3e
00000300: 18a1 b2b1 6492 06bc c6d5 feb7 c032 9c2e
00000310: 9ad3 3333 ea0a 7539 968e d0b5 1d54 7030
00000320: a9d9 f5bc 58e1 2db2 9852 3a31 3af4 4d36
00000330: cf78 18bd b489 dfb3 bcb8 1db4 a412 923b
00000340: be31 92b1 f243 b9bc 8625 d236 4d6b 9e3c
00000350: a2aa cdb4 bc3c de38 d9db c23d 7864 0a2f
00000360: a9f0 ec3b 8afa f2b5 c404 93b0 f9ae d633
00000370: 93af 55b8 4dc6 dfb9 1514 32ba 2eae 2cb4
00000380: 96a2 af3a ebf2 403a eee9 fe38 0bd9 49b7
00000390: c48e 78b6 849d 403a 6ed4 c135 c553 48b9
000003a0: 9382 0eb3 14d0 0038 e913 ceb7 6e8b ae96
000003b0: 7017 292e bc61 a43b 5b11 843b 0f65 fa2c
000003c0: e4e3 8eb1 00e5 e92f 2cc8 f3b3 3489 98b5
000003d0: c64d 1934 6abc 633c 8273 f9b4 5f0a 89b3
000003e0: f472 4ab0 6758 303e 35a1 d53b f16b cf36
000003f0: 55f9 0d38 2804 cbb6 e978 d43b 0092 2d35

fc3.weight f4 [256, 256]
-2.7361485e-24 -2.0251195e-24 -3.8755392e-23 -0.0007967923 -1.5464524e-11 1.3195822e-21 -6.2147077e-24 -1.555866e-25
1.1252966e-25 -1.0072587e-25 2.480697e-28 -4.756652e-09 -2.1216795e-06 1.5613724e-25 5.7253637e-21 -2.9019457e-24
-1.3561012e-13 3.6069535e-17 -3.781425e-22 1.0179948e-24 1.6932718e-25 -6.842345e-27 2.834852e-22 1.4708284e-20
1.1415985e-26 1.6954414e-25 -5.0366404e-27 -0.0008792709 -1.3596634e-25 -3.7164607e-23 -1.8693344e-08 -1.4901915e-23
-6.8385314e-05 1.3133025e-21 -1.00629655e-25 -6.8956974e-25 2.2588208e-26 2.6020665e-21 -4.3634214e-25 -4.1230686e-27
-5.2355427e-27 -5.172901e-07 -3.734732e-28 -0.00013497465 2.5618e-39 6.0761187e-27 -6.4177715e-29 9.851446e-27
3.8697146e-24 1.4934292e-22 1.584398e-26 5.131306e-22 -1.9254287e-08 -5.2773703e-23 -1.5056698e-22 -2.3761883e-24
3.084214e-25 -0.00044792538 4.3598547e-23 -8.14142e-24 -4.4420373e-25 1.2690116e-26 1.3004162e-26 -1.5552208e-26
-9.10404e-22 -3.7580198e-23 -5.985951e-05 9.83717e-24 -1.5505868e-26 1.5288635e-25 2.5231017e-26 3.433078e-27
1.1054612e-21 9.159622e-25 -4.073442e-23 1.00975414e-22 2.9695304e-24 -1.6775924e-22 4.2393227e-25 5.6662347e-22
1.24324865e-23 1.7361446e-25 2.4142812e-25 2.3413712e-22 -2.292589e-06 -2.1554083e-27 -1.119675e-26 9.9699245e-23
-3.31401e-07 -4.396804e-23 -1.8851659e-26 1.0340899e-26 8.584752e-27 -3.493767e-26 -6.2364085e-24 -3.7184278e-16
-1.3053269e-23 1.8008184e-21 -5.2241383e-24 1.9358423e-21 -9.0675e-24 7.0937654e-23 -8.090447e-07 9.6015555e-23
-2.6706753e-23 -1.2260394e-23 1.6045893e-26 -1.7173883e-27 5.793063e-24 -1.4640828e-25 -1.5811578e-05 7.8146717e-22
-9.728619e-22 3.1629483e-22 6.281951e-22 3.44311e-26 6.121065e-26 -1.0962555e-22 -6.959171e-25 4.6936103e-22
-0.012106453 2.900815e-26 2.6120952e-22 5.267137e-25 -2.941162e-26 -8.6941e-41 -7.9988386e-25 -0.00079614186
9.3853386e-27 -0.018119253 1.1020383e-23 1.312582e-23 3.9587676e-22 -1.4926344e-22 -1.4213113e-06 3.5692697e-27
6.8278754e-27 1.7768755e-38 1.3713888e-26 -1.2548122e-24 -8.405203e-23 -0.030674635 -5.230718e-22 7.056101e-26
6.4176887e-28 8.67861e-28 1.0050712e-27 1.8228031e-21 -5.0113097e-10 4.7940556e-17 -1.3173852e-26 4.335672e-25
5.0290345e-22 3.4747e-26 3.081686e-23 2.1398215e-23 -2.5212994e-26 2.531531e-25 -2.2305772e-28 -1.2125003e-08
-1.478791e-08 -1.3869586e-22 -0.00045554587 -1.22312976e-26 -2.0127512e-22 -1.3634423e-25 1.0832593e-21 -6.4471716e-24
-0.00065052765 -3.4428147e-22 -1.746776e-26 -1.7458637e-22 -7.1193926e-09 -1.098761e-39 -8.659644e-22 3.7512185e-27
-8.799246e-26 -1.2650519e-22 -1.8252943e-23 3.1828258e-28 -8.7852966e-27 -1.9205063e-24 -1.8280936e-25 6.3410704e-28
2.9526529e-25 -8.0974415e-28 -2.3944056e-26 -0.0003568081 2.725486e-26 -9.892839e-13 -1.390311e-22 -0.0003157919
1.0437096e-21 5.9551568e-21 -7.980751e-27 -2.0729774e-24 8.9225345e-36 -6.318508e-22 -3.2278432e-27 -9.2585727e-23
-0.008384362 2.9354574e-26 -3.4149488e-22 2.2393898e-26 -0.010802432 4.9234698e-26 -6.5537604e-13 -2.4684887e-10
2.9537013e-25 -2.339858e-06 -7.784139e-08 -2.691284e-06 3.680407e-25 -1.8620684e-26 -0.13406599 -1.2355339e-12
-4.6126435e-26 -8.1515016e-27 2.119866e-25 -4.6415263e-22 5.107616e-23 -4.8710342e-09 -1.3357794e-07 1.8257067e-22
5.5931683e-27 8.14721e-26 2.6636773e-22 1.8656206e-21 1.0207311e-24 -1.10031675e-26 6.137123e-23 -1.2204765e-22
6.591672e-26 -2.881181e-27 -1.3435427e-26 4.646864e-26 1.4564013e-24 8.364359e-23 -4.6924256e-06 3.4008302e-26
-3.2529064e-23 9.174273e-25 6.136953e-24 -1.1880525e-21 8.554443e-31 3.1551496e-24 -6.66928e-27 6.188763e-27
1.1424645e-26 3.31578e-13 -3.0287308e-07 4.223424e-26 -1.1755288e-26 -1.0466406e-26 -1.0205392e-21 3.699844e-27
00000000: 01b3 5398 a0af 1c98 da68 3b9a d3df 50ba
00000010: 0307 88ad dd68 c71c 7c6b f098 5d9b 4096
00000020: 134e 0b16 9b62 f995 9c3b 9d11 f46f a3b1
00000030: 2d62 0eb6 de49 4116 524c d81d f586 6098
00000040: f5ae 18aa 6457 2624 b892 e49b ee86 9d17
00000050: ed9d 5116 d086 0794 365b ab1b 73ea 8a1e
00000060: ec1d 6214 afe2 5116 9a85 c793 df7e 66ba
00000070: 7451 2896 8eb7 339a 1993 a0b2 5b1f 9099
00000080: 166a 8fb8 ee75 c61c 9f25 f995 5869 5597
00000090: e9b3 df14 499b 441d 960a 0797 e254 a393
000000a0: b666 cf93 e8db 0ab5 7eb7 ec91 fb87 0db9
000000b0: 42e5 1b00 2ab3 f013 b8b5 a290 c420 4314
000000c0: ccb3 9518 658b 341b 43e9 9c14 8f15 1b1c
000000d0: a064 a5b2 ae32 7f9a 3906 369b 42d9 3798
000000e0: 52e7 be16 87d7 eab9 63d4 521a 5c7a 1d99
000000f0: 7279 0997 885a 7b14 78c9 8014 8805 9a94
00000100: 8d93 899c 08ba 359a a911 7bb8 4e47 3e19
00000110: 0c90 9994 9e43 3d16 3ae0 f914 8cff 8713
00000120: 750d a71c 00bd 8d17 c5fa 449a c124 f41a
00000130: 9cc1 6518 f8ce 4a9b 6033 0317 5e40 2b1c
00000140: b17a 7019 9eec 5616 d06f 9516 f786 8d1b
00000150: 61da 19b6 e0c4 2a93 44c6 5d94 d80e f11a
00000160: 68eb b1b4 cc9d 549a a2b2 ba94 96d2 4c14
00000170: dd09 2a14 c200 2d95 6642 f198 4f5a d6a5
00000180: a87c 7c99 e510 081d 5c19 ca98 a344 121d
00000190: 1664 2f99 4884 ab1a 212d 59b5 c026 e81a
000001a0: 5c25 019a 8826 6d99 2ce9 9e14 c610 0893
000001b0: b81b e018 a33e 3596 1ba3 84b7 182f 6c1c
000001c0: c603 939c 4130 bf1b 3edc 3d1c 9b7e 2a15
000001d0: dc8c 9715 7787 049b 3c60 5797 0ddb 0d1c
000001e0: 255a 46bc 33a4 0f15 37e4 9d1b 8f02 2317
000001f0: a8a3 1195 5bf2 0080 548d 7797 2db4 50ba
00000200: 52e5 3914 d46e 94bc 4b2a 5519 eae3 7d19
00000210: f64a ef1b cc72 349b e2c3 beb5 b264 8d13
00000220: 713d 0714 0f7c c100 d6d0 8714 3c2c c297
00000230: b039 cb9a 5f49 fbbc b816 1e9c 5ab3 ae15
00000240: 7a62 4b12 a084 8912 8842 9f12 24ba 091d
00000250: f5bf 09b0 3816 5d24 af77 8294 bc2e 0617
00000260: 45fe 171c 0e0f 2c15 6d05 151a 6af3 ce19
00000270: 89b2 f994 b6b1 9c16 2f61 8d91 544e 50b2
00000280: ea0d 7eb2 4aac 279b 55d6 eeb9 0c44 7294
00000290: a253 739b 36c9 2896 90b2 a31c b269 f998
000002a0: 2c88 2aba fa1a d09b 08fe ac94 dd0f 539b
000002b0: d79e f4b1 e6f6 0b80 60dc 829c e099 9413
000002c0: d9db d995 76ef 189b 1988 b099 4dbc c911
000002d0: bf02 2e94 8c97 1498 994e 6296 e0f4 4812
000002e0: a7c2 b616 204f 8092 6521 ed94 f911 bbb9
000002f0: a4f5 0615 b53a 8bab 0b14 289b df90 a5b9
00000300: 8fb8 9d1c befa e01d 3713 1e94 8c63 2098
00000310: e6c2 3d05 16f7 3e9c 70bc 7f93 cadb df9a
00000320: 905e 09bc 585b 1115 c66b ce9b 47c7 dd14
00000330: affc 30bc 65cc 7315 d278 38ab e4b4 87af
00000340: 44d3 b616 7406 1db6 c229 a7b3 e89b 34b6
00000350: 60ce e316 0b69 b894 9848 09be cde2 adab
00000360: 3468 6495 0675 2194 9e36 8316 1248 0c9c
00000370: 39fd 761a 125e a7b1 a06d 0fb4 e3b6 5c1b
00000380: 7791 dd13 14b7 c915 6902 a11b 5af6 0c1d
00000390: 53f3 9d17 b0f0 5994 f462 941a eb8b 139b
000003a0: af33 a315 4b45 6493 db0e 8594 001a 6615
000003b0: 005e e117 e03c ca1a a173 9db6 a566 2815
000003c0: 084d 1d9a 0af7 8d17 7069 ed18 8e88 b39c
000003d0: c4cd 8a0d 2d1e 7418 4419 0494 8329 f513
000003e0: d549 6214 6da9 ba2a 8f9a a2b4 4222 5115
000003f0: 64d6 6894 fc4e 4f94 3338 9a9c e090 9213

fc3.bias f4 [256]
-1.6866503e-10 -7.0384205e-22 -6.7747e-22 2.7381975e-06 0.009122815 3.191789e-21 -8.318787e-12 0.00012742291
2.0934974e-13 -4.0503352e-08 -6.735567e-08 0.0059116594 0.1254693 4.2140278e-22 -9.010397e-05 -3.2495717e-07
0.00032441132 -0.00038360443 2.5236157e-05 0.002635175 1.30465275e-17 0.11251888 -6.7621722e-06 3.4715252e-22
7.5159456e-22 -7.900418e-15 -1.7042188e-09 -4.296458e-11 1.4448218e-06 -0.00025471367 -1.8201493e-07 -0.037613187
-0.06298273 -2.8957948e-07 -5.684528e-22 -1.02005215e-05 4.5573343e-06 -3.4024683e-06 -1.05689875e-11 5.8457363e-06
2.1573145e-22 7.2594645e-07 0.32935148 -9.440694e-12 6.060971e-22 1.0201545e-08 9.2504895e-05 8.578299e-08
-1.7144757e-07 -1.2501075e-06 0.013754651 -1.0390131e-22 1.8056465e-06 3.9246032e-07 0.08151767 6.614831e-22
-0.014558734 -1.9071238e-12 -1.474179e-09 8.8620436e-05 -9.339234e-10 0.0025744478 -3.7747736e-07 -4.2724288e-08
4.6736503e-05 0.0037505964 7.0954007e-09 -3.7115577e-22 1.6482782e-06 -0.00033544333 -2.64904e-09 3.7324226e-05
-4.747907e-22 3.3455724e-06 -6.600076e-12 9.801093e-08 2.753172e-06 1.2486986e-18 -6.3600465e-22 -6.5690454e-16
-9.217492e-15 -3.436151e-06 0.0076211076 -0.0008577665 -3.994975e-22 3.6227404e-05 -0.03210084 0.00040559092
-0.0030398911 -1.6261161e-16 1.5053817e-21 -1.1641335e-07 6.1643955e-06 0.027955588 -5.2999744e-06 5.7342736e-06
-0.00053034944 0.53429866 0.0009812125 -6.371046e-17 0.3343303 -0.0004663435 -3.6281003e-22 2.2025449e-07
3.3032004e-18 0.008296022 0.021330582 4.9621826e-12 0.032446884 2.5378996e-22 0.0021922397 -7.230105e-13
7.7409323e-22 0.0015039784 -6.9942614e-22 -4.7113176e-22 -1.2886824e-07 -4.5622993e-12 4.3775387e-08 -9.5320946e-05
-0.0022850854 -5.2211313e-22 1.9017461e-05 1.05355255e-07 -0.00016734976 -4.4404854e-19 2.935812e-12 4.998446e-07
-2.2883017e-22 -7.397813e-12 6.0540224e-06 7.4169533e-09 0.00057565916 -9.383748e-16 -0.013914679 -8.434578e-19
-6.93235e-22 5.552367e-22 -6.992874e-07 0.000528454 -7.049621e-22 -4.325352e-05 7.584642e-22 3.2745134e-18
-0.00052568014 0.0008419032 -3.9513397e-19 6.905058e-22 -4.3274563e-06 -1.118055e-11 2.870019e-06 -4.8987813e-06
-1.1305516e-10 3.6561565e-22 3.493829e-18 -8.7867664e-07 8.244001e-08 1.233429e-06 7.9595924e-07 -6.28806e-22
7.9995686e-22 -5.118533e-09 5.3477656e-10 -1.0958729e-10 -3.0974166e-20 -6.5843466e-08 4.308822e-22 1.2575054e-08
0.0002627378 -3.6467765e-05 0.025597509 -0.00014810689 -3.6459582e-11 -3.800136e-11 2.1761332e-07 2.6829585e-07
-0.0472555 -1.9516083e-06 -9.3476075e-07 -8.372968e-22 0.00057596987 -6.90544e-08 -6.860085e-05 -1.6684668e-22
-3.3096e-05 -1.5598742e-05 -2.5180644e-10 -1.8308011e-09 4.9143162e-11 -1.7452455e-12 -0.002225538 -0.012880081
0.46382722 7.781844e-07 -5.1813737e-07 -1.575716e-11 1.4081378e-07 -3.1403254e-18 9.194141e-07 0.00017098742
7.1826333e-22 -2.3866812e-07 -7.7868074e-22 7.892809e-22 8.295855e-22 9.499719e-05 0.005097738 -1.0605123e-22
-2.635527e-12 -2.365868e-06 -4.9855904e-11 7.869897e-08 -3.124995e-11 0.34443468 -5.111083e-05 -5.5987755e-05
6.1296754e-22 0.13030641 3.6827183e-05 3.6076053e-06 -1.2282791e-11 -8.6136933e-19 2.7760356e-07 3.0468257e-19
-8.375071e-22 0.0008864183 -6.7671646e-11 5.4434755e-22 6.025481e-07 0.013697101 -9.593536e-10 5.5131122e-06
-9.876961e-22 -0.067042775 1.2430685e-06 6.245207e-07 1.4380846e-08 -1.2690602e-07 -0.0022039476 -0.030706465
-0.00016203937 1.794186e-06 0.031803567 0.0022771156 2.9755594e-23 4.101027e-22 -4.6646695e-09 -3.2196233e-22
1.4343464e-06 7.315346e-22 0.014734979 0.25231993 -0.02207743 0.0005604235 -3.3393472e-12 -6.692218e-08
00000000: fc72 39af 24b9 549c b4c0 4c9c e0c1 3736
00000010: dc77 153c 2e2a 711d 7c58 12ad d49c 0539
00000020: f4b4 6b2a e8f5 2db3 2ca5 90b3 98b6 c13b
00000030: 067b 003e ecb8 fe1b 33f6 bcb8 c675 aeb4
00000040: c015 aa39 841e c9b9 3cb2 d337 e6b2 2c3b
00000050: 7caa 7023 4c70 e63d 9ee6 e2b6 40d7 d11b
00000060: d027 631c 3f52 0ea8 de39 eab0 d1f5 3cae
00000070: b3eb c135 178b 85b9 e26f 43b4 4910 1abd
00000080: 17fd 80bd 8077 9bb4 e8cd 2b9c e822 2bb7
00000090: 34eb 9836 f655 64b6 7dee 39ad 7e26 c436
000000a0: d366 821b a9de 4235 c2a0 a83e 1b15 26ad
000000b0: 7e2e 371c df42 2f32 30ff c138 b337 b833
000000c0: 2617 38b4 5ec9 a7b5 305b 613c cc37 fb9a
000000d0: 8b59 f235 56b3 d234 bcf2 a63d c7eb 471c
000000e0: c287 6ebc b033 06ac 109c cab0 bcd9 b938
000000f0: 825b 80b0 11b8 283b 18a8 cab4 da7f 37b3
00000100: f006 4438 91cc 753b cecb f331 9359 e09b
00000110: 683a dd35 71de afb9 680a 36b1 958c 1c38
00000120: 277f 0f9c 7f84 6036 3338 e8ac 147a d233
00000130: 23c3 3836 8046 b821 7a38 409c 0057 3da6
00000140: 2e0c 26a8 a098 66b6 7cba f93b bcdb 60ba
00000150: 3e7b f19b e1f2 1738 2c7c 03bd 7ea5 d439
00000160: e938 47bb 7a7a 3ba5 a27c e31c eafe f9b3
00000170: c1d7 ce36 1e03 e53c 6fd6 b1b6 0969 c036
00000180: 2607 0bba ccc7 083f 079c 803a 05e8 92a4
00000190: 572d ab3e 917f f4b9 224e db9b 187f 6c34
000001a0: b1bb 7322 0aec 073c 79bd ae3c 5e97 ae2c
000001b0: 06e7 043d 1868 991b aeab 0f3b 6682 4bab
000001c0: 90f4 691c 2421 c53a 7a63 539c 0e64 0e9c
000001d0: 085f 0ab4 8a85 a0ac 8c03 3c33 0be7 c7b8
000001e0: 5fc1 15bb 8ccc 1d9c b087 9f37 aa3f e233
000001f0: 9c7a 2fb9 5c0f 03a1 e396 4e2c 0f2d 0635
00000200: c151 8a9b ca24 02ad a823 cb36 36d8 fe31
00000210: d5e7 163a eb3b 87a6 65fa 63bc dff1 78a1
00000220: 7684 519c 5ccf 271c aab6 3bb5 f387 0a3a
00000230: cd0f 559c 1d6b 35b8 533b 651c cf9d 7122
00000240: cccd 09ba 2bb3 5c3a f53e e9a0 4cb1 501c
00000250: 9134 91b6 b9b0 44ad 8d9a 4036 3660 a4b6
00000260: 669c f8ae 4800 dd1b 48e6 8022 33de 6bb5
00000270: e009 b133 4c8c a535 e7a9 5535 820b 3e9c
00000280: aac5 711c 18df afb1 8eff 1230 29fc f0ae
00000290: 7845 129f d465 8db3 e539 021c ac09 5832
000002a0: 12c0 8939 f7f4 18b8 deb1 d13c 244d 1bb9
000002b0: d759 20ae ba21 27ae 18a9 6934 4d0a 9034
000002c0: fc8e 41bd 60f8 02b6 45ec 7ab5 b40e 7d9c
000002d0: affc 163a 0f4b 94b3 cddd 8fb8 8cb4 499b
000002e0: 8fd0 0ab8 0bda 82b7 9b6e 8aaf 969f fbb0
000002f0: 4822 582e 199f f5ab 55da 11bb fa06 53bc
00000300: c37a ed3e 6de4 5035 2116 0bb5 f899 8aad
00000310: 9932 1734 12b7 67a2 a8cd 7635 164b 3339
00000320: ef14 591c 4c22 80b4 8157 6b9c a78b 6e1c
00000330: 12ba 7a1c 3a39 c738 ed0a a73b 4435 009b
00000340: 6f75 39ac 4ec5 1eb6 c244 5bae 3701 a933
00000350: 5170 09ae be59 b03e d65f 56b8 65d4 6ab8
00000360: 1142 391c 0b6f 053e e376 1a38 301a 7236
00000370: c614 58ad 3a3b 7ea1 8b09 9534 54da b320
00000380: f91e 7d9c 865e 683a c0cf 94ae da84 241c
00000390: cabe 2135 ce69 603c 41da 83b0 46fd b836
000003a0: a441 959c b94d 89bd 82d7 a635 bca4 2735
000003b0: a10f 7732 a943 08b4 1b70 10bb 208c fbbc
000003c0: 1de9 29b9 c3cf f035 7544 023d a93b 153b
000003d0: a4e3 0f1a 52e4 f71b de46 a0b1 429d c29b
000003e0: c483 c035 c017 5d1c fb6a 713c 1430 813e
000003f0: badb b4bc 62e9 123a 55fc 6aac dcb6 8fb3

action_heads.0.weight f4 [2, 256]
-2.6972334e-13 -7.683753e-28 -4.5504005e-26 -0.23010206 -0.0010760266 -1.0637e-41 3.2947e-26 -3.6481346e-13
1.9624974e-16 0.000109705274 1.3839927e-17 -1.1495289e-11 -0.93809307 1.8669783e-20 -0.86647916 2.19162e-08
-5.0943923e-05 -0.5249966 4.874383e-05 -8.752014e-06 2.184536e-26 -0.31737167 -1.226912e-07 -4.0943395e-27
-1.5345107e-27 -1.6639523e-26 -1.2942137e-05 7.2796716e-08 -1.2516671e-08 1.0342482e-37 -8.681037e-15 -1.5873034e-07
-6.003639e-05 -1.4713596e-05 8.518599e-27 5.545314e-07 -1.0082931e-05 5.827238e-08 -1.2934447e-15 -6.66526e-11
-7.3996636e-30 -1.5402686e-06 -0.94711846 -1.0516111e-25 -3.384797e-29 -1.3482289e-10 -6.4329885e-07 -1.6149592e-05
-8.5757165e-07 -3.0558505e-07 -0.00040887934 8.944108e-28 -2.974796e-14 8.4255586e-10 -0.45127958 -3.113695e-29
-0.6509367 2.7086613e-09 3.728902e-11 -1.4950261e-08 -2.9282103e-18 -0.9264271 -2.908327e-09 2.8134616e-11
-0.00020718246 -0.084765434 -2.7830567e-06 -2.5399215e-29 0.00010889397 -4.7915943e-10 -3.6441377e-14 -2.2703765e-05
-1.6976081e-28 -2.9214977e-08 -6.882905e-23 -1.0701811e-08 2.9445684e-09 9.3180004e-26 6.805365e-27 -6.856092e-09
4.9666156e-26 7.108253e-11 -2.965727e-05 -3.1971206e-06 2.6775773e-27 0.0011021125 -0.6502835 -0.6986043
-9.356109e-08 -9.46913e-26 -3.631002e-26 -2.0203854e-06 -0.0001053203 -0.27045202 -0.00010730924 -2.7871301e-12
-4.343123e-10 -0.3086997 -0.00061640725 -5.079517e-27 -0.10149881 -2.58468e-05 -1.0028855e-10 -0.00017624981
-1.3544811e-29 -9.877972e-09 -0.09869914 4.5448617e-14 -0.420444 -5.932171e-32 1.8078283e-06 5.3021572e-14
4.192256e-28 -0.00029364033 1.4268756e-28 2.81425e-28 -5.098511e-06 -4.768552e-15 -1.139783e-06 -0.00013544124
-0.062331524 3.6183748e-28 -3.6465168e-05 1.9373513e-07 8.0338046e-05 6.887307e-27 1.0671851e-16 -1.5239452e-06
5.611719e-27 -9.483362e-10 4.721578e-07 2.6604883e-07 -0.8828957 -5.783077e-07 6.986492e-18 4.1953784e-28
1.2398215e-28 1.1936302e-28 4.5755e-41 -0.0026717612 1.1087735e-26 -0.86418813 1.4556776e-28 6.325609e-27
-0.010057716 -0.92771953 2.097266e-26 -4.604529e-27 -1.3871218e-11 -6.470102e-20 7.0768594e-28 1.2950792e-09
-6.5143274e-07 1.4508731e-27 -4.8478753e-28 -2.3291515e-05 3.1338916e-06 -2.3799734e-10 1.8864652e-09 -1.8384242e-15
-1.4188177e-29 1.19384074e-17 2.9003099e-08 -2.2265238e-13 -5.8e-43 6.7063224e-06 3.8777284e-29 -7.5922326e-06
3.7624484e-10 -0.55585 -0.00016512812 2.8046668e-07 -1.8927686e-22 -0.024456762 -1.5350376e-13 2.2563513e-06
4.594087e-28 3.4113648e-07 6.621297e-14 -2.4578186e-28 -0.36502537 -2.3049961e-11 -4.65426e-05 -1.9288125e-26
-0.0012307236 -1.4087825e-14 -4.0417166e-11 5.5668374e-05 -7.3152534e-12 -1.675e-42 -0.002833691 -0.9353038
-0.8045497 3.8686117e-05 -4.9911497e-09 -1.0025574e-18 1.446229e-06 3.121113e-26 3.3720114e-06 -1.2646574e-05
7.59587e-29 -0.00031817748 -2.7775473e-29 -1.303732e-28 2.4626355e-26 -3.6314806e-05 2.6473756e-26 -5.2839876e-27
4.83566e-21 -1.8250263e-06 -6.155699e-06 -1.889244e-06 -7.129696e-26 -0.95164585 -0.03924842 -0.4554799
-1.0178771e-11 -0.9532852 -1.1108435e-08 -8.489257e-05 -3.00709e-14 -2.104394e-21 0.00010757054 -1.6605491e-28
9.491282e-30 -0.0024461227 -1.3993426e-16 -3.5844087e-27 -1.07152655e-10 -4.179785e-09 1.8581347e-12 -0.00048180745
4.3438774e-26 -0.0014793932 -1.1430543e-34 -4.9391543e-05 1.686327e-05 7.773484e-06 -0.040282603 -0.9431886
-0.007277603 -0.004629039 -0.014599446 -0.94466436 6.672409e-27 -3.4555648e-27 -7.971147e-11 -2.3324055e-31
-3.6093413e-11 3.0893717e-28 -0.8199254 -0.17661852 -0.05180406 -0.94703764 -3.3011883e-08 1.00856955e-10
00000000: 3bd7 97aa 0382 7392 2e53 6195 e09f 6bbe
00000010: 7609 8dba a71d 0080 4925 2315 295f cdaa
00000020: b342 6225 9211 e638 354d 7f23 2e3a 4aad
00000030: de26 70bf c454 b01e 94d1 5dbf 3c42 bc32
00000040: 9fac 55b8 2d66 06bf 4a72 4c38 9dd5 12b7
00000050: 9158 d814 8a7e a2be 1abd 03b4 8931 a293
00000060: 2627 f392 34ca a494 0e22 59b7 6b54 9c33
00000070: e708 57b2 4ac6 0c02 3862 1ca8 776f 2ab4
00000080: 95cf 7bb8 6ada 76b7 6eba 2814 1cdb 1435
00000090: dc29 29b7 2947 7a33 b067 baa6 1492 92ae
000000a0: 4015 168f 3abb ceb5 5b76 72bf e32e 0296
000000b0: 2da1 2b90 453d 14af 29af 2cb5 fc78 87b7
000000c0: e033 66b5 4a0f a4b4 db5e d6b9 9db9 8d12
000000d0: 10f9 05a9 9999 6730 1e0e e7be 12e2 1d90
000000e0: caa3 26bf 4623 3a31 b4ff 232e f96b 80b2
000000f0: 5410 58a2 542a 6dbf d4db 47b1 8679 f72d
00000100: 1e3f 59b9 8099 adbd 8dc4 3ab6 11ca 0090
00000110: 015e e438 d9b5 03b0 0c1e 24a9 f773 beb7
00000120: 8832 5791 6af4 fab2 1e6b a69a 10db 37b2
00000130: 6559 4a31 d8b3 e615 4dcb 0614 d392 ebb1
00000140: 55ef 7515 e84f 9c2e 81c8 f8b7 1d8e 56b6
00000150: b823 5413 c274 903a fb78 26bf bbd7 32bf
00000160: c1eb c8b3 be71 ea95 6bcc 3395 f595 07b6
00000170: 68df dcb8 b078 8abe 360b e1b8 7920 44ac
00000180: 06c4 eeaf e30d 9ebe 6496 21ba 6c38 c993
00000190: 9cde cfbd 95d1 d8b7 6f89 dcae b3cf 38b9
000001a0: 575c 898f c8b3 29b2 c622 cabd b0ae 4c29
000001b0: 7044 d7be 0a02 9a8b 82a4 f235 b6c9 6e29
000001c0: 9fdb 0412 bdf3 99b9 c3e0 3411 d15f b211
000001d0: e013 abb6 21ce aba7 a5fa 98b5 3b05 0eb9
000001e0: 574f 7fbd 7d57 e511 2df2 18b8 8205 5034
000001f0: 297b a838 cc6a 0814 7d13 f624 5c8a ccb5
00000200: 974d de13 9d56 82b0 e07c fd34 79d5 8e34
00000210: 7405 62bf 013d 1bb5 c7e0 0023 f4f4 0412
00000220: 822a 1d11 844f 1711 8c7f 0000 b718 2fbb
00000230: 7f9d 5b14 6f3b 5dbf 7087 3811 4c95 fa13
00000240: 1ec9 24bc 077f 6dbf 03b4 cf14 7967 b693
00000250: 6a06 74ad 5ec5 989f 4e46 6012 8cfe b130
00000260: 1ede 2eb5 68e6 e512 a3a2 1992 2662 c3b7
00000270: d94f 5236 26d7 82af 0ca3 0131 f178 04a7
00000280: 9de2 8f8f 8939 5c23 7d22 f932 2eaf 7aaa
00000290: 9e01 0080 df06 e136 cb9f 4410 c8c0 feb6
000002a0: c1d7 ce2f 304c 0ebf 3e26 2db9 0c93 9634
000002b0: 5ad2 649b 8c59 c8bc 72d4 2caa d26b 1736
000002c0: a997 1112 7125 b734 2e19 9529 63c8 9b91
000002d0: 9be4 babe e6bf caad bc36 43b8 3505 bf94
000002e0: 3b50 a1ba a0c8 7da8 afc1 31ae 767d 6938
000002f0: f9b0 00ad ab04 0080 72b5 39bb 1270 6fbf
00000300: f8f6 4dbf e742 2238 9e7e abb1 8cf3 93a1
00000310: 0d1c c235 cf8c 1a15 b74a 6236 9f2c 54b7
00000320: 0494 c010 0fd1 a6b9 a0d6 0c90 8644 2591
00000330: 3ae3 f314 ba50 18b8 7917 0315 0052 d193
00000340: a2af b61d 6df3 f4b5 0d8d ceb6 ee91 fdb5
00000350: d185 b095 109f 73bf f4c2 20bd a934 e9be
00000360: 1c11 33ad 800a 74bf 6ad7 3eb2 5a08 b2b8
00000370: 636d 07a9 e600 1f9d 7e97 e138 e67f 5291
00000380: 8e81 400f 214f 20bb 4e55 21a5 39fe 8d93
00000390: 95a1 ebae c79d 8fb1 2ec1 022c 1a9b fcb9
000003a0: 3019 5715 33e8 c1ba 1ff0 1787 c429 4fb8
000003b0: 9975 8d37 dc6a 0237 5fff 24bd cf74 71bf
000003c0: f578 eebb 32af 97bb 8432 6fbc 86d5 71bf
000003d0: 2229 0414 97e3 8893 9149 afae bc61 978c
000003e0: 92bd 1eae eccf c311 a2e6 51bf 7cdb 34be
000003f0: 7e30 54bd 0f71 72bf f3c8 0db3 6bc9 dd2e

action_heads.0.bias f4 [2]
-0.6534089 -5.5495955e-05
00000000: ce45 27bf 54c4 68b8
