shanghai_road_delivery/results_centralized/best_centralized_episode_317.pth_centralized_actor.pth (torch, 922210 bytes, 20 tensors)

fc1.weight f4 [256, 364]
2.8690135e-09 5.4722786e-09 2.9847392e-08 2.9755789e-08 2.978935e-08 2.9656155e-08 1.8095307e-11 -5.8078453e-10
2.218845e-09 1.1700356e-09 -4.951674e-05 -2.5715975e-08 -2.0025509e-10 -2.1715805e-07 5.2345774e-11 -4.696534e-10
2.4031194e-10 6.8069314e-11 -0.0019254315 -2.750994e-10 -6.0974963e-09 -4.8710158e-14 -1.5418187e-09 -1.4540252e-05
-3.153291e-10 6.177321e-09 4.473004e-09 0.00014677239 -2.6162485e-11 -2.8067156e-11 -2.8716965e-11 0.00026663818
-6.2339765e-11 3.4518373e-09 5.250357e-11 3.4091574e-10 -1.2358316e-11 2.984741e-08 2.3032963e-11 2.984741e-08
-1.4620773e-09 -2.0256046e-09 9.016512e-10 4.1101567e-12 -3.7778053e-10 -7.1950373e-10 -2.9534533e-10 -4.2728557e-10
4.7002485e-10 2.984741e-08 -4.6674016e-09 2.984741e-08 -8.384255e-09 8.2495735e-09 2.9847392e-08 2.9799935e-08
2.983158e-08 2.9358322e-08 1.4447172e-09 -0.0021080629 3.5150828e-05 2.7705532e-08 8.225865e-14 -2.5715975e-08
-3.9148987e-10 3.169302e-05 5.1971295e-11 -4.6864235e-10 2.3371902e-10 3.4582354e-10 1.11277004e-07 -2.9979277e-10
-6.0974963e-09 2.5676017e-11 1.3069142e-08 7.528848e-08 4.9372477e-07 -0.0008528683 9.180873e-08 4.9345334e-05
1.2165161e-11 -3.8388392e-10 -2.8869202e-11 -7.2556168e-06 -6.350607e-11 1.192259e-11 5.522515e-11 -1.09158423e-13
-1.2833363e-11 2.984741e-08 2.1823526e-11 2.984741e-08 1.9171154e-09 1.0039978e-09 6.3862665e-10 1.5129782e-10
-2.6765246e-09 -9.454196e-11 7.525153e-10 5.409507e-10 -6.225575e-10 2.9785035e-08 -7.134357e-15 2.984741e-08
-3.3034468e-08 1.2517659e-09 2.9847392e-08 2.982013e-08 2.982967e-08 2.977789e-08 -0.0041017164 1.8794746e-05
2.479882e-06 7.4532645e-06 4.074375e-14 -2.5715975e-08 -3.5600436e-10 0.00013385183 5.192962e-11 -4.686528e-10
2.353901e-10 -0.00013966768 6.590993e-08 -1.7813725e-10 -6.0974963e-09 4.945337e-06 3.5918424e-10 -2.7785934e-09
1.166455e-08 4.0750047e-14 -6.4131495e-12 -5.3708535e-12 1.3024748e-11 0.00013952763 -2.6044646e-11 1.26837e-40
-6.2347585e-11 1.1794528e-11 5.2901808e-11 -4.5768745e-12 -1.3074803e-11 2.984741e-08 2.3054522e-11 2.984741e-08
3.179247e-09 -2.9135716e-09 8.7327034e-10 6.633802e-10 3.9801265e-09 4.985118e-10 7.470975e-10 4.0408457e-10
1.2148857e-10 2.9875217e-08 -1.4686437e-05 2.984741e-08 -3.0555773e-09 1.9239716e-08 2.984739e-08 2.9821592e-08
2.9824513e-08 2.9820885e-08 -2.3125929e-10 3.7876923e-08 7.974908e-06 -2.3677932e-10 -2.4874612e-12 -2.5715975e-08
-2.3937435e-10 3.2827238e-08 3.746508e-11 -4.7091897e-10 2.3895302e-10 -9.379834e-14 -1.7819005e-07 -2.9979277e-10
-6.0974963e-09 3.894895e-09 -1.8799806e-10 -2.5966021e-11 4.3684834e-10 -1.1795132e-09 -7.0643736e-08 3.7818898e-10
1.2854472e-11 -8.801192e-10 -2.6040982e-11 3.697e-42 -2.8696857e-11 -0.00045152407 5.2233648e-11 3.3565962e-06
-1.227018e-11 2.984741e-08 2.176043e-11 2.984741e-08 -2.1173885e-09 1.427385e-09 -8.387607e-10 4.7343446e-10
1.8965107e-09 1.0591523e-09 7.6936124e-10 -2.499913e-10 2.2851143e-09 2.9488378e-08 -2.4114457e-11 2.984741e-08
-5.1683933e-09 1.4365004e-08 2.98474e-08 2.979083e-08 2.980654e-08 2.9749323e-08 3.3124248e-05 2.1625283e-07
-1.8654741e-11 -1.0097678e-09 0.0001611623 -2.5715975e-08 1.5579371e-11 -8.678569e-07 5.032475e-11 -4.686528e-10
2.3497088e-10 3.3509393e-11 6.4473404e-10 -2.4715383e-10 -6.0974963e-09 1.8093196e-12 -6.193743e-09 -5.6512306e-08
-1.5418671e-09 -4.2555343e-06 -9.751366e-12 7.207712e-11 1.1639549e-11 2.0479067e-05 -2.6018247e-11 -7.777907e-11
-2.8665731e-11 5.4158672e-06 -6.2347585e-11 -0.0003069304 -1.2759873e-11 2.984741e-08 2.3749587e-11 2.984741e-08
-5.9214775e-09 -2.6658087e-10 9.698939e-10 -1.235384e-10 1.33555975e-08 -4.15018e-10 -1.917235e-10 -3.3043723e-10
00000000: 3828 4531 ac06 bc31 8e31 0033 ac99 ff32
00000010: 79e3 ff32 93be fe32 022b 9f2d 14a5 1fb0
00000020: 567a 1831 f8ce a030 32b0 4fb8 07e6 dcb2
00000030: cc2e 5caf f32b 69b4 1a38 662e ec18 01b0
00000040: e61c 842f 9eaf 952e c35e fcba cc3c 97af
00000050: 2582 d1b1 fd5e 5ba9 ece7 d3b0 e8f1 73b7
00000060: a05a adaf 4a40 d431 f6b0 9931 eae6 1939
00000070: ae20 e6ad 9ee1 f6ad db98 fcad 92cb 8b39
00000080: 2b16 89ae 5d35 6d31 c4e9 662e a06b bb2f
00000090: e868 59ad 9331 0033 9f99 ca2d 9331 0033
000000a0: 46f2 c8b0 d032 0bb1 10d8 7730 009d 902c
000000b0: e2af cfaf 93c6 45b0 295e a2af 19e7 eaaf
000000c0: 0f33 0130 9331 0033 e65e a0b1 9331 0033
000000d0: 580a 10b2 02ba 0d32 8e31 0033 c0fa ff32
000000e0: 2b20 0033 a22f fc32 788f c630 6d27 0abb
000000f0: ea6e 1338 1cfd ed32 e23a b929 07e6 dcb2
00000100: 4d39 d7af 1fee 0438 7a92 642e c6d1 00b0
00000110: 077d 802f 561e be2f 2ef7 ee33 15d0 a4af
00000120: 2582 d1b1 40d9 e12d b286 6032 48ae a133
00000130: 8288 0435 0693 5fba 6228 c533 26f8 4e38
00000140: 0403 562d dc0a d3af aaef fdad 4675 f3b6
00000150: bda6 8bae 92be 512d fee1 722e 8ccd f5a9
00000160: 54c4 61ad 9331 0033 36f6 bf2d 9331 0033
00000170: 40be 0331 08fd 8930 5b8b 2f30 8d5a 262f
00000180: ebed 37b1 64e6 cfae 8ed9 4e30 05b2 1430
00000190: 9720 2bb0 fcd9 ff32 6a85 00a8 9331 0033
000001a0: c8e1 0db3 990a ac30 8e31 0033 9413 0033
000001b0: 121e 0033 46ca ff32 b167 86bb 69a9 9d37
000001c0: 0c6c 2636 0e17 fa36 587e 3729 07e6 dcb2
000001d0: 29b7 c3af 945a 0c39 8e63 642e 82d2 00b0
000001e0: 3668 812f c273 12b9 5e8a 8d33 2edd 43af
000001f0: 2582 d1b1 1ff0 a536 b076 c52f 88f1 3eb1
00000200: 3c65 4832 9b85 3729 84a4 e1ac 59f8 bcac
00000210: 4022 652d 2a4e 1239 5417 e5ad 9261 0100
00000220: 921a 89ae d57d 4f2d 24aa 682e d208 a1ac
00000230: ae03 66ad 9331 0033 2bca ca2d 9331 0033
00000240: e879 5a31 1838 48b1 f00a 7030 3b59 3630
00000250: 90c1 8831 a607 0930 505c 4d30 d925 de2f
00000260: fe93 052f 2650 0033 c465 76b7 9331 0033
00000270: 49fa 51b1 9544 a532 8d31 0033 3015 0033
00000280: 6618 0033 6914 0033 b445 7eaf 1eae 2233
00000290: f8cb 0537 ba2b 82af 1e0a 2fac 07e6 dcb2
000002a0: f298 83af eefd 0c33 eec5 242e fa71 01b0
000002b0: a65d 832f 1037 d3a9 8254 3fb4 15d0 a4af
000002c0: 2582 d1b1 dcd3 8531 c0b4 4eaf 4866 e4ad
000002d0: f028 f02f 6e1c a2b0 ceb4 97b3 5ee9 cf2f
000002e0: 6523 622d e2ec 71b0 140f e5ad 4e0a 0000
000002f0: 946b fcad 89ba ecb9 dcb9 652e e241 6136
00000300: fadb 57ad 9331 0033 2268 bf2d 9331 0033
00000310: 7e81 11b1 a52d c430 8a8e 66b0 fd22 0230
00000320: c553 0231 9c91 9130 fc7a 5330 266f 89af
00000330: 2808 1d31 a14d fd32 ee1c d4ad 9331 0033
00000340: ab95 b1b1 f5c9 7632 9031 0033 bae6 ff32
00000350: a304 0033 748b ff32 e4ee 0a38 2033 6834
00000360: be16 a4ad 0cc8 8ab0 adfd 2839 07e6 dcb2
00000370: a009 892d acf6 68b5 a254 5d2e 82d2 00b0
00000380: 362d 812f 3960 132e 2039 3130 cfdf 87af
00000390: 2582 d1b1 9ca3 fe2b bdd0 d4b1 f0b7 72b3
000003a0: a0e9 d3b0 c3ca 8eb6 408c 2bad d07f 9e2e
000003b0: dec3 4c2d 76ca ab37 e2db e4ad b909 abae
000003c0: 7d25 fcad f2b9 b536 921a 89ae 80eb a0b9
000003d0: 5c79 60ad 9331 0033 51e7 d02d 9331 0033
000003e0: de75 cbb1 ec8d 92af 1c4d 8530 f8d4 07af
000003f0: 8a72 6532 9728 e4af 5ecd 52af e8a8 b5af

fc1.bias f4 [256]
2.984741e-08 1.381151e-07 4.3773266e-06 -0.000106879306 -0.0052656997 3.3639463e-07 6.522004e-05 -0.00014914392
2.6204617e-07 -1.6759508e-08 2.6255965e-08 0.0002773682 -2.485022e-05 4.7476437e-08 -0.0028540478 0.00797747
-4.0637256e-06 -8.607957e-09 2.6283267e-10 -9.622024e-07 -0.037939962 -8.7538036e-05 -0.015987795 -1.17214064e-07
4.1521813e-05 0.00017284522 -2.1278713e-06 -1.954322e-10 2.1629841e-05 -1.0720964e-09 -4.9932354e-05 -1.9036153e-07
-0.00029958368 -0.0010556972 -1.6697075e-05 0.0010402857 -6.894853e-05 0.00018563218 0.003815426 -2.9160175e-05
-2.821956e-08 0.040261403 2.1828714e-09 -9.02544e-06 6.094728e-07 8.669096e-05 -6.825306e-08 4.3645298e-07
1.9597901e-07 1.9690231e-05 2.6135567e-07 0.80906266 -2.242762e-06 -4.0737564e-07 -0.0016791411 4.503918e-06
5.202159e-06 -5.0984466e-09 2.8952602e-08 -2.523456e-08 2.7773393e-05 -2.2600345e-13 -0.011325073 -1.3551932e-05
2.051716e-06 7.921766e-08 -3.5125635e-05 -3.6170242e-09 -0.0035930183 -2.0328057e-06 -0.00014058751 -0.0010960569
-2.5117329e-06 -0.0001899459 5.52227e-06 0.8446996 5.4384824e-08 4.190255e-06 0.00016367136 -0.0009999035
1.0038511e-07 -0.02662504 -2.8548321e-08 -0.003349324 0.0749992 -7.0055614e-07 -0.0018212826 -0.00054179574
-9.8345186e-11 0.021112915 3.5303802e-09 0.00091169844 0.0013026156 -7.20873e-07 -6.556463e-08 -6.3884596e-05
-1.8539649e-07 6.777303e-09 -1.09387855e-07 -3.6783134e-05 0.7159083 -5.13968e-06 -1.2440591e-09 -1.5817141e-06
-0.0077405474 -0.0030566708 0.00029116587 -7.540566e-07 -0.0019046275 -4.103482e-05 7.81693e-05 -0.0003007749
-1.1867489e-06 -1.9904581e-08 -1.0509547e-06 -9.273965e-09 5.130817e-05 -0.016717767 -0.000120258715 -9.6757385e-06
-1.2638497e-05 2.9961757e-07 0.00016109261 -5.833755e-05 3.876175e-06 2.0667134e-08 1.6934862e-06 -2.2567241e-07
0.00035137963 -0.00039225293 -0.00045956706 1.9994579e-07 -1.5945747e-09 -3.0431866e-06 1.0818161e-05 -0.0011657727
1.4836116e-06 2.7026041e-07 9.868294e-05 -7.259179e-08 -4.561699e-06 3.3350148e-08 7.1540955e-12 -3.4123009e-06
-3.689688e-08 4.662587e-07 3.069045e-05 -1.2646884e-06 8.067918e-07 0.00015021837 -2.2360495e-05 -0.00019892215
-0.013703993 -1.0253874e-10 2.126846e-05 0.043663897 2.3050714e-05 1.5825995e-07 -7.4825584e-07 -2.2907507e-09
0.00024641334 0.0050476883 2.9057233e-05 -1.8403722e-05 6.0268417e-07 2.266026e-05 -0.020789437 -4.439744e-08
-0.002995226 -4.189769e-08 -0.021223411 -0.0006138362 -7.411287e-07 -7.47531e-08 6.198516e-05 4.8833925e-07
-8.065165e-06 6.930831e-09 0.00045489322 0.002236055 0.00017919445 4.5041056e-06 4.919607e-09 -6.4361084e-05
-3.6889345e-05 -0.0006803627 2.552124e-05 0.06941469 -1.2005455e-06 7.307906e-07 3.09425e-08 3.7889356e-05
2.8241118e-07 -7.1285e-05 -0.00011970571 -0.008674227 0.0003057844 -3.540403e-06 0.83244777 0.12330931
0.00013100942 8.227133e-06 -7.748049e-05 3.2337718e-06 2.6796695e-07 2.5877057e-07 -0.00013482939 1.1006567e-05
-6.535881e-08 -4.860642e-05 3.237834e-07 1.3421943e-06 -2.021392e-06 2.7739625e-05 1.5315927e-05 0.0018565464
1.6172279e-10 4.519594e-07 1.5948208e-07 -1.2500737e-08 6.4026844e-06 1.7083204e-08 -0.0011385042 -1.797694e-16
-7.2137885e-07 -6.697685e-05 0.0030097389 1.1956454e-08 -0.000108337495 -2.0625473e-06 0.00061194215 4.239593e-07
9.2390826e-07 -0.0012296229 8.896961e-06 -0.0002546103 1.4724516e-10 0.010409463 -0.00069145457 -5.2661748e-05
7.755589e-05 -8.5488216e-07 -5.901343e-05 2.1772777e-08 -6.274531e-07 -2.1937296e-10 1.3988154e-06 0.78169066
2.1654964e-06 -0.003978165 -6.1349674e-08 -6.8174455e-10 -3.631903e-05 -1.9449735e-06 -0.00094779604 1.6493993e-09
00000000: 9331 0033 ca4c 1434 f3e0 9236 6424 e0b8
00000010: e48b acbb ba99 b434 bec6 8838 8463 1cb9
00000020: 5aaf 8c34 8cf6 8fb2 7a89 e132 bb6b 9139
00000030: 7175 d0b7 e5e8 4b33 fa0a 3bbb efb3 023c
00000040: 235b 88b6 32e2 13b2 697e 902f 0625 81b5
00000050: ef66 1bbd a094 b7b8 d6f8 82bc 1db7 fbb3
00000060: b527 2e38 c93d 3539 8dcc 0eb6 46e1 56af
00000070: bb71 b537 0a59 93b0 756e 51b8 2e66 4cb4
00000080: 7111 9db9 525f 8aba b210 8cb7 325a 883a
00000090: 7698 90b8 42a6 4239 3a0c 7a3b 009d f4b7
000000a0: 7867 f2b2 24e9 243d 7b01 1631 f86b 17b7
000000b0: a79a 2335 dbcd b538 8492 92b3 a451 ea34
000000c0: 4d6e 5234 732c a537 7350 8c34 bb1e 4f3f
000000d0: 5c82 16b6 48b5 dab4 a016 dcba 5c20 9736
000000e0: 358e ae36 692e afb1 72b3 f832 62c3 d8b2
000000f0: e8fa e837 0f75 7eaa cd8c 39bc 1b5d 63b7
00000100: 36b0 0936 5f1e aa33 dd53 13b8 5d8f 78b1
00000110: d878 6bbb 566b 08b6 ac6a 13b9 91a9 8fba
00000120: 3e8f 28b6 372c 47b9 f04b b936 3c3e 583f
00000130: bf94 6933 049a 8c36 329f 2b39 320f 83ba
00000140: 4c93 d733 c21c dabc 6c3a f5b2 5580 5bbb
00000150: 2e99 993d da0d 3cb5 1ab8 eeba 4c07 0eba
00000160: 6b43 d8ae fef4 ac3c 1b9b 7231 0cff 6e3a
00000170: 87bc aa3a 0482 41b5 89cc 8cb3 c8f9 85b8
00000180: 6611 47b4 cadd e831 9ce8 eab3 9747 1ab8
00000190: c445 373f 8475 acb6 70fb aab0 484b d4b5
000001a0: 6ba4 fdbb 6d52 48bb 9fa7 9839 606a 4ab5
000001b0: b2a4 f9ba cd1c 2cb8 d3ee a338 53b1 9db9
000001c0: 6248 9fb5 a3fa aab2 870e 8db5 5453 1fb2
000001d0: ba33 5738 b3f3 88bc 6833 fcb8 fb54 22b7
000001e0: ee09 54b7 20db a034 f8ea 2839 78af 74b8
000001f0: 1710 8236 8287 b132 be4b e335 5c50 72b4
00000200: 6039 b839 4ca7 cdb9 0cf2 f0b9 aeb0 5634
00000210: 1c28 dbb0 8c39 4cb6 a67f 3537 d7cc 98ba
00000220: 8220 c735 4f18 9134 00f4 ce38 c2e3 9bb3
00000230: b210 99b6 e03c 0f33 5db6 fb2c e2fe 64b6
00000240: 8c78 1eb3 1c52 fa34 9fb9 0038 5dbe a9b5
00000250: 4f92 5835 f083 1d39 cc92 bbb7 c295 50b9
00000260: b686 60bc 2e7c e1ae ac69 b237 ead8 323d
00000270: 085d c137 2aee 2934 c0db 48b5 506b 1db1
00000280: 0a31 8139 1467 a53b efbf f337 b161 9ab7
00000290: 24c8 2135 8a16 be37 9c4e aabc 80af 3eb3
000002a0: 8e4b 44bb fff2 33b3 b8dc adbc dae9 20ba
000002b0: faf1 46b5 f487 a0b3 08fe 8138 6b16 0335
000002c0: 9f4f 07b7 3c24 ee31 bc7e ee39 c78a 123b
000002d0: 25e6 3b39 f921 9736 5209 a931 98f9 86b8
000002e0: a2b9 1ab8 5e5a 32ba 7216 d637 4a29 8e3d
000002f0: 6e22 a1b5 8c2b 4435 a3e5 0433 63eb 1e38
00000300: 4c9e 9734 d87e 95b8 840a fbb8 581e 0ebc
00000310: b051 a039 a997 6db6 4c1b 553f 9789 fc3d
00000320: 935f 0939 4407 0a37 057d a2b8 c703 5936
00000330: 19dd 8f34 28ed 8a34 fd60 0db9 d8a8 3837
00000340: 635b 8cb3 bfde 4bb8 74d4 ad34 7225 b435
00000350: 40a7 07b6 64b2 e837 b47a 8037 5c57 f33a
00000360: ebd0 312f d4a4 f234 1a3e 2b34 d3c2 56b2
00000370: a4d6 d636 5dbe 9232 dd39 95ba 9042 4fa5
00000380: c7a4 41b5 ec75 8cb8 0a3f 453b 0a69 4d32
00000390: 4033 e3b8 4b6a 0ab6 be6a 203a 869c e334
000003a0: 7e02 7835 4c2b a1ba 2844 1537 377d 85b9
000003b0: d4e5 212f 748c 2a3c bb42 35ba 1fe1 5cb8
000003c0: 80a5 a238 0e7b 65b5 3085 77b8 d806 bb32
000003d0: 406e 28b5 0034 71af eebe bb35 e11c 483f
000003e0: f252 1136 445b 82bb 57bf 83b3 8265 3bb0
000003f0: 4355 18b8 6486 02b6 8475 78ba 14b1 e230

fc2.weight f4 [256, 256]
-1.8484232e-09 2.232026e-12 1.0780621e-10 -9.580452e-08 -0.0013567955 -3.9743427e-05 5.5417884e-05 3.2216035e-12
2.2389445e-08 -4.171835e-08 0.0021224548 2.6283886e-09 -5.1987934e-07 -9.068684e-12 -5.7175785e-05 -1.8730654e-05
3.5022483e-09 1.9447055e-11 -6.356629e-09 0.00024868117 0.00040173097 0.00015343633 -8.5907965e-09 -8.237768e-05
-2.376071e-10 0.00030326427 -2.1674646e-07 -8.163714e-29 7.308654e-08 3.6679622e-13 0.0003992204 3.394173e-10
-8.172408e-08 -8.5819265e-06 -1.6459418e-09 7.9653684e-10 -2.5909497e-10 2.288239e-08 -0.00032384018 5.081276e-08
-1.895959e-08 8.922332e-07 1.6289974e-08 2.4794522e-06 1.1581812e-10 3.542894e-07 -8.5964375e-11 3.540474e-11
-2.756467e-06 1.826345e-07 6.0008615e-06 -0.00033750152 7.581836e-09 -6.463657e-07 2.1322667e-06 3.228584e-07
4.2454107e-09 3.5250672e-10 -4.159618e-12 -1.7686713e-11 3.9456387e-07 4.9966645e-29 5.232084e-09 2.6169593e-08
-1.9911951e-07 -2.2866815e-12 9.637977e-09 1.0869851e-24 0.00018664906 5.479857e-06 4.1731557e-10 -1.8071522e-07
8.5663565e-10 2.4625566e-08 7.486396e-08 -0.0037362527 -1.5521202e-11 -2.2412627e-05 -6.723681e-06 -7.7176486e-07
-1.8224124e-11 -0.00032319524 -3.1419312e-12 -8.593058e-07 1.854734e-07 3.948384e-06 -1.7743083e-05 -8.6723674e-05
2.338537e-12 0.0017026383 5.452204e-11 -7.966176e-07 -7.2128597e-07 3.1686012e-10 4.42256e-06 7.596086e-09
-1.1743138e-10 1.9180594e-13 -3.3536087e-11 -1.1332579e-06 -0.011521128 -2.9255064e-08 1.761117e-13 -7.113657e-07
-1.6478698e-05 -0.00018291087 7.051085e-09 5.307389e-08 -3.295352e-05 -2.0345489e-08 -2.3189574e-07 2.4006958e-06
-1.1782236e-09 3.812734e-12 -3.0309888e-16 3.359086e-11 1.1408538e-05 0.00019245881 4.242871e-09 0.00014347218
-1.1330306e-09 3.862841e-12 2.2038558e-10 -2.7776298e-07 6.791424e-08 1.8376065e-12 -1.0114421e-06 -2.2759641e-11
-3.707778e-05 4.7080885e-06 8.606605e-09 4.0329552e-11 -0.0022869492 -1.6622162e-06 -1.659653e-08 2.7885959e-05
-1.4340615e-11 1.00112635e-11 3.5618584e-09 -4.2929965e-11 1.8569904e-06 -9.1917e-05 1.6454055e-13 -2.2320176e-08
3.5420198e-09 -0.0006646716 3.0756564e-06 1.0850791e-08 -6.140061e-05 -7.3537896e-09 -1.2667361e-08 2.9206394e-06
0.0019545322 6.107215e-14 -2.0475977e-07 0.00021103595 1.8668514e-08 7.839593e-07 3.9810033e-08 -2.7589532e-12
-2.502819e-07 4.232858e-06 2.80437e-09 -1.0296622e-07 6.896406e-10 -2.8439787e-08 -5.1979278e-08 2.6765373e-10
7.1863337e-06 -4.4926996e-12 5.7142912e-05 2.0786442e-06 -1.6920366e-10 2.019581e-08 4.3738237e-06 -2.1185498e-10
-8.4152205e-09 -7.2756332e-12 -3.627207e-05 -3.648255e-06 1.06512325e-05 2.9332092e-09 4.880921e-12 -9.531732e-06
0.00027071065 -2.6232236e-05 -7.883614e-08 9.140106e-05 2.1743178e-09 -1.283926e-07 -2.4055402e-12 -1.2679448e-07
-4.892863e-08 -4.0774215e-10 7.009993e-06 -1.0219437e-05 8.047458e-07 6.1050143e-09 -0.007778965 8.386173e-05
7.3284536e-07 -7.384468e-07 2.1758385e-08 3.2391227e-08 1.0523513e-11 6.7247915e-06 -2.181434e-06 -2.874439e-09
9.894052e-08 1.8227759e-08 1.0668069e-10 -5.017855e-06 4.5746413e-07 0.0011361865 -3.9385924e-08 -0.0012735617
3.9704385e-14 3.2172254e-10 -7.053135e-09 2.8431324e-12 -1.6611486e-06 -6.1406032e-12 -4.0512276e-08 0.0009962408
-1.7127551e-08 -2.417346e-08 3.6350534e-06 -1.1327886e-08 2.0049006e-07 -2.2414732e-09 2.030483e-05 2.7407268e-10
-3.9618316e-11 9.64938e-06 2.2872526e-09 -1.6821433e-30 3.5890195e-13 0.00041531498 -5.6991735e-07 -9.995738e-07
-2.233389e-06 3.1686596e-09 1.9861643e-08 -1.8213788e-11 -1.2664714e-08 4.4316928e-10 2.101988e-09 -0.020285215
-4.0321383e-06 1.9231233e-05 0.0002035868 2.1555172e-14 -8.698882e-09 1.3145274e-15 4.1818534e-08 2.745035e-06
00000000: 9c0b feb0 9b10 1d2c 8011 ed2e 18bd cdb3
00000010: 81d6 b1ba 2eb2 26b8 8070 6838 40b3 622c
00000020: e952 c032 d02d 33b3 e218 0b3b 1a9f 3431
00000030: d68d 0bb5 b989 1fad 08d0 6fb8 c61f 9db7
00000040: 34ac 7031 e00e ab2d 8069 dab1 6c61 8239
00000050: 6b9f d239 c0e3 2039 b996 13b2 2ec2 acb8
00000060: 3aa0 82af 71ff 9e39 d0ba 68b4 88f9 ce90
00000070: c0f3 9c33 e87c ce2a 744e d139 bd98 ba2f
00000080: 4a80 afb3 18fb 0fb7 6e37 e2b0 4cf3 5a30
00000090: 6070 8eaf e88e c432 18c9 a9b9 383d 5a33
000000a0: 94dc a2b2 cc81 6f35 08ee 8b32 aa64 2636
000000b0: ceaf fe2e 2a35 be34 a409 bdae 32b6 1b2e
000000c0: befb 38b6 301a 4434 025b c936 b0f2 b0b9
000000d0: 4441 0232 ea81 2db5 1018 0f36 5255 ad34
000000e0: 07df 9131 e9ca c12f 825a 92ac f092 9bad
000000f0: 72d4 d334 6a5c 7d10 e6c5 b331 8bcb e032
00000100: 8ecd 55b4 31e9 20ac 4594 2532 eb33 a817
00000110: 3ab7 4339 9ddf b736 f26b e52f 9f0a 42b4
00000120: 6078 6b30 3188 d332 e6c4 a033 ebdb 74bb
00000130: a486 88ad c002 bcb7 fb9b e1b6 472b 4fb5
00000140: 144d a0ad 8872 a9b9 0018 5dac 0cab 66b5
00000150: 8a26 4734 5c7c 8436 fbd6 94b7 6bdf b5b8
00000160: 568f 242c 102b df3a 5cca 6f2e 25d7 55b5
00000170: 659e 41b5 1932 ae2f 8065 9436 f17f 0232
00000180: ff1d 01af 4cf4 572a 477e 13ae 721a 98b5
00000190: 1dc3 3cbc 914c fbb2 be48 462a aef4 3eb5
000001a0: bc3b 8ab7 c3cb 3fb9 0046 f231 5cf3 6333
000001b0: 9337 0ab8 34c4 aeb2 04ff 78b4 a41b 2136
000001c0: 0fef a1b0 0e26 862c 80b9 aea5 f2bb 132e
000001d0: 4c67 3f37 c5ce 4939 b0c8 9131 0571 1639
000001e0: f8b8 9bb0 61e9 872c 0751 722f 741f 95b4
000001f0: 40d8 9133 604f 012c e3c0 87b5 2832 c8ad
00000200: f783 1bb8 2cfa 9d36 40dc 1332 0a5f 312e
00000210: a4e0 15bb 5019 dfb5 2890 8eb2 a4ec e937
00000220: 6348 7cad b91e 302d e0c4 7431 d8ce 3cae
00000230: b43d f935 90c3 c0b8 9641 392a 96ba bfb2
00000240: df67 7331 5b3d 2eba 6067 4e36 496a 3a32
00000250: 34c4 80b8 9eac fcb1 a59f 59b2 3400 4436
00000260: 9c17 003b b385 8929 f0db 5bb4 8849 5d39
00000270: 7f5c a032 4671 5235 98fb 2a33 e224 42ac
00000280: 7b5e 86b4 f907 8e36 00b7 4031 471e ddb3
00000290: 2591 3d30 c14b f4b2 d23f 5fb3 ea24 932f
000002a0: 2322 f136 a412 9eac bcac 6f38 d67e 0b36
000002b0: 990a 3aaf 0e7b ad32 dcc2 9236 e0ef 68af
000002c0: 8892 10b2 14fd ffac d722 18b8 8bd4 74b6
000002d0: b2b2 3237 9091 4931 6ebb ab2c 7aea 1fb7
000002e0: 2bee 8d39 4c0d dcb7 a04c a9b3 92ae bf38
000002f0: 016b 1531 4adc 09b4 5c46 29ac 0025 08b4
00000300: 9925 52b3 9b28 e0af 6237 eb36 2674 2bb7
00000310: b605 5835 46c4 d131 b0e6 febb ecde af38
00000320: c0b8 4435 ad39 46b5 32e7 ba32 881e 0b33
00000330: b021 392d 85a5 e136 c064 12b6 aa87 45b1
00000340: 2079 d433 4493 9c32 e497 ea2e 0c5f a8b6
00000350: 6499 f534 18ec 943a 4829 29b3 a4ed a6ba
00000360: 0ad0 3229 6cde b02f 0858 f2b1 5211 482c
00000370: a2f4 deb5 a30d d8ac b8ff 2db3 4b94 823a
00000380: e21f 93b2 00a6 cfb2 bef1 7336 929c 42b2
00000390: 4a46 5734 6a08 1ab1 4a54 aa37 4dac 962f
000003a0: 423e 2eae c6e3 2137 c62d 1d31 c078 088e
000003b0: 390b ca2a a2be d939 6cfc 18b5 1829 86b5
000003c0: 55e1 15b6 a6bf 5931 379c aa32 ce35 a0ad
000003d0: 0094 59b2 88a2 f32f 9072 1031 2e2d a6bc
000003e0: ce4b 87b6 c252 a137 ea79 5539 d826 c228
000003f0: 1672 15b2 8071 bd26 f79b 3333 5837 3836

fc2.bias f4 [256]
0.0055211615 -3.8750204e-07 1.2296473e-06 0.0024712454 -0.0001284378 -0.16118798 -2.8078733e-07 -0.0002604676
5.0472052e-05 2.2095093e-05 -0.0006844174 -2.3683235e-05 -4.0037555e-09 8.709233e-05 -6.35026e-09 0.00019943093
8.532789e-05 5.7395846e-05 -2.5238044e-06 -0.14036149 -0.00027704742 -5.4973647e-05 -0.0005941762 1.6186272e-07
0.00038666493 1.6999011e-06 -0.001984363 2.6360036e-07 -1.7343893e-07 -0.0011147574 -0.0037423738 0.033180412
-0.00017098934 0.000106027524 -1.144582e-06 -9.094437e-08 2.1420836e-05 0.000120169585 -0.00030823794 1.8490286e-06
-1.8139865e-05 -0.0049289814 -0.0012716142 -2.0326072e-05 0.17759196 -6.8478687e-07 0.7723475 -0.0001454638
0.00015340926 -0.0005587019 -0.018300172 3.3390065e-06 9.797103e-08 1.2798361e-07 2.9696354e-05 0.0012292315
0.0017952574 0.01860822 -0.001846357 0.019888252 0.00012765985 3.3990835e-07 1.0489615e-07 -1.9561502e-07
-0.0029859727 0.0005058515 2.7184687e-05 -3.0456751e-05 1.8400041e-07 1.1568594e-05 -3.1286174e-06 0.009138009
-4.6575124e-08 0.024940144 3.3541352e-07 0.002304967 0.0011594085 -7.23693e-05 -7.8923054e-05 -1.5935395e-06
4.569241e-05 7.9565936e-08 0.024354557 1.2974354e-05 0.0063463724 -5.831104e-06 0.016513204 -0.0003063096
-0.000113568785 0.0006596973 -0.00096452027 7.167418e-05 -2.7273602e-05 -4.353524e-05 -1.2107478e-06 4.8272786e-09
-3.097573e-05 -6.5509084e-06 0.00019288635 -1.8445633e-05 0.0017449815 0.0005595194 0.00028142333 2.4487392e-07
0.019811204 -4.2300655e-08 -0.0019669514 0.028140983 -4.4191358e-07 -0.0002790366 -0.0020753893 2.2618178e-05
0.0008079882 -3.9107465e-05 6.825286e-05 -7.069405e-05 -5.687889e-06 -0.003315267 0.043185625 -0.00070059113
0.015524252 -0.00074533274 -1.9884781e-05 -0.0003635409 7.5918233e-06 0.51826894 2.5492138e-06 5.2723925e-07
0.0065209633 0.00015671787 9.507519e-05 -9.778524e-07 -2.2604663e-05 0.00020768876 0.00010045112 0.0029508122
-0.0001075816 0.41698897 0.016608503 -2.9763047e-05 -0.00014755141 -8.652008e-07 3.6477985e-09 4.105391e-05
-0.00022694867 -3.981319e-05 7.490869e-07 -9.6859796e-05 -5.6914637e-08 5.70133e-07 -0.0042014457 -0.0036850763
-2.6062453e-06 0.0029157414 -5.5208635e-05 -0.00024634085 5.4367745e-05 -7.744283e-05 -0.016072255 -0.0011561369
-0.00680175 -5.973789e-05 6.490468e-05 -0.002171721 -0.03911607 -2.234975e-07 -1.1163915e-07 -5.5487994e-06
-0.00013402347 3.1641514e-06 -3.9690826e-07 -9.268043e-05 5.1678595e-05 0.3296388 -0.0014023613 3.2604955e-06
0.00013732191 -2.634601e-05 0.00020995173 -0.003068442 -9.584451e-05 -0.0015391152 -4.545473e-05 0.00011782706
-7.8155395e-08 7.370354e-05 -5.815996e-07 1.6293193e-06 1.2987763e-05 -0.008633282 3.0371652e-08 -2.6886008e-05
-3.9327374e-06 -0.00029166305 -0.00019773882 -1.492887e-07 2.8984762e-12 -1.5355178e-06 -4.2969655e-06 -6.649819e-06
7.9991446e-07 -0.00035075576 0.0009011744 -3.701309e-05 2.435561e-07 3.501884e-05 -0.00023862817 -0.00093584915
-1.35154805e-05 -0.00029701449 8.078448e-06 -4.0718514e-06 -4.848427e-07 0.00020467187 -1.5771762e-06 -0.00017987695
-2.028472e-05 2.8146029e-05 -8.524156e-05 1.794125e-08 0.00066796807 -0.00016565656 4.805353e-07 -0.04012131
0.029578857 -1.980093e-05 -3.542119e-06 9.907713e-09 2.0881595e-07 -3.575552e-05 -0.00023496784 -0.000644173
0.0037109451 0.0069019003 -3.6841521e-07 -1.022705e-06 1.2423225e-06 0.00013935057 -4.277239e-08 1.7845377e-05
3.7490154e-05 -3.560299e-07 -2.2533578e-07 -0.01567078 -0.0135618085 0.0009861888 0.0032134168 0.00032051545
-0.0037887685 4.303046e-05 1.0804114e-05 0.010880025 2.233204e-07 -0.026606087 5.5485783e-05 -1.0556716e-06
00000000: dcea b43b e009 d0b4 5c0a a535 9ef4 213b
00000010: 42ad 06b9 760e 25be 1ebf 96b4 5f8f 88b9
00000020: f4b1 5338 da58 b937 796a 33ba 5cab c6b7
00000030: 6891 89b1 57a5 b638 7a31 dab1 551e 5139
00000040: 10f2 b238 52bc 7038 a15e 29b6 ecba 0fbe
00000050: ad40 91b9 8193 66b8 7dc2 1bba 7ccc 2d34
00000060: 4ab9 ca39 2828 e435 160c 02bb f584 8d34
00000070: 883a 3ab4 0d1d 92ba 9d42 75bb 2fe8 073d
00000080: 9a4b 33b9 185b de38 8a9f 99b5 324d c3b3
00000090: e5b0 b337 8e03 fc38 ff9a a1b9 242c f835
000000a0: 102b 98b7 4b83 a1bb 4bac a6ba e881 aab7
000000b0: abda 353e 32d2 37b5 91b8 453f a487 18b9
000000c0: 7cdc 2039 da75 12ba 3eea 95bc b213 6036
000000d0: 2564 d233 de6b 0934 6f1c f937 2a1e a13a
000000e0: d84e eb3a 4470 983c 7601 f2ba b0ec a23c
000000f0: 6edc 0539 a67c b634 4543 e133 3f0a 52b4
00000100: 4fb0 43bb 1f9b 043a ac0a e437 607d ffb7
00000110: a691 4534 bc16 4237 3df5 51b6 96b7 153c
00000120: e409 48b3 464f cc3c e212 b434 ee0e 173b
00000130: 4bf7 973a f9c4 97b8 7e83 a5b8 9ae1 d5b5
00000140: daa5 3f38 d6dd aa33 3583 c73c 6dac 5937
00000150: 3bf5 cf3b cda8 c3b6 b346 873c 2e98 a0b9
00000160: c72b eeb8 89ef 2c3a dcd7 7cba c84f 9638
00000170: 9dc9 e4b7 9c99 36b8 fa80 a2b5 31dd a531
00000180: f0eb 01b8 e0cf dbb6 8941 4a39 b2bb 9ab7
00000190: ddb7 e43a b6ac 123a 008c 9339 3777 8334
000001a0: 1b4b a23c 10ae 35b3 f8e7 00bb eb87 e63c
000001b0: 2440 edb4 a94b 92b9 4103 08bb 2bbc bd37
000001c0: 2ccf 533a 5207 24b8 fa22 8f38 9441 94b8
000001d0: 98da beb6 f344 59bb 69e3 303d e0a7 37ba
000001e0: 6f59 7e3c 6f62 43ba 3ece a6b7 a299 beb9
000001f0: 44bd fe36 46ad 043f 2913 2b36 9b87 0d35
00000200: cead d53b a254 2439 1b63 c738 c13e 83b5
00000210: 259f bdb7 07c7 5939 49a9 d238 6a62 413b
00000220: 6f9d e1b8 947f d53e 8e0e 883c a8ab f9b7
00000230: 08b8 1ab9 2540 68b5 c0ac 7a31 4d31 2c38
00000240: 12f9 6db9 16fd 26b8 dc14 4935 3521 cbb8
00000250: 4e72 74b3 3e0b 1935 48ac 89bb 5281 71bb
00000260: f4e6 2eb6 0616 3f3b d28f 67b8 4f27 81b9
00000270: ec08 6438 ce68 a2b8 f6a9 83bc 8489 97ba
00000280: 37e1 debb 128f 7ab8 6f1d 8838 6f53 0ebb
00000290: 2c38 20bd 86fa 6fb4 46be efb3 d32f bab6
000002a0: a788 0cb9 b557 5436 a816 d5b4 6d5d c2b8
000002b0: 78c1 5838 6bc6 a83e 70cf b7ba e3ce 5a36
000002c0: 12fe 0f39 a001 ddb7 7d26 5c39 ea17 49bb
000002d0: 2100 c9b8 23bc c9ba a5a6 3eb8 ec19 f738
000002e0: 62d6 a7b3 4991 9a38 381f 1cb5 fcae da35
000002f0: 04e6 5937 9c72 0dbc fc71 0233 4389 e1b7
00000300: f5f5 83b6 5aea 98b9 1c58 4fb9 2a4c 20b4
00000310: 4ef6 4b2c fd17 ceb5 a72e 90b6 8321 dfb6
00000320: b4b9 5635 a4e5 b7b9 ca3c 6c3a 813e 1bb8
00000330: 18c2 8234 31e1 1238 4338 7ab9 c653 75ba
00000340: 8cc0 62b7 9cb8 9bb9 ac88 0737 f0a0 88b6
00000350: 2326 02b5 309d 5639 5daf d3b5 5a9d 3cb9
00000360: 1b29 aab7 231b ec37 b7c3 b2b8 3a1d 9a32
00000370: 941a 2f3a 18b4 2db9 22fe 0035 3e56 24bd
00000380: 5c4f f23c 2c1a a6b7 24b5 6db6 9536 2a32
00000390: e436 6034 32f8 15b8 b361 76b9 b8dd 28ba
000003a0: 5433 733b 5629 e23b 9aca c5b4 e043 89b5
000003b0: e0bd a635 a21e 1239 bdb4 37b3 a8b2 9537
000003c0: bf3e 1d38 6024 bfb4 d4f3 71b4 0260 80bc
000003d0: 5932 5ebc 0143 813a 3098 523b db0a a839
000003e0: fd4c 78bb 9b7b 3438 5143 3537 2242 323c
000003f0: d8c9 6f34 02f5 d9bc 68b9 6838 9ab0 8db5

fc3.weight f4 [256, 256]
-3.327125e-08 -1.6245051e-10 -1.4905e-09 4.0748122e-10 1.8022e-09 -4.8518905e-06 -3.7110898e-11 -0.00021069738
-7.209686e-10 5.31453e-10 -8.38989e-08 0.00010683146 -2.79549e-14 -1.0341807e-09 -1.4045722e-12 -7.724771e-11
2.6966929e-09 -9.045531e-11 1.01500246e-10 -3.864154e-06 -8.892474e-09 -4.8344138e-09 2.2303777e-09 -2.1629734e-11
-5.805232e-10 2.4602318e-09 2.6972413e-10 -9.5137176e-07 4.9489834e-10 -1.7681042e-08 2.8448812e-06 -2.6605585e-07
5.4145e-09 2.7630414e-09 -8.820643e-10 -6.26164e-10 9.264044e-09 -5.9944784e-12 -2.7901828e-09 -6.135085e-10
-8.206184e-11 -8.5585185e-08 3.8199843e-10 1.6398266e-10 -1.4232728e-06 4.5724303e-11 -3.250807e-06 8.08529e-09
-3.710232e-10 -1.1748085e-08 -2.0568922e-09 -1.963879e-11 -4.1197407e-11 -6.14849e-12 -3.2589762e-09 1.7300367e-09
9.002997e-10 8.906112e-08 3.1535734e-08 1.5714907e-07 1.3038696e-09 -4.731182e-10 -3.5394374e-10 -5.0889515e-10
-7.1085165e-06 3.3155463e-09 9.170429e-11 -2.879128e-08 -4.161364e-12 -5.4792633e-09 -1.3827739e-10 2.2938366e-08
-1.06453325e-10 -2.1353972e-07 -2.1851007e-11 -8.250801e-09 -2.4228349e-08 -9.83291e-10 7.835392e-10 -1.3036543e-10
-2.0267987e-07 -0.0001357268 -3.7440282e-07 1.0450942e-07 -1.4618804e-07 -4.822996e-11 -2.4400012e-07 -2.9979896e-10
-3.6180354e-06 2.7031296e-08 -8.434094e-09 1.6437688e-09 -3.8917614e-10 3.5749848e-10 -5.987071e-10 -2.748428e-12
-5.7810305e-11 1.1278598e-10 8.998674e-11 6.8796085e-10 -1.6462742e-10 -4.6043126e-05 6.939743e-10 -9.897909e-12
-1.546204e-07 1.918563e-10 3.971728e-10 -9.387495e-10 4.12817e-12 1.3622747e-10 -2.002983e-09 7.3542145e-11
-6.6693734e-10 0.0025701243 -5.4921678e-08 3.5868318e-08 3.3337336e-10 3.965485e-09 -6.574343e-08 -4.9950444e-10
7.0613953e-07 -2.0039692e-11 1.1728942e-11 -1.2130732e-09 -8.267168e-09 4.7279173e-07 -3.539658e-11 -2.4642832e-10
5.2705303e-08 -9.489155e-11 2.3334057e-11 -1.0895215e-11 -1.4092186e-11 -2.456946e-10 3.5278197e-07 9.827766e-10
6.411138e-10 2.9823432e-06 -4.178924e-07 9.594056e-11 -3.0415082e-09 3.4210335e-10 4.3796444e-10 1.5717419e-10
3.6845663e-10 1.7818826e-09 -6.088477e-12 4.615806e-09 5.2101205e-12 7.832924e-11 -2.3510925e-06 1.3292743e-07
-8.781823e-10 3.089915e-09 -1.7562812e-09 -8.984442e-06 7.9700704e-11 -6.1978396e-12 9.891494e-09 4.3965997e-07
4.190279e-09 -2.4955585e-10 3.6702763e-10 1.9663766e-08 4.2811094e-10 1.7995262e-11 -4.2115053e-12 1.4989913e-10
-6.928347e-12 1.3366234e-09 1.6755224e-11 1.2073308e-08 -0.002766462 -3.0108245e-06 3.4552416e-11 2.7707786e-10
1.2579315e-09 1.2639717e-10 4.1818077e-11 3.4933894e-09 -4.037488e-10 6.2004557e-09 3.571887e-11 -8.2263885e-10
-7.21405e-10 -7.195675e-10 -5.8711724e-10 2.1308745e-06 -2.0377891e-10 2.4039384e-09 8.0526175e-10 3.758238e-11
0.00022741384 -6.087706e-10 1.5153945e-10 1.3162427e-12 -6.1810755e-15 -2.4681918e-10 -8.8963746e-11 -5.377272e-09
-5.771107e-10 -2.466417e-11 1.2488129e-09 5.5466236e-11 1.1958494e-09 5.956526e-07 -1.6089423e-09 3.0659547e-07
-1.0390312e-08 9.196961e-10 2.7747576e-10 -1.2168153e-09 0.004296356 1.5642033e-08 8.843832e-12 -2.7008756e-10
1.6690458e-09 -1.9299984e-08 3.1231826e-09 5.3650157e-12 -4.2266176e-08 1.6307052e-08 2.8189787e-10 5.298372e-05
5.205469e-09 -6.939326e-10 -3.5400674e-08 -2.3413034e-12 -3.645579e-10 -5.3641697e-10 -1.1048391e-09 1.45515875e-08
-1.2821515e-09 -2.4096641e-08 -1.8314886e-08 5.0349502e-11 -4.915447e-11 1.2388532e-10 1.0262721e-11 -5.7588123e-10
-2.9446037e-09 3.0103475e-11 -9.1402635e-10 -3.1286214e-09 -3.1267868e-09 -1.4580595e-10 -2.0770963e-09 1.5654666e-10
4.862217e-08 6.251929e-09 -3.7289033e-11 1.9913568e-08 0.0018008563 3.090223e-07 3.45836e-10 2.722639e-09
00000000: 20e6 0eb3 c19d 32af 4eda ccb0 e203 e02f
00000010: 46b1 f730 6ccd a2b6 2837 23ae a6ee 5cb9
00000020: a82d 46b0 ae15 1230 e82b b4b3 b40a e038
00000030: 9ccb fba8 0023 8eb0 0cad c5ab 98de a9ae
00000040: b950 3931 d0e9 c6ae 8f33 df2e d5a8 81b6
00000050: 84c5 18b2 f41b a6b1 3845 1931 d541 bead
00000060: b092 1fb0 db10 2931 4c48 942f c561 7fb5
00000070: 6009 0830 06e1 97b2 b0ea 3e36 70d6 8eb4
00000080: 720a ba31 f0df 3d31 c275 72b0 601e 2cb0
00000090: b227 1f32 76e9 d2ac 6abd 3fb1 d3a3 28b0
000000a0: b674 b4ae f4ca b7b3 8001 d22f 044d 342f
000000b0: 4807 bfb5 fd18 492e 7028 5ab6 7be7 0a32
000000c0: e0f8 cbaf a0d4 49b2 3b59 0db1 a0be acad
000000d0: 2830 35ae ad54 d8ac 84f4 5fb1 41c6 ed30
000000e0: f678 7730 de41 bf33 e871 0733 cfbc 2834
000000f0: d533 b330 bc0c 02b0 2795 c2af 50e2 0bb0
00000100: b185 eeb6 b5d7 6331 eda8 c92e b250 f7b2
00000110: 3c6a 92ac 1c44 bcb1 a009 18af 000a c532
00000120: e517 eaae 5a49 65b4 1834 c0ad 68bf 0db2
00000130: b41e d0b2 7a24 87b0 ab60 5730 9b56 0faf
00000140: 38a0 59b4 e351 0eb9 8801 c9b4 a96e e033
00000150: ddf7 1cb4 1c1e 54ae 1fff 82b4 f4d0 a4af
00000160: 60cd 72b6 7332 e832 8ae5 10b2 f9ea e130
00000170: acf3 d5af 7089 c42f 4492 24b0 4767 41ac
00000180: 9e40 7eae dd04 f82e 08e2 c52e f11a 3d30
00000190: 8002 35af 6e1e 41b8 1ac2 3e30 3820 2ead
000001a0: bb05 26b4 bff2 522f 1a59 da2f 5005 81b0
000001b0: 403f 912c a0c8 152f d9a4 09b1 8cb8 a12e
000001c0: 8b53 37b0 886f 283b 06e3 6bb3 a20d 1a33
000001d0: 2146 b72f c640 8831 d52e 8db3 804d 09b0
000001e0: 8a8d 3d35 6045 b0ad 7556 4e2d 38b9 a6b0
000001f0: 6407 0eb2 00d4 fd34 02ad 1bae b479 87af
00000200: 185e 6233 32ab d0ae a03f cd2d b0ab 3fad
00000210: 90e9 77ad 7112 87af fc65 bd34 6112 8730
00000220: 5f3a 3030 4424 4836 b25a e0b4 bcf9 d22e
00000230: c702 51b1 c412 bc2f 04c6 f02f 9ad0 2c2f
00000240: a98f ca2f 6ce6 f430 2038 d6ac 0f99 9e31
00000250: 9850 b72c 713f ac2e 76c7 1db6 d0ba 0e34
00000260: 9664 71b0 5c56 5431 a761 f1b0 e2bb 16b7
00000270: 8243 af2e 2d11 daac 40ef 2932 680a ec34
00000280: 15fa 8f31 dd31 89af 8cc6 c92f 14e9 a832
00000290: 425b eb2f ba49 9e2d de2d 94ac dbd0 242f
000002a0: 00c5 f3ac 41b4 b730 6961 932d f86a 4f32
000002b0: 884d 35bb 920d 4ab6 90f6 172e 3e53 982f
000002c0: 88e3 ac30 a4f9 0a2f f8ea 372e 5b10 7031
000002d0: 98f6 ddaf c90b d531 df17 1d2e 1020 62b0
000002e0: 5d4c 46b0 10cb 45b0 b462 21b0 2500 0f36
000002f0: aa0e 60af 8832 2531 4259 5d30 004a 252e
00000300: f075 6e39 6c56 27b0 909e 262f a43e b92b
00000310: 5cb2 dea7 b6b0 87af 23a2 c3ae fcc2 b8b1
00000320: 8ea2 1eb0 c6f2 d8ad b3a2 ab30 6ef1 732e
00000330: 365b a430 efe4 1f35 a021 ddb0 299a a434
00000340: 1381 32b2 dccd 7c30 3e8b 982f e23c a7b0
00000350: 72c8 8c3b 325d 8632 1495 1b2d 727b 94af
00000360: 5464 e530 1dc9 a5b2 9c9f 5631 c4c3 bc2c
00000370: 2788 35b3 9613 8c32 99f9 9a2f d63a 5e38
00000380: cadb b231 2abf 3eb0 740b 18b3 2cc1 24ac
00000390: f76a c8af fd72 13b0 12d9 97b0 8ffe 7932
000003a0: b237 b0b0 13fd ceb2 dc52 9db2 8070 5d2e
000003b0: 032f 58ae 9e36 082f 308b 342d 0a4c 1eb0
000003c0: 045a 4ab1 8065 042e e33e 7bb0 4aff 56b1
000003d0: 04df 56b1 ba50 20af aabc 0eb1 f81f 2c2f
000003e0: a4d4 5033 8dd0 d631 b8ff 23ae 660e ab32
000003f0: b60a ec3a b4e7 a534 1720 be2f 2c19 3b31

fc3.bias f4 [256]
-1.562816e-07 -1.0473101e-07 6.133884e-07 -0.00020512757 -8.394976e-05 -0.002116597 1.0869626e-06 0.7884647
0.40759915 3.8565204e-06 -8.674864e-07 0.7152929 4.0760966e-05 9.616898e-05 1.3083134e-07 0.5574031
0.0002382293 -0.00059235387 -1.602688e-08 0.89975774 0.05784397 1.4646008e-06 5.2342127e-08 -1.1277606e-08
0.0053345286 -4.92919e-06 2.6632927e-09 5.2616056e-06 5.8389555e-06 -0.031869702 -1.6408686e-07 0.01581865
0.07505334 -9.130101e-07 -5.471141e-05 2.2875029e-06 -0.0001661972 3.3875642e-07 -1.2172919e-05 -5.5963984e-08
-4.6961704e-05 -0.00024449604 -3.2332427e-08 -3.861795e-05 0.01064633 -1.1902067e-05 1.2659944e-05 1.6221062e-08
-0.019819014 8.2111484e-11 2.1327367e-07 -0.0012091505 1.1803128e-05 3.9160524e-05 -4.3840984e-08 -1.2566816e-09
-5.3857335e-08 -3.2345877e-05 -7.4818297e-07 8.543285e-07 0.024837388 4.0651048e-05 -6.665947e-07 0.005963154
0.802323 -2.2129448e-06 -8.188784e-05 4.111259e-06 8.122118e-07 2.0982379e-25 -8.3865154e-07 -0.00015733311
1.6830755e-07 -0.007835263 8.120694e-07 2.6143211e-06 -8.635638e-06 6.351513e-08 -1.7329232e-06 -0.000250579
-8.783125e-06 1.0069277e-07 0.111448266 -0.0016979725 -6.289064e-06 -1.97619e-05 -2.6695622e-07 -0.0008255516
-0.0046911845 0.00068313867 -2.499472e-07 1.6939894e-06 -6.232752e-08 7.9716386e-25 -9.257059e-15 -0.00021905097
-9.748954e-07 -0.01267984 0.01782 -3.0650915e-06 -3.503814e-05 0.35040468 0.002838415 0.00043724495
-2.4750698e-06 -0.08351076 5.14558e-07 -4.1719835e-05 1.6797782e-06 -0.0077825757 -0.009554993 1.0393853e-06
2.266588e-08 0.63143706 -6.3942633e-07 0.003756639 2.2119913e-08 1.4183944e-07 1.8195018e-05 0.041203592
-0.025990581 1.1990075e-07 -1.2121487e-07 0.083944805 -3.8933635e-05 -6.7411695e-29 9.6285285e-06 -2.7343523e-07
2.0509762e-05 -3.0024566e-07 -3.913511e-06 1.4302444e-07 0.00031578972 0.035831284 3.305332e-05 -1.5947279e-08
-1.4388995e-06 -2.0862476e-08 0.05673091 -0.0009693968 -6.027715e-09 2.2365105e-08 -1.3814038e-06 1.9006798e-06
0.00023378035 -8.82196e-10 -4.564381e-08 6.798574e-08 -3.9586263e-07 -2.6527407e-05 0.0024364223 6.614374e-08
2.0146752e-05 -0.00013531891 -3.2844142e-05 -0.00445064 -6.8566787e-06 4.370173e-05 -1.6868777e-05 -3.8453187e-08
8.724528e-05 -0.00012552798 -2.2979972e-07 0.7771843 4.155396e-08 1.0964473e-09 6.0609887e-05 0.0011122817
-2.3583683e-05 7.4290463e-09 8.088942e-05 2.6975353e-05 7.520194e-09 2.04454e-05 -1.11025685e-07 -9.1338634e-08
3.593321e-05 4.351841e-09 -1.4582626e-25 0.0016187243 -4.7769154e-05 0.00055214757 -3.6996556e-05 -0.00014656504
0.030494105 -8.755332e-06 4.8617887e-09 0.001896219 -1.6961202e-06 -0.004139542 -1.7398087e-06 1.06346e-05
0.085039675 2.6375506e-07 -0.002128921 -5.253214e-09 5.8792853e-06 -7.5530966e-25 1.605266e-05 -0.00021848103
3.235346e-05 -0.00012675027 1.272399e-07 1.307642e-05 9.730818e-06 -6.364581e-07 0.04218964 -3.829018e-05
8.629079e-07 -1.0959278e-07 -4.6243305e-05 -0.0049822135 5.461544e-07 0.0008077407 -0.012116587 -4.878592e-06
-1.8884188e-08 1.1776243e-08 -0.00035413756 0.0008583999 0.7469108 -0.0016923808 -0.00042747782 2.566106e-06
1.1787162e-08 0.8043727 -1.8418663e-05 -3.1241584e-06 -1.1667633e-05 -0.047477253 0.001163085 0.002382012
0.0019238547 0.28240713 0.53647625 2.582642e-08 -0.00012214584 -0.00025097356 1.2661226e-07 -0.0033319024
-0.010654517 -6.980849e-06 0.7897337 2.3299287e-06 9.676112e-07 0.0034166216 0.00021156679 0.0015803662
-1.3617638e-06 5.84498e-05 -3.1490845e-06 5.3023757e-07 -2.0624799e-05 -9.283019e-09 -0.0014322608 2.732184e-09
00000000: 5cce 27b4 7be8 e0b3 bba7 2435 8317 57b9
00000010: 2f0e b0b8 9bb6 0abb c0e3 9135 d3d8 493f
00000020: d6b0 d03e 4267 8136 36dd 68b5 6f1d 373f
00000030: c1f6 2a38 54ae c938 a57a 0c34 f8b1 0e3f
00000040: 31cd 7939 3248 1bba 7bab 89b2 8656 663f
00000050: cced 6c3d 4d93 c435 c7ce 6033 70bf 41b2
00000060: 45cd ae3b 6b65 a5b6 2405 3731 d98c b036
00000070: 3fec c336 ce89 02bd da2f 30b4 1d96 813c
00000080: 91b5 993d 9415 75b5 ee79 65b8 0083 1936
00000090: 3945 2eb9 54de b534 4a3a 4cb7 0d5d 70b3
000000a0: bff8 44b8 b42f 80b9 e1dd 0ab3 b5f9 21b8
000000b0: f26d 2e3c fdae 47b7 0c66 5437 7e56 8b32
000000c0: 7c5b a2bc a890 b42e 3800 6534 5c7c 9eba
000000d0: 0c06 4637 4b40 2438 ac4b 3cb3 8eb7 acb0
000000e0: c450 67b3 1fab 07b8 bed6 48b5 0255 6535
000000f0: c777 cb3c bb80 2a38 0af0 32b5 9066 c33b
00000100: 0a65 4d3f 1a82 14b6 33bb abb8 72f3 8936
00000110: c506 5a35 e8df 8116 b21f 61b5 c9f9 24b9
00000120: 07b8 3434 7a5f 00bc fcfc 5935 b271 2f36
00000130: c8e1 10b7 d065 8833 ca96 e8b5 2560 83b9
00000140: 3c5b 13b7 703c d833 fd3e e43d 818e deba
00000150: a606 d3b6 5bc6 a5b7 2f52 8fb4 d469 58ba
00000160: 82b8 99bb a914 333a 7b30 86b4 085d e335
00000170: ebd8 85b3 d4b5 7617 a6c2 26a8 0cb1 65b9
00000180: 27d9 82b5 1bbf 4fbc 40fb 913c dfb1 4db6
00000190: ebf5 12b8 3e68 b33e b404 3a3b 063e e539
000001a0: 6019 26b6 b007 abbd 2820 0a35 55fc 2eb8
000001b0: bd74 e135 fa04 ffbb 8c8c 1cbc 0281 8b35
000001c0: ccb2 c232 dca5 213f 0ba5 2bb5 f231 763b
000001d0: 3402 be32 874c 1834 81a1 9837 19c5 283d
000001e0: 33ea d4bc 11be 0034 4a27 02b4 41eb ab3d
000001f0: ac4c 23b8 b1e8 aa90 378a 2137 a7cc 92b4
00000200: 610c ac37 7331 a1b4 ce50 83b6 4292 1934
00000210: 9490 a539 d3c3 123d bba2 0a38 70fc 88b2
00000220: 3620 c1b5 1235 b3b2 ac5e 683d 1e1f 7eba
00000230: 581c cfb1 631d c032 ac68 b9b5 dc1a ff35
00000240: ef22 7539 067f 72b0 e609 44b3 8eff 9133
00000250: f286 d4b4 2c87 deb7 62ac 1f3b e80a 8e33
00000260: d200 a937 65e4 0db9 21c2 09b8 add6 91bb
00000270: 6c12 e6b6 604c 3738 6c81 8db7 ba27 25b3
00000280: 74f7 b638 29a0 03b9 debe 76b4 8df5 463f
00000290: 1079 3233 cfb1 9630 5f37 7e38 fbc9 913a
000002a0: 93d5 c5b7 9542 ff31 2da3 a938 2149 e237
000002b0: 2a32 0132 2a82 ab37 046d eeb3 f225 c4b3
000002c0: feb6 1638 3387 9531 3086 3496 602b d43a
000002d0: bd5b 48b8 ffbd 103a c02c 1bb8 41af 19b9
000002e0: c6ce f93c dde3 12b7 bf0c a731 8d8a f83a
000002f0: 3fa6 e3b5 ffa4 87bb 5f83 e9b5 426b 3237
00000300: 4829 ae3d 389a 8d34 5e85 0bbb c27f b4b1
00000310: ad46 c536 ccc1 6997 d3a8 8637 0e18 65b9
00000320: 43b3 0738 44e8 04b9 709f 0834 cc62 5b37
00000330: 8c41 2337 11d9 2ab5 0bcf 2c3d c599 20b8
00000340: 94a2 6735 4559 ebb3 5ff5 41b8 d641 a3bb
00000350: 729b 1235 90be 533a a684 46bc c9b2 a3b6
00000360: c536 a2b2 7750 4a32 8aab b9b9 3e06 613a
00000370: 8c35 3f3f e0d2 ddba 1a1f e0b9 5e35 2c36
00000380: 7d80 4a32 5feb 4d3f c781 9ab7 a2a8 51b6
00000390: 1ac0 43b7 8277 42bd a872 983a 881b 1c3b
000003a0: da29 fc3a ab97 903e 8256 093f e6d8 dd32
000003b0: 4614 00b9 1a95 83b9 eaf2 0734 0c5c 5abb
000003c0: 4990 2ebc 093d eab6 fd2b 4a3f df5b 1c36
000003d0: dede 8135 66e9 5f3b 07d8 5d39 4a24 cf3a
000003e0: d9c5 b6b5 ff27 7538 dc54 53b6 a655 0e35
000003f0: 6b03 adb7 267b 1fb2 b3ba bbba 17c1 3b31

action_heads.0.weight f4 [2, 256]
-1.4833003e-05 9.06006e-07 -1.1773683e-12 8.1653207e-07 0.00057847984 -0.00049024576 -2.0659925e-05 -0.3129991
-0.0917607 6.5613324e-07 -1.0943914e-07 -0.24389358 -6.168061e-07 -0.00013235665 -6.172954e-08 -0.117269196
-9.1209135e-05 -0.0005562015 -2.6727445e-10 -0.544433 -0.6115099 -0.85640234 -0.06890753 -1.0982697e-08
-0.0010479935 -9.661197e-05 -1.5514976e-09 -2.7104947e-05 2.4663052e-07 -0.52750516 -0.0005597636 -0.04552558
-0.26116 -0.000228515 -1.21003295e-05 9.179793e-06 -1.6470787e-12 -1.1989617e-07 -2.2048705e-11 -1.614506e-07
-0.00075067324 -0.7050373 -2.2408343e-05 -7.677035e-08 -0.031075444 -0.0071865595 2.8132325e-07 8.96618e-09
-0.013274691 -6.79771e-05 0.00025797985 -7.412596e-05 -9.811736e-05 -3.307461e-05 -7.3579664e-05 -5.6706434e-05
-5.5615343e-09 -8.332375e-09 -6.2069004e-05 -0.0097373715 -0.11529175 -1.073277e-05 -0.00032023402 -0.0016599604
-0.5632723 -2.7486774e-08 -0.01965623 -6.6011685e-06 -5.1346626e-07 -1.694735e-05 -6.1108156e-05 -0.0017894191
1.6291202e-07 -0.62585074 -5.1071336e-05 -0.0003469965 5.17055e-07 -1.2588091e-09 -1.5400767e-06 -0.5863985
-4.6665516e-08 -0.00012119909 -0.6864776 -4.86505e-09 -3.0435347e-06 0.00084937166 -0.011048244 -0.00026789278
-0.6745881 -0.0075151604 -8.4240645e-07 -7.922622e-05 -0.00016785458 -3.1572006e-07 -6.6754257e-13 -4.7928665e-05
2.5917046e-11 -0.002303319 -0.08892657 -7.719318e-08 -0.023535121 -0.4422493 -0.056710105 -0.00021661789
-0.00032697245 -0.90037405 -9.221404e-06 1.6794824e-07 -1.3244318e-08 -0.3778451 -0.34745747 -1.3810366e-05
-1.6453505e-05 -0.31704414 -9.390484e-06 -0.00020312132 -2.0557401e-08 -1.016059e-08 -0.0002851042 -0.08199389
-0.61996454 -0.00020460214 -0.011745895 -0.019097328 6.0456532e-05 -2.3957018e-27 -0.00039519178 -1.1976827e-05
-0.00012294177 -0.06998244 -0.00016701153 -6.0068294e-07 -5.743419e-05 -0.30805904 -8.173488e-07 -2.4024257e-07
-0.00019470078 -3.6649756e-06 -0.58826905 -0.08111782 -3.6915743e-10 -2.578755e-10 9.4401145e-09 -2.3739584e-07
-2.5912022e-06 -2.1105073e-08 -4.4049977e-09 -9.530537e-07 -0.004338527 -0.0001276576 -0.32524887 -3.9212014e-10
-6.7414153e-06 0.00077362836 -4.8816723e-06 -0.3763375 -4.403359e-06 -1.3322145e-05 0.0051543824 -0.00012485839
3.3941128e-06 -9.4348696e-05 -7.677994e-07 -0.3067578 -0.00010552704 -0.00014388992 -1.8294148e-09 -0.091605045
-1.015209e-06 -2.6962192e-05 -0.82141036 -8.515927e-06 -2.66834e-06 -0.0008589538 -8.843919e-05 -1.9972058e-06
-5.1853873e-05 -5.7459976e-05 -1.5183712e-06 0.08607401 -0.00019956821 -0.034936663 -5.0350886e-06 -0.00014739437
-0.0890807 -0.00078790565 -1.2714425e-05 -0.116451256 -0.00070722244 -0.59260637 8.450267e-06 -3.6082373e-09
-0.0007925784 2.8165561e-05 9.255127e-05 -0.0001369655 -1.0574352e-05 -2.3910854e-07 -5.6625396e-07 -0.0033382191
2.5346231e-05 -9.040123e-06 -2.3718982e-05 0.00011625082 -5.822423e-07 -4.4233425e-06 -0.7664542 -2.0752167e-09
-6.320406e-09 -9.382586e-13 -7.5062235e-06 -0.02602622 4.0723287e-09 -0.00021908995 -0.6605333 -3.2432224e-06
-0.07239101 -2.053387e-05 -0.0005842514 1.5223372e-06 -0.25995883 -0.004003302 8.17092e-08 -2.9399689e-05
-1.413115e-07 -0.36955523 -4.0783008e-29 -2.749231e-09 -3.6623442e-07 -0.82405984 -0.0001849168 5.137328e-06
-0.00014868795 -0.21931776 -0.35935783 -3.0011061e-27 -0.00019837641 0.006385215 -4.9878245e-06 0.148366
-0.7073983 -9.430854e-11 -0.6891199 -0.00011811235 -1.0123277e-07 -1.30791595e-05 -0.00028811482 -0.0011225712
-1.6162961e-05 -0.004983777 -3.1116834e-08 -0.36170828 0.00079198694 -2.8819153e-05 -0.32592744 -2.9934581e-05
00000000: 43db 78b7 4234 7335 2ab3 a5ab a82f 5b35
00000010: 20a5 173a d683 00ba da4e adb7 6b41 a0be
00000020: 09ed bbbd 2221 3035 ce04 ebb3 3dbf 79be
00000030: 9892 25b5 38c9 0ab9 2c90 84b3 d52a f0bd
00000040: 8847 bfb8 0dce 11ba 89ef 92af f65f 0bbf
00000050: ea8b 1cbf 2f3d 5bbf 641f 8dbd 6aae 3cb2
00000060: d45c 89ba 289c cab8 783c d5b0 6e5f e3b7
00000070: a468 8434 940a 07bf 19bd 12ba 0879 3abd
00000080: c3b6 85be 879d 6fb9 8502 4bb7 e902 1a37
00000090: 44ce e7ab cfbc 00b4 45f1 c1ad 345b 2db4
000000a0: d4c8 44ba 537d 34bf 8df9 bbb7 f2dc a4b3
000000b0: ee91 febc 3b7d ebbb c608 9734 ad09 1a32
000000c0: 177e 59bc ed8e 8eb8 7841 8739 1274 9bb8
000000d0: 5bc4 cdb8 98b9 0ab8 c84e 9ab8 12d8 6db8
000000e0: c617 bfb1 2c26 0fb2 0b2b 82b8 7f89 1fbc
000000f0: 151e ecbd e510 34b7 15e5 a7b9 0793 d9ba
00000100: 9d32 10bf 0e1c ecb2 1a06 a1bc 9b7f ddb6
00000110: 22d5 09b5 282a 8eb7 3127 80b8 f18a eaba
00000120: eaec 2e34 c137 20bf 6e35 56b8 15ed b5b9
00000130: c0cb 0a35 6802 adb0 a2b4 ceb5 361e 16bf
00000140: 476d 48b3 442c feb8 ffbc 2fbf 6f29 a7b1
00000150: 873f 4cb6 5ea8 5e3a b203 35bc f673 8cb9
00000160: ceb1 2cbf bc41 f6bb bb21 62b5 4126 a6b8
00000170: 1f02 30b9 3c80 a9b4 83e5 3bab 0307 49b8
00000180: 00f8 e32d 48f3 16bb 221f b6bd 66c5 a5b3
00000190: bacc c0bc 806e e2be db48 68bd ec23 63b9
000001a0: 806d abb9 ea7e 66bf a1b5 1ab7 4355 3434
000001b0: 2089 63b2 ea74 c1be f2e5 b1be 12b3 67b7
000001c0: a205 8ab7 9c53 a2be d28b 1db7 f7fc 54b9
000001d0: 3496 b0b2 bf8e 2eb2 0a7a 95b9 6aec a7bd
000001e0: ffb5 1ebf 788a 56b9 db71 40bc 0072 9cbc
000001f0: b592 7d38 9bce 3d93 be31 cfb9 15f0 48b7
00000200: eee9 00b9 f452 8fbd d11f 2fb9 9e3e 21b5
00000210: 7ee5 70b8 eab9 9dbe c867 5bb5 b0fa 80b4
00000220: 9828 4cb9 cdf3 75b6 cd98 16bf 1a21 a6bd
00000230: 4af2 caaf c0c4 8daf 102e 2232 dfe6 7eb4
00000240: 84e4 2db6 8c4a b5b2 c55a 97b1 5ad5 7fb5
00000250: 342a 8ebb d3db 05b9 0587 a6be 0192 d7af
00000260: 5134 e2b6 52cd 4a3a 3fcd a3b6 4faf c0be
00000270: 91c0 93b6 2d82 5fb7 18e6 a83b 6bec 02b9
00000280: 6ac6 6336 12dd c5b8 c61a 4eb5 5c0f 9dbe
00000290: 664e ddb8 28e1 16b9 d06e fbb0 6d9b bbbd
000002a0: 5142 88b5 de2c e2b7 f347 52bf a1df 0eb7
000002b0: bb11 33b6 6a2b 61ba 6e78 b9b8 bc07 06b6
000002c0: ac7d 59b8 2e01 71b8 d6ca cbb5 9247 b03d
000002d0: 2f43 51b9 bf19 0fbd 15f3 a8b6 e08d 1ab9
000002e0: f16f b6bd 748b 4eba 0a50 55b7 ff7d eebd
000002f0: e564 39ba 0db5 17bf 9fc5 0d37 c8f4 77b1
00000300: 09c5 4fba 1545 ec37 1618 c238 659e 0fb9
00000310: 7f68 31b7 d45e 80b4 ad00 18b5 06c6 5abb
00000320: 9e9e d437 08ab 17b7 20f8 c6b7 afcb f338
00000330: 634b 1cb5 396c 94b6 5836 44bf 999b 0eb1
00000340: e12a d9b1 540c 84ab f8dd fbb6 f034 d5bc
00000350: 95ec 8b31 83bb 65b9 b618 29bf 23a6 59b6
00000360: bd41 94bd 2640 acb7 7328 19ba 1c53 cc35
00000370: 5319 85be 222e 83bb 1c78 af33 5a9f f6b7
00000380: 69bb 17b4 5836 bdbe 5fcb 4e90 fcec 3cb1
00000390: e09e c4b4 96f5 52bf 3ae6 41b9 5061 ac36
000003a0: 1ee9 1bb9 d694 60be c0fd b7be aac5 6d93
000003b0: 4303 50b9 113b d13b 165d a7b6 42ed 173e
000003c0: 0e18 35bf fd62 cfae 296a 30bf 16b3 f7b8
000003d0: 4e65 d9b3 906e 5bb7 1e0e 97b9 3d23 93ba
000003e0: b295 87b7 f44e a3bb 52a5 05b3 d431 b9be
000003f0: 589d 4f3a a9c0 f1b7 f6df a6be 061c fbb7

action_heads.0.bias f4 [2]
-0.33065733 0.07816459
00000000: eb4b a9be c214 a03d
