shanghai_road_delivery/results_centralized/best_centralized_episode_379.pth_centralized_critic.pth (torch, 919248 bytes, 7 tensors)

fc1.weight f4 [256, 378]
-0.3484302 0.015083309 -0.6419768 -0.6409898 -0.641195 -0.6393958 0.0025004486 -2.6798837e-08
1.456021e-05 -3.6954734e-05 1.8528451e-10 -0.3807544 -0.028478358 1.3938574e-10 -0.29188433 -0.37575102
-0.19649981 -1.2884886e-09 0.0024424107 -0.33630067 0.03930837 -1.03354e-40 0.034052707 -0.0014212191
0.017028306 9.919997e-05 -0.012387586 2.4740127e-12 -0.32520586 4.2725747e-05 -0.40227515 -6.383816e-08
-0.22461624 -0.0001801234 -0.4041393 5.895402e-13 -0.08243369 -0.6419769 -0.31227425 -0.6419769
-0.65045494 -0.68616486 -0.5463196 -0.42530918 -0.75066733 -0.6535449 -0.4712445 -0.19403544
-5.4880722e-05 -0.6419769 -4.32143e-10 -0.6419769 -0.23332028 -0.016955284 -0.6419768 -0.63999534
-0.6401313 -0.64093053 0.006933206 -2.0265468e-08 5.5198905e-07 0.0005531838 7.8220014e-11 -0.3807544
-0.028478358 1.1828135e-05 -0.29188433 -0.37575102 -0.19649981 -9.813958e-08 0.0024424107 -0.33630067
0.03930837 -0.013961015 0.03210667 -2.66381e-40 -0.013339291 0.00018782928 0.01125586 8.7778616e-08
-0.25300407 -7.7422845e-13 -0.40227515 -2.130499e-12 -0.22461624 -1.3802319e-09 -0.4041393 -9.813875e-05
-0.08243369 -0.6419769 -0.31227425 -0.6419769 -0.6119822 -0.6795046 -0.52660173 -0.32709146
-0.6657509 -0.6383144 -0.4827727 -0.31186363 0.0025152562 -0.63963974 -5.740041e-12 -0.6419769
-0.21320044 -0.0004561455 -0.6419768 -0.6419112 -0.6419723 -0.6423872 0.00014422274 6.898906e-10
-7.694864e-10 1.5137931e-05 -1.5225505e-11 -0.3807544 -0.028478358 4.143193e-09 -0.29188433 -0.37575102
-0.19649981 -1.0371998e-12 0.0024424107 -0.33630067 0.03930837 -0.007315729 0.03331879 1.07133e-40
0.004332606 -1.11074e-40 -0.005356638 -6.144469e-10 -0.25300407 -4.7963375e-09 -0.32520586 4.597007e-07
-0.22461624 -4.249073e-09 -0.4041393 1.8935712e-12 -0.08243369 -0.6419769 -0.31227425 -0.6419769
-0.622138 -0.64181834 -0.55144644 -0.39069426 -0.72948116 -0.66614276 -0.47976822 -0.26977053
0.009357575 -0.64093673 5.5719275e-12 -0.6419769 -0.13709582 0.049321122 -0.64197683 -0.6414164
-0.64161336 -0.64061195 0.0003117512 1.9637133e-07 -6.087711e-07 -7.400834e-07 -6.8736863e-06 -0.3807544
-0.028478358 -2.18376e-40 -0.29188433 -0.37575102 -0.19649981 -1.2280225e-07 0.0024424107 -0.33630067
0.03930837 -9.9662115e-24 0.03028997 0.007850354 -0.011873154 -3.2681976e-13 0.0041099964 -9.221371e-05
-0.25300407 -1.2984316e-05 -0.32520586 -1.9279722e-10 -0.40227515 6.988442e-08 -0.4041393 -2.4139038e-11
-0.08243369 -0.6419769 -0.31227425 -0.6419769 -0.5823836 -0.64037377 -0.54263777 -0.38815203
-0.58667594 -0.6748055 -0.48720896 -0.34308222 0.006406881 -0.6393607 -0.00041396107 -0.6419769
-0.2586737 -0.010797612 -0.6419768 -0.63990724 -0.6402366 -0.6391838 7.9068e-41 -1.8625073e-08
1.1541679e-10 -0.0022859117 -0.001395394 -0.3807544 -0.028478358 -2.6914591e-08 -0.29188433 -0.37575102
-0.19649981 -5.262811e-12 0.0024424107 -0.33630067 0.03930837 -0.005128068 0.028872643 2.4008921e-05
0.0048224847 4.8578216e-12 -0.006060546 -2.2975046e-12 -0.25300407 1.6532839e-10 -0.32520586 2.6753395e-07
-0.40227515 -1.9232788e-05 -0.22461624 -3.0080123e-06 -0.08243369 -0.6419769 -0.31227425 -0.6419769
-0.5653419 -0.6527952 -0.5558337 -0.30477878 -0.7938523 -0.66897404 -0.49769807 -0.35770813
00000000: 7165 b2be fc1f 773c 9758 24bf e817 24bf
00000010: 5b25 24bf 71af 23bf 91de 233b 4433 e6b2
00000020: a047 7437 d8ff 1ab8 f4b8 4b2f 3ef2 c2be
00000030: 724b e9bc 9941 192f dd71 95be 7062 c0be
00000040: 3f37 49be aa16 b1b0 da10 203b 9a2f acbe
00000050: d001 213d 1c20 0180 da7a 0b3d 3348 baba
00000060: f27e 8b3c 9409 d038 4df5 4abc da17 2e2c
00000070: 6281 a6be 6c34 3338 02f7 cdbe 6617 89b3
00000080: cd01 66be 82df 3cb9 59eb cebe d9f0 252b
00000090: ffd2 a8bd 9958 24bf 69e2 9fbe 9958 24bf
000000a0: 3784 26bf 80a8 2fbf 9adb 0bbf 20c2 d9be
000000b0: bc2b 40bf b84e 27bf f646 f1be 3ab1 46be
000000c0: ba2f 66b8 9958 24bf b892 edaf 9958 24bf
000000d0: 83eb 6ebe cfe5 8abc 9758 24bf bcd6 23bf
000000e0: a5df 23bf 0614 24bf f32f e33b 3c14 aeb2
000000f0: 662c 1435 8903 113a f401 ac2e 3ef2 c2be
00000100: 724b e9bc 7471 4637 dd71 95be 7062 c0be
00000110: 3f37 49be cec0 d2b3 da10 203b 9a2f acbe
00000120: d001 213d bebc 64bc 4982 033d 90e6 0280
00000130: 0b8d 5abc 0af4 4439 806a 383c ce80 bc33
00000140: c089 81be 0aed 59ab 02f7 cdbe a8eb 15ac
00000150: cd01 66be 98b2 bdb0 59eb cebe d7cf cdb8
00000160: ffd2 a8bd 9958 24bf 69e2 9fbe 9958 24bf
00000170: deaa 1cbf 03f4 2dbf 5fcf 06bf 8878 a7be
00000180: a76e 2abf 9368 23bf fc2d f7be 97ac 9fbe
00000190: ffd6 243b 6ebf 23bf b1f5 c9ac 9958 24bf
000001a0: 3751 5abe d026 efb9 9758 24bf 4b54 24bf
000001b0: 4c58 24bf 7d73 24bf 7f3a 1739 bca2 3d30
000001c0: cb83 53b0 ebf8 7d37 caec 85ad 3ef2 c2be
000001d0: 724b e9bc e95b 8e31 dd71 95be 7062 c0be
000001e0: 3f37 49be 10f9 91ab da10 203b 9a2f acbe
000001f0: d001 213d c8b8 efbb 4979 083d a52a 0100
00000200: 89f8 8d3b a135 0180 bd86 afbb dbe5 28b0
00000210: c089 81be 08cd a4b1 6281 a6be c8cc f634
00000220: cd01 66be 3eff 91b1 59eb cebe 8c3f 052c
00000230: ffd2 a8bd 9958 24bf 69e2 9fbe 9958 24bf
00000240: 7044 1fbf 354e 24bf 982b 0dbf 1409 c8be
00000250: 47bf 3abf 5588 2abf 2ea4 f5be 5d1f 8abe
00000260: 8450 193c 6e14 24bf 760b c42c 9958 24bf
00000270: d962 0cbe f204 4a3d 9858 24bf dd33 24bf
00000280: c640 24bf 25ff 23bf 8a72 a339 24da 5234
00000290: 6e6a 23b5 25aa 46b5 84a4 e6b6 3ef2 c2be
000002a0: 724b e9bc be60 0280 dd71 95be 7062 c0be
000002b0: 3f37 49be a0db 03b4 da10 203b 9a2f acbe
000002c0: d001 213d 4ac6 4099 ac22 f83c c59e 003c
000002d0: 9e87 42bc b1fb b7aa 26ad 863b dc62 c1b8
000002e0: c089 81be 36d7 59b7 6281 a6be 98fb 53af
000002f0: 02f7 cdbe 5e13 9633 59eb cebe 4854 d4ad
00000300: ffd2 a8bd 9958 24bf 69e2 9fbe 9958 24bf
00000310: 1717 15bf 89ef 23bf 4fea 0abf ddbb c6be
00000320: 6530 16bf 0ec0 2cbf 7473 f9be 79a8 afbe
00000330: d0f0 d13b 25ad 23bf ea08 d9b9 9958 24bf
00000340: e170 84be 78e8 30bc 9758 24bf f6d0 23bf
00000350: 8ce6 23bf 8da1 23bf 69dc 0000 f8fc 9fb2
00000360: e0cd fd2e 3ccf 15bb a7e5 b6ba 3ef2 c2be
00000370: 724b e9bc d031 e7b2 dd71 95be 7062 c0be
00000380: 3f37 49be 302b b9ac da10 203b 9a2f acbe
00000390: d001 213d 5a09 a8bb 5286 ec3c c466 c937
000003a0: ef05 9e3b 5eeb aa2c 8b97 c6bb 2aac 21ac
000003b0: c089 81be cec7 352f 6281 a6be 96a1 8f34
000003c0: 02f7 cdbe 1956 a1b7 cd01 66be 42dd 49b6
000003d0: ffd2 a8bd 9958 24bf 69e2 9fbe 9958 24bf
000003e0: 3fba 10bf 961d 27bf 1e4b 0ebf f70b 9cbe
000003f0: e839 4bbf e241 2bbf 48d2 febe 8525 b7be

fc1.bias f4 [256]
-0.6419769 -4.4179558e-13 -0.00014169441 -0.0012752281 -0.60649765 -3.1914566e-05 -0.016919484 -0.08065938
-2.0139783e-05 -2.1506293e-10 -4.3984026e-12 -0.00538028 -1.034551e-07 -2.22909e-05 -0.00029604172 -7.325394e-08
-0.0050957 -1.4890868e-16 -0.0024869102 -0.0039357063 -1.0288812e-11 -7.568772e-08 -0.000971378 -2.5283071e-14
-7.749199e-05 -0.00021119915 -2.6531586e-06 -1.0145479e-05 -0.08759365 -6.77685e-08 -4.6361816e-07 -1.2521655e-05
-1.741941e-07 -8.386684e-05 -0.7879113 -0.0011272907 -2.0073765e-08 -0.7972644 -0.299293 -5.452522e-06
-6.072888e-07 -0.028326431 -0.013815362 -0.00010162044 -5.80538e-09 -0.24258871 -0.18429951 -0.06303443
-2.3078854e-05 -0.018498566 -0.0004898818 -0.0002003435 -0.026644237 -1.7607942e-08 -0.00093959493 -7.208158e-05
-8.8138e-09 -3.3909969e-15 -0.007567596 -1.7055288e-10 -3.205293e-08 -2.132838e-07 -0.0034922082 -0.04326407
-0.2992761 -1.11574586e-07 -0.51644367 -0.0052388217 -0.00023315032 -2.726434e-14 -0.00021638126 -4.3299323e-21
-0.0018825392 -0.080121405 -0.03339592 -1.0491634e-08 -0.0011457757 -0.08374924 -0.0008177155 -9.052359e-05
-6.438259e-06 -3.986947e-06 -7.255467e-06 -1.3482472e-09 -0.6026293 -0.46775532 -1.2238851e-06 -0.0017103874
-9.242992e-06 -0.2831066 -5.7589643e-16 -8.750291e-08 -1.2109466e-07 -5.2764017e-07 -0.0009226443 -0.009835485
-1.6970181e-17 -4.5749966e-05 -0.2907777 -0.00050325814 -6.474924e-14 -4.792641e-07 -3.7551124e-06 -2.0282769e-05
-0.21650317 -0.015453838 -0.00023078939 -1.6367377e-06 -2.8133522e-07 -0.020490067 0.07887574 -0.00010661835
-1.295237e-07 -0.10308654 -9.19583e-06 -0.00015031626 -0.0016376635 -8.5138045e-06 -0.06265787 -0.3732118
-0.0004659627 -6.745279e-05 -1.4174038e-06 -0.0010485832 -0.00028595433 -5.2700075e-06 -0.21100892 -3.2724827e-05
-0.04552226 -2.241391e-06 -8.032918e-05 -0.82971823 -0.006177005 8.487435e-05 -0.00038221694 -6.8415593e-06
-0.0050592124 -0.00026429034 -7.502487e-06 -0.1542547 -1.6664844e-05 -4.078136e-15 -0.0014090613 -0.0011726408
-0.0011291426 -0.0018073893 -9.809117e-22 -8.971734e-15 -0.0025444257 -9.700968e-07 -0.03236662 -0.016283434
-0.0025600186 -8.4634175e-09 -5.164191e-09 -0.002804605 -1.30886265e-05 -1.3668346e-06 -2.348386e-12 -1.6898219e-05
-2.7522697e-09 -2.1128697e-07 -2.3652703e-05 -1.1307794e-20 -0.0111690415 -0.020083532 -4.996187e-09 -0.39416063
-5.9159847e-06 -3.893074e-16 -0.013225873 -0.0026396802 -4.2782907e-05 -1.0142843e-05 -5.087287e-05 -1.4940435e-22
-0.0038394048 0.84164214 -7.185513e-05 -0.065156445 -2.7637207e-05 -5.627046e-08 -0.0020301535 -0.37118766
-0.15958169 -0.10958899 -2.1481537e-11 -0.00010830084 -4.4201376e-09 -6.205436e-05 -0.0017548682 -0.00042868743
-9.924144e-05 -8.503828e-08 -0.33746186 -0.10135322 -0.016259747 -1.1983097e-05 -0.0115942415 -0.01554046
-5.5644034e-07 -0.00053774245 -5.2693074e-05 -0.124000125 -3.6009038e-08 -0.018461188 -0.004010197 -0.0019033755
-0.032647558 -1.2048321e-07 -0.002390985 -2.7607332e-09 -1.5977882e-14 -2.3644932e-05 -0.0014371014 -6.835447e-11
-8.399093e-06 -0.000352496 -1.7648319e-05 -0.0011100211 -6.629279e-05 -0.1718147 -0.004288406 -3.9353185e-07
-1.0935008e-06 -0.00010711905 -1.886093e-08 -0.0009913765 -2.3904527e-06 -0.0036719483 0.47632092 -0.0017443511
-7.106709e-05 -3.3334913e-05 -0.00020958374 -0.00019243585 -1.2854356e-05 -1.3309036e-19 -7.0601627e-06 -3.181236e-05
-0.26743874 -4.042185e-05 -0.00021353885 0.003336933 -0.0012446765 -2.0382657e-05 -0.0002647384 -0.014344863
-0.00012725515 -0.007704999 -0.003857723 -0.0032352002 -0.07534962 -6.066068e-06 -1.47029905e-05 -0.0011259053
00000000: 9958 24bf 74b5 f8aa ce93 14b9 8e25 a7ba
00000010: 6e43 1bbf 01dc 05b8 bb9a 8abc bf30 a5bd
00000020: dbf1 a8b7 d576 6caf 4ac1 9aac 0f4d b0bb
00000030: 0b2b deb3 58fd bab7 0c36 9bb9 c84f 9db3
00000040: d4f9 a6bb 16ae 2ba5 6efb 22bb 19f7 80bb
00000050: b100 35ad c489 a2b3 13a4 7eba cbba e3a8
00000060: 3283 a2b8 5775 5db9 eb0c 32b6 8036 2ab7
00000070: 4d64 b3bd 2088 91b3 32e7 f8b4 1914 52b7
00000080: 1c0a 3bb4 abe1 afb8 8eb4 49bf 99c1 93ba
00000090: ad6e acb2 8519 4cbf ef3c 99be cff4 b6b6
000000a0: 9204 23b5 d50c e8bc d459 62bc 0f1d d5b8
000000b0: aa78 c7b1 2d69 78be 03b9 3cbe 3218 81bd
000000c0: 7699 c1b7 4e8a 97bc 696b 00ba 4c13 52b9
000000d0: 0445 dabc 4640 97b2 264f 76ba 812a 97b8
000000e0: 816b 17b2 da58 74a7 99f9 f7bb 5e86 3baf
000000f0: 92aa 09b3 0103 65b4 88dd 64bb aa35 31bd
00000100: b83a 99be c79a efb3 a735 04bf 6caa abbb
00000110: d079 74b9 4a93 f5a8 67e4 62b9 8994 a39d
00000120: 89bf f6ba b116 a4bd 29ca 08bd b23e 34b2
00000130: da2d 96ba b984 abbd f55b 56ba 7bd7 bdb8
00000140: 3908 d8b6 9dc7 85b6 fd73 f3b6 3b4d b9b0
00000150: ea45 1abf a07d efbe 5f44 a4b5 142f e0ba
00000160: 5912 1bb7 59f3 90be a8fd 25a6 3ce9 bbb3
00000170: 3f06 02b4 28a3 0db5 9cdd 71ba 0425 21bc
00000180: b585 9ca3 a7e3 3fb8 d1e0 94be 15ed 03ba
00000190: 65cd 91a9 c7a6 00b5 5700 7cb6 ea24 aab7
000001a0: 02b3 5dbe 1832 7dbc 0e00 72b9 e1ad dbb5
000001b0: 6b0a 97b4 c9da a7bc 9b89 a13d 4a98 dfb8
000001c0: 3413 0bb4 091f d3bd ca47 1ab7 379e 1db9
000001d0: dea6 d6ba 83d6 0eb7 c552 80bd 9e15 bfbe
000001e0: 744c f4b9 7175 8db8 a03d beb5 9d70 89ba
000001f0: 24ec 95b9 05d5 b0b6 b912 58be 0442 09b8
00000200: 8d75 3abd ce6a 16b6 6676 a8b8 6a68 54bf
00000210: 7968 cabb 92fe b138 4a64 c8b9 8c90 e5b6
00000220: c0c7 a5bb 7390 8ab9 dfbd fbb6 f2f4 1dbe
00000230: 7bcb 8bb7 2aee 92a7 40b0 b8ba 4cb3 99ba
00000240: bdff 93ba ece5 ecba 2f3b 949c d29e 21a8
00000250: 61c0 26bb 4634 82b5 dc92 04bd d664 85bc
00000260: fcc5 27bb 8166 11b2 b470 b1b1 77cd 37bb
00000270: 3997 5bb7 1474 b7b5 c340 25ac a6c0 8db7
00000280: 7122 3db1 1fde 62b4 cb69 c6b7 2399 559e
00000290: 5bfe 36bc 3886 a4bc edaa abb1 6ccf c9be
000002a0: ec81 c6b6 a26b e0a5 55b1 58bc 7cfe 2cbb
000002b0: cc71 33b8 2e2b 2ab7 5460 55b8 689e 349b
000002c0: 869e 7bbb dc75 573f eeb0 96b8 be70 85bd
000002d0: 73d6 e7b7 06ae 71b3 530c 05bb 4f0c bebe
000002e0: 6269 23be 3170 e0bd 1ff4 bcad 921f e3b8
000002f0: f1df 97b1 2e23 82b8 9b03 e6ba 74c1 e0b9
00000300: d81f d0b8 4a9e b6b3 cdc7 acbe 4792 cfbd
00000310: 2933 85bc 020b 49b7 c6f5 3dbc 6a9d 7ebc
00000320: 4a5e 15b5 49f7 0cba c202 5db8 c7f3 fdbd
00000330: 5ba8 1ab3 eb3b 97bc f867 83bb af7a f9ba
00000340: 72b9 05bd 2c5e 01b4 12b2 1cbb 55b7 3db1
00000350: 7dea 8fa8 1b59 c6b7 1f5d bcba 2550 96ae
00000360: d4e9 0cb7 36cf b8b9 7a0b 94b7 217e 91ba
00000370: ac06 8bb8 31f0 2fbe c285 8cbb 9b46 d3b4
00000380: 67c4 92b5 1aa5 e0b8 a003 a2b2 13f1 81ba
00000390: aa6b 20b6 12a5 70bb 56e0 f33e b6a2 e4ba
000003a0: da09 95b8 17d1 0bb8 b5c3 5bb9 9bc8 49b9
000003b0: 0aa9 57b7 1820 1da0 56e6 ecb6 436e 05b8
000003c0: bbed 88be a28a 29b8 66e9 5fb9 72b0 5a3b
000003d0: 6a24 a3ba 6cfb aab7 96cc 8ab9 b706 6bbc
000003e0: cb6f 05b9 377a fcbb dad1 7cbb a705 54bb
000003f0: e750 9abd 218b cbb6 ddac 76b7 1d93 93ba

fc2.weight f4 [256, 256]
-0.0033149594 5.9656e-40 -1.57066e-40 3.1354428e-16 -0.23658124 8.2200434e-20 1.1222811e-28 -1.6855639e-27
-7.2702057e-22 -7.025926e-39 -3.2060847e-29 -7.161228e-11 -2.35889e-40 -1.05063e-39 1.520335e-39 -8.165339e-34
5.31162e-40 -2.32246e-40 2.2297252e-25 -2.017651e-12 -8.7667e-41 1.49242e-40 3.202112e-07 -1.8912979e-38
1.0020664e-26 6.242e-41 1.548887e-25 9.105678e-12 -2.02394e-40 -4.277029e-39 8.1354e-41 -8.98634e-40
2.37072e-40 1.084399e-38 1.0064454e-26 1.1762991e-06 1.61479e-40 -0.0296215 4.117923e-39 1.15498e-40
2.17168e-40 -9.96675e-40 2.3933e-41 -8.08453e-40 4.0296535e-38 4.274859e-06 -1.54612e-40 1.0784593e-38
-1.29072e-40 -0.00022306305 7.836399e-14 3.2501511e-31 -1.81017e-40 3.333565e-14 1.4089e-40 1.83855e-40
-5.2241253e-17 -6.4729e-41 1.6416e-41 -2.4715e-40 -2.26579e-40 -1.76606e-40 1.5259534e-30 1.4567123e-37
-0.26104212 -3.7939984e-11 0.0009067779 -1.06029334e-17 1.4130167e-17 2.995867e-39 5.7079553e-24 -5.5415693e-19
1.7484832e-27 1.57991e-40 1.31623e-40 2.828283e-39 4.5349964e-09 3.611423e-08 1.77037e-40 1.2079545e-06
1.416644e-39 -3.0008653e-34 -2.03064e-40 2.1089e-40 9.607496e-05 -6.513436e-14 1.8400412e-27 1.05787e-40
-7.482025e-15 -6.7039735e-05 1.48126395e-36 -4.18395e-40 9.13155e-40 6.723193e-39 -7.7948853e-22 1.2458577e-10
-7.96816e-40 2.4616553e-29 0.00026361784 -8.095935e-12 -1.53423e-40 1.7958e-41 8.4741e-41 -3.6429024e-15
-2.2933444e-10 -1.822554e-39 1.5224e-40 -3.3239786e-37 1.931495e-39 4.8747032e-30 -3.3137338e-05 5.114298e-11
8.99101e-40 -1.3666758e-26 -9.815241e-12 2.8917493e-05 -9.507143e-39 3.7490503e-27 -0.0074583385 -0.0009214692
-1.039172e-39 -1.16036e-40 1.26768e-40 -1.539518e-39 6.4453e-41 -4.3e-41 1.7579399e-10 2.6372722e-29
-8.2621016e-05 -3.644502e-21 -9.840268e-39 -0.0123320855 2.6885536e-05 -1.8432615e-08 -8.676177e-17 2.5612e-41
-2.44665e-40 -8.2726e-41 -1.71864e-30 -3.197793e-05 -2.10576e-40 3.659286e-39 -1.725442e-09 2.5500715e-06
-2.1994168e-08 1.0773688e-07 2.11442e-40 2.2021e-41 0.00011175998 3.1427763e-35 8.230136e-32 2.7728042e-38
-0.00022325979 2.59445e-40 -1.95555e-39 -0.000103476166 7.566e-41 -2.251e-41 5.478027e-09 -1.5839678e-08
2.36445e-40 -6.99719e-40 7.827941e-31 -6.6434e-41 3.66838e-40 4.473327e-11 -4.2467352e-14 -2.64529e-40
-8.773006e-39 -9.033e-42 -5.9156144e-12 4.6582986e-22 -1.61536e-38 2.1186312e-15 9.304432e-16 -1.16559e-40
-2.490669e-39 -0.24563254 2.0063448e-21 7.033265e-38 2.819195e-28 1.01418e-39 -5.4545886e-25 -0.006367092
9.038074e-10 -0.0012918853 2.603816e-39 -2.33816e-40 -2.0791029e-11 2.040656e-08 1.16961e-35 2.9771498e-12
2.7026984e-38 4.2085185e-06 -4.5638474e-16 -8.807714e-05 -2.21603e-40 -7.041334e-32 -1.85435e-40 7.480957e-10
6.273608e-11 -1.8054e-40 -2.482593e-38 -3.922547e-12 -1.096513e-39 -2.1704e-40 1.4622277e-05 1.5040946e-17
-1.19535e-40 -3.7256662e-35 -1.0503891e-38 -6.99988e-40 -1.60016e-40 -1.3743e-40 -8.364149e-08 3.727433e-39
1.49831e-40 1.1841746e-38 9.3951e-41 -2.4994624e-09 -2.5840101e-09 1.3305898e-29 1.4026e-41 1.5342e-40
1.6398093e-16 2.0671106e-30 -7.7456486e-11 -5.453124e-38 8.8683766e-10 0.0032304921 -0.006752833 4.030846e-23
1.094027e-39 -1.0551627e-19 4.36018e-15 8.674497e-38 -3.4296205e-28 7.9052e-34 -1.1082077e-09 -6.2146e-40
6.4986935e-16 1.2220908e-20 4.2709415e-24 -5.4832842e-08 -8.56069e-40 -1.1453699e-06 -4.3495563e-30 1.0739313e-38
-7.7993e-41 1.409645e-16 -1.19836e-40 -4.0975308e-35 -0.015367227 1.550799e-39 -5.48852e-40 2.5625936e-19
00000000: ca3f 59bb f77e 0600 d6b5 0180 f8be b425
00000010: 5a42 72be 1d17 c21f 1b44 0e11 4c8b 0593
00000020: 7eba 5b9c 6c81 4c80 5c91 2290 217a 9dae
00000030: 9091 0280 bb70 0b80 138e 1000 83ab 8788
00000040: aac8 0500 6887 0280 6803 8a16 c5fa 0dac
00000050: 61f4 0080 07a0 0100 7ee9 ab34 b1f1 cd80
00000060: ce7a 4614 00ae 0000 30be 3f16 5430 202d
00000070: 3134 0280 9e92 2e80 c8e2 0000 07c9 0980
00000080: dc94 0200 a214 7600 d858 4714 54e1 9d35
00000090: 23c2 0100 caa8 f2bc 18d7 2c00 f641 0100
000000a0: 605d 0200 53da 0a80 b742 0000 a3cd 0880
000000b0: 2c65 5b01 c270 8f36 ffae 0180 0f6f 7500
000000c0: cd67 0180 08e6 69b9 c475 b029 66f2 d20c
000000d0: 9af8 0180 6321 1629 be88 0100 8300 0200
000000e0: 96eb 70a4 70b4 0080 c32d 0000 f4b0 0280
000000f0: 9c77 0280 4eec 0180 a099 f70d 0447 4602
00000100: 50a7 85be a0dc 26ae d6b4 6d3a f096 43a3
00000110: ea53 8223 429f 2000 dad0 dc18 ea8e 23a1
00000120: 7487 0a13 6ab8 0100 e96e 0100 1acc 1e00
00000130: 40d2 9b31 041c 1b33 82ed 0100 0021 a235
00000140: 076d 0f00 1471 c787 0f36 0280 e04b 0200
00000150: da7b c938 67ab 92a9 78c8 1113 e426 0100
00000160: c0c8 06a8 af97 8cb8 2506 fc03 518e 0480
00000170: 81f1 0900 8735 4900 0196 6b9c c7fb 082f
00000180: 33ad 0880 3aa4 f90f 3036 8a39 da6c 0ead
00000190: aeab 0180 0f32 0000 39ec 0000 d83f 83a7
000001a0: e827 7caf 8ad8 1380 62a8 0100 e037 e282
000001b0: 3908 1500 d0bd c50e f2fc 0ab8 e0ed 602e
000001c0: 54ca 0900 5959 8794 eaab 2cad d893 f237
000001d0: 0c86 6780 e383 9413 1465 f4bb c08e 71ba
000001e0: ca50 0b80 7643 0180 6161 0100 8dc3 1080
000001f0: abb3 0000 de77 0080 9c49 412f c0b9 0510
00000200: d244 adb8 76af 899d aa26 6b80 840c 4abc
00000210: 4088 e137 c055 9eb2 1c0f c8a4 6547 0000
00000220: 07aa 0280 9be6 0080 c26e 0b8e 0a20 06b8
00000230: 004b 0280 9ad8 2700 9824 edb0 e521 2b36
00000240: b0ed bcb2 fa5c e733 6a4d 0200 633d 0000
00000250: af60 ea38 4119 2706 a3aa d50b 40f7 1601
00000260: d81a 6ab9 3ad3 0200 474b 1580 5801 d9b8
00000270: e9d2 0000 c03e 0080 3c39 bc31 d20f 88b2
00000280: 1d93 0200 889e 0780 fd07 7e0d 31b9 0080
00000290: 98fe 0300 2fbd 442e 8641 3fa9 66e1 0280
000002a0: 9287 5f80 2e19 0080 1e23 d0ac d7c9 0c1c
000002b0: aae5 af80 d9a9 1827 4c17 8626 eb44 0180
000002c0: f91e 1b80 1987 7bbe 5a98 171d b476 bf01
000002d0: 0eb0 b211 1f0b 0b00 b4cf 2897 0aa3 d0bb
000002e0: cb6f 7830 7a54 a9ba 615a 1c00 c98b 0280
000002f0: 3ce1 b6ad 804a af32 a0bf 7805 907f 512c
00000300: 1e26 1301 e636 8d36 408b 03a6 0eb6 b8b8
00000310: bd69 0280 b1cd b68b eb04 0280 8ea2 4d30
00000320: 46f5 892e 46f7 0180 4c2a 0781 2a03 8aac
00000330: a2f0 0b80 055d 0280 3452 7537 6eba 8a23
00000340: 374d 0180 2417 4686 9360 7280 489f 0780
00000350: 0fbe 0180 197f 0180 659e b3b3 9196 2800
00000360: aba1 0100 f8f1 8000 e605 0100 02c3 2bb1
00000370: 6392 31b1 16f0 860f 1927 0000 acab 0100
00000380: a10e 3d25 35b4 270e 2054 aaae ba72 9481
00000390: a7c5 7330 aab6 533b de46 ddbb 75eb 421a
000003a0: b4e9 0b00 ac24 f99f 9017 9d27 6c24 ec01
000003b0: c660 d991 0159 8308 984f 98b0 61c4 0680
000003c0: e54f 3b26 afd8 661e 5b39 a518 5981 6bb3
000003d0: 5f52 0980 9cba 99b5 6070 b08e d6f0 7400
000003e0: 6ad9 0080 6085 2225 0e4e 0180 b3dc 5986
000003f0: d2c6 7bbc ffe2 1000 faf9 0580 d244 9720

fc2.bias f4 [256]
-0.033589974 -0.00069665955 0.053711228 0.90192837 -0.0014992366 -0.0018920616 0.18388537 -0.10834824
-5.2178566e-05 0.2043358 -0.04180291 -1.0308163e-06 -0.1452261 -0.47168118 -0.004534715 -0.27612782
-0.013474713 -0.10708891 -0.0097432295 -0.10780371 2.8756223 -1.0285833e-08 -0.19254321 -0.19802074
-0.075074054 -0.29998296 0.025491305 -0.18078013 -0.00028331106 -0.001269659 -0.00023423042 -0.004903833
0.2113072 4.693456 -0.86250156 -0.036304764 2.1445184 3.0132933 1.7019753 -0.26808673
-0.0022670056 -1.6603263e-06 -0.0020790952 -0.14588752 -0.067507386 -0.0007898082 3.3759592 0.20923893
3.8658814 -0.065254085 -0.007824632 -0.011525979 -0.0002957401 -0.0063411384 0.564034 -0.003172137
4.2234254 -0.13706551 0.061322007 -0.06893076 0.015244665 0.034441285 1.6882849 -0.045793958
-0.020380039 -0.001127958 4.4770412 -0.2239642 -0.20386992 2.6343067 -0.021527179 -0.02293329
3.3578396 -3.0146848e-07 4.3805194 -2.1136711e-05 -0.014247432 -0.02733413 4.2954464 -0.12547433
-0.0027587183 -0.0061898474 -0.000102597616 -0.13068181 -3.604697e-05 3.4142609 -0.055904962 -0.00033871626
2.3445778 -0.0031611773 -0.23516698 -0.008036116 -0.09636585 -2.1864245e-05 -0.0005897679 -9.938723e-10
4.4342103 -0.10580984 -0.022239996 1.5957589 -0.21108024 1.338914 4.169926 -0.2759522
-0.726464 -0.0001978191 -0.009744845 -0.012716012 -0.0003855256 -0.0060240626 2.0772347 0.20297094
0.11660691 -0.09266187 -0.15954624 -2.4219511e-05 -1.9110386e-05 -0.0014153516 -0.027853487 -0.43833706
-0.06285867 -0.13417038 -0.0014415135 -0.19006452 -0.010415675 -0.0076455465 1.9205067 -4.811999e-05
-0.030857787 0.446198 -0.09188503 -0.11502338 4.2761927 2.1698043 -7.528456e-08 -0.037792385
-0.1680871 -0.00022562215 -1.7539867e-07 -0.0014500817 -0.0010398617 -0.0008865499 0.055793285 1.1450566
5.1772943 -0.03798289 -5.2125502e-05 -0.16491571 -0.014219219 -7.569275e-07 -0.13157506 -0.38611072
-2.3691015e-07 0.00021413536 -0.24399257 -0.0007173591 -9.2238006e-05 -1.1065034e-05 -0.005502451 -0.008114337
-0.0032493016 0.09642615 -0.25567406 -0.00051179185 -0.005284583 -0.00014188192 -0.0001884903 -0.008827343
-0.00010388119 -0.010048289 -0.013311774 5.251811 -0.0030744604 -0.11471745 0.6270918 -0.3008216
-0.01299041 0.34993652 -1.7373458e-10 1.8251779 5.6350517 -0.23152268 1.3026233 -8.287921e-07
2.0187035 -0.016096432 -0.18489449 -0.13293211 -0.13324396 -0.13669349 -0.11444493 -0.04483411
-9.030793e-05 0.5789395 -0.00064514234 -0.05267867 -0.007263469 0.0012379303 -1.6418367e-09 -0.018522535
-0.20876342 -0.003974826 4.338697 -5.832721e-06 -0.000394901 -0.09102244 -0.4445339 -0.09015351
-0.0040813107 3.8605587 0.18220915 -0.41359463 -0.00014457543 -0.0075324494 -0.25466427 -0.0005785109
0.0052129994 0.5356278 -0.028018178 -0.00010211724 -0.3906679 -0.00036706717 -0.08361132 -1.1201179e-06
-0.70818365 -0.0007046518 4.6596274 -0.047434807 -0.0014669212 -0.0071066227 0.059487566 -0.000522016
-0.10073032 0.016803097 -0.08171089 -0.00086439203 -0.071038246 0.047392134 -0.08933423 -0.01873735
-0.33165708 -0.0022749659 -0.15853702 -0.0031388253 3.6650317 -1.2906413e-07 -0.0007562644 -0.09631076
-0.00038062056 -0.0002821299 -0.014688292 0.4548383 -5.320343e-06 -0.14208889 2.2790766 -0.30842352
00000000: a495 09bd 08a0 36ba 4e00 5c3d c7e4 663f
00000010: 0882 c4ba 0dff f7ba 724c 3c3e afe5 ddbd
00000020: 4fda 5ab8 673d 513e 8739 2bbd 945a 8ab5
00000030: 27b6 14be 3280 f1be f297 94bb a060 8dbe
00000040: 0bc5 5cbc 6e51 dbbd 11a2 1fbc 31c8 dcbd
00000050: 320a 3840 92b5 30b2 0c2a 45be f3c5 4abe
00000060: 6dc0 99bd 5e97 99be 24d3 d03c 6d1e 39be
00000070: 5e89 94b9 b06a a6ba c09b 75b9 55b0 a0bb
00000080: ea60 583e cb30 9640 e7cc 5cbf 4eb4 14bd
00000090: ca3f 0940 ccd9 4040 54da d93f aa42 89be
000000a0: 0b92 14bb 61d8 deb5 6e41 08bb 8a63 15be
000000b0: 5041 8abd 220b 4fba b70f 5840 bb42 563e
000000c0: 9a6a 7740 efa3 85bd e332 00bc 76d7 3cbc
000000d0: 900d 9bb9 53c9 cfbb 8864 103f a1e3 4fbb
000000e0: 4d26 8740 e75a 0cbe c92c 7b3d 922b 8dbd
000000f0: c2c4 793c 4e12 0d3d b819 d83f 7292 3bbd
00000100: 0af4 a6bc fdd7 93ba ec43 8f40 df56 65be
00000110: 47c3 50be 7b98 2840 c459 b0bc 98de bbbc
00000120: d8e6 5640 83d9 a1b4 372d 8c40 be4e b1b7
00000130: 106e 69bc d3eb dfbc 4c74 8940 587c 00be
00000140: 9dcb 34bb 34d4 cabb ad29 d7b8 74d1 05be
00000150: 2431 17b8 4083 5a40 9afc 64bd ba95 b1b9
00000160: 900d 1640 c12b 4fbb 9dcf 70be eaa9 03bc
00000170: 755b c5bd 1c69 b7b7 a79a 1aba c698 88b0
00000180: 0de5 8d40 d4b2 d8bd a730 b6bc d441 cc3f
00000190: 6b25 58be 8961 ab3f 0970 8540 9b49 8dbe
000001a0: 8bf9 39bf a96d 4fb9 d8a8 1fbc d256 50bc
000001b0: 5f20 cab9 8065 c5bb 6af1 0440 9dd7 4f3e
000001c0: 9bcf ee3d 82c5 bdbd 1760 23be 012b cbb7
000001d0: 3e4f a0b7 5283 b9ba ff2c e4bc b76d e0be
000001e0: 0cbc 80bd f663 09be 2bf1 bcba 46a0 42be
000001f0: 82a6 2abc 7e87 fabb 2ad3 f53f 72d4 49b8
00000200: 78c9 fcbc 1074 e43e 382e bcbd 6191 ebbd
00000210: 92d6 8840 13de 0a40 20ac a1b3 30cc 1abd
00000220: 061f 2cbe fc94 6cb9 3855 3cb4 ab10 beba
00000230: f84b 88ba 5b67 68ba 8087 643d 3791 923f
00000240: 65ac a540 f293 1bbd 55a1 5ab8 aadf 28be
00000250: baf7 68bc a92f 4bb5 9dbb 06be 4eb0 c5be
00000260: 5e61 7eb4 8689 6039 30d9 79be 270d 3cba
00000270: e76f c1b8 f6a3 39b7 e84d b4bb fff1 04bc
00000280: 3cf2 54bb 137b c53d b6e7 82be c529 06ba
00000290: 4c2a adbb 23c6 14b9 7ba5 45b9 8fa0 10bc
000002a0: cada d9b8 94a1 24bc a019 5abc d60e a840
000002b0: e37c 49bb fcf0 eabd 1789 203f 4a05 9abe
000002c0: bbd5 54bc e12a b33e f005 3faf 6e9f e93f
000002d0: 5852 b440 4814 6dbe 5cbc a63f 297a 5eb5
000002e0: 7032 0140 aadc 83bc fb54 3dbe 5b1f 08be
000002f0: 1b71 08be 61f9 0bbe 1a62 eabd f9a3 37bd
00000300: b363 bdb8 6135 143f c51e 29ba 97c5 57bd
00000310: 6502 eebb 0c42 a23a fea6 e1b0 92bc 97bc
00000320: 14c6 55be 423f 82bb 9bd6 8a40 b1b6 c3b6
00000330: b70a cfb9 f969 babd f399 e3be 67a2 b8bd
00000340: 84bc 85bb 6513 7740 0995 3a3e adc2 d3be
00000350: 2c99 17b9 c4d2 f6bb 5b63 82be 36a7 17ba
00000360: cfd1 aa3b e71e 093f 6186 e5bc c727 d6b8
00000370: 9f05 c8be ec72 c0b9 693c abbd f556 96b5
00000380: 864b 35bf 62b8 38ba ab1b 9540 004b 42bd
00000390: b545 c0ba acde e8bb 3ca9 733d e7d7 08ba
000003a0: b34b cebd a6a6 893c 0a58 a7bd 5e98 62ba
000003b0: 807c 91bd 411e 423d ddf4 b6bd 127f 99bc
000003c0: f5ce a9be 9817 15bb 8757 22be c0b4 4dbb
000003d0: e18f 6a40 e194 0ab4 0b40 46ba 933e c5bd
000003e0: 078e c7b9 d6ea 93b9 29a7 70bc 91e0 e83e
000003f0: 6685 b2b6 c07f 11be 64dc 1140 b0e9 9dbe

fc3.weight f4 [256, 256]
-2.025004e-23 -1.3227891e-11 -5.138891e-05 3.119312e-06 -2.391608e-07 -0.009599432 -2.2174973e-23 1.1485978e-19
-4.4661957e-22 -1.6538893e-07 -7.0879645e-22 4.388375e-28 -0.0048574405 -0.0005768575 1.7385072e-16 -1.9772886e-12
3.740921e-10 -0.01829473 -0.0020137236 -0.002784096 5.6100012e-05 -3.8216632e-27 -1.0995352e-06 -0.0043304414
-3.3661026e-24 -0.00011817777 9.9284526e-14 -0.0035791427 1.4216053e-12 -3.724836e-22 1.9114101e-26 -4.589785e-11
-0.0031217767 7.660677e-07 -0.050489288 -8.5419e-41 -0.0003065046 -0.0013414924 -0.024006493 -0.0013246732
-2.4619674e-21 9.028423e-23 1.08201865e-08 -0.0043440866 -0.0013142154 -5.6675733e-14 -3.1077132e-05 -0.00022116209
-0.026388241 9.537405e-12 1.3505347e-27 5.4293654e-08 -4.15429e-40 3.5542333e-11 -0.00562483 4.0474636e-23
-0.0015696638 -2.7347757e-23 1.5496066e-11 1.9330542e-11 4.473772e-21 3.7739167e-25 -0.053821392 0.045786027
-3.771277e-09 -2.6632574e-10 -0.022221746 -0.027567638 -0.002101546 -0.018896885 1.90525e-23 2.171082e-21
-2.9610237e-06 -6.781692e-23 -0.083691716 -7.6196805e-25 6.6382644e-16 -1.4428183e-22 -0.002158115 -0.0027211914
1.1395264e-29 -1.6022027e-07 -1.39543e-40 -0.00046413572 4.540697e-16 -0.030048428 -1.00784e-40 -1.97017e-22
-0.00095964794 7.364457e-29 -1.6366753e-32 -8.7594036e-26 6.090242e-23 1.9237945e-10 2.9190718e-29 -6.1545096e-16
-0.027429834 -1.699134e-21 8.471614e-22 -0.00014714946 -9.878058e-08 -0.04927273 -0.015167581 -0.00013903223
-1.10369e-40 -1.1677022e-11 1.5765744e-26 -1.3394371e-08 -4.891978e-16 1.6044755e-16 0.08930109 2.196483e-06
5.4455256e-07 4.1434677e-12 -0.0006546764 9.799369e-22 4.742865e-21 -1.3901561e-14 -0.0014349768 -2.6798817e-23
-1.190052e-15 -4.9731746e-08 1.768365e-28 -0.053390667 1.7856869e-21 1.3447075e-06 -0.0023921372 -2.1729414e-18
-0.007207519 0.002338757 0.00041116707 -0.0002497307 -0.0056694136 -0.016981658 -1.4268701e-21 -1.89352e-40
3.4941746e-05 -1.2926396e-21 3.6666548e-22 -7.2120576e-10 1.4882816e-22 1.3403842e-24 -2.944506e-22 0.0069911364
-0.0009256057 -2.977947e-12 -7.711576e-24 -0.0028305724 1.59995e-40 -8.577313e-22 -0.00048978074 -0.0006272595
-4.8488864e-25 -6.880792e-23 2.430364e-09 7.8592254e-16 1.3074326e-15 5.1235308e-26 -0.004376713 -0.0029820253
-1.4961834e-08 -3.7736277e-07 -0.00016715517 3.725239e-24 -1.0762813e-11 -2.7854382e-33 1.997993e-16 1.565818e-24
1.9346253e-26 -5.607624e-20 4.6102442e-29 2.4963847e-06 1.2801052e-22 8.584285e-16 -3.9287293e-09 -0.00074833527
-6.3861467e-16 -0.00071721687 -6.8260497e-12 -1.0017565e-06 -0.046769634 1.5832454e-12 -6.748532e-05 5.7181445e-21
3.9831284e-06 -2.0848653e-11 -0.0032021748 -0.0029925725 -0.0008045178 4.4284897e-12 -0.008142119 1.491071e-07
1.769648e-11 -1.4275381e-10 -9.795475e-08 -0.00012531315 1.505269e-39 -1.0165087e-19 -6.856517e-22 -2.3749496e-14
4.3048466e-08 3.1898594e-22 -0.053551074 4.2917569e-16 -2.1507706e-30 2.9830799e-24 -2.1679558e-08 -6.4700036e-24
-2.5531e-40 -0.08068363 -0.0013240082 -0.03973502 8.1373174e-16 -0.0011187339 -0.0035981224 2.0542273e-11
-0.0060793906 0.0018436724 2.015502e-28 -1.755952e-18 -0.000309809 2.3817483e-07 1.2203569e-07 3.2923297e-20
0.058678176 1.2329587e-22 -2.8479471e-06 -5.7312488e-11 2.00408e-40 3.6107767e-23 2.6063701e-23 -1.788263e-24
-1.0051123e-05 1.4050154e-11 -0.003069805 6.051157e-11 0.00020447288 9.1907e-41 -2.0134311e-22 -0.0062253214
-4.7759445e-16 1.081921e-11 -0.007962713 1.9515081e-08 -0.018353295 3.1095465e-25 -3.820414e-07 1.0871899e-26
6.1169273e-16 -6.289806e-16 5.5018257e-10 -9.205375e-30 -2.099135e-28 -0.0127634425 -2.858589e-07 2.0712964e-08
00000000: acd8 c399 20b5 68ad 6c8a 57b8 5f55 5136
00000010: 0366 80b4 f046 1dbc 9376 d699 3d9a 0720
00000020: 84fb 069c c395 31b4 7838 569c ba12 0b12
00000030: 2a2b 9fbb 4038 17ba ad6f 4825 aa23 0bac
00000040: c8a8 cd2f d4de 95bc adf8 03bb 6175 36bb
00000050: ee4c 6b38 4564 9793 be93 93b5 60e6 8dbb
00000060: 4438 8298 35d6 f7b8 a291 df29 0d90 6abb
00000070: bb12 c82b 0c27 e19b 014c bd14 63dc 49ae
00000080: b996 4cbb c6a3 4d35 dbcd 4ebd 1dee 0080
00000090: 5ab2 a0b9 04d5 afba 44a9 c4bc a8a0 adba
000000a0: 6005 3a9d 3b4b da1a afe3 3932 d758 8ebb
000000b0: c041 acba ac3e 7fa9 d158 02b8 bfe7 67b9
000000c0: 272c d8bc a7c8 272d 3200 d612 8130 6933
000000d0: 0c86 0480 1c51 1c2e 7e50 b8bb 2cb9 431a
000000e0: 2dbd cdba e23e 049a 0a4e 882d 8308 aa2d
000000f0: ab03 a91d 1998 e916 d273 5cbd 218a 3b3d
00000100: 8194 81b1 046a 92af 610a b6bc 87d5 e1bc
00000110: 17ba 09bb a4cd 9abc b543 b819 d50a 241d
00000120: 00b6 46b6 a4f8 a39a 9066 abbd 54d1 6b97
00000130: bf55 3f26 106d 2e9b 296f 0dbb 0456 32bb
00000140: 981f 670f 0309 2cb4 fd84 0180 3e57 f3b9
00000150: 6ee0 0226 1f28 f6bc f218 0180 cf2d 6e9b
00000160: e290 7bba 0fb6 ba10 4bf6 a98a 51df d895
00000170: c640 931a 0086 532f b803 1410 4464 31a6
00000180: 88b4 e0bc 0862 009d f804 801c 224c 1ab9
00000190: 3321 d4b3 34d2 49bd 7281 78bc 2ec9 11b9
000001a0: aa33 0180 a26c 4dad e922 9c14 111d 66b2
000001b0: 6d00 0da6 c2fb 3825 7de3 b63d 4a67 1336
000001c0: 5e2d 1235 0ac9 912c 979e 2bba 7915 941c
000001d0: 2d2e b31d a26d 7aa8 d515 bcba 5497 019a
000001e0: 2b81 aba6 a298 55b3 ba2a 6011 2cb0 5abd
000001f0: 35ec 061d cc7b b435 67c5 1cbb b455 20a2
00000200: 0d2d ecbb d545 193b e991 d739 4aee 82b9
00000210: 7dc6 b9bb 1e1d 8bbc 5d9f d79c d60f 0280
00000220: 6a8e 1238 9356 c39c bca2 dd1b 583e 46b0
00000230: 16ec 331b 176a cf17 06fc b19b e715 e53b
00000240: 59a4 72ba ed8d 51ac e029 1599 2081 39bb
00000250: 00be 0100 df9d 819c a164 00ba ac6e 24ba
00000260: d610 1697 0a5e a69a 6a03 2731 d986 6226
00000270: c06b bc26 78b4 7d15 886a 8fbb 156e 43bb
00000280: 6c85 80b2 5898 cab4 6046 2fb9 fb1c 9018
00000290: 6757 3dad b867 6789 585a 6625 714c f217
000002a0: 9498 bf14 0268 849f 64c4 6910 9087 2736
000002b0: 56c1 1a1b d86c 7726 78fd 86b1 ee2b 44ba
000002c0: 7211 38a6 9c03 3cba 972b f0ac 1774 86b5
000002d0: 8491 3fbd 6dd2 de2b e886 8db8 8006 d81d
000002e0: d0a6 8536 fe62 b7ad 94db 51bb 091f 44bb
000002f0: 47e6 52ba 4ad0 9b2c 8666 05bc 3f1a 2034
00000300: eea8 9b2d a0f5 1caf 315b d2b3 7e66 03b9
00000310: 1464 1000 2e04 f09f bb39 4f9c 9cea d5a8
00000320: 4ae4 3833 afd0 c01b 5f58 5bbd 2767 f725
00000330: c27d 2e8e fccd 6618 da39 bab2 d04b fa98
00000340: b3c7 0280 763d a5bd 588a adba 30c1 22bd
00000350: ce8a 6a26 7ba2 92ba 7ace 6bbb 16b1 b42d
00000360: a035 c7bb 61a7 f13a c87e 7f11 ff90 01a2
00000370: dc6d a2b9 00bd 7f34 ea08 0334 d379 1b1f
00000380: 8758 703d 390e 151b 5c1f 3fb6 2010 7cae
00000390: a82e 0200 409b 2e1a 9912 fc19 335c 0a98
000003a0: 3fa1 28b7 452c 772d c82e 49bb fc10 852e
000003b0: c567 5639 3300 0100 ad68 739b c8fd cbbb
000003c0: 40a8 09a6 6455 3e2d 0a76 02bc 1ea2 a732
000003d0: a659 96bc bb78 c016 5f1b cdb4 1457 5714
000003e0: f54e 3026 944a 35a6 a83b 1730 0ab5 3a8f
000003f0: 6a0c 8591 c21d 51bc 2678 99b4 4aec b132

fc3.bias f4 [256]
0.004227403 -5.1906245e-06 -1.7445261e-23 2.53269e-40 1.4638061e-09 0.0016196716 1.4929324e-06 0.0008620316
0.0141114155 2.3922319e-06 -7.3576825e-07 1.5864865e-12 -4.436709e-23 -5.9040267e-21 -0.04873258 4.827434e-05
0.00044927085 3.2607812e-27 -0.06964827 2.815726e-24 -0.009063438 -1.0331136e-08 -1.2188231e-07 -1.7032602e-07
-8.423602e-07 -5.4906764e-23 3.1759104e-09 -0.016366037 -8.5834613e-16 -3.9679253e-07 -3.0857882e-25 -0.0017122142
-3.1199565e-06 8.347967e-12 2.5553056e-06 0.08330351 0.0023309996 0.00028434547 -3.2951982e-23 -9.7165e-41
6.432468e-27 1.6586133e-29 -2.0610207e-10 0.078796566 0.0017760396 2.515003e-25 -0.0003852415 4.6197035e-27
-0.02390284 2.7247617e-11 2.4251599e-22 0.0014392375 6.283968e-10 -0.13033953 -4.3176946e-09 1.37888e-40
-1.7835861e-37 -0.0001812367 4.923869e-06 6.9012585e-06 -0.006049562 -0.025907606 1.246157e-22 -0.01113489
-5.685991e-25 -0.00011243884 -0.029145733 1.50767e-40 7.173676e-07 -1.1613951e-05 0.0018596259 -2.796146e-28
-0.037318714 5.426506e-11 -7.179443e-11 -1.0372087e-26 -4.0165534e-05 6.227262e-08 5.2849893e-09 1.5738912e-14
-0.0003348222 -2.93917e-17 -0.023725953 -0.0015862931 -6.544925e-05 2.0697536e-38 -0.24671409 -0.0019680418
-7.5607e-41 -1.4371813e-29 3.3026314e-12 -4.5520922e-20 -0.007885968 1.3598027e-06 0.00043704791 -0.092497334
0.00014530572 0.049861938 0.0009968166 -0.00017064721 -0.0031260333 -8.943799e-05 -2.1927463e-06 -2.288762e-22
5.1369455e-24 -2.9983267e-09 1.3521987e-14 1.3981975e-07 -3.3889747e-29 -4.4057881e-16 -6.5212333e-07 -1.0348035e-06
1.2764791e-05 5.5459805e-07 1.2808892e-15 -8.015588e-06 0.0024679042 0.0014088392 0.00068609515 3.1008916
1.16147604e-23 1.3743e-40 1.771312e-23 3.3742798e-18 2.5151065e-08 6.484635e-30 0.0071826214 -3.7764557e-36
-8.274151e-24 0.0010350804 -0.010215506 -0.000952704 1.287313e-22 0.0016401784 5.1673095e-24 -0.0038154114
6.6235594e-16 -3.2721587e-13 -1.3183267e-13 1.6531093e-21 -6.584292e-05 -0.0007197879 2.2899052e-09 -1.2385372e-15
-1.446058e-05 -2.8223392e-21 3.9642027e-06 -0.00020001303 -7.856502e-21 1.501154e-06 0.004123288 -0.0069432557
-0.00024531173 0.0009011356 0.05863584 1.571546 -0.10008525 0.0036886996 0.017031033 -5.6161084e-06
-0.00023011802 1.4278936e-09 -0.01330902 -4.4966873e-05 3.0919628e-11 4.694431e-11 -3.7827566e-28 0.020106623
5.7822956e-12 8.19478e-27 -4.5890442e-07 -5.126445e-22 3.8049369e-16 -5.756429e-15 1.170915e-39 -0.0011730264
-0.0042649545 -0.0017445635 -3.889779e-25 -1.4745953e-22 -0.00023880915 0.0022110892 4.604435e-29 5.887328e-05
0.05535815 -0.00027297888 1.7840335e-07 1.7962126e-06 1.869965e-15 -1.9048502e-11 -0.2571281 -9.130604e-22
1.6715227e-07 -0.00028978148 3.3346706e-34 7.984102e-05 5.5609803e-07 -3.5739194e-07 -0.00019310205 0.009921206
-0.00015935581 4.3223663e-06 0.002502286 -1.1995506e-08 -1.5434402e-05 5.4006932e-09 -0.011497718 -5.881468e-25
4.9129758e-05 1.1373437e-05 -7.589616e-13 -1.0042813e-23 0.0004217124 2.3311306e-30 -6.876803e-16 -2.3856203e-06
1.3380486e-26 7.167798e-09 5.814194e-23 7.5812244e-07 0.0005775456 1.958119e-06 7.546388e-07 -0.0066763368
3.46691e-10 7.1231552e-06 7.594629e-23 -0.0012865438 -0.08122741 5.6463947e-28 0.008623615 1.0831191e-11
-0.07767587 0.0037168534 -0.0029157288 -3.4353937e-27 2.2564971e-07 -2.9364513e-05 1.02500565e-29 -1.762002e-21
1.6341096e-30 -2.9118744e-06 -5.4771e-41 -4.0970495e-05 1.9446965e-11 -6.3788237e-09 -2.3128882e-06 -0.00075961207
3.7084864e-22 -1.961199e-12 -2.2294628e-11 5.2526498e-06 -1.06175e-40 2.643504e-20 4.2369892e-15 0.04172271
00000000: 0786 8a3b 202b aeb6 60b8 a899 03c2 0200
00000010: 192f c930 294b d43a c460 c835 f6f9 613a
00000020: 9133 673c 3b8a 2036 9c81 45b5 3347 df2b
00000030: cc8b 569a 3e0c df9d d09b 47bd 2e7a 4a38
00000040: 1d8c eb39 402c 8113 c1a3 8ebd 33db 5918
00000050: d07e 14bc d17c 31b2 c1de 02b4 dce2 36b4
00000060: 8d1e 62b5 a4c1 849a 353f 5a31 1112 86bc
00000070: c466 77a6 c006 d5b4 4400 bf96 606c e0ba
00000080: 7260 51b6 e7db 122d d17b 2b36 089b aa3d
00000090: afc3 183b 3414 9539 9458 1f9a db0e 0180
000000a0: fad0 fe13 1034 a80f 939c 62af 1860 a13d
000000b0: 00ca e83a d0ab 9b16 3dfa c9b9 5c01 b713
000000c0: e4cf c3bc 2eac ef2d 8897 921b cca4 bc3a
000000d0: 7ebb 2c30 ba77 05be d85a 94b1 6080 0100
000000e0: e8c4 7282 5b0a 3eb9 b637 a536 5c91 e736
000000f0: 673b c6bb 303c d4bc b1a6 161b 1d6f 36bc
00000100: 10f9 2f97 24cd ebb8 08c3 eebc 47a4 0100
00000110: 2091 4035 8ad9 42b7 b1be f33a 103a b191
00000120: 82db 18bd 07a9 6e2e ace0 9dae bb70 4d94
00000130: 6a77 28b8 bcba 8533 4297 b531 76c3 8d28
00000140: 138b afb9 988b 07a4 ee5c c2bc 2aeb cfba
00000150: cc41 89b8 4f60 e100 9ea2 7cbe 43fa 00bb
00000160: c3d2 0080 5cbf 918f eb66 682c 6bf7 569f
00000170: 2634 01bc 7782 b635 9423 e539 3e6f bdbd
00000180: 355d 1839 083c 4c3d 9da7 823a c3ef 32b9
00000190: 23de 4cbb a890 bbb8 1827 13b6 e058 8a9b
000001a0: d8b9 c618 1f0b 4eb1 2997 7328 5c21 1634
000001b0: 68d7 2b90 f5f9 fda5 930d 2fb5 94e3 8ab5
000001c0: 5c28 5637 b0df 1435 7898 b826 b07a 06b7
000001d0: 90bc 213b cda8 b83a 11db 333a 0275 4640
000001e0: 82a9 6019 197f 0100 904f ab19 58fa 7822
000001f0: c70b d832 2686 030f 325c eb3b f6a1 a084
00000200: 9c0b 2099 89ab 873a f05e 27bc e2be 79ba
00000210: 68a0 1b1b 41fb d63a 8ee6 c718 fb0b 7abb
00000220: 3ee9 3e26 c734 b8aa 2e6e 14aa 92cf f91c
00000230: 2615 8ab8 26b0 3cba 705c 1d31 f57d b2a6
00000240: b89b 72b7 fb3f 559d 3e04 8536 97ba 51b9
00000250: b667 149e 427b c935 a61c 873b 4084 e3bb
00000260: 2f9d 80b9 303a 6c3a 222c 703d 6b28 c93f
00000270: 7ff9 ccbd 1cbe 713b aa84 8b3c 0172 bcb6
00000280: d64b 71b9 8a3f c430 130e 5abc d09a 3cb8
00000290: 68fc 072e 9876 4e2e bcc2 ef91 a5b6 a43c
000002a0: 4a72 cb2c 7950 2214 585f f6b4 f2ef 1a9c
000002b0: f556 db25 b065 cfa7 09c0 0c00 3cc0 99ba
000002c0: 08c1 8bbb d6a9 e4ba 02c4 f096 8444 329b
000002d0: d868 7ab9 ece7 103b fc78 6910 b4ee 7638
000002e0: 3abf 623d 9b1e 8fb9 248f 3f34 6515 f135
000002f0: c4be 0627 6a8d a7ad 4ba6 83be 50fa 899c
00000300: 777a 3334 d0ed 97b9 7ba0 dd07 5270 a738
00000310: c446 1535 93df bfb4 707b 4ab9 8e8c 223c
00000320: c018 27b9 d808 9136 65fd 233b cb14 4eb2
00000330: 2079 81b7 0091 b931 ed60 3cbc ca05 3697
00000340: ad10 4e38 8ad0 3e37 f2a0 55ab 9a41 4299
00000350: 4819 dd39 b01f 3d0e da35 46a6 a518 20b6
00000360: 9083 8414 9e48 f631 1e94 8c1a c781 4b35
00000370: 6e66 173a 3a68 0336 6292 4a35 2cc5 dabb
00000380: 6c98 be2f 7003 ef36 7aa0 b71a 3fa1 a8ba
00000390: 8e5a a6bd fff0 3212 104a 0d3c 598b 3e2d
000003a0: 8714 9fbd 7496 733b d015 3fbb 0817 8893
000003b0: 1f4a 7234 d053 f6b7 56e5 4f0f 1322 059d
000003c0: 2193 040e 9f69 43b6 ae98 0080 bcd7 2bb8
000003d0: ac0e ab2d ba2c dbb1 1e37 1bb6 b420 47ba
000003e0: 0c2a e01b d201 0aac 0a1b c4ad eb3f b036
000003f0: f927 0180 01ac f91e 54a7 9827 6fe5 2a3d

fc4.weight f4 [1, 256]
0.0860139 -0.5854968 -0.038269684 -0.4759695 -0.020520775 0.34936976 0.0050279163 -0.098004095
0.39068785 0.20534015 -0.1289923 -0.2168301 -0.018776443 -0.22995219 0.18067424 -0.012003356
-0.11443929 -0.15837677 -0.14265881 -0.33815953 -0.1510301 -0.002587066 0.42937076 -0.050722953
-0.12607518 -0.016157525 0.0060728267 -0.13716099 -0.6860635 0.07126155 0.00040425183 0.13731745
-0.45035294 -0.0378276 -0.16330947 0.11016003 0.02510285 -0.085349515 -0.30480415 -0.044379685
-0.0061864383 0.11809281 8.4026324e-05 0.20865408 0.41151235 -0.10488609 0.039743323 -0.016287997
0.067001164 0.02108123 0.003894959 -0.28630516 0.005644861 0.1554465 -0.00044110251 -0.22325289
-0.34737784 -0.0012057944 -0.047052883 -0.0012222008 -0.024523735 0.07239266 0.76790446 -0.025160357
0.054861974 0.6152393 -0.106855094 0.038264323 -0.03004311 0.0009072413 -0.40307483 0.14486384
0.2200908 -0.025962794 -0.1882095 0.06010603 -0.14819281 -0.49386498 0.115075715 0.2723135
0.0022822127 -0.12287193 -0.043204933 0.4166259 -0.4251072 -0.08642777 0.39128804 0.031881373
0.04100729 -0.05604699 -0.0011137959 0.330023 -0.0043129455 -0.3368309 -0.009169403 0.018084668
-0.049357716 0.16112064 0.13113697 0.005044278 0.0016801711 -0.24419823 -0.46655506 0.56536895
-0.06823557 -0.08466956 -5.658992e-06 -0.03751024 -0.004327624 0.10542424 0.0010119805 -0.0013567389
0.7878307 -0.053972695 -0.17651762 0.2654636 -0.009842697 0.27241772 -0.12808259 4.987329
0.1061314 0.06766762 0.100775585 0.1464177 0.0770539 -0.14823075 -0.5449911 0.04384984
0.24016109 -0.37856632 -0.033619147 0.48166153 -0.0502719 -0.018094502 0.20024303 -0.049544897
-0.09382457 -0.5706009 -0.23284362 -0.043867234 0.26136342 0.063180536 -0.00044536145 -0.41654778
0.03990451 -0.1619138 0.46128386 -0.004577491 -0.21793588 -0.48395446 -0.088435605 -0.3205485
0.006080476 -0.0017361044 -0.11762504 0.9342792 -0.11133079 -0.59195554 -0.020081937 0.14493506
-0.218118 -0.20311265 -0.037166636 0.6260236 -0.38181993 -0.004312555 -0.200963 0.2642145
0.026142836 0.11112648 -2.863165e-05 -0.13716872 -0.015518224 -0.19043654 0.059120078 -0.02328004
0.07379753 0.049108464 0.0063611325 -0.010717599 -0.11559373 -0.072337 -0.021120135 -0.120370716
0.24565074 0.006624691 0.039545525 0.07110577 -0.060687654 0.010385215 -0.14653574 0.050882854
-0.032179814 0.057238378 0.04563101 -0.013592059 0.52943087 -0.041303337 0.20947872 0.0024331692
0.07723817 0.10297784 -0.14232944 0.0025533668 0.044616207 0.07416357 0.21130097 -0.14516647
-0.08602809 -0.18769975 -0.2289844 -0.023065386 0.003699797 -0.036016967 -0.20792149 -0.16399072
-0.27622858 0.07358294 -0.10468668 -0.23631567 0.048750862 -0.23834063 -0.08631902 -0.05663371
-0.026813142 -0.33418047 -0.11475245 -0.19686109 0.15924501 -0.19506751 0.27265632 -0.21645585
-0.06123764 -0.069869466 -0.23870733 -0.045014165 -0.0030181892 -0.02302405 0.05878751 0.23645711
-0.018543387 -0.00039669542 0.012026112 -0.085402966 -0.19143409 -0.097525954 -0.2518784 -0.04259518
0.07684283 -0.43005875 -0.0064197797 -0.842073 0.049028233 -0.009007372 -0.24579547 -0.19347055
00000000: 0e28 b03d 1ee3 15bf acc0 1cbd 46b2 f3be
00000010: 2f1b a8bc 98e0 b23e 38c1 a43b 5fb6 c8bd
00000020: 3d08 c83e b044 523e 8f16 04be b608 5ebe
00000030: 0ed1 99bc 9678 6bbe ab02 393e b9a9 44bc
00000040: 255f eabd 852d 22be 2715 12be 3f23 adbe
00000050: a2a7 1abe c48b 29bb 7cd6 db3e dfc2 4fbd
00000060: da19 01be c95c 84bc 90fe c63b ee73 0cbe
00000070: dca1 2fbf 93f1 913d c3f1 d339 f29c 0c3e
00000080: a994 e6be 1df1 1abd 993a 27be 959b e13d
00000090: 7ea4 cd3c bacb aebd 4a0f 9cbe 79c7 35bd
000000a0: 9bb7 cabb a5da f13d 4a37 b038 6aa9 553e
000000b0: bfb1 d23e 85ce d6bd e5c9 223d 686e 85bc
000000c0: e837 893d 8bb2 ac3c 9242 7f3b 9796 92be
000000d0: 87f8 b83b 5e2d 1f3e c743 e7b9 689c 64be
000000e0: 82db b1be bf0b 9eba 86ba 40bd 4132 a0ba
000000f0: 00e6 c8bc 9a42 943d 6395 443f 181d cebc
00000100: f3b6 603d 5380 1d3f d8d6 dabd 0dbb 1c3d
00000110: f81c f6bc efd3 6d3a d35f cebe 3057 143e
00000120: 7c5f 613e edaf d4bc feb9 40be be31 763d
00000130: dbbf 17be dfdb fcbe d1ac eb3d ad6c 8b3e
00000140: 2d91 153b 47a4 fbbd a8f7 30bd fd4f d53e
00000150: a7a7 d9be 0b01 b1bd e856 c83e 0b96 023d
00000160: 43f7 273d 8791 65bd cafc 91ba c6f8 a83e
00000170: 9c53 8dbb 1a75 acbe 443b 16bc 4c26 943c
00000180: 512b 4abd cffc 243e c548 063e 794a a53b
00000190: 3039 dc3a 1a0f 7abe 4ee0 eebe 05bc 103f
000001a0: 17bf 8bbd 3c67 adbd 5fe2 bdb6 56a4 19bd
000001b0: bece 8dbb aae8 d73d 6ea4 843a 9ad4 b1ba
000001c0: 46af 493f 7912 5dbd 09c1 34be d8ea 873e
000001d0: 4343 21bc 567a 8b3e 1528 03be 3398 9f40
000001e0: 6b5b d93d 5295 8a3d 6e63 ce3d 86ee 153e
000001f0: 6fce 9d3d cdc9 17be 8984 0bbf e49b 333d
00000200: caec 753e 72d3 c1be 3bb4 09bd 579c f63e
00000210: e8e9 4dbd ec3a 94bc 820c 4d3e 97ef 4abd
00000220: 1927 c0bd e712 12bf 8f6e 6ebe 21ae 33bd
00000230: 6dd1 853e cc64 813d 677f e9b9 c045 d5be
00000240: e972 233d bbcc 25be 662d ec3e c7fe 95bb
00000250: 952a 5fbe e1c8 f7be ba1d b5bd ef1e a4be
00000260: bb3e c73b ff8d e3ba 66e5 f0bd ec2c 6f3f
00000270: 6601 e4bd 668a 17bf e082 a4bc db69 143e
00000280: 535a 5fbe c3fc 4fbe 0b3c 18bd 1543 203f
00000290: e77d c3be 5550 8dbb 3fc9 4dbe 1f47 873e
000002a0: 8029 d63c 4896 e33d 002e f0b7 f575 0cbe
000002b0: 2640 7ebc cc01 43be e527 723d c8b5 bebc
000002c0: 2923 973d f525 493d 0c71 d03b de98 2fbc
000002d0: 68bc ecbd 6c25 94bd 2204 adbc ec84 f6bd
000002e0: de8b 7b3e f013 d93b 7dfa 213d e79f 913d
000002f0: 9e93 78bd c026 2a3c 770d 16be 8a6a 503d
00000300: fbce 03bd ca72 6a3d 95e7 3a3d 3ab1 5ebc
00000310: c888 073f b02d 29bd 9781 563e ce75 1f3b
00000320: 0c2f 9e3d 0ce6 d23d cfbe 11be 6356 273b
00000330: 7cbf 363d 12e3 973d 485f 583e 85a6 14be
00000340: 7f2f b0bd 5d34 40be e37a 6abe 9ff3 bcbc
00000350: 4b78 723b 8786 13bd 5fe9 54be 2fed 27be
00000360: d56d 8dbe a7b2 963d f865 d6bd bcfc 71be
00000370: fcae 473d 910f 74be 07c8 b0bd c0f8 67bd
00000380: 3ca7 dbbc b419 abbe 5503 ebbd f495 49be
00000390: 2011 233e c7bf 47be 9c99 8b3e 9aa6 5dbe
000003a0: 52d4 7abd b917 8fbd b26f 74be c660 38bd
000003b0: d0cc 45bb ef9c bcbc 2ccb 703d d021 723e
000003c0: 4de8 97bc 8ffb cfb9 2b09 453c c0e7 aebd
000003d0: 4c07 44be b0bb c7bd 35f6 80be 4978 2ebd
000003e0: c65f 9d3d a930 dcbe 045d d2bb 1992 57bf
000003f0: d4d1 483d a893 13bc cfb1 7bbe 251d 46be
