shanghai_road_delivery/results_centralized/best_centralized_episode_2.pth_centralized_actor.pth (torch, 922162 bytes, 20 tensors)

fc1.weight f4 [256, 364]
000000 c1 01 9b bd b4 1b 11 3c 2c 63 8f 3b 94 f8 9b 3b
       -0.07568694 0.008856703 0.004375836 0.0047598574
000010 e4 9b 90 3b 38 ee 79 3b 50 54 75 37 10 e6 a6 36
       0.004413115 0.0038136374 1.46227685e-05 4.9739683e-06
000020 dc ea 1a b7 71 47 a0 b8 1e ac 1a 38 10 b8 9f bd
       -9.233798e-06 -7.6427015e-05 3.6876758e-05 -0.07798779
000030 b3 68 a5 ba 59 4d 9d b8 cc e0 0c 3a d4 b6 81 3b
       -0.0012619704 -7.5007505e-05 0.00053740735 0.0039585624
000040 eb 5d 9a bc f0 ab c8 38 cb 74 9f b9 99 c5 98 bb
       -0.018843612 9.568769e-05 -0.0003041386 -0.0046622274
000050 6b 49 12 3d 02 8e b2 38 27 21 06 3d b4 bc 8d 38
       0.035714548 8.5141524e-05 0.03274646 6.7585526e-05
000060 bc 61 fe 3c 88 8c bb b7 d2 49 9f b9 4c 64 d0 37
       0.031052463 -2.2357577e-05 -0.00030381844 2.4842237e-05
000070 20 35 cf ba 46 56 2a b8 81 b1 83 bb f4 b6 23 39
       -0.0015808679 -4.0611507e-05 -0.004018963 0.00015613047
000080 c0 b3 bd b7 52 2b 51 38 36 12 f0 39 ec 35 17 37
       -2.2614258e-05 4.986983e-05 0.00045789935 9.012856e-06
000090 e0 89 7a 38 68 fc 73 3b de 99 20 3b 04 6f b0 3b
       5.973305e-05 0.0037229303 0.0024505774 0.005384328
0000a0 a5 54 c3 bd 5d 17 a2 3c ec 04 88 bc 3c b8 0d bc
       -0.09537629 0.019786531 -0.01660391 -0.008649882
0000b0 e9 aa 97 3c 70 ac 8f 3c b0 c8 41 bc fa ef 49 bb
       0.018514114 0.01753828 -0.011827633 -0.0030813203
0000c0 36 b8 78 38 28 3f 99 3b 34 4b c0 38 88 39 73 3b
       5.9299367e-05 0.0046767183 9.169281e-05 0.0037113149
0000d0 a4 b7 81 bd c4 d0 54 bd a8 f0 a1 3b 38 6c 7e 3b
       -0.06333855 -0.051956907 0.0049420185 0.0038821828
0000e0 20 76 9e 3b 20 79 4a 3a 29 df a7 b8 e4 1f cc 38
       0.004835859 0.00077237375 -8.004747e-05 9.733418e-05
0000f0 88 b1 a6 b7 c2 6d 65 b8 46 fd 8f 38 a7 72 9a bd
       -1.9871411e-05 -5.4700075e-05 6.865947e-05 -0.075413994
000100 98 e6 70 ba 14 cd ad b7 77 17 b6 ba ce 31 c3 bc
       -0.00091896346 -2.0718704e-05 -0.0013892491 -0.02382746
000110 98 b4 88 bc 1d 8a fb 38 f2 c8 f5 39 7b 3e 7d bb
       -0.016687676 0.00011994338 0.00046879757 -0.0038641978
000120 b1 73 11 3d 7f b1 df 38 e6 0b 0f 3d 02 89 67 b8
       0.035510723 0.0001066653 0.034923457 -5.520229e-05
000130 8d 5e a1 3c c0 54 cd b6 d3 14 b2 38 75 ac 93 38
       0.019698406 -6.1193423e-06 8.49158e-05 7.041629e-05
000140 d4 07 e8 ba 0e 03 a9 b8 02 23 0c bb 36 6c aa b8
       -0.0017702528 -8.059117e-05 -0.002138317 -8.1263875e-05
000150 bc 65 e2 b9 1c 46 15 b9 86 98 0e b9 f6 04 1f b9
       -0.00043181877 -0.00014235865 -0.00013598995 -0.0001516527
000160 2a ca 0f bb fc e7 8c 3b e4 ae 2b ba e4 78 c7 3b
       -0.0021940568 0.0043001156 -0.0006549193 0.0060874093
000170 6c d0 a5 bd 34 34 36 3d 15 d0 a5 bc aa e6 bb 3b
       -0.08096394 0.04448338 -0.020240823 0.0057342844
000180 e4 bf 28 3d 2c bd a6 3b b6 46 46 bc a8 42 89 bb
       0.041198626 0.005088469 -0.01210182 -0.0041888542
000190 f4 b1 06 3a d0 3a 5b 3b 8c c8 00 b8 68 c6 a4 3b
       0.00051382114 0.0033451803 -3.0704352e-05 0.0050285347
0001a0 f1 e7 9a bd de 88 17 bd 48 52 93 3b f0 16 51 3b
       -0.075637706 -0.03699576 0.0044958927 0.003190454
0001b0 6c aa 87 3b 18 47 93 3b ee 35 08 b9 f6 02 fa 38
       0.004140189 0.004494559 -0.00012990061 0.000119214805
0001c0 83 f3 0e 39 4a aa 4d b8 b9 1f 25 38 92 ad 9f bd
       0.0001363289 -4.9034403e-05 3.936861e-05 -0.07796778
0001d0 a4 9e 5f 3b ae b1 c2 b8 68 4e 41 3b ea ef cb bc
       0.0034121657 -9.283736e-05 0.0029496197 -0.024894673
0001e0 a0 ea 7d bb c7 51 67 38 1c 68 00 39 49 f1 a6 bb
       -0.0038744584 5.5150853e-05 0.00012245815 -0.0050946814
0001f0 83 b1 14 3d 32 d1 91 37 b1 0a 16 3d 10 97 87 b6
       0.0363021 1.7382761e-05 0.03663129 -4.0408995e-06
000200 e8 07 d3 bb 86 b6 80 38 18 df 01 38 d0 d6 ed b8
       -0.0064401515 6.137513e-05 3.096377e-05 -0.000113410526
000210 f0 d3 74 39 9e 41 48 38 62 1b fd ba b9 d6 0a 39
       0.00023348606 4.7744827e-05 -0.0019310529 0.00013240696
000220 4c 97 6d b9 c0 db c0 b8 d6 13 62 b9 bc 10 60 38
       -0.00022658444 -9.196205e-05 -0.00021560429 5.3421347e-05
000230 ec b5 b9 b9 04 b1 a5 3b 6c c5 70 39 d8 0f af 3b
       -0.00035421492 0.0050565023 0.00022961729 0.005342465
000240 e3 51 ec bd 71 66 3c 3d ee 2c bc bc 16 ed 11 bc
       -0.11539056 0.045996133 -0.022970643 -0.008906623
000250 c7 93 fa 3c 86 2e 1a bc f2 91 e3 bb fe c4 66 3b
       0.030588044 -0.009410506 -0.0069448883 0.0035212631
000260 0c 1f 3d 3b 58 32 4d 3b 32 1b 44 b8 80 4d 7d 3b
       0.0028857617 0.0031310525 -4.675537e-05 0.003865093
000270 06 45 a3 bb a9 c8 1d 3d a8 bf 98 3b 8c 36 b8 3b
       -0.0049825935 0.038521443 0.004661519 0.005621737
000280 b4 2c 9b 3b a4 30 a0 3b 79 9d 54 b8 27 6b 8e 38
       0.0047355536 0.004888611 -5.0691397e-05 6.791046e-05
000290 b4 4b d4 b8 8c fb 8c b7 42 43 59 38 71 25 a0 bd
       -0.000101230486 -1.6806436e-05 5.179947e-05 -0.078196414
0002a0 a0 c0 0b 38 87 e6 0a b9 54 22 dc 3a 00 ec 0e 37
       3.331958e-05 -0.00013246584 0.0016794899 8.518808e-06
0002b0 14 a6 99 bc e0 4a 8f 37 2e 14 03 3a da 35 b9 bb
       -0.01875595 1.7081795e-05 0.00050002604 -0.0056521716
0002c0 3f 7c 0b 3d 4a 0d 21 b8 0f a9 05 3d 14 9d 0f 39
       0.034054037 -3.8397768e-05 0.03263193 0.00013696059
0002d0 96 7e 8e ba ac e3 a9 b8 fe 1b b1 3a 5f dc 0e 39
       -0.0010871466 -8.100955e-05 0.0013512371 0.0001362427
0002e0 34 57 23 bb be 7a 01 39 df f8 c7 ba 90 7f 4d 38
       -0.0024923803 0.00012348124 -0.0015256664 4.899461e-05
0002f0 23 77 ba 3b c6 39 b6 38 52 76 f8 39 e8 7e be b8
       0.0056904717 8.6891974e-05 0.00047390402 -9.083544e-05
000300 10 58 9b ba 74 6e 96 3b 85 c9 0a bb 24 0a a9 3b
       -0.0011851806 0.0045908038 -0.0021177244 0.0051586796
000310 d3 61 c3 bd 5e f6 31 3d ee ca 86 bc d0 84 27 bc
       -0.09540143 0.043447845 -0.016454186 -0.010224536
000320 13 3c 8b 3c 14 86 d0 3a f2 f0 21 bb d5 79 90 bb
       0.016996419 0.0015909099 -0.0024710265 -0.0044090548
000330 32 f3 33 3a e0 77 8d 3b 30 79 ab 38 c0 b6 aa 3b
       0.0006864547 0.0043172687 8.176488e-05 0.005209774
000340 50 e6 9b bd cb 85 0e bd 3c 74 aa 3b d0 d9 9e 3b
       -0.07612288 -0.034795564 0.0052018445 0.0048477426
000350 08 0b a5 3b b8 49 6c 3b 36 9c d5 b7 00 31 80 36
       0.0050367154 0.0036054682 -2.546432e-05 3.8204016e-06
000360 ef 0f cf 38 54 ea 22 b8 82 6f ff 37 88 eb a0 bd
       9.873497e-05 -3.8842045e-05 3.0450294e-05 -0.07857424
000370 44 02 4f 3b dd eb de b8 bc 24 19 bb ea 5f c3 bc
       0.0031587044 -0.00010629718 -0.0023367843 -0.023849446
000380 3f be 9c bc 6b 8f 86 b8 00 8e 78 38 cc 95 9a 3b
       -0.019133685 -6.4163316e-05 5.9260055e-05 0.004717564
000390 6e 1c 14 3d 47 89 8e 38 4e 39 15 3d 59 20 0f 39
       0.036159925 6.7966575e-05 0.036431603 0.00013649593
0003a0 fc ea 7b 3a 36 49 9c b8 24 61 81 b7 9c 52 be b8
       0.00096099055 -7.452296e-05 -1.5423233e-05 -9.075293e-05
0003b0 50 1c 97 ba d4 66 b2 38 16 b0 d1 b9 1a a5 a8 37
       -0.0011528824 8.506855e-05 -0.0003999478 2.0104042e-05
0003c0 e7 90 20 bb 0b 5d 2e b8 73 43 0b bb 83 81 89 38
       -0.002450043 -4.1571486e-05 -0.002124992 6.5567925e-05
0003d0 28 b7 1d 39 64 99 b3 3b d1 2a bc ba d4 5b aa 3b
       0.00015040918 0.005480932 -0.0014356022 0.005198935
0003e0 5e b9 6e be c4 9a 34 3d 41 cc 1b bc 4e 4f 29 bc
       -0.233129 0.04409291 -0.009509147 -0.010333849
0003f0 57 b6 91 bd 6f 1d bf bc 00 80 a5 3a 45 a4 b3 bb
       -0.07114857 -0.023329465 0.0012626648 -0.005482229

fc1.bias f4 [256]
000000 98 3e 9d 3b cc 26 a3 3a 88 73 27 38 95 28 b2 bd
       0.0047987215 0.0012447475 3.99235e-05 -0.08699147
000010 c7 49 d6 3c e8 81 11 39 84 fa 45 3b e1 70 ae be
       0.026158227 0.00013876671 0.0030209133 -0.34070495
000020 b2 6d b2 be a0 e0 3f 3a 5c d2 93 b8 e6 c2 a9 be
       -0.34849316 0.00073195435 -7.048689e-05 -0.33156508
000030 13 fd 36 bd 0e f6 b8 3b 8a 99 e5 b8 84 1d a5 be
       -0.044674944 0.0056445664 -0.0001094817 -0.3224908
000040 e1 79 40 3b 50 a5 d1 38 08 11 d4 ba b3 da 0c 3b
       0.002936952 9.9966885e-05 -0.0016179392 0.002149266
000050 b1 bd e5 3b ee 52 d5 b9 cf ad 9c bc 9b d0 94 b9
       0.0070111384 -0.00040688313 -0.019125847 -0.00028384183
000060 4b 15 85 ba 50 05 5c bc f4 74 bd 3b c4 8c c3 3e
       -0.001015344 -0.013429001 0.005781764 0.38193333
000070 98 db 05 3e 7e a0 fd 3a 9a 57 65 3b 8a 28 60 3c
       0.1307205 0.0019350199 0.0034994842 0.01368154
000080 30 af 09 3e 4e 7a df 3c fd 23 9b be f1 56 4e 38
       0.13445735 0.02728 -0.30300894 4.9195198e-05
000090 45 de a7 be 58 51 b0 3b e2 2e d4 3c d5 c2 bc be
       -0.32786766 0.0053807907 0.025901262 -0.36867395
0000a0 b6 71 b6 bc 86 0c ac 3b a2 b9 0e 38 aa 47 61 bc
       -0.022271018 0.0052505163 3.4028322e-05 -0.013749996
0000b0 ee da ad be 50 90 6b ba 4f 69 ae b9 be a6 bd be
       -0.33956093 -0.0008986043 -0.00033266327 -0.37041277
0000c0 17 e4 a3 ba 60 67 97 39 f4 cf 6b 3b 94 85 27 3b
       -0.0012503889 0.00028877985 0.0035982104 0.0025561797
0000d0 7b 76 bc be 61 cc b3 be a4 9a ac 3d 61 34 ab bc
       -0.36809143 -0.35116866 0.08427933 -0.020899
0000e0 70 61 a0 be 02 af d7 39 44 11 86 3b 00 8e 5a be
       -0.3132434 0.00041138387 0.0040914137 -0.21343231
0000f0 d0 52 38 bc 4e ab 95 bd 13 e0 85 3d de 91 68 be
       -0.011250213 -0.073080644 0.065368794 -0.22711894
000100 50 cb b1 be 43 47 2b bc 66 00 c3 3a 34 28 81 39
       -0.34725428 -0.010454002 0.0014877438 0.0002463475
000110 69 2e a9 3c e6 30 64 bc 4e f0 a9 be 30 aa 8f 3e
       0.020652013 -0.013927674 -0.3319115 0.2805953
000120 d1 e0 07 3e 51 2c 80 3b 86 58 bc ba 6e dd 01 bc
       0.13269354 0.003911533 -0.0014369644 -0.007926328
000130 4a 51 f5 38 f2 49 90 bb 3d 6b c1 3e ab 0a 0f be
       0.00011697652 -0.004403346 0.3777713 -0.13968913
000140 5b a2 36 bd 4b fb c5 3e 1c 74 d5 bb 04 52 29 3a
       -0.044588428 0.38668284 -0.0065140855 0.00064590597
000150 70 28 6d bd d4 73 03 ba d4 77 bb be 6e 15 ab bb
       -0.057899892 -0.0005014513 -0.3661486 -0.0052210605
000160 1c b8 9b bc 99 5f 39 3e c6 45 e3 39 f0 85 6a 37
       -0.019008689 0.18102874 0.000433488 1.3978672e-05
000170 6a fa ba bb 65 92 95 be 3f 57 4b 3d 5c ba b1 bc
       -0.005706121 -0.29213253 0.04964375 -0.021695308
000180 b6 7e f4 bb f6 dc 84 3a c0 7b 8d b7 33 9f 9a bd
       -0.007461394 0.0010136652 -1.6866135e-05 -0.07549896
000190 a5 8f c0 3a 27 b5 47 bb 1d fb 31 3e 6d 8d 68 be
       0.0014691247 -0.0030472965 0.17380948 -0.227102
0001a0 de 7f 28 bc cc 6a b3 ba 20 9d a3 b9 e4 67 1a bb
       -0.010284392 -0.0013688444 -0.0003120685 -0.0023560459
0001b0 54 56 24 bc 10 f0 03 ba 5d 3c 7f 3b 96 9c 40 3b
       -0.010030348 -0.00050330255 0.0038945891 0.0029390207
0001c0 ba 68 70 bc 20 9d 33 3b 0a c4 4c bb 95 b0 65 b9
       -0.014673406 0.0027406886 -0.0031244778 -0.00021904924
0001d0 18 e1 27 3a 0a f2 b1 be fc 62 7e 36 54 6f fd 3a
       0.0006404086 -0.34754974 3.7906566e-06 0.0019335547
0001e0 44 61 78 bb dd b9 1f 3a 70 e3 11 b9 c6 92 46 3e
       -0.0037899772 0.00060930644 -0.00013913005 0.19391927
0001f0 01 9b a8 bc b4 04 10 bc be 09 df 39 e0 2c 39 b6
       -0.020581724 -0.008790184 0.00042541133 -2.759327e-06
000200 06 a5 ab be 2e 9f c3 39 1c 07 10 39 5e 5c ed bc
       -0.3352434 0.00037311896 0.00013735559 -0.028974708
000210 03 3b 03 3b 94 dd 95 3a b8 d3 83 3b 6b a4 a0 bc
       0.0020024187 0.0011433833 0.0040230416 -0.01960965
000220 4f 67 c9 be e4 ec 53 b8 0a 6d bb 3e 0f e0 c4 3e
       -0.3933663 -5.052694e-05 0.36606628 0.38452193
000230 80 c2 27 ba 9e 04 92 3b 60 2c 61 39 ec 69 81 3c
       -0.0006399527 0.004456117 0.00021474203 0.015797578
000240 66 5b 89 bc 5c ed 42 39 09 a6 ad be 70 f9 d8 3b
       -0.016767215 0.00018589705 -0.33915737 0.006621532
000250 7a 81 b1 be 82 d9 44 bc 46 91 a8 be e0 9f b5 39
       -0.34669095 -0.0120147485 -0.32923335 0.00034642126
000260 3c 63 9d 3a 95 7a 39 bd 1e 91 97 3a 66 92 d1 3d
       0.0012007724 -0.04528292 0.0011563634 0.102330014
000270 f1 0b 12 bc 85 2b 57 3c a2 41 b5 be 91 c9 cc be
       -0.00891398 0.013132934 -0.35401636 -0.39997533
000280 38 3a a8 bd 05 05 af be 83 2c 05 3c 9c 01 2f 3a
       -0.08214229 -0.34183517 0.008128288 0.000667596
000290 e8 30 56 38 c4 da bd bb 5c 7b 23 3c d9 5f 8f bc
       5.1067123e-05 -0.005793901 0.009978142 -0.017501758
0002a0 c6 45 c4 3b 7c 43 df ba 59 79 a4 be 8f 77 8e be
       0.005989763 -0.0017033662 -0.3212383 -0.2782559
0002b0 05 5b c4 bb c3 87 22 3b 6c e7 35 3b 40 db 7c 39
       -0.0059922957 0.0024800159 0.0027756346 0.0002411427
0002c0 02 b4 ba be ee e5 57 ba bb fc b5 be cc bf b1 be
       -0.3646546 -0.00082358613 -0.3554438 -0.34716642
0002d0 5d 6f d5 ba c9 5c c3 39 f8 94 87 ba f2 e0 9f be
       -0.0016283799 0.0003726243 -0.0010344079 -0.31226307
0002e0 d0 06 98 bc b6 fa 8c bc 12 a7 8c 3b 02 04 1a ba
       -0.018557936 -0.017209392 0.0042923773 -0.0005875231
0002f0 dc 36 59 bd 30 ce b3 b8 61 02 6e be a8 9b 83 39
       -0.053030834 -8.5737905e-05 -0.23243095 0.0002510224
000300 6a 91 0a bd 59 a9 a8 3e 69 3e a3 be ef be a2 3a
       -0.033830084 0.32941702 -0.31883553 0.0012416522
000310 3a 90 e9 39 f8 01 80 bb c3 2a 0a 3b ea 03 6a bb
       0.0004454868 -0.0039064847 0.0021082617 -0.00357079
000320 aa a9 5d be dc 24 9a 3b 9c 36 01 ba c1 88 b6 38
       -0.21646753 0.004704101 -0.0004929097 8.703909e-05
000330 12 10 4e 3b 9a 4a c0 3e 88 41 76 ba 82 12 93 3d
       0.0031442684 0.37556916 -0.000939392 0.071812645
000340 c8 c0 ea b8 f1 10 21 b9 f6 52 14 3c 6e 7d d5 bd
       -0.00011193898 -0.00015360468 0.009052983 -0.104243144
000350 ea b0 87 bc d8 b6 8f bb 4f 22 a6 3e cc c2 14 3a
       -0.016563851 -0.0043858103 0.3244805 0.0005674779
000360 68 d8 22 3a c8 79 dc 3a 07 24 be 3c d3 ac ba be
       0.00062120566 0.0016820962 0.023210539 -0.3645998
000370 90 c2 dc 3c 6c e7 52 bb c8 53 c5 bb 31 3b b8 be
       0.026948243 -0.0032181395 -0.0060219504 -0.3598266
000380 04 77 83 bc fa f2 9d bd a7 c8 b6 be 0e 35 b6 be
       -0.016047962 -0.0771236 -0.3569996 -0.35587353
000390 04 f5 84 bb 21 99 9a ba 8a 01 02 39 45 77 42 3d
       -0.0040575285 -0.0011794904 0.0001239834 0.047477026
0003a0 8f 33 c8 bc 63 3d 9e 3a 50 d3 5a bc c8 c1 3a ba
       -0.024438648 0.0012072738 -0.013356045 -0.00071242126
0003b0 ec 2f 2a 3a 32 84 86 bd ee 14 34 3d 80 10 b9 ba
       0.0006492126 -0.06568183 0.043965273 -0.0014119297
0003c0 27 7f 7f be 2e c3 ca ba 79 14 14 3b a6 1d 7d ba
       -0.24950849 -0.0015469545 0.002259521 -0.0009655602
0003d0 9d 4b 08 bc 00 f7 e6 ba 46 01 0e 39 1a 77 bd 3e
       -0.008318809 -0.0017621219 0.0001354265 0.3700493
0003e0 90 19 da 39 77 d4 7c bc 52 cf 82 be 75 a8 9e be
       0.00041599246 -0.015431515 -0.25548798 -0.30987898
0003f0 27 45 1b 3d ff 47 af 3e 88 a6 84 b9 80 44 bd ba
       0.037907746 0.34234616 -0.00025301077 -0.001443997

fc2.weight f4 [256, 256]
000000 77 1f be be f0 5d 88 39 e3 7d 15 bb 90 aa 38 3b
       -0.3713338 0.0002600993 -0.002281063 0.0028177835
000010 6e 90 6e 3b 2d 52 e8 3b 08 09 21 3b 42 b1 9b 3b
       0.0036402005 0.0070898742 0.0024572033 0.0047513554
000020 26 3a fd 3c 69 38 8f bc 40 8a 2d b9 e0 c7 27 3a
       0.030911516 -0.017482953 -0.00016550068 0.0006400328
000030 7a a3 a5 be 98 ef 67 bb 9b d9 24 3c 14 6c 9d 3b
       -0.32351285 -0.0035390612 0.010061647 0.0048041437
000040 c7 94 bd 39 47 88 c0 3b 6b 71 b9 3b d6 5a f1 bc
       0.00036159737 0.0058756205 0.0056592724 -0.02946226
000050 f5 a1 6c bc c0 d6 02 3b 65 4a 63 bd 04 63 a7 39
       -0.01444291 0.0019964427 -0.05549087 0.00031926495
000060 85 7b 64 bc 90 b1 17 3a 8a a2 5d bc 37 b6 22 be
       -0.013945465 0.0005786652 -0.013527522 -0.15889822
000070 7d 0f 58 be 9a 5b 61 bb 7f d3 bf 3c f7 9f 80 bd
       -0.21099658 -0.0034386874 0.023416279 -0.06280511
000080 cc a1 a7 be dc c7 0f bd 00 c1 94 3d 64 1a 93 37
       -0.3274063 -0.03510271 0.07263374 1.7536055e-05
000090 05 a8 a5 3d 3c e6 50 bb fd a4 02 bb 5a 9f 09 3e
       0.08088688 -0.0031875512 -0.0019934766 0.13439694
0000a0 7d 22 2a 3d b4 92 95 bc 6b fd bf b9 7c 7f 91 ba
       0.041536797 -0.01825843 -0.0003661917 -0.0011100615
0000b0 4b 42 5a 3d 6b 51 23 ba 77 1c f1 ba c3 28 89 bb
       0.05328588 -0.0006230089 -0.0018395324 -0.0041857674
0000c0 d7 be 1c bb 4a 68 e2 ba 3c cd 42 bc 10 04 99 3d
       -0.002391746 -0.0017273512 -0.011889752 0.07471478
0000d0 78 c7 ce 3d 2b cd f2 3c ff e1 a3 be c2 f1 14 bd
       0.100966394 0.029638847 -0.3200836 -0.03636337
0000e0 31 10 c7 3b f7 b2 b7 bd f5 02 39 bd 1b a0 a7 3d
       0.006074928 -0.08969682 -0.045168836 0.081848346
0000f0 1f 54 a4 be b3 a9 96 be 3a 1a f9 3a 4d f5 68 bc
       -0.3209543 -0.29426345 0.0019005009 -0.0142186405
000100 5a ab 3c 3d b7 6a a1 bd 79 b5 d4 bb 44 93 c4 37
       0.04606185 -0.07881682 -0.00649136 2.3433597e-05
000110 80 dd 57 bc bd 64 72 bd c5 eb 6d 3d 2e b0 4a be
       -0.013175368 -0.059178103 0.058086175 -0.1979377
000120 65 89 b9 be 3e 73 6f b8 6f 8b a7 3c 0c 4b 60 3c
       -0.36237636 -5.7089368e-05 0.02045223 0.013689768
000130 cf 06 90 3a 6f 7f 7f bc 8a 8d 00 3d d6 67 9e 3d
       0.0010988357 -0.015594347 0.031384982 0.07734649
000140 5c 7e 8b be 34 5c 80 be 1c 5d 50 be ca 75 7c bc
       -0.27244842 -0.25070345 -0.20348018 -0.0154089425
000150 ac c3 9f be 10 76 e1 3a 51 d5 97 3d 82 8d 86 bc
       -0.31203973 0.0017201323 0.07413734 -0.016424898
000160 34 12 83 ba 43 db 10 be bc e0 7a bb 94 0b d9 3a
       -0.0009999932 -0.14146142 -0.0038280925 0.0016559237
000170 28 74 1d bb 66 ec e9 3d ec 90 a2 bc 72 f3 9a bd
       -0.0024025533 0.114220425 -0.019844495 -0.07565965
000180 fe a4 19 bc 34 f9 8a 3b ca 99 eb bb e8 c1 00 bb
       -0.009377716 0.004241133 -0.007189964 -0.0019646827
000190 1d 03 97 bb 6a 8d 26 bc d2 a2 bc bc 4d 92 96 bd
       -0.0046085254 -0.010165552 -0.023026858 -0.073521234
0001a0 c8 5d 94 3a b2 93 f3 ba f2 b8 a6 ba d8 0e 38 bc
       0.0011319453 -0.0018583445 -0.0012719913 -0.011234008
0001b0 92 6d be 3c 77 34 4a 3a ff 53 39 3a c0 da 64 bc
       0.023245607 0.00077135063 0.00070697063 -0.01396817
0001c0 a0 4a 8a bc 90 58 81 3a 26 04 3c 3d 99 0d ac ba
       -0.016881287 0.0009868313 0.045902394 -0.0013126611
0001d0 dc ca 2a 3b 73 41 2b 3d 9c 9d ca b8 fa 1c d3 bc
       0.0026060855 0.041810464 -9.6614676e-05 -0.025770653
0001e0 22 a5 fa bc 54 20 13 bc f8 16 87 3b 76 cf b6 bd
       -0.03059632 -0.008979876 0.004122611 -0.08926289
0001f0 a5 e0 4e bd 44 ef 89 bd d9 35 0d bc 3a cf 35 39
       -0.050507206 -0.067350894 -0.008618795 0.00017338703
000200 4c 77 21 3d 09 ec 83 39 e8 8e 8d 39 7b 17 65 be
       0.03942041 0.00025162127 0.0002700009 -0.22372238
000210 27 af 25 3c 30 4f f4 ba 36 34 9a ba e6 3d 60 bd
       0.01011256 -0.0018639322 -0.0011764828 -0.05474653
000220 05 7f 6f 3d 9a 45 28 b9 6a 0c 84 be 8b ae 82 be
       0.058470745 -0.00016047657 -0.2579072 -0.2552379
000230 e6 b2 a8 bd c4 3c 80 bb 4b b7 9b bc 69 9f bb 3b
       -0.08237247 -0.003913494 -0.0190083 0.0057257903
000240 b2 ff 8b be 51 25 1e bc bd 55 47 3d 50 56 23 3a
       -0.27343518 -0.009652452 0.04866575 0.0006230818
000250 9e d9 99 bb 4a b1 8b bb f1 c0 49 3d 7b c1 02 bb
       -0.0046951314 -0.004263078 0.04925627 -0.001995175
000260 ae 8e 7f bb 47 4d 00 ba cb f0 74 3a 5f a8 ba be
       -0.0038994956 -0.0004894328 0.0009343742 -0.36456582
000270 48 c4 16 3b fc cb 2e bb 3d 0b d9 3d 29 14 71 bc
       0.0023005176 -0.0026671877 0.10597847 -0.014714279
000280 8a 40 d2 39 6a e4 b9 3c b3 9b b4 3c 1a 66 6b bb
       0.00040102407 0.022691924 0.0220469 -0.0035919012
000290 46 98 5f ba 26 0e 57 be 18 df 30 be 19 ab e2 bb
       -0.00085294654 -0.21001491 -0.17272604 -0.006917369
0002a0 79 9c b6 3b 18 61 17 3d ba bc 83 3d 2c 0f 8e 3c
       0.005572852 0.03695783 0.06432481 0.017341219
0002b0 54 e4 74 3b ff a5 05 ba 30 89 7a 3a e7 9d a7 bb
       0.003736754 -0.00050982827 0.00095571857 -0.005115259
0002c0 7d ff 85 3c 42 89 09 3c 23 95 65 3d d5 b7 9e 3d
       0.016357178 0.008394541 0.05605043 0.07749907
0002d0 d6 8a b6 3c 0d b7 f7 b9 ba 6e 61 bc 07 ac a9 3c
       0.022282999 -0.00047247895 -0.013759309 0.020711912
0002e0 1d 22 82 bc 0f cc 9e bd 21 f1 81 bb 08 e8 54 bc
       -0.015885407 -0.07753765 -0.0039655124 -0.012994774
0002f0 42 5c a4 be a3 e0 12 bb e1 2f ef bc fb 32 b0 bc
       -0.32101637 -0.0022411726 -0.029197635 -0.021508684
000300 2f 18 83 be 12 54 33 be c8 f6 38 3b 73 90 8a bb
       -0.25604388 -0.17512539 0.0028223265 -0.0042286455
000310 29 29 87 ba d0 4e ac b9 c2 10 83 bc 88 bd 95 bc
       -0.0010311949 -0.00032865116 -0.015999202 -0.018278852
000320 2f 20 50 3d dd 98 c2 3b ec c8 01 bb bc 21 c6 b8
       0.050811943 0.005938633 -0.0019803597 -9.447659e-05
000330 c4 b2 14 be b9 fd c7 be 2b d9 9a 3b 84 a2 a2 3b
       -0.14521319 -0.39060763 0.0047255955 0.004963221
000340 da 06 9b 3a 00 c1 48 b9 1a 74 69 3d f6 32 e7 3c
       0.0011827603 -0.00019145384 0.05699549 0.028222542
000350 bc 6a 74 3c ba 97 14 bb 59 a5 9d be 88 5b bc 3a
       0.014918026 -0.0022673444 -0.30790213 0.001437054
000360 ec 6b b0 39 b0 34 51 bc 0d ca 2c be 73 7f 10 3c
       0.00033649744 -0.012768909 -0.16873951 0.008819449
000370 1b 71 fb 3b da a9 ef bb 6e 57 c3 be 34 fa 62 3d
       0.0076733953 -0.007313949 -0.3815264 0.055414394
000380 a7 8d bb bd 7a de a6 be 84 f0 36 3c c8 c0 01 bc
       -0.091578774 -0.3259161 0.011165742 -0.007919498
000390 00 a7 bf bd 74 12 2f ba 50 14 e2 b6 ad 04 ba 3b
       -0.093580246 -0.000667847 -6.7376895e-06 0.005676827
0003a0 7a 1d 99 be f4 d3 0a bd 07 95 21 bc 39 84 cb bb
       -0.299053 -0.03389354 -0.009862191 -0.0062108305
0003b0 d3 8c 19 3c f4 dc a6 be 51 0f e0 ba ea 18 81 38
       0.009371954 -0.3259045 -0.0017094408 6.15584e-05
0003c0 ed 1f 54 3c 9e 0f ab 3c 7d 65 de bb be 77 28 3d
       0.012947065 0.02088147 -0.0067870007 0.04112982
0003d0 e8 01 a1 bc dd 9d af bb d9 10 cb 39 df d9 6d be
       -0.01965423 -0.005359395 0.0003873173 -0.23227642
0003e0 c1 4f 0c 3c 14 2d 1b bb dd 7b 2a 3c db 40 18 3b
       0.008563937 -0.0023677992 0.010405508 0.0023232016
0003f0 1c e7 c9 3b 50 d7 85 be 3d 3b 13 bb 28 f2 85 bc
       0.0061615836 -0.26140833 -0.0022465729 -0.01635082

fc2.bias f4 [256]
000000 35 c5 f2 3d a6 ac cd be 23 f9 9b 3e 4d 46 8b 3e
       0.118540205 -0.40170783 0.30463514 0.27202073
000010 16 2d ec ba a6 3c c3 3e ed b1 94 3e 76 1d 15 3e
       -0.0018018808 0.3813221 0.29041997 0.1456202
000020 a0 7d 4f 3b 94 22 d5 ba 18 bd 63 bb 3e 6c 30 be
       0.0031660572 -0.0016260915 -0.003475016 -0.17228791
000030 64 b9 63 3b 9c 7a 0e bc d0 ab 25 b9 36 ce 9d bd
       0.0034747953 -0.008696225 -0.00015799631 -0.07705347
000040 d0 24 c6 3a 90 dd c9 be 17 10 bf bb c1 a1 a7 3e
       0.0015117172 -0.3942685 -0.0058307755 0.32740596
000050 75 1f 00 bd 6f 29 6b bd 8c 3a 42 b9 90 99 7a be
       -0.03128 -0.05741256 -0.00018523092 -0.24472642
000060 a1 50 63 be 6c 0b bc 3b 8a 6a f4 bc 4b 74 ca 3e
       -0.22198726 0.0057386663 -0.029835958 0.3954185
000070 dc c1 cc 3e 73 58 48 3c 01 bb 3c b9 b4 95 00 3b
       0.39991653 0.012228119 -0.00017998742 0.001962048
000080 28 b5 46 3e 65 b8 58 bb 27 55 9f 3e 7f 07 bb 3c
       0.19405043 -0.0033068892 0.31119654 0.022830723
000090 f9 5f 7a 3a 8e 57 cc 3e 95 a1 66 3c e1 12 88 bd
       0.0009551044 0.3991055 0.01407661 -0.06644226
0000a0 2b 8d 44 ba e3 fc ef 3c f2 c1 c4 bb 05 3f c4 bb
       -0.00074978423 0.02929539 -0.0060045654 -0.005988958
0000b0 00 e1 19 39 08 1e 36 ba 6e b0 2e 3c 9b f7 77 3c
       0.00014675036 -0.0006947224 0.010662181 0.015134717
0000c0 f8 46 be 3b 06 2e 9d 3e 31 7f ca 3e d8 49 b7 be
       0.0058068 0.30699176 0.39550164 -0.35798526
0000d0 92 14 46 3e f6 ea 44 3e 98 e1 c7 be 26 7c b0 ba
       0.19343784 0.19230255 -0.39039302 -0.0013464733
0000e0 b2 be a7 3a d4 f7 a8 3e 1d 08 a2 be ff a2 4b 3b
       0.001279792 0.33001578 -0.31646815 0.0031072495
0000f0 c8 c1 5c bd 18 62 a4 be 80 78 69 bd 1e 05 ec bc
       -0.05389574 -0.3210609 -0.056999683 -0.028811034
000100 5e 3b ce 3e 62 cd 6c 3d 02 4a 8c b9 4c a7 78 ba
       0.4027967 0.057813056 -0.0002675802 -0.00094853784
000110 6c c1 c5 3e e6 24 a2 3d 70 c9 ff bb aa 82 10 bd
       0.38624132 0.07917194 -0.0078059956 -0.03528086
000120 59 e3 7d bc 56 da 01 bb db 09 13 3d b9 be 4f 3b
       -0.015496098 -0.0019813976 0.03589807 0.0031699373
000130 77 bc 99 be ee 29 2d bb e3 23 b3 be bc 5b 9d ba
       -0.300266 -0.0026422697 -0.34988317 -0.0012005488
000140 73 97 c7 3e 33 b3 89 3c 74 9e 9c 3e 08 8c 2e 3a
       0.38982734 0.016809082 0.3058964 0.00066584395
000150 2c 72 c4 be 46 a9 44 3a a8 3b 7b bb b5 cd 8e be
       -0.38368356 0.00075020303 -0.0038335118 -0.27891317
000160 8b d2 bb 3d 44 67 06 bc 94 50 de bb 3a 46 9b 3b
       0.09171017 -0.008203331 -0.006784508 0.0047385963
000170 59 b7 b8 3e ce 1e b3 3e e5 d2 88 3a b9 92 2a bd
       0.36077383 0.3498444 0.0010438828 -0.041643832
000180 89 bc b7 3e 33 4f 4a 3c ee d0 57 bc f0 a8 f7 3b
       0.35886028 0.012347984 -0.013172371 0.0075579807
000190 e9 24 ca 3e 96 14 c9 3e cc a9 8e 3b d6 81 c0 3e
       0.39481285 0.39273518 0.0043537375 0.37599057
0001a0 9d 59 94 bb 4a 35 2d 3d 89 62 4a bc 2c 00 81 3b
       -0.0045272843 0.04228715 -0.012352594 0.003936788
0001b0 a4 01 31 be e4 7f 09 bc 9e f3 21 3e 44 44 78 bd
       -0.17285782 -0.008392308 0.15815589 -0.06061198
0001c0 a0 b4 0d bb 5b f7 cc 3e 61 75 78 bb 52 3b 83 be
       -0.0021622553 0.40032467 -0.003791176 -0.25631195
0001d0 04 24 bc 3c 58 f3 a2 3e 92 c8 9a bb 6f c0 cd 3e
       0.022966392 0.31826282 -0.004723617 0.40185878
0001e0 ee 48 17 bb af c0 87 3a 7f 2c c4 3e 65 f4 8b 3c
       -0.002308424 0.0010357107 0.38315198 0.01708431
0001f0 a8 a3 34 3e 4d 26 ce b9 f6 71 6f bd 56 50 04 bc
       0.17640555 -0.00039319918 -0.05845829 -0.008075794
000200 34 70 fc bc ad c0 6c 3c f1 72 10 3b ec 99 f2 ba
       -0.030815221 0.014450234 0.0022041167 -0.0018509007
000210 30 b8 9b 3e 65 15 b9 3e aa f3 6a be 93 35 94 bb
       0.3041396 0.36149135 -0.22944513 -0.004522988
000220 8a 67 e3 bb 4e 1b 2a bc fa eb a9 39 58 8e 23 3d
       -0.006939833 -0.0103824865 0.00032410008 0.03993067
000230 75 53 d7 bc a7 2a 52 be 35 e8 b3 bc f1 dd be be
       -0.026284913 -0.20524083 -0.02196131 -0.37278703
000240 1b bf cb 3e 89 f5 9b 3a c9 e7 34 3e fa 70 b6 3a
       0.3979424 0.0011898737 0.17666544 0.0013919168
000250 55 64 e8 3a 11 dd 14 3c 30 37 52 3c 5e 27 c9 3e
       0.0017730097 0.009085909 0.012830541 0.39287847
000260 72 59 07 bc ba 15 72 3e 9d d2 92 bb 26 61 0b bb
       -0.0082610715 0.236411 -0.0044806735 -0.0021267622
000270 56 38 4c bd 9d 6b 0b bd da 69 c5 ba d7 cc 80 bb
       -0.049858414 -0.034038175 -0.0015061453 -0.003930669
000280 24 3a b7 be e5 54 83 3e f2 04 c5 be 09 fb 80 3c
       -0.35786545 0.25650707 -0.38480335 0.015744703
000290 80 28 52 3e 3c 8a 42 39 46 14 9e be 1f f9 86 3c
       0.20523262 0.00018552778 -0.30874842 0.016476212
0002a0 60 51 0d be 14 14 aa 3b 1a f8 bd 3e 0d 1a d2 3e
       -0.13800573 0.005190382 0.3710335 0.410355
0002b0 2f 67 25 be 00 42 b2 3e 2a bc 83 bb fd 02 02 3c
       -0.16152643 0.3481598 -0.0040202336 0.007935283
0002c0 b2 68 ae bb a5 b6 16 bc d0 ff 56 bb 7a 48 c4 3e
       -0.0053225392 -0.009198819 -0.0032806285 0.38336545
0002d0 37 47 88 bc 09 da d2 bb 3e f5 8d 3a e0 12 83 be
       -0.01663552 -0.006434683 0.0010830534 -0.25600338
0002e0 f5 eb d8 3c ee ae da 3d 46 97 77 3b f7 e0 27 ba
       0.0264797 0.106778964 0.0037779375 -0.0006404067
0002f0 03 2b 2c 3d 85 40 ef bc 5d f0 ad be 2b 54 58 b9
       0.042033207 -0.02920557 -0.33972445 -0.0002063072
000300 8c 22 09 3b 4b 9e cd be 3c 44 76 3b 11 c7 93 3c
       0.0020925133 -0.4015983 0.0037577292 0.018039258
000310 13 85 6d 3c 8c 98 71 3b bb d0 bc 3e a8 8f 3e 39
       0.014497059 0.0036864607 0.36878 0.00018173328
000320 87 c8 cd 3e d1 6a b6 be 6d fe 0c 3c e9 df c5 3c
       0.40192053 -0.3562837 0.008605582 0.02415462
000330 ec d8 26 3d a6 e7 89 ba a6 f0 b5 bc 45 70 29 bd
       0.040734217 -0.0010521307 -0.022209477 -0.041366834
000340 c4 65 a2 bc 1b fc c4 3e 90 36 7a b7 d6 1b 91 3b
       -0.019823916 0.3847359 -1.4913865e-05 0.004428367
000350 54 92 a7 ba f8 07 a0 bd f9 08 09 3b 3f 61 a8 3b
       -0.0012784698 -0.0781402 0.002090989 0.0051385458
000360 79 0f 11 be 38 8d ce 3e dd 8e 0f 3a 31 0f cd be
       -0.14166059 0.40342116 0.00054763054 -0.40050653
000370 36 6d 97 be 18 ee 76 bb f4 6c bc 3e 8e f3 bb be
       -0.2957551 -0.0037678536 0.36801875 -0.36709255
000380 8c b8 e9 bc 7d 8f 93 ba 57 27 6a 38 e6 97 5e bb
       -0.028530382 -0.0011257973 5.5826586e-05 -0.003396505
000390 5a cf ed bb bd f5 bf 3e f0 60 ba 3e d2 be 4e 3e
       -0.0072573842 0.3749217 0.36402082 0.2018998
0003a0 15 9d b3 3e 41 70 c5 be ce e0 e3 3d c7 d8 39 3c
       0.35080782 -0.38562205 0.111268625 0.011343188
0003b0 aa 2e 09 bb fc 64 4b 3d c5 53 c2 be a4 6b b1 be
       -0.0020932355 0.049656853 -0.37954536 -0.34652436
0003c0 39 78 51 3c c6 ff c5 3e a3 52 d3 bd 5e a3 5b bb
       0.012785011 0.38671702 -0.10318496 -0.0033514122
0003d0 77 b3 98 bd 30 0f 33 3c 03 47 71 3b c1 53 f8 3b
       -0.07456105 0.010928914 0.0036816008 0.0075783436
0003e0 a0 45 31 3a de 9c b2 3e 02 83 09 3c 2c 3a b7 3c
       0.0006762389 0.34885305 0.008393051 0.022366606
0003f0 e1 ec 3e be be 56 80 3b db ea c5 3c 5c 2a 73 3d
       -0.1864505 0.0039165905 0.02415984 0.05936657

fc3.weight f4 [256, 256]
000000 2e 0f 14 bd 11 2f ab be b8 6c 8e be 7d 78 97 be
       -0.03614729 -0.33434346 -0.2781732 -0.29584113
000010 60 48 83 37 0c a1 b1 be d8 a6 b6 b8 2e 7a 59 bb
       1.565012e-05 -0.34693182 -8.709513e-05 -0.0033184397
000020 8f 64 f3 39 80 66 a5 be 9b 9f b7 b8 7f 2e 51 3c
       0.00046423494 -0.32304764 -8.755849e-05 0.012767433
000030 d8 99 ab be 3b a2 a3 be e9 80 9f be a2 ab 8c b9
       -0.3351581 -0.3195971 -0.31153038 -0.00026830757
000040 51 f1 68 38 dd 81 9f be 28 1e a6 be b8 de a9 be
       5.5537854e-05 -0.31153765 -0.32444882 -0.33177733
000050 a3 af 36 b9 00 ce 9c b9 8d 13 c7 38 c1 f4 ba b9
       -0.00017422302 -0.0002990812 9.492701e-05 -0.0003565904
000060 c0 15 62 b9 2f 33 88 3b ec 55 76 39 b9 11 4a 3a
       -0.00021561142 0.004156492 0.00023492397 0.00077083294
000070 5a da eb 39 c1 04 8f b9 c8 eb 57 ba b1 40 74 bd
       0.00044985377 -0.00027278627 -0.0008236733 -0.059632007
000080 f4 63 8f be 65 a1 87 be 89 99 b3 b9 b0 bc 3b 38
       -0.28005946 -0.26490322 -0.00034255933 4.4760003e-05
000090 24 7c 80 be 77 a1 43 ba a1 f7 0e ba c8 78 cd bb
       -0.25094712 -0.000746272 -0.00054537697 -0.0062705018
0000a0 a8 a5 3b b9 10 5c 8d bd df 10 2d b9 20 ba b7 b8
       -0.00017895421 -0.06902325 -0.0001650485 -8.7607885e-05
0000b0 e7 db cd 38 f9 63 7a be fa 67 81 b9 10 db 9a 3a
       9.816122e-05 -0.24452199 -0.00024682266 0.0011814553
0000c0 2c e3 9a be 31 ba 9b be 6f 76 31 ba d8 0d a7 be
       -0.30251443 -0.3041549 -0.0006769662 -0.3262775
0000d0 84 10 71 38 fc 8f 51 38 c9 c7 c0 b9 ef ad 66 ba
       5.747426e-05 4.996358e-05 -0.00036769945 -0.0008799722
0000e0 64 c1 2f 3a 64 92 a6 be e1 a3 a9 be b5 3b 2c ba
       0.00067045377 -0.32533562 -0.33132842 -0.00065701763
0000f0 36 db 36 3a e5 ca 36 be 87 0c 52 b8 57 2f e6 ba
       0.0006975414 -0.17850836 -5.007957e-05 -0.0017561716
000100 66 93 63 ba 23 b4 a8 be fa 49 ba 39 8a 12 31 3c
       -0.0008681327 -0.32949933 0.000355318 0.010807643
000110 6d dd a8 be 34 b4 47 38 6b 12 ab be 98 d1 a6 39
       -0.32981434 4.7613124e-05 -0.3341249 0.00031818147
000120 90 2a 12 b9 e2 33 a9 be 20 67 73 b8 84 c9 60 ba
       -0.00013939501 -0.33047396 -5.8031757e-05 -0.000857495
000130 60 b1 aa be 41 c1 65 39 7e db a7 be 5a 57 a2 39
       -0.3333845 0.00021911135 -0.32784647 0.0003096413
000140 28 ac 20 3a 60 f9 f3 bc 28 b4 0f 38 a6 a8 f6 b7
       0.0006129169 -0.029781997 3.426164e-05 -2.9404018e-05
000150 ef 0a 13 39 cb 1e 9e be 50 34 e2 bd 4a 75 64 be
       0.00014023086 -0.30882868 -0.11045134 -0.22310367
000160 88 d2 16 b9 c6 06 a6 be ea 10 87 be 83 95 a3 be
       -0.00014383544 -0.32427043 -0.26380092 -0.31950006
000170 f4 58 35 ba 5b ef a5 be 14 ab 78 38 4d e2 a2 3b
       -0.0006917857 -0.32409176 5.9287137e-05 0.004970825
000180 5a 4b a2 be 37 e6 95 be dd 25 8a 3c 78 dc c2 39
       -0.31698114 -0.29277202 0.016863758 0.00037166825
000190 37 d1 a6 be df 8a 9a 39 32 af 3f 38 8c 58 aa be
       -0.32581493 0.00029476636 4.5701112e-05 -0.3327068
0001a0 c1 69 2d ba de ee 1d bb 47 7f 0e 3a 07 23 16 39
       -0.0006615185 -0.0024098675 0.0005435836 0.00014318163
0001b0 38 0c 5e 3c 7a a2 a8 be 11 73 9f be 38 d1 43 3c
       0.013552718 -0.3293646 -0.31142476 0.011951737
0001c0 8e b5 a0 be b2 6c 3e ba 4c 28 ec b9 e2 4f 59 be
       -0.31388515 -0.00072641217 -0.0004504345 -0.21221879
0001d0 ef c2 0d bd 2d 92 aa be e4 fc f1 39 80 e0 07 ba
       -0.03460973 -0.33314648 0.0004615552 -0.00051832944
0001e0 99 9f 8f b9 f3 c2 a4 be 65 ad 95 be 3a a5 39 3b
       -0.00027393995 -0.32179984 -0.29233852 0.0028327242
0001f0 f5 7c ac be 7b d2 85 38 d0 49 54 b6 94 cd a6 be
       -0.33689085 6.381139e-05 -3.1633426e-06 -0.3257872
000200 e4 7b 80 37 c7 4e a5 be 36 d2 11 b9 38 b1 aa be
       1.531648e-05 -0.32286665 -0.00013906587 -0.33338332
000210 d7 1a 7e 39 b0 d4 a9 be a5 11 5f 3c f7 58 1d 3a
       0.00024233326 -0.3317008 0.013615047 0.00060023315
000220 fb 5e aa be cb b1 07 b9 31 6d 5c ba 74 df 44 b9
       -0.3327559 -0.00012940836 -0.0008408605 -0.0001877526
000230 ff e8 06 3a 38 7f 64 3c b6 21 bf 3a 0f 44 a6 be
       0.00051464135 0.013946347 0.001458219 -0.324738
000240 25 ea fe 39 0e 6b 52 3c 28 d4 91 be 71 5e 85 be
       0.00048621107 0.012842907 -0.28482175 -0.26048616
000250 e1 6c a5 ba d6 d3 d9 bc fa a0 4f 3a 56 52 08 b9
       -0.001262095 -0.026590269 0.0007920411 -0.00013000643
000260 c6 d0 a2 be 46 30 b4 b8 32 77 39 39 22 44 fe 38
       -0.31799906 -8.5920605e-05 0.00017687379 0.000121243545
000270 0a bf 0d 38 3c bb 50 b7 8c db 08 b9 c0 3d f6 b7
       3.379494e-05 -1.244136e-05 -0.00013051758 -2.935424e-05
000280 db b5 a7 be dd 1f a8 be 4e 5f ad b9 19 84 9d be
       -0.32755932 -0.3283681 -0.0003306814 -0.30764845
000290 22 f7 07 b9 ce 30 27 39 a5 47 0a be f1 f6 33 ba
       -0.00012966667 0.00015944542 -0.13503893 -0.0006865105
0002a0 64 74 63 3b 39 c6 f2 b8 84 00 1a ba b4 bc a6 39
       0.0034706825 -0.00011576381 -0.00058747106 0.00031802582
0002b0 76 f3 99 b9 05 2b aa be b5 50 2d 3c 80 72 a6 3a
       -0.00029363827 -0.33235946 0.010578324 0.0012698919
0002c0 ea 03 65 3b 89 cd a9 be 52 29 b9 3b 58 53 ab be
       0.003494496 -0.33164623 0.0056506777 -0.33462024
0002d0 e8 7f 3b b7 d4 5b a2 be 91 95 fc ba a0 98 97 bd
       -1.1175849e-05 -0.31710684 -0.0019270648 -0.07402158
0002e0 96 ac b4 ba 3b b3 23 b9 64 1a 62 b8 e3 9a fe b8
       -0.0013784345 -0.0001561166 -5.3907177e-05 -0.00012140514
0002f0 82 7d 95 39 e6 b5 9d b8 a8 2c 94 b9 7d c2 ca b9
       0.00028513005 -7.5202246e-05 -0.0002826203 -0.00038673347
000300 74 16 2a b9 18 fc b6 b9 7a 51 a4 be a7 9f 21 ba
       -0.00016220828 -0.0003490157 -0.32093412 -0.00061654527
000310 91 37 43 3a d0 92 98 b9 e4 5b a2 be 99 d3 ac bb
       0.00074469397 -0.00029101083 -0.31710732 -0.005274248
000320 7f 93 a0 be 41 5a fb b9 08 5c 60 39 5e eb 9b be
       -0.3136253 -0.00047941695 0.00021396589 -0.30453008
000330 c0 66 fa 37 de ce c8 38 ce 01 3f 3b bf 23 a5 3a
       2.9850169e-05 9.575275e-05 0.0029145363 0.0012599154
000340 96 4a 22 bc dd 03 20 ba 4d 95 8c bc a7 ce 96 b9
       -0.009905478 -0.00061040913 -0.017161036 -0.00028764197
000350 1e eb c3 38 d0 13 55 38 16 0d d6 bb 66 65 ba bd
       9.3421186e-05 5.080161e-05 -0.0065323217 -0.091013715
000360 40 ff 97 bb 36 47 a4 be 48 59 06 38 2e 43 a9 be
       -0.0046385825 -0.3208558 3.203124e-05 -0.33059067
000370 94 42 46 be 83 c2 a1 be ca 66 0a 3a ed 98 9f b9
       -0.19361335 -0.31593713 0.0005279599 -0.00030440782
000380 e1 90 00 b9 10 f0 4f b7 34 5e 39 b9 29 89 a5 be
       -0.00012261003 -1.2394055e-05 -0.00017678068 -0.32331207
000390 2c 8a 0d 3a 90 d4 0d b9 29 d0 9d be 3c 58 9c be
       0.00053993124 -0.00013525994 -0.30822876 -0.30536067
0003a0 35 97 a4 be f3 4b 39 be fd ba 96 b9 07 f9 1e 3a
       -0.32146612 -0.18095379 -0.00028749547 0.00060643296
0003b0 03 6e 9e be ad 39 57 bb 49 74 a5 be 5a dc a8 be
       -0.30943307 -0.0032840774 -0.3231528 -0.32980615
0003c0 25 55 a0 be f5 6b a8 be 48 e9 00 b8 7e d7 52 b8
       -0.3131496 -0.32894865 -3.073484e-05 -5.0268594e-05
0003d0 34 46 5d 38 5b fe a1 be 78 4c c7 38 e9 36 04 3a
       5.2755888e-05 -0.3163937 9.503303e-05 0.00050435826
0003e0 18 1e 0f b9 13 71 98 be 57 c7 2d ba 51 51 88 3b
       -0.00013648754 -0.2977377 -0.000662913 0.0041600843
0003f0 74 3e fe bd c2 dc f6 b8 41 1c 04 ba 2c 91 64 38
       -0.12414256 -0.000117713134 -0.00050396106 5.4494638e-05

fc3.bias f4 [256]
000000 be 7a fd bd b1 99 ab bd 19 91 e9 3c 40 c3 e6 3a
       -0.12376927 -0.08378924 0.02851157 0.0017605796
000010 c0 55 e2 ba 3d 5d 9f 3e 38 89 29 3b 92 c4 38 3c
       -0.0017267987 0.31125823 0.0025869142 0.011277335
000020 bc af c7 be 62 e1 dc ba 8c a5 46 3a 59 7e dd be
       -0.39001262 -0.0016851837 0.0007577769 -0.43260458
000030 8f d5 d3 be b6 26 9a bc 4b 65 05 be 83 6f cd b7
       -0.4137387 -0.018817287 -0.13026921 -2.4489831e-05
000040 a5 eb a2 3e 97 ff 8b bb 32 6e 95 ba 8e a8 bc be
       0.31820408 -0.004272412 -0.0011400639 -0.36847347
000050 d2 26 19 3c 0a 24 db be 53 3a b3 b9 71 9d 9c be
       0.009347634 -0.42800933 -0.00034184995 -0.30588868
000060 87 fd 19 3d 42 dc 9f 3e 7f 83 9d 3e 9c 8e ca be
       0.0375953 0.3122273 0.30764386 -0.39561927
000070 c9 d3 23 be f0 f0 c5 be 49 0c a0 3e 69 8e ed b7
       -0.15998758 -0.38660383 0.31259373 -2.8318917e-05
000080 60 98 0f bb ee 7e b2 bc 7d ec a3 3d 3a 81 2e 3c
       -0.002191089 -0.02178904 0.08004091 0.010650927
000090 aa c3 09 be b2 52 cd be a4 3c d5 be c3 2e 26 bc
       -0.13453546 -0.40102154 -0.41647828 -0.010142985
0000a0 e2 c6 bd be 00 82 85 b7 e6 db 14 3a 4f b1 e5 3d
       -0.37065798 -1.5915371e-05 0.00056785194 0.112154596
0000b0 07 61 c3 ba 0f f3 39 bb e4 34 38 b9 0c 37 54 bb
       -0.0014906236 -0.0028373634 -0.0001756731 -0.0032381443
0000c0 9f f1 1c bb 00 57 bd be 83 d3 f9 bb 0d a9 a4 be
       -0.0023947728 -0.36980438 -0.007624091 -0.32160226
0000d0 80 d4 73 3d e5 a4 86 3c ca d4 c6 3c a6 b8 4c 3d
       0.059528828 0.01643605 0.024271388 0.049980782
0000e0 fd 07 95 3e df 11 a3 3e fa ed 52 3a 6b 43 ae be
       0.29107657 0.31849572 0.00080463255 -0.3403581
0000f0 8c 85 55 3c 0d d3 92 ba c0 24 e0 ba 21 07 66 be
       0.013032328 -0.0011201814 -0.0017100796 -0.22463657
000100 7f 53 ea bd 07 b0 30 3d 33 67 3e bc 2c 40 a2 3c
       -0.11441707 0.043136623 -0.011621284 0.01980599
000110 c7 c8 28 3d 83 83 8d 3b 50 10 c0 be 75 c5 82 bd
       0.0412071 0.004318656 -0.37512445 -0.06385318
000120 e3 86 68 bb 82 74 ca be 2e 39 f4 3b 85 2b 14 3b
       -0.003548079 -0.39542013 0.0074531054 0.0022608947
000130 de 49 b5 be a0 6c c3 3d 86 73 f0 3b 60 55 f5 3c
       -0.3540792 0.09542203 0.00733799 0.029947937
000140 f1 9a 10 be 5c 53 cb be 27 bf 42 3d f8 4b 82 bd
       -0.14121605 -0.39712036 0.04754558 -0.06362146
000150 ba 14 c1 be 88 60 11 3d c0 79 28 b6 4c ff 76 bc
       -0.37711126 0.03549245 -2.5104819e-06 -0.015075516
000160 02 0d de be 4c 11 83 bc 23 0c 7d 3c 86 09 55 bc
       -0.433693 -0.015999459 0.015444788 -0.013002759
000170 dd fb a8 3e 65 5f 62 3d 24 a8 c8 be b7 ec e4 be
       0.33004656 0.055266757 -0.3919078 -0.4471185
000180 47 e6 a0 3e 32 ec 3b 38 16 e2 38 3c 15 20 33 3c
       0.31425688 4.480425e-05 0.011284372 0.010932942
000190 a4 be d5 be 28 09 cd be 29 ba e1 be ae f2 00 be
       -0.4174701 -0.40046048 -0.4408734 -0.12592575
0001a0 44 ee 1a be e5 fb 37 3e d9 26 ee 3d b4 14 c3 b9
       -0.15129954 0.17967184 0.11628503 -0.00037208723
0001b0 74 fb b2 ba 94 c8 0d be a2 6a e8 bd 08 be 6d 3a
       -0.0013655261 -0.13846046 -0.113484636 0.00090691494
0001c0 da d2 ae 3e 7a c2 d1 be ec 37 2d ba 03 0f 8a 3d
       0.34145242 -0.40968686 -0.0006607759 0.067411445
0001d0 40 cb b3 39 06 b0 d0 be 36 8d 06 3d d5 fa f1 3c
       0.00034292974 -0.40759295 0.032849513 0.029538551
0001e0 b8 e2 cb be 86 ca 4c b9 64 09 cb be a2 46 1b 3a
       -0.3982141 -0.00019530402 -0.39655602 0.0005923306
0001f0 50 5c a1 3e 53 e7 bf be 79 87 55 3b 20 da 02 3b
       0.3151574 -0.37481174 0.0032581969 0.0019966438
000200 09 50 a6 3a 26 f3 ab 3b c6 25 d1 3d 64 a2 d5 3a
       0.0012688647 0.0052474914 0.10212283 0.0016299007
000210 a4 66 bc be fb 31 ae 3a 42 09 bb be 42 83 ba bc
       -0.3679706 0.0013290042 -0.365305 -0.022767667
000220 d2 f1 04 be 00 76 cd be bb 4e af ba 40 19 cb 35
       -0.12982872 -0.4012909 -0.0013374904 1.5132027e-06
000230 84 92 30 bb 3d f8 1d 3d ca ac bb 3d 7f e3 64 3e
       -0.00269428 0.038566817 0.09163816 0.22352408
000240 75 67 aa 3b b2 38 82 39 34 29 8c 3d f6 0b 03 bd
       0.0052003213 0.00024837774 0.06843796 -0.03199383
000250 08 58 bd be 2a 0b 10 be da b3 c9 be 10 3a 0a bd
       -0.36981225 -0.14066759 -0.39395028 -0.03374678
000260 c0 ce 8f 3b 0a bb 9f 3e 16 d3 b4 3a b9 b5 c7 be
       0.00438866 0.31197387 0.0013795819 -0.3900583
000270 50 ef 5b 3e 54 fe b4 be 9d 63 3b 3c 3c c0 98 bc
       0.21478009 -0.35350287 0.011437324 -0.018646352
000280 f8 59 cd be 32 d5 16 bb 91 42 12 bb 40 d1 39 b9
       -0.40107703 -0.0023015258 -0.0022317509 -0.00017720927
000290 f4 87 d6 be 92 21 00 3b c8 f7 c5 be 46 90 65 ba
       -0.419006 0.001955126 -0.38665605 -0.0008757155
0002a0 91 2a 48 3e 4f b8 32 3d 14 e8 51 bb 28 cb 87 b9
       0.19547488 0.0436328 -0.0032029198 -0.0002590057
0002b0 1f 06 d3 be bd 7b c2 3b 3b 4b c6 bc 9e 64 be be
       -0.41215608 0.005935161 -0.024205795 -0.3718614
0002c0 45 63 8d bc 85 0b 9f 3e b1 98 22 3a 63 03 b7 be
       -0.01725925 0.31063476 0.00062025624 -0.3574477
0002d0 65 3a ae bd e5 2d 5e 3b 8f a5 dd be 5d 9c ce be
       -0.085072316 0.0033901867 -0.43290374 -0.4035367
0002e0 21 24 c8 be ca 63 c1 b9 d0 9b a3 3e d3 8f e4 3c
       -0.39090064 -0.00036886177 0.31954813 0.027900612
0002f0 9e e7 98 ba 6c cd 38 3b 57 0e b5 bc 48 93 29 3b
       -0.0011665707 0.0028198613 -0.022101564 0.002587514
000300 9b 03 5e ba a4 75 83 3d fa 26 79 3e db 98 27 bd
       -0.0008469165 0.064189225 0.24331275 -0.04091726
000310 bc a4 bc be 1a 08 31 3b a4 88 39 bd 71 91 b9 bd
       -0.36844432 0.0027012886 -0.045296326 -0.09060944
000320 39 72 b0 be 37 42 cb be f1 12 7a b8 ac 43 11 be
       -0.34462145 -0.39698955 -5.9622285e-05 -0.14185971
000330 7c 77 e1 be 19 19 fb 3b d8 52 f2 ba f0 bf a2 3e
       -0.44036472 0.007662904 -0.0018487824 0.31787062
000340 a7 a1 c5 be 6e a9 7b 39 7f 96 b9 be e6 da b0 bc
       -0.38599893 0.00024000343 -0.36247632 -0.021588754
000350 cd bb e9 3c 65 39 04 bd 6d c2 06 be ec 3b 31 3c
       0.028531933 -0.0322813 -0.13160105 0.010817509
000360 a3 ad 01 3b 1c 88 81 3b 1a 8b d1 be 46 e4 d4 be
       0.0019787333 0.003952993 -0.4092644 -0.4158041
000370 fd 93 be be 48 b8 d3 3c 11 60 9b 3d 17 d2 b8 be
       -0.3722228 0.025844708 0.075866826 -0.36097786
000380 1e 66 ca be 60 87 8d 3a 08 0c 87 bd 1d 06 89 3a
       -0.39531034 0.0010797791 -0.06594092 0.0010454092
000390 2c 98 59 3d a7 f0 ac 3b a6 bc 3b 3e 3d 60 c4 be
       0.053123638 0.0052777114 0.18333682 -0.38354674
0003a0 9b 72 02 3d 68 ab cc be 98 d2 6e 39 00 fd 5e b7
       0.031847578 -0.39974523 0.00022775901 -1.3291137e-05
0003b0 6e 29 2b bc c8 4b 02 be 2b c9 95 be 4e a2 02 bd
       -0.010446889 -0.12724221 -0.2925504 -0.031893067
0003c0 55 f7 ca be 19 e3 c2 be 13 ff cb be 0f 8a 63 bb
       -0.39641824 -0.38063887 -0.39843044 -0.003471974
0003d0 4f 07 38 3e 26 d6 8d 3e 08 7d 61 3a 84 8d c1 be
       0.17971538 0.27702445 0.00086017 -0.3780328
0003e0 37 5c 01 39 25 9b 0c be 5d aa 10 3d 0a 37 bf be
       0.00012336751 -0.13731058 0.03531872 -0.3734668
0003f0 c6 7d a4 3a ac 95 fa bd b4 44 d6 bb 97 29 b1 be
       0.001254969 -0.12235579 -0.006538952 -0.34602043
