shanghai_road_delivery/results_centralized/best_centralized_episode_317.pth_centralized_critic.pth (torch, 919248 bytes, 7 tensors)

fc1.weight f4 [256, 378]
-2.381158e-08 6.6207015e-18 -0.001132356 -0.0011387223 -0.0011334623 -0.0011101414 -7.761294e-29 6.7426984e-12
-3.891081e-09 -2.5586967e-06 0.00031323932 -1.1579657e-06 -8.679795e-18 0.00012809224 -1.4087594e-17 -1.13950537e-10
-1.4367002e-17 -6.034094e-07 6.8047026e-19 3.953557e-17 -1.3223518e-17 -9.7635294e-20 -1.4870764e-17 1.7105661e-29
1.355112e-18 -1.3038006e-09 -2.9951747e-18 2.6285434e-09 -8.486589e-18 4.7696503e-11 1.2784068e-18 2.7744873e-10
2.8303216e-14 -6.2390995e-08 8.189387e-18 -1.9419637e-09 1.0942343e-17 -0.0011323589 -2.4194609e-08 -0.0011323589
0.06308673 -0.002949111 -4.3349715e-07 -1.631457e-17 -0.1441414 -0.0006093388 -1.4438854e-11 -1.1434741e-17
3.0202084e-29 -0.0011323418 6.475404e-11 -0.0011323589 -2.4168632e-09 -1.3579131e-17 -0.0011323564 -0.0011158637
-0.0011191034 -0.0010994561 6.390324e-28 -0.000971611 2.1716945e-05 -2.090573e-07 1.0365724e-11 -1.1579657e-06
-8.679795e-18 9.0587626e-10 -1.4087594e-17 -1.13950537e-10 -1.4367002e-17 -0.00021524797 6.8047026e-19 3.953557e-17
-1.3223518e-17 2.560455e-18 -9.464907e-18 -5.8534576e-18 2.0560757e-18 4.0822208e-08 1.2698119e-18 3.7172053e-05
-1.9602986e-17 -1.5891995e-08 1.2784068e-18 -1.0418262e-10 2.8303216e-14 -5.6346343e-12 8.189387e-18 7.0106525e-14
1.0942343e-17 -0.0011323589 -2.4194609e-08 -0.0011323589 -0.11991529 -0.0031430137 -8.2083096e-07 -1.3361473e-15
-0.28854254 -0.00068299676 -4.861018e-12 5.1583798e-18 3.2258059e-19 -0.0010968222 8.860104e-10 -0.0011323589
-7.320612e-07 -7.354942e-17 -0.0011323561 -0.0011017208 -0.0011048613 -0.0010851972 -3.7571553e-18 1.08684475e-07
-0.00015118043 -3.761602e-05 1.249632e-10 -1.1579657e-06 -8.679795e-18 1.573291e-06 -1.4087594e-17 -1.13950537e-10
-1.4367002e-17 0.00042478138 6.8047026e-19 3.953557e-17 -1.3223518e-17 -9.573779e-28 -7.852745e-18 -2.0183496e-18
-1.614052e-18 -3.4919106e-28 -5.219738e-19 -2.753498e-12 -1.9602986e-17 -2.5328632e-07 -8.486589e-18 1.0778441e-11
2.8303216e-14 6.4165033e-07 8.189387e-18 -9.671381e-10 1.0942343e-17 -0.0011323589 -2.4194609e-08 -0.0011323589
-0.41851094 -0.0031979368 -6.057299e-07 8.747226e-17 -0.14345442 -0.0005694065 -3.3164003e-11 9.1719656e-18
-1.6565536e-18 -0.0010943568 -1.137253e-09 -0.0011323589 1.8941628e-06 -2.4992834e-17 -0.0011323564 -0.0010682099
-0.0010727996 -0.0010453572 -4.597934e-29 0.00097275473 2.1577303e-05 -1.7716133e-05 5.034663e-09 -1.1579657e-06
-8.679795e-18 -2.18376e-40 -1.4087594e-17 -1.13950537e-10 -1.4367002e-17 1.3657884e-05 6.8047026e-19 3.953557e-17
-1.3223518e-17 -3.7185243e-18 -9.8505366e-18 4.890888e-31 -3.8259395e-18 -0.00027085142 7.7275254e-19 1.29994e-39
-1.9602986e-17 -1.69142e-05 -8.486589e-18 1.1820744e-06 1.2784068e-18 -2.8120244e-06 8.189387e-18 1.9518848e-10
1.0942343e-17 -0.0011323589 -2.4194609e-08 -0.0011323589 0.0029109914 -0.003120259 -9.4738004e-07 -6.294368e-17
-0.29272556 -0.00067716755 -5.95073e-10 -1.35858964e-17 2.0815574e-18 -0.0011022113 -1.5765946e-14 -0.0011323589
-2.920934e-07 4.5096252e-17 -0.0011323564 -0.0011031938 -0.001109263 -0.0010659158 -1.02591476e-19 -0.00062115036
4.038764e-09 -2.6635931e-05 -1.3998384e-13 -1.1579657e-06 -8.679795e-18 -0.0005337788 -1.4087594e-17 -1.13950537e-10
-1.4367002e-17 3.5647472e-06 6.8047026e-19 3.953557e-17 -1.3223518e-17 7.446301e-18 1.3643238e-18 8.939883e-19
8.7770745e-18 2.9194293e-11 -1.9489165e-18 2.3781662e-11 -1.9602986e-17 2.941134e-07 -8.486589e-18 1.4300041e-06
1.2784068e-18 7.322546e-11 2.8303216e-14 -0.00019517147 1.0942343e-17 -0.0011323589 -2.4194609e-08 -0.0011323589
-0.33596596 -0.0031558394 -6.8385543e-07 5.286899e-17 -0.21875797 -0.00061628205 -1.672792e-11 -8.221497e-18
00000000: 388a ccb2 c242 f422 906b 94ba 2e41 95ba
00000010: af90 94ba 2a82 91ba aec5 c490 d43c ed2c
00000020: 4fb2 85b1 13b6 2bb6 453a a439 666b 9bb5
00000030: 2c1d 20a3 8050 0639 64ef 81a3 7394 faae
00000040: 2083 84a3 faf9 21b5 e1d6 4821 5d53 3624
00000050: 4cee 73a3 ea88 e69f 9928 89a3 d678 ad0f
00000060: affa c721 6831 b3b0 4001 5da2 d3a1 3431
00000070: c98c 1ca3 7dc5 512e d8a8 bc21 7087 982f
00000080: c6ee fe28 d0fb 85b3 4911 1723 6373 05b1
00000090: c1d9 4923 a96b 94ba 82d4 cfb2 a96b 94ba
000000a0: 9e33 813d df45 41bb 65bb e8b4 b079 96a3
000000b0: ce99 13be 09bc 1fba d102 7ead 0aef 52a3
000000c0: 8c24 1910 166b 94ba 4965 8e2e a96b 94ba
000000d0: e815 26b1 a27d 7aa3 936b 94ba 2c42 92ba
000000e0: e1ae 92ba a01b 90ba 7884 4a12 b6b3 7eba
000000f0: c92c b637 3c79 60b4 125b 362d 666b 9bb5
00000100: 2c1d 20a3 6001 7930 64ef 81a3 7394 faae
00000110: 2083 84a3 30b4 61b9 e1d6 4821 5d53 3624
00000120: 4cee 73a3 a1ed 3c22 c298 2ea3 58f4 d7a2
00000130: 2cb6 1722 7e54 2f33 2364 bb21 30e9 1b38
00000140: 3ece b4a3 de82 88b2 d8a8 bc21 9a19 e5ae
00000150: c6ee fe28 4640 c6ac 4911 1723 a9dd 9d29
00000160: c1d9 4923 a96b 94ba 82d4 cfb2 a96b 94ba
00000170: 2696 f5bd 05fb 4dbb 1357 5cb5 228f c0a6
00000180: d9bb 93be 230b 33ba 2808 abac 854f be22
00000190: 006b be20 3fc3 8fba 708b 7330 a96b 94ba
000001a0: dd82 44b5 ea97 a9a4 916b 94ba 9e67 90ba
000001b0: fed0 90ba 2d3d 8eba 549d 8aa2 ec65 e933
000001c0: 3086 1eb9 e5c5 1db8 0466 092f 666b 9bb5
000001d0: 2c1d 20a3 de29 d335 64ef 81a3 7394 faae
000001e0: 2083 84a3 31b5 de39 e1d6 4821 5d53 3624
000001f0: 4cee 73a3 ddb3 9792 8adb 10a3 8ced 14a2
00000200: 2931 eea1 7d53 dd91 3a0f 1aa1 9cc2 41ac
00000210: 3ece b4a3 68fb 87b4 c98c 1ca3 c89d 3d2d
00000220: c6ee fe28 e03d 2c35 4911 1723 26ec 84b0
00000230: c1d9 4923 a96b 94ba 82d4 cfb2 a96b 94ba
00000240: 1147 d6be 7a94 51bb 7199 22b5 82b2 c924
00000250: b7e5 12be 3944 15ba 59db 11ae 6231 2923
00000260: d376 f4a1 8570 8fba 884d 9cb0 a96b 94ba
00000270: f03a fe35 a984 e6a3 936b 94ba 2d03 8cba
00000280: 2e9d 8cba 5e04 89ba 9824 6990 7700 7f3a
00000290: e800 b537 1b9d 94b7 5dfd ac31 666b 9bb5
000002a0: 2c1d 20a3 be60 0280 64ef 81a3 7394 faae
000002b0: 2083 84a3 2a24 6537 e1d6 4821 5d53 3624
000002c0: 4cee 73a3 7830 89a2 d8b5 35a3 e8b7 1e0d
000002d0: fa26 8da2 1001 8eb9 8813 6421 b427 0e00
000002e0: 3ece b4a3 f8e2 8db7 c98c 1ca3 c4a7 9e35
000002f0: d8a8 bc21 36b6 3cb6 4911 1723 ac9c 562f
00000300: c1d9 4923 a96b 94ba 82d4 cfb2 a96b 94ba
00000310: 55c6 3e3b 427d 4cbb 764f 7eb5 6423 91a4
00000320: 20e0 95be f283 31ba 8a92 23b0 959d 7aa3
00000330: 8297 1922 1378 90ba cc01 8ea8 a96b 94ba
00000340: 03d1 9cb4 42f8 4f24 936b 94ba 0b99 90ba
00000350: b164 91ba 33b6 8bba be3c f29f b2d4 22ba
00000360: 58c5 8a31 3a70 dfb7 989b 1daa 666b 9bb5
00000370: 2c1d 20a3 4aed 0bba 64ef 81a3 7394 faae
00000380: 2083 84a3 e439 6f36 e1d6 4821 5d53 3624
00000390: 4cee 73a3 2a5c 0923 b256 c921 eced 8321
000003a0: 90e8 2123 da65 002e fecd 0fa2 8b2f d12d
000003b0: 3ece b4a3 a3e6 9d34 c98c 1ca3 91ee bf35
000003c0: d8a8 bc21 4506 a12e c6ee fe28 f1a6 4cb9
000003d0: c1d9 4923 a96b 94ba 82d4 cfb2 a96b 94ba
000003e0: bb03 acbe 33d2 4ebb 3092 37b5 b0d0 7324
000003f0: 1702 60be fd8d 21ba ed23 93ad eca8 17a3

fc1.bias f4 [256]
-0.0011323589 -6.347398e-06 -7.746862e-06 -0.00029120842 -2.2856907e-08 3.5484187e-05 -1.2973071e-05 -0.0001742422
-0.2647368 -0.00018031917 -2.7560349e-05 -7.2714516e-07 -0.008614116 -2.1397964e-06 -0.00023014145 -1.5513676e-06
-0.022132691 -0.00011114788 -9.781358e-06 -3.0147e-07 -0.27493763 -2.4550928e-07 -3.74891e-07 -0.0013220845
-0.0001852571 -0.064764455 -0.00058823667 -0.0011720151 -0.0015593233 -0.0016711083 -3.223071e-05 -0.0028416694
-0.2863095 -1.819219e-06 -0.32920873 0.008814996 -8.971065e-05 -0.0036292004 -0.013175951 -0.0001950048
-1.837571e-06 -7.8314037e-07 -1.3694795e-09 -0.012611444 -0.0017341861 -5.214381e-16 -4.3101887e-09 -0.16453663
-0.0010598967 -3.0094782e-06 -1.3637995e-06 -0.55188304 -7.2658618e-06 -0.0060710306 -0.036837593 -2.2871134e-08
-3.718383e-08 -1.3981149e-07 -3.9780397e-07 -1.891691e-08 -0.0036038987 -5.660117e-07 -0.14983124 -5.0762276e-07
-7.373662e-05 -0.0003105501 -0.011081755 -1.8121345e-05 -8.392056e-09 -2.5345831e-05 -2.5971676e-07 -0.00041962983
-0.029735148 -6.62725e-07 -0.0010973022 -1.7445145e-05 -4.3719556e-06 -1.2119534e-05 -3.0619674e-06 -0.109518245
-0.0027028176 -3.7530722e-06 -0.009387881 0.007211523 -5.62593e-10 -6.0618477e-05 -5.5390512e-05 -0.0004861041
-0.00027654195 -1.2868386e-05 -4.5344635e-08 -0.00065722264 -0.06544688 -0.00020258609 -8.123948e-06 -0.056341484
-3.117603e-08 -0.0492459 -2.1274167e-05 -0.0052488907 -2.927119e-07 -0.00034479596 -2.8733822e-08 0.007593113
-0.10403346 -1.0773749e-05 -0.00030208533 -0.004407728 -0.0014756306 -5.204062e-06 0.44517592 -1.0616873e-05
-0.0003032953 -0.42285916 -0.019615669 -0.007175503 -0.00028831713 -2.9683374e-06 -0.0008100406 -2.4234869e-05
-0.0023459294 -8.691616e-06 -2.0243708e-06 -7.643583e-08 -0.0010538306 -2.7815393e-05 -0.0032720596 -6.2188866e-13
-2.5467494e-05 -2.074649e-10 -1.322191e-09 -0.0006564209 -0.46110278 -0.037979867 -1.0380866e-07 -7.268393e-06
-0.00016265918 -3.1873402e-05 -0.0005385654 -0.0017775643 0.0051039704 -8.246267e-14 -0.0009202758 -0.00020973699
-9.953021e-07 -1.7773085e-07 -0.00010895173 -3.623819e-09 -2.5981967e-07 -1.4424201e-12 -1.8845145e-05 -3.8766913e-05
-0.10363816 -0.03788732 -3.6244057e-08 -0.04376431 -0.012214596 -6.744297e-07 -2.3621402e-10 -0.00025360138
-0.00033716235 -2.3927576e-05 -0.05073156 -0.02593942 -0.00010611414 -1.0824715e-12 -7.79897e-07 -3.2461085e-05
-0.058514386 -6.023272e-11 -0.012628474 -0.0002363618 -0.00018788228 -0.0018338665 -0.074690044 -1.2443249e-05
6.3579696e-06 0.50359046 -0.052585676 -1.1022285e-05 -3.7465547e-06 -2.6905707e-05 -0.019471593 -1.0482028e-06
-0.00061697094 -0.014881244 -0.00024989416 0.34388852 -3.876297e-05 -0.00064104365 -0.00077524147 -0.00017734768
-0.0050690696 -0.33425334 -0.31687063 -7.2414803e-09 -0.01594692 0.0038118586 -1.0042978e-05 -6.7379887e-07
-0.009854582 -0.122933164 -3.0736599e-06 -6.791571e-07 -1.6152413e-05 -1.4489169e-05 -0.015864607 -8.925545e-09
-0.009369904 9.278036e-06 -2.3086152e-06 -0.00018461357 -1.4811351e-05 -0.22795595 -3.1782356e-08 -0.58604187
-0.0008271624 -7.859165e-05 -1.5400195e-05 -0.008686322 -0.0007566476 -1.3269309e-05 -0.2246061 -0.00036811028
-0.24316427 -4.8127684e-17 -2.228715e-05 0.00011925612 -6.247612e-06 -0.0014193663 0.5203698 -8.3239706e-07
-0.016174212 0.00010079374 -0.0050752275 -0.0011945877 -2.1906988e-08 0.00038933058 -0.0034729564 -1.2884268e-08
-1.7680671e-14 -9.910666e-10 -7.654602e-11 -0.00033815802 -2.5356737e-06 -0.013919057 -0.008479502 0.00023835289
-1.1726256e-07 -2.407684e-09 -6.546239e-05 0.0005033999 -1.3342933e-08 -0.0015634064 -6.652627e-08 -0.00052982755
00000000: a96b 94ba bcfb d4b6 85f8 01b7 55ad 98b9
00000010: df56 c4b2 dbd4 1438 eaa6 59b7 c9b4 36b9
00000020: 958b 87be 0f14 3db9 6631 e7b7 0931 43b5
00000030: 3922 0dbc 6c99 0fb6 2052 71b9 9638 d0b5
00000040: 9e4f b5bc 1018 e9b8 9d1a 24b7 b9d9 a1b4
00000050: a0c4 8cbe 8ace 83b4 a044 c9b4 cb49 adba
00000060: 9341 42b9 3aa3 84bd e533 1aba 4d9e 99ba
00000070: 3562 ccba 1709 dbba 762f 07b8 4d3b 3abb
00000080: 2997 92be e42b f4b5 0c8e a8be c66c 103c
00000090: 0a23 bcb8 e1d7 6dbb f2df 57bc 347a 4cb9
000000a0: 75a2 f6b5 ff38 52b5 4738 bcb0 3ba0 4ebc
000000b0: a14d e3ba 574b 16a6 d218 94b1 4a7c 28be
000000c0: 3bec 8aba 71f6 49b6 cb0b b7b5 3548 0dbf
000000d0: 47cd f3b6 7fef c6bb 04e3 16bd 2876 c4b2
000000e0: 0eb4 1fb3 171f 16b4 c391 d5b4 ba7e a2b2
000000f0: 632f 6cbb 07f0 17b5 5c6d 19be 9243 08b5
00000100: 0ca3 9ab8 54d1 a2b9 4090 35bc 4b03 98b7
00000110: a72c 10b2 c29d d4b7 336f 8bb4 c301 dcb9
00000120: 2097 f3bc 1de6 31b5 5ad3 8fba 2a57 92b7
00000130: d0b2 92b6 0155 4bb7 337c 4db6 1a4b e0bd
00000140: c121 31bb 4add 7bb6 a0cf 19bc a44e ec3b
00000150: f7a4 1ab0 9840 7eb8 1c53 68b8 cadb feb9
00000160: d5fc 90b9 4ce5 57b7 f4c0 42b3 7749 2cba
00000170: 0409 86bd 4a6d 54b9 174c 08b7 54c6 66bd
00000180: 68e6 05b3 12b6 49bd ed75 b2b7 e3fe abbb
00000190: 0426 9db4 bbc5 b4b9 58d2 f6b2 a6cf f83b
000001a0: 7f0f d5bd e6c0 34b7 3561 9eb9 b46e 90bb
000001b0: f269 c1ba 8d9e aeb6 19ee e33e 1f1f 32b7
000001c0: 9b03 9fb9 ff80 d8be 0ab1 a0bc 7b20 ebbb
000001d0: 4529 97b9 a633 47b6 e858 54ba fc4b cbb7
000001e0: 2abe 19bb 35d2 11b7 6dda 07b6 0b25 a4b3
000001f0: b020 8aba 1a55 e9b7 0d70 56bb cd0b 2fab
00000200: 07a3 d5b7 2e1c 64af 76b8 b5b0 a913 2cba
00000210: aa15 ecbe c790 1bbd 6aed deb3 05e3 f3b6
00000220: 7e8f 2ab9 ceaf 05b8 832e 0dba 29fd e8ba
00000230: 353f a73b 7eb0 b9a9 aa3e 71ba d8ec 5bb9
00000240: 5296 85b5 49d6 3eb4 047d e4b8 e606 79b1
00000250: 587d 8bb4 a900 cbab a415 9eb7 a899 22b8
00000260: 3e40 d4bd bc2f 1bbd c3aa 1bb3 3542 33bd
00000270: bb1f 48bc 750a 35b5 2bdc 81af cdf5 84b9
00000280: 2ac5 b0b9 14b8 c8b7 e5cb 4fbd e87e d4bc
00000290: 9889 deb8 2558 98ab 1d5a 51b5 d326 08b8
000002a0: c8ac 6fbd 0274 84ae a9e7 4ebc e3d7 77b9
000002b0: 4402 45b9 595e f0ba 18f7 98bd 59c3 50b7
000002c0: 8b56 d536 4eeb 003f 1464 57bd 5bec 38b7
000002d0: 526d 7bb6 91b3 e1b7 e482 9fbc f9af 8cb5
000002e0: 38bc 21ba 76d0 73bc 3a04 83b9 2812 b03e
000002f0: 6c95 22b8 b60b 28ba 9339 4bba 68f6 39b9
00000300: 701a a6bb 4123 abbe de3c a2be bcd0 f8b1
00000310: 1da3 82bc 60d0 793b 437e 28b7 1bdf 34b5
00000320: 1d75 21bc 62c4 fbbd 1345 4eb6 524f 36b5
00000330: 0b7f 87b7 8216 73b7 7ef6 81bc f656 19b2
00000340: 3a84 19bc dca8 1b37 b5ed 1ab6 d494 41b9
00000350: 457e 78b7 496d 69be 1281 08b3 d706 16bf
00000360: eed5 58ba 92d1 a4b8 ab2f 81b7 1351 0ebc
00000370: c359 46ba 409f 5eb7 24ff 65be edfe c0b9
00000380: 0e00 79be 24f3 5da4 4af5 bab7 2419 fa38
00000390: 94a2 d1b6 080a baba f536 053f e471 5fb5
000003a0: c87f 84bc 3a61 d338 184e a6bb b693 9cba
000003b0: fa2d bcb2 111f cc39 8a9a 63bb 9c59 5db2
000003c0: da40 9fa8 0e36 88b0 9453 a8ae cd4a b1b9
000003d0: 8b2a 2ab6 c20c 64bc 9ced 0abc 5eee 7939
000003e0: c6d1 fbb3 6d74 25b1 da48 89b8 98f6 033a
000003f0: d73a 65b2 37eb ccba 34dd 8eb3 20e4 0aba

fc2.weight f4 [256, 256]
-8.341491e-22 5.6785673e-15 3.0355855e-22 2.5128e-41 -2.42324e-40 -2.3107388e-08 5.0905e-41 3.1254573e-31
2.4865933e-13 2.780772e-23 -3.6466885e-30 -6.0261476e-22 1.5487494e-25 5.5540937e-08 -2.9183232e-31 1.9821731e-25
0.00017191102 -2.2721806e-06 -5.100303e-06 1.8080703e-29 0.10276265 -6.322974e-17 -4.4077094e-08 1.0279331e-07
4.7656387e-22 0.008420138 -4.8869502e-08 -3.5283327e-16 -4.8245585e-10 -1.0490692e-35 -1.0602267e-27 -7.810272e-15
-4.8950533e-06 3.316344e-22 6.346256e-10 -3.7696992e-07 -6.641004e-06 1.6429088e-13 3.3291675e-05 2.5803328e-19
1.1934909e-12 -4.5720916e-09 -3.7142695e-30 1.8195448e-07 -1.5031129e-10 -6.757566e-39 7.415513e-23 -3.321599e-06
-5.0082712e-05 5.6746e-41 1.8074225e-33 -1.706353e-36 6.818369e-08 -2.6308527e-27 0.00088821584 -2.0254311e-15
-1.19794e-40 7.637e-42 -1.4747437e-16 1.1629693e-29 1.3949133e-21 7.58353e-18 0.00010714723 3.180147e-39
9.2004966e-11 4.693727e-19 -1.1381341e-19 1.25001e-40 -1.3624783e-16 -7.929395e-17 -6.485295e-21 1.8384627e-07
-3.7943916e-08 -1.15187e-40 2.260493e-10 5.8516684e-07 -5.307568e-14 -1.2008834e-07 3.2830663e-09 -3.5487237e-20
0.00018412979 -1.648144e-09 -4.627138e-06 4.1473482e-20 3.5404788e-14 -1.9080251e-11 -1.5382682e-06 -1.70126e-40
-7.6767235e-23 -4.3703747e-17 3.3493295e-30 -6.215171e-29 -1.04529e-14 -2.2072486e-11 -3.1499557e-33 2.3342427e-06
-5.3569e-41 -6.638898e-07 -1.5663001e-16 0.0016540622 7.3309886e-10 6.376684e-27 3.3316662e-30 -2.093485e-05
2.3899458e-05 -2.4571567e-10 -5.1243287e-11 6.4019414e-14 0.00032455497 -1.6071218e-09 -0.033766232 -2.3861963e-07
5.02052e-07 3.8295613e-05 1.191216e-10 -1.52133e-40 2.905543e-14 1.8967705e-20 2.0852611e-18 -2.743485e-39
1.6300286e-10 1.2671441e-08 1.00983e-40 -9.0640427e-17 8.8783203e-10 1.7069858e-27 5.373741e-13 3.2551542e-34
-2.2009291e-12 -4.7856568e-30 -1.587765e-39 -8.391349e-28 2.442989e-34 5.728966e-07 2.2176952e-08 1.171985e-09
-5.3934586e-11 3.0049248e-25 -6.0203456e-07 7.477327e-19 -5.38e-42 4.18128e-40 1.4264424e-20 1.7684685e-29
-1.2368442e-21 -2.1751937e-19 -3.134124e-10 -5.0855715e-34 1.256327e-39 4.9690094e-29 -7.1501415e-13 1.6662364e-07
-3.095812e-39 -1.078064e-34 7.8604e-41 -3.28304e-09 -9.2119655e-05 1.1658274e-29 -1.7296e-40 4.4287498e-07
-0.00010379635 1.7777009e-25 -0.00015416661 2.6892e-41 2.3813493e-10 -1.4984194e-10 -3.5524705e-13 1.496741e-26
-4.7627606e-07 -9.033e-42 -1.0699764e-11 9.2711e-41 2.41833e-39 2.23499e-15 -0.27472526 6.5717265e-11
4.3946076e-07 -0.05585979 3.898917e-25 2.295563e-06 8.2912566e-10 -5.002808e-11 -2.7504675e-05 1.11064e-40
-1.8585001e-07 -0.00021115049 1.1618141e-09 -0.18608779 2.2624038e-15 1.5003648e-17 -1.1268333e-13 7.499855e-10
6.1493467e-12 -0.00015683926 -0.003682035 -1.3390709e-32 -3.3034526e-13 0.00019561654 -2.5955183e-16 1.715392e-11
6.376994e-08 8.016777e-07 6.204862e-11 -2.19589e-40 1.8302e-41 2.5050135e-15 -4.6386485e-27 -1.7506628e-23
8.449236e-09 -6.583856e-16 4.658676e-13 4.116695e-31 -2.7950829e-22 6.3643856e-05 9.8043e-41 -0.00059878913
1.04349e-40 -1.07908094e-13 -4.204519e-14 -8.704554e-07 -1.3661483e-34 -2.8289318e-31 0.0002826952 -0.00041438942
7.675944e-07 1.4021e-40 1.6500902e-38 6.4285054e-08 1.9302403e-11 4.343699e-09 -0.054866172 -5.936983e-10
6.5599e-41 -1.024687e-08 1.1217558e-36 -8.108962e-27 -2.650798e-39 5.957045e-08 -1.7501217e-13 6.9104324e-34
1.7914188e-25 1.691e-41 -1.0810742e-13 6.2458445e-24 -1.9955078e-37 3.738263e-34 0.0001522962 -2.2705289e-11
-7.7993e-41 -2.717437e-26 -1.7995674e-06 -4.6997847e-33 -1.2662021e-23 -9.54696e-07 7.5868e-41 5.1189288e-14
00000000: 291b 7c9c 8a97 cc27 697d b71b 0c46 0000
00000010: 80a3 0280 af7d c6b2 e78d 0000 91da ca0c
00000020: 96fb 8b2a 4a78 061a 61ed 938e 0f21 369c
00000030: d4b9 3f16 e88b 6e33 f668 bd8c 9361 7516
00000040: 0343 3439 c47b 18b6 4523 abb6 305c b70f
00000050: 3975 d23d 40cc 91a4 474f 3db3 38bf dc33
00000060: 5808 101c 9ef4 093c 96e4 51b3 0065 cba5
00000070: d09d 04b0 c31c 5f85 e8ff a792 86b2 0ca8
00000080: 3040 a4b6 f075 c81b ce71 2e30 5a62 cab4
00000090: cad5 deb6 9ff9 382a aaa2 0b38 e350 9820
000000a0: 0bf8 a72b 8b18 9db1 2eab 968e 445f 4334
000000b0: de44 25af 5895 4980 cd4b b31a a3e8 5eb6
000000c0: e70f 52b8 2f9e 0000 a027 1609 1429 1184
000000d0: 616c 9233 0870 5093 28d7 683a 9cf2 11a7
000000e0: f04d 0180 4a15 0000 c006 2aa5 d2e0 6b0f
000000f0: 18cb d21c 35e4 0b23 3bb4 e038 f5a0 2200
00000100: 3152 ca2e cc88 0a21 fe5d 06a0 745c 0100
00000110: 4315 1da5 e3d6 b6a4 ed01 f59d 4767 4534
00000120: c7f7 22b3 1841 0180 398b 782f 5c14 1d35
00000130: 1808 6fa9 a2f1 00b4 509c 6131 7095 279f
00000140: f712 4139 e984 e2b0 d042 9bb6 5dda 431f
00000150: f172 1f29 e8d4 a7ad 7e76 ceb5 3eda 0180
00000160: 9e9c b99a 478c 49a4 6ddd 870e c492 9d90
00000170: 7e4d 3ca8 d226 c2ad 13d8 8289 fca5 1c36
00000180: 5495 0080 2936 32b5 0595 34a5 1ecd d83a
00000190: 3f83 4930 429b fc13 0026 870e 409d afb7
000001a0: b27b c837 6815 87af d05e 61ae ae28 9029
000001b0: 0829 aa39 92e1 dcb0 764e 0abd a21b 80b4
000001c0: c0c4 0635 9a9f 2038 c0f9 022f 16a8 0180
000001d0: a1da 0229 1925 b31e 78dd 1922 b8df 1d80
000001e0: 3a39 332f 96b1 5932 8019 0100 aa00 d1a4
000001f0: a00b 7430 c93d 0713 e241 172b 9457 d807
00000200: 6ae0 1aac 1a21 c28e 0b4a 1180 5bf7 8492
00000210: 4e5d a207 28c9 1935 a27f be32 8e13 a130
00000220: f234 6dae effe b916 809b 21b5 16b1 5c21
00000230: ff0e 0080 928d 0400 43b9 861e 1158 b30f
00000240: 18e8 ba9c 9966 80a0 e04c acaf 42ff 2888
00000250: 21ae 0d00 6ef5 7b10 3342 49ab 28e9 3234
00000260: ddb5 2180 9e4c 0f87 1edb 0000 da9b 61b1
00000270: 5d30 c1b8 3875 6c0f 24e2 0180 46c4 ed34
00000280: 3ead d9b8 9711 5c16 c9a7 21b9 f74a 0000
00000290: 83ea 822f c2c0 24af 7ffc c7aa e43a 9414
000002a0: e2b2 ffb4 2e19 0080 743b 3cad 7102 0100
000002b0: 5255 1a00 4a0c 2127 caa8 8cbe 8883 902e
000002c0: 07ef eb34 3ccd 64bd ce54 f116 790d 1a36
000002d0: 88e8 6330 9c06 5cae d7b9 e6b7 9a35 0100
000002e0: 108e 47b4 4768 5db9 b3ad 9f30 cc8d 3ebe
000002f0: fc05 2327 5d62 8a23 84bd fda9 8a27 4e30
00000300: 645c d82c 3875 24b9 4c4e 71bb 9c0e 8b8a
00000310: c5f7 b9aa 6a1e 4d39 179f 95a5 32e3 962d
00000320: e5f1 8833 df32 5735 4572 882e 2064 0280
00000330: 0533 0000 5881 3427 7cc1 b793 5050 a999
00000340: 2228 1132 48c4 3da6 4c21 032b 2a98 050d
00000350: d0f3 a89b 8978 8538 4e11 0100 0ff8 1cba
00000360: e222 0100 c8fc f2a9 ce5a 3da9 3da9 69b5
00000370: 9e97 3587 b19b b78c b536 9439 6842 d9b9
00000380: af0c 4e35 d986 0100 cdad b300 150d 8a33
00000390: 26c9 a92d 953f 9531 5abb 60bd ce31 23b0
000003a0: ddb6 0000 360a 30b2 5bdb be03 529d 2094
000003b0: 59dd 1c80 67da 7f33 d30b 45aa 75a3 6508
000003c0: 54c4 5d16 232f 0000 af6f f3a9 d99f f118
000003d0: a6ce 8782 4073 f807 b3b1 1f39 c4b7 c7ad
000003e0: 6ad9 0080 9b8f 0695 aa88 f1b5 af38 c389
000003f0: 4beb 7499 1b23 80b5 7dd3 0000 3b89 6629

fc2.bias f4 [256]
-0.022439541 -0.0061944295 0.21184713 -0.0026480327 -0.014579687 -0.01589559 -0.0014244765 0.013967752
-0.01718941 -0.011922739 -0.0062330714 -0.0014391612 0.51476103 0.396404 -0.007419112 0.4082942
-0.0009921832 0.30674636 0.40588173 0.36820227 0.031883124 0.6014036 -0.0109512815 0.13894607
0.002356889 0.17868234 -0.000290535 0.30886582 0.44623035 -0.001728476 -0.0015531906 0.40064377
0.24879229 -0.020421442 -0.08060058 -0.00054909044 0.5610785 0.046118382 -0.06746371 0.2659201
-0.0051816013 -0.050503314 -0.0017495325 0.64922386 0.32299852 -0.45039484 0.4138015 -0.021238156
1.3231918 -0.02523934 -0.013029043 -0.00667078 -0.025891025 -0.018554464 1.6318748 -0.0004557183
-0.00052200566 -0.0042880485 0.00030998728 0.59362876 -0.020395286 -0.006458115 -0.0007528337 -8.783405e-05
-0.0015620856 -0.0057586716 0.94990337 0.34881055 -0.024551429 0.34228978 -0.00063764 -0.0074646263
1.1614938 0.31639522 1.0186982 -0.09299955 0.014926951 -0.011660017 0.20443325 0.3721761
-0.00016016974 0.001781884 -0.0036788473 0.46573848 -0.00020906542 1.1880621 -0.0031191283 -0.0043467367
1.2431245 -0.00066307967 0.0019599367 0.020537965 0.005586983 -0.0015123589 -0.03596512 -0.009499361
1.1492544 -0.00089630403 -8.521076e-05 0.32388029 0.25938803 0.7757156 0.526574 0.22133301
-0.0013035883 -0.031738386 0.33324406 -0.00011401687 -0.02372508 -0.20117699 -0.012121526 0.27118117
0.90746564 -8.528586e-05 0.64022523 -0.0010144638 -1.6084801e-05 0.05196757 0.3542525 -0.0038043167
2.9076764e-05 0.057367563 0.035993773 -0.00022474371 0.010997665 -0.00044919326 0.021944335 -0.0067426697
0.2950691 -1.5037522e-06 -0.0004290474 0.5858269 1.3832415 0.38807493 0.0008865878 -0.0016460225
0.74399936 -0.00097475824 -0.013657147 -0.12543955 0.00018311004 0.04051985 0.046514757 -0.031251222
1.876808 -0.01612169 0.012894145 0.34771064 -0.0017373371 6.229439e-05 0.4503416 0.2179251
-0.0031181322 -0.0012027525 0.7464831 0.04057345 -0.00015016035 0.06878423 0.3980113 -0.0116438735
0.0102664195 -0.015564975 0.30350754 -0.0008694869 -2.0685751e-05 -0.036467053 0.010527778 0.06832087
0.05770932 -0.015316348 -0.027217772 1.1286496 -0.00091421674 -0.025108142 0.03731869 0.68255866
-0.022567859 0.27341315 0.010266921 -0.006321558 0.99112356 0.48739085 0.32355046 -0.29968315
1.2022005e-05 -0.0019863653 0.9647901 0.25486547 0.21372096 0.023412222 0.31148937 -1.8307448e-07
-0.012583242 0.113971956 -2.3689121e-05 0.22419222 -0.0028037522 -1.8135715e-05 -0.02025119 -0.00019811689
0.2992239 -0.009131082 1.2593324 -0.0013842459 0.04348739 0.0022582454 0.5639356 -1.6791124e-05
-0.00040466173 0.93579143 0.20515975 -0.14508562 -0.004207263 0.23599891 0.93863463 0.0013621344
0.39718294 -0.006474037 -0.0031971568 -0.062012605 0.30035362 0.0020929035 -0.0019155648 -0.061236233
-0.022042356 -0.00052805495 1.3161128 0.00037971372 0.0041117594 -0.00022239688 -2.6476944e-05 0.0024842103
0.29292014 -0.004114971 0.24957567 -0.0010864323 0.65506244 0.016898343 0.021656055 0.5495045
-0.032557394 0.0008176353 0.34854236 -0.0013466978 1.6165028 -0.02272928 0.2398394 -0.00012952885
-0.21467414 -0.013206616 -0.0002084197 0.21753675 0.25910074 -0.010137271 0.6544377 -0.044370472
00000000: 21d3 b7bc a4fa cabb 74ee 583e 9e8a 2dbb
00000010: a4df 6ebc 7837 82bc 80b5 baba 00d9 643c
00000020: ced0 8cbc 9857 43bc cb3e ccbb 3da2 bcba
00000030: 61c7 033f 77f5 ca3e 061c f3bb f00b d13e
00000040: 250c 82ba dc0d 9d3e bbcf cf3e 0285 bc3e
00000050: e197 023d 96f5 193f 016d 33bc e147 0e3e
00000060: 0976 1a3b 81f8 363e f352 98b9 a923 9e3e
00000070: 4e78 e43e 088e e2ba 6e94 cbba 2e21 cd3e
00000080: 68c3 7e3e de4a a7bc eb11 a5bd d6f0 0fba
00000090: d7a2 0f3f a1e6 3c3d 6a2a 8abd ae26 883e
000000a0: 6cca a9bb 90dc 4ebd 9250 e5ba 8933 263f
000000b0: 1060 a53e 279a e6be cadd d33e a4fb adbc
000000c0: 595e a93f bbc2 cebc c477 55bc 8f96 dabb
000000d0: 6a19 d4bc 88ff 97bc 46e1 d03f 7aed eeb9
000000e0: 35d7 08ba c282 8cbb ca85 a239 0ef8 173f
000000f0: 0414 a7bc 989e d3bb d059 45ba 8c33 b8b8
00000100: e5be ccba 3db3 bcbb de2c 733f 4c97 b23e
00000110: 1420 c9bc 9b40 af3e 4c27 27ba d399 f4bb
00000120: d4ab 943f 8efe a13e b464 823f 8c76 bebd
00000130: 2c90 743c a809 3fbc f356 513e de8d be3e
00000140: 3df3 27b9 1b8e e93a d118 71bb 4675 ee3e
00000150: 9238 5bb9 6b12 983f 4a6a 4cbb 126f 8ebb
00000160: b41e 9f3f 86d2 2dba 4872 003b 3c3f a83c
00000170: 0313 b73b 583a c6ba 2950 13bd 35a3 1bbc
00000180: c51a 933f f2f5 6aba 2eb3 b2b8 a3d3 a53e
00000190: 82ce 843e 4c95 463f 8ecd 063f 1fa5 623e
000001a0: 2add aaba 1c00 02bd f79e aa3e 571c efb8
000001b0: 195b c2bc 5701 4ebe 5d99 46bc 42d8 8a3e
000001c0: ab4f 683f 7fdb b2b8 cde5 233f c2f7 84ba
000001d0: d9ed 86b7 f2db 543d 9560 b53e d851 79bb
000001e0: e0e9 f337 40fa 6a3d 356e 133d 2ea9 6bb9
000001f0: 8d2f 343c b381 ebb9 9bc4 b33c 9df1 dcbb
00000200: 4c13 973e 88d4 c9b5 c4f1 e0b9 c0f8 153f
00000210: 0f0e b13f c2b1 c63e e669 683a 5abf d7ba
00000220: be76 3e3f eb86 7fba 3ac2 5fbc 3a73 00be
00000230: 3a01 4039 24f8 253d 4286 3e3d 4801 00bd
00000240: 3f3b f03f a211 84bc f741 533c 2107 b23e
00000250: 5cb7 e3ba 0ca4 8238 2d93 e63e c227 5f3e
00000260: 9459 4cbb ada5 9dba 8419 3f3f 5930 263d
00000270: 5d74 1db9 bfde 8c3d 23c8 cb3e f2c5 3ebc
00000280: 7c34 283c 3d04 7fbc 5765 9b3e 47ee 63ba
00000290: 5086 adb7 7a5e 15bd b47c 2c3c d0eb 8b3d
000002a0: 9c60 6c3d 6bf1 7abc cef7 debc 9777 903f
000002b0: 0ca8 6fba 97af cdbc 7cdb 183d 2abc 2e3f
000002c0: 3be0 b8bc cffc 8b3e 9636 283c 1225 cfbb
000002d0: 46ba 7d3f 4b8b f93e 68a8 a53e 1270 99be
000002e0: 1eb2 4937 ae2d 02bb 7cfc 763f ba7d 823e
000002f0: abd9 5a3e fdca bf3c 897b 9f3e 2193 44b4
00000300: f129 4ebc 216a e93d 00b8 c6b7 a592 653e
00000310: 28bf 37bb 2722 98b7 d3e5 a5bc 99bd 4fb9
00000320: e033 993e 899a 15bc ce31 a13f 966f b5ba
00000330: d51f 323d 12ff 133b 155e 103f aada 8cb7
00000340: c728 d4b9 0790 6f3f 6615 523e 5391 14be
00000350: 14dd 89bb b3a9 713e 5c4a 703f a589 b23a
00000360: 905b cb3e 2924 d4bb 6487 51bb ee00 7ebd
00000370: f3c7 993e 1829 093b b013 fbba d8d2 7abd
00000380: 2c92 b4bc 2b6d 0aba 6276 a83f 5014 c739
00000390: f0bb 863b 3533 69b9 ce1a deb7 22ce 223b
000003a0: a1f9 953e e1d6 86bb c490 7f3e 9e66 8eba
000003b0: 2cb2 273f 656e 8a3c 0a68 b13c 54ac 0c3f
000003c0: e75a 05bd 9356 563a 2574 b23e ae83 b0ba
000003d0: 90e9 ce3f c132 babc 7698 753e 23d2 07b9
000003e0: 8ad3 5bbe 9060 58bc 3d8b 5ab9 f4c1 5e3e
000003f0: daa8 843e cc16 26bc 3b89 273f d0bd 35bd

fc3.weight f4 [256, 256]
-6.683082e-27 1.2147129e-19 -0.00028686575 3.0901174e-23 -1.5015525e-20 -3.8531355e-11 -2.1403102e-05 -3.1121905e-19
1.1034237e-20 -2.1641937e-27 1.886914e-23 -9.158692e-06 -0.006260463 -8.83266e-06 1.6009137e-26 -9.9512516e-05
-1.723985e-21 -0.0018895426 -8.661246e-05 -0.023876924 -3.8565213e-06 -1.222517e-09 7.378026e-19 -0.00025599747
-2.3505316e-17 -0.00026550938 -5.663497e-10 -0.00074401125 1.0250693e-06 -3.8589744e-05 -5.1734424e-19 -1.6681769e-06
-0.0012925531 6.4294148e-18 -1.856619e-18 8.846139e-21 4.714997e-17 -0.0006113486 -6.0637554e-23 -4.6920824e-05
1.8945897e-11 -1.6424559e-24 1.9988435e-27 -0.0010670236 -7.389982e-05 7.1487e-41 -0.003021129 -5.0161503e-24
-1.6706202e-16 -1.6903942e-19 2.0256857e-19 1.749337e-18 -9.1135295e-26 -2.52184e-28 8.521579e-12 5.39678e-28
-7.171134e-20 -6.452134e-19 -2.7129821e-25 -2.536519e-07 -9.687558e-24 -1.487044e-18 -0.00010896677 3.8774036e-20
-2.6240562e-11 5.0910866e-22 -5.4575205e-15 -0.00086109684 -2.0582915e-07 -5.1571095e-07 7.5681067e-25 -1.3837523e-23
-1.9511702e-08 4.4067756e-21 -0.0010367654 7.361412e-21 3.8718063e-21 -7.728491e-22 -5.875166e-06 -0.0012058035
-7.695273e-19 6.0722104e-19 -3.4215125e-10 -8.954156e-06 1.1055044e-19 5.456258e-17 -2.3475039e-27 3.905647e-25
-2.0228912e-07 6.5155685e-29 1.1858638e-19 7.434082e-19 -0.00015310812 -3.86007e-26 8.206639e-27 1.926392e-18
-1.4581262e-17 -9.742582e-24 3.435752e-17 -0.0047199572 -2.4539426e-09 -2.6800174e-07 -1.4058623e-16 -6.1708735e-05
-3.4424197e-18 -5.8698565e-28 -3.844855e-20 -6.706491e-20 7.521412e-17 -1.9932365e-25 -3.1702788e-19 6.2674363e-28
7.986216e-05 2.6391348e-12 -1.9797595e-05 1.1883936e-18 5.8876115e-22 1.0945652e-21 -0.00084211625 -7.0290076e-34
-5.051772e-19 -1.6017745e-19 4.4357708e-24 -4.593803e-28 -4.1900487e-18 7.3616354e-20 -0.0007161446 -5.280042e-20
-8.058658e-05 -3.0731125e-18 3.4650814e-26 -2.1140702e-05 -8.0133753e-07 -6.951705e-13 -6.4331576e-26 7.5455235e-20
-6.7069675e-07 -2.8852056e-21 2.3651873e-20 6.5043366e-25 8.619593e-30 -5.9129744e-23 1.200888e-20 9.600788e-25
7.526262e-18 5.8241783e-25 -2.3686369e-23 -2.1756045e-05 1.4531781e-21 -6.786764e-21 2.1133325e-17 -0.0011332198
-1.9912947e-27 -6.498966e-18 -1.7996056e-06 -4.3262464e-19 -3.083887e-17 -3.051265e-24 -0.00018512667 -3.213442e-05
-7.890228e-15 -3.9022503e-27 -0.003742746 4.6655807e-27 8.1789567e-19 2.6678344e-27 -2.9521833e-27 -7.318293e-27
4.5805598e-15 2.696184e-18 2.6052488e-19 5.877094e-17 -1.2559329e-18 -2.7662012e-20 4.9215833e-22 -1.5670132e-05
-8.710048e-23 -2.798223e-07 -9.401298e-20 -2.0932759e-20 1.36335586e-14 -8.055981e-05 -0.0002836318 4.6478834e-19
-4.0160744e-17 -3.430008e-18 -4.416394e-17 -1.50175e-05 -3.832679e-06 -1.5181e-24 -6.532844e-05 1.4452115e-10
-8.24969e-24 -0.008868843 1.3212605e-26 -0.0011606239 1.4795656e-24 -2.6343596e-19 -1.7792216e-19 -2.1278673e-18
0.00034737875 4.857459e-19 -1.061859e-07 -1.4670221e-27 1.6593586e-25 -9.254033e-19 -0.00016213929 8.354359e-17
-2.4967323e-17 -4.3291334e-07 -0.0002720943 1.3047643e-21 9.431074e-26 -0.0015600233 -2.1198393e-07 -8.786854e-24
-0.00035138408 -7.6132165e-28 -3.0419236e-19 3.378033e-21 -2.8216919e-05 -2.589742e-17 -1.2556118e-21 3.1708478e-29
-1.4280598e-18 2.146862e-18 -4.2419546e-07 2.838402e-15 4.092857e-19 7.284749e-19 -1.5636477e-27 -3.8918487e-27
-7.3008064e-06 1.5764734e-21 -0.0053009577 -5.958629e-21 -1.2162704e-27 -4.702328e-18 1.4792823e-20 -2.2514398e-06
-3.5227077e-27 -6.1049695e-17 -0.00062531314 1.8386232e-18 -0.002364751 6.0016994e-19 -6.915349e-07 9.957435e-18
-1.009818e-17 -2.3543409e-26 3.842369e-18 1.5296294e-08 -6.860455e-19 -7.5508737e-26 -1.4898379e-12 1.7684412e-28
00000000: 405f 0494 7268 0f20 7866 96b9 cd6d 151a
00000010: 50d1 8d9e 7376 29ae d08a b3b7 18b6 b7a0
00000020: 4c6e 501e 1077 2b93 ba7d b619 48a8 19b7
00000030: 9224 cdbb fc2f 14b7 fc8b 9e14 60b1 d0b8
00000040: b842 029d 87aa f7ba b6a3 b5b8 8a99 c3bc
00000050: 4467 81b6 7e05 a8b0 cac2 5921 6637 86b9
00000060: 5ccc d8a3 1134 8bb9 51ad 1bb0 c009 43ba
00000070: 1d95 8935 6cdb 21b8 6db1 18a1 1fe6 dfb5
00000080: e36a a9ba 1b34 ed22 8bfe 08a2 4e19 271e
00000090: dc70 5924 e942 20ba d49c 929a dacc 44b8
000000a0: 5ea6 a62d 6228 fe97 5d5d 1e13 5fdb 8bba
000000b0: aafa 9ab8 47c7 0000 22fe 45bb 8c0d c298
000000c0: 019c 40a5 0891 47a0 9826 6f20 0b14 0122
000000d0: dba3 e195 32d7 9f91 c8e9 152d e207 2b12
000000e0: d852 a99f f26e 3ea1 ebec a796 a72d 88b4
000000f0: 7762 3b99 ef72 dba1 1785 e4b8 ef1a 371f
00000100: 7ed0 e6ad 60de 191c bea0 c4a7 3bbb 61ba
00000110: e301 5db4 636f 0ab5 b838 6a17 0cd4 8599
00000120: b09a a7b2 b87b a61d 13e4 87ba 9b0d 0b1e
00000130: d045 921d 4e94 699c 4b23 c5b6 0d0c 9eba
00000140: d71f 63a1 5338 3321 8219 bcaf cf39 16b7
00000150: d283 0220 20a0 7b24 09fd 3993 72bf f116
00000160: cf34 59b4 7530 a510 8900 0c20 566a 5b21
00000170: a68b 20b9 3324 3f95 9a8c 2214 8424 0e22
00000180: 087d 86a3 ee72 3c99 3372 1e24 dfa9 9abb
00000190: 37a2 28b1 e1e1 8fb4 bb15 22a5 a069 81b8
000001a0: 7801 7ea2 ef05 3a92 7291 359f 405a 9e9f
000001b0: 946e ad24 30c0 7696 e623 bba0 7c9f 4612
000001c0: ac7b a738 6db6 392c 0313 a6b7 3e60 af21
000001d0: 30f1 311c f167 a51c 77c1 5cba 2f94 6988
000001e0: 1c1a 15a1 aa1a 3da0 bf99 ab18 5c95 1192
000001f0: e495 9aa2 5bd2 ad1f a7bb 3bba cb57 799f
00000200: 9700 a9b8 74c1 62a2 2095 2b15 5057 b1b7
00000210: 7f1b 57b5 50ac 43ab fb46 9f95 e429 b21f
00000220: ee09 34b5 feff 599d b862 df1e aa4c 4917
00000230: 7cd3 2e0f 8af7 8e9a 61d7 621e a490 9417
00000240: c4d5 0a23 e53f 3417 9c14 e599 c080 b6b7
00000250: 1b99 db1c c732 009e a7eb c223 8c88 94ba
00000260: 41c4 1d93 00c5 efa2 fa89 f1b5 6360 ffa0
00000270: 1d38 0ea4 8814 6c98 901e 42b9 12c8 06b8
00000280: 4123 0ea8 8595 9a93 dc48 75bb 9cd2 b813
00000290: 7366 7121 1c5e 5313 64e5 6993 27f4 1094
000002a0: 3508 a527 7af1 4622 68c9 9920 3d84 8724
000002b0: ce57 b9a1 52a1 029f e8be 141c 5a73 83b7
000002c0: 9698 d29a 7c3a 96b4 5cfb dd9f 4eb4 c59e
000002d0: b199 7528 38f2 a8b8 6ab4 94b9 6a2e 0921
000002e0: 7035 39a4 0517 7da2 94ab 4ba4 acf3 7bb7
000002f0: 769a 80b6 23ea ea97 f000 89b8 16e7 1e2f
00000300: 7c92 1f99 a04e 11bc efd9 8214 1320 98ba
00000310: a2f3 e417 5181 9ba0 ac0d 52a0 4702 1da2
00000320: 6320 b639 ec5d 0f21 5108 e4b3 7c75 e892
00000330: 2c6b 4d16 c090 88a1 ef03 2ab9 6ea3 c024
00000340: 6d48 e6a3 286b e8b4 e1a7 8eb9 a02b c51c
00000350: 8880 e915 b279 ccba b39d 63b4 65f6 2999
00000360: f939 b8b9 c045 7192 4090 b3a0 a93c 7f1d
00000370: 5fb3 ecb7 8edc eea3 21be bd9c f5c7 2010
00000380: 93be d2a1 1469 1e22 fbbc e3b4 4687 4c27
00000390: 8299 f120 0202 5721 16c5 f792 092c 9a93
000003a0: 73f9 f4b6 dc3a ee1c a8b3 adbb 531c e19d
000003b0: cab9 c092 3b7c ada2 dab6 8b1e 7117 17b6
000003c0: 808c 8b93 61c5 8ca4 0eec 23ba 9caa 0722
000003d0: f0f9 1abb 8f23 3121 eba1 39b5 a8ae 3723
000003e0: 4f47 3aa3 a229 e994 26c2 8d22 e864 8332
000003f0: 227c 4aa1 59f3 ba95 11ad d1ab 332d 6011

fc3.bias f4 [256]
-7.564795e-18 0.021097623 -3.769472e-08 -5.231431e-08 1.5521083e-38 4.104015e-08 1.2723947e-13 -5.2347965e-05
-5.0354665e-20 0.0042618704 1.1564863e-07 -8.3276643e-07 -9.955758e-06 -4.7129598e-07 -0.00042459503 1.3406889e-06
-5.575565e-09 0.005707292 2.7724623e-25 -1.0438084e-17 2.9379586e-13 -4.2999036e-27 5.2614353e-09 -1.05407084e-13
-7.413e-41 -4.7736513e-08 2.8437348e-38 -0.00013244782 -6.642609e-05 1.3653634e-07 1.3634917e-05 -0.014961582
4.2185225e-17 -4.414713e-29 -1.7720832e-13 -1.0079752e-06 -1.3572819e-08 -8.3776005e-19 -1.323117e-08 0.0002074414
-1.468052e-17 0.0012140229 2.184006e-05 -1.20515395e-11 -0.000326126 -8.2803845e-06 1.66102e-40 -0.01676824
-5.6415224e-06 9.533744e-05 0.00020091589 -1.0395872e-17 -1.4441813e-09 0.0002896305 -1.4656976e-18 -0.06804185
-0.00039957845 8.451952e-14 -2.203376e-08 -3.2754567e-06 -1.2363808e-08 2.3574885e-30 -8.4419145e-05 -8.766485e-07
-1.3081871e-17 -5.8233934e-07 -0.0014531416 0.009446246 3.3722235e-06 -2.1907432e-08 4.3272982e-07 -9.963361e-07
5.4016023e-09 -1.3764173e-07 -0.0026452094 2.1018218e-07 -5.3620663e-09 -4.2198245e-09 -1.0180138e-08 6.4375863e-06
-0.0055037434 -1.5160954e-10 6.607756e-05 -8.79565e-20 4.3789505e-10 0.008440843 6.114373e-05 -2.0248264e-31
4.247881e-05 0.001520154 3.7094225e-07 -0.0013112751 -0.033211272 2.3289417e-08 1.8996402e-09 -0.0029091923
-0.32139027 0.00016876438 -1.4366711e-31 3.248e-41 1.0264925e-17 -3.7598555e-17 1.3475963e-12 1.6367424e-09
-8.546969e-09 8.128184e-08 -3.202269e-08 0.000934695 3.831e-41 2.9221678e-06 0.009973523 -1.57903e-07
0.0001608487 2.1943747e-07 -4.624775e-06 -0.00093590247 1.6314587e-17 1.6210511e-23 -0.02341781 -6.411599e-08
7.578054e-05 2.394004e-08 -2.0886448e-08 -2.1154638e-22 3.7332112e-10 -9.9071045e-08 -3.011463e-20 0.18768132
-1.4687388e-19 -3.1373996e-33 -0.00023134978 -7.056072e-05 0.0011399983 3.2160498e-25 -1.2768184e-08 -4.9921702e-08
2.58632e-40 6.678939e-05 1.324886e-07 -1.0649624e-06 4.273558e-24 -3.7856387e-07 0.02112472 -4.6038636e-07
1.5524622e-25 0.01872155 0.07068525 -2.542767e-07 -9.2194e-08 -2.5407776e-13 1.5402637e-08 1.4022258e-06
1.4136939e-09 -6.237417e-13 2.4952299e-06 1.1412001 -4.0524533e-08 0.027190521 -7.425013e-14 0.021205217
9.917812e-14 9.747552e-09 2.0709584e-12 -7.2221735e-09 -4.971857e-07 0.00028985605 1.8759843e-06 -0.002165596
3.312299e-08 -5.0964485e-07 2.7234278e-06 -2.9495336e-08 1.4183004e-05 3.5764224e-19 -9.844357e-32 -1.079428e-19
-1.4959144e-31 -0.010959573 0.0013270569 -1.1978001e-06 -1.7097341e-09 3.3756143e-07 -8.3572e-41 -5.132e-06
-8.5816e-41 6.12409e-08 -4.894959e-09 -1.1632362e-06 0.0031287752 3.817345e-17 -7.088315e-07 9.865617e-19
-4.93905e-08 0.0041840207 -1.8729375e-23 -0.017049711 6.9428984e-07 8.8689245e-07 -1.6037546e-21 1.4438978e-06
-4.626276e-12 -4.2284114e-11 -2.0078045e-07 4.5211627e-07 -1.548427e-31 2.8896514e-07 0.00019041827 -6.932871e-22
-1.2576798e-17 0.006454191 0.003077205 -5.517997e-19 0.0003087336 2.8358922e-24 4.3152445e-06 -1.262625e-07
1.154244e-19 -5.1498244e-08 2.0334674e-07 4.4732837e-21 8.762681e-19 -1.8719699e-13 0.016865637 -2.1995136e-05
-1.1388884e-06 0.004744852 0.0012941794 8.585318e-08 1.8203386e-07 0.00086457434 8.780878e-06 0.031940147
4.6069986e-06 2.6380778e-09 1.0380077e-09 -4.3101114e-08 7.864198e-07 -3.0862737e-10 2.2435903e-18 -0.00072231767
4.8959647e-27 2.500638e-10 3.263118e-17 -0.16499984 -1.0945689e-07 -3.7547673e-12 -1.5508456e-06 -2.1903878e-07
1.356569e-11 -6.0839746e-08 -1.7907907e-05 -4.3164488e-07 0.12214759 4.1638166e-29 -3.591902e-07 -0.24741575
00000000: bc8b 0ba3 ecd4 ac3c c8e5 21b3 31b0 60b3
00000010: 7702 a900 1f44 3033 4842 0f2a 3390 5bb8
00000020: 0ecb 6d9f 29a7 8b3b 825a f833 468b 5fb5
00000030: a807 27b7 6d06 fdb4 2e9c deb9 b8f1 b335
00000040: 3093 bfb1 3c04 bb3b 6b9b ab16 758c 40a3
00000050: 7264 a52a 3456 aa93 13c8 b431 0c5b eda9
00000060: a5ce 0080 da06 4db3 e1d3 1a01 b1e1 0ab9
00000070: 3c4e 8bb8 d39a 1234 86c1 6437 6c21 75bc
00000080: 868b 4224 40da 5f90 d284 47aa c449 87b5
00000090: e42d 69b2 5c43 77a1 4d4f 63b2 a084 5939
000000a0: 6667 87a3 d91f 9f3a 2c35 b737 4f03 54ad
000000b0: e4fb aab9 fbeb 0ab7 06cf 0100 8c5d 89bc
000000c0: 4f4c bdb6 e6ef c738 f3ac 5239 1ec5 3fa3
000000d0: 9d7c c6b0 8cd9 9739 7d4c d8a1 8759 8bbd
000000e0: 837e d1b9 3052 be29 c044 bdb2 ebcf 5bb6
000000f0: 9a68 54b2 1f43 3f0e 2f0a b1b8 d452 6bb5
00000100: 6451 71a3 0e52 1cb5 5777 beba 6dc4 1a3c
00000110: 5c4e 6236 f42e bcb2 ef51 e834 d9b9 85b5
00000120: ff98 b931 acca 13b4 405b 2dbb 70ae 6134
00000130: 3c3d b8b1 f8fd 90b1 b8e4 2eb2 7202 d836
00000140: bf58 b4bb 4bb2 26af 1f93 8a38 71ae cf9f
00000150: 40bc f02f 764b 0a3c 4a3a 8038 336b 838c
00000160: 462b 3238 e73f c73a ea25 c734 17df abba
00000170: 8b08 08bd f80d c832 d38a 0231 26a8 3ebb
00000180: 448d a4be 58f6 3039 967d 3a8c 8b5a 0000
00000190: bd5a 3d23 8a64 2da4 46a8 bd2b c1f3 e030
000001a0: f8d5 12b2 2a8d ae33 5289 09b3 5206 753a
000001b0: cb6a 0000 761a 4436 fd67 233c 0c8c 29b4
000001c0: 7ea9 2839 839e 6b34 842e 9bb6 5a57 75ba
000001d0: bb79 9623 48c7 9c19 b5d6 bfbc 23b0 89b3
000001e0: 5eec 9e38 b4a4 cd32 c969 b3b2 6fbe 7f9b
000001f0: 473c cd2f e2c0 d4b3 5b36 0e9f 882f 403e
00000200: e865 2da0 8e52 8289 7c96 72b9 00fa 93b8
00000210: ff6b 953a 5810 c716 115b 5bb2 7e69 56b3
00000220: f6d0 0200 4811 8c38 3042 0e34 d4ef 8eb5
00000230: 4553 a518 6c3d cbb4 c00d ad3c 052b f7b4
00000240: 7e2f 4016 f05d 993c 6ec3 903d 8683 88b4
00000250: 30fc c5b3 7708 8faa c24e 8432 1d34 bc35
00000260: ef4b c230 5491 2fab b973 2736 d812 923f
00000270: 320d 2eb3 a8be de3c 4932 a7a9 90b6 ad3c
00000280: 4b54 df29 3076 2732 12bb 112c e926 f8b1
00000290: 5776 05b5 d2f7 9739 54ca fb35 acec 0dbb
000002a0: 1d43 0e33 87ce 08b5 22c4 3636 ee5c fdb2
000002b0: 8af3 6d37 5e1d d320 fa92 ff8b 6bdf fe9f
000002c0: 482e 428c c88f 33bc a4f0 ad3a 19c4 a0b5
000002d0: ecfb eab0 173a b534 f7e8 0080 8b33 acb6
000002e0: 38ef 0080 8a83 8333 8430 a8b1 7e20 9cb5
000002f0: 230c 4d3b 410b 3024 8846 3eb5 3f97 9121
00000300: 6e21 54b3 1c1a 893b b023 b599 d6ab 8bbc
00000310: 3c5f 3a35 c912 6e35 405a f29c f3cb c135
00000320: cac5 a2ac aef7 39ae 1c96 57b4 63ba f234
00000330: 50ff 488c 1123 9b34 04ab 4739 7e88 519c
00000340: 4000 68a3 ae7d d33b efaa 493b cedc 22a1
00000350: 86dd a139 a26a 5b18 abcb 9036 c692 07b4
00000360: e244 0820 eb2e 5db3 8757 5a34 f2fe a81d
00000370: 7950 8121 dcc3 52aa ce29 8a3c 3282 b8b7
00000380: e8db 98b5 b47a 9b3b 74a1 a93a 495e b833
00000390: 1675 4334 9aa4 623a 9551 1337 acd3 023d
000003a0: d195 9a36 8e49 3531 a6a9 8e30 2d1e 39b3
000003b0: 5b1a 5335 71ab a9af 398c 2522 eb59 3dba
000003c0: fbf2 c113 5a79 892f 197c 1624 b8f5 28be
000003d0: 900e ebb3 f01b 84ac a626 d0b5 ec30 6bb4
000003e0: 70a6 6e2d 01a7 82b3 f038 96b7 d2bc e7b4
000003f0: 8428 fa3d 6e21 5310 bad6 c0b4 8e5a 7dbe

fc4.weight f4 [1, 256]
-0.1324465 -0.49976617 0.0804798 0.07878719 0.11945162 -0.0134244105 0.093929514 0.03985446
0.0816007 0.04922208 0.012648787 0.032350868 0.000114673814 0.3618413 -0.09736841 0.8130877
-0.066725425 0.026024248 -0.2694327 0.108686134 -0.047645498 -0.24318683 -0.0067936517 0.20647205
-0.115057275 -0.00017712238 -0.5170209 -0.041728843 -0.16652489 -0.48830077 0.0329033 -0.21205911
-0.39646077 -0.063711554 0.035632882 0.01216823 0.30060425 -0.1526726 -0.02627603 -0.032425724
-0.08129331 -0.0069399285 0.05967354 -0.07515446 -0.49834874 -0.6859557 0.10209445 -0.1373462
-0.15487391 0.11624079 0.31168276 -0.007944301 0.47233382 -0.0047398643 -0.21873294 -0.28860235
0.09705291 0.079190776 -0.050636794 -0.011829728 -0.04622785 0.45983624 -0.06725175 0.9183185
0.6133716 0.047546897 -0.059063807 0.08837304 0.6842471 0.00035553877 0.6082022 0.14344752
0.2411319 -0.12683395 -0.07534958 0.23298036 0.40232012 0.07241315 -0.0010874406 -0.14342026
-0.0017624609 -0.0020492151 -0.3518206 -0.006830931 -0.004198091 -0.4940126 0.009796918 -0.057974536
0.7413353 0.9111478 -0.0013161731 -0.5818072 -0.45650885 0.0020063112 -0.23947106 -0.6703463
-0.34247383 -0.08369435 -0.06100993 -0.081415035 0.5418788 0.60822123 -0.062490627 0.03963865
-0.75254273 0.011073272 -0.06567018 -0.17752889 -0.0234117 0.60705715 -0.01897202 -0.0014996432
-0.22719169 -0.02358797 -0.046777107 -0.00017737036 0.22611369 -0.32149738 0.3168851 0.10775391
-0.2906966 -0.047118906 -0.69993424 -0.07545047 -0.39885923 0.30717173 -0.08532624 0.2321909
-0.20363866 -0.069766626 -0.14493616 -0.016565248 0.42532006 -0.31125882 -0.26012933 -0.27508265
-0.041739453 -0.3346495 0.11993811 0.94229907 -0.8329513 -0.3857337 0.07684378 -0.06891665
-0.103094704 -0.2049391 0.28516066 -0.08203552 0.5470427 -0.054484017 -0.059580453 -0.44493026
0.1447204 -0.075973466 0.9709959 0.66954446 -0.016732728 0.21961285 -0.10310337 0.072428875
0.08760994 0.015934182 0.04145353 -0.6424958 -0.45394707 -0.0034523138 -0.38166094 -0.03434785
-0.038359415 -0.21880752 -0.5066865 -0.019660866 -0.028440122 -0.13794106 0.012041724 -0.27539042
-0.63656235 -0.017290406 -0.8583694 -0.035247486 -0.03610709 0.16312207 -0.017275317 -0.38574728
0.021745645 -0.1316095 0.0011720686 0.5102104 -0.7358573 -0.290817 1.1081065 -0.61286193
0.031907476 0.0066839545 0.48971125 0.16115785 -0.20732895 0.07542207 -0.04852712 -0.11343795
-0.19095273 -0.2491975 -0.14238665 -0.17845215 -0.7163404 -0.17368542 -0.0036694321 -0.63091755
0.2941767 -0.32354185 0.07417681 -0.11162423 -0.041495267 -0.0021195568 0.27469546 0.01698737
-0.077564925 -0.0011447507 -0.17770313 -0.043993562 0.16421807 -0.05266445 0.005634004 0.011678778
-0.055311594 0.0032844213 -0.10071218 0.27919906 -0.003781716 -0.035952013 0.009102363 0.018622706
0.044672888 -0.0054064295 -0.15313013 -0.12086857 -0.21325283 -0.030447885 -0.21866669 -0.036653068
0.03964696 -0.09209378 -0.117937416 -0.084984414 -0.05018618 -0.6615462 0.053162724 -0.09493237
-0.0364016 -0.00086329086 -0.06285415 0.21118172 0.15472075 -0.22758304 -0.27016848 0.17764378
00000000: 0ea0 07be 5ae1 ffbe 98d2 a43d 2e5b a13d
00000010: 0da3 f43d 0ff2 5bbc 1e5e c03d 6e3e 233d
00000020: 451e a73d 179d 493d dc3c 4f3c 5882 043d
00000030: 097d f038 4343 b93e 1769 c7bd 8426 503f
00000040: 57a7 88bd ce30 d53c 15f3 89be d696 de3d
00000050: ed27 43bd f805 79be 489d debb 696d 533e
00000060: 26a3 ebbd edb9 39b9 7b5b 04bf ddeb 2abd
00000070: 8085 2abe 8f02 fabe 9cc5 063d 0626 59be
00000080: e8fc cabe 347b 82bd c9f3 113d 415d 473c
00000090: cde8 993e 3556 1cbe d440 d7bc d6d0 04bd
000000a0: 1b7d a6bd 5768 e3bb 3e6c 743d 95ea 99bd
000000b0: 9127 ffbe cb9a 2fbf e516 d13d 7ba4 0cbe
000000c0: 4497 1ebe a70f ee3d e294 9f3e d028 02bc
000000d0: bdd5 f13e dd50 9bbb 87fb 5fbe b0c3 93be
000000e0: adc3 c63d c62e a23d 8768 4fbd 7ad1 41bc
000000f0: 6a59 3dbd a86f eb3e 49bb 89bd ec16 6b3f
00000100: ec05 1d3f 89c0 423d e4ec 71bd edfc b43d
00000110: d12a 2f3f 9b67 ba39 24b3 1b3f e8e3 123e
00000120: 48eb 763e c2e0 01be e150 9abd 6792 6e3e
00000130: e7fc cd3e 584d 943d 7488 8eba c3dc 12be
00000140: 6002 e7ba 204c 06bb d421 b4be 01d6 dfbb
00000150: 2490 89bb 38ef fcbe 4183 203c b576 6dbd
00000160: 26c8 3d3f fb40 693f 7183 acba 51f1 14bf
00000170: 87bb e9be 517c 033b e737 75be d19b 2bbf
00000180: bb58 afbe f267 abbd 8ce5 79bd edbc a6bd
00000190: 92b8 0a3f 63b4 1b3f 2cf6 7fbd 235c 223d
000001a0: a4a6 40bf ab6c 353c 167e 86bd 22ca 35be
000001b0: e5c9 bfbc 1968 1b3f 366b 9bbc ad8f c4ba
000001c0: f0a4 68be 8f3b c1bc 5a99 3fbd 7efc 39b9
000001d0: 598a 673e 4e9b a4be c43e a23e 15ae dc3d
000001e0: 2fd6 94be c1ff 40bd e42e 33bf c785 9abd
000001f0: 4737 ccbe 9d45 9d3e 86bf aebd 74c3 6d3e
00000200: a786 50be cee1 8ebd 256a 14be d8b3 87bc
00000210: 8dc3 d93e 515d 9fbe ac2f 85be a2d7 8cbe
00000220: fdf6 2abd 2e57 abbe 1da2 f53d 833a 713f
00000230: 4c3c 55bf e37e c5be 4660 9d3d 2c24 8dbd
00000240: 5123 d3bd 8edb 51be 9400 923e 3d02 a8bd
00000250: fe0a 0c3f a22a 5fbd a20a 74bd e6cd e3be
00000260: 9631 143e fa97 9bbd 3093 783f 4467 2b3f
00000270: 1313 89bc 31e2 603e dc27 d3bd 9755 943d
00000280: d76c b33d 6788 823c 2dcb 293d 9b7a 24bf
00000290: c06b e8be 3740 62bb 1069 c3be 55b0 0cbd
000002a0: c31e 1dbd 140f 60be 35b6 01bf d30f a1bc
000002b0: 42fb e8bc 6c40 0dbe a74a 453c f9ff 8cbe
000002c0: c0f5 22bf 9ca4 8dbc 19be 5bbf ab5f 10bd
000002d0: 07e5 13bd 7909 273e f784 8dbc ab80 c5be
000002e0: ec23 b23c a4c4 06be 19a0 993a 269d 023f
000002f0: 2561 3cbf f7e5 94be 6fd6 8d3f 85e4 1cbf
00000300: 6ab1 023d 1305 db3b 6fbb fa3e 9006 253e
00000310: 0a4e 54be e376 9a3d 60c4 46bd 2852 e8bd
00000320: 1d89 43be a12d 7fbe cecd 11be 29bc 36be
00000330: 1662 37bf 97da 31be db7a 70bb d083 21bf
00000340: 549e 963e 47a7 a5be 03ea 973d 3f9b e4bd
00000350: f1f6 29bd 43e8 0abb e2a4 8c3e 1929 8b3c
00000360: 5cda 9ebd 760b 96ba cff7 35be 9832 34bd
00000370: c828 283e aeb6 57bd 739d b83b 5858 3f3c
00000380: 698e 62bd 723f 573b 3042 cebd 2ef3 8e3e
00000390: abd6 77bb 6b42 13bd 1422 153c a58e 983c
000003a0: ebfa 363d 6b28 b1bb 25ce 1cbe f189 f7bd
000003b0: f35e 5abe d86d f9bc 29ea 5fbe 8721 16bd
000003c0: da64 223d aa9b bcbd 2c89 f1bd 4f0c aebd
000003d0: 0690 4dbd 175b 29bf 28c1 593d e76b c2bd
000003e0: d819 15bd 784e 62ba adb9 80bd 0540 583e
000003f0: 1e6f 1e3e 870b 69be 8653 8abe 40e8 353e
