shanghai_road_delivery/results_centralized/centralized_episode_150.pth_centralized_critic.pth (torch, 919188 bytes, 7 tensors)

fc1.weight f4 [256, 378]
0.025519663 -0.0065185996 -0.01104646 -0.010642864 -0.010782492 -0.009322953 1.31134e-40 5.9168873e-05
-4.3307627e-12 -0.00012453749 4.4624303e-06 0.046077967 -0.020557841 -9.281239e-07 0.0051368237 0.044020496
-0.03913176 9.597242e-07 0.0029721595 0.030328866 0.018332787 -0.00023003481 0.008627737 4.267545e-39
-0.004574569 -2.0093589e-15 -0.0025427009 2.0197748e-12 -0.0011205552 1.7076127e-06 0.034186076 0.00043090212
0.0021353948 3.1074105e-05 -0.028305218 -1.459157e-09 0.026490599 -0.011046544 -0.037838914 -0.011046544
-0.782342 -0.10227018 0.05832523 -0.013314076 -0.37680137 -0.062185816 0.041496545 -0.016868824
-0.00025782236 -0.011046725 1.1180334e-06 -0.011046544 -0.0095136 -0.049508415 -0.011046426 -0.009992887
-0.010176312 -0.009277053 -2.05527e-40 -2.0830336e-07 2.8222947e-05 1.1222816e-11 1.7185668e-05 0.046077978
-0.020557841 -1.0691458e-06 0.0051368237 0.044020496 -0.03913176 0.00025304372 0.0029721595 0.030328866
0.01833278 1.5060572e-15 0.015284352 -4.6875755e-08 0.0108081475 -2.7097194e-08 0.0004004808 2.403377e-06
0.018462628 1.4899358e-24 0.034186076 -0.0014168852 0.0021353948 1.5171764e-12 -0.028305173 -4.5286778e-12
0.026490599 -0.011046544 -0.037838917 -0.011046544 -0.82318306 -0.09609086 0.054068618 -0.011496134
-0.3688123 -0.07075105 0.037252557 -0.0053899526 0.013161567 -0.00992094 -1.1562122e-09 -0.011046544
0.02621657 -0.043562535 -0.011046452 -0.010027656 -0.010271391 -0.005484165 7.85498e-05 1.9272753e-05
2.940858e-05 2.8760043e-09 7.976433e-11 0.04607796 -0.020557841 5.859518e-07 0.0051368237 0.044020504
-0.03913176 -6.699596e-11 0.0029721595 0.030328866 0.018332778 2.379654e-08 0.013876947 2.3193e-41
0.006169433 3.9276736e-07 0.01389015 2.9546769e-08 0.01846264 -2.3379144e-12 -0.0011205552 -4.8659263e-08
0.0021353948 -4.776862e-10 -0.028305208 -1.6193931e-10 0.026490599 -0.011046544 -0.037838917 -0.011046544
-0.48690757 -0.09455549 0.054969944 -0.031391386 -0.18212028 -0.06425862 0.042362217 -0.020448703
0.0020779455 -0.010267103 -2.2712998e-11 -0.011046544 0.00031929696 -0.03670673 -0.011046443 -0.010118885
-0.01024776 -0.009501917 4.222161e-15 -1.2446021e-12 2.5326147e-10 3.5265861e-09 1.7969374e-11 0.046077967
-0.020557841 5.0903805e-07 0.0051368237 0.044020522 -0.03913176 -6.5522236e-06 0.0029721623 0.030328866
0.018332776 -0.0077474792 0.018926747 -0.0021552497 0.0045164763 -0.0019387787 -0.0014084441 -9.601859e-10
0.018462628 -0.0005996873 -0.0011205552 -1.42133805e-11 0.034186076 2.6719545e-07 -0.028305208 -1.4269483e-09
0.026490599 -0.011046544 -0.037838917 -0.011046544 -0.5737233 -0.103823796 0.056267444 -0.019298235
-0.29482624 -0.060826004 0.04145025 -0.0076062717 -0.006018071 -0.010048168 1.0826181e-08 -0.011046544
0.02689974 -0.04171287 -0.011046443 -0.010633917 -0.010772107 -0.009275229 -2.1746382e-07 -1.5610412e-10
-6.1982428e-06 -1.9566395e-09 2.3076346e-12 0.046077967 -0.020557841 1.618954e-07 0.0051368237 0.044020496
-0.039131764 5.7277784e-06 0.0029721595 0.030328866 0.018332774 9.726309e-15 0.017997872 -3.492947e-05
0.020416817 4.3961427e-07 0.00056698546 -0.0009848971 0.01846264 -7.807921e-06 -0.0011205552 -2.0198365e-06
0.034186076 9.780126e-13 0.0021353995 6.365495e-10 0.026490599 -0.011046544 -0.037838917 -0.011046544
-0.70910066 -0.09794953 0.05830174 -0.0030700574 -0.2596258 -0.054916345 0.03274777 -0.0074516824
00000000: 9d0e d13c fa99 d5bb 36fc 34bc 685f 2ebc
00000010: 0da9 30bc 4dbf 18bc 8c6d 0100 182c 7838
00000020: 0b60 98ac 4796 02b9 fcbb 9536 40bc 3c3d
00000030: eb68 a8bc 3024 79b5 cd52 a83b d64e 343d
00000040: a048 20bd dfcf 8035 90c8 423b 3e74 f83c
00000050: a42e 963c 8035 71b9 5a5b 0d3c 2e78 2e00
00000060: 44e6 95bb 21ca 10a7 71a3 26bb 0721 0e2c
00000070: 98df 92ba 2031 e535 b306 0c3d b4ea e139
00000080: fbf1 0b3b 9155 0238 58e0 e7bc 868b c8b0
00000090: d002 d93c 90fc 34bc fafc 1abd 90fc 34bc
000000a0: 9147 48bf 0773 d1bd 70e6 6e3d 4823 5abc
000000b0: 1cec c0be 8eb6 7ebd 48f8 293d 7d30 8abc
000000c0: 552c 87b9 53fd 34bc 560f 9635 90fc 34bc
000000d0: eede 1bbc 56c9 4abd 12fc 34bc 35b9 23bc
000000e0: 8cba 26bc c8fe 17bc ed3c 0280 fea9 5fb4
000000f0: 51c0 ec37 126f 452d f129 9037 43bc 3c3d
00000100: eb68 a8bc 927f 8fb5 cd52 a83b d64e 343d
00000110: a048 20bd f4aa 8439 90c8 423b 3e74 f83c
00000120: a02e 963c b40b d926 386b 7a3c 7054 49b3
00000130: a814 313c 5cc3 e8b2 a0f7 d139 b449 2136
00000140: f03e 973c 708e e617 b306 0c3d c7b6 b9ba
00000150: fbf1 0b3b 0a86 d52b 40e0 e7bc b456 9fac
00000160: d002 d93c 90fc 34bc fbfc 1abd 90fc 34bc
00000170: 20bc 52bf 49cb c4bd 0e77 5d3d 485a 3cbc
00000180: f7d4 bcbe ede5 90bd 2396 183d 339e b0bb
00000190: 9da3 573c 708b 22bc 9ae8 9eb0 90fc 34bc
000001a0: 22c4 d63c a16e 32bd 2efc 34bc 0a4b 24bc
000001b0: 5649 28bc 83b4 b3bb 1abb a438 ecab a137
000001c0: 72b2 f637 34a3 4531 5367 af2e 3ebc 3c3d
000001d0: eb68 a8bc 4d4a 1d35 cd52 a83b d84e 343d
000001e0: a048 20bd 5f53 93ae 90c8 423b 3e74 f83c
000001f0: 9f2e 963c 2569 cc32 225c 633c a740 0000
00000200: f428 ca3b 89dd d234 8393 633c 08ce fd32
00000210: f63e 973c 1f84 24ac 98df 92ba 6dfd 50b3
00000220: fbf1 0b3b 2e4e 03b0 53e0 e7bc dd0d 32af
00000230: d002 d93c 90fc 34bc fbfc 1abd 90fc 34bc
00000240: f34b f9be 4fa6 c1bd 2a28 613d 4194 00bd
00000250: bd7d 3abe 069a 83bd 0184 2d3d 0a84 a7bc
00000260: 242e 083b 5a37 28bc 20c9 c7ad 90fc 34bc
00000270: 5067 a739 cc59 16bd 24fc 34bc aec9 25bc
00000280: 39e6 27bc eead 1bbc 901e 9827 8429 afab
00000290: 623b 8b2f 5c58 7231 6f0f 9e2d 40bc 3c3d
000002a0: eb68 a8bc d4a4 0835 cd52 a83b dd4e 343d
000002b0: a048 20bd 2cdb dbb6 9cc8 423b 3e74 f83c
000002c0: 9e2e 963c 91de fdbb 440c 9b3c 173f 0dbb
000002d0: f3fe 933b 9e1e feba 8b9b b8ba 8af7 83b0
000002e0: f03e 973c 5534 1dba 98df 92ba 600b 7aad
000002f0: b306 0c3d 1073 8f34 53e0 e7bc 481e c4b0
00000300: d002 d93c 90fc 34bc fbfc 1abd 90fc 34bc
00000310: 88df 12bf 92a1 d4bd b178 663d 5517 9ebc
00000320: 77f3 96be b024 79bd bdc7 293d 083e f9bb
00000330: 3d33 c5bb 12a1 24bc 0cfe 3932 90fc 34bc
00000340: d85c dc3c 1ddb 2abd 24fc 34bc e139 2ebc
00000350: 7e7d 30bc 21f7 17bc 0080 69b4 67a3 2baf
00000360: 80fa cfb6 9175 06b1 a662 222c 40bc 3c3d
00000370: eb68 a8bc 78d5 2d34 cd52 a83b d64e 343d
00000380: a148 20bd 3e31 c036 90c8 423b 3e74 f83c
00000390: 9d2e 963c af36 2f28 4670 933c 3c81 12b8
000003a0: 2b41 a73c 2004 ec34 c0a1 143a aa17 81ba
000003b0: f63e 973c c4fe 02b7 98df 92ba 878c 07b6
000003c0: b306 0c3d 9ea4 892b 0ff2 0b3b 30f9 2e30
000003d0: d002 d93c 90fc 34bc fbfc 1abd 90fc 34bc
000003e0: 9f87 35bf c399 c8bd cecd 6e3d 0433 49bb
000003f0: aced 84be f6ef 60bd 8722 063d 3e2d f4bb

fc1.bias f4 [256]
-0.0110465465 4.828522e-06 -5.7617813e-06 -0.00012652403 -0.10985275 -1.2912258e-09 -0.000178222 -0.00050772936
-0.30732155 -0.012273764 -3.2927386e-07 -0.00072513544 -0.059692822 0.00013641414 -3.5474244e-07 -6.8076683e-06
-0.18238981 -5.8749487e-07 -1.1453403e-06 -6.5560052e-06 2.6748646e-06 -3.1322885e-05 -0.012222357 -0.0001240028
-0.0003012773 -0.0007762941 -4.1766707e-05 -0.00063733157 -1.2248627e-07 -5.3247817e-07 -0.0025466392 -2.5410185e-07
-0.00046872805 -0.00023440384 -1.6426845e-06 -2.8534341e-05 -5.992026e-07 -1.6243537e-09 -0.00046843648 -0.00021848742
-3.5980512e-09 -4.9551118e-06 -2.9605166e-05 -0.00031487763 -0.1260089 -6.450371e-05 -0.014442066 -0.005396853
-1.1400329e-07 -0.016066648 -3.3921476e-06 -5.133092e-05 -3.3371387e-05 -5.0422376e-08 -2.2361596e-06 -0.1970411
-0.00088215596 -0.00045124473 -0.00035073172 -0.00060458976 -1.2197463e-05 -0.00036119804 -0.01253152 -0.0011548477
-3.2864995e-05 -0.011636037 -5.644411e-13 -0.04153542 -7.958276e-08 -1.6134181e-05 -4.218744e-09 -0.000734501
-0.22263893 -0.15676932 -0.00025167537 -5.2664258e-05 -0.019328898 -0.00048483626 -0.008829982 -0.00030742722
-0.043904737 -8.8420005e-05 -0.00021606666 -0.018019514 -9.080527e-16 -0.0031480277 -7.369171e-09 -0.000115628674
-1.8740983e-06 -0.003661551 -0.00020881949 1.6189166e-05 -0.014082875 -0.0008765925 -0.07264333 -8.7719245e-09
-0.0005541956 -4.264887e-06 -9.9025165e-08 -0.000925982 -0.00022338402 -0.000135151 -8.021368e-08 4.6411085e-05
-4.4268793e-07 -2.4636007e-08 -0.00011893531 -0.007954372 -7.631953e-07 -1.5734013e-05 0.6724573 -4.704723e-08
-1.0721139e-07 -0.5415093 -1.2449019e-07 -1.2794901e-09 -0.000116303716 -3.0379595e-05 -0.00022287169 -0.03408697
-8.288345e-11 -9.056308e-09 -0.0003081976 -3.0741485e-05 -0.8199763 3.238079e-06 -2.8246002e-05 -0.019047003
0.08058383 -0.003898354 -3.326755e-06 -0.03725217 -3.31749e-05 -0.011379236 -1.087595e-06 -1.4622585e-05
-9.992514e-07 -0.00012483782 -0.0043803863 -0.0013877966 -0.002318306 -9.8935445e-05 -0.0002077952 -0.00014678261
-0.00092341256 -0.0010558844 -4.2839958e-05 -0.0011082892 -1.7099112e-06 -0.00049987435 -0.022653 -4.9368953e-08
-0.015121493 -0.0005948295 -0.0054431935 -0.00019629707 -1.3964808e-09 0.025307355 -2.3071096e-05 -8.7814584e-08
-0.18698935 -2.0059795e-05 -0.00060168916 -5.5179356e-07 -2.5948443e-06 -0.00011307624 -0.00022642157 -2.9315248e-05
-0.3228322 -1.36198805e-05 -1.9995447e-05 -2.3750912e-05 -5.775617e-06 -2.7375274e-06 -5.5355113e-06 -0.0050632306
-0.13893917 0.63332593 -0.0010633573 -0.0002965622 -0.0019486431 -1.923945e-07 -4.9997905e-11 -7.3055686e-05
-0.00086721446 -0.0053867367 -0.0021448804 -1.4040302e-07 -6.0052415e-08 -0.00012436282 -0.0010875205 -0.0026725011
-7.413628e-05 3.2280738e-09 -0.00048974325 -0.011632408 -8.650466e-05 -0.00055004103 -0.100700215 -4.0682332e-07
-1.2524608e-06 -0.00020436336 -1.2696545e-08 -0.0029258851 -2.738529e-08 -3.8162398e-07 -0.00011323023 -3.6731837e-08
-4.9778237e-06 -0.3221589 -3.221692e-05 -0.04006399 -0.0038859062 -0.00023395958 -0.00058057887 -0.00012636265
-0.00011062941 -0.16364285 -0.015668841 -1.7554814e-05 -2.2008999e-06 -2.7992087e-06 -1.1149092e-22 -0.0022120546
-6.304108e-10 -0.0005130231 -0.2920197 -0.0036546176 -1.9449273e-07 -0.012248223 0.7453121 -0.0041147536
-0.29381615 -0.006470933 -0.00051923894 -0.0015182674 -3.3090572e-07 -0.00025956906 -3.7979543e-08 -0.006023419
-1.0942073e-08 -0.0011265653 -2.3064147e-06 -0.00058535306 -0.00015395833 -5.778385e-08 -7.404027e-12 -0.068721816
-4.5252896e-06 -1.9927774e-07 -0.0045146197 -1.1958993e-08 -5.4039977e-09 -0.018871322 -1.34905695e-05 5.4442075e-06
00000000: 93fc 34bc b004 a236 5355 c1b6 89ab 04b9
00000010: 7bfa e0bd f876 b1b0 1be1 3ab9 2419 05ba
00000020: 4059 9dbe e617 49bc 0ec7 b0b4 0417 3eba
00000030: 7680 74bd 640a 0f39 6e73 beb4 6d6d e4b6
00000040: 65c4 3abe 57b4 1db5 98b9 99b5 a8fb dbb6
00000050: d381 3336 b160 03b8 4840 48bc c006 02b9
00000060: c1f4 9db9 3780 4bba a92e 2fb8 9912 27ba
00000070: c584 03b4 9fef 0eb5 84e5 26bb 7e6b 88b4
00000080: 9dbf f5b9 4dca 75b9 367a dcb5 085d efb7
00000090: e4d8 20b5 dd3f dfb0 7b98 f5b9 c519 65b9
000000a0: 9641 77b1 1644 a6b6 9c58 f8b7 2916 a5b9
000000b0: 7a08 01be 2a46 87b8 6a9e 6cbc 16d8 b0bb
000000c0: f9d1 f4b3 349e 83bc a7a4 63b6 284c 57b8
000000d0: 41f8 0bb8 fd8f 58b3 ee10 16b6 24c5 49be
000000e0: 7c40 67ba 0b95 ecb9 6ae2 b7b9 557d 1eba
000000f0: b4a3 4cb7 2e5f bdb9 0151 4dbc 425e 97ba
00000100: 85d8 09b8 14a5 3ebc 45e0 1eab 0b21 2abd
00000110: 16e7 aab3 e457 87b7 77f4 90b1 878b 40ba
00000120: 76fb 63be 2388 20be 4cf3 83b9 d1e3 5cb8
00000130: a357 9ebc 9f31 feb9 a1ab 10bc 2f2e a1b9
00000140: 74d5 33bd 216e b9b8 f48f 62b9 a99d 93bc
00000150: 3bdd 82a6 244f 4ebb ea33 fdb1 ac7d f2b8
00000160: 8789 fbb5 a2f6 6fbb 8ef6 5ab9 f8cd 8737
00000170: dcbb 66bc 20cb 65ba 07c6 94bd 55b3 16b2
00000180: 7047 11ba 1a1b 8fb6 a9a7 d4b3 9abd 72ba
00000190: 313c 6ab9 52b7 0db9 f041 acb3 86a9 4238
000001a0: 91aa edb4 279f d3b2 e96c f9b8 0e53 02bc
000001b0: 62de 4cb5 89fc 83b7 2926 2c3f fa10 4ab3
000001c0: 163c e6b3 5aa0 0abf 9aab 05b4 0eda afb0
000001d0: 15e8 f3b8 afd7 feb7 aab2 69b9 c79e 0bbd
000001e0: 3c43 b6ae 1096 1bb2 9595 a1b9 6bf0 00b8
000001f0: f7e9 51bf c64d 5936 d4f1 ecb7 7608 9cbc
00000200: 2309 a53d 877b 7fbb 3741 5fb6 bb95 18bd
00000210: 4725 0bb8 fa6f 3abc 7bf9 91b5 8653 75b7
00000220: 041e 86b5 e6e6 02b9 5889 8fbb bae6 b5ba
00000230: b8ee 17bb 907b cfb8 99e3 59b9 a8e9 19b9
00000240: 2b11 72ba 9a65 8aba 0eaf 33b8 0444 91ba
00000250: 1a80 e5b5 000a 03ba c992 b9bc bd09 54b3
00000260: 23c0 77bc 55ee 1bba d15c b2bb 18d5 4db9
00000270: 4dee bfb0 5f51 cf3c cd88 c1b7 9494 bcb3
00000280: 237a 3fbe 1546 a8b7 adba 1dba f71e 14b5
00000290: 1623 2eb6 5823 edb8 946b 6db9 04ea f5b7
000002a0: 434a a5be f180 64b7 e5bb a7b7 b23c c7b7
000002b0: 2ccc c1b6 5db6 37b6 aebd b9b6 75e9 a5bb
000002c0: 1246 0ebe a621 223f 5a60 8bba e87b 9bb9
000002d0: 9d69 ffba ff94 4eb4 a3e4 5bae 7935 99b8
000002e0: c755 63ba 3983 b0bb 1f91 0cbb b0c1 16b4
000002f0: 2af6 80b3 6467 02b9 228b 8eba 2125 2fbb
00000300: 9d79 9bb8 e0d4 5d31 1d62 00ba db95 3ebc
00000310: d669 b5b8 a130 10ba ea3b cebd 5f69 dab4
00000320: 3a1a a8b5 5f4a 56b9 ff1f 5ab2 35c0 3fbb
00000330: e43c ebb2 00e2 ccb4 0476 edb8 15c3 1db3
00000340: 2e07 a7b6 03f2 a4be a820 07b8 231a 24bd
00000350: b0aa 7ebb 0c53 75b9 fd31 18ba 3780 04b9
00000360: b601 e8b8 fe91 27be f15b 80bc ad42 93b7
00000370: 2cb3 13b6 0ada 3bb6 c5c8 069b 1ef8 10bb
00000380: 3749 2db0 667c 06ba 9b83 95be 4f82 6fbb
00000390: c1d5 50b4 c5ac 48bc c6cc 3e3f 0ed5 86bb
000003a0: 126f 96be 1f0a d4bb 891d 08ba 9a00 c7ba
000003b0: 56a7 b1b4 c516 88b9 f31e 23b3 1a60 c5bb
000003c0: bffb 3bb2 42a9 93ba e7c7 1ab6 6172 19ba
000003d0: e06f 21b9 042e 78b3 c640 02ad 06be 8cbd
000003e0: f1d7 97b6 0cf9 55b4 60ef 93bb 3574 4db2
000003f0: 11ae b9b1 0898 9abc 8e55 62b7 63ad b636

fc2.weight f4 [256, 256]
1.9017957e-23 2.4862707e-19 2.1139035e-20 1.9378564e-10 4.930162e-13 -2.228055e-15 1.9299364e-20 4.097381e-06
0.0024823588 -2.993233e-23 -3.5429437e-10 3.4327637e-05 3.1611879e-35 5.1234482e-17 -6.517613e-30 -1.852716e-24
-2.4074769e-14 -3.1546068e-24 6.187768e-26 2.590886e-11 -2.9240228e-12 4.062819e-11 -4.5651694e-21 -1.7125754e-15
6.726144e-11 -4.8647148e-20 1.6907848e-36 -9.108446e-22 -2.1399782e-21 1.07694e-40 -0.0009329076 -2.036129e-27
-3.9790934e-11 -5.333599e-14 1.51465e-31 -3.7844513e-24 3.93475e-09 7.0118255e-14 -6.118212e-18 1.0018176e-10
-9.8459396e-23 8.215714e-15 1.1826077e-24 1.3755332e-06 2.2125607e-14 9.534834e-16 3.674034e-05 -1.1729331e-13
-4.5021217e-08 1.7049154e-14 4.4933164e-19 -2.2079751e-09 9.966295e-25 -8.357984e-16 -4.7344648e-21 1.6226434e-19
1.2819292e-13 0.00013969484 1.5256325e-27 1.1336832e-10 9.443989e-16 3.0050612e-06 -6.359069e-17 4.71743e-16
2.206517e-19 0.00018593042 -1.85318e-40 -2.4580565e-23 -4.6744515e-22 -3.822151e-26 1.1469319e-19 2.8510593e-15
4.2185116e-17 2.4687048e-05 -4.0146246e-21 6.7192455e-21 -3.163675e-22 9.667626e-24 -6.284678e-13 -1.7089027e-16
4.1321117e-15 5.088025e-09 9.454953e-09 5.9318905e-20 5.2908707e-32 1.2901218e-10 -5.4535697e-19 1.6202982e-16
1.7373498e-24 -4.05976e-06 -1.1217654e-05 1.4994969e-09 2.2138903e-22 -1.8047032e-15 2.728283e-09 9.6999e-41
-1.00147345e-05 -5.1024e-41 5.2198955e-29 -2.5646363e-19 3.2567536e-31 -1.8210163e-16 3.2448558e-19 1.5152409e-34
-1.83269e-40 -2.7033451e-19 2.4147247e-18 -7.516117e-06 4.7744166e-16 2.3037602e-08 -0.011547969 -1.1953011e-15
9.529615e-14 2.8590424e-10 1.600682e-25 -5.748317e-26 3.613685e-21 -1.9462982e-19 9.817897e-15 -4.8558e-10
2.7327673e-29 -2.4487148e-13 -9.209045e-25 -4.883291e-25 -8.122937e-08 3.647636e-10 2.6103095e-12 1.0961758e-10
8.9159614e-18 2.2604261e-05 2.4905601e-17 1.3894701e-13 3.8838994e-19 0.0007920928 4.675888e-12 -2.2749766e-18
-8.865973e-12 -1.8392117e-12 1.8065141e-22 1.1355425e-05 -1.862029e-18 4.4604307e-12 -5.3874475e-21 4.746208e-12
6.6258723e-09 -2.435483e-24 1.0173598e-27 -2.2764956e-21 -6.908058e-13 3.3051692e-13 -1.5819078e-17 -3.556882e-17
-3.3883944e-16 -1.5698062e-22 7.627297e-20 -3.4791087e-21 -1.4519401e-21 -0.03892972 -1.927042e-20 -1.7869523e-21
-7.1247345e-16 1.4708566e-18 -1.8348122e-17 -2.920245e-30 1.8021996e-08 3.290859e-10 1.85842e-40 5.9308305e-23
-1.5660193e-15 1.7981626e-17 -1.200073e-21 2.9669536e-06 -6.7918116e-10 -5.7467976e-18 -1.265486e-12 2.8298162e-21
-2.4009217e-19 -0.008610134 -1.2729454e-21 -8.247793e-20 1.2107125e-06 -1.6166569e-14 -1.0406175e-17 -5.6023533e-22
1.4157606e-18 -2.9052002e-16 -6.149889e-11 7.832501e-36 9.697191e-22 2.7813608e-14 6.276978e-23 9.003586e-12
-9.775617e-15 -1.1006936e-12 1.5070575e-27 1.2757747e-16 -1.0312e-40 -5.821827e-26 -1.1502748e-12 1.1166533e-21
-7.672961e-19 1.1963063e-15 1.0764798e-22 2.4270498e-08 -1.1328176e-17 -3.3435912e-19 -7.030692e-16 -3.6578104e-24
-8.3710274e-21 2.4817596e-20 1.4441779e-11 8.341873e-31 -1.9595046e-13 2.0384944e-14 -9.980954e-12 2.0027529e-21
-1.6378602e-14 -2.7558147e-12 -5.369806e-24 2.894074e-13 1.7319606e-07 3.076491e-23 1.49044e-40 -9.2348524e-20
3.0508463e-23 -4.9115247e-06 -3.8094285e-08 0.00036267878 6.360975e-37 -2.4288052e-10 -0.010023402 -1.890132e-05
-4.3476142e-05 1.124831e-17 1.8665284e-26 -4.9307736e-09 -3.9423567e-22 -4.1549175e-08 -2.1967657e-34 5.1209854e-15
-9.843075e-25 -0.0007723875 -6.749202e-20 1.463413e-22 9.7621426e-26 -6.783929e-11 3.50015e-23 -6.220278e-09
-3.2446292e-12 -6.170377e-17 1.9743308e-20 8.8304654e-23 7.195295e-22 2.1129484e-08 4.2328856e-23 6.0480865e-09
00000000: 2eee b719 76c3 9220 0da7 c71e cf11 552f
00000010: 90c5 0a2b 5c8c 20a7 0047 b61e 3c7c 8936
00000020: 12af 223b 6ebe 109a 80c6 c2af 05fb 0f38
00000030: dc13 2806 0047 6c24 6231 048f d258 0f98
00000040: a3d8 d8a8 6d13 7498 a433 9915 91e5 e32d
00000050: 83c2 4dac 46af 322e 9c77 ac9d e1ce f6a6
00000060: d3e8 932e cbba 659f 08d6 0f04 98a4 899c
00000070: 33b1 219d 352c 0100 5f8e 74ba 9a51 2193
00000080: 9c00 2fae 3634 70a9 e19c 440c 6467 9298
00000090: 6d32 8731 6ce4 9d29 e1b8 e1a2 514d dc2e
000000a0: 6a0f ee9a 4b00 1428 ebff b617 f69e b835
000000b0: 2d4a c728 5469 8926 a419 1a38 7f0f 04aa
000000c0: 5a5d 41b3 ac90 9928 8a9e 0421 1cbb 17b1
000000d0: 9038 9a17 09e7 70a6 efdc b29d 6391 3f20
000000e0: 1855 102a 0c7b 1239 02bf f112 b14c f92e
000000f0: 2b1a 8826 8faa 4936 51a1 92a4 7df8 0726
00000100: f13f 8220 51f6 4239 9704 0280 88ba ed99
00000110: d146 0d9c 8543 3d95 e467 0720 c370 4d27
00000120: 658b 4224 0817 cf37 11ab 979d 8ed8 fd1d
00000130: 803b bf9b c4ff 3a19 e1e5 30ab e805 45a5
00000140: 01e0 9427 bed2 ae31 536f 2232 1410 8c1f
00000150: de5b 890b b3d9 0d2f 02f6 20a1 c3ce 3a25
00000160: c26b 0618 1339 88b6 7533 3cb7 db16 ce30
00000170: 4bd2 851b e60a 02a7 767c 3b31 650e 0100
00000180: f504 28b7 3c8e 0080 0f57 8410 b063 97a0
00000190: 1a60 d30c eaf2 51a5 e08a bf20 fa68 4907
000001a0: e1fe 0180 cc93 9fa0 dc2c 3222 f432 fcb6
000001b0: fa9c 0926 39e4 c532 b133 3dbc d442 aca6
000001c0: 7e96 d629 722d 9d2f a327 4616 4a52 8e95
000001d0: 6b85 881d 41c7 65a0 0fdd 3028 a879 05b0
000001e0: 5991 0a10 b3d9 89aa c980 8e97 6b21 1797
000001f0: 5270 aeb3 ea87 c82f 28af 372c 360d f12e
00000200: 7078 2423 489e bd37 b0b6 e523 c070 1c2a
00000210: d443 e520 73a4 4f3a a884 a42c 18dd 27a2
00000220: cbf8 1bad 4b6c 01ac e764 5a1b 2e83 3e37
00000230: bc64 09a2 fdef 9c2c 3288 cb9d 0bfe a62c
00000240: caa9 e331 b66f 3c98 0435 a112 d401 2c9d
00000250: ce71 42ab 8210 ba2a bee7 91a3 4008 24a4
00000260: e053 c3a5 26c7 3d9b 2e18 b41f e06f 839d
00000270: 3669 db9c c574 1fbd 0401 b69e af04 079d
00000280: 435b 4da6 640f d921 473b a9a3 1eeb 6c8e
00000290: cace 9a32 b9ea b42f 0d06 0200 1066 8f1a
000002a0: eaaf e1a6 ead9 a523 9359 b59c e01b 4736
000002b0: 20b1 3ab0 f804 d4a2 f019 b2ab 9bd0 551d
000002c0: b4b9 8da0 8511 0dbc b15c c09c d9be c29f
000002d0: c47f a235 929d 91a8 c6f5 3fa3 1c52 299c
000002e0: eced d021 3079 a7a5 cc3c 87ae 3194 2605
000002f0: 318a 921c d085 fa28 9dc4 971a 8c64 1e2d
00000300: 141a 30a8 abe8 9aab 84cd ee12 3916 1325
00000310: 751f 0180 3624 9095 04e3 a1ab 6fbe a81c
00000320: 4177 62a1 ea67 ac26 7023 021b 647b d032
00000330: ccf7 50a3 ec5e c5a0 5aa5 4aa6 3381 8d98
00000340: ce1f 1e9e 4465 ea1e fe0f 7e2d c95a 870d
00000350: e09e 5caa 7b9c b728 3996 2fad e052 171d
00000360: 7c86 93a8 58ec 41ac fcbb cf98 00ec a22a
00000370: c5f7 3934 1dc5 141a 799f 0100 420d da9f
00000380: a687 131a adcd a4b6 1c9d 23b3 ec25 be39
00000390: e873 5803 6586 85af 3239 24bc 478e 9eb7
000003a0: 275a 36b8 a47e 4f23 1eda b814 8b6b a9b1
000003b0: 044d ee9b cd73 32b3 0800 9287 c180 b827
000003c0: 7050 9897 0c7a 4aba 6c5c 9f9f 70ea 301b
000003d0: eeb2 f115 202e 95ae c241 291a 25ba d5b1
000003e0: 0b52 64ac 7a47 8ea4 6478 ba1e ef81 d51a
000003f0: e676 591c 3a80 b532 96b0 4c1a 88cf cf31

fc2.bias f4 [256]
5.1430543e-05 -0.013542517 0.45178416 0.00097316527 0.030046584 -0.039534543 0.00037015183 -0.0004029657
-0.010117571 -0.014490621 -0.008210562 0.060302284 0.1434196 0.25921717 -0.00019927102 0.18460637
-0.0003866702 0.20009851 0.034605205 0.22151996 -0.00093421945 0.05891737 0.017159201 0.45702967
0.007620137 0.2267479 0.0029239214 -0.002622502 0.0053821476 -0.0032560376 1.17476105e-07 0.20188975
0.3373648 0.00028059204 -7.539866e-06 0.011293035 -0.00025966356 0.14580779 -0.000876367 0.11956707
-0.10458913 -0.0077101467 0.003223349 0.20034574 0.3604701 -1.8902023e-08 -0.0989016 0.00015470682
0.13642666 -0.008915527 -0.0036435234 0.0022321183 0.018567666 -2.9761624e-05 0.8886438 -0.00082208443
3.7277074e-05 -0.00046015502 -0.0026481752 -2.5783482e-05 -0.02105228 -0.016339153 -3.3724045e-05 -0.0015207808
-0.00015867234 1.7501553e-07 0.6014407 0.105678655 0.22867787 0.0037178958 0.0067235306 4.5845474e-05
0.10679811 0.00087725115 0.38604867 -0.0013166 0.016477328 0.00044307494 0.21233019 0.2990104
0.13743459 -0.00010605808 8.164194e-08 0.14608195 -0.00030943184 0.2840769 -0.05105758 -0.012469004
0.3146682 -0.0041557075 -2.5033514e-05 -0.00377075 -1.1921619e-06 0.0039999904 -0.0015460977 -0.00061429036
1.1061783 -0.002835834 -5.1454464e-07 0.45477122 2.4320068e-05 0.3419247 0.58190846 0.015393267
5.7967576e-05 -0.0005890159 -0.00137749 -0.20401393 -0.07305973 -1.5219708e-05 0.0131721115 0.0009091039
0.42243704 3.0324401e-05 0.16018036 -0.00023939332 -3.0762785e-06 0.00024909267 0.16990294 0.0034691547
-0.039751995 -0.06871396 -0.0003234855 -0.02156904 -8.7305605e-05 -2.293942e-05 0.1412482 -0.18279961
0.22133695 1.7230282e-06 5.476367e-06 -7.6130666e-05 1.1220311 -0.020178478 -0.009050155 -2.8005668e-06
0.23596512 -0.0036804206 5.7399734e-07 0.06905131 1.0695239e-09 -0.00990009 -0.023383379 0.030967962
0.8841371 0.006812233 -1.259035e-05 0.10694047 3.0038107e-05 -6.692801e-05 -0.0030492772 0.23159066
-0.00017196446 0.00020505645 0.060768984 -0.013845289 -5.23263e-05 -0.00061858987 0.72673833 -1.396641e-06
-8.1679704e-05 0.525284 0.14992924 -0.0005910889 -0.00031699153 -0.001371638 -0.0053310543 0.016915994
-0.51625824 0.0010861541 0.030168083 0.2262321 0.010206159 -9.562902e-05 -0.0001622746 0.69352925
-8.958432e-09 0.14937058 -1.2507754e-06 0.00030394003 0.37552324 -0.07164863 0.20305116 -2.3016055e-06
-0.00019149398 -0.0024219616 0.4349298 9.344779e-07 0.51772565 0.0011817692 0.00019239719 -0.00011980475
-8.199778e-05 4.1779458e-08 -0.0103995735 0.53964984 -0.00022328564 0.04004361 -1.811771e-08 -1.039421e-05
0.13158791 0.1468245 0.19494396 -0.0028096784 6.891461e-06 -0.0007114971 0.56767523 -4.133245e-07
0.00026149442 0.26817575 0.6978831 0.014113787 -0.0026182672 0.17580411 0.0035689676 -0.015846921
-0.062959135 6.448579e-05 0.13834181 -7.003702e-06 0.28465974 -1.0068607e-05 0.008581325 -0.0004803441
-1.8253675e-05 -0.00044341595 0.77900934 0.46544436 0.27534422 1.678556e-07 -3.912851e-05 -0.00802863
0.15992929 -0.00036614426 0.235061 -0.0009920987 0.019000102 0.00011176996 1.977514e-05 0.057605684
0.0011899447 -0.00051618484 0.08065446 -0.0005685516 0.35778868 0.041013326 -0.00012310267 0.07412328
-2.7767487e-06 0.008170755 -4.7369133e-05 -0.0008975471 -0.0003159786 -0.002759807 0.0081022065 -0.04211916
00000000: 20b7 5738 6fe1 5dbc 4150 e73e 041c 7f3a
00000010: 4124 f63c f9ee 21bd f010 c239 2445 d3b9
00000020: 2bc4 25bc 126a 6dbc 9885 06bc 87ff 763d
00000030: 96dc 123e 1db8 843e 68f3 50b9 7409 3d3e
00000040: ffb9 cab9 a0e6 4c3e 30be 0d3d 21d6 623e
00000050: 68e6 74ba 5753 713d 7491 8c3c cbff e93e
00000060: 58b2 f93b 9a30 683e 439f 3f3b 48de 2bbb
00000070: ba5c b03b 3f63 55bb 2c47 fc33 30bc 4e3e
00000080: 14bb ac3e 6d1c 9339 f5fe fcb6 6c06 393c
00000090: 7423 88b9 a34e 153e febb 65ba 94df f43d
000000a0: d332 d6bd 66a5 fcbb d33e 533b 6f27 4d3e
000000b0: 898f b83e fd5d a2b2 ec8c cabd cc38 2239
000000c0: 6eb3 0b3e 6e12 12bc 2ec8 6ebb bb48 123b
000000d0: 381b 983c 9aa8 f9b7 297e 633f 2781 57ba
000000e0: f459 1c38 f640 f1b9 028d 2dbb 9b49 d8b7
000000f0: d575 acbc b0d9 85bc eb72 0db8 f054 c7ba
00000100: 4861 26b9 e7eb 3b34 05f8 193f 0d6e d83d
00000110: 882a 6a3e f1a7 733b 1051 dc3b 344a 4038
00000120: f8b8 da3d 54f7 653a 2ca8 c53e c491 acba
00000130: 76fb 863c 834c e839 166d 593e e417 993e
00000140: a7bb 0c3e 806b deb8 2253 af33 8296 153e
00000150: 3d3b a2b9 8772 913e c121 51bd cb4a 4cbc
00000160: 311c a13e 9a2c 88bb 10ff d1b7 b01e 77bb
00000170: 5f02 a0b5 5a12 833b 6ea6 caba 5408 21ba
00000180: 4097 8d3f 66d9 39bb 3d1f 0ab5 c6d7 e83e
00000190: f302 cc37 c110 af3e f4f7 143f 0b34 7c3c
000001a0: 3622 7338 3068 1aba e58c b4ba 07e9 50be
000001b0: 57a0 95bd 2658 7fb7 d7cf 573c ee50 6e3a
000001c0: ab49 d83e 2861 fe37 5206 243e a805 7bb9
000001d0: 1072 4eb6 a798 8239 09fb 2d3e c25a 633b
000001e0: fdd2 22bd e8b9 8cbd 7d99 a9b9 8eb1 b0bc
000001f0: d717 b7b8 086e c0b7 5ea3 103e d22f 3bbe
00000200: 27a6 623e cc42 e735 a2c1 b736 57a8 9fb8
00000210: b79e 8f3f 564d a5bc 1a47 14bc 5ff1 3bb6
00000220: d7a0 713e 3633 71bb cc14 1a35 c66a 8d3d
00000230: 87fe 9230 fd33 22bc 808e bfbc 86b0 fd3c
00000240: cf56 623f 2739 df3b 243b 53b7 9b03 db3d
00000250: 58fa fb37 b45b 8cb8 62d6 47bb 1a26 6d3e
00000260: 5c51 34b9 6c04 5739 e6e8 783d 5ad7 62bc
00000270: f078 5bb8 dd28 22ba 860b 3a3f 3874 bbb5
00000280: 754b abb8 0379 063f 0d87 193e 4ef3 1aba
00000290: e231 a6b9 89c8 b3ba 20b0 aebb 6993 8a3c
000002a0: 8029 04bf 495d 8e3a 0e23 f73c 63a9 673e
000002b0: bc37 273c 708c c8b8 4228 2ab9 228b 313f
000002c0: 9ae7 19b2 9af4 183e 51e0 a7b5 245a 9f39
000002d0: 9544 c03e 84bc 92bd a5ec 4f3e 4875 1ab6
000002e0: c6cb 48b9 c6b9 1ebb 1eaf de3e d5d8 7a35
000002f0: ab89 043f 98e5 9a3a 3abe 4939 af3f fbb8
00000300: 39f6 abb8 0071 3333 f962 2abc 7e26 0a3f
00000310: c821 6ab9 c504 243d 44a1 9bb2 cb62 2eb7
00000320: fbbe 063e 2959 163e 649f 473e 9522 38bb
00000330: 333d e736 c383 3aba 2a53 113f e3e6 ddb4
00000340: 3019 8939 554e 893e 78a8 323f 833d 673c
00000350: 3c97 2bbb fe05 343e 57e5 693b 67d1 81bc
00000360: b8f0 80bd 8b3c 8738 7aa9 0d3e 5801 ebb6
00000370: ecbe 913e 56ec 28b7 b098 0c3c b2d6 fbb9
00000380: 781f 99b7 487a e8b9 286d 473f b94e ee3e
00000390: ebf9 8c3e cc3b 3434 eb1d 24b8 848a 03bc
000003a0: 81c4 233e 0df7 bfb9 d5b3 703e 4f09 82ba
000003b0: 1aa6 9b3c 0a66 ea38 cae2 a537 f0f3 6b3d
000003c0: ebf7 9b3a 9450 07ba 2a2e a53d da0a 15ba
000003d0: 1430 b73e 97fd 273d 1f15 01b9 f2cd 973d
000003e0: 2e58 3ab6 a1de 053c 38ae 46b8 5e49 6bba
000003f0: eea9 a5b9 e1dd 34bb 1ebf 043c 2485 2cbd

fc3.weight f4 [256, 256]
-7.039e-41 -9.2333e-41 -0.009265855 1.5992e-40 2.01067e-40 4.7489e-41 -1.8507e-40 6.3008e-41
1.79819e-40 2.63548e-40 1.294524e-39 -3.3625415e-25 -0.033744212 -0.06857777 -1.32318e-40 -0.02697183
-1.0505719e-15 -0.06603485 -0.033377156 2.9090082e-15 -1.23506e-40 -7.65227e-40 -3.301847e-06 -5.407e-41
-6.0396e-41 -0.01408314 -1.05197e-40 -0.030442534 3.7611527e-16 -4.9492368e-24 -1.05306464e-19 -0.0129541755
-0.00046002056 6.5233938e-15 -1.66868e-40 2.3528236e-17 -8.95455e-40 -0.0005811611 1.091053e-18 8.41915e-20
1.4244043e-15 6.3245e-41 -1.10272e-40 -0.008119881 -0.0035746756 -2.1664209e-19 -0.006281242 -4.81398e-40
-7.318492e-15 2.1262e-41 1.24374e-40 7.3235e-41 2.1190087e-16 -9.8508e-41 1.0397418e-14 -2.2217032e-25
3.31966e-40 -1.1913927e-14 0.00029500359 -7.161672e-18 -1.06199e-40 -1.731824e-39 2.5723685e-30 5.68214e-40
-3.7349e-41 -7.237e-41 3.348538e-09 -2.6201858e-16 -0.009789723 -1.0509687e-16 -4.9012295e-05 -8.332042e-16
-4.0124764e-06 -2.0475533e-13 -0.0007255513 1.0747398e-15 3.2820997e-23 -8.4561e-41 -5.3854187e-06 -0.04337782
-1.3089285e-15 -2.435387e-18 8.8567996e-30 -0.021794254 4.904959e-17 -1.5506723e-24 -1.1923966e-16 -7.8389e-41
-1.0383909e-15 8.96486e-26 -9.299016e-16 2.4953272e-20 -4.22013e-26 1.91721e-40 5.023826e-15 4.7868193e-14
-3.4438338e-17 -8.157589e-20 -6.7346e-41 -0.040959407 -6.023654e-29 -0.0005097363 -1.3964119e-13 -0.00078414223
-1.62399e-40 -3.3898743e-25 -8.458483e-09 -3.377e-41 -8.1965e-40 4.549382e-24 -3.14383e-40 1.27559e-40
1.2105674e-14 -2.0091585e-24 9.698231e-06 -1.15761e-40 1.562e-41 -2.16258e-40 -0.028079765 -1.23747e-40
1.3690548e-14 1.735e-42 2.39455e-40 -4.660892e-06 -1.67584e-40 -1.3104e-41 -0.0006899548 -1.36333265e-14
-0.050301492 1.8313769e-17 3.4855803e-17 -4.969901e-16 -9.275706e-07 -3.39955e-40 3.0197956e-26 -5.1192068e-23
-3.1555275e-05 -1.1270907e-15 -1.39914e-40 -0.0030831466 -3.0094e-41 -8.488071e-12 -1.25949e-40 -9.919186e-19
-2.3194436e-07 -1.5676932e-18 -1.4587908e-14 -4.101681e-06 -1.9337e-41 -7.3672e-41 4.782351e-39 -0.029367605
-6.99728e-16 -7.6758e-41 -8.222118e-15 3.3701e-41 -4.2018e-41 -3.46187e-40 -6.1311156e-10 2.9525592e-19
-1.9354578e-10 -7.349546e-16 -0.003948046 -6.435289e-05 -1.08541665e-14 5.3234488e-15 2.58945e-40 -8.9287e-41
-1.5261092e-10 -1.7702319e-24 1.6409e-40 -3.98703e-40 -1.4442557e-15 7.70353e-40 -7.7282e-41 -0.0005378384
-1.54916e-40 -0.0046032923 -3.8640568e-18 2.8302564e-25 1.3591488e-05 -1.6156151e-06 -0.036631647 7.493e-42
-2.0235577e-17 -2.85241e-40 -2.4239122e-05 1.17685e-40 -0.047396313 4.8209e-41 1.7983722e-16 -3.0311635e-15
-2.48998e-22 -9.515875e-16 6.5198e-41 -2.5057718e-06 -7.7526e-40 -1.35745e-40 -8.5078e-41 -6.6234e-41
4.9685005e-16 6.3364404e-15 3.9870507e-09 2.3771205e-17 -2.0847e-41 -2.3706316e-23 -2.6387115e-11 1.1727205e-17
1.2647583e-27 2.3432307e-15 3.062903e-09 -1.034022e-39 -3.3507854e-07 -0.0058376207 -5.63878e-40 -1.2902e-41
-7.12543e-40 -1.21648e-40 2.2219813e-25 -2.3322335e-24 1.0543875e-15 -3.9497e-41 1.487495e-14 -3.77165e-40
-3.1644628e-27 3.58715e-23 7.642327e-08 2.362559e-15 -1.1200929e-07 -1.0105e-41 -2.418237e-15 -4.065446e-36
-3.167176e-05 9.44122e-17 -0.02615654 2.9318e-41 3.78653e-40 -1.84534e-40 -2.9915e-41 -0.011453691
-4.020957e-23 1.4946222e-15 -0.00034576666 -1.65017e-40 -0.00017746858 9.346801e-16 1.84108e-40 -7.6854e-41
-1.7759229e-16 -4.5790813e-31 3.5763e-41 4.6847232e-17 -8.07333e-40 -3.5163e-41 -0.0002570528 7.35505e-40
00000000: 38c4 0080 6301 0180 d0cf 17bc cbbd 0100
00000010: 7e30 0200 6184 0000 e603 0280 a4af 0000
00000020: 43f5 0100 aade 0200 9b18 0e00 9921 d096
00000030: 5f37 0abd 8072 8cbd d970 0180 07f4 dcbc
00000040: 4367 97a6 483d 87bd 7cb6 08bd bb9d 5127
00000050: 4958 0180 2455 0880 4d95 5db6 ba96 0080
00000060: 5ca8 0080 f8bc 66bc 3f25 0180 9f62 f9bc
00000070: d1d0 d825 de76 bf98 daa5 f89f c03d 54bc
00000080: ea2e f1b9 b007 eb27 29d1 0180 7a02 d923
00000090: 2ac0 0980 1059 18ba d102 a121 a4ca c61f
000000a0: 3e47 cd26 4db0 0000 6533 0180 4009 05bc
000000b0: 1b45 6abb 0ec4 7fa0 e0d2 cdbb f13d 0580
000000c0: 96d6 03a8 453b 0000 b45a 0100 26cc 0000
000000d0: 194e 7425 9a12 0180 a14d 3b28 4b84 8996
000000e0: 639d 0300 4a9f 56a8 b6aa 9a39 0a1c 04a3
000000f0: 0a28 0180 9fdb 1280 01b2 500e f32f 0600
00000100: 1d68 0080 bdc9 0080 1a1c 6631 1e0b 97a5
00000110: 1365 20bc 3e56 f2a4 8d92 4db8 9e27 70a6
00000120: e9a2 86b6 b588 66aa ec32 3eba e6e2 9a26
00000130: 6db6 1e1a b9eb 0080 65b4 b4b6 f1ac 31bd
00000140: f0a2 bca6 29b3 33a2 22a3 330f dd89 b2bc
00000150: 8933 6224 75f4 ef97 5679 09a5 84da 0080
00000160: dda5 95a6 8df5 dd15 5003 86a6 4fad eb1e
00000170: 81f8 5095 7116 0200 9e00 b527 4594 5729
00000180: 9dd1 1ea4 9a9d c09f bcbb 0080 0dc5 27bd
00000190: c0b7 9890 d39f 05ba d538 1daa e58e 4dba
000001a0: b4c4 0180 b4d2 d196 cd50 11b2 235e 0080
000001b0: daec 0880 e6fe af18 5f6c 0380 9563 0100
000001c0: 9113 5a28 7c73 1b98 96b5 2237 b242 0180
000001d0: 8b2b 0000 d75a 0280 8907 e6bc f558 0180
000001e0: 82a0 7628 d604 0000 819b 0200 c264 9cb6
000001f0: 28d3 0180 8724 0080 15de 34ba 9f98 75a8
00000200: f008 4ebd 2aea a823 78be 2024 663f 0fa6
00000210: 2bfe 78b5 a8b3 0380 7588 1515 b68c 779a
00000220: 385a 04b8 4f6e a2a6 0686 0180 9e0e 4abb
00000230: e453 0080 e052 15ad 185f 0180 a061 92a1
00000240: 610c 79b4 c659 e7a1 6d65 83a8 2ca1 89b6
00000250: e735 0080 5ecd 0080 4013 3400 5594 f0bc
00000260: d0ae 49a6 f8d5 0080 d41d 14a8 f25d 0000
00000270: 2175 0080 07c5 0380 e487 28b0 d049 ae20
00000280: 4bce 54af 14d6 53a6 9c5e 81bb 32f5 86b8
00000290: 0288 43a8 26cc bf27 d5d1 0200 e5f8 0080
000002a0: 28cc 27af 0ef7 0898 6bc9 0100 6c57 0480
000002b0: a123 d0a6 6e63 0800 6ed7 0080 b9fd 0cba
000002c0: d8af 0180 37d7 96bb fc8e 8ea2 342f af16
000002d0: ff06 6437 1dd8 d8b5 110b 16bd e314 0000
000002e0: e8a3 baa3 231b 0380 1e55 cbb7 0f48 0100
000002f0: a322 42bd 6386 0000 9456 4f25 196b 5aa7
00000300: 9382 969b 6223 89a6 bfb5 0000 d528 28b6
00000310: 1c71 0880 677a 0180 2aed 0080 a2b8 0080
00000320: 1035 0f26 594b e427 78fe 8831 2c40 db23
00000330: 1d3a 0080 ff45 e599 801a e8ad 2954 5823
00000340: b168 c812 fad8 2827 297b 5231 6f42 0b80
00000350: d8e4 b3b4 8349 bfbb dd23 0680 f723 0080
00000360: 48c2 0780 1b53 0180 b388 8916 a572 3498
00000370: 08f4 9726 1a6e 0080 4dfb 8528 621b 0480
00000380: eeb6 7a93 c476 2d1a 231e a433 853d 2a27
00000390: c289 f0b3 2b1c 0080 9940 2ea7 c9ec ac84
000003a0: 4bd7 04b8 20b3 d924 3d46 d6bc ba51 0000
000003b0: 881f 0400 6802 0280 6453 0080 43a8 3bbc
000003c0: 0971 429a d465 d726 0448 b5b9 00cc 0180
000003d0: dc16 3ab9 9cb3 8626 3801 0200 3dd6 0080
000003e0: febf 4ca5 8599 148d b163 0000 730b 5824
000003f0: 84ca 0880 0562 0080 0bc5 86b9 4a02 0800

fc3.bias f4 [256]
-7.355414e-16 -1.4934e-41 -1.8772838e-07 2.6623e-41 5.2734543e-14 7.907301e-07 -2.3611641e-37 0.4882715
1.09607e-40 0.012852509 0.012736355 -5.47482e-40 -3.6051e-41 -1.4343853e-25 0.00015989607 0.031678636
-0.0007152859 3.2902e-41 2.1700906e-33 4.3888374e-23 -5.361e-42 -5.3325484e-25 8.543823e-32 1.6733303e-25
-0.0016894162 -8.948578e-25 2.1928273e-18 8.7239e-41 0.05444066 -1.4696382e-16 1.2967558e-12 1.7888e-41
0.0016719578 -0.5499313 -4.964413e-05 1.6244601e-17 -2.472e-41 -0.031730305 7.1001e-41 -1.41512e-40
6.9259374e-25 1.44028e-40 0.0033558705 -8.170278e-14 4.1508077e-21 7.7466785e-23 0.024874222 3.693006e-07
-2.6332273e-06 0.0020051796 -1.89318e-40 1.6307511e-06 -9.453124e-08 1.22256e-40 -6.0066273e-27 0.0022540092
1.3495419e-27 -5.1182176e-14 5.738841e-17 -7.4077216e-15 0.0038789927 -5.154011e-30 -3.4303952e-26 -7.869234e-13
7.95e-43 3.0716361e-30 9.344385e-22 -9.334671e-32 -1.959941e-14 -5.909649e-08 2.83861e-40 5.3802353e-12
0.39070988 -5.960506e-22 4.39159e-08 -0.017836854 0.004300948 -1.5868175e-15 -0.0016797772 -2.2465457e-33
-1.0272843e-23 3.0261948e-21 3.6059685e-19 -7.0539625e-07 -2.8686e-41 1.62406e-40 -4.1979106e-10 1.2051068e-30
1.0713086e-16 2.268583e-32 1.1634e-40 1.2208776e-18 4.9559666e-12 -5.1539536e-07 -2.2308644e-10 2.3639833e-26
1.34839e-40 -0.013033778 -0.005869618 7.5484904e-19 -0.053652517 -9.650621e-22 -9.523e-41 -1.4951288e-29
2.895747e-09 -1.218e-42 1.2667626e-38 -1.8218727e-30 2.9568664e-05 0.00022175546 1.0636899e-17 4.0528017e-31
-7.519103e-24 -0.0022774732 -0.0010173707 0.012104991 -9.5196e-41 -0.0023112511 -0.0007018773 -1.42154525e-33
8.441e-42 0.008729853 -6.276136e-07 -0.008145595 3.5448424e-14 1.4311342e-15 -0.0016151972 7.9216636e-07
-7.6022e-41 1.54269e-40 -0.0034837644 -4.629559e-07 2.2003184e-22 2.12386e-40 -1.1116452e-08 -1.60759055e-24
-2.921663e-27 -0.00069324765 -0.0014563224 7.860252e-38 1.307769e-24 -4.8086506e-35 0.00027350843 -0.00025703135
-0.0035208995 -5.6773053e-10 3.7182292e-24 2.990896e-09 -1.3088149e-25 5.0241e-41 2.5193784e-17 0.001745437
-3.0429513e-12 0.042654876 -4.4053935e-29 0.71445185 5.4415167e-15 -0.014293997 -0.004064303 -0.35371912
-1.01404e-40 3.7182774e-14 3.1754828e-11 -7.927e-42 -3.0956563e-22 -3.5844217e-20 -0.023173155 -2.3217128e-10
5.2084063e-19 9.9307976e-17 1.50581e-40 2.5752e-41 5.259226e-13 6.4312434e-07 8.9497e-41 6.1666245e-09
-0.023004843 2.4692357e-33 -0.05833526 6.8623e-41 1.3652364e-06 -2.9020852e-35 3.37543e-09 4.3265718e-08
-0.0075742607 -0.005772232 0.0013707391 -8.607057e-23 1.3628173e-13 -0.00011969832 -8.105e-41 2.10779e-06
9.2738157e-17 -1.85106e-40 5.8390074e-25 -1.53371e-40 3.394192e-12 -8.6592456e-17 4.82223e-40 -1.374261e-07
2.5911778e-35 -3.5815804e-25 -2.5736e-41 -1.0563605e-06 0.00031767425 1.0913015e-05 -1.543189e-08 6.1619e-41
-5.322623e-25 1.1028317e-30 7.9625893e-16 0.0010997338 -1.5555322e-18 -9.130035e-25 0.00666519 2.5157318e-29
6.0614162e-05 -7.2664386e-07 0.013557619 -2.2339868e-37 -0.02280492 -2.0178022e-17 -3.7605144e-30 -2.110668e-06
-1.82641e-40 -5.616698e-10 3.863523e-24 3.0412115e-23 -7.135713e-37 -1.01068696e-29 1.3490378e-21 0.009350158
-0.09904536 -2.146217e-23 0.015265416 3.6608094e-07 3.3448567e-17 1.3352447e-14 -5.449e-41 6.177178e-17
0.008206987 3.832811e-12 -1.8107203e-06 1.675455e-11 0.00032698552 -0.00086862623 4.98363e-35 1.0822429e-16
1.0026549e-36 2.4037047e-13 0.00094165467 -1.19692e-40 0.04746182 -1.0431441e-12 -1.213711e-38 -2.3253543e-16
00000000: 6001 54a6 a129 0080 6292 49b4 374a 0000
00000010: ca7e 6d29 8f42 5435 48b1 a082 b9fe f93e
00000020: 8a31 0100 5493 523c 25ac 503c 28f6 0580
00000030: 7f64 0080 7c91 3196 c6a9 2739 75c1 013d
00000040: 0682 3bba b85b 0000 b948 3409 2d3b 541a
00000050: f20e 0080 cd08 2597 72cf dd0b f425 4f16
00000060: 676f ddba f878 8a97 56cd 2122 30f3 0000
00000070: 2bfd 5e3d 1070 29a5 8d80 b62b dd31 0000
00000080: 9825 db3a 4cc8 0cbf fb38 50b8 7bd4 9523
00000090: e944 0080 a3f7 01bd ecc5 0000 7a8a 0180
000000a0: ee58 5617 7e91 0100 2aee 5b3b 72fa b7a9
000000b0: 26d0 9c1d 9e4d bb1a 06c5 cb3c 4a44 c634
000000c0: 80b6 30b6 5569 033b be0f 0280 2ee0 da35
000000d0: 1901 cbb3 cd54 0100 70f2 ed93 00b8 133b
000000e0: ecd7 d512 0881 66a9 2354 8424 1672 05a8
000000f0: b336 7e3b 4f12 d18e 6ddd 2995 cf7f 5dab
00000100: 3702 0000 6333 790e 5735 8d1c 8857 f28b
00000110: 2a89 b0a8 47d1 7db3 4a17 0300 da4c bd2c
00000120: 200b c83e 2e25 349c 0b9e 3c33 981e 92bc
00000130: f8ee 8c3b 3caf e4a6 f82b dcba bea2 3a89
00000140: a8b4 4699 1fa7 641d dbdb d420 765a 3db5
00000150: f74f 0080 b9c4 0100 57c8 e6af 2e8a c30d
00000160: e606 f724 4895 eb0a 4f44 0100 742b b421
00000170: 615f ae2c b359 0ab5 4049 75af 191e ea14
00000180: e077 0100 a18b 55bc ed55 c0bb c8ca 5e21
00000190: bec2 5bbd 08d6 919c 7609 0180 c39f 978f
000001a0: 85fe 4631 6503 0080 30f0 8900 d1ce 138e
000001b0: 390a f837 0787 6839 5637 4423 5c85 030d
000001c0: cb70 1199 a941 15bb 4c59 85ba 0354 463c
000001d0: 5e09 0180 5c78 17bb 30fe 37ba d931 ec88
000001e0: 8817 0000 a807 0f3c 4779 28b5 1a75 05bc
000001f0: 40a5 1f29 883f ce26 06b5 d3ba 42a5 5435
00000200: ebd3 0080 0aae 0100 de4f 64bb 2d8c f8b4
00000210: 4700 851b 0c50 0200 acfa 3eb2 39c3 f897
00000220: 5e7a 6793 10bb 35ba 12e2 beba f6f9 d501
00000230: 115e ca17 f6ab 7f86 ae65 8f39 2ac2 86b9
00000240: e4be 66bb 7c0e 1cb0 8fd7 8f18 6688 4d31
00000250: 0006 2296 0d8c 0000 245f e823 26c7 e43a
00000260: f020 56ac e1b6 2e3d 4761 5f90 51e6 363f
00000270: 220d c427 5e31 6abc d82d 85bb ac1a b5be
00000280: ac1a 0180 d274 2729 c2a8 0b2e 1916 0080
00000290: f61e bb9b 0045 299f a1d5 bdbc 6846 7faf
000002a0: 9bb9 1921 15fd e424 c2a3 0100 c947 0000
000002b0: b808 142b 2ba3 2c35 7bf9 0000 34e2 d331
000002c0: a774 bcbc d622 4d09 f4f0 6ebd 4bbf 0000
000002d0: 2a3d b735 234d 1a86 31f5 6731 29d3 3933
000002e0: 8131 f8bb fe24 bdbb 5faa b33a 1a1b d09a
000002f0: 8970 192a 8c06 fbb8 efe1 0080 8e73 0d36
00000300: f2d6 d524 0004 0280 62b5 3417 89ab 0180
00000310: 54d8 6e2c 2aab c7a4 3e40 0500 668f 13b4
00000320: 49c5 0906 68b0 dd96 be47 0080 45c8 8db5
00000330: 848d a639 0b17 3737 168f 84b2 c5ab 0000
00000340: 2aba 2497 d6f1 b20d 8a81 6526 f124 903a
00000350: 588e e5a1 cb47 8d97 ab67 da3b 2220 ff0f
00000360: f63b 7e38 960e 43b5 c720 5e3c 8a09 9882
00000370: 62d1 babc 021c baa3 6a8b 988e 00a5 0db6
00000380: 21fd 0180 0064 1ab0 7a76 9518 6010 131a
00000390: d4d0 7283 defd 4c8f 5fdc cb1c 6831 193c
000003a0: 4bd8 cabd c291 cf99 cc1b 7a3c c889 c434
000003b0: 1941 1a24 4b89 7028 e597 0080 9f6f 8e24
000003c0: 9976 063c e4da 862c e007 f3b5 e45f 932d
000003d0: 416f ab39 85b4 63ba d47c 8406 588c f924
000003e0: c897 aa03 0951 872a 60d9 763a a74d 0180
000003f0: 5367 423d 3acf 92ab 5329 8480 2c0c 86a5

fc4.weight f4 [1, 256]
0.16629073 0.15575929 -0.05211197 -0.25342822 -0.056849167 0.022408012 0.10480471 0.53784984
-0.009430425 0.109514475 -0.77107406 -0.5331697 0.013739584 -0.1961816 -0.5787258 0.16415486
0.31500915 -0.0075654453 -0.16474144 -0.32403377 -0.035960574 0.039111625 0.205082 0.09706308
-0.01291173 0.029587766 -0.20588566 -0.15784332 -0.49440977 -0.019789696 0.09742569 -0.009239774
-0.07861444 -0.080257766 0.99640113 0.026057284 0.23697217 -0.2173495 0.14975563 -0.04596849
0.005575288 -0.0023691775 0.018604618 -0.2683319 -0.34204802 0.13923535 -0.1607825 -0.22776626
0.8408008 -0.17176601 -0.14894278 -0.13265389 -0.33365655 0.10500363 0.014589346 -0.10605301
-0.08737643 -0.021340422 -0.72261894 0.8526951 -0.13220109 0.046238612 0.05425483 0.009936936
0.15085112 -0.050001126 -0.21162835 -0.04421995 -0.117095694 -0.0121089 0.011912196 -0.2749846
-0.057924174 -0.030925743 -0.08758522 0.028379891 -0.019563366 -0.06368397 -0.18549389 -0.074141905
-0.53986317 -0.23543864 -0.0068931673 0.00018913885 -0.06902147 -0.39418137 -0.028155332 0.19516315
-0.58649796 0.08993531 0.025395919 -0.17062327 -0.055385146 -0.028737254 -0.3897693 0.00030560986
-0.056703255 0.9200673 -0.12412974 0.08440425 -0.46180606 -0.14407791 -0.017692816 -0.19765359
0.058635354 -0.004165592 0.38921577 -0.61419463 -0.16204704 0.07247176 0.17495944 0.2283116
0.38050935 -0.31822366 -0.9283619 -0.7274272 -0.06609418 -0.28586885 -0.16314663 -0.07632852
-0.053126954 -0.45904857 -0.17586352 -0.19709218 0.17140159 0.18947008 0.74603647 0.13298966
-0.044278987 -0.15552662 0.01360851 0.3091888 -0.08589589 -0.0018419491 0.34417674 0.026605666
-0.47984686 -0.2310141 -0.023979194 0.09416966 -0.31513116 -0.23474729 0.04187611 -0.09255538
-0.17265508 -0.12603909 -0.003843227 0.14307947 0.00495378 0.023425099 -0.32351416 0.2104923
-0.5385528 0.008259645 0.003550891 0.43832237 -0.3037811 -0.039381664 -0.83938515 -0.16343111
-0.054388843 0.5413813 1.1616476 -0.0066227396 -0.44120428 0.51160336 0.42049453 -0.009310875
-0.0015398588 -0.00790538 -0.06331068 0.07744564 0.68966717 0.5738683 -0.2185224 0.22918999
-0.3774823 -0.09199266 0.030839859 -0.00027940056 0.0048003965 0.081712805 -0.18908659 -0.5317072
-0.21097183 0.95414 -0.09279507 0.6449097 0.023695301 -0.025835942 -0.008213243 -0.039740127
-0.22007936 0.01030545 -0.18860652 0.1530383 -0.089306585 0.4519004 -0.031777874 -0.076392785
0.24548341 -0.032463085 0.031756908 -0.12910618 0.43872342 -0.011378222 -0.1885939 -0.059699446
0.03542978 0.355958 0.1930711 0.0077518136 -0.026454303 0.18149073 -1.0939041 0.15661122
-0.0021929562 -0.512449 -0.542403 0.009134641 0.7530013 -0.16496381 -0.19748014 -0.013210505
0.112746134 -0.014115157 0.36208123 -0.10562755 -0.01749384 0.19294207 -0.21488802 -0.07087022
0.18004997 0.00064542895 0.28470212 -0.004329852 -0.30370638 -0.46106547 0.12257563 0.0672848
-0.46511745 -0.2996069 0.058151003 -0.041298956 0.0046069636 -0.05303914 -0.05057147 -0.2435784
0.03907889 -0.7911277 0.0128473835 0.059741642 0.05149892 -0.16798928 -0.24989538 -0.100592405
00000000: 1e48 2a3e 5d7f 1f3e 5c73 55bd 58c1 81be
00000010: acda 68bd 0291 b73c daa3 d63d 87b0 093f
00000020: 1282 1abc 2049 e03d 1c65 45bf cf7d 08bf
00000030: fe1b 613c d4e3 48be 6027 14bf 3618 283e
00000040: e148 a13e 8ee7 f7bb fbb1 28be c1e7 a5be
00000050: 654b 13bd 8333 203d 0401 523e 02c9 c63d
00000060: b98b 53bc 0b62 f23c b1d3 52be aea1 21be
00000070: 4723 fdbe 001e a2bc 1f87 c73d 6c62 17bc
00000080: 9c00 a1bd 2f5e a4bd 2514 7f3f 1676 d53c
00000090: d5a8 723e de90 5ebe 8a59 193e 7549 3cbd
000000a0: e8b0 b63b 3444 1bbb b668 983c cc62 89be
000000b0: eb20 afbe b693 0e3e 2ba4 24be 8f3b 69be
000000c0: b93e 573f 6ee3 2fbe 7584 18be 6cd6 07be
000000d0: 08d5 aabe 250c d73d 2708 6f3c 5232 d9bd
000000e0: 6af2 b2bd 1cd2 aebc 8efd 38bf 3a4a 5a3f
000000f0: b95f 07be b364 3d3d 503a 5e3d 88ce 223c
00000100: b778 1a3e fbcd 4cbd 1ab5 58be fa1f 35bd
00000110: decf efbd 6864 46bc 5f2b 433c c8ca 8cbe
00000120: e641 6dbd fc57 fdbc e15f b3bd f27c e83c
00000130: 5a43 a0bc be6c 82bd 1cf2 3dbe b6d7 97bd
00000140: 7934 0abf d416 71be 14e0 e1bb 9353 4639
00000150: 215b 8dbd 24d2 c9be 03a6 e6bc d9d8 473e
00000160: bb24 16bf 0130 b83d 1a0b d03c deb7 2ebe
00000170: 89db 62bd 646a ebbc d78f c7be 433a a039
00000180: ac41 68bd 8889 6b3f bc37 febd 23dc ac3d
00000190: d871 ecbe 2989 13be 86f0 90bc b465 4abe
000001a0: a02b 703d 857f 88bb 4a47 c73e dc3b 1dbf
000001b0: a9ef 25be 136c 943d 9128 333e 84ca 693e
000001c0: 1fd2 c23e 36ee a2be 20a9 6dbf ab38 3abf
000001d0: 635c 87bd 675d 92be e90f 27be 2152 9cbd
000001e0: a69b 59bd 6a08 ebbe 9115 34be 88d2 49be
000001f0: e683 2f3e 7204 423e 3ffc 3e3f 712e 083e
00000200: e25d 35bd 5f42 1fbe 3af6 5e3c ff4d 9e3e
00000210: 2fea afbd 8e6d f1ba ef37 b03e 20f4 d93c
00000220: 7dae f5be f68e 6cbe 0470 c4bc 06dc c03d
00000230: df58 a1be 9861 70be 4986 2b3d ad8d bdbd
00000240: 7ecc 30be 6410 01be a6de 7bbb 6d83 123e
00000250: 5253 a23b fee5 bf3c a6a3 a5be 4b8b 573e
00000260: 99de 09bf 7653 073c 11b6 683b ca6b e03e
00000270: 3289 9bbe ab4e 21bd f2e1 56bf 7c5a 27be
00000280: d6c6 5ebd f797 0a3f deb0 943f 9103 d9bb
00000290: 87e5 e1be 70f8 023f 0f4b d73e a48c 18bc
000002a0: 16d5 c9ba 9185 01bc 08a9 81bd d29b 9e3d
000002b0: 078e 303f 08e9 123f 56c4 5fbe c8b0 6a3e
000002c0: 5c45 c1be a666 bcbd dfa3 fc3c 827c 92b9
000002d0: a54c 9d3b 0b59 a73d ea9f 41be f71d 08bf
000002e0: 0009 58be 8542 743f 570b bebd cd18 253f
000002f0: a61c c23c e6a5 d3bc d790 06bc 8bc6 22bd
00000300: 7c5c 61be 31d8 283c 1122 41be 12b6 1c3e
00000310: 5fe6 b6bd 7d5f e73e 8429 02bd d273 9cbd
00000320: 0160 7b3e 03f8 04bd 8813 023d 6934 04be
00000330: 5ba0 e03e b96b 3abc c21e 41be 6887 74bd
00000340: d11e 113d 2140 b63e 6eb4 453e ed02 fe3b
00000350: b2b6 d8bc b5d8 393e 0d05 8cbf b15e 203e
00000360: b3b7 0fbb dc2f 03bf ecda 0abf 76a9 153c
00000370: b1c4 403f 46ec 28be 3c38 4abe e070 58bc
00000380: 72e7 e63d 4243 67bc b662 b93e 4253 d8bd
00000390: 3e4f 8fbc 9b92 453e 9b0b 5cbe 6824 91bd
000003a0: 055f 383e 0132 293a 7ac4 913e 6ee1 8dbb
000003b0: 677f 9bbe c610 ecbe ef08 fb3d 9dcc 893d
000003c0: e023 eebe 1366 99be bf2f 6e3d 1829 29bd
000003d0: 03f6 963b 923f 59bd 0824 4fbd 9e6c 79be
000003e0: 3011 203d 5887 4abf d57d 523c a7b3 743d
000003f0: 88f0 523d 6205 2cbe 93e4 7fbe 6403 cebd
