shanghai_road_delivery/results_centralized/centralized_episode_400.pth_centralized_critic.pth (torch, 919188 bytes, 7 tensors)

fc1.weight f4 [256, 378]
-3.2394249e-22 1.5832563e-26 -6.392813e-08 -6.1052646e-08 -6.16725e-08 -5.4963845e-08 -3.0242799e-27 -2.794643e-06
-2.1330829e-05 5.5431443e-05 -6.5083405e-10 2.0310608e-21 -4.3534904e-26 -3.975739e-10 -1.374532e-22 -7.175508e-15
1.1938161e-25 5.8558557e-12 -1.5810643e-26 -1.143623e-19 -1.2512639e-26 -1.03354e-40 1.2034454e-26 3.9104313e-27
1.2230125e-27 3.3900506e-07 -9.410035e-27 -1.5007223e-09 -1.0535683e-19 1.8755629e-05 1.0658489e-21 -5.153285e-05
-8.48591e-26 -0.0026714774 -3.1137846e-12 1.933413e-11 9.4391867e-26 -6.392848e-08 4.5311746e-18 -6.392848e-08
-0.10728635 -0.000592139 -1.08521405e-08 1.0656132e-17 -0.12956792 -0.0003812931 -2.2118303e-10 -1.2373386e-25
3.386279e-12 -6.392836e-08 2.7240936e-09 -6.392848e-08 2.5494545e-25 6.890692e-26 -6.392828e-08 -5.8559298e-08
-5.9186643e-08 -5.6275695e-08 -4.620738e-27 -3.3837366e-10 -0.00021702136 0.0001816813 -4.505543e-13 2.0310608e-21
-4.3534904e-26 3.481843e-05 -1.374532e-22 -7.175508e-15 1.1938161e-25 -0.0027814736 -1.5810643e-26 -1.143623e-19
-1.2512639e-26 -1.8568046e-26 3.9335705e-27 -2.66381e-40 -1.2635418e-26 0.0064150207 1.16124624e-26 -0.00095941836
1.3916834e-24 -4.360629e-09 1.0658489e-21 -1.4091794e-09 -8.48591e-26 -8.853328e-10 -3.1137846e-12 1.15481e-05
9.4391867e-26 -6.392848e-08 4.5311746e-18 -6.392848e-08 -0.07444877 -0.0005161604 -6.7515367e-09 -1.0625752e-20
-0.08027822 -0.00041153494 -3.239875e-09 -1.8534861e-22 -9.951982e-27 -5.7121106e-08 -4.7943524e-12 -6.392848e-08
6.058026e-26 -9.233915e-26 -6.392813e-08 -5.983752e-08 -6.036973e-08 -5.7352526e-08 3.1057192e-28 -1.2491244e-10
-4.591291e-09 3.6615875e-06 1.5298767e-08 2.0310608e-21 -4.3534904e-26 -1.2698666e-08 -1.374532e-22 -7.175508e-15
1.1938161e-25 -2.3002958e-08 -1.5810643e-26 -1.143623e-19 -1.2512639e-26 -5.9975196e-27 -3.038072e-26 1.07133e-40
1.5264121e-27 -1.11074e-40 -8.323467e-27 3.3485579e-09 1.3916834e-24 -1.1689467e-09 -1.0535683e-19 4.9251084e-06
-8.48591e-26 3.2269942e-10 -3.1137846e-12 6.1717644e-09 9.4391867e-26 -6.392848e-08 4.5311746e-18 -6.392848e-08
-0.12618406 -0.0005525329 -2.649825e-09 1.4191728e-20 -0.12442433 -0.000448789 -2.3297917e-09 -1.882403e-24
1.495941e-27 -5.8668462e-08 1.7263355e-09 -6.392848e-08 3.7812004e-26 -6.0007743e-26 -6.392813e-08 -6.032664e-08
-6.095923e-08 -5.459246e-08 -7.599467e-29 -4.6556988e-07 -0.00036690535 9.876468e-05 -3.6531842e-06 2.0310608e-21
-4.3534904e-26 -2.18376e-40 -1.374532e-22 -7.175508e-15 1.1938161e-25 -5.971924e-07 -1.5810643e-26 -1.143623e-19
-1.2512639e-26 5.6533e-41 3.9424646e-26 -5.5342718e-27 9.495012e-27 8.175832e-11 -9.2427497e-29 -1.5639544e-05
1.3916834e-24 6.266019e-10 -1.0535683e-19 5.812452e-11 1.0658489e-21 -0.00061510026 -3.1137846e-12 -2.2819611e-08
9.4391867e-26 -6.392848e-08 4.5311746e-18 -6.392848e-08 -0.18509948 -0.00057369063 -9.637388e-09 -7.3035167e-16
-0.18930832 -0.00031031243 -5.771322e-10 -2.0071227e-21 2.1857618e-27 -5.7284982e-08 -6.492664e-14 -6.392848e-08
9.556498e-25 1.0157542e-26 -6.392813e-08 -5.8457125e-08 -5.954061e-08 -5.4991162e-08 7.9068e-41 0.00017768348
-8.496736e-12 6.2680975e-13 6.971048e-13 2.0310608e-21 -4.3534904e-26 -0.0025540497 -1.374532e-22 -7.175508e-15
1.1938161e-25 6.7066896e-10 -1.5810643e-26 -1.143623e-19 -1.2512639e-26 -4.7688198e-26 2.1847786e-26 -3.5814334e-29
-1.6788687e-26 1.14611876e-08 -6.511324e-27 1.1271775e-11 1.3916834e-24 3.2955583e-11 -1.0535683e-19 -4.9527735e-08
1.0658489e-21 2.0485427e-06 -8.48591e-26 -7.619369e-05 9.4391867e-26 -6.392848e-08 4.5311746e-18 -6.392848e-08
-0.05254521 -0.00069795875 -1.315837e-08 -3.23146e-23 -0.08814083 -0.000353126 -3.2345673e-09 -1.1601459e-19
00000000: accf c39b 51cc 9c14 dc48 89b3 0c1c 83b3
00000010: d170 84b3 6311 6cb3 af9b 6f93 9a8b 3bb6
00000020: 9bef b2b7 0f7f 6838 60e6 32b0 6e76 191d
00000030: 0c93 5795 8d91 daaf b42b 269b 3143 01a8
00000040: 8bc9 1316 dc08 ce2c be94 9c94 e203 07a0
00000050: 9ed6 7794 1c20 0180 ee5d 6e14 7ce8 9a13
00000060: 48cb c112 8000 b634 8c62 3a94 f941 ceb0
00000070: 4cc4 f89f 6855 9d37 0811 a11c fa24 58b8
00000080: d819 d295 f413 2fbb f51c 5bac 9710 aa2d
00000090: f4b3 e915 0e49 89b3 bc2b a722 0e49 89b3
000000a0: f2b8 dbbd c739 1bba 3870 3ab2 2992 4423
000000b0: 74ad 04be 4be8 c7b9 7d31 73af d32c 1996
000000c0: c849 6e2c fd48 89b3 c332 3b31 0e49 89b3
000000d0: b8cd 9d16 f39a aa15 f248 89b3 a182 7bb3
000000e0: 6734 7eb3 c8b3 71b3 da0b b793 dc05 baaf
000000f0: 3a90 63b9 b481 3e39 b8a3 fdaa 6e76 191d
00000100: 0c93 5795 010a 1238 b42b 269b 3143 01a8
00000110: 8bc9 1316 6249 36bb be94 9c94 e203 07a0
00000120: 9ed6 7794 97e3 b794 25d3 9b13 90e6 0280
00000130: 2e45 7a94 1835 d23b 2e02 6614 7a81 7bba
00000140: 425a d717 80d4 95b1 0811 a11c 18ad c1b0
00000150: d819 d295 c25b 73b0 f51c 5bac b6be 4137
00000160: f4b3 e915 0e49 89b3 bc2b a722 0e49 89b3
00000170: 9978 98bd f04e 07ba 25fb e7b1 fcb6 489e
00000180: e868 a4bd 49c3 d7b9 7ca4 5eb1 9e12 609b
00000190: 8b1e 4594 5255 75b3 b0af a8ac 0e49 89b3
000001a0: 4dfd 9515 e49e e495 dc48 89b3 0680 80b3
000001b0: 9ca4 81b3 c553 76b3 2dd9 c411 ba57 09af
000001c0: 6cc1 9db1 98b9 7536 586a 8332 6e76 191d
000001d0: 0c93 5795 5329 5ab2 b42b 269b 3143 01a8
000001e0: 8bc9 1316 0a98 c5b2 be94 9c94 e203 07a0
000001f0: 9ed6 7794 1396 ed93 2370 1695 a52a 0100
00000200: a2de f112 a135 0180 fedc 2494 741c 6631
00000210: 425a d717 a8a8 a0b0 4cc4 f89f 5c42 a536
00000220: d819 d295 e867 b12f f51c 5bac 6a0f d431
00000230: f4b3 e915 0e49 89b3 bc2b a722 0e49 89b3
00000240: 6536 01be dbd7 10ba 3718 36b1 7e09 861e
00000250: 2fd2 febd 714b ebb9 211a 20b1 d5a4 1198
00000260: 940a ed12 a8fa 7bb3 0844 ed30 0e49 89b3
00000270: 693c 3b15 6d92 9495 dc48 89b3 ec8c 81b3
00000280: b1e8 82b3 0b79 6ab3 5cab c090 70f3 f9b4
00000290: 345d c0b9 e21f cf38 3a29 75b6 6e76 191d
000002a0: 0c93 5795 be60 0280 b42b 269b 3143 01a8
000002b0: 8bc9 1316 c04e 20b5 be94 9c94 e203 07a0
000002c0: 9ed6 7794 979d 0000 ad38 4315 2f3c db93
000002d0: 6e11 3c14 d8c9 b32e e054 ea90 aa31 83b7
000002e0: 425a d717 303d 2c30 4cc4 f89f 64a2 7f2e
000002f0: 0811 a11c ae3e 21ba f51c 5bac db04 c4b2
00000300: f4b3 e915 0e49 89b3 bc2b a722 0e49 89b3
00000310: b88a 3dbe ba63 16ba ae91 25b2 7182 52a6
00000320: 0ada 41be 6eb1 a2b9 11a4 1eb0 66a7 179d
00000330: 842c 2d13 8109 76b3 a933 92a9 0e49 89b3
00000340: 30e1 9317 db30 4914 dc48 89b3 4a12 7bb3
00000350: 98b9 7fb3 6c2f 6cb3 69dc 0000 8c50 3a39
00000360: e679 15ad 676e 302b b237 442b 6e76 191d
00000370: 0c93 5795 d861 27bb b42b 269b 3143 01a8
00000380: 8bc9 1316 225a 3830 be94 9c94 e203 07a0
00000390: 9ed6 7794 f923 6c95 b85e d814 aa99 3590
000003a0: 6144 a694 d6e6 4432 56f8 0094 904b 462d
000003b0: 425a d717 b0f0 102e 4cc4 f89f 52b8 54b3
000003c0: 0811 a11c b279 0936 d819 d295 2dca 9fb8
000003d0: f4b3 e915 0e49 89b3 bc2b a722 0e49 89b3
000003e0: a539 57bd 38f7 36ba 200f 62b2 8a43 1c9a
000003f0: 2e83 b4bd c523 b9b9 1c47 5eb1 42f7 08a0

fc1.bias f4 [256]
-6.3928645e-08 5.5776363e-05 -0.0061370023 -0.0034802388 -0.00083234336 -2.6718076e-17 -0.00015691396 -3.0904204e-08
-0.0002388573 -0.0001841044 0.7465497 -4.7251256e-06 -1.2861243e-06 -0.00013144067 -1.0504201e-05 -1.05190096e-19
-1.3676864e-06 -8.993424e-05 -0.01437056 -6.7325215e-11 -0.0002200947 -0.025779318 -1.536594e-05 -6.0473394e-06
-2.2533836e-13 -1.0702521e-09 -1.6281516e-19 -0.00096857734 -4.29879e-06 -0.064357795 -4.7182026e-22 -0.02062292
0.14021628 -1.3398032e-07 -0.002150967 -0.019605342 -8.0641513e-07 -4.0718078e-05 -0.00020927747 0.00085394696
-1.2732756e-23 -9.546297e-07 -0.005939016 -2.5046907e-16 -7.8304326e-21 -0.0026920096 -4.8189047e-10 -1.8627986e-06
-0.031888485 -0.2521989 -0.0007364073 -7.550654e-16 -0.0014649816 -6.1220475e-05 -0.0490211 -0.002704699
-0.012179487 -0.0002843401 -0.06040905 -1.3169845e-09 -0.07266681 -0.025394004 -1.4190152e-06 -0.00021617879
-1.6722533e-06 -0.041775353 -0.00070113473 -0.039529078 -1.7184546e-05 -1.2225206e-06 0.0014742911 -0.009103113
-1.4214218e-05 -1.0924433e-06 -1.6556427e-05 -6.7311766e-21 1.1974738e-07 -1.2881101e-09 -1.1907498e-05 -4.63399e-07
-0.06750509 -0.2376567 -0.21185693 -4.24489e-09 -1.7943103e-05 -1.7788587e-06 -0.00023328234 -0.00012276569
-1.7717392e-06 -7.876609e-08 -0.19079119 -2.1315747e-16 -3.991038e-05 -0.4906454 -8.9855074e-09 -2.386432e-09
-8.703694e-05 -3.543743e-18 -0.013136741 -5.3989916e-05 -0.0009638297 -3.7136252e-07 -4.850557e-05 -3.1900723e-07
-0.0021429432 -4.5198725e-10 -3.1042957e-05 -3.0456445e-14 -4.114428e-21 -0.0017929217 -0.0068369247 -3.253701e-05
-0.0045810174 -0.03892328 -0.14046623 -1.1477141e-08 -2.7525746e-05 -6.1506885e-06 -0.24553172 -0.12869982
-6.542571e-05 -3.5656019e-13 -1.1135846e-07 -0.00010177638 -1.0774387e-05 -3.5074812e-05 -4.2736414e-05 -3.7766652e-06
-0.07110185 -0.00021896687 -0.0018272935 -0.0014617952 -3.438381e-08 -0.046986636 -5.058186e-08 -0.0003447382
-1.6422379e-11 -3.6412e-11 -2.2926363e-13 -1.5865844e-12 -0.07079892 -0.00070322276 -0.006747249 -0.019878158
-0.029119102 -0.00040168554 -0.0006588204 -2.9242218e-09 -0.00197855 0.57927525 -2.4691399e-06 -4.5777334e-08
-1.0611912e-16 -0.14124021 -1.2695996e-05 -0.07198552 -0.008490987 -0.13838722 -1.0779751e-06 -3.3827553e-05
-9.698069e-09 -5.8426383e-07 -1.6786274e-06 -6.354615e-05 -0.00055173883 -0.000450921 -8.140353e-06 -9.554465e-08
-5.5998104e-08 -1.1966595e-05 -0.00035817514 -1.7217922e-09 -2.5396393e-10 -0.37954107 -0.0059959 -5.2926866e-06
-1.0114757e-07 0.7681678 -2.9593781e-15 -2.8598482e-08 -6.3259126e-13 -1.1047375e-20 -3.262375e-06 -3.7739853e-06
-1.648704e-05 -4.585791e-06 -0.21358284 -2.2176687e-06 -1.63243e-06 -0.10022547 -0.062684044 -6.86493e-05
-6.9935005e-16 -0.004835391 -2.8965027e-05 -2.660639e-07 -2.9641981e-08 -5.8029033e-15 -4.96141e-10 -1.5030831e-07
-0.08450676 -0.0003960797 -0.007959116 -2.368826e-06 -2.3720959e-05 -3.6898618e-06 -0.022063104 -0.00028087912
-2.5970378e-06 -0.0029947306 -2.884312e-07 -8.559839e-09 -4.3708226e-08 -2.9429764e-11 -0.36059186 -9.959835e-06
-3.285876e-05 -9.70589e-13 -2.2824432e-05 -0.00064927246 -3.301254e-05 -0.0003296716 -1.4999029e-05 -7.545326e-08
-0.0002554869 -5.797511e-13 -0.0024776184 -0.0011277955 -0.002759662 -1.5243037e-07 0.38329867 -3.4243325e-07
-1.1818889e-07 -0.007874492 -6.6910017e-15 -0.0004338694 -1.6057395e-13 -3.974054e-07 -0.28731483 -3.8255534e-05
-0.028616093 2.4270225e-08 -0.0309905 -1.6067147e-12 -2.677851e-05 -0.14319146 -1.5164123e-11 -0.00273096
-1.1230664e-11 -1.1705829e-14 -1.1693983e-11 -6.0573285e-07 -0.0001252694 -5.733921e-06 -0.026216792 -3.5107307e-13
00000000: 2549 89b3 6af1 6938 e818 c9bb b814 64bb
00000010: 9e31 5aba 466e f6a3 4589 24b9 88bb 04b3
00000020: c575 7ab9 260c 41b9 e21d 3f3f 858c 9eb6
00000030: e59e acb5 56d3 09b9 333b 30b7 835f f89f
00000040: 5991 b7b5 149b bcb8 7f72 6bbc ba0c 94ae
00000050: 39c9 66b9 262f d3bc 1be6 80b7 40ea cab6
00000060: 5cb5 7daa 2618 93b0 dd37 40a0 20e8 7dba
00000070: 533e 90b6 05ce 83bd 5399 0e9c 66f1 a8bc
00000080: db94 0f3e 3bdc 0fb4 3df7 0cbb 629b a0bc
00000090: 6d78 58b5 b4c8 2ab8 7e71 5bb9 69db 5f3a
000000a0: 8e49 7699 d420 80b5 149c c2bb b662 90a5
000000b0: a6e9 139e 6d6c 30bb 0776 04b0 4605 fab5
000000c0: 809d 02bd 3720 81be 750b 41ba fea1 59a6
000000d0: a004 c0ba 7e63 80b8 59ca 48bd 5241 31bb
000000e0: 798c 47bc 7b13 95b9 7b6f 77bd 4601 b5b0
000000f0: 56d2 94bd 1607 d0bc fe74 beb5 0dae 62b9
00000100: 3072 e0b5 a21c 2bbd 5bcc 37ba 3ee9 21bd
00000110: 8827 90b7 7d15 a4b5 003d c13a 3925 15bc
00000120: 9a79 6eb7 11a0 92b5 a8e2 8ab7 f24b fe9d
00000130: e993 0034 5809 b1b0 51c6 47b7 13c9 f8b4
00000140: 1c40 8abd 475c 73be 06f1 58be 73da 91b1
00000150: 8584 96b7 1fc1 eeb5 409d 74b9 aaba 00b9
00000160: 7fcc edb5 1e26 a9b3 c45e 43be fbc0 75a5
00000170: 7265 27b8 e035 fbbe ae5e 1ab2 8efe 23b1
00000180: 9a87 b6b8 b5bd 82a2 7c3b 57bc 3b73 62b8
00000190: 84a9 7cba ad5f c7b4 7672 4bb8 0544 abb4
000001a0: 9f70 0cbb 8d7b f8af 1f34 02b8 e429 09a9
000001b0: 4e70 9b9d 7800 ebba 4808 e0bb 5978 08b8
000001c0: 5c1c 96bb 046e 1fbd 61d6 0fbe 002d 45b2
000001d0: 17e7 e6b7 0362 ceb6 ab6c 7bbe e3c9 03be
000001e0: 2935 89b8 bdb9 c8aa f623 efb3 c770 d5b8
000001f0: a4c3 34b7 4b1d 13b8 e03f 33b8 9d72 7db6
00000200: d99d 91bd 799a 65b9 cc81 efba b599 bfba
00000210: 66ad 13b3 0f75 40bd 583f 59b3 fabd b4b9
00000220: e973 90ad 4424 20ae 5f10 81aa ba4a dfab
00000230: 06ff 90bd 7b58 38ba 0718 ddbb 85d7 a2bc
00000240: 2f8b eebc 5299 d2b9 b0b4 2cba 74f3 48b1
00000250: 90aa 01bb 624b 143f 80b3 25b6 b69c 44b3
00000260: acb1 f4a4 46a1 10be e300 55b7 256d 93bd
00000270: c81d 0bbc 61b5 0dbe f1ae 90b5 0fe2 0db8
00000280: 8f9c 26b2 4ed6 1cb5 334d e1b5 1444 85b8
00000290: 91a2 10ba 9869 ecb9 8d92 08b7 3a2e cdb3
000002a0: 9182 70b3 22c4 48b7 74c9 bbb9 2da4 ecb0
000002b0: 3f9e 8baf 3553 c2be 4179 c4bb d597 b1b6
000002c0: 7736 d9b3 a5a6 443f e43e 55a7 baa8 f5b2
000002d0: 010f 32ab d4ad 509e 2def 5ab6 9344 7db6
000002e0: a64d 8ab7 a5df 99b6 76b5 5abe 42d3 14b6
000002f0: de19 dbb5 0343 cdbd 7e60 80bd d0f7 8fb8
00000300: ed92 49a6 3372 9ebb ecf9 f2b7 8bd7 8eb4
00000310: 689f feb2 5612 d1a7 d260 08b0 6f64 21b4
00000320: e111 adbd eba8 cfb9 f466 02bc 1ff8 1eb6
00000330: 5ffc c6b7 589f 77b6 afbd b4bc f542 93b9
00000340: c548 2eb6 3e43 44bb afd9 9ab4 920e 13b2
00000350: b4b9 3bb3 f86e 01ae 7f9f b8be 2a19 27b7
00000360: d3d1 09b8 2799 88ab 1877 bfb7 f033 2aba
00000370: f276 0ab8 c6d7 acb9 57a4 7bb7 de08 a2b3
00000380: dff2 85b9 782f 23ab 8a5f 22bb 8ad2 93ba
00000390: 72db 34bb beab 23b4 b93f c43e abd7 b7b4
000003a0: 08cf fdb3 0304 01bc 9911 f1a7 f778 e3b9
000003b0: 4aca 34aa fb5a d5b4 ee1a 93be 9174 20b8
000003c0: 4c6c eabc ca7a d032 cadf fdbc ff1f e2ab
000003d0: 6aa2 e0b7 c8a0 12be 9262 85ad e8f9 32bb
000003e0: 6a92 45ad 9cdf 52a8 04b9 4dad a599 22b5
000003f0: c05a 03b9 0266 c0b6 99c4 d6bc f6a2 c5aa

fc2.weight f4 [256, 256]
1.9265867e-28 -5.506824e-39 -1.1104094e-28 -2.240351e-20 5.3939375e-26 8.607318e-05 1.38303e-40 1.55017e-40
6.019088e-20 -1.152871e-38 -0.004041844 -7.3035794e-35 3.3585124e-08 -2.4619856e-28 2.6343213e-27 -2.28923e-40
-9.76153e-40 -2.32246e-40 1.8807065e-22 -3.7190327e-23 -1.0379295e-24 9.564411e-29 5.883306e-08 -8.5733584e-35
5.721196e-39 6.242e-41 2.51612e-40 -4.88754e-21 -2.02394e-40 1.0242505e-38 8.1354e-41 0.0006875162
2.37072e-40 4.382864e-39 8.773454e-39 -5.5407054e-29 1.61479e-40 1.0299696e-26 6.773253e-39 1.15498e-40
2.17168e-40 3.178879e-39 -3.0845542e-20 -1.363632e-39 2.2956e-41 1.0224739e-30 -1.54612e-40 -3.944526e-39
-1.9826446e-07 -1.3814219e-05 -1.0171436e-07 -4.953736e-39 -1.81017e-40 -5.037489e-25 -1.2971893e-20 1.83855e-40
1.73877e-40 -6.4729e-41 1.7952909e-10 -2.4715e-40 -4.9736207e-26 -5.580691e-23 -7.7695206e-26 1.6240109e-23
2.507005e-25 -4.8403057e-27 1.0452329e-27 -1.184812e-05 1.9549139e-16 -5.06e-42 2.8847305e-25 -2.5962949e-14
2.88907e-39 1.57991e-40 1.31623e-40 4.687132e-39 -9.004842e-31 -4.463466e-32 1.77037e-40 4.7316084e-13
-1.328791e-06 -9.4013e-41 2.9794502e-27 2.1089e-40 2.5583247e-28 -2.2864115e-38 2.1629975e-22 7.4338455e-22
3.133097e-22 -6.8436175e-29 -3.8834121e-13 1.165754e-39 1.53502e-39 4.7367946e-31 3.89892e-39 -2.1774743e-34
-5.877031e-27 -1.9216e-41 -4.792256e-27 -1.177046e-21 -1.53423e-40 1.8182155e-09 9.2963766e-30 2.121003e-38
-3.025944e-34 -2.980157e-39 -1.951971e-23 -1.5327e-41 -1.1860051e-38 -1.58872e-40 -2.5378162e-07 6.6567895e-35
-2.8521435e-38 -1.8509989e-13 -5.418098e-13 -1.3604252e-20 -1.7053956e-08 -1.1699116e-21 4.3755197e-19 9.0096956e-24
1.07302896e-23 -1.16036e-40 1.26768e-40 -2.4449147e-22 6.4453e-41 2.8953843e-22 -3.41892e-17 -2.897517e-39
-2.8684295e-23 1.0842606e-20 3.070144e-17 1.5696611e-26 -7.756885e-29 -7.208037e-25 1.854707e-39 -8.115475e-11
-2.44665e-40 -8.2726e-41 1.4172656e-38 -1.0931759e-31 -3.791373e-25 -7.855665e-39 9.191239e-28 1.1588676e-24
-2.3377126e-21 -6.384332e-25 -9.090382e-24 2.2021e-41 -1.5336026e-28 2.5734689e-11 7.0372e-41 6.67523e-40
3.0167506e-20 2.59445e-40 2.19998e-39 6.9956016e-28 7.566e-41 -3.9901817e-31 2.3716439e-06 1.982953e-21
2.36445e-40 4.0878856e-09 2.93662e-39 -6.6434e-41 2.625193e-24 -4.311136e-35 6.4071614e-20 -2.64529e-40
-1.5332262e-08 1.6238014e-22 1.5431555e-24 -5.0842e-41 9.0205043e-10 4.2726036e-24 2.6247337e-20 -1.16559e-40
-4.118123e-39 -0.08671053 -6.2440654e-19 2.10312e-40 -2.06243e-40 -1.441398e-39 7.168883e-39 4.434696e-27
-7.682437e-34 8.649429e-28 3.721824e-22 -2.33816e-40 1.411796e-27 -0.018071722 -1.1882196e-07 -1.0594153e-08
1.5239148e-18 5.163939e-05 -1.1193148e-37 -8.974129e-29 -2.21603e-40 -9.860482e-39 -1.85435e-40 -3.26225e-10
-2.9077128e-05 -4.004924e-11 -5.939129e-27 4.8112337e-36 -4.3123467e-27 -2.1704e-40 5.993204e-18 -1.8995297e-10
-1.19535e-40 9.1006e-41 1.34624e-40 9.7036e-40 -1.60016e-40 -9.829551e-22 -1.4633884e-21 2.2498074e-24
1.535567e-25 1.4364246e-13 -6.50843e-24 2.1869944e-34 -5.1534515e-30 -1.104359e-39 3.758523e-24 1.5342e-40
2.557486e-20 2.3018e-41 -8.970835e-07 -1.090021e-17 -5.915515e-17 -0.0016291148 -0.04710609 -3.596e-40
-3.564648e-14 2.0626e-41 4.601868e-06 -7.896217e-24 -6.629642e-05 1.1320444e-26 2.225455e-22 -2.131432e-26
3.21639e-40 3.51056e-40 1.414104e-38 3.018154e-32 2.078335e-24 -1.7614721e-28 3.80778e-40 1.959881e-05
-7.7993e-41 2.280853e-39 -1.19836e-40 -1.1244757e-16 -4.620129e-26 -2.74582e-39 -9.14744e-40 -1.1430682e-38
00000000: 5039 7411 c9f6 3b80 d8c2 0c91 5d98 d39e
00000010: 248c 8515 3082 b438 8881 0100 20b0 0100
00000020: 281f 8e1f 5a89 7d80 7271 84bb 9629 c286
00000030: 3c3f 1033 000c 9c91 62b6 5013 257e 0280
00000040: 1ea1 0a80 6887 0280 0c5d 631b 65d7 339a
00000050: a09c a097 947c f210 a2af 7c33 41eb e386
00000060: 5e4c 3e00 00ae 0000 64bd 0200 63a5 b89d
00000070: 3134 0280 f087 6f00 c8e2 0000 6e3a 343a
00000080: dc94 0200 a4b9 2f00 d288 5f00 3c79 8c90
00000090: 23c2 0100 aa01 4c14 13c1 4900 f641 0100
000000a0: 605d 0200 6c9d 2200 f9a9 119f 40d9 0e80
000000b0: fe3f 0000 e7e7 a50d ffae 0180 bcf3 2a80
000000c0: 85e2 54b4 9ec3 67b7 106e dab3 00f1 3580
000000d0: 9af8 0180 1ae7 1b97 3a08 759e 8300 0200
000000e0: b3e4 0100 70b4 0080 f264 452f f4b0 0280
000000f0: 2248 7695 ceee 869a 305d c095 9010 9d19
00000100: 142d 9b16 88be bf93 af9f a512 4ac7 46b7
00000110: e062 6125 1b0e 0080 618e b216 7cda e9a8
00000120: 8d75 1f00 6ab8 0100 e96e 0100 d109 3300
00000130: a61c 928d a4c1 678b 82ed 0100 d52e 052b
00000140: e958 b2b5 1206 0180 6e0e 6c13 e04b 0200
00000150: 3127 a211 daf7 f880 c4be 821b 98ac 601c
00000160: 5462 bd1b 9e81 ad90 de9d daaa a6b1 0c00
00000170: 03b7 1000 c0b7 190d 9a74 2a00 ceb7 9087
00000180: 2dd0 e893 9135 0080 40d7 bd93 c3de b19c
00000190: aeab 0180 c5e4 f930 8c8d 3c0f eff4 e600
000001a0: c51b c987 7773 2080 76c8 bc99 ba2a 0080
000001b0: ff24 8180 dfba 0180 7b3f 88b4 c3f7 b006
000001c0: 1449 1b81 6967 50aa 8381 18ab 107d 809e
000001d0: 0c7e 92b2 c3ca b09c 7e24 0121 da45 2e19
000001e0: d28d 4f19 7643 0180 6161 0100 39c9 939b
000001f0: abb3 0000 e703 af1b 7cab 1da4 198d 1f80
00000200: 70b5 0a9a a0cf 4c1e dd95 0d24 a373 9b14
00000210: 10a9 c490 f413 5f97 2b32 1400 1076 b2ae
00000220: 07aa 0280 9be6 0080 9953 9a00 00e7 0d8c
00000230: b4ac ea96 668a 5580 18a4 9112 7a53 b317
00000240: f0a1 309d e495 4597 64d5 2f99 633d 0000
00000250: 4068 4291 5e5d e22d 2bc4 0000 c844 0700
00000260: 4776 0e1f 3ad3 0200 a6f4 1700 10b3 5d12
00000270: e9d2 0000 227d 018d 8828 1f36 e4d3 151d
00000280: 1d93 0200 6c75 8c31 1afa 1f00 31b9 0080
00000290: 4e1d 4b18 2438 6586 ea48 971f 66e1 0280
000002a0: 00b4 83b2 384e 441b b0ca ee17 ba8d 0080
000002b0: 28f4 7730 d149 a518 2be6 f71e eb44 0180
000002c0: a7d7 2c80 4a95 b1bd d34a 38a1 444a 0200
000002d0: ec3e 0280 08b2 0f80 ee0f 4e00 29ad af13
000002e0: f24a 7f88 410e 8912 70f8 e01b c98b 0280
000002f0: 40b5 df12 260b 94bc 102b ffb3 9401 36b2
00000300: e0e3 e021 5f97 5838 6e5a 1882 6d85 e390
00000310: bd69 0280 035f 6b80 eb04 0280 1658 b3af
00000320: a8ea f3b7 7023 30ae ec45 eb93 b2a5 cc04
00000330: 64d4 aa93 055d 0280 361c dd22 02db 50af
00000340: 374d 0180 b0fd 0000 4777 0100 f890 0a00
00000350: 0fbe 0180 3c8a 949c 1924 dd9c 0712 2e18
00000360: 1018 3e16 1fba 212a 5ec8 fb98 c859 9107
00000370: 800c d18e 8106 0c80 9c66 9118 acab 0100
00000380: 388c f11e 2a40 0000 1ccf 70b5 c912 49a3
00000390: 0a67 88a4 0688 d5ba 51f2 40bd 6bea 0380
000003a0: 9889 20a9 7f39 0000 bf69 9a36 2cbc 1899
000003b0: 9f08 8bb8 7839 6014 4085 861b 3916 d394
000003c0: 9980 0300 9ad2 0300 77fb 9900 26b6 1c0b
000003d0: aacd 2018 0a4b 5f91 7425 0400 2068 a437
000003e0: 6ad9 0080 17d6 1800 0e4e 0180 aaa4 01a5
000003f0: 18c7 6495 3be6 1d80 eff5 0980 1778 7c80

fc2.bias f4 [256]
-0.00019379058 -0.012693095 -0.081463896 0.8478382 -0.00011049491 -0.017112194 -0.005976547 -0.015714426
-0.07463552 0.7664922 -0.004683668 -0.0067206062 -0.059362985 0.006319556 -0.0102135 0.49075764
-2.040742e-05 0.046611797 -0.058279276 -0.03309229 1.4503808 1.7903683e-05 -0.06255743 -0.07798075
0.0074665467 0.0120200245 0.00017882779 0.17173246 -0.00394358 -0.018714916 0.9096949 0.18735108
0.25442722 3.3487124 -0.03414944 -0.00606096 1.6064624 2.9453042 0.74475306 -0.2075511
-0.15401489 -0.004640149 -0.0024787777 0.051880844 0.20248191 0.0064614285 2.6684637 0.09106153
3.3212078 0.005193919 0.3191683 0.411521 0.01947746 -6.105206e-11 0.84384865 0.004047851
2.9584658 -8.9358815e-05 -6.70813e-09 0.7859984 -0.07320425 -0.0002903162 -1.3315242e-06 -0.030829454
-4.9703928e-08 0.0029344794 3.2736702 -0.040724605 -0.21619111 2.5495532 0.0008742992 -5.714717e-09
2.8196886 -0.18773547 3.782969 -3.5082286e-07 1.310432 -0.0032847344 3.312785 0.076791376
-0.042720653 0.075864635 2.1818638e-05 -0.149161 -0.008377241 2.4145343 -0.0006033866 -0.04559657
2.202675 -0.0017682975 -0.018193075 -0.0006324309 -0.010757689 -3.2752338e-05 -0.015029762 -0.007264281
3.0997272 -0.00417323 -0.0030948445 0.46324748 -0.017056983 1.2254839 2.89528 0.04396711
-9.32333e-05 -0.003046296 -0.036532022 -0.011023203 -0.00020725746 -0.0010400863 0.42348167 -0.050317522
0.22830877 0.024711046 -0.012784777 -0.0018339704 -0.00013686446 0.71603394 -0.15177622 0.04592403
-0.002338993 -0.0018544039 -0.014386627 0.3294045 -3.1067808e-05 -0.0011335592 1.1490479 1.114924
-0.12840895 1.0786208 -0.0026113037 -0.3338782 3.3354685 1.3704048 -0.17464975 -0.007937322
0.023759654 9.5463925e-05 -0.028954037 -0.008720211 -0.006034756 -2.0417334e-05 0.058456276 0.07595057
3.05794 -4.959391e-17 -0.071609505 0.09664631 -7.053434e-05 -0.0003637381 0.027489992 0.009019403
2.5906964e-05 -0.0018495275 0.08309285 -0.00082942995 -0.002419531 -0.032391086 -0.061217252 -0.06721607
-5.4532633e-05 0.8476611 0.14772809 0.08017328 0.26316214 -0.00022971511 0.011683882 -0.06781638
-0.006562607 -5.2780055e-05 -0.00015425064 3.6220446 -0.0043007648 -0.0002764852 -0.00863063 -0.00027929802
-0.018424107 -0.0689873 -0.0012741779 2.4405496 3.2852762 0.058887973 0.086769864 -0.07172637
1.7291859 0.14925475 -0.17027101 0.09146406 -0.14457244 -0.0021569496 -0.23443544 -7.813883e-06
0.051883932 -0.049992613 -0.038984798 -0.04540511 -0.0017135185 0.010178044 -0.003384043 -0.0041332534
0.37526768 -0.0036726603 3.340478 -0.010386163 -0.002715304 -0.0009814202 0.41910237 -9.885863e-06
0.012497986 2.4374282 0.020563608 0.036478493 -0.001014257 -0.014648213 0.013286749 0.18243174
-0.065717354 -0.00015666772 -0.00029925903 -0.00046037088 -0.04170031 -6.339246e-06 -9.422936e-07 -0.0037144306
-2.3776422e-11 -0.014187004 3.145446 -0.0073514376 -0.0749758 0.24150653 -0.08669725 0.0022630657
-0.04434468 -0.013206197 0.1411131 -0.037817232 0.6897272 -0.008419538 -0.0032254434 -0.13758697
-0.026008656 -0.01586986 -0.0337654 0.08741778 2.1869895 -0.019716319 -0.0010901508 -0.01787007
-3.0880163e-11 -5.2106598e-06 -1.6073172e-05 -0.004531922 1.5468663 0.20976491 2.1421878 -5.747387e-06
00000000: 4334 4bb9 b3f6 4fbc 8bd6 a6bd ed0b 593f
00000010: 81b9 e7b8 df2e 8cbc e9d6 c3bb 8abb 80bc
00000020: 82da 98bd d538 443f 7479 99bb 8838 dcbb
00000030: 9a26 73bd 4714 cf3b 8656 27bc 9644 fb3e
00000040: 9a30 abb7 03ec 3e3d 40b6 6ebd c88b 07bd
00000050: 14a6 b93f de2f 9637 1c1e 80bd 5fb4 9fbd
00000060: efa9 f43b a3ef 443c b883 3b39 a2da 2f3e
00000070: 2639 81bb 0650 99bc c4e1 683f f6d8 3f3e
00000080: 4944 823e 4e51 5640 48e0 0bbd 049b c6bb
00000090: 8fa0 cd3f dd7f 3c40 23a8 3e3f 4788 54be
000000a0: 14b6 1dbe 640c 98bb fd72 22bb 0281 543d
000000b0: 6b57 4f3e 64ba d33b 1cc8 2a40 787e ba3d
000000c0: ab8e 5440 c031 aa3b 076a a33e e1b2 d23e
000000d0: 328f 9f3c 4141 86ae 7706 583f d6a3 843b
000000e0: 8157 3d40 2666 bbb8 567d e6b1 3137 493f
000000f0: 1cec 95bd 9535 98b9 d3b6 b2b5 0d8e fcbc
00000100: 0c7a 55b3 6550 403b d083 5140 d8ce 26bd
00000110: 3461 5dbe e12b 2340 3a31 653a 2f5b c4b1
00000120: c775 3440 ba3d 40be 2a1c 7240 ba58 bcb4
00000130: 3cbc a73f b344 57bb ab04 5440 cc44 9d3d
00000140: dafb 2ebd eb5e 9b3d 2b07 b737 a9bd 18be
00000150: b240 09bc bb87 1a40 972c 1eba 78c3 3abd
00000160: a1f8 0c40 38c6 e7ba a509 95bc b8c9 25ba
00000170: 0541 30bc 8e5f 09b8 643f 76bc 3509 eebb
00000180: ee61 4640 97bf 88bb e0d2 4abb c62e ed3e
00000190: 16bb 8bbc a8dc 9c3f 444c 3940 db16 343d
000001a0: 3f86 c3b8 5ea4 47bb 9aa2 15bd aa9a 34bc
000001b0: 4053 59b9 8153 88ba 97d2 d83e bf19 4ebd
000001c0: c6c9 693e d26e ca3c 3e77 51bc d661 f0ba
000001d0: 4683 0fb9 004e 373f 3a6b 1bbe d61a 3c3d
000001e0: ca49 19bb 780f f3ba e3b5 6bbc b5a7 a83e
000001f0: ce4e 02b8 ef93 94ba 0014 933f d4b5 8e3f
00000200: a37d 03be 3f10 8a3f 6822 2bbb 15f2 aabe
00000210: 5178 5540 6d69 af3f 62d7 32be 8b0b 02bc
00000220: 9ba3 c23c ce33 c838 0431 edbc 37df 0ebc
00000230: 34bf c5bb e445 abb7 d96f 6f3d f98b 9b3d
00000240: 4ab5 4340 28b6 64a4 01a8 92bd 80ee c53d
00000250: d6eb 93b8 1ab4 beb9 b132 e13c 1ec6 133c
00000260: c852 d937 d86b f2ba 962c aa3d 1a6e 59ba
00000270: ff90 1ebb 84ac 04bd f1be 7abd 94a8 89bd
00000280: f8b9 64b8 5100 593f 0846 173e e331 a43d
00000290: 30bd 863e aedf 70b9 c16d 3f3c 50e3 8abd
000002a0: 230b d7bb 2760 5db8 57be 21b9 94cf 6740
000002b0: 6eed 8cbb 37f5 90b9 7c67 0dbc bf6e 92b9
000002c0: 27ee 96bc 3749 8dbd 5102 a7ba f731 1c40
000002d0: f741 5240 8434 713d 66b4 b13d 46e5 92bd
000002e0: f755 dd3f 3dd6 183e 865b 2ebe 8251 bb3d
000002f0: cc0a 14be 9c5b 0dbb d80f 70be 5f18 03b7
00000300: 3f84 543d 0ec5 4cbd 86ae 1fbd b5fa 39bd
00000310: 2498 e0ba d0c1 263c d2c6 5dbb 3e70 87bb
00000320: 1623 c03e 04b1 70bb 64ca 5540 ba2a 2abc
00000330: 3ef3 31bb ffa2 80ba 9694 d63e 75db 25b7
00000340: 5ac4 4c3c d3fe 1b40 0375 a83c 796a 153d
00000350: d1f0 84ba 0fff 6fbc aab0 593c 63cf 3a3e
00000360: d296 86bd 2c47 24b9 dee5 9cb9 ef5d f1b9
00000370: f2cd 2abd b5b5 d4b6 ecf1 7cb5 ce6d 73bb
00000380: be23 d1ad 9c70 68bc fd4e 4940 54e4 f0bb
00000390: ea8c 99bd 7d4d 773e 548e b1bd f14f 143b
000003a0: c4a2 35bd ce5e 58bc f47f 103e 3ee6 1abd
000003b0: f691 303f 1af2 09bc f661 53bb 99e3 0cbe
000003c0: 1b10 d5bc 8201 82bc 974d 0abd 1808 b33d
000003d0: a3f7 0b40 1e84 a1bc 64e3 8eba 4164 92bc
000003e0: f9cf 07ae 3ad7 aeb6 e0d4 86b7 8480 94bb
000003f0: b7ff c53f 9dcc 563e 9b19 0940 aed9 c0b6

fc3.weight f4 [256, 256]
-1.5781e-41 9.970341e-36 5.378912e-22 1.7316196e-30 -2.0795203e-31 -7.409988e-27 1.50682e-40 9.92976e-40
-6.3756e-41 1.8333559e-31 -8.301e-41 -3.1957e-41 -1.1177526e-10 -6.808265e-25 -6.40846e-40 1.9641267e-36
-3.8762458e-32 -5.998605e-08 -2.4699264e-12 -1.2710979e-11 5.2316905e-28 -6.2417e-41 1.3683282e-30 -1.4815683e-10
-2.68365e-40 -9.3630066e-20 7.099276e-38 -5.577633e-12 -3.002158e-36 -3.7757e-41 -2.18e-42 -1.3764212e-34
-1.5692275e-12 8.953649e-31 -3.9345436e-26 -8.5419e-41 -1.774278e-19 -1.4371339e-14 3.0785383e-26 -2.8265495e-13
1.74236e-40 -1.72042e-40 7.212183e-34 -1.05613934e-10 -1.0599572e-13 1.4413088e-37 2.5095526e-29 -1.4200016e-17
-3.3094645e-12 1.2086325e-35 -4.87017e-40 -2.0070324e-32 -6.9602e-40 2.4035614e-35 -1.7496527e-07 2.4256e-41
-4.371225e-12 7.534e-40 8.697112e-36 2.7286183e-35 1.8904e-41 1.03891e-40 -2.2234704e-26 7.926451e-27
-8.0499346e-28 1.5329054e-33 5.984736e-20 -4.521903e-11 -4.507967e-16 -2.6808637e-25 -1.529142e-39 5.1171e-41
2.9274517e-30 -7.26e-42 -5.9031546e-25 4.838859e-39 -7.03504e-40 9.1089e-41 -7.4455334e-14 -2.9196127e-12
8.0254e-41 2.3027615e-31 -1.39543e-40 -6.453461e-17 -1.152624e-39 -2.9433887e-21 -1.00784e-40 -5.2089e-41
-1.3350049e-14 1.079328e-39 1.37449e-40 2.19532e-40 2.43274e-40 1.5088927e-34 6.7788e-41 -4.80578e-40
-3.201377e-08 -4.89461e-40 4.7159e-41 3.0842915e-21 1.7451142e-32 -3.2924155e-26 1.5840054e-22 -2.0896848e-21
-1.10369e-40 1.0098198e-35 1.895396e-39 2.174889e-32 4.21302e-40 -2.0741e-40 7.622061e-26 -8.1716064e-30
1.0643441e-31 -4.892023e-36 -2.3012132e-15 -8.0154e-41 -5.49479e-40 1.5732297e-38 -4.4694248e-13 -5.758785e-39
1.184944e-39 -4.6748097e-32 2.8685e-41 4.6062932e-26 -2.0437e-41 9.663296e-31 -2.0984764e-11 -5.7188e-41
4.052138e-27 2.8366949e-27 4.6551995e-28 -1.0267859e-18 -5.0215445e-09 3.5011252e-26 2.23423e-40 -1.89352e-40
-7.137604e-29 -1.70342e-40 2.76737e-40 -7.303612e-34 -5.6662e-41 1.11653e-40 2.50957e-40 -2.8493428e-26
4.0318475e-21 3.160984e-36 -7.441e-41 -2.5900527e-12 1.59995e-40 1.53089e-40 -1.5077267e-09 -7.552077e-16
4.57118e-40 -1.10972e-40 -2.2587539e-33 -8.3138e-40 9.87169e-40 -1.3909e-40 -3.0897278e-11 -2.9687022e-16
-2.1597234e-32 4.1216904e-31 -1.0053822e-19 2.18918e-40 1.7911644e-36 8.915e-42 9.6394e-41 -2.14952e-40
-5.2302e-41 5.4634e-41 -6.38453e-40 -4.153493e-30 -1.21593e-40 -1.2769695e-38 2.7088712e-32 -3.7155846e-08
-7.94348e-40 -3.3047166e-15 -7.813754e-36 -6.22456e-31 -5.383979e-14 -1.4035141e-36 -5.9299187e-27 -6.5956e-41
-4.227236e-30 -3.2974585e-35 -3.937868e-12 -1.4074798e-15 -5.5708463e-15 -4.2555263e-36 -3.662889e-12 -2.1203638e-31
3.36867e-36 6.563713e-34 -1.3853944e-31 -1.1329909e-18 -1.1379838e-38 -6.8396e-41 -9.895e-41 -1.2221464e-38
4.910817e-32 -6.1844e-41 -2.8492714e-16 -4.12123e-40 -1.8567e-40 -1.5988e-40 2.2873219e-33 -3.6634e-41
-2.5531e-40 6.687572e-26 9.8123436e-21 -1.2483781e-26 -7.40435e-40 -2.3374735e-13 2.4702128e-27 -1.9528055e-35
-2.6315428e-12 -1.9283029e-27 -2.35246e-40 -2.1539e-40 -2.9599556e-17 2.9610237e-31 -3.7036818e-32 1.553e-40
2.606327e-26 2.78284e-40 2.4369416e-30 -1.5538775e-33 2.00408e-40 1.78888e-40 2.8048e-41 -4.3752e-40
-2.8941084e-24 6.985463e-36 -5.7819973e-12 -2.6449777e-35 4.678181e-12 9.1907e-41 -4.9104e-41 -8.699267e-17
1.96517e-40 1.1414442e-35 -8.337456e-10 -1.8658998e-32 1.2421802e-25 -8.4305e-41 -2.1096423e-31 -2.7819e-41
6.43714e-40 9.129e-41 2.597229e-34 -1.6055e-41 -4.1385e-41 -2.1079014e-21 1.1370911e-31 -1.2844042e-32
00000000: fe2b 0080 b30b 5405 5191 221c 557c 0c0e
00000010: f5f7 868c 1ac5 1294 0aa4 0100 03d0 0a00
00000020: bab1 0080 b3fb 6d0c 66e7 0080 1559 0080
00000030: e1cb f5ae a2b4 5297 6bfa 0680 e416 2704
00000040: 2544 498b aed1 80b3 3dce 2dac 299d 5fad
00000050: 84cc 2512 fead 0080 2106 de0d 71e6 22af
00000060: 18ec 0280 e713 dd9f bc42 c101 da3e c4ac
00000070: 3665 7f84 4069 0080 1406 0080 30f5 3687
00000080: 61d9 dcab 0148 910d 44d4 4295 1dee 0080
00000090: 4378 51a0 0d72 81a8 1c71 1815 df1e 9faa
000000a0: b3e5 0100 95df 0180 78aa 6f08 5c3f e8ae
000000b0: 5fae eea9 482e 4402 b67f fe0f d7f8 82a3
000000c0: 03e2 68ac 1b86 8005 9b4d 0580 136c d08a
000000d0: 3894 0780 2a97 ff05 16de 3bb4 9e43 0000
000000e0: 7fcc 99ac 2c34 0800 95f7 3805 0714 1106
000000f0: b234 0000 9b21 0100 ac33 dc94 e2ff 1c14
00000100: d41c 7f92 96b2 fe08 824f 8d1f 1ae0 46ae
00000110: edee 01a6 fbef a596 a0a6 1080 a58e 0000
00000120: cb80 6d0e 3d14 0080 9cb1 3697 c5b0 3400
00000130: 15a9 0780 ebfd 0000 94a8 a7a9 1173 4dac
00000140: b7df 0000 3075 950c fd84 0180 83ce 94a4
00000150: 0c8d 0c80 6b65 5e9d f218 0180 3491 0080
00000160: 3c7e 70a8 bac0 0b00 277f 0100 f763 0200
00000170: 26a6 0200 f590 4807 f7bc 0000 a83b 0580
00000180: 837f 09b3 6b54 0580 7683 0000 e00a 691d
00000190: 1839 b50a 5308 2395 987e 3f1b 62e4 1d9d
000001a0: aa33 0180 d2c3 5605 98a3 1400 78da e10a
000001b0: 6b96 0400 2d42 0280 8db6 bc15 68bd 258f
000001c0: e628 0a0c 6a15 d084 e4d1 25a7 70df 0080
000001d0: b9fb 0580 3e4f ab00 339b fbaa 26b5 3e80
000001e0: 24e7 0c00 e1ba 728b f64f 0000 b417 6415
000001f0: f838 0080 c3cb 9c0d 7d95 b8ad 6b9f 0080
00000200: 9085 a013 02bf 6013 7787 1312 e086 97a1
00000210: f989 acb1 095e 2d15 d06e 0200 d60f 0280
00000220: b3f5 b490 d8da 0180 6e03 0300 42b4 7288
00000230: f39d 0080 3e37 0100 91bb 0200 b617 0d95
00000240: a351 981d 1174 8604 6dcf 0080 3e42 36ac
00000250: 00be 0100 c0aa 0100 6b38 cfb0 7eac 59a6
00000260: 42fa 0400 5835 0180 62a6 3b89 8d0d 0980
00000270: d3bf 0a00 ba83 0180 3ee3 07ae 5022 aba5
00000280: 4c47 e08a aac1 050d a063 ed9f 4162 0200
00000290: 1b60 1804 da18 0000 b50c 0100 3357 0280
000002a0: cc91 0080 4c98 0000 bff3 0680 567c a88e
000002b0: f452 0180 b70c 8b80 13a7 0c0b 4995 1fb3
000002c0: 52a6 0880 4321 6ea7 202e 2685 9fff 498d
000002d0: 0d79 72a9 a9cb ee83 85e8 ea93 dcb7 0080
000002e0: 217a ab8e ae52 2f86 298d 8aac d7d6 caa6
000002f0: fdb5 c8a7 9402 b584 5fe0 80ac 969e 898c
00000300: 9149 8f04 e51d 5a08 a0d5 338c 3033 a7a1
00000310: 5cea 7b80 a9be 0080 d513 0180 7814 8580
00000320: f4fb 7e0b 65ac 0080 d33f a4a5 d57c 0480
00000330: 9305 0280 aebd 0180 f505 3e09 1f66 0080
00000340: b3c7 0280 8693 a515 9559 391e 4a44 7794
00000350: 0810 0880 8b96 83aa deb5 4313 6ca8 cf85
00000360: a92d 39ac a1c6 1893 c58f 0280 6b58 0280
00000370: fd80 08a4 722e c00c 604e 408b eab0 0100
00000380: 1f0f 0115 be07 0300 4cb5 450e 5217 0189
00000390: a82e 0200 abf2 0100 304e 0000 a1c3 0480
000003a0: b9eb 5f98 7a90 1405 9a6f cbac 92a1 0c86
000003b0: 4f99 a42c 3300 0100 e288 0080 6997 c8a4
000003c0: cf23 0200 22c2 7205 a12d 65b0 20c4 c18a
000003d0: 43c6 1916 02eb 0080 72ec 888c 8c4d 0080
000003e0: 6a02 0700 7bfe 0000 909d ac07 c12c 0080
000003f0: 5d73 0080 be44 1f9d 559a 130c 5261 858a

fc3.bias f4 [256]
4.2872907e-27 1.4643275e-09 -6.350732e-07 -0.007233368 -1.5882556e-33 4.873183e-07 -0.079682864 1.4276205e-14
-1.9287277e-22 -5.1549723e-30 6.52305e-09 -0.00020553329 -1.0552473e-16 0.00011972356 0.00016185627 -1.7011175e-07
-3.8911974e-08 -0.004517029 -0.0003143454 7.662331e-13 0.0025905534 -1.0490274e-08 -0.03249054 -0.003982615
0.11289233 0.04149172 1.9082972e-21 4.4646917e-08 5.41689e-40 3.5905936e-09 -9.6901e-41 1.7580288e-11
-2.2213184e-08 5.7599216e-13 -4.0395252e-30 2.2923598e-25 0.00014162953 9.671069e-08 4.6706184e-08 -0.027581142
-0.024760563 9.054e-42 -3.4837397e-09 -1.217754e-14 0.00017481699 0.00018940831 3.624106e-11 -7.793136e-12
-2.0974262e-09 3.279169e-35 1.18359e-40 -2.965897e-18 -3.9356246e-13 1.641444e-25 -3.3570837e-33 -1.0169115e-06
9.4007355e-06 -5.4049655e-17 -6.97473e-20 -0.002366525 7.839104e-05 -4.9967577e-09 -7.1829e-41 -0.007977699
-9.080428e-23 -4.6885233e-09 1.1442769e-05 -1.5354522e-12 2.6936777e-31 0.009228429 1.440708e-07 4.5272137e-12
-7.80943e-27 -3.1280727e-14 -7.675431e-15 -0.0003447747 5.706281e-12 5.8737314e-18 -2.8826508e-33 7.208688e-18
-7.923458e-08 -5.648788e-08 -6.1152496e-06 1.0735482e-11 -0.1701051 2.1315278e-05 3.5889856e-25 9.781425e-28
-3.6444518e-19 -0.0006738692 -0.12674984 -1.467059e-12 -3.1161562e-26 9.091058e-12 -4.515817e-24 -2.052224e-06
4.8460157e-07 -9.077089e-14 9.1835807e-07 0.00030213638 6.859848e-09 -0.05332032 -1.4753626e-09 -4.4239963e-09
2.2544097e-07 -0.115834884 4.556258e-08 -0.009446483 -2.2977551e-07 6.978598e-16 -4.04916e-06 -7.230148e-10
1.2017439e-29 -4.6008353e-07 -1.308336e-39 -8.512299e-14 1.6762314e-08 -0.07832618 -5.7199395e-19 1.8427374
0.00014220527 6.8330344e-14 -1.369e-42 9.804762e-07 -0.00030868064 -1.8742e-41 -6.779134e-27 5.509e-42
1.929e-41 -1.711922e-27 2.2919794e-19 7.683826e-15 -0.0009928781 7.9299907e-25 -7.861e-41 -7.790532e-12
2.6106513e-08 -0.00013711643 1.4627659e-38 0.016790472 -9.705189e-28 -2.6994886e-07 -2.5013816e-33 1.44026036e-08
2.483539e-17 2.5313e-41 -9.364706e-06 -1.9193987e-08 2.7217038e-09 -0.019816339 2.0200623e-07 5.086731e-14
-5.1036418e-11 3.153663e-17 3.44212e-11 1.2921566 -3.193731e-10 -5.2561744e-10 1.781843e-15 0.025441894
0.00035334643 1.6383385e-16 -0.024117637 4.8607848e-29 -0.002874279 -0.0025743092 -1.0229693e-05 -9.9800964e-08
-2.6329524e-35 -3.123087e-16 -0.052349452 -1.15491146e-08 -2.7230375e-13 -0.002217967 -2.47775e-40 2.199604e-23
-1.3559525e-21 -9.066798e-07 2.45953e-40 -4.2493502e-06 -2.3040833e-07 -3.4514363e-27 -0.011975422 -0.0037071416
-1.19667896e-26 1.0372483e-08 3.447126e-31 4.6581613e-16 1.4839556e-15 -6.1037147e-16 2.1978789e-14 9.256888e-06
-3.6930939e-31 2.355184e-26 0.000684704 1.8016528e-28 -2.879893e-31 -1.6278731e-31 0.01783594 -2.8344064e-06
2.355349e-18 5.939322e-15 -9.15923e-12 -4.3104916e-07 -0.053282067 -5.561215e-19 -6.731476e-14 5.249261e-12
-3.7623194e-12 1.4206988e-29 -2.697661e-37 1.5621317e-23 -3.0337143e-05 -0.0039138393 -2.1523718e-07 -0.0007468708
-3.383739e-06 1.3614805e-32 -1.3161948e-06 1.4157842e-14 1.043011e-14 -0.0005639012 -2.6459898e-12 -1.3562753e-12
1.9781624e-35 7.581119e-21 4.465588e-13 -5.625641e-17 1.6806957e-10 -0.25611866 -7.971653e-28 5.505208e-08
2.9495063e-14 0.003077367 -0.0001847173 -3.507062e-06 2.6760733e-13 -3.8008661e-06 7.3321638e-09 -2.2353502e-08
-0.0013603454 -2.7301349e-21 -1.4889496e-11 5.91117e-17 -2.5340576e-16 1.0885474e-14 -8.0908416e-07 -2.2489291e-06
0.015294482 1.397566e-09 0.0002139357 2.702351e-30 -1.06175e-40 -2.2582807e-08 -4.78648e-39 9.054977e-27
00000000: 4bd6 a913 7241 c930 e679 2ab5 e305 edbb
00000010: 76f2 0389 42d0 0235 c530 a3bd b096 8028
00000020: 3b2b 699b 4b1c d18e 5b21 e031 6c84 57b9
00000030: ce52 f3a4 1914 fb38 f6b7 2939 f6a7 36b4
00000040: 2b20 27b3 9603 94bb bace a4b9 eaac 572b
00000050: 46c6 293b b738 34b2 cd14 05bd 9980 82bb
00000060: 1834 e73d 39f3 293d d62f 101d cec1 3f33
00000070: 02e6 0500 64be 7631 1f0e 0180 4aa3 9a2d
00000080: 4fcf beb2 9c20 222b d4dc a38e e4e3 8d16
00000090: 6382 1439 44af cf33 fe99 4833 d9f1 e1bc
000000a0: aad6 cabc 3d19 0000 9966 6fb1 fe5e 5ba8
000000b0: 144f 3739 e89b 4639 ce63 1f2e 2a19 09ad
000000c0: 5022 10b1 bc59 2e06 f049 0100 36d8 5aa2
000000d0: 548e ddaa 7033 4b16 a372 8b89 d07c 88b5
000000e0: dab7 1d37 9242 79a4 a8af a49f b317 1bbb
000000f0: de65 a438 f2af abb1 3bc8 0080 e5b4 02bc
00000100: 218d db9a b018 a1b1 52fa 3f37 7f18 d8ab
00000110: 66d4 ae0c d632 173c e1b1 1a34 8449 9f2c
00000120: 84ae 1a94 39e0 0ca9 ae44 0aa8 e0c2 b4b9
00000130: 9cc5 c82c d3b3 d822 347b 6f89 11fa 0423
00000140: ac27 aab3 159d 72b3 9831 cdb6 50dc 3c2d
00000150: 0830 2ebe 36ce b237 bf25 de16 2cfe 9a12
00000160: 6621 d7a0 99a6 30ba b6ca 01be 5f78 ceab
00000170: f94d 1a95 7cee 1f2d 7cb2 ae98 f1b8 09b6
00000180: 9115 0235 db65 cca9 1685 7635 0f68 9e39
00000190: dcb3 eb31 6866 5abd b5c5 cab0 e201 98b1
000001a0: be10 7234 d73a edbd 96b0 4333 6cc5 1abc
000001b0: 36b8 76b4 f724 4926 05de 87b6 a5bd 46b0
000001c0: 1cbe 730f 6601 f7b4 1c3f 0e80 10ae bfa9
000001d0: b8fc 8f32 7a69 a0bd a4d2 28a1 d2de eb3f
000001e0: f01c 1539 c3dd 9929 d103 0080 e898 8335
000001f0: 6ad6 a1b9 3f34 0080 4b46 0694 5b0f 0000
00000200: c635 0000 e7a1 0793 6a4b 8720 656b 0a28
00000210: 7623 82ba dc6b 7517 22db 0080 700d 09ad
00000220: d440 e032 e9c6 0fb9 f647 9f00 2c8c 893c
00000230: ecc8 9992 7ded 90b4 81ce 4f89 526f 7732
00000240: e810 e523 9046 0000 1b1d 1db7 06e0 a4b2
00000250: b808 3b31 e055 a2bc 0de7 5834 0416 6529
00000260: e675 60ae e26f 1124 d362 172e 6365 a53f
00000270: c593 afaf 0a7b 10b0 3465 0027 856b d03c
00000280: 5b41 b939 38e3 3c25 5a92 c5bc 9878 7610
00000290: 665e 3cbb beb5 28bb 32a0 2bb7 2952 d6b3
000002a0: e4fd 0b86 a108 b4a5 616c 56bd 8b69 46b2
000002b0: 1b4b 99aa 505b 11bb b2b2 0280 8fbb d419
000002c0: dfe7 cc9c 9062 73b5 9ead 0200 a495 8eb6
000002d0: 2966 77b4 b9b9 8893 8f34 44bc 84f3 72bb
000002e0: d506 6d94 aa32 3232 34bb df0c 2a43 0626
000002f0: 4cdc d526 77ed 2fa6 a3f7 c528 084e 1b37
00000300: 0cb2 ef8c 023f e914 b57d 333a fa62 6411
00000310: 6eea ba8c 5d4f 538c ad1c 923c bb36 3eb6
00000320: 49cb 2d22 94fc d527 8121 21ad f26a e7b4
00000330: 4c3e 5abd 5a23 24a1 5194 97a9 24b1 b82c
00000340: f65f 84ac 7313 900f e297 b782 8214 9719
00000350: 857c feb7 aa3f 80bb f21b 67b4 a7c9 43ba
00000360: 3214 63b6 5c62 8d0a 1ca8 b0b5 860b 7f28
00000370: 64e4 3b28 c5d2 13ba ea31 3aac f8e0 beab
00000380: b45a d205 0b34 0f1e e863 fb2a ecb7 81a4
00000390: 61cb 382f fc21 83be bca1 7c92 6772 6c33
000003a0: 7ed5 0429 a7ad 493b acb0 41b9 de5a 6bb6
000003b0: 48a6 962a 6212 7fb6 65ee fb31 df03 c0b2
000003c0: 9e4d b2ba 7d48 4e9d 2af8 82ad 644d 8824
000003d0: 1714 92a5 6318 4428 d72f 59b5 4fec 16b6
000003e0: b595 7a3c 7b14 c030 ed53 6039 a23d 5b0e
000003f0: f927 0180 1efc c1b2 c21e 3480 305a 3314

fc4.weight f4 [1, 256]
0.020468574 0.43196496 -0.02617129 -0.23090209 -0.009302968 -0.054550115 -0.12043291 -0.2076519
0.07998097 0.07533187 -0.11347033 -0.1601801 -0.36576617 0.003080243 0.008482596 0.18351583
0.25576007 -0.04469395 -0.034089934 0.49659586 0.47445685 0.14084579 -0.36091378 0.16593127
0.20895778 0.122949876 0.0023984741 -0.11703582 -0.4150352 0.042570762 0.00023316206 0.4059206
-0.16248843 -0.08324229 -0.08617099 0.051490936 0.0038558522 -0.18304388 0.10078841 0.8386998
0.7694188 0.048971474 0.50188947 -0.21218257 -0.008752797 -0.12142093 0.01848137 -0.42775464
-0.15804224 0.005948142 0.0010665363 -0.16692904 0.011555181 0.0316279 -0.00027883856 -0.13195005
-0.07691463 -0.00071051426 0.15403563 -0.007978406 -0.0043906947 -0.07444902 0.49772218 -0.25225723
-0.050750628 -0.06777504 -0.020129392 -0.00565106 -0.024235576 0.5825278 0.5549407 -0.032559883
0.035573397 -0.33591917 0.82401836 0.7236814 -0.07364693 -0.36667734 0.08201054 -0.106298484
-0.21222417 0.3731136 -0.019586122 -0.20991851 0.016500166 -0.06601407 0.36626956 0.016502485
0.5187148 -0.020089913 0.20313312 -0.1315546 -0.002540423 -0.039104994 -0.07439821 -0.046257973
-0.025170477 0.07894335 0.04196734 -0.046898168 -0.0051412946 -0.67535484 -0.12597053 -0.073746085
0.23023091 0.866585 0.016505307 0.111431584 0.06025452 -0.13299158 0.09066813 -0.0011746327
0.5546035 0.069039546 -0.068858705 -0.13636282 -0.034313057 0.18743414 -0.050494622 5.113343
-0.27592933 -0.5581504 0.063759856 0.08592684 -0.61292464 -0.05791271 -0.2838829 0.0038666406
0.12892963 -0.23151767 -0.027371513 0.015817039 -0.5071274 0.010618484 0.04103377 -0.24267174
0.028073007 -0.26683018 -0.15017845 0.030460864 0.13855462 -0.58128303 -3.849756e-05 -0.21340688
-0.194195 -0.040280238 0.26333845 -0.0037356836 0.1195919 0.0117189335 0.107035056 -0.06222664
0.0039016327 -0.003707688 -0.06321908 0.6944941 0.057847023 -0.0033428671 0.18406053 -0.051026925
0.39558586 -0.089939415 0.19676359 0.42223752 -0.05649324 -0.2439942 -0.40943402 -0.16080672
0.020180466 -0.26647207 0.632079 0.20055266 0.50717056 0.044597927 0.025051475 -0.07448352
-0.07316641 -0.6996189 0.0019970825 0.68853325 0.20976965 -0.052798104 0.23361023 -0.05043646
0.10998943 -0.33010462 0.014285777 -0.035038803 0.0014515071 -0.0032766168 -0.089581236 0.005551485
-0.011430527 0.058244444 -0.21504857 -0.008615418 0.2697703 -0.005948722 0.42335373 -0.031124579
-0.13092984 -0.16882151 0.3756521 0.5826921 -0.14075597 0.049685966 0.144536 -0.049336854
-0.036900286 -0.04592614 -0.10235848 -0.005378241 0.06625081 -0.016689485 0.5095914 -0.030582521
0.48475137 0.049895685 -0.14090043 -0.12613662 -0.1418517 -0.025357513 -0.010498042 0.036388364
-0.009217383 -0.18307078 0.00087619736 -0.055919915 0.07748588 0.12602226 0.07387824 -0.24247524
0.12113785 0.28385732 0.7369121 -0.008452692 -0.012866414 -0.0031829837 0.5427329 0.07002912
0.00069469033 -0.00014325566 -0.009815228 -0.06412964 -0.12350223 -0.057964012 -0.14189832 0.012259585
-0.085031636 -0.21375208 -0.023882423 -0.3788315 0.021617679 0.017423589 -0.09360949 -0.015354519
00000000: b6ad a73c 832a dd3e 2c65 d6bc 9971 6cbe
00000010: 7a6b 18bc f16f 5fbd 88a5 f6bd b3a2 54be
00000020: 10cd a33d 9847 9a3d 2263 e8bd 4106 24be
00000030: b445 bbbe e7dd 493b 96fa 0a3c 93eb 3b3e
00000040: fcf2 823e 0111 37bd e3a1 0bbd d041 fe3e
00000050: 02ec f23e e139 103e b1c9 b8be e3e9 293e
00000060: 07f9 553e 25cd fb3d b82f 1d3b 7ab0 efbd
00000070: 7e7f d4be ae5e 2e3d f77c 7439 d3d4 cf3e
00000080: 5e63 26be ef7a aabd 6a7a b0bd 29e8 523d
00000090: 77b2 7c3b db6f 3bbe 276a ce3d 08b5 563f
000000a0: a1f8 443f 5096 483d d47b 003f 6346 59be
000000b0: e467 0fbc 89ab f8bd 3e66 973c a802 dbbe
000000c0: d3d5 21be a2e8 c23b 05cb 8b3a 72ef 2abe
000000d0: f151 3d3c 428c 013d 1431 92b9 ea1d 07be
000000e0: 6b85 9dbd ce41 3aba 84bb 1d3e dcb7 02bc
000000f0: d1df 8fbb ba78 98bd 71d5 fe3e dc27 81be
00000100: e4df 4fbd a4cd 8abd 65e6 a4bc 872c b9bb
00000110: b089 c6bc 8b20 153f 9810 0e3f 835d 05bd
00000120: 69b5 113d 99fd abbe def2 523f 2f43 393f
00000130: 34d4 96bd 22bd bbbe 24f5 a73d 05b3 d9bd
00000140: 4b51 59be bf08 bf3e 1373 a0bc e1f4 56be
00000150: 5b2b 873c 6232 87bd af87 bb3e 3830 873c
00000160: 7eca 043f 9a93 a4bc 2102 503e 40b6 06be
00000170: 3a7d 26bb 8f2c 20bd 175e 98bd 0079 3dbd
00000180: 5132 cebc 0dad a13d f2e5 2b3d 4b18 40bd
00000190: 4e78 a8bb 0ee4 2cbf 6bfe 00be 3008 97bd
000001a0: a7c1 6b3e 84d8 5d3f 2336 873c 3e36 e43d
000001b0: 72cd 763d f22e 08be 36b0 b93d 22f6 99ba
000001c0: 7ffa 0d3f 9b64 8d3d cb05 8dbd b2a2 0bbe
000001d0: d98b 0cbd bcee 3f3e 73d3 4ebd 81a0 a340
000001e0: 9c46 8dbe f2e2 0ebf 8794 823d 69fa af3d
000001f0: a1e8 1cbf e135 6dbd 1959 91be 7767 7d3b
00000200: 2106 043e f812 6dbe 393a e0bc bc92 813c
00000210: 1ad3 01bf 26f9 2d3c 0713 283d f17e 78be
00000220: 5df9 e53c f79d 88be 61c8 19be 1089 f93c
00000230: 43e1 0d3e f7ce 14bf 7178 21b8 5587 5abe
00000240: 0edb 46be e4fc 24bd 4cd4 863e 5fd2 74bb
00000250: 99ec f43d c500 403c 3235 db3d 5ce1 7ebd
00000260: 89b2 7f3b affc 72bb 0179 81bd 5eca 313f
00000270: 00f1 6c3d 0114 5bbb 5d7a 3c3e 9c01 51bd
00000280: 3b8a ca3e 2832 b8bd 657c 493e 842f d83e
00000290: 7565 67bd 9ed9 79be 56a1 d1be 84aa 24be
000002a0: 8151 a53c 076f 88be eecf 213f ad5d 4d3e
000002b0: eed5 013f 51ac 363d c038 cd3c d18a 98bd
000002c0: 45d8 95bd 391a 33bf 7ce1 023b b743 303f
000002d0: dbcd 563e d342 58bd 8537 6f3e 7696 4ebd
000002e0: 2342 e13d 7903 a9be e40e 6a3c d984 0fbd
000002f0: 7f40 be3a 82bc 56bb 5e76 b7bd 3be9 b53b
00000300: 1b47 3bbc ba91 6e3d b135 5cbe af27 0dbc
00000310: 551f 8a3e 7fed c2bb d2c1 d83e f9f8 febc
00000320: 7912 06be 8cdf 2cbe 7955 c03e 4f2b 153f
00000330: 5522 10be 8383 4b3d 3f01 143e 7115 4abd
00000340: c124 17bd 0c1d 3cbd 53a1 d1bd f53b b0bb
00000350: 81ae 873d 63b8 88bc 9574 023f 3288 fabc
00000360: 5531 f83e 6b5f 4c3d 3448 10be f529 01be
00000370: 9241 11be 8fba cfbc fbff 2bbc f70b 153d
00000380: 8204 17bc e876 3bbe 9cb0 653a 480c 65bd
00000390: ebb0 9e3d fb0b 013e 7a4d 973d 6e4b 78be
000003a0: 1f17 f83d bf55 913e 45a6 3c3f 297d 0abc
000003b0: a7cd 52bc 9b99 50bb 8bf0 0a3f 6d6b 8f3d
000003c0: e11b 363a e636 16b9 0dd0 20bc 6756 83bd
000003d0: bdee fcbd ac6b 6dbd cb4d 11be 6ddc 483c
000003e0: 1125 aebd d3e1 5abe 12a5 c3bc 34f6 c1be
000003f0: 8f17 b13c eabb 8e3c 55b6 bfbd 8591 7bbc
