shanghai_road_delivery/results_centralized/centralized_episode_100.pth_centralized_actor.pth (torch, 922090 bytes, 20 tensors)

fc1.weight f4 [256, 364]
0	0x332f4e22	4.0816424e-08
1	0xb3d4ec5d	-9.9150135e-08
2	0xb629a872	-2.528101e-06
3	0xb6293b40	-2.521745e-06
4	0xb629578a	-2.5233917e-06
5	0xb627d9d8	-2.501174e-06
6	0xb8f5cfe4	-0.00011721233
7	0xbae9ce74	-0.0017838017
8	0x357776dd	9.218764e-07
9	0xad546298	-1.2072697e-11
10	0xb76ea416	-1.422411e-05
11	0x35b4b69c	1.3464191e-06
12	0xb920512c	-0.00015289028
13	0xb39791f4	-7.058034e-08
14	0x3947d3c8	0.00019057014
15	0x3590f368	1.0799677e-06
16	0xb786f808	-1.6089543e-05
17	0x2c931c56	4.181137e-12
18	0x3addd95e	0.0016925742
19	0x340ff5dd	1.3407357e-07
20	0xb5475401	-7.425552e-07
21	0xb9de0012	-0.00042343192
22	0xb6326468	-2.658251e-06
23	0x371760f2	9.022873e-06
24	0xb74e6612	-1.2302322e-05
25	0x0292bcac	2.1561064e-37
26	0xb9e08dde	-0.0004283031
27	0x9f966d88	-6.3708675e-20
28	0xbb76641a	-0.0037596286
29	0xaa917e6c	-2.5844897e-13
30	0xb252d549	-1.2272104e-08
31	0x2b2b979c	6.0961804e-13
32	0x37c29100	2.3194123e-05
33	0xb5407df4	-7.170886e-07
34	0x31826e9a	3.796072e-09
35	0x36abcd88	5.120124e-06
36	0xbb00a84e	-0.0019631567
37	0xb629a882	-2.5281047e-06
38	0x332e3009	4.055622e-08
39	0xb629a887	-2.5281058e-06
40	0xb546217c	-7.3809474e-07
41	0xb5dec3b1	-1.6597243e-06
42	0x3653c465	3.1555767e-06
43	0x368804a8	4.053658e-06
44	0x36837d1b	3.9186684e-06
45	0xb2d9af00	-2.5341706e-08
46	0xb548bd70	-7.4781474e-07
47	0x39afb0c8	0.00033510313
48	0x2f7d6140	2.3044766e-10
49	0xb629a88a	-2.5281065e-06
50	0xa2c01bd4	-5.207117e-18
51	0xb629a882	-2.5281047e-06
52	0x346e71b4	2.2206842e-07
53	0x361e8bc7	2.3625196e-06
54	0xb629a883	-2.528105e-06
55	0xb6260ef8	-2.474464e-06
56	0xb6273f56	-2.4921806e-06
57	0xb61fcd7f	-2.381246e-06
58	0xac5a9c40	-3.10664e-12
59	0xb34afc00	-4.7260983e-08
60	0x2b9928b8	1.0882606e-12
61	0x8097e395	-1.3948801e-38
62	0xb20ddfa2	-8.258128e-09
63	0x35b49c11	1.3456466e-06
64	0x38f47981	0.000116574585
65	0xb3b3bd36	-8.369754e-08
66	0xb8b9e8f2	-8.864877e-05
67	0x35ab226c	1.2750511e-06
68	0x37c6d2d6	2.3701617e-05
69	0x3433c01e	1.6740566e-07
70	0xba805a16	-0.0009792473
71	0xb48bc933	-2.603716e-07
72	0xb5486b98	-7.4662375e-07
73	0x38aca0a9	8.2315244e-05
74	0xb53eb025	-7.103684e-07
75	0xb0b2aaba	-1.2999728e-09
76	0xaf797c16	-2.2690502e-10
77	0xb0119fe1	-5.2977894e-10
78	0x39620a88	0.00021556963
79	0xb30eddd6	-3.326371e-08
80	0x358a60ca	1.030997e-06
81	0x300e9928	5.1876947e-10
82	0x31dbe0eb	6.399309e-09
83	0x3844feba	4.6967274e-05
84	0xbadde1fa	-0.0016928308
85	0xa958b9c2	-4.8122754e-14
86	0xb151d9d2	-3.053732e-09
87	0xaca03740	-4.5536075e-12
88	0x39522068	0.00020039233
89	0xb629a887	-2.5281058e-06
90	0x336aa356	5.4630924e-08
91	0xb629a892	-2.5281083e-06
92	0x362dfd06	2.5926288e-06
93	0xb53eb070	-7.1037266e-07
94	0x35dc50a0	1.6414742e-06
95	0x392598cd	0.00015792549
96	0x364b3351	3.0279227e-06
97	0xb616376d	-2.2384004e-06
98	0xb72f3da2	-1.0445163e-05
99	0xb5d87964	-1.6128583e-06
100	0x321ad058	9.011352e-09
101	0xb6290cf4	-2.5190502e-06
102	0x26bf9d78	1.3295969e-15
103	0xb629a884	-2.5281051e-06
104	0xb715890c	-8.913001e-06
105	0x35813e58	9.629393e-07
106	0xb629a879	-2.5281026e-06
107	0xb6278357	-2.496139e-06
108	0xb627d908	-2.5011268e-06
109	0xb626fa11	-2.4881485e-06
110	0x33974540	7.044082e-08
111	0x36a74afb	4.9857167e-06
112	0x2b5798fe	7.6595663e-13
113	0xb0e6a370	-1.6781154e-09
114	0x2a405580	1.708269e-13
115	0x35b4b6c2	1.3464235e-06
116	0xb8fef720	-0.000121576944
117	0xb2bbf450	-2.1880766e-08
118	0x38c0b334	9.1886526e-05
119	0x35aada2c	1.2729483e-06
120	0x3807f44b	3.2414024e-05
121	0x347750f8	2.3033124e-07
122	0x38b290e0	8.5146865e-05
123	0x344765be	1.8570333e-07
124	0xb545bf10	-7.366625e-07
125	0x2ca04e86	4.5561914e-12
126	0xb5bb5e92	-1.3960109e-06
127	0x365ca45a	3.287822e-06
128	0x33fc7bc5	1.1757178e-07
129	0xa0d58e0f	-3.617761e-19
130	0xb096bde4	-1.0967907e-09
131	0xaad515fc	-3.7851655e-13
132	0xb5f0e822	-1.7948953e-06
133	0xb27ec9b0	-1.4830604e-08
134	0xb933482b	-0.00017097655
135	0x00016192	1.26837e-40
136	0x3b025d03	0.0019891865
137	0xb924df0a	-0.00015723347
138	0x32894e34	1.5984462e-08
139	0x2ff70b56	4.4937093e-10
140	0xbb8225c2	-0.0039717862
141	0xb629a88c	-2.528107e-06
142	0x31de1d88	6.4644077e-09
143	0xb629a88e	-2.5281074e-06
144	0x35efe9d2	1.7874938e-06
145	0xb59211cc	-1.0883027e-06
146	0xb55443c8	-7.907479e-07
147	0x3993ea59	0.00028212628
148	0xb644e7e0	-2.9341245e-06
149	0x3577fcfa	9.23828e-07
150	0x36bfb77c	5.713604e-06
151	0xb65a6130	-3.2541102e-06
152	0xb7cafc80	-2.4197856e-05
153	0xb6299c7b	-2.5274046e-06
154	0xb0d872ef	-1.5748735e-09
155	0xb629a884	-2.5281051e-06
156	0x3566659f	8.5829555e-07
157	0x36beec78	5.68997e-06
158	0xb629a880	-2.5281042e-06
159	0xb628bdb8	-2.5144382e-06
160	0xb6291660	-2.5195986e-06
161	0xb62625e8	-2.4757992e-06
162	0xb8bb7165	-8.937976e-05
163	0xb363285b	-5.288926e-08
164	0xa2f59bfd	-6.6572542e-18
165	0xa411318c	-3.148383e-17
166	0xb9ff56a0	-0.0004870193
167	0x35b4bb39	1.3465534e-06
168	0x38bb0bff	8.919089e-05
169	0x30e20556	1.6445181e-09
170	0xb8ae7c78	-8.320151e-05
171	0x3581e6ce	9.678422e-07
172	0xba8ed48d	-0.0010897085
173	0xa139ff7d	-6.3018574e-19
174	0x3b09ff29	0.0021056628
175	0x34bede26	3.5551892e-07
176	0xb546dab3	-7.4079e-07
177	0xb62baf7d	-2.5583133e-06
178	0xb5425ca4	-7.240544e-07
179	0x2d0cda9b	8.006619e-12
180	0xaf38f438	-1.6821466e-10
181	0xb86e2de7	-5.678637e-05
182	0xbb18f826	-0.0023341267
183	0x25cc3647	3.5425139e-16
184	0x365a82e4	3.256072e-06
185	0x2c06c840	1.9153706e-12
186	0xb87b14c8	-5.9862417e-05
187	0x00000a4e	3.697e-42
188	0x325d7c7c	1.28921975e-08
189	0xa70b26b3	-1.9311104e-15
190	0x326e1726	1.3858687e-08
191	0x2c10fc50	2.0603692e-12
192	0x358403ea	9.835906e-07
193	0xb629a888	-2.528106e-06
194	0x33597f3d	5.0639972e-08
195	0xb629a88a	-2.5281065e-06
196	0xb661b88a	-3.3635029e-06
197	0xb521a926	-6.022332e-07
198	0xb71363d6	-8.785128e-06
199	0x39004891	0.00012234064
200	0x369574f6	4.454162e-06
201	0xb5096f84	-5.1198754e-07
202	0x366bbf48	3.512907e-06
203	0x35915d40	1.0830481e-06
204	0xb24d0b3a	-1.1935123e-08
205	0xb6290742	-2.5187187e-06
206	0x25a94657	2.936449e-16
207	0xb629a884	-2.5281051e-06
208	0x33b24280	8.300867e-08
209	0xb67525e2	-3.6529896e-06
210	0xb629a882	-2.5281047e-06
211	0xb627e077	-2.5015595e-06
212	0xb6286fd4	-2.5099043e-06
213	0xb62546b8	-2.462808e-06
214	0x2f7744d2	2.2488969e-10
215	0x9fa2d2a0	-6.895812e-20
216	0x882ded4c	-5.2339235e-34
217	0xb4d8b64c	-4.0365774e-07
218	0xafc06740	-3.499796e-10
219	0x35b4b9c4	1.346511e-06
220	0x39b1aec7	0.0003389029
221	0x2f898be0	2.5019542e-10
222	0xb8624b52	-5.3952746e-05
223	0x35aae6a8	1.2733117e-06
224	0x39fb0667	0.0004787922
225	0x31657c9c	3.3394718e-09
226	0x3a100af1	0.00054947945
227	0xb4b9fe6c	-3.4644052e-07
228	0xb5470fad	-7.415609e-07
229	0xad21e280	-9.2020835e-12
230	0xb53fa936	-7.139928e-07
231	0xb9571439	-0.00020511531
232	0x33defda8	1.03838204e-07
233	0xb6fcb687	-7.531434e-06
234	0x339aaab3	7.202234e-08
235	0x25382490	1.5971844e-16
236	0xb4965fc8	-2.8009367e-07
237	0x2d45104a	1.120177e-11
238	0xb7940002	-1.7642978e-05
239	0xa5846258	-2.296499e-16
240	0x314dd5b2	2.9952898e-09
241	0xb8914b2c	-6.928141e-05
242	0xbac623f1	-0.0015116913
243	0xa76dc0e7	-3.299493e-15
244	0x387b0412	5.9846854e-05
245	0xb629a89a	-2.5281101e-06
246	0x3353244a	4.916027e-08
247	0xb629a884	-2.5281051e-06
248	0xb6e4fd27	-6.8244003e-06
249	0x36059ba2	1.9909135e-06
250	0x37a43900	1.9576866e-05
251	0xbb4e9cae	-0.0031526494
252	0xb6aea58a	-5.2048754e-06
253	0x352f7538	6.5363156e-07
254	0xb27fe200	-1.489434e-08
255	0xb7723ca0	-1.4438439e-05

fc1.bias f4 [256]
0	0xb629a88a	-2.5281065e-06
1	0x37a36400	1.947768e-05
2	0xb7094b74	-8.183404e-06
3	0xb91b6758	-0.0001482045
4	0x3d0fc6df	0.035101768
5	0xb6a5d6ee	-4.9424043e-06
6	0x39dc24a9	0.00041988984
7	0x37ded62d	2.6564196e-05
8	0x312b88f8	2.4961633e-09
9	0x38074022	3.2246237e-05
10	0xbb627677	-0.0034555474
11	0x3a7ca167	0.0009637088
12	0xb84f63b9	-4.944552e-05
13	0xb6f387aa	-7.2577577e-06
14	0xb8aa659e	-8.1251594e-05
15	0x35346600	6.7203655e-07
16	0xb465f037	-2.1414677e-07
17	0x374216a6	1.1568574e-05
18	0x3c85b2c5	0.016320596
19	0x35008cfc	4.7888875e-07
20	0xbc012559	-0.0078824395
21	0x3982659e	0.00024871243
22	0x39c2d7dc	0.0003716339
23	0x310590bf	1.9436326e-09
24	0xbb9eeb27	-0.0048498097
25	0xb57ecfa4	-9.492453e-07
26	0x365f86df	3.3308095e-06
27	0x3b1b7747	0.0023722218
28	0x37f6f7c0	2.9440853e-05
29	0x37a7ddf1	2.00113e-05
30	0xb67da8f0	-3.7798272e-06
31	0x3b283562	0.0025666584
32	0xba1439b8	-0.0005654353
33	0xbcae1cd9	-0.02125399
34	0xba2a0288	-0.00064853625
35	0x3776d8d1	1.4713224e-05
36	0xb7181a74	-9.066065e-06
37	0x38ca2d7c	9.640583e-05
38	0x391043e9	0.00013758209
39	0xb76d717f	-1.4152726e-05
40	0x3676d347	3.6779836e-06
41	0x3a8c4495	0.0010701591
42	0x384f9995	4.949568e-05
43	0xbc47c9a9	-0.012194076
44	0x3aaa0181	0.0012970419
45	0x3d4c0e24	0.049818173
46	0x3a0991bf	0.0005247853
47	0x36002983	1.909765e-06
48	0x3583a744	9.808941e-07
49	0xb72bbfb2	-1.0237027e-05
50	0x351ed16d	5.916434e-07
51	0x36df0ae9	6.647188e-06
52	0xb8bc8d68	-8.9908775e-05
53	0x37754a78	1.4620477e-05
54	0xb8e4f769	-0.00010917971
55	0xbb62d15e	-0.0034609656
56	0xb5746b91	-9.1053613e-07
57	0x3c3ed41c	0.0116472505
58	0x39cdccb2	0.00039253157
59	0x3ad27348	0.0016056085
60	0xb90fffa4	-0.00013732776
61	0x37967589	1.7936125e-05
62	0x35655b5e	8.5442105e-07
63	0x3d62f96f	0.05541366
64	0xbc0b8ae2	-0.008516999
65	0x35568c0b	7.9925e-07
66	0xb6c76a68	-5.9430495e-06
67	0xb7f96551	-2.9730292e-05
68	0x37ef2144	2.850651e-05
69	0x37f52a4c	2.9225972e-05
70	0x340e2dc8	1.3241436e-07
71	0x369f0a00	4.7397334e-06
72	0x3bd1dbea	0.0064043896
73	0xb6d173e4	-6.242177e-06
74	0x3e18b23e	0.14911744
75	0x37a92afd	2.0166388e-05
76	0x3a89883f	0.0010492875
77	0x39c51ffc	0.00037598598
78	0x339af0a5	7.214957e-08
79	0x36c2e584	5.8083697e-06
80	0xb7b994da	-2.2123033e-05
81	0x3a709be9	0.0009178506
82	0xba8fcf3d	-0.0010971796
83	0xbab668fb	-0.0013916785
84	0x339344a4	6.8577066e-08
85	0xb7651210	-1.3653669e-05
86	0xba5b14a1	-0.0008357261
87	0x3c014548	0.007890053
88	0xb99436c3	-0.0002826956
89	0x3a170fe6	0.0005762562
90	0x3ab14bae	0.0013526583
91	0xb99374bf	-0.00028125008
92	0xb5c522d3	-1.4687779e-06
93	0xba83893c	-0.0010035406
94	0xb7a2b998	-1.9398329e-05
95	0x3671b8cb	3.6019362e-06
96	0x388997e8	6.560964e-05
97	0xb4e6c9fc	-4.29878e-07
98	0xb6a1afa0	-4.8186193e-06
99	0xb61d9fd3	-2.3487853e-06
100	0xb8be38af	-9.070464e-05
101	0xb6feaf53	-7.5902003e-06
102	0x368a0bba	4.1140856e-06
103	0x398bf20a	0.0002669248
104	0xb8346a14	-4.3014137e-05
105	0x381e1d33	3.769733e-05
106	0xb6584300	-3.2225507e-06
107	0x34c0505e	3.5821262e-07
108	0x39d9ac0f	0.0004151766
109	0xb5ce0ab5	-1.5351312e-06
110	0xb8053ee4	-3.1768242e-05
111	0x390e1172	0.00013548674
112	0x353abccb	6.956513e-07
113	0x391cbc63	0.00014947499
114	0xbbc72b63	-0.00607817
115	0x3acce5da	0.0015632466
116	0x371ae86a	9.233228e-06
117	0x369e2380	4.7128997e-06
118	0xbb5a0315	-0.0033265997
119	0x3d50ff12	0.051024504
120	0xb580a951	-9.586021e-07
121	0x34ce08bc	3.8376845e-07
122	0x35dee6a6	1.6607416e-06
123	0x35996438	1.1428556e-06
124	0x3539a54a	6.91584e-07
125	0xb285ff3a	-1.5599301e-08
126	0x3d03eb56	0.032206856
127	0xb9196830	-0.0001463003
128	0x36ffc4b1	7.62249e-06
129	0xb52282ae	-6.0539867e-07
130	0xb69203be	-4.3515747e-06
131	0xb390ccd2	-6.742779e-08
132	0x39900a19	0.00027473344
133	0x398c66e1	0.00026779532
134	0xb70d4e27	-8.422451e-06
135	0xb46fd74b	-2.2336933e-07
136	0x37ff2d86	3.0419567e-05
137	0xb9bf5119	-0.0003649078
138	0x35a86fe4	1.254954e-06
139	0x38931a56	7.014412e-05
140	0xb6703efb	-3.5799446e-06
141	0x3889a995	6.564256e-05
142	0xb89ac83c	-7.380589e-05
143	0xb6f726b4	-7.3656793e-06
144	0x37c6d8d9	2.3704417e-05
145	0x39060323	0.00012780404
146	0xb84617c7	-4.7229023e-05
147	0x3a8e4ca6	0.0010856583
148	0x36142318	2.2074146e-06
149	0x3988974b	0.00026052663
150	0xba158725	-0.0005704037
151	0x34c146e7	3.600064e-07
152	0xb6c1b086	-5.7723983e-06
153	0x34178266	1.411041e-07
154	0xb86a86f1	-5.591562e-05
155	0x3b9f7faa	0.0048675137
156	0x346c6c2c	2.2018565e-07
157	0x3a9ab203	0.0011802319
158	0x31593a58	3.161082e-09
159	0xbaa492ee	-0.0012555995
160	0xb1236a68	-2.3780107e-09
161	0x390d66e1	0.00013485133
162	0xb7337b7c	-1.0697982e-05
163	0x37bc046f	2.2413411e-05
164	0xb615a63d	-2.2299494e-06
165	0xb570fe58	-8.9777086e-07
166	0xb78861ae	-1.6257949e-05
167	0xb8a1c665	-7.714032e-05
168	0x3cd4f7b5	0.025997022
169	0x3d0899cb	0.033349793
170	0x3aa4df59	0.001257877
171	0xb5b6dc40	-1.3624158e-06
172	0xb5c181eb	-1.4417432e-06
173	0xb995865b	-0.00028519597
174	0x3854b1f0	5.0710456e-05
175	0x3a9e01d6	0.001205499
176	0xb7eb5b40	-2.8056675e-05
177	0xba8f73e4	-0.0010944572
178	0x37807350	1.5312486e-05
179	0x36ce7ce0	6.153816e-06
180	0xb64960d9	-3.0007707e-06
181	0x35b29d28	1.3307772e-06
182	0xb825a58c	-3.9493243e-05
183	0x372be366	1.024534e-05
184	0xbcf64d9c	-0.030066304
185	0xb9836b43	-0.00025066183
186	0x35859d90	9.955129e-07
187	0xb3821847	-6.058013e-08
188	0xb665daf2	-3.4251102e-06
189	0xb9d342d1	-0.00040294838
190	0x3a365f5c	0.00069569587
191	0xb40e71a4	-1.3266123e-07
192	0xb8d63b20	-0.00010215328
193	0xb89b6990	-7.4106385e-05
194	0xb6a16e73	-4.811032e-06
195	0x3395e7da	6.980527e-08
196	0xbbf3fdbe	-0.00744602
197	0x331a8455	3.5976274e-08
198	0xb8665b12	-5.492109e-05
199	0x3a9505e7	0.0011369557
200	0x381542e8	3.558668e-05
201	0xb86d03d0	-5.6508754e-05
202	0x35f67bc2	1.8364447e-06
203	0x3677e9ac	3.6941883e-06
204	0x33b1f0b6	8.28599e-08
205	0x368741a5	4.0309556e-06
206	0xb43d7be6	-1.764707e-07
207	0x3b62c1a4	0.0034600282
208	0xbc5b7cfa	-0.013396496
209	0x37b81af3	2.1947058e-05
210	0x391b3785	0.00014802635
211	0xb2735859	-1.41645495e-08
212	0xbaa1a0ab	-0.0012331208
213	0xbb66ad37	-0.003519846
214	0x397198da	0.00023040493
215	0xb92613e4	-0.00015838403
216	0x3501ceb2	4.8357026e-07
217	0xb57a4636	-9.323443e-07
218	0x351e7fca	5.9045544e-07
219	0x369b5b78	4.6300083e-06
220	0x3bc81dc5	0.0061070644
221	0x3a0d2a01	0.0005384982
222	0x36c118df	5.7547436e-06
223	0xb7ccb8c0	-2.4404726e-05
224	0xb95642db	-0.00020433536
225	0x3bc7c527	0.0060965004
226	0xb8e37f99	-0.000108479704
227	0x38201008	3.8161903e-05
228	0xbb165c14	-0.0022943066
229	0xba72d464	-0.0009263216
230	0xb7c917d4	-2.3972163e-05
231	0x353b1780	6.9697126e-07
232	0x3e034e94	0.12822944
233	0x3bbbd201	0.0057318215
234	0x36cbe24e	6.076217e-06
235	0x3405c90f	1.2459735e-07
236	0xb79038ea	-1.719264e-05
237	0xb8c0dbbb	-9.1962014e-05
238	0xb7c41234	-2.3373497e-05
239	0x3aeee264	0.0018225429
240	0xb9b193e1	-0.0003387025
241	0x39bf6816	0.0003650791
242	0x355fd930	8.3390023e-07
243	0xb4b2fd32	-3.3339307e-07
244	0xb6281858	-2.504812e-06
245	0xb71f8ca1	-9.509881e-06
246	0xb3c75849	-9.2827186e-08
247	0x3713f3b2	8.8186225e-06
248	0x3459ee4c	2.0296392e-07
249	0xb938ca2a	-0.0001762292
250	0xb6458553	-2.9432892e-06
251	0xb96a999b	-0.00022373202
252	0xb677f4a8	-3.6948277e-06
253	0x33af1f8b	8.15481e-08
254	0xb6e3cffa	-6.789339e-06
255	0x38a6ab52	7.947408e-05

fc2.weight f4 [256, 256]
0	0xaf7a5b66	-2.2769839e-10
1	0x35addce0	1.2953788e-06
2	0xb1586400	-3.148898e-09
3	0xb6738c51	-3.6291497e-06
4	0xb534bbbc	-6.7328415e-07
5	0xb7c13c10	-2.3035362e-05
6	0x371c2d6a	9.308898e-06
7	0xb33ec0b3	-4.441308e-08
8	0x2e0feb60	3.272349e-11
9	0x319dca45	4.5922968e-09
10	0x2c6bd480	3.351347e-12
11	0xb68e2484	-4.2361808e-06
12	0x3609b491	2.0519694e-06
13	0xb210500a	-8.400102e-09
14	0x36333d0a	2.6708608e-06
15	0x31026568	1.8975133e-09
16	0xae576b30	-4.8980542e-11
17	0xb1bd492c	-5.5089426e-09
18	0xb6f12594	-7.1867344e-06
19	0xb3c18008	-9.0105516e-08
20	0xb5068e6e	-5.012615e-07
21	0xb47248d8	-2.2564507e-07
22	0xb45eee59	-2.0762072e-07
23	0xb14c5127	-2.9732037e-09
24	0xb5b50c3f	-1.3489115e-06
25	0xb1cc720e	-5.950148e-09
26	0x348ac293	2.5846074e-07
27	0x348a00da	2.5705123e-07
28	0xb5a23a7e	-1.2086964e-06
29	0xb37952c8	-5.805012e-08
30	0xb4035f00	-1.2234887e-07
31	0xb482a6e3	-2.4335813e-07
32	0x357d5c71	9.4384365e-07
33	0x383023fe	4.199519e-05
34	0x32e5f00b	2.6768268e-08
35	0xb0c44c67	-1.4282592e-09
36	0x319d6f4a	4.5819535e-09
37	0xb4c07a53	-3.585179e-07
38	0xb535316a	-6.749966e-07
39	0xb01a71e0	-5.61867e-10
40	0x321b94ca	9.056018e-09
41	0x35b1ea22	1.3255669e-06
42	0x3634893b	2.6901969e-06
43	0xb31443bd	-3.4520543e-08
44	0x33e9a1f7	1.0879369e-07
45	0x364742ae	2.9692123e-06
46	0xb71767fb	-9.024511e-06
47	0x313e94a5	2.7733134e-09
48	0xb3509510	-4.8564345e-08
49	0xb2bdcbc6	-2.2095161e-08
50	0xb1f2c54a	-7.065556e-09
51	0x3329a1d1	3.949555e-08
52	0x33725b20	5.6427893e-08
53	0xb1978146	-4.409375e-09
54	0xb2b8fb5b	-2.1534722e-08
55	0xb2a1fc17	-1.8857504e-08
56	0x2f85e468	2.4354851e-10
57	0xb347a940	-4.648723e-08
58	0xb3782a5f	-5.7780536e-08
59	0xb5d74aa3	-1.604047e-06
60	0xb14f4981	-3.0164247e-09
61	0xb30090d6	-2.993405e-08
62	0xb0914de9	-1.0572282e-09
63	0x394dfad0	0.00019643758
64	0x3284d43e	1.5463339e-08
65	0xb2e205a2	-2.6312424e-08
66	0xb6ee2496	-7.097212e-06
67	0x36702908	3.578667e-06
68	0x311cafec	2.2800988e-09
69	0x3388efa6	6.376585e-08
70	0x2f0940f5	1.2483155e-10
71	0x2d9ebcb4	1.8046321e-11
72	0x361fabb4	2.379279e-06
73	0xb31ef7a0	-3.7012455e-08
74	0xb8e093af	-0.000107086606
75	0x3222f101	9.484439e-09
76	0xb6ee49a2	-7.1015247e-06
77	0x338a2924	6.433609e-08
78	0xb068caba	-8.46892e-10
79	0x320249c0	7.583765e-09
80	0x33a7f0d8	7.820353e-08
81	0x3404368c	1.2313302e-07
82	0xb53c206c	-7.008264e-07
83	0xb38199f0	-6.035032e-08
84	0x2fd27d59	3.8287842e-10
85	0x362915ca	2.5195645e-06
86	0x33bbce28	8.745366e-08
87	0xb5abd202	-1.2801613e-06
88	0xb3e6497b	-1.07235756e-07
89	0x347df733	2.3652392e-07
90	0xb614e098	-2.218445e-06
91	0x36c04d5c	5.7310517e-06
92	0x359ed52e	1.1833961e-06
93	0x343a430e	1.7346994e-07
94	0x335f9886	5.2059953e-08
95	0xb44111f2	-1.7981054e-07
96	0x2fa1d530	2.9437208e-10
97	0xb12e27ed	-2.5343028e-09
98	0x3010b8cf	5.2649524e-10
99	0x32168f4c	8.763731e-09
100	0x36bbe34b	5.5994947e-06
101	0xad270ed2	-9.496142e-12
102	0xadd02600	-2.3663738e-11
103	0xb6a13426	-4.804245e-06
104	0xafc5a6f8	-3.595273e-10
105	0xb425f076	-1.5454302e-07
106	0xb1ddd4bb	-6.456131e-09
107	0x2fe4555a	4.1533604e-10
108	0xb5117d2d	-5.4198864e-07
109	0xb129bc16	-2.4699651e-09
110	0xb14acaf2	-2.951023e-09
111	0xb52815de	-6.26167e-07
112	0x2b74b7d0	8.6941305e-13
113	0x36c00d1c	5.723572e-06
114	0xb2f35323	-2.832673e-08
115	0x35085915	5.079358e-07
116	0x390e11e6	0.00013548843
117	0x2f843062	2.4045038e-10
118	0xb587bc58	-1.0113099e-06
119	0xb8431168	-4.6507834e-05
120	0x2fee3e9e	4.333644e-10
121	0xad95e480	-1.7040813e-11
122	0xaf27b49a	-1.5252724e-10
123	0x3013a01b	5.370581e-10
124	0x3094c19c	1.0823444e-09
125	0x2cfc1f70	7.165761e-12
126	0xb6d44cce	-6.3270336e-06
127	0xb3b3dc20	-8.3753775e-08
128	0xb161c0ce	-3.2851406e-09
129	0xb1c1b2d0	-5.637368e-09
130	0x315e8250	3.2379326e-09
131	0xb1c51c69	-5.7366845e-09
132	0x334dcab9	4.7914657e-08
133	0xb4e08723	-4.1821576e-07
134	0xb22e6154	-1.0150263e-08
135	0xb124e582	-2.39956e-09
136	0xb03d1cf4	-6.8798944e-10
137	0xb3c182fa	-9.011087e-08
138	0xb414e279	-1.3865964e-07
139	0x3096774f	1.0947846e-09
140	0xb3057fe1	-3.108278e-08
141	0xb153f880	-3.0845797e-09
142	0xb1c5597c	-5.743628e-09
143	0xb42ed0ba	-1.6280947e-07
144	0xb30f1af9	-3.3319314e-08
145	0xb152ef35	-3.0694995e-09
146	0x30e8994c	1.6923791e-09
147	0x3482f1dc	2.4390363e-07
148	0x3036226d	6.6260136e-10
149	0x31d1b190	6.102887e-09
150	0xb0636b50	-8.273462e-10
151	0xb04fb9f8	-7.557044e-10
152	0xb3643fd2	-5.314343e-08
153	0xb7898b16	-1.639644e-05
154	0xb40beedc	-1.303228e-07
155	0xb575a2ba	-9.150641e-07
156	0xafa61b70	-3.021472e-10
157	0x34cde478	3.8350458e-07
158	0xb005cc7d	-4.8675713e-10
159	0xb3196398	-3.571367e-08
160	0xafddd544	-4.03512e-10
161	0x3245bbfc	1.1509652e-08
162	0x33acf28a	8.053492e-08
163	0xb160f722	-3.2736769e-09
164	0xb17e241e	-3.6982395e-09
165	0xb392e81f	-6.8408774e-08
166	0x32816231	1.5062229e-08
167	0xb1af27d8	-5.0977e-09
168	0x370a0f73	8.229038e-06
169	0x3a34bd60	0.0006894674
170	0xb4dc1ebe	-4.100056e-07
171	0x318adcae	4.041417e-09
172	0xb06d2d99	-8.6284896e-10
173	0xb5fea048	-1.8971123e-06
174	0x31ff8811	7.4369457e-09
175	0xb5591c44	-8.087993e-07
176	0xb0526ff6	-7.655666e-10
177	0x33596538	5.0616308e-08
178	0x306048e8	8.159433e-10
179	0xb13a339c	-2.7095899e-09
180	0xb3403477	-4.47512e-08
181	0xb018dc49	-5.561032e-10
182	0xb3195b81	-3.570631e-08
183	0xb489293e	-2.5548246e-07
184	0xb3a079a6	-7.472708e-08
185	0xb1fe4b2e	-7.40092e-09
186	0x3270673c	1.3993311e-08
187	0x3038ce60	6.7232087e-10
188	0x32186e5e	8.872659e-09
189	0x3736178a	1.0853526e-05
190	0xb66bb339	-3.512205e-06
191	0x335b13f2	5.100805e-08
192	0x3087cf16	9.8814e-10
193	0x32084e06	7.933982e-09
194	0xae2e3ea8	-3.961867e-11
195	0xae34efda	-4.1140293e-11
196	0x3250d150	1.2154786e-08
197	0x31c5ddc4	5.7586664e-09
198	0xb678f398	-3.709667e-06
199	0xb3e5ec0c	-1.070658e-07
200	0x33c7729e	9.2875084e-08
201	0x315d9861	3.224635e-09
202	0xb006d77a	-4.9055127e-10
203	0x3414ba71	1.3851401e-07
204	0x2fbee020	3.472005e-10
205	0xb0d26286	-1.5307513e-09
206	0x334cf37d	4.7718903e-08
207	0x368e9832	4.2496476e-06
208	0x2f5d2dc2	2.011609e-10
209	0x33cd9377	9.57288e-08
210	0x321ae3d0	9.015778e-09
211	0x2f15c48b	1.3621297e-10
212	0xb5ec17da	-1.7590312e-06
213	0x31aaa348	4.966214e-09
214	0x3422bb8e	1.5155658e-07
215	0x34764a3d	2.2937543e-07
216	0xb1b3e101	-5.2351656e-09
217	0xb03c9108	-6.8600103e-10
218	0x2ead6ee8	7.88683e-11
219	0xb68cba18	-4.1939893e-06
220	0x33cbc680	9.489031e-08
221	0x354c647c	7.6142146e-07
222	0xb3b59470	-8.45547e-08
223	0x30d3a99c	1.5400476e-09
224	0xb3ac6696	-8.0280344e-08
225	0x354a9916	7.5473633e-07
226	0xb3ace6f9	-8.051388e-08
227	0x3051d3d0	7.633476e-10
228	0xb5074f0c	-5.040645e-07
229	0x332b5c69	3.9898087e-08
230	0xb2f7c714	-2.8845115e-08
231	0xafb89d92	-3.3581365e-10
232	0x38312f85	4.2244345e-05
233	0x349dcc66	2.9392248e-07
234	0x2f40f423	1.7549033e-10
235	0xaf387946	-1.6777787e-10
236	0xb612fbb2	-2.1902201e-06
237	0xb3175e8b	-3.5243414e-08
238	0xb5b1de54	-1.3252234e-06
239	0xb50cd18b	-5.245899e-07
240	0xb684244d	-3.9381325e-06
241	0xb3ed97e0	-1.10637984e-07
242	0x30e85d4c	1.6906738e-09
243	0x3127b9c8	2.4407303e-09
244	0xb19391dc	-4.2948454e-09
245	0x33dd949c	1.0318146e-07
246	0xac8bc31c	-3.972279e-12
247	0x32becc58	2.2211836e-08
248	0xb0598e45	-7.914632e-10
249	0xb23903d9	-1.0769292e-08
250	0xb28f9f88	-1.6719937e-08
251	0x32ed65fa	2.7636805e-08
252	0x312f5c2a	2.551824e-09
253	0x31aa9486	4.9645363e-09
254	0xb306e803	-3.141032e-08
255	0xb55c9af4	-8.2181873e-07

fc2.bias f4 [256]
0	0x37230176	9.715897e-06
1	0xb48b5052	-2.5949208e-07
2	0xb51458cb	-5.526351e-07
3	0xb6886306	-4.0646437e-06
4	0xb66c4baf	-3.5210794e-06
5	0x3732e79e	1.0663554e-05
6	0x3c600470	0.013672933
7	0x3537f72f	6.853251e-07
8	0x33a49e7b	7.6656725e-08
9	0xb6a542fa	-4.9251803e-06
10	0x36536d96	3.1505238e-06
11	0x368e51e2	4.241462e-06
12	0x359cc656	1.1680629e-06
13	0x3860187c	5.3428565e-05
14	0x370790ad	8.080312e-06
15	0x339b4362	7.230007e-08
16	0x3625a41b	2.4682438e-06
17	0x36f82084	7.3947613e-06
18	0x3590d5b6	1.0791034e-06
19	0x33771d64	5.75359e-08
20	0x3956d0e0	0.00020486442
21	0xb7c3234d	-2.326225e-05
22	0xb933ed90	-0.00017159269
23	0x37aa100e	2.0273055e-05
24	0x3d8ae46b	0.067818485
25	0x369b8a1f	4.6354394e-06
26	0xb564afb8	-8.5192323e-07
27	0xb6b6cc4b	-5.4478055e-06
28	0xbbd969f5	-0.0066349455
29	0x3723f695	9.772969e-06
30	0x3e24e00d	0.16101094
31	0x36261446	2.4747728e-06
32	0xb618fc56	-2.2796644e-06
33	0xb8364180	-4.3453183e-05
34	0x35cafb80	1.5123369e-06
35	0xb60ce157	-2.099279e-06
36	0x37a54da2	1.9705683e-05
37	0xb485ba15	-2.4908573e-07
38	0xb8981f40	-7.2537456e-05
39	0x35e1e678	1.6830882e-06
40	0x38d557d7	0.00010172993
41	0xb6bc07e7	-5.6037566e-06
42	0xb7140bdd	-8.82425e-06
43	0x339e61f6	7.375267e-08
44	0x368247ad	3.882646e-06
45	0x38953ebd	7.1165596e-05
46	0x36e4792e	6.8090367e-06
47	0xb64eaefc	-3.0798246e-06
48	0x37965030	1.7918734e-05
49	0xb5d2f83a	-1.5718463e-06
50	0x332b0b42	3.982428e-08
51	0xb51d2f77	-5.855613e-07
52	0x32c56ce3	2.2983334e-08
53	0xb87b40e4	-5.9903497e-05
54	0x364f3648	3.0877e-06
55	0xb42704e0	-1.555486e-07
56	0x34f39cff	4.5376507e-07
57	0xb6ad454f	-5.1638704e-06
58	0xb7b1e0cd	-2.1204725e-05
59	0xb920907c	-0.00015312614
60	0x368b5552	4.1524554e-06
61	0x37a127fd	1.9211317e-05
62	0x3a4098bb	0.00073469774
63	0xb595bac3	-1.115572e-06
64	0x37b5dfa2	2.1681019e-05
65	0x3a7b753e	0.00095923606
66	0x34fb58e0	4.6817058e-07
67	0x38b1ee68	8.484424e-05
68	0x331721de	3.518823e-08
69	0x39035c97	0.00012527626
70	0xb8ac94a0	-8.229283e-05
71	0x357fdb54	9.5314067e-07
72	0x36de9cf2	6.6343864e-06
73	0xb9157c00	-0.00014255941
74	0x3714b43d	8.863452e-06
75	0xb5153c4c	-5.559457e-07
76	0xb6a42bbb	-4.8926718e-06
77	0xb79eb806	-1.892076e-05
78	0x35454ea8	7.350268e-07
79	0xb685ef98	-3.9916013e-06
80	0x33df7ba8	1.040674e-07
81	0x3550072e	7.7496486e-07
82	0x3610c82a	2.1574183e-06
83	0x36a6ca3a	4.970728e-06
84	0xb4884156	-2.5379512e-07
85	0x368c8438	4.1877174e-06
86	0xb636d9c1	-2.7246863e-06
87	0xb5a793f8	-1.2485534e-06
88	0xb532fa6e	-6.667459e-07
89	0xb90e83e8	-0.00013591314
90	0x354a36b7	7.5330485e-07
91	0xb66e11c0	-3.5475096e-06
92	0x38856603	6.3609354e-05
93	0xb8367e2f	-4.35097e-05
94	0x388995c5	6.560566e-05
95	0x35beaa9f	1.420576e-06
96	0xb3f064c3	-1.1194199e-07
97	0xb6a10087	-4.7982353e-06
98	0xb67d4556	-3.7740297e-06
99	0xb68b5b49	-4.15315e-06
100	0xb6901962	-4.2944894e-06
101	0xbc7ed2d2	-0.015553193
102	0xb6045d90	-1.9723993e-06
103	0xb63aa11e	-2.7809942e-06
104	0xb39918f0	-7.129154e-08
105	0x386ce7f6	5.6482815e-05
106	0xb86abb38	-5.596431e-05
107	0x3703d92a	7.858771e-06
108	0x373acabe	1.11336685e-05
109	0xb58355c0	-9.785217e-07
110	0x3781d5db	1.5477583e-05
111	0xb69be974	-4.6465375e-06
112	0x38485f75	4.7772617e-05
113	0xb5aef9d3	-1.3036719e-06
114	0x35d3c51d	1.5778093e-06
115	0xb7157f24	-8.910694e-06
116	0xb90df0a6	-0.00013536456
117	0x370e9fbf	8.501053e-06
118	0xb52202e8	-6.035393e-07
119	0x37a683d4	1.985013e-05
120	0xb40fc450	-1.3389331e-07
121	0xb6f30531	-7.2425687e-06
122	0xb79534d8	-1.7786791e-05
123	0x3b2a7051	0.0026006887
124	0x35d3f190	1.5791029e-06
125	0xba1c6764	-0.0005966334
126	0x34886585	2.540584e-07
127	0x35bbabe4	1.3982612e-06
128	0xb7a60878	-1.9792686e-05
129	0xb80ac466	-3.3084674e-05
130	0xb726a8fe	-9.933718e-06
131	0x388b6fab	6.648836e-05
132	0xb724b477	-9.8171795e-06
133	0xb766bb27	-1.3752643e-05
134	0x3907323e	0.0001289332
135	0x379a37d9	1.8384237e-05
136	0x38725bec	5.7782905e-05
137	0xb7aaf8b8	-2.0381398e-05
138	0xb558996d	-8.0689534e-07
139	0xb45bf025	-2.0483328e-07
140	0xb7968cf6	-1.7947033e-05
141	0x3440245e	1.7894624e-07
142	0x354cae66	7.6249705e-07
143	0x3731976a	1.0585276e-05
144	0xb55c2ffe	-8.2026224e-07
145	0x3409bb84	1.2827337e-07
146	0x33a043cc	7.462913e-08
147	0xb748a901	-1.1960278e-05
148	0xb9496b08	-0.00019208726
149	0xb536b1c9	-6.8058995e-07
150	0xb6c978b1	-6.004317e-06
151	0x364a5256	3.0148271e-06
152	0x37231fc9	9.722958e-06
153	0xb715a91a	-8.920464e-06
154	0x36497e39	3.0024805e-06
155	0xb96f5488	-0.00022824307
156	0x343c0d30	1.7513662e-07
157	0xb68113a4	-3.846786e-06
158	0x391da2f8	0.00015033397
159	0x375ff028	1.33477515e-05
160	0xb81e6b15	-3.7769863e-05
161	0x36074881	2.015877e-06
162	0xb7822f64	-1.5519276e-05
163	0x36255af2	2.4639853e-06
164	0x3704c5a8	7.9138335e-06
165	0xb9187f5e	-0.00014543298
166	0xb6785f48	-3.701034e-06
167	0xb6abdc13	-5.121817e-06
168	0xb7fa39be	-2.982921e-05
169	0x37293dc4	1.0087566e-05
170	0x36c96364	6.0018374e-06
171	0x38c2b17f	9.283702e-05
172	0x38583c73	5.155471e-05
173	0xb5e29ac2	-1.6883353e-06
174	0xb7504499	-1.2413738e-05
175	0xb6879969	-4.041173e-06
176	0xb7a11137	-1.9200712e-05
177	0x36434938	2.9099883e-06
178	0x3c2ec41e	0.010666875
179	0x31ab4193	4.98421e-09
180	0x35a74484	1.246241e-06
181	0x35b00eaa	1.311729e-06
182	0x37df7201	2.6636759e-05
183	0xb7003da7	-7.643749e-06
184	0xb7afd955	-2.0962829e-05
185	0x36b5c352	5.4169586e-06
186	0x37ed2550	2.8269977e-05
187	0x36b816b4	5.4862703e-06
188	0x34002d48	1.1937402e-07
189	0xb6a1f43e	-4.8266074e-06
190	0xb6de1a1d	-6.6191556e-06
191	0x36818789	3.860278e-06
192	0xb90af80d	-0.00013253112
193	0xb68613ea	-3.9958295e-06
194	0xb71f5676	-9.497269e-06
195	0x37210474	9.597385e-06
196	0x3ddc5a4e	0.10759412
197	0xb5f86df7	-1.8509444e-06
198	0xb88d1b28	-6.728462e-05
199	0xb7bf9a94	-2.2840955e-05
200	0xb68cb063	-4.1928593e-06
201	0xb59c42c2	-1.1642335e-06
202	0x357c86e8	9.407363e-07
203	0xb5176410	-5.6397494e-07
204	0xb6efdb6e	-7.1483e-06
205	0x3a3a110c	0.0007097877
206	0xb79c899b	-1.8660727e-05
207	0x38ecd1dc	0.00011292446
208	0x35224a87	6.0458154e-07
209	0x368cc4e6	4.195247e-06
210	0x3740afc8	1.1485019e-05
211	0xb5dbd0b0	-1.6377508e-06
212	0xb648236b	-2.9822938e-06
213	0xb654c4e0	-3.1705058e-06
214	0x358a562d	1.0306882e-06
215	0x3632ec1a	2.6661496e-06
216	0x36458a96	2.9435955e-06
217	0x34ba7453	3.4729837e-07
218	0x3838e1e4	4.4079396e-05
219	0x371e3125	9.428976e-06
220	0x35000566	4.769157e-07
221	0xb5aae028	-1.2731225e-06
222	0xb520b7f8	-5.9872355e-07
223	0xb7392954	-1.1036482e-05
224	0x380656d4	3.2028955e-05
225	0xb63f2d09	-2.8487432e-06
226	0x3545a940	7.363451e-07
227	0xb5c40a45	-1.4606127e-06
228	0x36a600dd	4.947286e-06
229	0xb795ce9d	-1.7858396e-05
230	0xb61b7af7	-2.3168375e-06
231	0x3534b7f8	6.7322935e-07
232	0x36872938	4.028112e-06
233	0x355937a8	8.091979e-07
234	0x3754fbbe	1.2694798e-05
235	0x3683cdb4	3.9280512e-06
236	0x37031ae4	7.814469e-06
237	0xb6f510bc	-7.303517e-06
238	0xb6e9d0db	-6.968255e-06
239	0xb54905af	-7.4886606e-07
240	0xb578d28c	-9.2693585e-07
241	0x32b6ac2f	2.1265889e-08
242	0x3512c77b	5.467952e-07
243	0x369b4e8d	4.6285045e-06
244	0xb7430caf	-1.1625859e-05
245	0x34c1aeb6	3.607617e-07
246	0xb45bb354	-2.0461204e-07
247	0xb6d4bb90	-6.3399275e-06
248	0x370a01de	8.225876e-06
249	0x3775c306	1.4648545e-05
250	0xb7497e26	-1.2009905e-05
251	0xb5c01340	-1.4310717e-06
252	0xb79aa9ba	-1.8437266e-05
253	0xb70c2bd7	-8.3548575e-06
254	0x34ebc272	4.391364e-07
255	0x3673d60d	3.6334416e-06

fc3.weight f4 [256, 256]
0	0xacc34c24	-5.5506866e-12
1	0x2aac4d38	3.060692e-13
2	0x2beed7f6	1.6970858e-12
3	0x2cba83b0	5.301058e-12
4	0x2de4a4d0	2.599379e-11
5	0xac2e559b	-2.4774408e-12
6	0x33bbb516	8.7408054e-08
7	0xac801062	-3.6397977e-12
8	0x2eec4658	1.0744533e-10
9	0xaee090d5	-1.0212068e-10
10	0x30932154	1.070513e-09
11	0x2cea49ba	6.6588653e-12
12	0xad64ed8b	-1.3013045e-11
13	0x2eab5f1b	7.793074e-11
14	0x2c94bf13	4.2276265e-12
15	0xae3ec917	-4.3379602e-11
16	0xb29e1072	-1.84011e-08
17	0x2cb9d94a	5.28214e-12
18	0x2b334af0	6.369757e-13
19	0x2d0f42a8	8.1434096e-12
20	0xb5723200	-9.0224785e-07
21	0x2ced114d	6.737866e-12
22	0x2fa9562c	3.080215e-10
23	0x2fcacc92	3.6888942e-10
24	0x338d06f4	6.567089e-08
25	0x2e68c44a	5.2925032e-11
26	0x313cb2e1	2.7459282e-09
27	0xaf38e72e	-1.6816834e-10
28	0xb01c2f04	-5.681928e-10
29	0x2f50822a	1.8963733e-10
30	0xb4c2e851	-3.6304348e-07
31	0x2d1803ab	8.641014e-12
32	0xaaea5395	-4.1624747e-13
33	0x2d1b0295	8.811303e-12
34	0x2e9afc1e	7.047894e-11
35	0xabd99640	-1.546048e-12
36	0x2e58aeb8	4.9267895e-11
37	0x80009c60	-5.6097e-41
38	0x2e75d65e	5.5896947e-11
39	0x2f07a1be	1.2335641e-10
40	0xb131758f	-2.5823714e-09
41	0xad4ace9e	-1.1528249e-11
42	0xb7e2602e	-2.6986087e-05
43	0xae58dc12	-4.9308176e-11
44	0xb830c547	-4.21454e-05
45	0x2f199d33	1.3971117e-10
46	0x2f15b5d0	1.3616064e-10
47	0x2e07791c	3.0803013e-11
48	0x2cff6d72	7.2596868e-12
49	0x2cc624fe	5.6316054e-12
50	0xac3555e0	-2.5769317e-12
51	0x2a1c06ba	1.3857917e-13
52	0xabc46c08	-1.3956622e-12
53	0xb894e698	-7.1001414e-05
54	0x2e310c04	4.0255813e-11
55	0x3b6263cc	0.0034544347
56	0xac1be5ea	-2.2154453e-12
57	0xacd81cdf	-6.1422946e-12
58	0x2d82eb5b	1.4883808e-11
59	0x2e2ae7b0	3.8859305e-11
60	0x37ad4496	2.0655145e-05
61	0xab121820	-5.19031e-13
62	0x321bd9e4	9.07173e-09
63	0xb0063e0f	-4.8837107e-10
64	0xa8c67bc0	-2.2036084e-14
65	0x2df912e8	2.8316419e-11
66	0xad8360f0	-1.4936025e-11
67	0x2ff1580d	4.3900208e-10
68	0x2d4b78a3	1.1566001e-11
69	0xbbcaf788	-0.006194059
70	0x2e7f40b3	5.803775e-11
71	0x30008d42	4.676687e-10
72	0x2d2d14d0	9.838533e-12
73	0x2e645463	5.191615e-11
74	0xb0b06e2b	-1.2836997e-09
75	0xaa443790	-1.7427574e-13
76	0xaa1774d6	-1.345203e-13
77	0x2ec56776	8.976901e-11
78	0x2e4f4c39	4.713405e-11
79	0x2eb0835d	8.026888e-11
80	0x2c5846e0	3.073479e-12
81	0xaff8ed9e	-4.5279774e-10
82	0x3723a3a6	9.7536595e-06
83	0x2e18c417	3.473496e-11
84	0x2e15bcbb	3.4046304e-11
85	0xad556a71	-1.2131283e-11
86	0xad6ce08c	-1.3464906e-11
87	0x2bcd498c	1.4586539e-12
88	0xaf7ac194	-2.280614e-10
89	0xae375650	-4.1686044e-11
90	0xaeba34c3	-8.467673e-11
91	0x2cbfd855	5.452564e-12
92	0x2e8cb062	6.397795e-11
93	0x2c28c2b0	2.398231e-12
94	0xb0c3d92f	-1.4249845e-09
95	0x2dea65a9	2.6647866e-11
96	0xab766d8e	-8.7548794e-13
97	0x2adeb27a	3.9558965e-13
98	0xadd204f4	-2.3876436e-11
99	0x2c19f182	2.1876671e-12
100	0xaac5efa1	-3.5160506e-13
101	0xb1a7b237	-4.8806004e-09
102	0x2f91ebd6	2.6542918e-10
103	0x2c87f6df	3.864339e-12
104	0x2e71a7d0	5.4946103e-11
105	0x38814774	6.1645085e-05
106	0xaf93581b	-2.6801747e-10
107	0xaef95dc8	-1.1339868e-10
108	0xad59f374	-1.2389079e-11
109	0x2bbee847	1.3564782e-12
110	0x2dd0074d	2.3650104e-11
111	0xac744800	-3.4714454e-12
112	0xaf94e4c6	-2.7083596e-10
113	0xaeca1902	-9.190339e-11
114	0xae28a062	-3.8341226e-11
115	0x2b4ea8c0	7.342009e-13
116	0xaea4c53b	-7.492892e-11
117	0x2c6b71a1	3.3458585e-12
118	0xaedec9b3	-1.013122e-10
119	0x2f3a1d00	1.6926904e-10
120	0xb00153a6	-4.70488e-10
121	0x2bc18e6a	1.3753003e-12
122	0x2bc39928	1.3898093e-12
123	0xb109a78c	-2.0031363e-09
124	0x2aa7411b	2.9710335e-13
125	0x389d3c13	7.497533e-05
126	0xbb9fdb06	-0.0048784046
127	0xab51fe59	-7.4604694e-13
128	0x2e7c9e02	5.7438505e-11
129	0x2e3841a9	4.1895074e-11
130	0xaf908574	-2.6288272e-10
131	0x2d4c8005	1.16244835e-11
132	0x385ca88a	5.260905e-05
133	0x2c71e37c	3.437444e-12
134	0xaf39486a	-1.6851379e-10
135	0xad77a3cf	-1.4076697e-11
136	0x2d81dbba	1.476318e-11
137	0x3a426d82	0.00074168306
138	0x2a3a0898	1.65231e-13
139	0xb05b18b8	-7.9706863e-10
140	0xaf776cc2	-2.2503158e-10
141	0x2f3d491e	1.7215426e-10
142	0x39585d64	0.00020634156
143	0xad99f986	-1.7504897e-11
144	0x802c7df5	-4.085947e-39
145	0xae6b1fbb	-5.3460996e-11
146	0x2a038f0e	1.168477e-13
147	0xaecd8d92	-9.3474686e-11
148	0x2f87adac	2.4679758e-10
149	0x2dfca384	2.8721699e-11
150	0xae177575	-3.4437748e-11
151	0xaeb4a06c	-8.213949e-11
152	0xac8c9d65	-3.9965136e-12
153	0xaca958b8	-4.8131187e-12
154	0xab87ff93	-9.663263e-13
155	0x3820fc4f	3.8381953e-05
156	0xb8186870	-3.633689e-05
157	0xb053fe02	-7.712232e-10
158	0xb1ef999e	-6.9732797e-09
159	0xaf516a67	-1.9046241e-10
160	0x2c723968	3.4422135e-12
161	0xad868eca	-1.5297447e-11
162	0x2db1c927	2.02119e-11
163	0x2b416865	6.871225e-13
164	0x391720a0	0.00014412636
165	0x378a285c	1.6469676e-05
166	0xac140c41	-2.1038867e-12
167	0x2f04b3be	1.2069187e-10
168	0x2d777d03	1.4068083e-11
169	0x2f1f40cd	1.4483988e-10
170	0xacd58370	-6.0684166e-12
171	0xae8e968a	-6.4841535e-11
172	0x2f18e300	1.3904966e-10
173	0x2cd8b093	6.158693e-12
174	0x2fd05cd5	3.790094e-10
175	0xaeabf2fc	-7.8193424e-11
176	0xae0ad748	-3.1568775e-11
177	0xae3899f1	-4.1973484e-11
178	0xb20d42a2	-8.222431e-09
179	0x2aef4fe3	4.251036e-13
180	0x3481a034	2.4144686e-07
181	0xadbf0cff	-2.1719957e-11
182	0x2da7fde4	1.9098452e-11
183	0xaf7151e8	-2.1947921e-10
184	0xae379ce1	-4.174872e-11
185	0xac98aba8	-4.3391575e-12
186	0xad1d5c52	-8.944916e-12
187	0x3154f2b5	3.0988023e-09
188	0x2f39856c	1.6873053e-10
189	0x387643ea	5.871422e-05
190	0x2fb86b61	3.3545702e-10
191	0x2ea0bc54	7.3094114e-11
192	0x31702cb9	3.4950018e-09
193	0xac532f60	-3.0011202e-12
194	0x2ce9a390	6.6404174e-12
195	0xaf8767a8	-2.463001e-10
196	0xb4249ff7	-1.5331885e-07
197	0x2f3eb817	1.7345801e-10
198	0x2e59514e	4.94123e-11
199	0xad55be2f	-1.21498775e-11
200	0x2c4452c8	2.7899228e-12
201	0xaf407d10	-1.750673e-10
202	0xaf785834	-2.2586805e-10
203	0x2a1a7060	1.3716936e-13
204	0xae2449ed	-3.7354942e-11
205	0x33106c9b	3.362639e-08
206	0xaf108132	-1.3142623e-10
207	0x329ab94d	1.8012225e-08
208	0xaf4e94e4	-1.8788487e-10
209	0x2e34f555	4.114516e-11
210	0xae4ca47c	-4.653032e-11
211	0x2ca13044	4.5812538e-12
212	0xb0829580	-9.501235e-10
213	0x371b0627	9.240152e-06
214	0xae31c250	-4.0417725e-11
215	0xae9d7b04	-7.1613854e-11
216	0xad3f126b	-1.0861183e-11
217	0xac6c92b1	-3.3619047e-12
218	0xb278b268	-1.4476065e-08
219	0xac78b570	-3.5343638e-12
220	0x2bac662e	1.2249696e-12
221	0xaf0097ed	-1.1695507e-10
222	0xad51650b	-1.1902711e-11
223	0xae217772	-3.671325e-11
224	0x393754cd	0.00017483831
225	0x322553ad	9.62329e-09
226	0xb0233219	-5.937025e-10
227	0xaf6eeda1	-2.1730397e-10
228	0xaf889574	-2.484445e-10
229	0xaff920f2	-4.5316245e-10
230	0x2bd22a65	1.4933164e-12
231	0x2cf51edd	6.9667453e-12
232	0xace0fa78	-6.3942705e-12
233	0x2d0ee4f8	8.122607e-12
234	0x2d43b9e0	1.1125739e-11
235	0xae0e49b6	-3.235253e-11
236	0x2c47e717	2.8407882e-12
237	0x2d803fbc	1.4580219e-11
238	0x2dadb7bd	1.9749419e-11
239	0x2ca6dca7	4.742501e-12
240	0x2bf3a7cf	1.7312765e-12
241	0x2949c1fe	4.4799227e-14
242	0xb9185479	-0.00014527318
243	0x2c9acc88	4.3996508e-12
244	0x2f8bb59e	2.5413e-10
245	0xa9590b66	-4.8193566e-14
246	0xb9893294	-0.0002616836
247	0xafe1b319	-4.1054518e-10
248	0xb77a12e2	-1.4905558e-05
249	0x2cda1a55	6.198856e-12
250	0x302d579a	6.306152e-10
251	0x2eccab01	9.3072224e-11
252	0x30080d07	4.9495025e-10
253	0x310f13d2	2.0820505e-09
254	0xae039b2b	-2.992377e-11
255	0x36ad5cb7	5.166595e-06

fc3.bias f4 [256]
0	0xb182e4ea	-3.8095225e-09
1	0x351a5713	5.749618e-07
2	0xbb376ae5	-0.0027987298
3	0xbbba3145	-0.005682143
4	0x35b4be39	1.3466407e-06
5	0x38cefba0	9.869714e-05
6	0x3b947a60	0.00453119
7	0x3c5253cf	0.012837364
8	0x33eaf5b4	1.0941167e-07
9	0x38773a0f	5.894346e-05
10	0xb9829e45	-0.00024913452
11	0x358c5836	1.0456486e-06
12	0x30897d98	1.0003758e-09
13	0xb8bddabc	-9.052965e-05
14	0xb3a76e69	-7.796627e-08
15	0x39ae0556	0.00033191842
16	0x3805bf9d	3.1888125e-05
17	0x3be254ad	0.006907067
18	0xb54dbfe3	-7.6647683e-07
19	0xb1bf43f7	-5.5665583e-09
20	0xb8a9b705	-8.092638e-05
21	0x350d65a8	5.267452e-07
22	0x3b258004	0.0025253305
23	0xb331343a	-4.1258524e-08
24	0x38802cf6	6.11189e-05
25	0x39b55bfa	0.00034591538
26	0x3860b251	5.357183e-05
27	0xb532556a	-6.643446e-07
28	0x363f1ab4	2.8476761e-06
29	0xb500b18d	-4.7942086e-07
30	0x39c1a004	0.0003693105
31	0x379709fc	1.8005252e-05
32	0xb7688360	-1.3858866e-05
33	0x359a320e	1.1488462e-06
34	0x37062c36	7.997316e-06
35	0x358d625c	1.0533945e-06
36	0x3523c1f0	6.100445e-07
37	0x3390cd66	6.742884e-08
38	0xb5fccae4	-1.8834512e-06
39	0xb5afafbe	-1.3089664e-06
40	0xb434c824	-1.6836617e-07
41	0xbba8604c	-0.0051384326
42	0x3624f09e	2.4577962e-06
43	0x348487ef	2.468582e-07
44	0x36994b23	4.5685024e-06
45	0xb8013aca	-3.081075e-05
46	0xb61041f0	-2.1496053e-06
47	0xb47396c5	-2.2685988e-07
48	0x391db766	0.00015041008
49	0x33a78d77	7.802276e-08
50	0x34177676	1.4106067e-07
51	0x33a78d2a	7.802221e-08
52	0xb4bd0b31	-3.5212136e-07
53	0xb4390662	-1.723179e-07
54	0x377f7de6	1.5228497e-05
55	0xb53bb2b7	-6.9922993e-07
56	0x3b0d76f0	0.0021585785
57	0x35e811f3	1.7290571e-06
58	0x33e42c82	1.0625173e-07
59	0xb6df0bec	-6.647306e-06
60	0x3430f84f	1.6481611e-07
61	0xb613c688	-2.2020267e-06
62	0x330aac1b	3.2287158e-08
63	0x34059ce8	1.2443672e-07
64	0xb534cc7c	-6.735279e-07
65	0xb637a277	-2.7363692e-06
66	0x379f273b	1.8972545e-05
67	0x3796d5ac	1.7980892e-05
68	0xb2b439ce	-2.0981044e-08
69	0x338b502e	6.4872765e-08
70	0x379890c3	1.8187222e-05
71	0x3656fa5b	3.203421e-06
72	0x3598584a	1.1350578e-06
73	0xb7005ec2	-7.651457e-06
74	0x37727331	1.4451144e-05
75	0x3218fe48	8.905381e-09
76	0xb55013f8	-7.7515097e-07
77	0x34b63e59	3.3945506e-07
78	0xbc6effef	-0.0145873865
79	0x33ad6631	8.074529e-08
80	0x3610a297	2.1552312e-06
81	0x3228da5f	9.828539e-09
82	0x34b7513c	3.4145512e-07
83	0x34a254c1	3.0236518e-07
84	0xb4b2d035	-3.3306574e-07
85	0x36478bd8	2.973471e-06
86	0x38f35abc	0.000116040435
87	0x3460eac8	2.0947039e-07
88	0xb4caa17a	-3.7742922e-07
89	0xb782ebf9	-1.5607091e-05
90	0xb25d5180	-1.2882424e-08
91	0x377dc979	1.5126884e-05
92	0x370870ae	8.132467e-06
93	0x3584019b	9.835234e-07
94	0xb357e69f	-5.0268337e-08
95	0xb38d5d2c	-6.582772e-08
96	0x3ab9168f	0.0014121103
97	0xb62a8bbe	-2.5413315e-06
98	0xba014d39	-0.00049324665
99	0x3d1c21c2	0.03811813
100	0xb2dfb6fc	-2.6043828e-08
101	0x326d918a	1.3828307e-08
102	0x382d1ca1	4.1273077e-05
103	0x34bc2d6d	3.505078e-07
104	0x3791c7af	1.7378332e-05
105	0xb3379feb	-4.2753452e-08
106	0x3d18e4d1	0.03732759
107	0xb4ca1008	-3.7637096e-07
108	0x3878c20a	5.930852e-05
109	0x35e2eeaa	1.6907773e-06
110	0x3435e634	1.6940686e-07
111	0xba09eb82	-0.00052612287
112	0x37ecee5e	2.824439e-05
113	0xb21c31dc	-9.091732e-09
114	0x386902b5	5.555405e-05
115	0x368158e4	3.854848e-06
116	0x3d3b614c	0.045747086
117	0xb2167641	-8.758037e-09
118	0x3742634a	1.1586419e-05
119	0xb8261bf4	-3.9603518e-05
120	0xae3290e8	-4.0601217e-11
121	0x3c6e5a16	0.014547845
122	0xb4a141a6	-3.0036352e-07
123	0xb3120c6c	-3.400457e-08
124	0x3805dbed	3.1914493e-05
125	0xb402cb88	-1.2181238e-07
126	0xb7027bf8	-7.7774675e-06
127	0x353fdf1b	7.1477706e-07
128	0x360c18f5	2.0876153e-06
129	0x3699cb8c	4.5834513e-06
130	0x3c97517f	0.018471478
131	0x357b1bac	9.3545054e-07
132	0xb45560aa	-1.9872337e-07
133	0x30803c25	9.33032e-10
134	0x3490bd62	2.6959884e-07
135	0xb8651df0	-5.4625736e-05
136	0xb40989d6	-1.2809264e-07
137	0xb3dd59de	-1.0307461e-07
138	0xb7ec708e	-2.8185805e-05
139	0xbaa0122e	-0.0012212449
140	0xb87fbd3e	-6.0972983e-05
141	0x38926afd	6.9817506e-05
142	0x3a10a87b	0.00055182696
143	0x353994e3	6.913453e-07
144	0x352dfc07	6.481427e-07
145	0x35863c45	1.0001319e-06
146	0x3c4f461e	0.012650995
147	0x38698d8c	5.5683355e-05
148	0xb207602f	-7.879904e-09
149	0xb133d356	-2.6168059e-09
150	0xb4584e7f	-2.0145124e-07
151	0x35f7c42d	1.8460029e-06
152	0x3760e0f2	1.3403815e-05
153	0x3ab0c67f	0.0013486891
154	0x37425a9c	1.1584398e-05
155	0x358de418	1.0571703e-06
156	0x34c2975c	3.6245444e-07
157	0xb607e080	-2.0247244e-06
158	0x35243a02	6.1179173e-07
159	0x36a6b987	4.9687837e-06
160	0x364361b6	2.911414e-06
161	0xb55639c2	-7.980526e-07
162	0x3730b864	1.0533349e-05
163	0xb44a8334	-1.8860447e-07
164	0xb3356e86	-4.2242867e-08
165	0x36d19487	6.2459762e-06
166	0x371e98c2	9.453101e-06
167	0x3a819cb1	0.0009888617
168	0x343725da	1.7056973e-07
169	0x33ad6f7f	8.076221e-08
170	0x3675241b	3.652886e-06
171	0x33ba2892	8.6686796e-08
172	0x321991d4	8.93893e-09
173	0x3941bf49	0.00018477174
174	0x383c3d26	4.487964e-05
175	0x359c9273	1.1665528e-06
176	0x391e5c64	0.00015102472
177	0x37b1b821	2.1185786e-05
178	0x3428cc88	1.5720627e-07
179	0xb784f48f	-1.5849508e-05
180	0x3648f8d8	2.9947169e-06
181	0xb6880c19	-4.054524e-06
182	0x32ada589	2.0215127e-08
183	0xb4a4ae02	-3.0673988e-07
184	0x316f071b	3.4783116e-09
185	0x3c088ec0	0.0083348155
186	0x394269d6	0.00018540709
187	0x358412b6	9.840212e-07
188	0x37306464	1.05137915e-05
189	0x32af4cc1	2.0407585e-08
190	0xb881c210	-6.187346e-05
191	0xb58168aa	-9.64171e-07
192	0x368e9dbe	4.2502934e-06
193	0x351934c7	5.707374e-07
194	0xb3874e51	-6.300673e-08
195	0xb3690630	-5.4255167e-08
196	0xb0a17773	-1.1748241e-09
197	0xb55f87d2	-8.327162e-07
198	0x35add1d1	1.2950569e-06
199	0x33d622a0	9.97145e-08
200	0x360f230c	2.132906e-06
201	0x32cc8625	2.3809728e-08
202	0xb919df03	-0.00014674295
203	0x32fd252f	2.9469986e-08
204	0xb47c9120	-2.3522125e-07
205	0x3997a8e0	0.00028926786
206	0xb487eeac	-2.5319366e-07
207	0xbca86c91	-0.020559581
208	0x34122e39	1.3614125e-07
209	0xba0e25a7	-0.0005422481
210	0xb3424ea6	-4.5240675e-08
211	0x368323bc	3.9082643e-06
212	0x3d288e55	0.041151363
213	0x38f057e0	0.0001146046
214	0xb213b400	-8.597453e-09
215	0x373d2e47	1.1276053e-05
216	0xb81f88b1	-3.8035858e-05
217	0xb60b427a	-2.0751309e-06
218	0x331979e8	3.573396e-08
219	0xb4c92032	-3.7462593e-07
220	0xb4ce6806	-3.8446177e-07
221	0x3c9b3042	0.01894391
222	0x360bc9e3	2.0830128e-06
223	0xb6a2eda6	-4.855642e-06
224	0xb5ca5c9e	-1.5077128e-06
225	0x3c9bc8c1	0.019016625
226	0x33cd594f	9.5623015e-08
227	0x3b894e14	0.004190216
228	0xb601bfe9	-1.9334204e-06
229	0x3556919b	7.9933096e-07
230	0x35cd1ed0	1.5282658e-06
231	0xb471f5b6	-2.2534263e-07
232	0xb80555da	-3.1789627e-05
233	0x3313bbf7	3.4397058e-08
234	0x35fa9ed0	1.8672672e-06
235	0x355dba20	8.2599763e-07
236	0x3b9b4b63	0.0047392114
237	0xb290cd07	-1.6857042e-08
238	0x34b5273a	3.3742418e-07
239	0xb71e63e0	-9.440788e-06
240	0x379e2eae	1.8856805e-05
241	0xb269d012	-1.3609695e-08
242	0x349da8a4	2.936623e-07
243	0x384bcb29	4.858818e-05
244	0x37abe10c	2.0489584e-05
245	0x3a4a72a4	0.0007722771
246	0x35e87b89	1.73213e-06
247	0xb7a874ec	-2.0081607e-05
248	0xb785129f	-1.5863507e-05
249	0x365f14a0	3.3241595e-06
250	0x349066c2	2.6896856e-07
251	0xb54ba0c0	-7.5857315e-07
252	0xb49a2245	-2.870967e-07
253	0x3415a480	1.3936551e-07
254	0xb7bef22f	-2.276254e-05
255	0x33eb7abc	1.09653655e-07
