shanghai_road_delivery/results_centralized/centralized_episode_50.pth_centralized_critic.pth (torch, 919176 bytes, 7 tensors)

fc1.weight f4 [256, 378]
-5.083157e-07 -5.2903833e-05 -0.00022898821 -0.00022890241 -0.0002290261 -0.00022927848 2.0724801e-06 -2.1414929e-17
-1.4943746e-10 -3.18799e-38 0.009344544 -9.4725954e-05 7.5434045e-06 2.98469e-39 -8.934517e-06 7.525714e-06
1.1457869e-06 -1.0232886e-09 1.3742771e-06 -3.1342173e-05 3.8645518e-05 1.714881e-39 -1.6598195e-05 1.884382e-39
-4.5983677e-05 6.491961e-39 -6.366092e-05 -5.0645e-39 -1.1982167e-05 0.007667612 -3.910496e-05 -8.31127e-40
-4.3458967e-05 1.2623999e-37 7.5272333e-06 2.4616532e-38 -4.9906426e-05 -0.00022898795 1.6790662e-05 -0.00022898827
-4.2432774e-05 3.58245e-05 1.9184516e-05 9.185647e-06 6.229704e-05 4.0752308e-05 -4.1649386e-05 -2.5295305e-05
1.481462e-17 -0.00022899035 -1.85306e-39 -0.00022898852 -4.5751e-06 -5.0635623e-05 -0.00022898839 -0.00022634516
-0.00022700516 -0.00022471957 1.2341556e-38 -2.9104244e-23 -3.162376e-39 4.127338e-12 1.0215911e-35 -9.4721865e-05
7.45585e-06 -3.568663e-39 -8.922507e-06 7.526097e-06 1.1458125e-06 -5.076171e-39 1.3768417e-06 -3.1335006e-05
3.860947e-05 -2.12387e-39 3.973568e-05 -3.5995e-41 2.2636066e-05 1.0145482e-09 -6.727548e-08 -5.175166e-16
3.1389466e-06 4.40553e-39 -3.9153285e-05 -1.1025579e-18 -4.3394903e-05 -1.3606849e-38 7.5175503e-06 -2.1009243e-11
-4.9876893e-05 -0.00022898841 1.679704e-05 -0.00022898849 -0.00020292649 2.8762499e-05 1.6719603e-05 2.6237217e-08
5.9439793e-05 3.3063512e-05 -2.083273e-05 -6.989147e-06 6.889724e-06 -0.0002298273 1.1212708e-16 -0.0002289886
-9.210686e-05 -9.289761e-06 -0.00022898802 -0.00022755559 -0.0002277526 -0.00022851348 3.5952287e-06 2.310141e-39
7.7579917e-16 1.8645473e-38 6.1785786e-17 -9.472331e-05 7.5415655e-06 -1.661664e-39 -8.907741e-06 7.526805e-06
1.1455863e-06 1.7807213e-22 1.3662083e-06 -3.1335407e-05 3.8563958e-05 4.361874e-39 3.5088546e-05 5.7265106e-07
8.7948456e-07 -1.83259e-40 6.059386e-08 3.0129832e-19 3.14775e-06 -7.162743e-39 -1.198579e-05 9.588907e-22
-4.34452e-05 -2.4770245e-14 7.525066e-06 2.7107172e-17 -4.9836937e-05 -0.00022898841 1.6796323e-05 -0.00022898825
-0.00023615768 3.458742e-05 9.958561e-06 2.6666016e-06 -4.3611533e-05 3.885243e-05 -1.4510673e-05 -9.964653e-06
5.556439e-06 -0.00022909485 2.258567e-17 -0.00022898849 -3.6724316e-05 0.00019294723 -0.00022898846 -0.00022735215
-0.0002275852 -0.0002263653 8.175946e-39 7.958013e-39 4.7657615e-16 -0.0019913525 6.572575e-19 -9.473158e-05
7.537925e-06 2.807947e-39 -8.9593e-06 7.52756e-06 1.1458125e-06 -6.487536e-08 1.3779426e-06 -3.1355055e-05
3.8581537e-05 1.023724e-38 3.9928324e-05 9.803454e-08 -1.1299691e-06 -1.3841567e-12 7.843942e-05 -1.0608585e-19
3.1388035e-06 -5.746709e-17 -1.1980514e-05 -8.103294e-21 -3.8982624e-05 1.3846869e-23 7.523116e-06 -1.24881e-39
-4.988487e-05 -0.00022898833 1.679629e-05 -0.00022898821 3.836585e-05 3.3079687e-05 1.464037e-05 6.6379325e-06
0.00016054543 3.6961297e-05 -1.9850551e-05 -2.6946686e-06 1.1995153e-05 -0.00022967476 -1.1075595e-38 -0.0002289886
-5.6843182e-05 2.3195116e-05 -0.00022898827 -0.00022992904 -0.00023001569 -0.00022895944 -9.50819e-40 3.506038e-39
6.6500154e-23 -1.1614545e-11 -4.939588e-12 -9.473032e-05 7.556395e-06 1.761593e-39 -8.915024e-06 7.525726e-06
1.1459323e-06 -9.835549e-39 1.3772493e-06 -3.134849e-05 3.852445e-05 1.109071e-38 4.13919e-05 -4.166116e-39
-3.1120424e-05 4.83888e-40 -3.3457882e-06 -1.4559504e-12 3.1279008e-06 -7.52739e-39 -1.1978624e-05 8.568493e-14
-3.915651e-05 -1.519879e-39 -4.358062e-05 3.2525924e-05 -4.9894497e-05 -0.00022898789 1.6796324e-05 -0.00022898852
-4.5056455e-05 3.3549284e-05 1.6791113e-05 4.4207713e-06 -2.2492566e-06 3.985365e-05 -1.0298883e-05 -1.2754916e-05
00000000: 3073 08b5 0fe5 5db8 8e1c 70b9 8605 70b9
00000010: ba26 70b9 796a 70b9 f014 0b36 9284 c5a3
00000020: e84e 24af 1892 2d81 dc19 193c 9ca7 c6b8
00000030: 5a1d fd36 1a80 2000 75e5 15b7 6485 fc36
00000040: f0c8 9935 c4a3 8cb0 cd73 b835 6775 03b8
00000050: 4f17 2238 64ac 1200 5a3c 8bb7 e484 1400
00000060: 99de 40b8 f2b0 4600 b281 85b8 c425 3780
00000070: 0407 49b7 9740 fb3b a204 24b8 d80c 0980
00000080: b647 36b8 37d4 2b02 7192 fc36 7006 0601
00000090: 9e52 51b8 7c1c 70b9 acd9 8c37 921c 70b9
000000a0: d8f9 31b8 4442 1638 6fee a037 0e1c 1a37
000000b0: 78a5 8238 75ed 2a38 b0b0 2eb8 4131 d4b7
000000c0: 08a4 8823 211d 70b9 942d 1480 a31c 70b9
000000d0: cf83 99b6 9661 54b8 9a1c 70b9 1157 6db9
000000e0: 3c08 6eb9 b3a2 6bb9 3d63 8600 4fbd 0c9a
000000f0: 6b6f 2280 c137 912c b644 5905 6aa5 c6b8
00000100: 442d fa36 fbdb 2680 e0b1 15b7 ae88 fc36
00000110: d1c9 9935 4d46 3780 eccb b835 b56d 03b8
00000120: 9af0 2138 7c20 1780 dda9 2638 5764 0080
00000130: 95e2 bd37 3e70 8b30 1679 90b3 fc29 15a6
00000140: b1a6 5236 d3f8 2f00 8538 24b8 76b5 a2a1
00000150: ec02 36b8 5c2a 9480 443f fc36 9ccc b8ad
00000160: e832 51b8 9c1c 70b9 5ee7 8c37 a11c 70b9
00000170: aac8 54b9 ff46 f137 1341 8c37 4060 e132
00000180: fe4e 7938 adad 0a38 f2c1 aeb7 5184 eab6
00000190: 472e e736 ccfd 70b9 1346 0125 a91c 70b9
000001a0: 7e29 c1b8 38db 1bb7 811c 70b9 fd9b 6eb9
000001b0: dfd0 6eb9 1f9d 6fb9 8f45 7136 bc27 1900
000001c0: e09b 5f26 fe07 cb00 e477 8e24 31a6 c6b8
000001d0: 8e0d fd36 0b18 1280 7572 15b7 c38e fc36
000001e0: 0cc2 9935 a846 571b 8f5e b735 236e 03b8
000001f0: bcbf 2138 217f 2f00 0a2c 1338 48b8 1935
00000200: b815 6c35 dafe 0180 d41f 8233 eada b120
00000210: ef3d 5336 d0fe 4d80 9316 49b7 4ae7 901c
00000220: ee38 36b8 4c1c dfa8 d37f fc36 0005 fa23
00000230: 0108 51b8 9c1c 70b9 d4e5 8c37 911c 70b9
00000240: 18a1 77b9 f611 1138 b213 2737 def3 3236
00000250: 87eb 36b8 7bf5 2238 de72 73b7 dc2d 27b7
00000260: 7371 ba36 2e39 70b9 e850 d023 a11c 70b9
00000270: 6f08 1ab8 e151 4a39 9f1c 70b9 6165 6eb9
00000280: f0a3 6eb9 795c 6db9 3607 5900 b4a7 5600
00000290: 1d5d 0926 5a81 02bb f9fc 4121 a1aa c6b8
000002a0: 48ee fc36 6a93 1e00 e74f 16b7 3f95 fc36
000002b0: d1c9 9935 9b51 8bb3 bff1 b835 3c83 03b8
000002c0: 9cd2 2138 4379 6f00 b678 2738 0f87 d233
000002d0: 71a9 97b5 80cd c2ab d87f a438 f67c fa9f
000002e0: 3ca4 5236 9582 84a4 eaff 48b7 2011 199e
000002f0: 4681 23b8 30eb 8519 136f fc36 2d99 0d80
00000300: 793b 51b8 961c 70b9 c2e5 8c37 8e1c 70b9
00000310: 05eb 2038 0bbf 0a38 e99f 7537 68bb de36
00000320: 1658 2839 e406 1b38 bc84 a6b7 0ed6 34b6
00000330: ca3e 4937 d9d4 70b9 419a 7880 a91c 70b9
00000340: e76a 6eb8 2293 c237 921c 70b9 1b19 71b9
00000350: 5e30 71b9 d514 70b9 7f5a 0a80 682d 2600
00000360: 9ac9 a01a 4353 4cad dacb adac f4a9 c6b8
00000370: f08c fd36 9b2e 1300 bd91 15b7 7e85 fc36
00000380: efcd 9935 8219 6b80 edd9 b835 2f7c 03b8
00000390: 5095 2138 63c4 7800 379c 2d38 705d 2d80
000003a0: 4d87 02b8 e244 0500 3488 60b6 24e8 ccab
000003b0: ede8 5136 4df7 5180 ccf7 48b7 00f2 c029
000003c0: fc3b 24b8 ce8c 1080 56ca 36b8 726c 0838
000003d0: cf45 51b8 781c 70b9 d5e5 8c37 a31c 70b9
000003e0: 00fb 3cb8 45b7 0c38 a4da 8c37 2356 9436
000003f0: eff1 16b6 8828 2738 5ec9 2cb7 f2fd 55b7

fc1.bias f4 [256]
-0.0002289886 -0.0022424706 -5.790976e-07 2.4838573e-05 -1.4995644e-06 -4.27599e-09 -0.18489814 -2.4391765e-08
-0.07163281 -0.00624047 -5.017526e-06 -1.1357979e-06 0.02695622 -0.00061518414 -3.0381048e-05 -1.4289268e-05
-0.005599709 -0.001557552 -0.28324777 0.026620584 -0.0054515013 -4.0178508e-16 -0.013246283 -0.00029087608
-5.8872265e-06 -7.126747e-08 -0.005274246 -0.001072598 -1.3844873e-07 -0.030490942 -0.14615798 -0.001600317
-2.570074e-05 -1.6335414e-05 -0.009780231 -0.00039809968 -2.7706146e-05 -0.09046294 -0.0005391203 -6.163636e-05
-1.7890838e-05 -3.6853191e-07 -9.913429e-06 -0.0011270848 -7.726285e-06 -0.029393677 -0.4325609 -1.7044569e-07
-0.10445321 -3.906082e-06 1.8566127e-06 -0.0107686855 6.1566805e-09 -0.08518124 -0.003249987 -7.164057e-06
-7.7828105e-08 -4.0443338e-06 -4.2133826e-05 -0.00013886343 -2.6528743e-10 -8.8823865e-05 -0.0002840208 -0.03212478
-0.07523009 0.5136307 -0.021123582 -0.017169362 -0.037075188 -3.308295e-08 -0.00080358225 -1.7463295e-06
-0.00059015845 -1.3778484e-07 -0.00044477225 -3.4295039e-12 -0.05707984 -2.495397e-11 -1.4370809e-07 -4.8026894e-09
-6.562175e-09 -0.0011037848 -1.1312723e-05 -5.4079e-05 -8.720053e-08 -5.6981446e-07 -0.00013864896 -2.4811901e-05
-3.175406e-06 0.0030663684 -5.564268e-08 -0.0030322615 -3.3270888e-05 -4.597416e-07 0.07669838 -0.03579629
-0.00306043 -2.441217e-08 -3.240164e-05 -0.059751704 -0.26863334 0.39090973 0.0012980229 -6.519427e-05
-0.053321667 -0.0025754904 -0.0007729684 -1.9348835e-10 -0.0003990227 -0.00015061615 0.42566633 -0.015027917
-8.2212537e-10 -0.0001581353 -0.040460836 -0.09802875 -4.6852108e-08 -0.00019168245 -9.6164285e-08 -0.00026267456
-0.010783383 -0.011685878 -0.0003331373 -1.2610396e-07 0.1852773 -5.0617945e-07 -0.0005064001 5.810654e-05
-1.1029181e-13 -1.2010057e-06 -0.00011263089 -8.238805e-07 -9.010726e-08 -0.00029155778 -6.321699e-05 -0.005427835
-2.9874336e-08 -0.00055821677 -4.3776636e-06 -0.000527469 -0.0022380445 -6.5459703e-06 2.1502065e-06 0.004504129
-1.1699158e-06 -0.01288167 -0.015097821 -0.00016748921 -0.00063746003 -0.011079151 -0.000348014 -1.2051682e-06
-5.24163e-05 -0.016004642 -2.1704693e-05 -9.836674e-07 -0.0005777836 -3.342494e-07 -0.0061137024 -1.50413125e-05
3.5637268e-07 -5.991614e-06 -3.6232184e-06 -0.0029519722 -1.7923142e-09 -0.026040904 -1.0552705e-09 -2.8908914e-07
-5.4665037e-07 -1.0915633e-07 -2.7219969e-05 -0.0072754435 -1.3548887e-06 -0.0009234248 -0.0013887461 -3.2945625e-06
-2.5213238e-09 -0.17220639 -1.3452163e-09 -0.20030087 -0.000464634 -0.004680298 -0.07622142 -0.0040597213
-3.8283673e-08 -9.5007755e-07 -0.00029412017 -1.503994e-07 -0.007098593 -4.820857e-06 -3.448979e-05 4.1886415e-07
-0.08356665 -5.197704e-05 -0.00051379326 -3.2862902e-06 0.000111655216 -0.1263204 -0.034079187 -0.00017644583
-3.3746646e-06 -0.035128687 -2.3555198e-05 -0.0021971904 -0.0007685069 -0.0008908723 -2.6985795e-08 -1.0621086
-0.06991475 -2.4516065e-09 -0.0011680255 -0.00048038547 -0.10194117 -4.1370362e-07 -0.0018709287 2.6536072e-05
-1.5668937e-05 -1.8129159e-10 -7.400934e-05 -0.019274676 0.03334333 -0.48874596 -0.0021193444 -7.228914e-07
-4.1989937e-05 -2.281299e-05 -0.005233786 -0.00016850785 0.26037547 -0.002006336 0.7999623 -0.00020201768
-1.8427729e-06 -0.00012690986 0.0019248386 -0.20434162 -1.0817243e-06 -0.019820916 0.26321292 0.0084473975
-0.009863997 -0.0029557103 -0.12760763 -0.0002328175 -0.031308413 -0.0054569314 -0.00065697724 -0.0053746365
-2.7898766e-05 -0.0003526311 -0.00013347395 -1.6894704e-11 -0.0006972619 0.040559147 0.00046628108 -9.028417e-05
00000000: a91c 70b9 6af6 12bb 4973 1bb5 6e5c d037
00000010: a444 c9b5 01ec 92b1 f055 3dbe 0f86 d1b2
00000020: 39b4 92bd db7c ccbb 385c a8b6 b871 98b5
00000030: 4ad3 dc3c 4f44 21ba ceda feb7 f0bb 6fb7
00000040: c47d b7bb c626 ccba da05 91be 6913 da3c
00000050: 82a2 b2bb 039d e7a5 f006 59bc ba80 98b9
00000060: e48a c5b6 b50b 99b3 95d3 acbb 6b96 8cba
00000070: 7fa8 14b4 24c8 f9bc 70aa 15be bac1 d1ba
00000080: eb97 d7b7 0908 89b7 433d 20bc 09b8 d0b9
00000090: 7f6a e8b7 a244 b9bd c053 0dba c542 81b8
000000a0: 4814 96b7 a4da c5b4 da51 26b7 b1ba 93ba
000000b0: 24a0 01b7 02cb f0bc 9f78 ddbe c103 37b4
000000c0: 91eb d5bd fd10 83b6 ba30 f935 246f 30bc
000000d0: bc8a d331 8173 aebd bcfd 54bb c862 f0b6
000000e0: 7422 a7b3 90b4 87b6 dab8 30b8 de9b 11b9
000000f0: e3d7 91af f346 bab8 a0e8 94b9 4695 03bd
00000100: 3c12 9abd 4d7d 033f 5d0b adbc c3a6 8cbc
00000110: 27dc 17bd 1717 0eb3 7ea7 52ba 6d63 eab5
00000120: ddb4 1aba 02f2 13b4 5230 e9b9 7354 71ac
00000130: 8dcc 69bd 587f dbad 2e4e 1ab4 e704 a5b1
00000140: 8079 e1b1 dfac 90ba c6cb 3db7 e2d2 62b8
00000150: 0043 bbb3 5af5 18b5 4c62 11b9 2723 d0b7
00000160: 0f19 55b6 20f5 483b c6fb 6eb3 e8b8 46bb
00000170: 588c 0bb8 68d2 f6b4 0a14 9d3d 219f 12bd
00000180: 7f91 48bb eeb2 d1b2 ffe6 07b8 34be 74bd
00000190: 4f8a 89be 5225 c83e 6c22 aa3a e8b8 88b8
000001a0: d267 5abd 8fc9 28bb 08a1 4aba 21be 54af
000001b0: ec33 d1b9 b7ee 1db9 f0f0 d93e a737 76bc
000001c0: eefb 61b0 1fd1 25b9 43ba 25bd 4cc3 c8bd
000001d0: 703a 49b3 5efe 48b9 e082 ceb3 95b7 89b9
000001e0: c9ac 30bc 2076 3fbc eea8 aeb9 3167 07b4
000001f0: 55b9 3d3e 63e0 07b5 efbf 04ba 6cb7 7338
00000200: e65a f8a9 3e32 a1b5 4034 ecb8 a328 5db5
00000210: fd80 c1b3 39dc 98b9 5d93 84b8 fbdb b1bb
00000220: 2e4f 00b3 4b55 12ba d8e3 92b6 d845 0aba
00000230: 28ac 12bb 75a5 dbb6 444c 1036 5f97 933b
00000240: 0006 9db5 a40d 53bc da5c 77bc 0ba0 2fb9
00000250: 381b 27ba 5485 35bc a675 b6b9 44c1 a1b5
00000260: 93d9 5bb8 2b1c 83bc 7912 b6b7 8e06 84b5
00000270: 6776 17ba e372 b3b4 7455 c8bb f259 7cb7
00000280: 7d53 bf34 930b c9b6 6b26 73b6 e075 41bb
00000290: 7355 f6b0 bc53 d5bc 0809 91b0 1c34 9bb4
000002a0: 87bd 12b5 5469 eab3 7056 e4b7 d866 eebb
000002b0: 9fd9 b5b5 fd11 72ba 9606 b6ba 2718 5db6
000002c0: 9943 2db1 df56 30be 97e2 b8b0 ac1b 4dbe
000002d0: 1f9a f3b9 2f5d 99bb fa19 9cbd 6907 85bb
000002e0: 586d 24b3 d508 7fb5 2434 9ab9 797d 21b4
000002f0: 509b e8bb d9c2 a1b6 21a9 10b8 40e0 e034
00000300: fe24 abbd ec01 5ab8 15b0 06ba 098a 5cb6
00000310: 7028 ea38 235a 01be 9e96 0bbd 5104 39b9
00000320: 4c78 62b6 19e3 0fbd 6798 c5b7 bdfe 0fbb
00000330: a075 49ba 6e89 69ba 64ce e7b2 2df3 87bf
00000340: 772f 8fbd 1e79 28b1 6f18 99ba 3fdc fbb9
00000350: 88c6 d0bd fe1a deb4 f339 f5ba c899 de37
00000360: c970 83b7 0c55 47af 7635 9bb8 ede5 9dbc
00000370: 0493 083d e93c fabe b3e4 0abb b80c 42b5
00000380: 5a1e 30b8 865e bfb7 2e80 abbb 7bb1 30b9
00000390: ef4f 853e bc7c 03bb 54ca 4c3f b5d4 53b9
000003a0: 3255 f7b5 1b13 05b9 de4a fc3a ee3e 51be
000003b0: c42f 91b5 795f a2bc d8c3 863e f466 0a3c
000003c0: 9a9c 21bc 97b4 41bb 93ab 02be 7920 74b9
000003d0: 403d 00bd 0fd0 b2bb ff38 2cba b81d b0bb
000003e0: 2508 eab7 58e1 b8b9 24f5 0bb9 7e9b 94ad
000003f0: 74c8 36ba 5921 263d 3077 f439 f256 bdb8

fc2.weight f4 [256, 256]
-4.669587e-11 6.0745526e-33 -9.035555e-12 -3.8373507e-10 1.3491372e-09 1.5714204e-13 -5.385603e-05 -9.237897e-12
3.1208413e-07 4.276746e-08 1.8601462e-18 -2.3441612e-21 2.0341559e-10 -3.155997e-08 -3.0035903e-09 -8.0482795e-22
-5.5900852e-08 -1.3413491e-11 -3.444287e-08 -1.4101625e-09 -3.7455125e-16 -5.373e-42 -4.6752146e-05 -2.9869815e-07
2.9732144e-11 1.953955e-13 -6.7082387e-06 9.044841e-07 -9.837119e-25 3.3712098e-07 -0.00021338035 -3.872944e-09
-2.7480865e-12 -6.4346584e-10 -3.544131e-11 3.109073e-10 5.5874856e-09 -1.0028058e-20 -1.5625411e-12 -1.2461837e-16
3.2993794e-09 -3.040976e-15 -4.7934386e-11 1.2123312e-08 -1.6473725e-11 -5.0205843e-05 1.0270803e-07 3.0153544e-38
-4.6474444e-05 2.7966011e-11 1.0375101e-11 3.1020166e-18 1.6006678e-15 0.00010890476 -3.0437175e-07 -7.6757024e-11
2.0071247e-13 1.6216239e-17 -1.8551549e-19 -7.825765e-20 -4.1407614e-29 4.6943473e-11 6.897829e-11 -9.141029e-10
-2.0101855e-07 -0.00028195884 1.3186757e-10 -9.8831115e-06 -3.3593857e-05 3.3644718e-14 -3.319036e-08 1.6069054e-31
-4.801497e-11 2.422728e-25 -4.6718552e-07 -1.0749718e-20 -3.0383586e-07 7.751495e-18 2.1396076e-09 -2.3924202e-16
2.2472597e-15 1.07437115e-10 2.3429407e-12 -1.7885014e-13 -4.7671336e-15 -1.939301e-08 4.8841875e-10 2.22365e-09
7.2290524e-13 -4.8556115e-07 6.7127873e-22 -8.431178e-27 -3.1306288e-10 8.0954e-41 -1.7195804e-06 -0.00017119317
2.733636e-09 -1.96512e-40 4.0830756e-08 6.767657e-06 2.1869386e-12 -0.00033730236 -1.0991352e-09 4.8320355e-19
-6.920345e-05 5.268156e-07 -2.456421e-07 -1.5426071e-15 -1.245251e-18 -7.780668e-08 -0.00519538 7.31888e-07
-1.2012951e-16 -5.5503946e-08 -1.3641765e-07 -0.00017591013 -7.382858e-10 3.8384828e-19 2.3018979e-11 5.267821e-11
3.662184e-10 -0.00051214057 -6.3063e-08 -2.0699478e-13 0.0001301287 2.118956e-11 -4.0622528e-08 -1.4181114e-09
-1.4135079e-22 8.1235185e-19 5.4023452e-09 3.0922548e-12 3.8757062e-13 1.6736581e-15 7.642466e-39 -6.7682326e-10
8.400175e-12 -3.5568315e-09 7.441145e-22 2.747995e-10 3.919114e-20 7.525913e-17 5.400093e-27 -5.7183904e-16
1.4747414e-10 -4.866154e-07 9.868462e-17 -4.1268888e-17 -2.1841409e-09 2.4028854e-09 6.43414e-07 -4.6589425e-12
4.1080872e-10 1.5291649e-08 -4.2253527e-14 -1.9355966e-13 6.6373775e-18 6.1891356e-13 8.577818e-08 5.299482e-21
-1.028665e-10 9.0244694e-20 2.5101362e-11 -4.1739867e-08 -3.53997e-17 2.455045e-20 2.198352e-18 1.3991423e-11
1.369353e-11 5.446783e-23 3.8597552e-16 6.2947104e-12 4.9092115e-15 7.360899e-08 -3.0680952e-10 4.984057e-18
-1.3592077e-14 -0.00042295325 -6.429116e-14 8.2942104e-05 2.7580197e-06 -6.4554737e-12 2.8246368e-06 -1.2447365e-10
-7.925095e-18 -5.7513803e-13 3.7754546e-09 2.7319803e-18 -1.4151864e-06 -7.861241e-11 3.331152e-19 7.952828e-09
-5.824844e-07 -3.7293127e-11 -1.1045546e-08 -7.032352e-22 1.8009762e-11 -2.7048205e-05 9.272194e-11 2.848346e-16
-3.13892e-08 1.7577737e-07 -4.148673e-10 -3.2941247e-15 -1.4022115e-10 -9.006731e-09 1.270744e-13 -2.1753838e-05
5.7559934e-08 -8.871661e-13 -4.680036e-10 6.146943e-09 -1.6176717e-08 8.2796725e-13 6.329396e-15 1.0283022e-08
-4.4862386e-12 -1.353797e-39 -3.1332772e-10 1.0304563e-05 5.4462153e-06 -2.1793669e-05 2.1555883e-07 1.9180124e-12
1.9670644e-19 7.087173e-20 -5.948779e-07 -2.6974234e-15 -0.0021995655 7.577831e-09 -0.00096080924 1.7747222e-08
8.394553e-29 5.932985e-09 -1.4804249e-05 -9.5459144e-20 -4.631077e-16 6.3274066e-09 -0.00079332164 -2.2905226e-07
-1.544183e-05 5.171223e-08 2.9683997e-07 -4.2931429e-19 -3.1647292e-07 -9.043962e-19 -4.2237527e-08 -1.3497616e-12
-8.243909e-29 4.9050505e-20 2.101191e-09 -6.825615e-16 -1.4975854e-17 -1.9302974e-05 -7.0961994e-07 -1.0280464e-08
00000000: e05e 4dae b953 fc09 86f4 1ead e9f5 d2af
00000010: 8c6c b930 1ced 302a 79e3 61b8 ca83 22ad
00000020: 848c a734 52af 3733 2b41 0922 ac1e 319d
00000030: 66a8 5f2f 8e8c 07b3 b867 4eb1 8c3e 739c
00000040: a317 70b3 fef8 6bad 56ee 13b3 afcf c1b0
00000050: 02ea d7a5 fa0e 0080 bc17 44b8 c35c a0b4
00000060: 6bc3 022e ebfe 5b2a 5517 e1b6 adcb 7235
00000070: d838 9897 8efd b434 dabe 5fb9 c712 85b1
00000080: 2061 41ac e2df 30b0 5edf 1bae 50ec aa2f
00000090: 0bfc bf31 b76c 3d9e 7ae8 dbab daac 0fa5
000000a0: 4cbb 6231 1b20 5ba7 52d1 52ae e446 5032
000000b0: 88e7 90ad 1d94 52b8 5690 dc33 e82b 2401
000000c0: 8eed 42b8 dcfd f52d 4d85 362d 70e3 6422
000000d0: 38ae e626 cc63 e438 8968 a3b4 5dca a8ae
000000e0: 6efb 612a 8391 9523 9e04 5ba0 d9c7 b89f
000000f0: 28f6 5190 a775 4e2e 53af 972e 4644 7bb0
00000100: 8fd7 57b4 e0d3 93b9 6cfd 102f a4cf 25b7
00000110: 21e7 0cb8 b885 1729 308d 0eb3 9796 500c
00000120: 0d2c 53ae a8f5 9516 7dd1 fab4 720e 4b9e
00000130: e21e a3b4 66fd 0e23 6008 1331 e4e9 89a5
00000140: a0ee 2127 b841 ec2e abde 242c 0b5e 49aa
00000150: 0cc1 aba7 ae95 a6b2 6a41 0630 ddce 1831
00000160: d07a 4b2b 8257 02b5 ade1 4a1c 27ff 2694
00000170: af1b acaf abe1 0000 55cc e6b5 5182 33b9
00000180: a2da 3b31 cc23 0280 e45d 2f33 bb15 e336
00000190: 62e4 192c f5d7 b0b9 6210 97b0 d49d 0e21
000001a0: 5221 91b8 7e6a 0d35 cbe0 83b4 2850 dea6
000001b0: 41c4 b7a1 ad16 a7b3 023e aabb f676 4435
000001c0: f97f 0aa5 3c63 6eb3 337a 12b4 8474 38b9
000001d0: 3ff0 4ab0 8395 e220 227a ca2d 64ae 672e
000001e0: a854 c92f 2c41 06ba 406d 87b3 2f0e 69aa
000001f0: 2873 0839 a662 ba2d f178 2eb3 5ce7 c2b0
00000200: f3e1 2a9b 92c3 6f21 889f b931 1c99 592c
00000210: d02e da2a 1633 f126 1638 5300 340b 3ab0
00000220: 06c7 132d 716c 74b1 12e5 601c 9712 972f
00000230: 2e13 391f 2689 ad24 73eb d513 46d2 24a6
00000240: 4826 222f f59f 02b5 1e8d e324 b451 3ea4
00000250: d017 16b1 0220 2531 13b7 2c35 06ec a3ac
00000260: 30d8 e12f b15a 8332 004b 3ea9 c6ed 59aa
00000270: 42e0 f422 6c35 2e2b 0e35 b833 7235 c81d
00000280: b134 e2ae 9215 d51f 3ecb dc2d 7845 33b3
00000290: 9740 23a4 59df e71e b235 2222 c423 762d
000002a0: 2de6 702d f4b1 831a ef7f de25 b679 dd2c
000002b0: 7cdf b027 f812 9e33 9aab a8af 16e1 b722
000002c0: 64da 74a8 d3bf ddb9 55c5 90a9 34f1 ad38
000002d0: 6b16 3936 bd21 e3ac e48e 3d36 38dc 08af
000002e0: 3431 12a3 10e3 21ab 40b9 8131 a695 4922
000002f0: 6ff1 bdb5 dade acae f2a2 c420 e8a0 0832
00000300: 065c 1cb5 5404 24ae d3c2 3db2 308a 549c
00000310: 616a 9e2d 94e5 e2b7 d0e5 cb2e 2b32 a425
00000320: cad0 06b3 51bd 3c34 6213 e4af e05d 6da7
00000330: bf2c 1aaf 06bc 1ab2 b412 0f2a 037c b6b7
00000340: d137 7733 0eb7 79ab d3a4 00b0 1535 d331
00000350: faf4 8ab2 540d 692b 600a e427 36a9 3032
00000360: 72d8 9dac d6bd 0e80 f540 acaf c3e1 2c37
00000370: a2be b636 8cd1 b6b7 5c74 6734 d7f7 062c
00000380: e03a 6820 5557 a71f b3af 1fb5 ae5e 42a7
00000390: 9626 10bb a72f 0232 d1de 7bba 8e72 9832
000003a0: c4d3 d410 17db cb31 c45f 78b7 8365 e19f
000003b0: 517b 05a6 7568 d931 eaf6 4fba 68f1 75b4
000003c0: 1489 81b7 331a 5e33 605d 9f34 246c fda0
000003d0: b5e7 a9b4 1f77 85a1 a768 35b3 49f6 bdab
000003e0: 0702 d190 6ca2 671f 8b64 1031 26bc 44a6
000003f0: bc20 8aa3 d2ec a1b7 b67c 3eb5 f59d 30b2

fc2.bias f4 [256]
-9.192212e-05 -0.005696349 -0.0004806816 0.0042809937 -0.0018553935 0.0027293777 0.00053691084 -0.0017473552
0.0030145561 -0.001042661 -0.021114174 -0.001320654 -0.24227759 0.31861112 -0.0008617622 -0.0015760509
0.06464156 0.2653684 0.00031892586 -0.079366334 1.9452582e-12 -0.0029711234 0.0023102255 0.0010963687
-0.00015589193 0.3008144 -0.0071485313 -0.0019028421 -0.005211984 -0.0027194282 -0.0068015475 0.073554255
0.0067004496 0.0012438707 -0.011062648 -0.00029847934 -9.282504e-10 -0.2504655 -0.0054765 0.01104263
-0.009948997 -0.00034566745 -0.03779858 0.10758404 0.19296202 -0.0058569536 0.0014329966 0.30513504
-0.15000084 -0.0014861848 -0.0009316518 -9.318772e-05 -7.6251104e-05 0.00018512916 0.005358248 -0.000114838025
-0.005094697 0.053892553 0.01460377 -0.010681776 -0.0011738436 0.00015649191 -0.03809943 -0.0006867684
-0.00075491413 0.4277578 0.08415727 0.11473284 0.00041820607 -8.529006e-05 0.0034028552 -0.00021901766
-0.0005382291 -0.0038381983 0.06353846 1.4983525e-06 0.19356462 0.0013004183 -0.0015473058 0.18890019
1.1211694e-06 8.399713e-05 0.05346493 -1.8433212e-08 -0.0010815451 0.222264 -0.00020583029 -0.011040701
-6.318768e-06 0.04637824 -0.0009302236 -0.0029321727 0.1254377 0.0068633165 -0.0018136983 -0.008973732
0.41839114 -3.7518497e-05 0.05585411 0.21108449 0.02740184 0.4371739 0.24270353 -0.012352601
0.006391698 -0.00062703656 -0.00012266298 -0.0003375584 0.0001950911 0.0029565135 -0.0025531508 0.0026840454
-0.0056110695 0.0802344 -0.00241672 -0.0071011554 0.08797804 -0.00033093442 0.08336601 0.077680245
-0.00038893722 0.07452217 0.00046373904 -0.00072916195 -0.06931225 0.004855646 0.2370648 -0.011098788
-0.043607384 -0.00089151267 0.083093554 -0.003695907 -4.9604903e-05 0.12540781 0.069679804 0.0008496678
0.00012867473 -0.010703009 -0.00012970355 0.08164189 0.17628826 -0.037271775 0.0065525416 -0.0015766723
-0.00075509015 0.011522961 0.0839373 0.45816553 -3.6363446e-05 -0.01156095 0.16590886 0.3144649
0.0129940435 0.43695807 0.29905555 0.0013904788 -0.002590898 0.10230143 -0.0012344411 1.6463337e-05
3.664624e-06 -0.0041626724 0.024009662 -9.9572986e-05 0.006093929 0.00031324872 -0.00044549754 -0.0003819539
-0.0010912357 0.045982145 0.018083781 0.49042878 2.5421464e-08 -6.7861e-05 0.08128404 -0.34306902
-0.04421929 -0.041843053 0.19650495 0.05359029 -0.0002661734 -0.00038974435 0.0030749806 0.00036088974
-0.01888446 -0.0012740656 0.0126488805 0.0798673 0.23372827 -0.0003138747 -0.002691321 0.0107792495
1.15520215e-05 -0.0006731507 0.0050823055 -8.3089635e-06 -4.642846e-10 -0.005545823 0.028690204 0.17081442
-0.014797622 -0.00012756116 0.14719668 0.01852161 -0.029285783 -0.0044990713 -0.0078097037 -0.00038852295
-0.00057336246 0.2754347 0.025834827 0.004619844 -0.036890358 -0.0024545963 0.012398018 -0.00018282683
-0.0064751697 0.012085546 0.092447154 -0.028948735 0.0031286196 0.17920613 -0.00014653163 -6.243756e-05
0.21866345 0.0018456478 0.38004556 0.0029657532 -0.00047290704 0.0009047793 -0.03369523 -0.004217694
0.009230501 0.07441684 0.00034663422 -0.0036273852 9.3730705e-06 0.13330774 -0.058886454 0.19333152
0.008512663 0.0033071672 4.9442133e-05 -5.6388013e-05 -0.0007269071 -4.740558e-06 -9.877598e-05 0.0028511344
0.0006764483 0.19062017 0.0061996505 -0.00076058385 -5.287089e-05 0.0008809492 0.00035561618 -0.012540216
00000000: 50c6 c0b8 70a8 babb fe03 fcb9 9447 8c3b
00000010: ad30 f3ba 5cdf 323b 7abf 0c3a 8307 e5ba
00000020: dc8f 453b e6a9 88ba a2f7 acbc cb19 adba
00000030: 9e17 78be ff20 a33e e2e7 61ba 7e93 ceba
00000040: cb62 843d 5ede 873e 8135 a739 d18a a2bd
00000050: a8e2 082c 2eb7 42bb 2767 173b 07b4 8f3a
00000060: ec76 23b9 5804 9a3e 3a3e eabb c968 f9ba
00000070: 4ac9 aabb 6f38 32bb 84df debb 9da3 963d
00000080: 728f db3b 6009 a33a 1c40 35bc 387d 9cb9
00000090: d127 7fb0 043d 80be 3674 b3bb 26ec 343c
000000a0: 1e01 23bc b33a b5b9 afd2 1abd 0555 dc3d
000000b0: d697 453e b0eb bfbb 63d3 bb3a a93a 9c3e
000000c0: d299 19be 16cc c2ba 183a 74ba c76d c3b8
000000d0: 00e9 9fb8 3b1f 4239 3e94 af3b 32d5 f0b8
000000e0: 6af1 a6bb 70be 5c3d a744 6f3c 9e02 2fbc
000000f0: a8db 99ba fa17 2439 260e 1cbd 3f08 34ba
00000100: 6ee5 45ba 1203 db3e a65a ac3d 0df9 ea3d
00000110: ab42 db39 c1dd b2b8 7002 5f3b 1ba8 65b9
00000120: f217 0dba 488a 7bbb 7420 823d 001b c935
00000130: ce35 463e cc72 aa3a f8ce caba 0d6f 413e
00000140: 167b 9635 9e27 b038 0bfe 5a3d 1057 9eb2
00000150: a2c2 8dba 2d99 633e 26d4 57b9 0ee4 34bc
00000160: ce05 d4b6 1cf7 3d3d 40da 73ba b229 40bb
00000170: be72 003e ace5 e03b 9eb9 edba 8f06 13bc
00000180: 5d37 d63e 2e5d 1db8 47c7 643d 8826 583e
00000190: d379 e03c 42d5 df3e 4687 783e 9062 4abc
000001a0: 7371 d13b b65f 24ba 189f 00b9 52fa b0b9
000001b0: 5e91 4c39 11c2 413b c352 27bb cfe6 2f3b
000001c0: 10dd b7bb ef51 a43d d561 1ebb cfb0 e8bb
000001d0: d52d b43d 4481 adb9 ccbb aa3d d216 9f3d
000001e0: 45ea cbb9 149f 983d 0022 f339 3b25 3fba
000001f0: 95f3 8dbd 1c1c 9f3b 1dc1 723e b1d7 35bc
00000200: a89d 32bd 67b4 69ba f42c aa3d 0837 72bb
00000210: dc0e 50b8 e86a 003e 49b4 8e3d 3ebc 5e3a
00000220: dcec 0639 ac5b 2fbc 0801 08b9 dd33 a73d
00000230: e984 343e 4aaa 18bd b4b6 d63b 58a8 ceba
00000240: 3ef1 45ba cdca 3c3c 52e7 ab3d ac94 ea3e
00000250: f484 18b8 246a 3dbc 03e4 293e 8b01 a13e
00000260: f8e4 543c f8b8 df3e cf1d 993e ba40 b63a
00000270: 0ecc 29bb 6a83 d13d f8cc a1ba bf1a 8a37
00000280: c3ed 7536 0767 88bb e9af c43c d7d1 d0b8
00000290: 95af c73b 883b a439 ab91 e9b9 fc40 c8b9
000002a0: cb07 8fba c657 3c3d 7024 943c 7b19 fb3e
000002b0: 645e da32 9950 8eb8 3f78 a63d bea6 afbe
000002c0: 491f 35bd 9f63 2bbd 9838 493e 7e81 5b3d
000002d0: 308d 8bb9 9a56 ccb9 9d85 493b cd35 bd39
000002e0: 95b3 9abc 8cfe a6ba 403d 4f3c 7891 a33d
000002f0: 7756 6f3e 8d8f a4b9 e060 30bb 739b 303c
00000300: 8ecf 4137 6176 30ba 7889 a63b ba66 0bb7
00000310: 403e ffaf bcb9 b5bb b807 eb3c fae9 2e3e
00000320: ba71 72bc f0c1 05b9 baba 163e a2ba 973c
00000330: bde8 efbc f26c 93bb 8be8 ffbb abb2 cbb9
00000340: b44d 16ba c705 8d3e 8fa3 d33c 0f62 973b
00000350: 581a 17bd 4bdd 20bb 0e21 4b3c 34b5 3fb9
00000360: a92d d4bb 7402 463c ef54 bd3d e625 edbc
00000370: 8709 4d3b d081 373e 49a6 19b9 e9f0 82b8
00000380: 50e9 5f3e aae9 f13a 5595 c23e 155d 423b
00000390: 82f0 f7b9 b62e 6d3a 0204 0abd 9534 8abb
000003a0: 873b 173c db67 983d 75bc b539 6db9 6dbb
000003b0: 0841 1d37 d381 083e ec32 71bd b3f8 453e
000003c0: b278 0b3c 0fbd 583b 1660 4f38 2b82 6cb8
000003d0: e98d 3eba 1511 9fb6 f325 cfb8 19da 3a3b
000003e0: ad53 313a ef31 433e 7026 cb3b eb61 47ba
000003f0: b0c1 5db8 80ef 663a ff71 ba39 7a75 4dbc

fc3.weight f4 [256, 256]
6.871955e-21 6.533769e-20 1.3875096e-18 -9.035029e-30 -1.448553e-18 5.9423633e-21 9.278267e-29 -9.463166e-19
8.0211766e-28 7.8104404e-29 -1.7169722e-18 3.125416e-22 1.9475093e-21 -2.5382201e-08 7.5074735e-21 -8.898022e-22
1.538131e-21 -0.00010816058 -6.8110705e-11 -2.448236e-19 -1.4202946e-30 2.8740834e-23 -3.3251735e-27 1.2215438e-33
3.7891746e-32 -3.2719062e-19 2.1248992e-28 -1.1343994e-09 2.8349372e-19 -3.5266866e-22 -1.7988758e-11 -7.2820854e-05
-1.851839e-24 4.16832e-14 3.216151e-32 -2.826189e-33 -5.235412e-32 -4.970171e-24 5.420947e-22 -3.3062107e-31
-1.5e-40 -7.315532e-21 3.5796745e-35 -1.5627131e-27 -0.002228059 2.153428e-21 -3.3126427e-21 9.901817e-24
6.3099512e-27 -1.9852792e-22 1.8373826e-18 -1.3517537e-31 3.6881393e-19 -1.8970267e-19 -1.0547362e-25 -1.4444232e-19
-1.6347796e-15 -1.6014796e-26 2.5794377e-23 5.022273e-25 3.727649e-20 1.9722108e-22 2.2699398e-22 -9.8109425e-33
-1.5010267e-22 -2.4196493e-21 8.949291e-19 -3.161915e-19 2.1915924e-21 -4.227208e-22 -2.5330955e-24 -7.341634e-20
1.5516028e-21 -1.5934094e-23 0.0004597891 -5.169751e-20 -4.908648e-19 -8.707001e-22 1.0074e-39 -0.0033373644
1.5382566e-21 -3.9141192e-36 -1.9338633e-09 -3.792968e-31 2.0107395e-32 -2.580533e-07 -1.890338e-24 -5.6604733e-21
1.6390172e-28 2.2978258e-31 -7.719267e-11 2.3112179e-20 -3.6418223e-07 -2.328917e-28 4.657788e-25 4.9934605e-31
1.0190849e-21 -1.7420991e-23 -7.410386e-06 -0.0013840201 -1.1437787e-06 -4.23892e-08 -3.2138688e-13 -2.866879e-21
9.448059e-16 2.2710515e-13 -3.9040033e-06 -4.075864e-18 -3.3426058e-25 -1.1659161e-21 3.9855765e-34 3.6475647e-23
4.613414e-31 1.03917594e-22 5.3583543e-33 -2.493728e-29 -4.8399634e-06 5.224982e-16 9.421834e-21 2.3020657e-25
-2.3066162e-22 -7.525005e-23 -4.6943198e-31 7.434771e-21 -7.7796026e-19 3.3507348e-22 2.2512305e-20 -1.6531487e-28
-1.124896e-20 -6.786077e-21 -2.9747811e-05 -4.49695e-29 -2.0009563e-22 1.2900996e-19 -5.47118e-21 3.419645e-19
-3.317732e-23 -1.3062188e-21 -2.0216025e-22 -4.2720272e-05 -3.9584313e-05 1.5601653e-24 -8.071352e-23 1.0901189e-24
1.6113049e-29 -5.83677e-12 -6.519985e-25 1.6825282e-21 -8.436738e-20 -9.3162816e-21 2.8571524e-25 2.5692428e-18
3.756176e-29 2.4468522e-19 -2.0481493e-06 -9.7556e-32 4.3707132e-29 -2.0040812e-18 5.047843e-06 5.4623725e-20
-6.8117667e-09 -1.0242725e-20 -1.2241296e-28 -6.3379726e-22 -3.145693e-29 3.582688e-21 -2.15656e-30 -9.427126e-22
3.2947358e-31 -3.0961616e-26 -1.1704232e-21 2.697712e-22 9.571458e-24 -1.6792795e-21 9.127356e-11 -5.11992e-30
-6.7557953e-06 4.5658773e-31 8.567188e-22 2.0881462e-28 -5.4054127e-28 -1.3222366e-10 6.714579e-25 -3.0236e-22
6.2993726e-29 3.1971432e-31 -5.0708435e-29 1.608585e-29 -0.00026139905 5.3009482e-17 -9.1131954e-26 -1.435873e-20
-5.7630264e-30 9.529248e-20 -1.3199185e-22 3.6441855e-19 6.0322423e-09 6.7457823e-21 3.297119e-24 2.2993113e-17
3.6669055e-24 1.4439167e-30 -0.004821288 -3.1996272e-26 -5.305345e-20 2.438446e-21 -8.535461e-30 5.288698e-19
2.7598745e-20 -0.0026738164 7.1159855e-32 -7.5763004e-22 -2.4725018e-21 1.520698e-22 2.125639e-18 3.488843e-30
-6.6759243e-21 2.522573e-32 2.9594687e-21 8.520811e-18 -1.5114902e-28 -5.517776e-08 -6.3001533e-25 8.565266e-29
-3.0841935e-07 1.6086361e-22 1.9905962e-31 -4.6654558e-29 -2.4099535e-08 -2.046406e-26 3.142852e-20 -4.2103184e-31
-1.920492e-21 -1.452575e-31 -1.3880614e-25 1.963826e-20 -2.160844e-31 -2.211818e-05 1.1216923e-21 -1.868659e-16
6.962003e-30 -5.709995e-29 -6.255457e-21 9.187938e-22 -1.4041954e-35 7.217329e-26 -4.0410513e-36 1.9601545e-24
4.807391e-19 1.6549519e-29 9.714142e-34 -1.3973178e-22 -1.9430984e-21 1.5455738e-22 -1.8881896e-33 4.8111788e-29
00000000: bcce 011e 3646 9a1f a1c2 cc21 8d40 378f
00000010: c9c4 d5a1 037f e01d 653b eb10 d5a6 8ba1
00000020: 8433 7e12 a804 c610 6061 fda1 78eb bc1b
00000030: 4f26 131d 0d08 dab2 eacf 0d1e 8e76 869c
00000040: 906f e81c 45d4 e2b8 ebc6 95ae b284 90a0
00000050: bb74 e68d 6efb 0a1a 44b9 8393 baf6 ca08
00000060: c5be 440b a623 c1a0 76ae 8611 21e9 9bb0
00000070: 5c58 a720 d52c d59b 153b 9ead 66b7 98b8
00000080: 7347 0f98 75b9 3b29 fbfd 260b 65ca 6a89
00000090: 48eb 878b 3146 c098 8cd6 231c d995 d68c
000000a0: 24a2 0180 be2f 0a9e 0154 3e06 2d9f f792
000000b0: a104 12bb 5bb5 221d d44b 7a9d 6c87 3f19
000000c0: 82f6 f913 6a01 709b 2d93 0722 b977 2f8c
000000d0: 96b5 d920 1df6 5fa0 ed91 0296 0387 2aa0
000000e0: b998 eba6 559a 9e94 c977 f919 8c6e 1b17
000000f0: 8308 301f f86c 6e1b 9e35 891b ebc3 4b8a
00000100: 8776 359b d3d2 369d 7711 8421 82a5 baa0
00000110: 9097 251d e084 ff9b 20fd 4398 7459 ad9f
00000120: ba78 ea1c e81a 9a99 d90f f139 7422 749f
00000130: b2e0 10a1 9493 839c 39f8 0a00 afb7 5abb
00000140: 6b74 e81c fc7c a684 e2e4 04b1 7e2d f68c
00000150: a0ce d00a 938a 8ab4 0042 1298 bdd8 d59d
00000160: 26c5 4f11 2e23 950c 9cbf a9ae d249 da1e
00000170: d384 c3b4 d79c 9391 cc26 1017 0c0c 220d
00000180: f0ff 991c 497c a899 bba6 f8b6 0268 b5ba
00000190: f083 99b5 6b0f 36b3 bbec b4aa 819d 589d
000001a0: 2f29 8826 9ab2 7f2a 22ff 82b6 725f 96a2
000001b0: b4e5 ce96 3230 b09c 8971 0408 aa62 301a
000001c0: beb6 150d e041 fb1a cc93 de09 e1e4 fc8f
000001d0: f866 a2b6 9099 1626 32f9 311e b07d 8e16
000001e0: 286d 8b9b 86f1 b59a e256 188d 5970 0c1e
000001f0: 049d 65a1 1c8a ca1b 6a9f d41e be8f 5191
00000200: a27c 549e 742f 009e f08a f9b7 c005 6490
00000210: 99e6 719b de4e 1820 02b2 ce9d 37dc c920
00000220: 886f 209a e463 c59c 9165 749b 8b2e 33b8
00000230: 5507 26b8 846c f117 4027 c39a 0fb0 a817
00000240: de67 a30f f35c cdac a5c8 4997 a841 fe1c
00000250: f434 c79f c6fa 2f9e 63d9 b016 a093 3d22
00000260: f475 3e10 c96f 9020 f072 09b6 1545 fd8b
00000270: 1a9f 5d10 06e0 13a2 a460 a936 04fa 801f
00000280: ef0c eab1 c77a 419e 472d 1b91 b08d 3f9c
00000290: 6e81 1f90 a259 871d 00f6 2e8e 6d75 8e9c
000002a0: 30d7 d50c 8350 1995 8ede b09c 1211 a31b
000002b0: 9023 3919 fbc3 fd9c 72b6 c82e 4ab0 cf8e
000002c0: d7af e2b6 d32b 140d b476 811c 1c5a 8411
000002d0: eb4d 2b92 a761 11af 60ce 4f17 f2c3 b69b
000002e0: 44b5 9f10 a781 cf0c a88f 8090 4121 a30f
000002f0: 630c 89b9 8d76 7424 bda1 e195 479d 879e
00000300: b0c6 e98e c500 e11f 8091 1f9b 601d d720
00000310: 2a44 cf31 34d9 fe1d 2c1a 7f18 f412 d423
00000320: 46db 8d18 f449 ea0d e5fb 9dbb 1870 1e95
00000330: af89 7a9f 683e 381d a61e 2d8f 4618 1c21
00000340: d654 021f 323b 2fbb d6bd b80b c9fa 649c
00000350: 24d1 3a9d 53d7 371b 2fd8 1c22 3886 8d0e
00000360: 9435 fc9d bffa 020b 739c 5f1d 642e 1d23
00000370: a99a 3f91 97fc 6cb3 f5fa 4297 c127 d910
00000380: d594 a5b4 e078 421b 7432 810c 1491 6c90
00000390: 7003 cfb2 8eaa ca94 c06a 141f f5a1 088d
000003a0: b81b 119d 158e 3c8c 6cd5 2b96 667a b91e
000003b0: 2e3f 8c8c 6e8a b9b7 5e81 a91c 1471 57a5
000003c0: c934 0d0f fdc3 9090 1153 ec9d 1dd8 8a1c
000003d0: d651 9585 42b1 b215 27e3 ab84 dca8 1718
000003e0: 9fe3 0d21 02d5 a70f 6467 a108 e4ec 289b
000003f0: fdd0 129d 31d9 3a1b 5add 1c89 acf4 7310

fc3.bias f4 [256]
7.076979e-21 -1.0617041e-18 -4.9027802e-14 -1.8241964e-19 -3.306442e-17 -3.596342e-18 -0.000555394 -4.7190877e-23
-5.92287e-17 0.017566148 5.648185e-10 1.8291226e-30 4.1221944e-07 -0.0010675953 -1.748909e-11 -2.2109919e-32
-0.0015534459 -3.504505e-27 -0.0047719697 -3.2062286e-05 9.912802e-24 2.0729138e-18 2.3822793e-15 3.859592e-12
1.7906811e-36 3.1486333e-19 1.5965707e-16 -0.035746913 1.34901085e-14 0.00094981084 4.3292872e-05 -2.0284583e-07
-3.5648724e-19 -0.009396014 -3.8103494e-09 -6.78872e-05 -0.004565394 4.1898024e-06 -2.2737878e-17 -1.0955657e-10
9.259412e-09 1.45682e-40 7.9591434e-18 1.1725017e-08 1.6586414e-25 -1.8663796e-11 -9.044808e-21 -9.496622e-06
-2.9372083e-32 -1.5295632e-22 -2.8368051e-24 1.1107627e-17 -2.2708285e-17 7.19876e-15 4.5275927e-19 6.1718236e-22
0.06018406 -7.7709933e-32 -4.8001566e-05 -4.1665984e-17 -5.6480785e-21 0.00093243766 -8.332287e-05 0.00025850965
-2.4517868e-17 3.6354848e-08 -1.5756308e-16 -3.7484194e-09 -1.0768082e-15 0.00012413174 8.615287e-24 3.8728348e-12
2.9560593e-17 0.017134024 -3.6953867e-09 -2.2031423e-07 -1.3451466e-18 5.1655576e-31 -1.5163361e-10 1.9582779e-25
-7.809968e-18 -5.8700804e-28 -2.8374958e-16 -1.2161409e-11 -8.52792e-07 4.222894e-36 3.215847e-07 -1.4869424e-05
1.1457586e-37 -8.900595e-12 6.727317e-18 3.8014775e-08 -0.0035788622 -1.4829487e-19 4.0741697e-18 -3.050564e-17
-2.25238e-21 2.6163983e-18 -0.0041770157 1.3930189e-18 -1.1600574e-22 9.504031e-22 1.1734762e-26 -0.0035589768
8.9711284e-05 -0.001620395 -2.5811035e-20 -0.0060553346 3.2712888e-32 6.86995e-23 -2.484053e-17 2.0714241e-16
8.7613854e-11 -6.7087636e-19 -0.00056900736 -1.7306176e-20 5.000267e-10 -0.0052165953 -0.16114053 4.6955063e-07
-1.4956683e-17 1.6506303e-20 1.4187723e-12 -1.8867611e-17 -2.6374388e-16 -0.0023802663 -0.018700108 9.397715e-17
-1.1788162e-09 1.643337e-21 -1.629397e-31 2.0200667e-17 -8.269554e-15 1.7965677e-09 1.0017271e-32 -0.001547433
0.0008907368 9.356867e-15 -1.0227537e-15 -5.041256e-16 -2.0119097e-17 0.0036375683 -6.815797e-08 -5.0449113e-14
-3.2604053e-27 2.9645733e-18 1.3160915e-15 -0.25261378 -2.5515094e-23 -3.939869e-05 4.193384e-06 -0.044051453
1.7132345e-17 0.014298886 2.7815008e-21 0.4699125 1.4612282e-14 3.2146064e-20 3.130523e-28 1.210871e-18
-2.721769e-16 -1.3092221e-22 1.5997688e-11 -0.0019044274 -0.00097418134 0.0013587356 -0.011726975 -3.9851417e-05
-4.114446e-07 -2.6987e-06 0.1469293 3.246703e-17 -6.3828403e-18 -6.283667e-22 -0.0010361671 1.6849872e-31
-2.4776625e-20 6.5584364e-19 -0.0111984685 1.0651705e-07 -9.202308e-22 -0.007844253 -1.9983448e-17 2.1441299e-17
-1.5785449e-25 -1.2764125e-06 -1.34675865e-05 3.3006265e-07 -1.9943333e-16 -0.001384296 1.08334346e-19 -1.3992351e-08
1.6659706e-23 -0.10831436 -7.6747966e-07 3.846138e-18 8.936439e-18 8.66102e-18 -5.7717466e-18 -1.8067906e-20
1.5421908e-25 7.7276237e-31 -2.7980641e-22 0.000108488166 -8.0370584e-16 -2.398803e-17 1.8309378e-17 -0.08740185
1.5162035e-28 -3.4825357e-33 -4.518403e-17 6.9842256e-22 1.1029565e-18 -1.50297e-05 0.0061437907 0.00031397713
6.16044e-22 -1.8261374e-35 -6.209255e-29 -0.001211728 -7.8640546e-20 -6.2784824e-20 0.0017401404 8.312524e-13
1.0178681e-09 -1.0082724e-20 -1.8859788e-19 0.000111889676 0.0025567417 -8.276735e-16 -0.0011598279 9.121853e-31
5.565027e-22 3.7122333e-31 0.021791583 7.215934e-06 -1.13522384e-26 1.5510806e-05 9.908764e-13 2.5224869e-18
-0.0008084332 -0.00012837641 -1.4201623e-07 2.1941916e-05 -1.3571645e-15 -0.7119251 -0.061394237 3.6853154e-18
5.1949693e-18 0.00026189076 4.964121e-26 -0.0013598514 2.6440718e-23 5.3576025e-26 -0.006005477 1.2707187e-20
00000000: 2cae 051e 0cae 9ca1 35cd 5ca9 f45c 57a0
00000010: 947b 18a4 7dae 84a2 dc97 11ba 7a33 649a
00000020: 7492 88a4 e2e6 8f3c 9241 1b30 6465 140e
00000030: 024f dd34 8eee 8bba eed5 99ad 3f9a e58a
00000040: ff9c cbba e7d3 8a93 2f5e 9cbb 9e7a 06b8
00000050: d1bd 3f19 3cf4 1822 4ca9 2b27 1dcc 872c
00000060: 9555 1804 cddc b920 7312 3825 5b6b 12bd
00000070: 2504 7328 bafc 783a 5e95 3538 d6cd 59b4
00000080: d46e d2a0 bdf1 19bc 30ec 82b1 aa5e 8eb8
00000090: 4d99 95bb 2196 8c36 4cb8 d1a3 deea f0ae
000000a0: 5313 1f32 1a96 0100 fed1 1223 2c6f 4932
000000b0: 7254 4d16 222b a4ad 02da 2a9e ae53 1fb7
000000c0: 3282 188b b0e9 389b b77c 5b98 49e6 4c23
000000d0: 6c72 d1a3 6cae 0128 86a1 0521 2c88 3a1c
000000e0: 9083 763d 1cbf c98b 4a55 49b8 8326 40a4
000000f0: dd60 d59d d56e 743a a0bd aeb8 9488 8739
00000100: 2e23 e2a3 9424 1c33 6aa8 35a5 72cb 80b1
00000110: 362f 9ba6 5c29 0239 d6a4 2619 6543 882c
00000120: fd52 0824 a75c 8c3c eef1 7db1 848f 6cb4
00000130: 3482 c6a1 c6a1 270d 11b9 26af 4e6c 7216
00000140: 8811 10a3 c007 3a92 0c92 a3a5 1ef2 55ad
00000150: 6ceb 64b5 3e9f b304 44a6 ac34 b177 79b7
00000160: dcf3 1b02 b794 1cad b631 f822 b045 2333
00000170: 588b 6abb 6013 2fa0 724f 9622 b4ae 0ca4
00000180: 5e2f 2a9d 5e0e 4122 59df 88bb c492 cd21
00000190: 0a3e 0c9b f09e 8f1c 506e 6814 b93d 69bb
000001a0: 6123 bc38 6f63 d4ba 41c7 f39e d46b c6bb
000001b0: e3da 290b ee1a a61a 0b1d e5a3 a6d1 6e25
000001c0: 37aa c02e fc01 46a1 7029 15ba c473 a39e
000001d0: 4072 0930 f9ef aabb 0602 25be 8c16 fc34
000001e0: 78f3 89a3 cbe5 9b1e a9ac c72b e305 aea3
000001f0: ba09 98a5 3efe 1bbb f830 99bc 51b2 d824
00000200: e803 a2b0 8555 f81c 0182 538c 7a51 ba23
00000210: 96f8 14a8 1beb f630 f30c 500a 3cd3 caba
00000220: 5680 693a ef8e 2828 f464 93a6 e74d 11a6
00000230: e090 b9a3 4564 6e3b 3e5e 92b3 de33 63a9
00000240: 7028 8193 35bf 5a22 35ab bd26 9856 81be
00000250: 50c4 f699 0540 25b8 e5b4 8c36 4c6f 34bd
00000260: 9b04 9e23 e045 6a3c 0d2a 521d 5f98 f03e
00000270: a19d 8328 35ce 171f a46b c611 6ab1 b221
00000280: 39e6 9ca5 7646 1e9b 97b7 8c2d fb9d f9ba
00000290: 3460 7fba 9a17 b23a 8022 40bc 2226 27b8
000002a0: 84e4 dcb4 501b 35b6 a274 163e 4eba 1524
000002b0: 397c eba2 85e9 3d9c 00d0 87ba 4eb9 5a0c
000002c0: 3402 ea9e 2592 4121 c879 37bc 5ebe e433
000002d0: b40f 8b9c 2f85 00bc 9550 b8a3 d6c2 c523
000002e0: 166a 4396 3351 abb5 d8f2 61b7 7733 b134
000002f0: 54ee 65a5 4471 b5ba 18cc ff1f 0363 70b2
00000300: 6f1f a119 ebd3 ddbd cd04 4eb5 bfe5 8d22
00000310: 24d9 2423 83c4 1f23 9bf0 d4a2 84a5 aa9e
00000320: fae9 3e16 96c6 7a0d f221 a99b 2484 e338
00000330: 06a7 67a6 2240 dda3 ccdf a823 beff b2bd
00000340: 9e33 4011 aca8 9089 e35f 50a4 d415 531c
00000350: 85c4 a221 1228 7cb7 da51 c93b 4c9d a439
00000360: 1930 3a1c 3030 c285 5e6c 9d90 d8d2 9eba
00000370: 4baf b99f 193f 949f 6c15 e43a 0cfa 692b
00000380: 0de5 8b30 1075 3e9e 36a8 5ea0 50a6 ea38
00000390: 028f 273b 868f 6ea6 5e05 98ba b202 940d
000003a0: 5031 281c 0ef0 f00c 4384 b23c 6720 f236
000003b0: b0da 6094 341d 8237 1674 8b2b 6e20 3a22
000003c0: 09ed 53ba c89c 06b9 207d 18b4 e80f b837
000003d0: 8896 c3a6 b940 36bf 8678 7bbd d2f6 8722
000003e0: 19a9 bf22 624e 8939 b6cf 7515 0b3d b2ba
000003f0: 0cb8 ff19 d7a5 8415 98c9 c4bb 3008 701e

fc4.weight f4 [1, 256]
0.09563269 -0.094982885 0.022026066 -0.31613114 -0.24873824 0.044666827 0.0008279681 -0.099304855
0.15727049 -0.41835004 -0.03716646 -0.05224974 -0.27590245 -0.020121656 0.21001993 -0.3591664
-0.012630073 -0.05140994 0.08530386 0.01669996 -0.076406 -0.0033224337 0.39801228 -0.84919995
0.06491052 -0.16186228 0.8784557 0.32286248 0.69829166 -0.34499204 -0.66080636 0.14671673
-0.17737791 -0.1642861 0.07494498 0.7764483 -0.07175774 0.33993185 -0.043254606 -0.4938198
-0.0013867773 0.17161435 0.3166937 0.0049880426 -0.49767604 -0.2960263 -0.10254217 0.07482852
0.16034816 -0.34252506 -0.061788525 -0.42045927 0.13048849 -0.11378217 0.21016361 -0.3245406
-0.021129139 0.030451013 -0.0057108277 -0.8282451 -0.24487798 0.07354377 -0.051853497 0.26405376
-0.06914318 -0.018850796 0.061711583 0.573816 0.16086051 -0.06323533 -0.34882513 -0.26399672
0.3778976 -0.7902177 1.0291027 1.0264928 -0.62011015 -0.008979431 0.6042233 -0.09819051
-0.31027812 0.0709672 0.62081176 0.62813526 -0.0076198904 0.06819425 -0.018430443 -0.115216106
0.7822185 0.052406844 0.8534217 0.20776054 -0.17522086 -0.22065592 -0.018182311 0.17750877
-0.079003304 0.2065231 0.7739947 0.41880217 -0.058997583 0.019401928 0.07397707 -0.18056206
0.0022747428 -0.002301521 0.28388065 0.24767035 -0.18808033 0.006536569 0.07106487 -0.56454754
0.8531454 -0.16726722 -0.008498507 0.95559764 -0.110629834 -0.054872673 0.43046242 -0.68990135
-0.01809824 0.007136879 -0.2920763 -0.023921974 -0.006630655 -0.41888466 -0.055110835 0.49949813
-0.025725486 0.07156202 -0.10784446 0.00041687526 -0.01762606 0.01928814 0.019622495 -0.17858581
0.57499814 0.017996127 -0.0030063984 -0.27972376 0.15759368 0.4508427 -0.03629067 -0.025513185
0.0958424 0.46653485 -0.22926605 0.12039605 -0.018436052 -0.11523751 -0.0992113 1.3508183
0.36750597 0.0054812995 -0.14986873 0.25824994 0.14075865 -0.07735418 0.16452146 -0.41104075
-0.5721049 -0.011886992 0.015618938 -0.06982736 -0.8172421 -0.12322735 -0.32598954 0.2011527
-0.5873325 -0.21435529 0.24093975 -0.20391977 0.3796388 0.010906765 -0.32700208 0.09529579
0.24315771 -0.0008306071 0.6401142 -0.002207686 -0.088220686 -0.30394953 0.07927035 -0.44130552
0.332168 -0.0937172 -0.015286053 -0.21541242 -0.13191962 -0.0637093 -0.17556587 0.2607382
-0.009309576 -1.0851413 -0.47243547 -0.17262197 0.0021862565 0.37935466 -0.26049182 -0.040449005
-0.100964956 -0.23135234 -0.34900343 -0.008895961 0.5593975 0.0542493 -0.09715253 -0.3873379
0.17428574 -0.092760384 -0.01031805 -0.07260896 -0.049295142 -0.0034361281 0.67205095 0.0674039
-0.11434698 0.13076976 0.009658953 -0.10166392 -0.101877235 0.055160545 -0.20768504 0.28341848
0.4411527 0.0061387094 -0.19549488 -0.0047309357 0.0680216 -0.42730957 -0.16613016 -0.29256076
-0.11818806 0.16939783 -0.33155656 -0.00331496 0.07224317 -0.19599596 0.022815175 -0.12656093
0.117758684 0.2079017 -0.44250798 -0.012404473 1.0190297 -0.20835736 -0.15926573 0.086793445
-0.00016861281 -0.10958604 -0.049671054 -0.018126916 -0.004644428 0.22317027 -0.03623362 -0.02617334
00000000: 12db c33d 6386 c2bd 0270 b43c f1db a1be
00000010: 3db5 7ebe 90f4 363d 000c 593a 5860 cbbd
00000020: 840b 213e fa31 d6be dc3b 18bd d303 56bd
00000030: 1643 8dbe 2cd6 a4bc 770f 573e a9e4 b7be
00000040: 5eee 4ebc 3b93 52bd cab3 ae3d 5bce 883c
00000050: c07a 9cbd 30bd 59bb 44c8 cb3e 2b65 59bf
00000060: cfef 843d 3abf 25be 79e2 603f 3b4e a53e
00000070: 3ec3 323f cca2 b0be 9b2a 29bf e93c 163e
00000080: 8ea2 35be 9e3a 28be c17c 993d 51c5 463f
00000090: b9f5 92bd 8c0b ae3e be2b 31bd f3d5 fcbe
000000a0: 86c4 b5ba acbb 2f3e ad25 a23e bc72 a33b
000000b0: 65cf febe c290 97be a101 d2bd b23f 993d
000000c0: 4f32 243e 725f afbe f715 7dbd 7046 d7be
000000d0: c69e 053e a006 e9bd 2135 573e 2f2a a6be
000000e0: 0417 adbc 6774 f93c e521 bbbb df07 54bf
000000f0: 4bc1 7abe 1e9e 963d 5564 54bd 0e32 873e
00000100: f19a 8dbd fc6c 9abc 49c5 7c3d 9be5 123f
00000110: 9eb8 243e 8681 81bd 3599 b2be 942a 87be
00000120: cb7b c13e b54b 4abf a3b9 833f 1e64 833f
00000130: 8abf 1ebf 771e 13bc 61ae 1a3f 1b18 c9bd
00000140: c6dc 9ebe 4057 913d 85ed 1e3f 79cd 203f
00000150: 46b0 f9bb 6da9 8b3d 71fb 96bc 6cf6 ebbd
00000160: 793f 483f 8fa8 563d d879 5a3f 2ebf 543e
00000170: 196d 33be a0f3 61be 12f3 94bc dcc4 353e
00000180: 7ccc a1bd cb7a 533e 8424 463f 3d6d d63e
00000190: 73a7 71bd cbf0 9e3c 4a81 973d 43e5 38be
000001a0: da13 153b 1dd5 16bb ce58 913e 4c9d 7d3e
000001b0: 2198 40be b730 d63b 758a 913d 3086 10bf
000001c0: bd67 5a3f 1948 2bbe 523d 0bbc 0ca2 743f
000001d0: e591 e2bd 2bc2 60bd 9265 dc3e 609d 30bf
000001e0: c342 94bc 7bdc e93b 068b 95be 04f8 c3bc
000001f0: f745 d9bb 0d78 d6be e6bb 61bd 38be ff3e
00000200: 41be d2bc 1c8f 923d 8edd dcbd 0d90 da39
00000210: 8764 90bc 2902 9e3c 5bbf a03c 33df 36be
00000220: 1433 133f 9d6c 933c ff06 45bb f437 8fbe
00000230: 3d60 213e dbd4 e63e 87a5 14bd 0701 d1bc
00000240: 0549 c43d a8dd ee3e b8c4 6abe 3492 f63d
00000250: 3407 97bc a501 ecbd 4b2f cbbd 9de7 ac3f
00000260: be29 bc3e 799c b33b 3077 19be 5639 843e
00000270: 0923 103e de6b 9ebd 5078 283e ef73 d2be
00000280: 7775 12bf a8c1 42bc 93e6 7f3c a601 8fbd
00000290: c736 51bf 9f5e fcbd 1ae8 a6be f9fa 4d3e
000002a0: 6c5b 16bf f47f 5bbe e9b8 763e 58d0 50be
000002b0: 0460 c23e 4ab2 323c d16c a7be 702a c33d
000002c0: 56fe 783e 19bd 59ba 86de 233f d3ae 10bb
000002d0: 0cad b4bd 469f 9bbe 7e58 a23d ccf2 e1be
000002e0: ed11 aa3e ceee bfbd 5a72 7abc 1395 5cbe
000002f0: f015 07be 057a 82bd 8ac7 33be 7a7f 853e
00000300: 3187 18bc e9e5 8abf 10e3 f1be d0c3 30be
00000310: 4c47 0f3b c63a c23e 2f5f 85be dbad 25bd
00000320: b7c6 cebd a1e7 6cbe 94b0 b2be 5dc0 11bc
00000330: ad34 0f3f 8434 5e3d e8f7 c6bd 2751 c6be
00000340: f677 323e 28f9 bdbd 0a0d 29bc 02b4 94bd
00000350: b4e9 49bd aa30 61bb 880b 2c3f 0e0b 8a3d
00000360: c02e eabd 82e8 053e 9640 1e3c 2c35 d0bd
00000370: 03a5 d0bd 06f0 613d 63ab 54be 3a1c 913e
00000380: c4de e13e 3a27 c93b cf2f 48be f705 9bbb
00000390: e94e 8b3d 52c8 dabe 061e 2abe 86ca 95be
000003a0: 950c f2bd a076 2d3e c8c1 a9be cd3f 59bb
000003b0: 3af4 933d 2ab3 48be e4e6 ba3c 3099 01be
000003c0: 772b f13d 2fe4 543e 6890 e2be 213c 4bbc
000003d0: 916f 823f a25b 55be 8e16 23be c3c0 b13d
000003e0: a8cd 30b9 a56e e0bd e073 4bbd e67e 94bc
000003f0: 4930 98bb bf86 643e b469 14bd 7969 d6bc
