shanghai_road_delivery/results_centralized/centralized_episode_400.pth_centralized_actor.pth (torch, 922090 bytes, 20 tensors)

fc1.weight f4 [256, 364]
0	0x36938218	4.3960863e-06
1	0x37d4e9e8	2.538129e-05
2	0xb83cd84e	-4.5024142e-05
3	0xb83a48c0	-4.441361e-05
4	0xb83aa5a1	-4.450011e-05
5	0xb8398aca	-4.4236695e-05
6	0xb5b106d9	-1.3189521e-06
7	0xb2965c51	-1.7504279e-08
8	0xb10035c4	-1.8657014e-09
9	0xb097a3a2	-1.1033203e-09
10	0xb99e7446	-0.0003022274
11	0x37613730	1.3423894e-05
12	0xb590d030	-1.0789427e-06
13	0xb072dbfa	-8.835169e-10
14	0xb70d6ab8	-8.429102e-06
15	0xb62cdf80	-2.5760091e-06
16	0xb66a77d9	-3.4938478e-06
17	0xb280805c	-1.4959532e-08
18	0x33468070	4.621728e-08
19	0x37180dc2	9.063109e-06
20	0xb6ea3556	-6.9799526e-06
21	0xb7ef3ba9	-2.8518802e-05
22	0xb65cbb22	-3.289148e-06
23	0xaf4e4587	-1.8760292e-10
24	0xb4c617b0	-3.689761e-07
25	0xb1b68e91	-5.313105e-09
26	0xb53470e8	-6.7219526e-07
27	0xbb15d2e8	-0.0022861306
28	0x37cfffeb	2.4795494e-05
29	0xb49ceec6	-2.9230995e-07
30	0x36e8e10c	6.9403377e-06
31	0x3290e4ea	1.6867904e-08
32	0x360cb91f	2.096938e-06
33	0xb67255a0	-3.611065e-06
34	0x35f884de	1.8516109e-06
35	0xb0a572a4	-1.2037913e-09
36	0xb8b67a33	-8.701198e-05
37	0xb83cd85b	-4.502419e-05
38	0x36fe6563	7.581593e-06
39	0xb83cd85b	-4.502419e-05
40	0x37d5199b	2.5403502e-05
41	0x380e80f7	3.3975546e-05
42	0x3725ddc1	9.8863975e-06
43	0xb6d823e4	-6.44148e-06
44	0x3858ef11	5.172106e-05
45	0x3803cbf7	3.142279e-05
46	0x37367600	1.0875519e-05
47	0xb619bfd4	-2.2910435e-06
48	0x31514e5d	3.0458047e-09
49	0xb83cd85b	-4.502419e-05
50	0xb0509430	-7.5880546e-10
51	0xb83cd85b	-4.502419e-05
52	0x38791fa4	5.9395694e-05
53	0x36250fbe	2.459608e-06
54	0xb83cd854	-4.5024164e-05
55	0xb83acec1	-4.453841e-05
56	0xb83b195f	-4.4607903e-05
57	0xb8389955	-4.401182e-05
58	0xb80152b7	-3.083303e-05
59	0x31c907db	5.850763e-09
60	0x3a2ebbc2	0.00066655513
61	0x2c2b2723	2.4322287e-12
62	0xb44b3a70	-1.8927108e-07
63	0x37613730	1.3423894e-05
64	0xb59159c4	-1.0829467e-06
65	0x29954801	6.62942e-14
66	0xb70d6ab8	-8.429102e-06
67	0xb62cdf80	-2.5760091e-06
68	0xb66a77d9	-3.4938478e-06
69	0x30da351a	1.587668e-09
70	0x3454eb30	1.98296e-07
71	0x37180d98	9.063071e-06
72	0xb6ea3556	-6.9799526e-06
73	0xbc517fb4	-0.012786794
74	0xb6792e28	-3.7130758e-06
75	0x3311ea1a	3.3973357e-08
76	0xb652c5b0	-3.1407508e-06
77	0xae312802	-4.0280675e-11
78	0xb9a29a90	-0.00031014206
79	0x39a7dd08	0.00032017403
80	0xb73fc5d0	-1.1430544e-05
81	0x2c81ed5a	3.692752e-12
82	0x36e8cf18	6.9382477e-06
83	0xb943a35b	-0.00018657504
84	0x360cb91f	2.096938e-06
85	0xaaae30c8	-3.0942458e-13
86	0x35f884e0	1.8516112e-06
87	0xb7ed2230	-2.8268521e-05
88	0xb8b6a431	-8.709019e-05
89	0xb83cd85b	-4.502419e-05
90	0x36fe6e22	7.582611e-06
91	0xb83cd85b	-4.502419e-05
92	0x390aab4b	0.00013224517
93	0x380cdcc4	3.3584205e-05
94	0x37222897	9.665403e-06
95	0xb62fd3f4	-2.6200405e-06
96	0x3a10245c	0.0005498582
97	0x380787e0	3.231305e-05
98	0x37340bf6	1.0731621e-05
99	0xb6d8cdd4	-6.461263e-06
100	0xb55a6c57	-8.1368984e-07
101	0xb83b4060	-4.464423e-05
102	0x3a515e2e	0.0007986751
103	0xb83cd85b	-4.502419e-05
104	0x37f398b9	2.9038974e-05
105	0xb6459621	-2.9442674e-06
106	0xb83cd851	-4.5024153e-05
107	0xb83a94ce	-4.448444e-05
108	0xb83afe60	-4.458276e-05
109	0xb8399a12	-4.4250926e-05
110	0x37374920	1.0924676e-05
111	0xb9aaf65a	-0.00032608473
112	0x2eae6fca	7.9324616e-11
113	0xae86e841	-6.134871e-11
114	0x2861a6a8	1.2526147e-14
115	0x37613730	1.3423894e-05
116	0xb5929f94	-1.0924291e-06
117	0xb6999c12	-4.5779243e-06
118	0xb70d6ab8	-8.429102e-06
119	0xb62cdf80	-2.5760091e-06
120	0xb66a77d9	-3.4938478e-06
121	0x388a40c6	6.592418e-05
122	0x33a79270	7.80318e-08
123	0x37180e67	9.063259e-06
124	0xb6ea3556	-6.9799526e-06
125	0x3737a344	1.0945663e-05
126	0xb6e584fa	-6.8402123e-06
127	0x3123b63c	2.382321e-09
128	0xb7dc124a	-2.623456e-05
129	0xab9a3e92	-1.0959725e-12
130	0x36948f37	4.427416e-06
131	0xaf0a4264	-1.2574614e-10
132	0xb71982b0	-9.149939e-06
133	0xb9edbaa8	-0.00045343232
134	0x37d041e7	2.482622e-05
135	0x00016192	1.26837e-40
136	0x360cb91f	2.096938e-06
137	0xab4b19b4	-7.215576e-13
138	0x35f884de	1.8516109e-06
139	0xaaab7c87	-3.046211e-13
140	0xb8b6b9bd	-8.713033e-05
141	0xb83cd85b	-4.502419e-05
142	0x36fe654c	7.5815824e-06
143	0xb83cd85b	-4.502419e-05
144	0x389d5418	7.502007e-05
145	0x380dd4da	3.3815253e-05
146	0x37245e67	9.7971415e-06
147	0xb6cd75b1	-6.123177e-06
148	0x38306fc8	4.2065774e-05
149	0x3810d9a4	3.453497e-05
150	0x373ab8e0	1.11295085e-05
151	0xb6375596	-2.7318943e-06
152	0xb6909a26	-4.3094797e-06
153	0xb83dbbe8	-4.5236113e-05
154	0xb965a722	-0.00021901404
155	0xb83cd85b	-4.502419e-05
156	0x37d2ad5c	2.5114678e-05
157	0x37a8984a	2.0098076e-05
158	0xb83cd855	-4.5024168e-05
159	0xb83d3fa5	-4.5120385e-05
160	0xb83d4515	-4.512545e-05
161	0xb83c5b94	-4.490798e-05
162	0xb86be924	-5.6245495e-05
163	0xb8765ef4	-5.8739402e-05
164	0x34c78815	3.716565e-07
165	0x2bd12b56	1.4862371e-12
166	0xab1e056c	-5.61404e-13
167	0x37613730	1.3423894e-05
168	0xb59234a4	-1.0893168e-06
169	0x2e8a40a5	6.2869966e-11
170	0xb70d6ac5	-8.429114e-06
171	0xb62cdf80	-2.5760091e-06
172	0xb66a77d9	-3.4938478e-06
173	0xab39237e	-6.577446e-13
174	0x3422069c	1.508983e-07
175	0x37180d98	9.063071e-06
176	0xb6ea3556	-6.9799526e-06
177	0xb2a37310	-1.9028022e-08
178	0xb6ea13ca	-6.976047e-06
179	0x312bd73c	2.5006122e-09
180	0x340bc552	1.3017168e-07
181	0x30a7a2e4	1.2197146e-09
182	0x3581d114	9.672099e-07
183	0x2eaf012a	7.9582854e-11
184	0xb7217fb0	-9.626077e-06
185	0x2f246df7	1.495478e-10
186	0x37d04387	2.4826977e-05
187	0x00000a4e	3.697e-42
188	0x36e8e3c7	6.9406556e-06
189	0xb08ba6ba	-1.0160968e-09
190	0x35f884de	1.8516109e-06
191	0xb0bd5908	-1.3776864e-09
192	0xb8b672b1	-8.699799e-05
193	0xb83cd85b	-4.502419e-05
194	0x36fe6ede	7.5826965e-06
195	0xb83cd85b	-4.502419e-05
196	0xb8c15637	-9.219016e-05
197	0x38111a8b	3.4595414e-05
198	0x37250045	9.834829e-06
199	0xb6cf8f4f	-6.185764e-06
200	0x38ae009c	8.29708e-05
201	0x380abb8a	3.3076423e-05
202	0x3739d276	1.1075861e-05
203	0xb6150924	-2.220805e-06
204	0xb73292b1	-1.0643781e-05
205	0xb83e11f5	-4.5316254e-05
206	0xb49bc726	-2.90159e-07
207	0xb83cd85b	-4.502419e-05
208	0x35a11963	1.2002823e-06
209	0xb7b9b639	-2.2138573e-05
210	0xb83cd857	-4.5024175e-05
211	0xb83bbb18	-4.475852e-05
212	0xb83c564f	-4.4903074e-05
213	0xb837b236	-4.3796572e-05
214	0x30ce8e66	1.5028945e-09
215	0xb8051bc6	-3.1735537e-05
216	0xadff6ba8	-2.9037953e-11
217	0xb2eac0d8	-2.732888e-08
218	0xb82bfebb	-4.1006813e-05
219	0x37613730	1.3423894e-05
220	0xb59276f8	-1.0912472e-06
221	0x39010880	0.00012305565
222	0xb70d6abc	-8.429106e-06
223	0xb62cdf80	-2.5760091e-06
224	0xb66a77d9	-3.4938478e-06
225	0xb11be226	-2.268402e-09
226	0x337dc3c0	5.9084186e-08
227	0x37180dee	9.063149e-06
228	0xb6ea3556	-6.9799526e-06
229	0xb92bda8e	-0.00016389249
230	0xb70b4169	-8.300275e-06
231	0x34ad79c9	3.2312371e-07
232	0xb7725650	-1.444442e-05
233	0x38803288	6.112928e-05
234	0xb71a5816	-9.199624e-06
235	0x2f1fcc2e	1.4533505e-10
236	0xb7553d60	-1.2710079e-05
237	0xb0911336	-1.0555599e-09
238	0x37d04cde	2.4831326e-05
239	0xb0599cca	-7.916695e-10
240	0x36e8e718	6.9410416e-06
241	0xb9367027	-0.00017398653
242	0x360cb91f	2.096938e-06
243	0x3828a174	4.0204686e-05
244	0xb8b69d98	-8.7077904e-05
245	0xb83cd85b	-4.502419e-05
246	0x36fe5f7e	7.5809066e-06
247	0xb83cd85b	-4.502419e-05
248	0x38ef59e4	0.000114131515
249	0x380512ac	3.172706e-05
250	0x372f8c7a	1.046352e-05
251	0xb6d697b6	-6.3953585e-06
252	0x386b1f53	5.605754e-05
253	0x380cff6f	3.3616492e-05
254	0x372c84dc	1.0282933e-05
255	0xb618fd1b	-2.2797092e-06

fc1.bias f4 [256]
0	0xb83cd85b	-4.502419e-05
1	0x36975d26	4.5109946e-06
2	0x38765a19	5.873488e-05
3	0x3b290684	0.0025791237
4	0xb2e89ae6	-2.7078794e-08
5	0xb55abc5e	-8.148544e-07
6	0x381b7962	3.7067926e-05
7	0xb2cfd949	-2.4196781e-08
8	0xb3fd2a5d	-1.17889364e-07
9	0x36b08047	5.260142e-06
10	0xbc705e26	-0.014670884
11	0xb85626cc	-5.105771e-05
12	0x38f2050b	0.000115403986
13	0xbc3abcdb	-0.011397566
14	0x38033d4c	3.128992e-05
15	0xb90a57c4	-0.00013193401
16	0xbe9a9fe5	-0.30200115
17	0xb4d35700	-3.9365113e-07
18	0x3a2f1397	0.00066786393
19	0x393318d8	0.00017080025
20	0x360e88b4	2.123922e-06
21	0xb9b1eb9b	-0.0003393561
22	0xafbd0a9d	-3.438644e-10
23	0x36057bda	1.9890635e-06
24	0xb5180190	-5.6626686e-07
25	0xb50d249a	-5.2579855e-07
26	0xb6688080	-3.464549e-06
27	0x3b3fd0ab	0.0029268663
28	0x3642f90c	2.9053217e-06
29	0x37eaf57d	2.8009288e-05
30	0xb9b8986f	-0.00035208787
31	0xb485d886	-2.4930722e-07
32	0x345df9c8	2.0673099e-07
33	0x3187bce9	3.9504937e-09
34	0xb0a487e0	-1.1971188e-09
35	0xbc017b0f	-0.007902875
36	0x39a6c4e5	0.00031808685
37	0x35d9e81a	1.623531e-06
38	0xb466e882	-2.1505005e-07
39	0xb6c4055a	-5.841878e-06
40	0x36e4887a	6.8108175e-06
41	0xb3a89913	-7.850954e-08
42	0x3a39ed82	0.00070925814
43	0xb53ddca2	-7.072905e-07
44	0xb69d84ec	-4.6944388e-06
45	0xb56a61e1	-8.7314226e-07
46	0xba007c66	-0.00049013493
47	0x35740aea	9.0912965e-07
48	0x347eb703	2.3722173e-07
49	0x368be339	4.168975e-06
50	0xbb3155b5	-0.0027059142
51	0x388802c3	6.4855e-05
52	0xb3ad1abc	-8.060803e-08
53	0x36714cfa	3.5956605e-06
54	0xb289c3dd	-1.6037967e-08
55	0x37463463	1.1813917e-05
56	0x3ac4f8d1	0.0015027766
57	0x3e401262	0.18757012
58	0xb72e977f	-1.0406481e-05
59	0xb6c0e336	-5.7484967e-06
60	0xb51dff7b	-5.885883e-07
61	0xb517485c	-5.635718e-07
62	0xb81238b2	-3.4861914e-05
63	0xb895f169	-7.14984e-05
64	0x36db67a1	6.5387726e-06
65	0xb457fc12	-2.0115138e-07
66	0x33da4c61	1.0165309e-07
67	0x3258e9b9	1.2625997e-08
68	0xb6b238e8	-5.311438e-06
69	0xb762d67a	-1.3520586e-05
70	0xb6e6035f	-6.8549266e-06
71	0xbaeec334	-0.0018216134
72	0x3520c318	5.9888544e-07
73	0x39227de8	0.00015496428
74	0x3b8e9c32	0.004352116
75	0xab66bcad	-8.1974255e-13
76	0xb985ef7a	-0.0002554616
77	0xb903ff8c	-0.00012588332
78	0xb9b2b32b	-0.00034084296
79	0x3aa31d86	0.0012444712
80	0x36b5d21e	5.418681e-06
81	0xa7b78c62	-5.0944907e-15
82	0x37cb6d7b	2.4250467e-05
83	0x363aca2d	2.7833842e-06
84	0x378894d7	1.6281772e-05
85	0x391b1d8e	0.00014792962
86	0x350868fe	5.081673e-07
87	0x36bc5a31	5.6133363e-06
88	0x38257814	3.9450897e-05
89	0x35377f5f	6.835816e-07
90	0xb73990fa	-1.1060614e-05
91	0xb61486f0	-2.2132263e-06
92	0x3668c6e2	3.468646e-06
93	0xb7782eae	-1.479282e-05
94	0xbc0ac7c5	-0.00847048
95	0x328a7322	1.611767e-08
96	0x352d4786	6.45516e-07
97	0xba90e90f	-0.0011055785
98	0xb3e287b4	-1.0548629e-07
99	0xbad6e846	-0.0016396127
100	0xb6563fc0	-3.1925592e-06
101	0xb3e1f8a2	-1.0522605e-07
102	0x3904db41	0.0001267018
103	0xaa22597b	-1.4419535e-13
104	0xb686722a	-4.0068016e-06
105	0xbdb868ff	-0.090044014
106	0xb4743c5f	-2.2746234e-07
107	0xb3f860a5	-1.15659795e-07
108	0xba18e6b6	-0.00058327185
109	0x3852870d	5.0193677e-05
110	0xbe088db2	-0.13335302
111	0x3603851a	1.9597996e-06
112	0x38daf4c4	0.00010440641
113	0xb6612d92	-3.3554138e-06
114	0xb7bd913b	-2.2598184e-05
115	0xb7c897cd	-2.3912546e-05
116	0x37850189	1.585555e-05
117	0xb5243e60	-6.118553e-07
118	0xb4b7feaa	-3.42717e-07
119	0x3a5e324e	0.0008476124
120	0xb7c56cf0	-2.3534958e-05
121	0xb55e212b	-8.274971e-07
122	0x36f7551a	7.3710808e-06
123	0xb862b4bb	-5.4050917e-05
124	0x36114533	2.1646963e-06
125	0xb98d8797	-0.00026994638
126	0xb9f54b90	-0.0004678634
127	0x3ab31783	0.0013663623
128	0xb97315d1	-0.00023182413
129	0xb7c7b044	-2.3804729e-05
130	0x33963e08	6.996203e-08
131	0xb632ccae	-2.6643206e-06
132	0x33e81a79	1.0808157e-07
133	0x3645f860	2.949986e-06
134	0xb9d808ac	-0.00041205192
135	0x3d4a1e43	0.049345266
136	0xb9eaea5e	-0.00044806575
137	0x366c93fc	3.5252879e-06
138	0xbbe430b1	-0.0069638123
139	0xb8b61050	-8.681475e-05
140	0xbc48342f	-0.012219473
141	0x3a3cd6fe	0.0007203667
142	0xb7580d1c	-1.28776555e-05
143	0xb589efb5	-1.0277059e-06
144	0xb664a87b	-3.4072716e-06
145	0x36ca7678	6.0338607e-06
146	0x35c2e8c8	1.4521875e-06
147	0xba85612f	-0.0010176058
148	0x39404bca	0.0001833878
149	0xb92caef1	-0.00016468369
150	0x37e7b50c	2.7621652e-05
151	0x359932c0	1.1414159e-06
152	0x350dd6a1	5.283892e-07
153	0xb635326e	-2.7000456e-06
154	0x33171988	3.5180648e-08
155	0xb6b7c8b7	-5.4771913e-06
156	0xb90fa31d	-0.00013698307
157	0x396afc29	0.00022409916
158	0x39c61abe	0.00037785427
159	0xb9b24633	-0.00034003108
160	0xbcd0c7a1	-0.025485815
161	0xbdc2ea8b	-0.09517392
162	0xb59acef1	-1.1534122e-06
163	0xb8a00177	-7.6296674e-05
164	0xb71f4664	-9.493528e-06
165	0x3992e468	0.00028017466
166	0xb805360a	-3.176e-05
167	0xb4479940	-1.8589071e-07
168	0x34c0c845	3.5908502e-07
169	0x359dc06e	1.1753416e-06
170	0xb952fcab	-0.00020121287
171	0x2fe092a6	4.0849563e-10
172	0xbcb0f9d1	-0.021603497
173	0x3826e3d3	3.9789662e-05
174	0xb428ece0	-1.5732394e-07
175	0x3b86a9cc	0.004109597
176	0x37e69000	2.7485192e-05
177	0x3763682c	1.3554509e-05
178	0xbaecf712	-0.0018079004
179	0x348fe489	2.6802107e-07
180	0xb71195bc	-8.677536e-06
181	0x3a177e07	0.00057789724
182	0xb574ea6b	-9.1238206e-07
183	0x33d73ca8	1.0022751e-07
184	0xb61b5874	-2.3148286e-06
185	0xb598447a	-1.1344812e-06
186	0x38cd7f2d	9.79885e-05
187	0xb70d69c5	-8.428881e-06
188	0x333ddcb8	4.4205734e-08
189	0x35e431cc	1.7001817e-06
190	0xb6a26325	-4.839518e-06
191	0x368172b2	3.857852e-06
192	0xbc2d3ef0	-0.0105740875
193	0xb5c887f3	-1.4940728e-06
194	0xbb7301ec	-0.0037080003
195	0x3896ed3f	7.196748e-05
196	0x389ae42f	7.385795e-05
197	0x39008551	0.00012256695
198	0x36de1db5	6.619574e-06
199	0xb1172a41	-2.199741e-09
200	0xb862e644	-5.409705e-05
201	0x38d735ec	0.000102620426
202	0xb619ed35	-2.293685e-06
203	0x37459ac3	1.1778148e-05
204	0xb41595e5	-1.3931238e-07
205	0xbb23e861	-0.0025010335
206	0xb294f330	-1.7340057e-08
207	0xb6d8a6c5	-6.456716e-06
208	0x3742db65	1.1614383e-05
209	0xb817db64	-3.620553e-05
210	0xb545543e	-7.351081e-07
211	0xb7fdab67	-3.0239766e-05
212	0x344b0414	1.8907332e-07
213	0x3a881f62	0.0010385329
214	0xbc5f2c1f	-0.013621359
215	0xb683c14d	-3.9266074e-06
216	0x38ce61d6	9.841069e-05
217	0x3701047c	7.690043e-06
218	0x37f219ed	2.886072e-05
219	0xb88471ff	-6.315484e-05
220	0x36e849a9	6.922714e-06
221	0xba9021aa	-0.0010996361
222	0x3a2dd413	0.0006631028
223	0xb29594b0	-1.7413498e-08
224	0xb5fea6b8	-1.8972996e-06
225	0xb63c8ceb	-2.8096208e-06
226	0xb81b0ad9	-3.6964982e-05
227	0xb6ed175f	-7.065871e-06
228	0x3ae41782	0.0017402025
229	0xb5c548a4	-1.4698785e-06
230	0xb822513c	-3.8699465e-05
231	0xbaf12e59	-0.0018400653
232	0xb6a4d8b1	-4.912807e-06
233	0xb8023773	-3.1046056e-05
234	0x3c785c0e	0.015158666
235	0x3c208166	0.009796476
236	0x3b406960	0.0029359683
237	0xb351ce95	-4.884949e-08
238	0x36a11815	4.8009774e-06
239	0x3f16a376	0.5884317
240	0xb643a127	-2.9151067e-06
241	0x3338a2c6	4.298888e-08
242	0xbcb30d21	-0.021856846
243	0xba332beb	-0.00068348524
244	0xb872e9d4	-5.7915066e-05
245	0x3551efca	7.8207506e-07
246	0xbc2983d6	-0.010346374
247	0x268a9d92	9.618383e-16
248	0xb7cf5510	-2.4715933e-05
249	0xb6af5fcb	-5.226558e-06
250	0x334f57ed	4.827591e-08
251	0xbb07a98f	-0.002070043
252	0x3a810354	0.0009842911
253	0x3796348a	1.7905859e-05
254	0x3751cecf	1.2505522e-05
255	0xbb259681	-0.002526671

fc2.weight f4 [256, 256]
0	0x31043d74	1.924346e-09
1	0x2e1ca614	3.56178e-11
2	0xb091ab62	-1.0598848e-09
3	0xaf82d0b7	-2.3795163e-10
4	0x2bdec14c	1.5827699e-12
5	0x30f55921	1.7851428e-09
6	0xacbdeeec	-5.3982287e-12
7	0xa7af7f14	-4.8710036e-15
8	0x2ca820e0	4.778497e-12
9	0xb7bb5442	-2.2331373e-05
10	0x3952e759	0.00020113344
11	0x3019f679	5.6011334e-10
12	0xb488c325	-2.547396e-07
13	0x34ee230c	4.4356455e-07
14	0xb052f969	-7.675199e-10
15	0x2f570fb0	1.955971e-10
16	0xb7f7ac32	-2.952488e-05
17	0xaeb95178	-8.427298e-11
18	0x3251b28c	1.2205998e-08
19	0x3a202fc6	0.00061106344
20	0xb5a2be54	-1.2125333e-06
21	0xb1e003f8	-6.519709e-09
22	0x2a5fc5ce	1.9875006e-13
23	0xaebf500a	-8.699892e-11
24	0xac1aec04	-2.2015731e-12
25	0x39194b04	0.00014619163
26	0x3b4b8872	0.003105667
27	0xb2a0ff30	-1.8742497e-08
28	0x2e8986d7	6.253991e-11
29	0xb021cee2	-5.8865457e-10
30	0xb317fcf2	-3.538748e-08
31	0xae2f91c8	-3.9919873e-11
32	0xb2725fb4	-1.4108014e-08
33	0xad546250	-1.20726346e-11
34	0x2db17d49	2.0178208e-11
35	0x333b54e3	4.3616534e-08
36	0xb34e5728	-4.804238e-08
37	0xaff8eba4	-4.527837e-10
38	0x3b3a7686	0.0028451993
39	0xaf7d20eb	-2.3021911e-10
40	0x305d0fdc	8.042187e-10
41	0xaf17927e	-1.3785414e-10
42	0x319eca68	4.621416e-09
43	0xae176d07	-3.443026e-11
44	0xacf49679	-6.951603e-12
45	0xab3ce2a7	-6.710556e-13
46	0xaf8fc400	-2.6150815e-10
47	0x2c4aa84c	2.879935e-12
48	0xaefe5a5d	-1.15666345e-10
49	0x31616162	3.2797165e-09
50	0x3349a71e	4.695095e-08
51	0x38c06824	9.174671e-05
52	0x2eeab6b8	1.06735454e-10
53	0x38b46bdd	8.60316e-05
54	0x2b87c8e4	9.648085e-13
55	0x3021fc26	5.8929783e-10
56	0x3464109c	2.1240197e-07
57	0xb43d775c	-1.764542e-07
58	0xb09f2950	-1.1580514e-09
59	0x2e3f450c	4.3489698e-11
60	0x2e541232	4.821938e-11
61	0xac32348a	-2.5324486e-12
62	0xa1d76c58	-1.4597645e-18
63	0xb48ce3f8	-2.62429e-07
64	0xb09e2be8	-1.1508492e-09
65	0x2d8d4800	1.6061819e-11
66	0xadc6055d	-2.2512376e-11
67	0x2fa40250	2.983307e-10
68	0xb777ee98	-1.4777899e-05
69	0xaf274805	-1.5214148e-10
70	0xaf1e6492	-1.4405746e-10
71	0xb399bbaa	-7.1587536e-08
72	0x2f30b6be	1.607203e-10
73	0xadf08e73	-2.7348101e-11
74	0x33859e60	6.2221034e-08
75	0x2697bc87	1.052883e-15
76	0xad928971	-1.6659315e-11
77	0x3108288b	1.981365e-09
78	0xb1872c14	-3.934028e-09
79	0x3045f930	7.20223e-10
80	0xac262f7c	-2.3616378e-12
81	0x96cf81c4	-3.3524547e-25
82	0x33c2e440	9.0753474e-08
83	0x3305afd3	3.1126387e-08
84	0x306b5bf2	8.5623164e-10
85	0x2ebd0a18	8.596518e-11
86	0xad346ab2	-1.02555065e-11
87	0xafbe8bfe	-3.466027e-10
88	0x2f40db04	1.7540108e-10
89	0x2a731cb3	2.1592693e-13
90	0x2f01c4e2	1.1802428e-10
91	0x2d662d85	1.3084094e-11
92	0x2cf4ba08	6.9555507e-12
93	0xb375fe84	-5.727499e-08
94	0x35491a86	7.491693e-07
95	0x36496bc4	3.0014062e-06
96	0x2a6ec59f	2.120721e-13
97	0x34ac900d	3.2142307e-07
98	0x2ebbdabb	8.54263e-11
99	0xb5c08888	-1.4344851e-06
100	0x2e146425	3.374025e-11
101	0xb9be4ba9	-0.00036295995
102	0xb862f46e	-5.411024e-05
103	0xa643daa4	-6.795053e-16
104	0xaf3dc37a	-1.7258897e-10
105	0xb69f9df6	-4.7569583e-06
106	0xacada3aa	-4.935126e-12
107	0x09846066	3.1868497e-33
108	0xb7a02b08	-1.9093524e-05
109	0x2f578ac3	1.9603434e-10
110	0xa8666cf8	-1.2791194e-14
111	0xae456613	-4.4883274e-11
112	0x31089130	1.9873134e-09
113	0xae209df8	-3.6520093e-11
114	0x2ee88b98	1.05749354e-10
115	0xaad46a18	-3.7732382e-13
116	0xae027f1c	-2.9671474e-11
117	0x2cce565a	5.864459e-12
118	0xb8f61390	-0.00011733838
119	0x37cbc350	2.4290435e-05
120	0x352ca95f	6.432146e-07
121	0xae0db548	-3.22207e-11
122	0xad01ed9c	-7.385561e-12
123	0xab01278a	-4.588488e-13
124	0xad3c4a84	-1.07031085e-11
125	0x37607b8a	1.3380204e-05
126	0xb6e55c66	-6.8354884e-06
127	0x315d5b2d	3.221156e-09
128	0x2e56821e	4.8773534e-11
129	0x2ec4905f	8.9386935e-11
130	0x34bb8b00	3.49326e-07
131	0xae322a51	-4.05101e-11
132	0x2d878c12	1.5409927e-11
133	0x393fbdd4	0.00018285896
134	0xb6246074	-2.4494047e-06
135	0xb3126068	-3.4080955e-08
136	0x324aac6a	1.179715e-08
137	0xb1cd7c58	-5.9804215e-09
138	0xb05a7cc3	-7.9485235e-10
139	0xb2baf624	-2.1765182e-08
140	0xb75cf0b0	-1.3169061e-05
141	0x2ce217a7	6.4259323e-12
142	0xad258230	-9.4080715e-12
143	0xb052f804	-7.6750006e-10
144	0xb5f4c6cc	-1.8237274e-06
145	0x2da0f268	1.8297544e-11
146	0x3b151857	0.0022750103
147	0xb36ec298	-5.5590675e-08
148	0xb797b964	-1.8086932e-05
149	0x80070a01	-6.46437e-40
150	0x2e8aeb1b	6.3172766e-11
151	0xb204381d	-7.69617e-09
152	0x2e585d4e	4.9195585e-11
153	0x2dbd2e16	2.1507279e-11
154	0xae517f26	-4.763403e-11
155	0x31632223	3.3052252e-09
156	0x3981886a	0.00024706434
157	0xb6e9c28c	-6.9665894e-06
158	0x3219a02e	8.942193e-09
159	0xae9aeec6	-7.045524e-11
160	0xb5594a96	-8.0947336e-07
161	0x39328c00	0.00017027557
162	0x2f8dea0d	2.5814054e-10
163	0x327b4b28	1.4627211e-08
164	0x325e405e	1.2936736e-08
165	0xae074540	-3.0756953e-11
166	0x000d2e94	1.21057e-39
167	0x2a973496	2.6859477e-13
168	0x2dc83635	2.276144e-11
169	0x2f448ed7	1.7876843e-10
170	0x153cbf35	3.8117133e-26
171	0x260ca40e	4.8794593e-16
172	0x38345c28	4.300117e-05
173	0x3a8bb7fe	0.0010659692
174	0x2d15cc52	8.515038e-12
175	0x33fdf4c8	1.1825756e-07
176	0xbb96cbd8	-0.004601937
177	0xaf02a6fa	-1.1882753e-10
178	0xb454095e	-1.9747446e-07
179	0x2dd20263	2.3875296e-11
180	0x2f9c62c8	2.8446423e-10
181	0xabb88020	-1.3109548e-12
182	0x33ecc158	1.10247754e-07
183	0xb6eb35fe	-7.0098313e-06
184	0xafd9cf16	-3.9619213e-10
185	0x2ed4795e	9.662203e-11
186	0x2dc21d29	2.2068196e-11
187	0xaa775ceb	-2.1970244e-13
188	0xad2c7cf4	-9.804813e-12
189	0x2e32b533	4.063345e-11
190	0xb147427b	-2.89961e-09
191	0x29f58431	1.0903117e-13
192	0x34930ea6	2.7391542e-07
193	0xaf27ac20	-1.5249713e-10
194	0x340fa92e	1.337946e-07
195	0xb1c06d12	-5.6003353e-09
196	0x2bbdd6d1	1.3488881e-12
197	0xb0f743e4	-1.7990911e-09
198	0xb2d1d431	-2.4427296e-08
199	0x2e33d186	4.0885982e-11
200	0xa9538749	-4.6968753e-14
201	0xafd1deb4	-3.817512e-10
202	0xafe5c591	-4.1795237e-10
203	0x2da5cf82	1.885048e-11
204	0x2bada680	1.2338602e-12
205	0x342d0c4a	1.6116351e-07
206	0xaafa09e0	-4.4415773e-13
207	0x2b3ba694	6.666692e-13
208	0xb8532cb6	-5.034796e-05
209	0x375bc70a	1.309976e-05
210	0x2dd98016	2.4726925e-11
211	0x30498498	7.33118e-10
212	0xac9c9198	-4.449951e-12
213	0x303c3f14	6.848364e-10
214	0x3587f1c6	1.0128649e-06
215	0x14210d72	8.1310744e-27
216	0x29e83230	1.0311576e-13
217	0xba005962	-0.00048961316
218	0x3269f281	1.3617524e-08
219	0x33165732	3.50039e-08
220	0x2cbb4ab1	5.323152e-12
221	0x3291f315	1.6990763e-08
222	0x33da76a3	1.0172996e-07
223	0x365a17d8	3.249841e-06
224	0xaf290a40	-1.5374102e-10
225	0xad998bf2	-1.7456234e-11
226	0xba3656ba	-0.0006955672
227	0x314cfe13	2.9830332e-09
228	0x30fa16f5	1.8196419e-09
229	0x3604f8ea	1.981442e-06
230	0x303666ca	6.6357286e-10
231	0x1fb1b5aa	7.5262954e-20
232	0xab8e2242	-1.0099215e-12
233	0x30b384a2	1.3061661e-09
234	0xb445692c	-1.8385316e-07
235	0xb1edb37c	-6.918013e-09
236	0x2ff0f247	4.3827894e-10
237	0xa0115e63	-1.2313208e-19
238	0x2c142b58	2.1056126e-12
239	0x363d18b5	2.8177576e-06
240	0xab66cf0d	-8.1999755e-13
241	0xabc08438	-1.3679119e-12
242	0xb6951729	-4.4432422e-06
243	0x342ea786	1.6265957e-07
244	0xb29799b2	-1.7648606e-08
245	0xade40e80	-2.5927038e-11
246	0x322723be	9.728806e-09
247	0x279470cc	4.1200547e-15
248	0xaf1c1f52	-1.4199245e-10
249	0xb61afd1d	-2.309512e-06
250	0x39bd85e8	0.00036148657
251	0xb33dae03	-4.4163254e-08
252	0x330638d8	3.1251005e-08
253	0x35853f7a	9.927746e-07
254	0x2e145fd6	3.3736423e-11
255	0xb46a94fc	-2.1847148e-07

fc2.bias f4 [256]
0	0x344d8a62	1.9142456e-07
1	0x382f65d3	4.1818083e-05
2	0xbbc47e9f	-0.0059965397
3	0x3c950703	0.01819182
4	0xbd3b8b17	-0.045786943
5	0x37c6b72f	2.368874e-05
6	0xb98d58fb	-0.0002695991
7	0xb464574f	-2.1265917e-07
8	0xb8267498	-3.968607e-05
9	0xbd51c1a5	-0.051210064
10	0x37857592	1.5909583e-05
11	0xb7d31d01	-2.5166666e-05
12	0xb503d186	-4.91062e-07
13	0x352a3de5	6.3420003e-07
14	0xbe04e709	-0.12978758
15	0xb678a820	-3.7052741e-06
16	0xbab56cdf	-0.001384165
17	0xbe144a00	-0.14481354
18	0xbb28ef1f	-0.0025777293
19	0x3289077c	1.5952303e-08
20	0xb8507149	-4.969657e-05
21	0xbc88cc46	-0.016698968
22	0x37eb37e6	2.8040213e-05
23	0xb9a9c394	-0.0003237991
24	0x37205f93	9.558996e-06
25	0xbc0e4a45	-0.008684699
26	0x3d6e0376	0.05810877
27	0x3cd04ccf	0.02542725
28	0xb91485d1	-0.0001416423
29	0x3d427c92	0.04748208
30	0xbd227cb5	-0.03966971
31	0xbe1d8632	-0.15383223
32	0xb72bcc6e	-1.0239992e-05
33	0x38b4a4b7	8.6137494e-05
34	0xbcfd6e70	-0.03093645
35	0xbbac427b	-0.0052569485
36	0xb42222d3	-1.5100095e-07
37	0xbb8277ee	-0.003981582
38	0x33139bbd	3.4367748e-08
39	0xbc26232b	-0.010140221
40	0x3818c2cd	3.6421046e-05
41	0xbae4ed7b	-0.0017465794
42	0xbcc95e78	-0.024581179
43	0xba80ba28	-0.0009821104
44	0xb6a42efc	-4.8930506e-06
45	0x362d45d5	2.5819656e-06
46	0xb66d1d37	-3.5332757e-06
47	0xb8b74c74	-8.7403605e-05
48	0xba0ecc70	-0.00054473337
49	0x3be8cf48	0.007104788
50	0x3669b108	3.4822751e-06
51	0x3a4a4cc0	0.0007717125
52	0x36aadcb7	5.0920894e-06
53	0xb6526887	-3.1353281e-06
54	0x388e06af	6.7723326e-05
55	0x3b89fd0b	0.0042110733
56	0xb86da541	-5.6659108e-05
57	0x3d1a864e	0.03772574
58	0xb7cf69eb	-2.4725645e-05
59	0xb5aae4f2	-1.2732619e-06
60	0xbb8349f4	-0.0040066186
61	0x380f25e0	3.412913e-05
62	0xbbc74771	-0.0060815145
63	0xbdc71b70	-0.0972203
64	0x3477a061	2.3062013e-07
65	0xbc84ff1e	-0.01623493
66	0xb680a38f	-3.833738e-06
67	0xbc751636	-0.014958909
68	0x36d7e582	6.4342175e-06
69	0x392f7adc	0.00016735069
70	0xb8eff39b	-0.00011441783
71	0xb967081d	-0.00022032899
72	0xb5b8eae8	-1.3777435e-06
73	0xbaaabb3a	-0.0013025769
74	0xbd0204f8	-0.03174302
75	0x3ae67c24	0.0017584604
76	0xbc61b669	-0.0137764
77	0xb5254fc1	-6.1583347e-07
78	0x320ce310	8.200701e-09
79	0x396d04c0	0.00022603851
80	0xb67f22ed	-3.801829e-06
81	0x330cb098	3.27569e-08
82	0xbb0b3ad9	-0.0021244793
83	0xbdce1ccb	-0.100640856
84	0xbaa6b8d7	-0.0012719881
85	0xbeaabe5c	-0.33348358
86	0xbdd1fa44	-0.102528125
87	0x39e964ee	0.00044516422
88	0xb7ed0162	-2.8253246e-05
89	0x3438e1ce	1.7218483e-07
90	0x3a004050	0.0004892396
91	0xbb8618bf	-0.0040923054
92	0xbe03aa53	-0.12857942
93	0x3a7e27a7	0.000969524
94	0xbb5a1926	-0.003327915
95	0xb49ca045	-2.9173876e-07
96	0x3b93430e	0.0044940775
97	0xbaff3b60	-0.0019472651
98	0xbdc170a9	-0.09445316
99	0x3a980b8e	0.0011600123
100	0xbdcb0a91	-0.09914125
101	0xb58ed32c	-1.0641284e-06
102	0xbb0172b6	-0.001975221
103	0x39d23dbe	0.00040100323
104	0xbe20316e	-0.15643856
105	0xb78aed89	-1.6561493e-05
106	0xba36ec23	-0.0006977936
107	0xb8d04ddc	-9.932715e-05
108	0xbd29fa3a	-0.0414984
109	0x368f123a	4.263854e-06
110	0x3d880fc2	0.066436306
111	0xb8bd5d4c	-9.0296e-05
112	0x36bbdbfa	5.598643e-06
113	0x34f94f6c	4.643765e-07
114	0xb91aeca7	-0.00014774744
115	0xbe412b9b	-0.1886429
116	0xb9b55c78	-0.00034591905
117	0x392e73b5	0.00016637037
118	0xbe37a2af	-0.17933153
119	0x350d74a8	5.269635e-07
120	0x3ef59045	0.4796163
121	0xb21e97aa	-9.231295e-09
122	0xb6723759	-3.6093027e-06
123	0xb759bef1	-1.2978665e-05
124	0xbe21f1da	-0.15814915
125	0xb8666c8a	-5.4937358e-05
126	0xb7b97ad6	-2.2110919e-05
127	0xb6b036f0	-5.2516043e-06
128	0xbb430673	-0.0029758483
129	0x3f157cf7	0.58393806
130	0xb2c28e32	-2.2649235e-08
131	0xbcf90bb0	-0.03040108
132	0x3986e9ce	0.0002573267
133	0xbbbdfd62	-0.005798028
134	0xbad6645f	-0.0016356817
135	0xb9e4c976	-0.0004363765
136	0xbd845db3	-0.06463184
137	0xb4beff12	-3.5575846e-07
138	0x36244096	2.4475498e-06
139	0x38486a69	4.7782818e-05
140	0xbbaea45c	-0.0053296518
141	0xbba33063	-0.0049801334
142	0x36bd1678	5.6352546e-06
143	0xb8d78317	-0.00010276416
144	0x371593eb	8.915532e-06
145	0xba115380	-0.00055437535
146	0xb94ce2ea	-0.00019539488
147	0x3719d5e1	9.169308e-06
148	0x3e3da0e7	0.1851841
149	0xb57920ac	-9.280727e-07
150	0xbb748596	-0.0037311069
151	0x38a99e5e	8.088046e-05
152	0x3968828c	0.00022173877
153	0x3438cf06	1.721165e-07
154	0xbba43fc0	-0.0050124824
155	0xbc143ad1	-0.009047226
156	0xbcbe52e4	-0.023232885
157	0xb631e18e	-2.6506345e-06
158	0xbbd7b032	-0.0065822834
159	0xbb276187	-0.0025540309
160	0xb64a9066	-3.0184397e-06
161	0xb7c679df	-2.366019e-05
162	0x3eb3c600	0.35112
163	0xbe45b6ba	-0.19307986
164	0xaf3cc472	-1.7168292e-10
165	0x3d2b346b	0.041798037
166	0xb5acc2d2	-1.2871699e-06
167	0x37017d3e	7.718159e-06
168	0x3ebee93a	0.37287313
169	0xbd2161c7	-0.03939989
170	0x3714ba82	8.864912e-06
171	0x3921bc65	0.00015424339
172	0xbd2776d5	-0.04088481
173	0xba175d61	-0.00057741074
174	0xb944ae99	-0.0001875706
175	0x380bc358	3.332211e-05
176	0x36412994	2.8783443e-06
177	0x320b8d82	8.12304e-09
178	0xb71f4991	-9.494267e-06
179	0xb79f332c	-1.8978106e-05
180	0xb652ef73	-3.1431816e-06
181	0xbe523584	-0.20528227
182	0x3809554d	3.2742788e-05
183	0x38f0c197	0.00011480151
184	0xb4a26c9d	-3.0253878e-07
185	0x3db8ad0d	0.09017382
186	0x3a938913	0.0011256061
187	0xb993bf71	-0.0002818066
188	0xb83ffe46	-4.577476e-05
189	0x39c7b790	0.00038093003
190	0x3592f9ce	1.095055e-06
191	0x3c57a024	0.013160739
192	0x39cc041c	0.00038912974
193	0xbbfd7aaf	-0.0077355723
194	0xbe18a838	-0.1490792
195	0x359638aa	1.1192362e-06
196	0x35cfd265	1.5483935e-06
197	0xb2419df2	-1.1269991e-08
198	0xb62c9afb	-2.5720208e-06
199	0xbdd4e5f0	-0.103954196
200	0xb6931b59	-4.384125e-06
201	0xba835b9b	-0.0010021807
202	0x37eb3e5a	2.8043218e-05
203	0x35de2b15	1.6552827e-06
204	0x32b565a9	2.1117403e-08
205	0xb8f1cd79	-0.00011530048
206	0x389474fa	7.0789785e-05
207	0xbbed34ee	-0.0072389757
208	0xb4dbaac0	-4.0916166e-07
209	0x3a4e7b6b	0.0007876667
210	0xb8eda0de	-0.000113310045
211	0x3d15e85c	0.03659855
212	0x3887052c	6.438265e-05
213	0x33dde1dc	1.0332198e-07
214	0xba660474	-0.0008774467
215	0x3956eb9f	0.00020496406
216	0xbacc4b05	-0.0015586322
217	0x39850e65	0.00025378462
218	0x388d21b5	6.729682e-05
219	0x3979f2db	0.00023836961
220	0xbe1e47b8	-0.15457046
221	0xb4b08353	-3.2878106e-07
222	0x339ed2eb	7.395814e-08
223	0xbc43c5c0	-0.011949003
224	0xba01e334	-0.00049548154
225	0xbd12e70c	-0.035864875
226	0x395edb7d	0.00021253336
227	0xba16ade4	-0.00057479576
228	0x3aa0c3d0	0.0012265388
229	0xb6dbdc66	-6.5523664e-06
230	0xba277b0f	-0.00063888816
231	0xbea851b4	-0.32874835
232	0xb746701c	-1.1827822e-05
233	0xbd44b024	-0.048019543
234	0xbdc5fb7a	-0.09667106
235	0xb6d819b2	-6.440293e-06
236	0xb927f6ef	-0.00016018351
237	0x3c70aff4	0.014690388
238	0x2fcb357f	3.6963496e-10
239	0x361da7e8	2.3492557e-06
240	0xb9efa40d	-0.0004570786
241	0x3ba14b8c	0.004922336
242	0xba1101e8	-0.0005531595
243	0x38e7dd8a	0.00011056203
244	0xb87f27cb	-6.0833798e-05
245	0x3382f544	6.09821e-08
246	0x39713ed0	0.0002300695
247	0xb82fd878	-4.1924854e-05
248	0xb6a6d6e3	-4.9722016e-06
249	0x3ea6ca2d	0.32576123
250	0xbbd95429	-0.006632347
251	0xb56e8a94	-8.8863567e-07
252	0xbe0e8b54	-0.13920337
253	0xbd2df0c8	-0.042465955
254	0xb74943a1	-1.199628e-05
255	0xb66f3223	-3.5642959e-06

fc3.weight f4 [256, 256]
0	0xb6c537c4	-5.8775495e-06
1	0xb71fb143	-9.5184105e-06
2	0x3697c190	4.5226843e-06
3	0x386403a9	5.4362845e-05
4	0xb723f25b	-9.771985e-06
5	0xb2c0ea8a	-2.2458398e-08
6	0x34c8d316	3.7406488e-07
7	0x31a19ebd	4.703763e-09
8	0xb48afbc2	-2.588768e-07
9	0x39451e23	0.00018798611
10	0x357a7c5d	9.331323e-07
11	0x35b4ac0b	1.3461116e-06
12	0xa17b37c3	-8.511591e-19
13	0xb215a2b4	-8.709936e-09
14	0xb8060ed8	-3.1961914e-05
15	0xb846d85c	-4.740838e-05
16	0xb5d939a1	-1.6184532e-06
17	0x8000614f	-3.4908e-41
18	0xb6520325	-3.129427e-06
19	0x348f81d0	2.6730277e-07
20	0x36c6f190	5.9289814e-06
21	0xbb8e0c2c	-0.004334947
22	0xb5f501c6	-1.8254439e-06
23	0x38ac9929	8.2301274e-05
24	0x36ce3919	6.1459255e-06
25	0xba633493	-0.0008667197
26	0x390e1803	0.0001355112
27	0x38837f67	6.270297e-05
28	0xb5d66d38	-1.5976029e-06
29	0xb86890f2	-5.54481e-05
30	0x3a119c87	0.00055546354
31	0xbb96bbbc	-0.0046000164
32	0x351a3abd	5.7454946e-07
33	0xb4592c05	-2.0225714e-07
34	0x374c5336	1.2178722e-05
35	0xb8955ced	-7.1221824e-05
36	0x345ad960	2.0381913e-07
37	0x36192c06	2.2824402e-06
38	0x34cc0045	3.7998157e-07
39	0x388c1630	6.679853e-05
40	0xb58fd77e	-1.0717047e-06
41	0x378f774a	1.7102477e-05
42	0xbb8e1b51	-0.0043367525
43	0xb26f0522	-1.3912798e-08
44	0xb5dab3dc	-1.6294612e-06
45	0xb468f2ec	-2.1695058e-07
46	0x000451db	3.96706e-40
47	0xb5ad3c8e	-1.2907128e-06
48	0xb54b9740	-7.584349e-07
49	0xb7af3167	-2.088463e-05
50	0x3720fb70	9.5952855e-06
51	0xb695d316	-4.4651197e-06
52	0x305ecbc6	8.105271e-10
53	0xb297a5d0	-1.7654116e-08
54	0x322884f8	9.809121e-09
55	0x3325bf00	3.859077e-08
56	0xb2132ca7	-8.566679e-09
57	0x3982a316	0.0002491704
58	0x354dd413	7.667706e-07
59	0xb51af552	-5.772646e-07
60	0xb5b9edce	-1.3852784e-06
61	0x346a32fd	2.1811498e-07
62	0x3913bde6	0.00014089755
63	0xbb7e5d80	-0.0038813055
64	0xb1a6457b	-4.839135e-09
65	0xb848c820	-4.7870097e-05
66	0xaa207026	-1.4249764e-13
67	0x39a6feb0	0.00031851744
68	0xb694ee5c	-4.4384924e-06
69	0xb7919679	-1.7355416e-05
70	0xb4c2dfcd	-3.6298152e-07
71	0x356c09e8	8.7931267e-07
72	0x31e76a1c	6.735048e-09
73	0x391a4664	0.00014712807
74	0xba8dd9a2	-0.0010822306
75	0x35ee1e6a	1.7741233e-06
76	0xb9a72fc4	-0.0003188831
77	0xb2f4c5e4	-2.8495329e-08
78	0xb398a066	-7.107228e-08
79	0x35861dd6	9.992461e-07
80	0x360343ef	1.9560064e-06
81	0xb1567778	-3.1209009e-09
82	0xb1a05518	-4.666287e-09
83	0xba142e66	-0.0005652666
84	0x371d8f10	9.391239e-06
85	0x3a524fd7	0.00080227613
86	0xbb60952f	-0.0034268608
87	0x32e0f900	2.6190264e-08
88	0x3536aaf8	6.8049076e-07
89	0x33d3bcc0	9.8597866e-08
90	0x36b142ae	5.2827736e-06
91	0xb9d83a72	-0.00041242276
92	0xbb996bf6	-0.0046820594
93	0xb59f61c4	-1.1874877e-06
94	0x38b4ebdb	8.627e-05
95	0x34e88462	4.330969e-07
96	0xb9a5a5cf	-0.0003159479
97	0xb6be9b5f	-5.680529e-06
98	0xbaa25d6e	-0.0012387463
99	0x3188eebb	3.9852615e-09
100	0x3a06e0c4	0.0005145187
101	0xb353af17	-4.928651e-08
102	0x37f8766b	2.9619046e-05
103	0xb7a84cfb	-2.0063007e-05
104	0xbb7fe6d1	-0.003904749
105	0x347f745e	2.379106e-07
106	0xb783f1f2	-1.5729081e-05
107	0x36147bc1	2.2125753e-06
108	0x3b62f684	0.0034631798
109	0x3610db43	2.15853e-06
110	0x362cd82b	2.5755824e-06
111	0x34c500f1	3.6694794e-07
112	0xb280d026	-1.4995816e-08
113	0x33d1fb07	9.7779825e-08
114	0xb4d464ce	-3.9561422e-07
115	0xbb984559	-0.0046469388
116	0xb5a130c6	-1.200963e-06
117	0xb3bc2836	-8.7617465e-08
118	0x3b22f64f	0.002486605
119	0x341eb83a	1.4781918e-07
120	0xb96fc0e4	-0.00022864674
121	0x31c1e649	5.6432197e-09
122	0x334b74a2	4.7370698e-08
123	0xb50998fb	-5.1259093e-07
124	0xb9b6a162	-0.00034833985
125	0xb5fb1578	-1.8707206e-06
126	0x3abcce5c	0.0014404762
127	0x31177471	2.2039581e-09
128	0x3644b4a0	2.9311414e-06
129	0x38b4a25f	8.613313e-05
130	0x34e53424	4.269251e-07
131	0x3b0de4c0	0.0021651238
132	0x3512ff5c	5.4760835e-07
133	0xb5f46e36	-1.8211492e-06
134	0x37cee1d6	2.4662277e-05
135	0xb39e1c80	-7.3626325e-08
136	0xbaff8fea	-0.0019497846
137	0xb462488b	-2.1074281e-07
138	0xb6655e1a	-3.4178433e-06
139	0xb1908768	-4.2063455e-09
140	0xba16a823	-0.00057471
141	0xb8270677	-3.9821924e-05
142	0x33941710	6.895982e-08
143	0x351e9a22	5.908388e-07
144	0x344d4f8f	1.9121056e-07
145	0x3850f0a4	4.981518e-05
146	0xb6829457	-3.891571e-06
147	0xb1984830	-4.431989e-09
148	0x3afd20ae	0.0019312107
149	0x302984c2	6.16705e-10
150	0xb88ca2f4	-6.7060726e-05
151	0x32e39e75	2.6498336e-08
152	0xb75ea498	-1.3270554e-05
153	0xb43537bb	-1.6877213e-07
154	0xb7408c02	-1.147669e-05
155	0xb6828f40	-3.8909784e-06
156	0x3827acaf	3.9976727e-05
157	0x3252cab4	1.2269698e-08
158	0xb8a29ef3	-7.7543686e-05
159	0x369801d4	4.530166e-06
160	0x347a2aac	2.3298588e-07
161	0x36956175	4.4518915e-06
162	0x3a3ffba7	0.0007323571
163	0x3b23c46e	0.0024988907
164	0x2f4977a9	1.8323355e-10
165	0x37c043c0	2.2919732e-05
166	0x34cd8b7e	3.828572e-07
167	0x34133b2d	1.371197e-07
168	0xb982d51e	-0.00024954317
169	0xb7312092	-1.05576055e-05
170	0xb4c1c6ab	-3.60936e-07
171	0x37900dc6	1.7172551e-05
172	0x3a364670	0.0006953245
173	0x38f2d260	0.000115786446
174	0xb7749a1b	-1.4579414e-05
175	0xb6ad763e	-5.169567e-06
176	0xb6e73c7e	-6.8913787e-06
177	0xb32bab70	-3.996996e-08
178	0x356c14f4	8.794734e-07
179	0x34a6dc68	3.1080276e-07
180	0xb7a5f4ff	-1.9783618e-05
181	0xbb8f941c	-0.0043816697
182	0x36709e56	3.585495e-06
183	0x37292c7c	1.0083542e-05
184	0xb3144969	-3.45257e-08
185	0x37f22572	2.8866085e-05
186	0xb81e4e3f	-3.7743008e-05
187	0x34e3cf74	4.2432987e-07
188	0x35894480	1.0227232e-06
189	0xb7458be1	-1.1774683e-05
190	0xb3e151e6	-1.0492276e-07
191	0x37d2fae6	2.5150784e-05
192	0x359c7935	1.1658182e-06
193	0x382aef4d	4.0754025e-05
194	0x3acbc1a8	0.0015545385
195	0x3456f3a4	2.0018939e-07
196	0x34ce7118	3.8452777e-07
197	0xaf010b58	-1.1736512e-10
198	0xb3107e14	-3.364228e-08
199	0xbb81ab95	-0.0039572218
200	0xb56402a3	-8.4940456e-07
201	0xb91bb4eb	-0.00014849349
202	0x3439d6b8	1.7307582e-07
203	0x35ae2314	1.2974219e-06
204	0xb5f06117	-1.790965e-06
205	0x34f6ddda	4.598249e-07
206	0xb394609f	-6.909362e-08
207	0x36e921e0	6.9478847e-06
208	0xb555ddf2	-7.9671656e-07
209	0x37936896	1.7572467e-05
210	0x3458317f	2.0134574e-07
211	0x3a5ac781	0.00083457684
212	0x3351ed46	4.8877403e-08
213	0x347bfc10	2.3467896e-07
214	0xbb44ac5d	-0.0030009963
215	0xb711dcab	-8.694052e-06
216	0xb6eaf837	-7.0026394e-06
217	0xb607f4a4	-2.0258967e-06
218	0x324d0251	1.1933097e-08
219	0xb01c6ec8	-5.69099e-10
220	0xbab669d0	-0.0013917033
221	0x32708871	1.4000862e-08
222	0x30e3c1fc	1.6571557e-09
223	0xb55af481	-8.156713e-07
224	0x3a2ab87c	0.00065124757
225	0x3af1c864	0.0018446562
226	0xb50372d4	-4.89684e-07
227	0x352ee7c6	6.5157326e-07
228	0xbbb90182	-0.0056459317
229	0x32efb60f	2.7906053e-08
230	0x3490ec33	2.6993948e-07
231	0x3a4f29f0	0.00079026725
232	0xb3b683d5	-8.4990155e-08
233	0xbb2c3608	-0.0026277322
234	0xbb908293	-0.004410097
235	0xb6d64a5b	-6.386353e-06
236	0x3460b908	2.092894e-07
237	0x354c3ac0	7.6081415e-07
238	0xb061c54a	-8.213489e-10
239	0x33eff7e8	1.1174399e-07
240	0x34479058	1.8585831e-07
241	0x351dea1c	5.882773e-07
242	0x32b876b0	2.1474392e-08
243	0xb7652eb0	-1.3660334e-05
244	0x36d5e464	6.374483e-06
245	0x342f7c74	1.6343421e-07
246	0xb9840016	-0.00025177066
247	0x333d1c20	4.403057e-08
248	0x340595bd	1.2441065e-07
249	0x3b228551	0.00247987
250	0x3ab77a0a	0.0013998162
251	0xb4f533d2	-4.567251e-07
252	0xbbefa625	-0.007313507
253	0xbad7e301	-0.0016470851
254	0x3331aade	4.1366427e-08
255	0xb590d539	-1.0790892e-06

fc3.bias f4 [256]
0	0x3a5ec153	0.00084974355
1	0xba0d13c8	-0.0005381671
2	0x34ad9c55	3.2337508e-07
3	0x3b06be7a	0.002056031
4	0xa9017a46	-2.874981e-14
5	0x31ea7dbc	6.8245907e-09
6	0x334cc57f	4.7677073e-08
7	0x320b0f73	8.094378e-09
8	0x320f3036	8.334657e-09
9	0xbe172657	-0.14760719
10	0x39b13208	0.00033797347
11	0xb2c60d86	-2.3056383e-08
12	0x3f0346d7	0.5127997
13	0xbbafb4ef	-0.005362145
14	0x3e3c3026	0.18377742
15	0xb9653946	-0.00021860478
16	0x33ee1700	1.1086922e-07
17	0xb4f64bcb	-4.5876217e-07
18	0x38e15be8	0.00010745955
19	0xb7b4045b	-2.14597e-05
20	0xbd20d0a2	-0.039261468
21	0x3c2ad27c	0.01042616
22	0xb4ce49c2	-3.8424156e-07
23	0xbf06af83	-0.5261156
24	0xb89e76d6	-7.556162e-05
25	0xb68489de	-3.9499564e-06
26	0xb5ed292d	-1.766986e-06
27	0xb85afcf1	-5.221082e-05
28	0x36c67856	5.914869e-06
29	0xb4d10602	-3.8933655e-07
30	0xb723806e	-9.7454595e-06
31	0xb908c813	-0.00013044504
32	0xba2ded1b	-0.0006634758
33	0xb419bac0	-1.4317175e-07
34	0x38774fee	5.896383e-05
35	0xb426cc04	-1.5534175e-07
36	0x2fe4d69b	4.1625445e-10
37	0xb74b7b2a	-1.2128419e-05
38	0xb73c916c	-1.1239532e-05
39	0xbeb1d99a	-0.3473633
40	0x33f1b666	1.1255615e-07
41	0xb55136f8	-7.793856e-07
42	0xbcc57149	-0.02410187
43	0xbb118ab5	-0.002220792
44	0x36fede20	7.5956486e-06
45	0x31185700	2.2168365e-09
46	0x35390fc2	6.89408e-07
47	0xb9dc9089	-0.00042069357
48	0xb0870dd5	-9.826474e-10
49	0xba146bc4	-0.000566181
50	0x3b5b3644	0.0033449093
51	0x391ee418	0.00015153026
52	0xb4473d84	-1.8555698e-07
53	0x3acaf9f4	0.0015485869
54	0xbebb3000	-0.3656006
55	0xb60c0858	-2.0866482e-06
56	0xb98877c6	-0.0002602918
57	0xbc8637c0	-0.016384006
58	0x35cfd582	1.5484841e-06
59	0x34ec46bc	4.4009892e-07
60	0x3799e3e0	1.8345134e-05
61	0x3f01c6c3	0.5069391
62	0x37b6bc93	2.1783902e-05
63	0xba723bcd	-0.00092404784
64	0xbc94cae7	-0.018163158
65	0x3c7d5b92	0.015463727
66	0x36b406b1	5.365197e-06
67	0x39c56da0	0.00037656445
68	0x37a416d4	1.9560954e-05
69	0xb786e0e7	-1.6078773e-05
70	0x36c8a110	5.9792146e-06
71	0x3332cce4	4.16302e-08
72	0xb8c1837d	-9.227449e-05
73	0x339c108b	7.267325e-08
74	0x329a050c	1.7930255e-08
75	0xb4a7f0c3	-3.128135e-07
76	0xba6f312a	-0.00091244525
77	0xb6fd1187	-7.542028e-06
78	0x341d0f1a	1.4627258e-07
79	0x00088f21	7.86029e-40
80	0x3a0ef43f	0.00054532656
81	0xb5ee1ac5	-1.7740173e-06
82	0x39f36344	0.0004642253
83	0x3496f197	2.8115457e-07
84	0xbc22ffb6	-0.009948662
85	0x3607cfbd	2.0237487e-06
86	0xbc539006	-0.012912756
87	0xb8ece2b1	-0.000112955815
88	0xb6637d1b	-3.3898457e-06
89	0x3e978fe7	0.29601976
90	0x331e4c3c	3.6856576e-08
91	0xb7c08eb2	-2.2954631e-05
92	0x39727241	0.00023121481
93	0xb940f32c	-0.00018401135
94	0xafddfead	-4.0380624e-10
95	0xb90d72a8	-0.0001348952
96	0x3d7ec3d6	0.062198482
97	0x3d578e59	0.052625988
98	0x38751bb4	5.8438352e-05
99	0x3acfa2bd	0.0015841346
100	0x3dc3e0b0	0.0956434
101	0xb35ddb02	-5.165476e-08
102	0xb5c9fb46	-1.5048797e-06
103	0xbb55dbee	-0.003263231
104	0x3a10d8c3	0.0005525464
105	0x3b41a162	0.0029545655
106	0xbe4903ef	-0.19630407
107	0xba93c33e	-0.0011273397
108	0xb73b89ef	-1.1178184e-05
109	0xb99c5dda	-0.00029824564
110	0xb60c3b85	-2.089627e-06
111	0x348f8c22	2.6737786e-07
112	0x35dc0ceb	1.6395037e-06
113	0xb592d98a	-1.094116e-06
114	0xbab467c3	-0.0013763834
115	0x34458a60	1.8397395e-07
116	0xbcbfae2c	-0.023398481
117	0x1f4397d2	4.141844e-20
118	0xb907913b	-0.00012928706
119	0x2fecbb78	4.3061354e-10
120	0xb7bb90fc	-2.235965e-05
121	0x3b2aa1e2	0.002603643
122	0x37431e02	1.16298925e-05
123	0x386b90e7	5.6163317e-05
124	0xb502b21e	-4.868797e-07
125	0xbc190b83	-0.0093411235
126	0xb1c972ed	-5.8629355e-09
127	0xb32cae7c	-4.0205563e-08
128	0xbefc5fc1	-0.49291804
129	0xb64cc973	-3.0515628e-06
130	0x3a1324ec	0.0005613107
131	0xba31d042	-0.0006783047
132	0x3eafe2a1	0.34352592
133	0x8793777b	-2.2188326e-34
134	0xb71fc3d3	-9.522732e-06
135	0x3d89a581	0.067210205
136	0x3bb4c9b8	0.005517211
137	0xb67cc006	-3.7662699e-06
138	0xb3ddda26	-1.03307954e-07
139	0x3048a6f3	7.2996825e-10
140	0x38e41d63	0.00010877361
141	0x3e319fc5	0.17346103
142	0xb9bb9d63	-0.00035784682
143	0xba4212a2	-0.0007403289
144	0x1fc1844a	8.1957533e-20
145	0x3f005793	0.5013363
146	0xba51d1d1	-0.00080039824
147	0xb9ffc6b6	-0.0004878544
148	0x383b764e	4.4694454e-05
149	0x38cbffc5	9.727435e-05
150	0xb8c56098	-9.411684e-05
151	0xb4a68f9a	-3.1024393e-07
152	0xb3be9fdd	-8.8766434e-08
153	0xb9fa4601	-0.00047735873
154	0xb598ee54	-1.1394245e-06
155	0xb954403e	-0.00020241828
156	0xb79b1ed5	-1.8491797e-05
157	0xbcbde8b1	-0.023182245
158	0x35823a0f	9.702652e-07
159	0xba0b3bd0	-0.0005311342
160	0xbd7ad935	-0.0612423
161	0xb5eb4f26	-1.75319e-06
162	0xb924597e	-0.00015673597
163	0xbafdbab0	-0.0019358005
164	0xaf8e19c1	-2.584795e-10
165	0x394da89c	0.00019613135
166	0xbb7faeb6	-0.0039014048
167	0xba65c0f4	-0.0008764409
168	0x329c4b2c	1.8194974e-08
169	0xbb81f6f8	-0.0039662085
170	0xb2eec2bc	-2.7795402e-08
171	0x3541ea96	7.223947e-07
172	0x39087bc9	0.00013016084
173	0xb24afe56	-1.1815777e-08
174	0x34fd6018	4.719484e-07
175	0x37919b59	1.7357686e-05
176	0xb9a059e1	-0.00030584543
177	0xb4696fdb	-2.1740509e-07
178	0xb54100e6	-7.189941e-07
179	0xbb0030dd	-0.0019560375
180	0xb78f9960	-1.711835e-05
181	0xacec270d	-6.711859e-12
182	0xb89bd8c6	-7.431353e-05
183	0xbe0d6f59	-0.13812007
184	0xb0697724	-8.4934215e-10
185	0xb4ab4f96	-3.1909138e-07
186	0x34f6a28e	4.5939345e-07
187	0x3a81af25	0.0009894116
188	0x3a5cad68	0.00084181735
189	0x308b0059	1.011368e-09
190	0xb5fdcb7b	-1.890919e-06
191	0xbdd7f47b	-0.10544678
192	0xbcf5e724	-0.030017443
193	0xb3dafc43	-1.0197302e-07
194	0xb69f1020	-4.7404465e-06
195	0x381c011f	3.7194342e-05
196	0x35304c4a	6.5676124e-07
197	0x38c498d4	9.374475e-05
198	0x351245c4	5.449076e-07
199	0xb9a9e9f9	-0.00032408515
200	0x3afe099a	0.0019381524
201	0xb6c87ae4	-5.974771e-06
202	0xb615856a	-2.2280387e-06
203	0xb6f4e52a	-7.298445e-06
204	0x3c1ac815	0.009447117
205	0xbe2c20cd	-0.16809388
206	0x39c39461	0.0003730385
207	0xb772e5c1	-1.4477818e-05
208	0xb71c43cf	-9.3141125e-06
209	0xb6d4d833	-6.3432612e-06
210	0xb471f7ce	-2.2535025e-07
211	0x36773632	3.6837414e-06
212	0x3e8d4326	0.27590293
213	0xbcdaf90d	-0.026730085
214	0x3527ec76	6.2556444e-07
215	0xb58af7a7	-1.0353878e-06
216	0xb59564d5	-1.1130711e-06
217	0xbe8c7764	-0.27434838
218	0x380ddc48	3.3822173e-05
219	0xbacd0c4c	-0.0015643924
220	0x349be625	2.9038452e-07
221	0x359bf315	1.1619146e-06
222	0xbec8c0d0	-0.39209604
223	0x34523440	1.9576783e-07
224	0x3ca6b125	0.020348141
225	0xb6d024ce	-6.2031677e-06
226	0xaff0aeab	-4.3779855e-10
227	0x3cb37b87	0.021909488
228	0x37c29cfa	2.31997e-05
229	0x3a78f3f1	0.00094967993
230	0x39cbb320	0.00038852636
231	0xbd17ca7f	-0.03705835
232	0xbe918806	-0.2842409
233	0xba0ebf54	-0.000544538
234	0xb64d0de0	-3.0555457e-06
235	0x351a5730	5.7496345e-07
236	0xbc313628	-0.0108161345
237	0xb51b47b3	-5.7846336e-07
238	0xa1c47428	-1.3312223e-18
239	0x3f065b9f	0.5248355
240	0xb6e5d870	-6.8499285e-06
241	0xb822b2b0	-3.8790226e-05
242	0x3c180dce	0.009280635
243	0x3f124069	0.5712953
244	0xbd01bdce	-0.031675152
245	0xbb95812c	-0.0045625176
246	0xbaa9dafc	-0.0012958939
247	0xb6f615a8	-7.3338924e-06
248	0xb83ba15a	-4.4734545e-05
249	0x3a847cb8	0.001010797
250	0x3e8c3ed7	0.27391693
251	0xbbc5d8a7	-0.00603779
252	0xbc89a1f4	-0.016800858
253	0x3f145e4b	0.5795638
254	0x310caf4d	2.0472328e-09
255	0x36735201	3.6257554e-06
