shanghai_road_delivery/results_centralized/centralized_episode_300.pth_centralized_actor.pth (torch, 922090 bytes, 20 tensors)

fc1.weight f4 [256, 364]
000000 20 d3 52 36 c0 78 6c b9 40 a6 dc 39 4b bd dd 39
       3.141533e-06 -0.00022551697 0.00042085536 0.0004229344
000010 49 a5 dd 39 86 4f dd 39 2b 47 24 3a 14 0b 8b b8
       0.00042275552 0.00042211654 0.00062667084 -6.6301e-05
000020 95 8b c9 31 a6 2d 89 ba 82 b1 19 b2 b1 cd 7f b9
       5.8657386e-09 -0.0010465875 -8.946133e-09 -0.00024395321
000030 a4 09 3e 2f 1c f9 04 33 20 08 d7 2d 24 9f 55 ad
       1.7283824e-10 3.096021e-08 2.4446278e-11 -1.21429845e-11
000040 36 56 a2 98 00 06 e1 b7 24 65 f3 b0 7c db 14 af
       -4.196307e-24 -2.6824884e-05 -1.7709323e-09 -1.3538498e-10
000050 87 46 53 38 ce c4 12 b2 60 9f ad b8 f1 5c 09 39
       5.0372004e-05 -8.543067e-09 -8.278969e-05 0.00013099962
000060 77 d0 9f b1 da 50 0c 34 b6 44 c1 ae 8e ed 7e ab
       -4.6512088e-09 1.306793e-07 -8.7888294e-11 -9.05686e-13
000070 31 60 8e 19 2f c6 d3 37 75 09 34 99 a4 d2 fe 31
       1.4721307e-23 2.5245447e-05 -9.307692e-24 7.41632e-09
000080 e8 7f 15 2f d8 26 ca b9 0c 84 fb 17 e8 bc 11 b8
       1.3596912e-10 -0.00038557383 1.6253828e-24 -3.4746627e-05
000090 d6 b1 da 18 5a a6 dc 39 3c a4 5e b0 5a a6 dc 39
       5.6531248e-24 0.00042085611 -8.099652e-10 0.00042085611
0000a0 1e 1c a1 b1 84 e6 28 30 6f d4 04 31 ea 4d a8 30
       -4.6889133e-09 6.1445626e-10 1.9329283e-09 1.2245753e-09
0000b0 13 5f fc b1 ec 2e 03 30 80 c4 bd b0 44 4e 39 b0
       -7.344974e-09 4.77242e-10 -1.3807409e-09 -6.741383e-10
0000c0 e9 ae 8f b9 5a a6 dc 39 e2 2d c2 3a 5a a6 dc 39
       -0.00027405404 0.00042085611 0.00148147 0.00042085611
0000d0 35 bd dd 39 b0 0a 2f 39 30 a6 dc 39 7c 56 dc 39
       0.00042293375 0.00016693282 0.0004208549 0.00042026106
0000e0 4e 8b dc 39 e3 7b db 39 7e 99 32 b3 e0 39 95 33
       0.0004206546 0.00041863238 -4.1583455e-08 6.9488806e-08
0000f0 b1 1b b7 aa 6c 81 58 2e 40 48 15 b1 b1 cd 7f b9
       -3.2526545e-13 4.9227664e-11 -2.1723423e-09 -0.00024395321
000100 c8 f1 e3 af e4 61 38 b1 e0 b6 9f 2d 84 fe 50 ad
       -4.1462855e-10 -2.6831168e-09 1.815742e-11 -1.1879945e-11
000110 f0 bd a3 98 41 5f bf 36 3b ef 0f b0 e0 0a 53 ae
       -4.23263e-24 5.7033326e-06 -5.2363064e-10 -4.7985504e-11
000120 87 46 53 38 4c f9 e2 81 e0 30 ca b8 ab b1 31 b6
       5.0372004e-05 -8.337701e-38 -9.641214e-05 -2.6478472e-06
000130 fb 91 a2 ae 4d 37 a9 35 2e 38 e3 ad 92 30 21 2c
       -7.3928384e-11 1.2607576e-06 -2.5831861e-11 2.2906438e-12
000140 eb e1 aa 98 b0 49 37 b7 6e a2 33 99 16 ef 94 a9
       -4.417209e-24 -1.0924807e-05 -9.2868855e-24 -6.613995e-14
000150 78 90 88 2f 5a 30 b9 b0 0b 84 96 18 9d 37 da 30
       2.4840907e-10 -1.3474264e-09 3.890742e-24 1.5877394e-09
000160 67 04 d1 18 5a a6 dc 39 91 f2 50 b0 5a a6 dc 39
       5.402968e-24 0.00042085611 -7.6014667e-10 0.00042085611
000170 1d db e2 31 78 cc f2 b1 88 37 92 30 5e 34 31 30
       6.602376e-09 -7.0663724e-09 1.0638681e-09 6.4466643e-10
000180 6a 51 bb b1 30 85 4b ae 00 16 e3 2f ce 93 8f 2f
       -5.451672e-09 -4.627515e-11 4.1306691e-10 2.611657e-10
000190 e0 b8 af 35 e4 09 d8 39 b0 b6 88 b2 5a a6 dc 39
       1.3092322e-06 0.000412061 -1.591556e-08 0.00042085611
0001a0 d8 4c 18 37 e0 d1 3f 38 3e a6 dc 39 3b b8 dc 39
       9.077798e-06 4.573341e-05 0.0004208553 0.00042098932
0001b0 e5 c8 dc 39 41 2e dc 39 72 88 03 b3 92 32 0e aa
       0.00042111348 0.00041996132 -3.062491e-08 -1.2629679e-13
0001c0 88 b1 d5 30 7f 70 5e 2e b3 41 51 b1 b1 cd 7f b9
       1.5548247e-09 5.0576873e-11 -3.0450849e-09 -0.00024395321
0001d0 b6 58 25 b0 c8 32 2e 2a c0 90 99 2d b0 09 51 ad
       -6.0152716e-10 1.5471923e-13 1.7458368e-11 -1.1882426e-11
0001e0 1e 6f a3 98 32 5c a5 2f 60 d1 20 2c 1a 64 ef af
       -4.2246712e-24 3.0078834e-10 2.2853594e-12 -4.3544973e-10
0001f0 87 46 53 38 5a 28 2d b6 2b d4 d9 b8 d6 58 3f 35
       5.0372004e-05 -2.5802497e-06 -0.00010386886 7.128232e-07
000200 1c a6 95 b3 b8 06 73 2f 4e 85 9e 2f 01 60 d5 37
       -6.968568e-08 2.2103108e-10 2.883475e-10 2.5436284e-05
000210 f0 48 f2 98 1a 0e 05 b3 f9 12 8d 19 92 61 01 00
       -6.262918e-24 -3.09793e-08 1.4586721e-23 1.26837e-40
000220 60 54 16 2f f0 e1 8b 32 b8 02 17 18 e6 12 d5 36
       1.3672397e-10 1.6284474e-08 1.9517665e-24 6.3500947e-06
000230 b8 f8 cb 18 5a a6 dc 39 1e e0 5e b0 5a a6 dc 39
       5.272541e-24 0.00042085611 -8.108162e-10 0.00042085611
000240 c6 a9 19 31 99 40 26 b1 af f4 0a 31 e4 08 49 b1
       2.2360935e-09 -2.4192899e-09 2.022073e-09 -2.9254403e-09
000250 95 66 a7 31 16 d8 b8 b0 b6 1a af 2f ae c4 b1 2f
       4.872002e-09 -1.3449177e-09 3.1851294e-10 3.2335862e-10
000260 bc 9a a2 36 10 7b d8 39 be c0 e1 2f 5a a6 dc 39
       4.8459897e-06 0.0004129042 4.1064213e-10 0.00042085611
000270 5a 8f 5f b9 57 7e 55 b9 30 a6 dc 39 26 b3 da 39
       -0.0002132034 -0.00020360328 0.0004208549 0.00041713676
000280 0b d0 da 39 02 7c da 39 87 87 a7 b1 00 02 57 2e
       0.00041735204 0.00041672593 -4.8757474e-09 4.8887117e-11
000290 a3 dd 96 31 fc 6f b1 b8 d0 ce 33 2f b1 cd 7f b9
       4.3907717e-09 -8.4608764e-05 1.635343e-10 -0.00024395321
0002a0 38 7c 83 2e f0 ea c8 ae 24 c0 53 af 08 57 5b ad
       5.979256e-11 -9.13668e-11 -1.92586e-10 -1.24680336e-11
0002b0 be aa a2 98 42 f6 0a b1 90 ba 74 2e e0 0a 53 ae
       -4.2048424e-24 -2.0221624e-09 5.5644878e-11 -4.7985504e-11
0002c0 87 46 53 38 58 37 b7 32 ae 66 ca b8 56 60 f5 33
       5.0372004e-05 2.1329171e-08 -9.651236e-05 1.1426225e-07
0002d0 cf 0f e6 38 cb 33 a1 b9 c6 aa 78 2c 30 78 07 33
       0.00010970199 -0.00030746902 3.5337718e-12 3.1541447e-08
0002e0 f9 0e e4 98 14 d6 86 2f 3d 01 8d 19 4e 0a 00 00
       -5.8951737e-24 2.452657e-10 1.4579558e-23 3.697e-42
0002f0 e2 15 34 99 d0 62 c9 35 10 8a d9 17 aa 45 06 ae
       -9.310201e-24 1.5004425e-06 1.4058148e-24 -3.0529947e-11
000300 d5 77 dc 18 5a a6 dc 39 1f 40 50 b0 5a a6 dc 39
       5.6989667e-24 0.00042085611 -7.576108e-10 0.00042085611
000310 d8 fd 1a 2e a0 37 aa 30 0a 45 35 31 80 94 a1 2e
       3.5241005e-11 1.2384938e-09 2.637821e-09 7.347811e-11
000320 64 6b 19 af 66 93 05 b1 34 9f 7a 30 d8 75 13 b1
       -1.3953422e-10 -1.9437834e-09 9.117571e-10 -2.1458302e-09
000330 ae b0 ca 32 4c 68 db 39 25 48 ee b4 5a a6 dc 39
       2.359624e-08 0.00041848642 -4.4383447e-07 0.00042085611
000340 9e 86 0d 39 90 08 12 39 3f a6 dc 39 46 c7 da 39
       0.00013496957 0.00013926835 0.00042085533 0.0004172867
000350 9a e7 db 39 ee 6d d3 39 6b dd be 3a b4 fa 19 ac
       0.00041943492 0.0004032696 0.0014561837 -2.1881776e-12
000360 64 6a bf bb f4 94 54 3a 0c b2 2f 2b b1 cd 7f b9
       -0.00584154 0.0008109354 6.241958e-13 -0.00024395321
000370 9a 5c 7a 30 78 b1 34 aa 00 f3 1c ad b0 09 51 ad
       9.1081065e-10 -1.6048783e-13 -8.92153e-12 -1.1882426e-11
000380 a8 82 a3 98 70 95 03 b9 48 0d 4f af 8c dc 7a af
       -4.226644e-24 -0.00012548803 -1.8831259e-10 -2.2815722e-10
000390 87 46 53 38 4e c4 f0 b5 b5 5d 58 38 50 6a 41 ac
       5.0372004e-05 -1.7938526e-06 5.1585685e-05 -2.7485965e-12
0003a0 54 69 ba b8 b6 79 b4 ab 00 2a 66 b3 a6 cb 80 35
       -8.88879e-05 -1.2823551e-12 -5.3589247e-08 9.596013e-07
0003b0 9a 98 7f 98 32 fd 5f 33 9a 8f 8c 19 22 6d 1f bb
       -3.3035022e-24 5.2151513e-08 1.4533661e-23 -0.0024326523
0003c0 5f 2a 34 99 be 68 24 2c 70 51 16 2f b2 cb ae aa
       -9.314339e-24 2.3363945e-12 1.3671353e-10 -3.104995e-13
0003d0 9e 86 d2 18 5a a6 dc 39 9a ca 66 b0 5a a6 dc 39
       5.4419656e-24 0.00042085611 -8.3961427e-10 0.00042085611
0003e0 f2 b3 69 b1 30 81 6c b0 c0 7a 0f 31 e0 51 e3 b0
       -3.400825e-09 -8.6039886e-10 2.0879014e-09 -1.6539694e-09
0003f0 74 f4 58 b2 9e a2 d4 30 92 28 05 b0 69 ec 23 af
       -1.2628437e-08 1.5471249e-09 -4.844277e-10 -1.4908753e-10

fc1.bias f4 [256]
000000 5a a6 dc 39 f8 27 bb b4 97 ad 8b 2d 9c 5d eb b9
       0.00042085611 -3.4860545e-07 1.587956e-11 -0.00044892437
000010 ca 8a aa 31 4c fd 88 38 ea 09 2f b4 09 2a d3 bd
       4.9634297e-09 6.5321656e-05 -1.6301752e-07 -0.10310752
000020 9f ac d3 ba 85 ed 2e 33 95 23 01 3a 14 7e 49 b8
       -0.0016149468 4.0728555e-08 0.00049262616 -4.8039554e-05
000030 eb dc 72 b7 72 0d 73 35 00 34 b9 31 3e 51 bd b1
       -1.44757605e-05 9.054412e-07 5.3901204e-09 -5.50986e-09
000040 61 9c a3 37 6b 30 95 2f 1c fb a5 36 ec 3a 3e ba
       1.9503934e-05 2.7137345e-10 4.946616e-06 -0.0007256705
000050 55 4c b7 b9 43 01 b8 b4 aa ec d4 be 3e a8 dd af
       -0.00034961352 -3.427359e-07 -0.4158681 -4.031921e-10
000060 f8 7a f2 2a f6 d9 69 33 50 e7 8d 35 f3 df ad bb
       4.3073162e-13 5.4447774e-08 1.057264e-06 -0.005306238
000070 95 cb 01 b6 23 b3 da b3 78 0e 8d b4 60 fa 82 b9
       -1.9340998e-06 -1.0184001e-07 -2.6273824e-07 -0.00024982076
000080 4e 37 a5 b3 e3 c3 ea b9 08 81 09 a9 a6 8b 69 3a
       -7.693471e-08 -0.00044777905 -3.0532028e-14 0.0008909054
000090 e9 83 9b b0 e8 bc 34 af ad c7 20 b2 e1 81 35 36
       -1.1315225e-09 -1.6438018e-10 -9.358627e-09 2.7046701e-06
0000a0 b8 e1 86 b4 a4 f0 82 3e 5f 35 64 35 f4 ad 91 39
       -2.5123677e-07 0.2557422 8.5014284e-07 0.0002778616
0000b0 57 49 bf 37 eb 11 a2 33 93 ce d7 35 f1 46 b0 a9
       2.2803126e-05 7.546972e-08 1.6078869e-06 -7.8282765e-14
0000c0 a0 2b 9c 33 ee c0 57 b7 ad 94 9d 35 b0 36 1f 33
       7.2722514e-08 -1.2859919e-05 1.1740682e-06 3.706981e-08
0000d0 c1 1d 07 3b 0c 53 b5 b5 7d 4d 4f 34 34 0a 4b 32
       0.00206171 -1.3509721e-06 1.9306567e-07 1.1818475e-08
0000e0 9d a0 69 38 36 a9 12 39 54 3a 3e b2 f1 7a 6f b0
       5.570111e-05 0.00013986681 -1.1072718e-08 -8.7122404e-10
0000f0 a2 09 a9 b4 6a 78 8d ba ce 14 51 3d 81 d3 0f b4
       -3.1485712e-07 -0.0010793332 0.05104523 -1.3394857e-07
000100 37 75 7f b6 e6 09 99 b4 ad 92 84 35 14 7a 9d b3
       -3.806619e-06 -2.8505673e-07 9.877455e-07 -7.333088e-08
000110 81 48 05 ba 15 b1 f4 30 45 c5 83 3e 07 94 7e b9
       -0.0005084351 1.7803666e-09 0.25736442 -0.00024278472
000120 06 02 d1 33 ad 35 13 36 58 35 b4 35 b6 7f df 31
       9.732689e-08 2.193595e-06 1.342657e-06 6.5046732e-09
000130 96 61 3e b4 ba c4 48 b6 fd 8c 61 b3 20 7a 22 2f
       -1.773063e-07 -2.9916832e-06 -5.2515123e-08 1.4777202e-10
000140 9d 49 24 3a a1 5f 23 37 fe 77 84 38 b8 6c 73 b3
       0.0006267073 9.737822e-06 6.316601e-05 -5.6676726e-08
000150 93 9d f4 3e e2 94 eb b6 b1 2f 88 31 fb b4 b8 34
       0.4777647 -7.020878e-06 3.963543e-09 3.440435e-07
000160 90 94 22 30 5e 40 b7 36 3b fd 2b 37 a9 66 a5 b3
       5.9146377e-10 5.4613183e-06 1.0251354e-05 -7.702085e-08
000170 c4 3b f5 b2 5a 9e ca b8 33 79 7a b8 6e ef 60 b8
       -2.8548932e-08 -9.661606e-05 -5.971752e-05 -5.3628748e-05
000180 16 ca bb 34 ac 61 56 b2 ae fa 07 b4 e6 2a 0b 38
       3.49785e-07 -1.24786474e-08 -1.2664051e-07 3.3180135e-05
000190 b8 b4 52 b2 02 4b 25 31 6e 86 b0 39 61 a0 63 b2
       -1.22646995e-08 2.4053297e-09 0.00033669494 -1.3249605e-08
0001a0 22 a4 8d b5 d6 dc b4 b7 2f 46 99 31 27 3a c8 34
       -1.0553088e-06 -2.1560507e-05 4.460865e-09 3.7295214e-07
0001b0 11 31 90 36 71 2d 04 36 f0 8e 13 af 08 e1 ac b3
       4.2972465e-06 1.9695983e-06 -1.3420354e-10 -8.050307e-08
0001c0 a4 70 36 b5 e6 21 12 b5 cb 4f ab b2 e9 32 9d 38
       -6.7964197e-07 -5.4438567e-07 -1.9943306e-08 7.495826e-05
0001d0 1e 53 c3 b2 2a 05 1f b1 3c e1 cc b4 ac 6a 06 30
       -2.2738785e-08 -2.314048e-09 -3.816184e-07 4.8900506e-10
0001e0 06 e9 54 38 b0 42 5c 35 88 76 91 32 56 ce 22 3a
       5.076176e-05 8.205343e-07 1.6934123e-08 0.0006210556
0001f0 e0 bf c2 33 2a c5 bb 39 b8 af 19 36 32 0d ed b9
       9.068731e-08 0.00035814318 2.2901058e-06 -0.00045213994
000200 70 e7 af b9 b0 1f c5 b4 45 c9 f1 34 a8 91 6b b6
       -0.00033551035 -3.6717165e-07 4.503619e-07 -3.5102512e-06
000210 c2 5f 82 37 a6 a2 8b 35 e7 65 88 36 75 2a 26 b6
       1.5541798e-05 1.0403644e-06 4.064979e-06 -2.476064e-06
000220 af b7 b6 37 62 9e 24 b6 90 7e 39 3a f2 0f 4b b2
       2.1781625e-05 -2.4530095e-06 0.0007076049 -1.1819781e-08
000230 9c f3 b7 35 20 88 de b7 4a ce dc 21 1c 08 83 39
       1.3705462e-06 -2.652785e-05 1.4962384e-18 0.0002499231
000240 ba 9b 0c b4 95 5d 12 b7 47 04 32 34 95 55 f4 b9
       -1.3095169e-07 -8.724067e-06 1.6579098e-07 -0.0004660307
000250 cc c3 a1 b4 9e 49 b4 38 b2 7d d7 b3 d3 ba 91 b8
       -3.0131048e-07 8.596781e-05 -1.00345815e-07 -6.9489375e-05
000260 d3 49 01 b5 90 84 a9 b3 38 89 66 b9 22 22 22 b7
       -4.8163673e-07 -7.893789e-08 -0.00021985627 -9.6639e-06
000270 59 44 dc 33 1a 5b 90 b9 a3 f8 2a b6 48 5d a6 39
       1.0256981e-07 -0.00027533696 -2.54767e-06 0.00031731487
000280 ff 78 85 31 dc fa 93 ba ce 4e cf b9 fc d7 2b b7
       3.884565e-09 -0.0011289972 -0.0003954083 -1.0242682e-05
000290 82 77 a5 32 02 3c d1 33 c5 6b 87 3d 72 11 5f b6
       1.9262874e-08 9.743236e-08 0.06612352 -3.3239744e-06
0002a0 2a cf f1 3d 72 a6 51 b8 5c 91 b7 31 de be 86 b8
       0.118070915 -4.9984497e-05 5.3425264e-09 -6.42517e-05
0002b0 0a 3d 62 2f a2 55 23 3a ee 53 29 b7 6d 50 c3 b9
       2.0576266e-10 0.0006230717 -1.0092726e-05 -0.0003725322
0002c0 c9 35 4a ba 96 03 29 b8 ce a6 4c b5 d9 01 f7 b9
       -0.0007713703 -4.029608e-05 -7.6238655e-07 -0.00047112888
0002d0 b7 b9 42 b8 e6 50 81 39 49 86 8b 3a d0 46 5e b2
       -4.6426165e-05 0.0002466507 0.0010644878 -1.2938202e-08
0002e0 ba 8a 09 39 66 79 95 b6 69 74 5a b8 d0 e7 3f 36
       0.00013117018 -4.4546787e-06 -5.2083666e-05 2.859615e-06
0002f0 04 e0 cc 2e cc c0 82 b8 e8 1f 9b 2f 4c e5 0c 33
       9.316639e-11 -6.234794e-05 2.8217007e-10 3.2804834e-08
000300 ab 64 97 2f 0f a7 27 bd ae 8e 6f b6 08 2c e6 39
       2.753827e-10 -0.040930804 -3.5696826e-06 0.00043901824
000310 e0 e2 33 37 77 3d d7 36 ab 29 b0 b0 91 bf 61 3f
       1.0722055e-05 6.4146548e-06 -1.2817528e-09 0.8818293
000320 87 0a 8b 39 7b da 54 b2 15 35 8b b5 3c 44 02 35
       0.0002651999 -1.2389701e-08 -1.0371756e-06 4.852807e-07
000330 0a 3d 93 b4 bc a7 98 39 90 15 0d 33 5f d7 03 3a
       -2.7425295e-07 0.0002911667 3.284873e-08 0.0005029346
000340 a8 a7 dd b7 e3 af b9 39 43 15 3f b7 82 4c 29 b6
       -2.6423324e-05 0.00035416996 -1.13894375e-05 -2.5227496e-06
000350 a3 30 02 b9 8c e7 f1 b8 10 3a 73 b0 bc 80 85 b2
       -0.00012415885 -0.000115349045 -8.8485397e-10 -1.554178e-08
000360 c6 d7 d1 ab 97 e7 8d b6 80 83 ef 38 3a e9 ca 36
       -1.4910232e-12 -4.229088e-06 0.00011420902 6.0472203e-06
000370 9e 8c 9e 38 b9 55 49 b7 f2 5c 95 33 32 6e b9 b4
       7.560219e-05 -1.20004925e-05 6.95526e-08 -3.4539113e-07
000380 ee 26 c3 ae 85 0d b0 33 40 36 4b b1 a8 56 b8 ba
       -8.8744886e-11 8.198098e-08 -2.9571225e-09 -0.0014063912
000390 7b 70 2f b4 01 67 3c 35 c5 70 e7 b4 ec b6 20 38
       -1.6339065e-07 7.018535e-07 -4.3109154e-07 3.8317332e-05
0003a0 ac c7 d1 b8 3a 23 a0 2e 2c 3c 93 37 c0 c2 15 be
       -0.000100030884 7.282215e-11 1.7551785e-05 -0.14625072
0003b0 a8 b9 02 39 10 37 59 b1 fe 7c 45 b8 78 08 a9 38
       0.00012466928 -3.1608955e-09 -4.7084868e-05 8.0601254e-05
0003c0 e9 de 46 38 47 f9 0b 37 6b 52 95 ac 8f 44 a7 39
       4.741448e-05 8.343085e-06 -4.243985e-12 0.00031903802
0003d0 44 e7 db b9 c8 92 9f 38 5c 11 d4 39 f8 49 1d 3f
       -0.0004194324 7.609051e-05 0.00040448725 0.6144099
0003e0 9c 19 c0 b1 bc a8 ac b3 c4 32 aa b6 bc 3c b9 9e
       -5.590847e-09 -8.040067e-08 -5.0723047e-06 -1.9612756e-20
0003f0 b1 10 00 b7 4b 10 ae b2 b6 11 b1 b8 ca b4 4b b6
       -7.633281e-06 -2.0263675e-08 -8.4433166e-05 -3.035459e-06

fc2.weight f4 [256, 256]
000000 66 5e 75 2f d6 17 db 32 cb 5c 40 af ca b1 1b bb
       2.2316157e-10 2.5505795e-08 -1.7495265e-10 -0.0023757094
000010 ec 64 26 29 c0 15 dc b2 9d 47 32 2e 5a 90 93 b2
       3.694694e-14 -2.5621262e-08 4.053612e-11 -1.7178696e-08
000020 65 ab cb 30 6c 36 5b b1 7e 1b 5f 39 81 4b 51 b3
       1.4818907e-09 -3.189963e-09 0.00021277179 -4.8730275e-08
000030 00 77 0f b1 ec c8 33 29 10 df 3c b9 e6 96 97 af
       -2.0876882e-09 3.9920256e-14 -0.00018012174 -2.757396e-10
000040 5a 4b 96 b2 ae 32 d0 2b 2e 2c 14 31 9f ea e5 b2
       -1.7496564e-08 1.4793355e-12 2.1561948e-09 -2.6765802e-08
000050 48 f4 05 34 21 75 f2 b1 46 ca 40 30 7d 0f 41 2d
       1.2475459e-07 -7.056443e-09 7.013664e-10 1.0974219e-11
000060 e6 d5 27 22 1c 08 04 39 34 4d 89 af 93 b9 e9 b0
       2.2745957e-18 0.00012591522 -2.497501e-10 -1.7005725e-09
000070 18 48 5e 32 04 70 81 2e d8 7c fd ba a4 ac 8f 28
       1.2938493e-08 5.886139e-11 -0.0019339575 1.595106e-14
000080 32 c9 04 34 02 26 73 b1 ce bc 4d 1d 8c e1 a7 32
       1.2366652e-07 -3.538276e-09 2.7229134e-21 1.9543926e-08
000090 bb 97 a1 ae fe ba ff 2d 56 1e 0e 3a d6 c9 86 30
       -7.348385e-11 2.9073185e-11 0.00054213905 9.807148e-10
0000a0 76 10 ba ae 1d 30 43 b4 8b 93 57 2e 7a c7 90 b0
       -8.461225e-11 -1.8178294e-07 4.9016385e-11 -1.0534074e-09
0000b0 c6 e0 43 33 ec 28 57 b1 20 e5 60 ad 20 04 98 a2
       4.5606406e-08 -3.130988e-09 -1.2783802e-11 -4.120405e-18
0000c0 02 d5 75 ac fa 6c ae 32 98 18 b7 b4 ef 3e 23 2d
       -3.4934837e-12 2.0305823e-08 -3.41043e-07 9.279451e-12
0000d0 bc 6a cd 2e dc 01 3c 32 58 29 10 a9 40 ca 9a 2f
       9.3412805e-11 1.0943463e-08 -3.2010283e-14 2.8156144e-10
0000e0 f6 3a 49 af ee f3 b8 b0 1b d6 56 ad 79 7e 36 2c
       -1.830179e-10 -1.3457091e-09 -1.2212033e-11 2.5933962e-12
0000f0 1c 7b 30 b8 d3 9a ea b0 c0 33 74 36 df c4 13 33
       -4.2076324e-05 -1.7069745e-09 3.6388956e-06 3.4405158e-08
000100 8e f3 ab b2 4e c5 8f ab 2c b1 6c 27 9d 01 12 00
       -2.0017776e-08 -1.0215524e-12 3.2847624e-15 1.653618e-39
000110 c2 03 2b 30 33 bc 18 bb a5 b3 10 b4 74 3c 28 af
       6.221478e-10 -0.0023305535 -1.34764e-07 -1.5300988e-10
000120 57 23 82 2f a2 78 5a 31 90 16 2b 33 5a ba f7 a8
       2.3671973e-10 3.1791747e-09 3.983456e-08 -2.7503326e-14
000130 bb 0f 91 30 da 8f 3b ba 55 ea af 34 12 8f a7 2c
       1.0554609e-09 -0.00071549194 3.276679e-07 4.7623095e-12
000140 60 ad 51 b2 c8 70 89 37 2e 86 a4 af 26 4b aa b1
       -1.2204822e-08 1.638419e-05 -2.9926767e-10 -4.9561946e-09
000150 94 b1 ca b2 d9 12 0e b1 68 d2 95 27 e8 f8 2a 39
       -2.3596648e-08 -2.0674433e-09 4.158393e-15 0.00016305188
000160 78 e6 39 aa b4 4c ae af 61 19 a4 b1 09 79 b1 b0
       -1.651126e-13 -3.1704916e-10 -4.7759134e-09 -1.2912845e-09
000170 b8 4d ab 2f 85 16 57 33 7c af 50 38 21 6d e2 b2
       3.115994e-10 5.007907e-08 4.9754497e-05 -2.6359489e-08
000180 a8 e5 97 32 96 66 22 b2 b4 5a 3d 2d c2 ab c3 b6
       1.768315e-08 -9.452966e-09 1.0763546e-11 -5.831448e-06
000190 ee ce 51 38 ce 8d 45 2f d2 9b 80 2d f4 0c 86 37
       5.00222e-05 1.7967425e-10 1.4621113e-11 1.5980077e-05
0001a0 5c 7d fd 2f 54 7e dd 2f 4a d2 f6 a5 b2 4a 33 b4
       4.6109505e-10 4.0289427e-10 -4.2816695e-16 -1.6697848e-07
0001b0 44 24 03 31 06 cb 96 b3 7a e4 10 2c ec 14 04 a8
       1.9083624e-09 -7.021849e-08 2.059046e-12 -7.332009e-15
0001c0 41 f0 91 32 11 d6 26 b4 83 7f ff 93 1e be c9 32
       1.6989476e-08 -1.5537832e-07 -6.4496786e-27 2.3485935e-08
0001d0 e4 c9 bf ae 06 31 4d ac 44 14 f3 ae b7 a9 bf b3
       -8.7215374e-11 -2.9159466e-12 -1.10539605e-10 -8.9250015e-08
0001e0 d8 44 1b b2 f8 47 16 2b ae 7f f5 ae 94 1a d3 a8
       -9.037841e-09 5.339058e-13 -1.11639906e-10 -2.3437232e-14
0001f0 e8 cc 29 b0 9c 3c 3c 2f c3 45 00 b6 47 db ea 2d
       -6.177303e-10 1.7120033e-10 -1.9114093e-06 2.6700099e-11
000200 3c 22 5f af 37 1e 3a 32 80 e6 9b 2f 97 02 88 b1
       -2.0293894e-10 1.0833495e-08 2.8358116e-10 -3.9584154e-09
000210 d1 c6 5e 35 b6 a6 59 35 08 94 35 b5 df 9d bb 2a
       8.299076e-07 8.1081396e-07 -6.764317e-07 3.3327418e-13
000220 f6 62 32 b0 10 37 40 af bb 33 80 33 aa 97 46 af
       -6.4896655e-10 -1.748186e-10 5.969874e-08 -1.8061877e-10
000230 c1 ca 16 35 ea 72 2b ab aa a3 21 19 88 c3 3e b7
       5.61744e-07 -6.091088e-13 8.356557e-24 -1.1370408e-05
000240 de 37 02 33 09 e8 17 36 8b 89 b6 3a ca 13 7d b1
       3.0318795e-08 2.2635816e-06 0.0013926489 -3.6827594e-09
000250 88 d4 ef 38 00 9c 24 b1 28 f1 f8 b0 73 a6 0b 31
       0.00011435995 -2.3953817e-09 -1.8112916e-09 2.0321778e-09
000260 8e 97 76 af af 16 01 80 6c f1 74 33 40 6d f9 b9
       -2.2427413e-10 -9.9973e-41 5.703025e-08 -0.0004757438
000270 59 ec 38 b2 82 25 74 b3 e6 8b 87 b9 2a 47 97 32
       -1.0763949e-08 -5.684479e-08 -0.0002585344 1.7611075e-08
000280 a2 e8 40 b0 68 c7 50 b3 0a 6d 12 33 b1 36 d9 ab
       -7.0179784e-10 -4.8610133e-08 3.4092444e-08 -1.5433957e-12
000290 aa 38 c4 2f 70 b4 1a 31 81 3a c8 b6 ac bc 09 31
       3.5692455e-10 2.2512516e-09 -5.9672752e-06 2.0043371e-09
0002a0 70 a0 b4 30 9e 60 05 33 20 ef 0d 31 80 11 d8 39
       1.3142323e-09 3.105435e-08 2.0654127e-09 0.0004121177
0002b0 08 b6 88 14 20 a8 72 2f 5d 63 40 b0 20 19 5a af
       1.380429e-26 2.2069502e-10 -6.9990397e-10 -1.983591e-10
0002c0 8e 66 f9 b1 15 de 40 34 3c 4c 5b b0 03 9b 96 32
       -7.258513e-09 1.7962186e-07 -7.978007e-10 1.753279e-08
0002d0 ab 59 a7 38 c4 b4 93 2f a0 a5 2d ad 29 23 d6 b7
       7.9798825e-05 2.6867586e-10 -9.870688e-12 -2.552716e-05
0002e0 22 62 8e 37 d9 e3 ed b6 f0 be b0 af 33 3f a2 33
       1.6973416e-05 -7.0896754e-06 -3.2149883e-10 7.555209e-08
0002f0 59 42 35 b7 8e ac 37 af 52 08 84 ab 20 78 d9 38
       -1.08038885e-05 -1.6705057e-10 -9.381473e-13 0.00010369741
000300 07 71 df 2c dc 55 09 b0 80 c1 ca 2d 01 60 a0 b4
       6.3505898e-12 -4.9962323e-10 2.3050672e-11 -2.9872174e-07
000310 61 e9 37 b0 90 3f 6f b2 d8 d3 6b ac 90 5a d5 b1
       -6.6906664e-10 -1.3926083e-08 -3.3513105e-12 -6.2094117e-09
000320 62 db 84 3b 88 05 b8 29 39 c2 7c b2 54 36 0f b1
       0.004054473 8.172201e-14 -1.4712492e-08 -2.084012e-09
000330 e9 2d 85 32 2a 99 33 36 34 bb fc 31 82 8b e5 2f
       1.5504115e-08 2.6762232e-06 7.355448e-09 4.1753984e-10
000340 62 74 82 b7 9f 6e 2e 31 2e 1b b9 32 1e 77 ed b2
       -1.5551403e-05 2.5383213e-09 2.1549194e-08 -2.76446e-08
000350 02 30 bf b3 c7 fd bd ba a2 fb 85 21 bc 9a 05 3a
       -8.902863e-08 -0.0014495187 9.079037e-19 0.00050966046
000360 51 c8 d1 a4 cc 36 62 33 20 ac 56 b2 74 9b f5 2f
       -9.097865e-17 5.2669563e-08 -1.2495576e-08 4.4675696e-10
000370 fb 58 d3 36 82 88 65 34 c4 63 32 31 1e cf 77 90
       6.2986487e-06 2.1376948e-07 2.595912e-09 -4.8871718e-29
000380 43 48 22 2b a6 9f a0 2c 62 4f 2f a9 cd 9f 90 32
       5.7654245e-13 4.565198e-12 -3.892666e-14 1.6836475e-08
000390 6a 0f 3b 38 c8 3f 3a b0 52 03 d6 31 bf 6c ad a9
       4.459863e-05 -6.7757044e-10 6.228597e-09 -7.701608e-14
0003a0 87 9e b7 33 8a a6 8d 30 03 78 4a b5 ad f0 a6 31
       8.5504375e-08 1.0306433e-09 -7.5425504e-07 4.8585975e-09
0003b0 00 4c 1e 30 4a b1 ac 30 01 e4 57 31 31 53 04 2e
       5.758807e-10 1.2565036e-09 3.1416223e-09 3.0087214e-11
0003c0 c7 33 16 2d 44 81 93 b3 a8 be 56 97 14 be 49 ae
       8.53801e-12 -6.868734e-08 -6.938777e-25 -4.5870932e-11
0003d0 88 09 c3 2c 34 9f b4 31 1d 7a be b0 72 b8 5c 33
       5.5432915e-12 5.256789e-09 -1.3859026e-09 5.1390494e-08
0003e0 dc 69 a7 2d 51 60 f5 30 a0 1a a1 3a 1f 0c f8 1e
       1.9032713e-11 1.7853471e-09 0.001229126 2.6263035e-20
0003f0 b6 91 15 b5 b7 13 05 19 6d 94 31 b3 38 67 30 33
       -5.571886e-07 6.87992e-24 -4.1346016e-08 4.107207e-08

fc2.bias f4 [256]
000000 64 11 51 b3 4c dc 61 39 7e e8 b7 b2 5a fc 39 b6
       -4.867742e-08 0.00021539739 -2.1409729e-08 -2.7714036e-06
000010 b4 35 b7 b2 ae e4 b1 bb 00 6c 6e b0 38 84 8b b9
       -2.1328425e-08 -0.005428872 -8.6737373e-10 -0.00026610657
000020 bc da ba 30 40 03 02 b9 69 da 67 31 f0 40 8e b4
       1.3595449e-09 -0.00012398977 3.3739076e-09 -2.649681e-07
000030 41 8a 24 39 3e f9 8c b7 9a e7 01 bd 26 db 59 30
       0.00015691762 -1.6805363e-05 -0.031715013 7.925557e-10
000040 ff 49 94 b8 50 a0 3d b6 47 c7 e3 38 9d 8a 32 bb
       -7.070973e-05 -2.8256509e-06 0.00010861322 -0.0027243264
000050 f2 8e 94 b3 cc 5a 4c 35 33 75 23 b5 a6 ac 86 b5
       -6.917789e-08 7.612805e-07 -6.089278e-07 -1.0034025e-06
000060 6a f4 77 36 07 a5 59 35 22 b0 0b b2 7a 02 af 31
       3.6948136e-06 8.1078946e-07 -8.130913e-09 5.093452e-09
000070 6f 65 6e 38 d7 e6 ce 37 08 5d 8b b5 ba f0 93 33
       5.683809e-05 2.4664607e-05 -1.0383383e-06 6.889009e-08
000080 9c d3 8a b6 d6 49 db 31 3d 2c 1d b9 66 70 ce 30
       -4.137355e-06 6.382133e-09 -0.00014989167 1.5020418e-09
000090 a5 83 08 3a 22 18 12 37 99 fa 9b b3 23 da 1d 38
       0.0005207605 8.707897e-06 -7.2633334e-08 3.7634873e-05
0000a0 e0 45 78 b5 b4 2f 9c b2 44 49 89 ba 30 ca 98 b3
       -9.248888e-07 -1.8182483e-08 -0.0010474105 -7.114829e-08
0000b0 d6 11 38 3f a8 47 9c be 7d 1f c1 3f 28 67 23 b0
       0.71902215 -0.3052342 1.5087734 -5.944565e-10
0000c0 ad 53 0a b5 94 dc 92 b7 33 fd 80 b2 d6 ac 6d 3a
       -5.153077e-07 -1.7507271e-05 -1.5016303e-08 0.0009066587
0000d0 21 9a bf b5 d0 fb a0 30 f8 0a 99 32 aa cc 47 b8
       -1.4275466e-06 1.1713102e-09 1.7816532e-08 -4.7635906e-05
0000e0 4b eb 09 3f 24 5a 69 af 61 c4 cd b3 69 c5 ac b8
       0.53874654 -2.1223251e-10 -9.5817775e-08 -8.2383696e-05
0000f0 b2 80 82 b9 08 83 45 37 20 ef 10 b9 68 83 a7 b9
       -0.00024891418 1.1772623e-05 -0.00013821991 -0.00031950627
000100 a4 9b 88 38 65 6b 3f 3f ed 08 43 ba c3 fa ba b8
       6.513976e-05 0.74773246 -0.000743999 -8.915879e-05
000110 6a fa cc 34 9e 4e dc 31 00 2e 58 b6 8a aa 85 38
       3.818016e-07 6.4117804e-09 -3.2213284e-06 6.3736996e-05
000120 4a 30 23 34 91 b9 9a 32 1a fe b2 39 57 d5 0f b2
       1.5198125e-07 1.8012345e-08 0.00034140126 -8.372203e-09
000130 7c 33 7b b7 1b dc ba b2 32 3b 2d 35 77 a1 ad b9
       -1.4972753e-05 -2.1753342e-08 6.453366e-07 -0.00033117432
000140 89 ed 04 35 0c 3f 8d 39 b9 e0 e3 b9 a8 8e 8e 38
       4.951949e-07 0.0002694059 -0.00043464245 6.7976594e-05
000150 4b 86 39 b3 dc 2d bb b6 1a 17 c4 35 22 93 03 b6
       -4.3195808e-08 -5.578373e-06 1.4609861e-06 -1.9606164e-06
000160 4a 52 67 b9 bc 67 b6 b5 0b 2b 44 ba 86 4e 09 b8
       -0.00022060532 -1.3590247e-06 -0.00074832205 -3.2736476e-05
000170 7f 4a 26 35 bc 2e 0f 33 d2 c7 f6 39 dd 76 86 3c
       6.1948225e-07 3.3337287e-08 0.00047069654 0.0164141
000180 74 fa ab ba ef a7 2e af e4 3a 04 34 2c 0d 0b 35
       -0.0013120905 -1.588487e-10 1.2314882e-07 5.18007e-07
000190 94 32 a0 b7 91 1f e5 b2 01 eb 08 34 a0 2e 51 b8
       -1.9097039e-05 -2.6673463e-08 1.2751481e-07 -4.9872906e-05
0001a0 4a 74 26 b6 d0 7d 05 ba 00 6e eb 39 42 d0 30 3f
       -2.4803617e-06 -0.0005092295 0.0004490465 0.69067776
0001b0 83 89 e6 32 bb be 92 37 2e 63 df 34 14 4f 57 32
       2.6838057e-08 1.7493372e-05 4.160915e-07 1.2532627e-08
0001c0 6d 41 1e 31 f3 b1 50 b7 6b 7a d2 34 d6 95 f9 30
       2.3029216e-09 -1.2439198e-05 3.920462e-07 1.815972e-09
0001d0 fc 23 a9 35 86 ac 07 b8 7e dc ff b4 ba 02 11 ba
       1.2601954e-06 -3.2347183e-05 -4.765788e-07 -0.00055317173
0001e0 09 2d f4 37 22 f6 ee b3 86 4a 9b 37 8c a0 40 36
       2.9108038e-05 -1.112751e-07 1.8512143e-05 2.870368e-06
0001f0 bb 30 92 35 fb 03 80 3f 34 b9 21 35 44 49 08 32
       1.089203e-06 1.0001215 6.024668e-07 7.932901e-09
000200 8a d6 12 b8 40 d3 c7 35 09 5a c0 39 ad 6e 84 ba
       -3.5008918e-05 1.4888137e-06 0.00036688175 -0.0010103785
000210 fa e7 c4 b2 94 d0 27 38 86 fc b4 b0 4c 0b fc b7
       -2.2922894e-08 4.0010156e-05 -1.3168495e-09 -3.0046001e-05
000220 f0 fc 7b b4 52 f9 60 3f 7a 0f 3a ad b3 eb 5f b6
       -2.3468215e-07 0.8788043 -1.0576312e-11 -3.3366784e-06
000230 2d 58 98 2f 40 80 6d 34 f9 db 35 3a 80 e2 83 35
       2.7711292e-10 2.2119002e-07 0.00069373805 9.826181e-07
000240 9c 01 c8 30 44 a8 17 b5 88 61 f6 35 36 7d 5c b6
       1.4552373e-09 -5.649674e-07 1.8356814e-06 -3.2855437e-06
000250 a2 4b 17 33 b3 11 87 b2 2b e6 91 b3 f0 19 23 31
       3.5226215e-08 -1.5724117e-08 -6.793956e-08 2.3734366e-09
000260 74 af bc 38 ed 33 29 38 fe 15 1c ba 80 d7 cf ae
       8.997219e-05 4.03411e-05 -0.0005954205 -9.451551e-11
000270 2c 2f 94 ba 77 26 1c b7 ab 93 99 bc a9 b6 05 b3
       -0.0011305562 -9.30728e-06 -0.018747171 -3.1132604e-08
000280 95 b5 3b 3f d7 5d 1f b0 c9 c0 5f b6 ab cb a0 b2
       0.7332395 -5.797722e-10 -3.3341805e-06 -1.8719069e-08
000290 6c 03 de 3e 6c 07 ff b4 fa df b9 bd 78 d9 06 bd
       0.43361986 -4.7502851e-07 -0.09075923 -0.032922238
0002a0 d9 ad 93 34 2d 3e b1 b1 c0 48 c1 b3 30 c0 5c 33
       2.7507375e-07 -5.1584466e-09 -9.000496e-08 5.1397535e-08
0002b0 3e ce 71 32 15 b1 50 3f 7d 0b e6 38 1b 82 91 ba
       1.407494e-08 0.81520206 0.000109693945 -0.0011101397
0002c0 fd 93 b1 32 64 9e 1a b9 86 ec de b1 fc 72 25 37
       2.067281e-08 -0.0001474559 -6.48794e-09 9.861538e-06
0002d0 01 a0 5b bb 7b 96 58 b5 14 06 60 36 88 03 08 35
       -0.0033512118 -8.068525e-07 3.338214e-06 5.0669087e-07
0002e0 23 b1 9c b4 f8 3b 2c 36 a0 d5 fb b9 d7 29 e3 32
       -2.9186148e-07 2.5664904e-06 -0.00048033614 2.6445305e-08
0002f0 1e 96 e9 b8 de 21 89 b6 f4 31 52 3b 56 de 05 b6
       -0.00011138267 -4.086861e-06 0.0032073231 -1.994796e-06
000300 98 a0 d3 39 db 2e 34 36 4c 22 28 b7 81 7a 7b 31
       0.00040364708 2.6849364e-06 -1.0021566e-05 3.6594943e-09
000310 7c 43 b4 b2 ea 3a e4 38 65 8b 0e 3a a6 34 cd b1
       -2.0985446e-08 0.00010882861 0.00054376415 -5.9722707e-09
000320 a2 4b 14 34 7e dc 66 b9 99 0d ea 38 54 a7 b7 bb
       1.3811089e-07 -0.00022016649 0.00011160522 -0.005604664
000330 ba f2 ae b2 0d c8 38 32 78 d3 09 b1 f2 82 b8 b8
       -2.0366645e-08 1.0755696e-08 -2.005633e-09 -8.798194e-05
000340 05 4b cf 31 f0 80 2c b1 68 c4 5c 36 8c c1 18 37
       6.0330216e-09 -2.5102587e-09 3.2896878e-06 9.10497e-06
000350 7a 70 a5 b1 0b 44 2e 33 ce 90 13 b3 25 34 e9 2c
       -4.814919e-09 4.0574417e-08 -3.4357804e-08 6.6280475e-12
000360 e8 31 24 ba 4c 3c 23 b7 90 d1 21 33 39 93 68 39
       -0.000626354 -9.729596e-06 3.767633e-08 0.00022180089
000370 23 29 4c b4 80 08 f0 b4 ec 21 c4 b4 04 76 b2 39
       -1.9013946e-07 -4.4709668e-07 -3.6532526e-07 0.00034038734
000380 52 cd 47 b8 c9 09 2f 36 e1 af 80 b7 31 6d 97 31
       -4.7636517e-05 2.6082728e-06 -1.5340689e-05 4.407092e-09
000390 bc 80 19 b1 85 87 d6 b5 c2 94 5c 38 c9 13 34 32
       -2.2337607e-09 -1.5983684e-06 5.259063e-05 1.0481878e-08
0003a0 fd 81 ac 37 50 e6 0b 33 ec bf b9 b6 4a 2b 70 ba
       2.0564528e-05 3.2572927e-08 -5.5357723e-06 -0.0009161724
0003b0 18 0b e2 31 87 ea 41 36 1a 36 b0 a8 99 46 0f 37
       6.578727e-09 2.8895754e-06 -1.9563388e-14 8.5399015e-06
0003c0 15 d9 e4 b6 ac c1 52 ba 2a 2c 52 b4 b7 e5 2e 3f
       -6.820201e-06 -0.00080397236 -1.9573841e-07 0.6831927
0003d0 80 91 e5 3e 61 4e 0e 3f e9 79 89 35 0b d7 93 be
       0.4483757 0.55588347 1.0242776e-06 -0.28875002
0003e0 64 b5 6a b3 98 bf 19 38 4d d1 ab 36 d2 92 60 b2
       -5.4647344e-08 3.665648e-05 5.120563e-06 -1.3071899e-08
0003f0 42 65 74 b3 79 56 04 3f ec 17 b4 b8 b7 3f 91 3a
       -5.690277e-08 0.51694447 -8.587525e-05 0.001108161

fc3.weight f4 [256, 256]
000000 bc 85 7e b1 cc 82 e7 b4 99 50 80 31 ec 9b 72 b2
       -3.7037884e-09 -4.312227e-07 3.734453e-09 -1.41217065e-08
000010 3a a0 2e 30 f6 e2 99 37 5e f8 c8 32 8a 3e ed b5
       6.3528527e-10 1.8344708e-05 2.3396009e-08 -1.7676077e-06
000020 55 de da ac 6f 21 1c b6 73 0e 00 af 62 ab 5a bb
       -6.2206165e-12 -2.3265272e-06 -1.1646666e-10 -0.0033366312
000030 5a 8e 81 36 54 d6 e0 b3 45 ba 15 37 05 78 aa 2e
       3.8610715e-06 -1.0469799e-07 8.924461e-06 7.752025e-11
000040 f4 c7 d6 32 d5 95 92 b5 9c 18 6c b3 37 6b de 37
       2.5003807e-08 -1.0921455e-06 -5.4970414e-08 2.6514388e-05
000050 8d 82 06 b4 3a 88 07 32 83 1f 5c b5 0b 88 b9 b3
       -1.2527217e-07 7.889009e-09 -8.200224e-07 -8.63948e-08
000060 d6 2d f9 b7 e0 0d 9e 33 24 fd 20 30 08 16 90 af
       -2.9704457e-05 7.359972e-08 5.8567395e-10 -2.6209102e-10
000070 da 86 bb b4 17 d7 3b b7 45 68 8e 35 54 23 30 33
       -3.4929582e-07 -1.1196148e-05 1.0610171e-06 4.1010324e-08
000080 61 54 a9 36 c0 23 89 b4 f6 3b 86 b5 5c 92 6c 31
       5.0464155e-06 -2.554425e-07 -1.0001229e-06 3.4425716e-09
000090 40 b6 4c b4 78 6c 67 33 00 30 ae b0 36 57 a8 32
       -1.9065283e-07 5.388253e-08 -1.2673809e-09 1.9597433e-08
0000a0 18 2c 21 b1 f7 25 8a b2 da 6b 14 31 26 cc 56 33
       -2.3453648e-09 -1.6082579e-08 2.159814e-09 5.001143e-08
0000b0 24 1c a2 37 47 b7 0c 37 f0 ec bb 37 0c e0 96 b1
       1.9325009e-05 8.387323e-06 2.240247e-05 -4.3910457e-09
0000c0 80 ce 6d 34 7a fb 6e b5 12 bc d4 30 5b 34 83 b3
       2.2147469e-07 -8.9027856e-07 1.5478483e-09 -6.109686e-08
0000d0 da ac 11 b5 be f6 57 2e d0 02 1e b4 8e ac 19 32
       -5.426824e-07 4.910449e-11 -1.471592e-07 8.9450065e-09
0000e0 7f fc 08 b7 60 6a 78 aa d3 2e cf 33 f0 b9 8a af
       -8.1650205e-06 -2.2063731e-13 9.647706e-08 -2.523417e-10
0000f0 5a 9a d0 b5 a8 17 1b b3 96 c7 47 35 4c 33 1e b3
       -1.554213e-06 -3.6110265e-08 7.442371e-07 -3.6833896e-08
000100 5c 22 fc b3 d1 58 a1 37 ca 54 48 b7 9c 86 35 35
       -1.17409144e-07 1.9234054e-05 -1.194067e-05 6.7623637e-07
000110 b8 1b 95 b3 04 f5 35 b0 70 e7 0d b1 68 a6 e1 35
       -6.943395e-08 -6.6195605e-10 -2.0649757e-09 1.6812237e-06
000120 7d 2a 52 b2 4a 86 ab 34 ae 11 6e 32 98 e5 ad 31
       -1.22332695e-08 3.194894e-07 1.3857443e-08 5.0610645e-09
000130 ab dc 03 35 5d 63 2c b0 52 4c 02 b3 f7 9a a3 b3
       4.9122417e-07 -6.271444e-10 -3.0337397e-08 -7.618467e-08
000140 d4 e8 3a b9 2a a6 18 33 40 73 4c b4 68 0e de 32
       -0.00017825078 3.5541383e-08 -1.9040908e-07 2.5850753e-08
000150 ed 0b 09 b1 c3 94 97 34 6d 4d a4 2e c1 0d 1d b8
       -1.9942903e-09 2.823418e-07 7.47161e-11 -3.7444526e-05
000160 c2 31 e6 ba 5e a8 a1 31 b6 06 f7 b2 7a 7a 0b 38
       -0.0017562436 4.704858e-09 -2.8757636e-08 3.3254248e-05
000170 ec fb 69 35 34 32 90 b0 58 14 3c 34 35 ba 3a b6
       8.716586e-07 -1.0491648e-09 1.7516265e-07 -2.7824547e-06
000180 a6 82 1f 36 8b 48 b0 ac bc 5a bc 31 6c 91 dd b5
       2.3768894e-06 -5.0102747e-12 5.4818354e-09 -1.6508106e-06
000190 f1 e0 fe 31 f0 b8 35 33 89 74 07 b1 a0 40 05 b2
       7.417946e-09 4.2310546e-08 -1.9711328e-09 -7.756313e-09
0001a0 ae c3 1a 37 bd 79 c2 b5 45 ab 75 36 d7 67 8f b7
       9.2246755e-06 -1.4489557e-06 3.6607537e-06 -1.7095283e-05
0001b0 b8 01 48 32 61 fc 0d b4 ea 31 56 34 b8 5d 39 af
       1.1641923e-08 -1.3223463e-07 1.9948462e-07 -1.6858948e-10
0001c0 b8 11 83 b2 44 66 d0 b5 5b 59 dd af b6 ff 07 b3
       -1.5258465e-08 -1.5526971e-06 -4.0263157e-10 -3.1664705e-08
0001d0 c7 5a 13 35 78 48 47 35 81 f4 35 31 f0 c1 1c b4
       5.4893866e-07 7.4238733e-07 2.647795e-09 -1.4599186e-07
0001e0 03 4c c1 34 a8 75 9f 33 26 ae ba 32 a0 1b 59 af
       3.6004357e-07 7.425416e-08 2.1732443e-08 -1.974585e-10
0001f0 e1 0c b8 b3 15 b9 b1 37 c0 c6 eb 31 34 77 2d b3
       -8.57051e-08 2.118623e-05 6.8619954e-09 -4.0388116e-08
000200 bc e0 02 34 5a 50 d8 b3 2a 2b 23 33 42 2a 90 b5
       1.2188951e-07 -1.00729e-07 3.7990652e-08 -1.0741135e-06
000210 64 d6 e0 b3 00 3f 8f 33 d6 c8 46 b2 16 11 86 b2
       -1.046981e-07 6.670416e-08 -1.1570782e-08 -1.5607423e-08
000220 9d 12 e4 33 fb 5c 98 37 b0 5b 56 ad 28 1e 8b 33
       1.0620463e-07 1.816311e-05 -1.218485e-11 6.478177e-08
000230 a5 e9 a0 ad e6 a9 5a 33 7a 4a 24 b6 41 c1 a7 32
       -1.8293653e-11 5.0911602e-08 -2.4481255e-06 1.952924e-08
000240 98 19 67 af 67 9f e1 b5 41 a1 e3 32 7a f4 e7 31
       -2.101842e-10 -1.6810199e-06 2.6499608e-08 6.7507786e-09
000250 62 8b cd b0 98 3b 8a b1 63 a5 5e 33 24 f9 ce 32
       -1.4955328e-09 -4.0231036e-09 5.183882e-08 2.4094852e-08
000260 40 90 bf b3 2f ca 9c b7 94 38 98 b5 f8 1d d6 b2
       -8.9203695e-08 -1.8690798e-05 -1.1341349e-06 -2.4926507e-08
000270 20 c0 d3 35 70 a5 2f 33 f4 77 a5 36 e6 b7 99 b1
       1.5776641e-06 4.0895827e-08 4.9313476e-06 -4.473793e-09
000280 28 22 30 b8 9e 42 6a ae 40 76 30 34 66 ff 8d b4
       -4.199348e-05 -5.3264608e-11 1.6434296e-07 -2.6449123e-07
000290 45 d6 28 b7 e4 5d 0e b4 24 0f f7 36 1e af a9 35
       -1.0063469e-05 -1.3258938e-07 7.3629362e-06 1.2642447e-06
0002a0 01 d6 ec b5 bc 4d 02 b2 89 cf 83 b5 80 73 67 31
       -1.7645654e-06 -7.584671e-09 -9.820661e-07 3.3680578e-09
0002b0 18 04 0d b7 6e 3b c7 36 ad 27 b9 37 c8 2d 3a b8
       -8.405208e-06 5.9375807e-06 2.2072194e-05 -4.4388493e-05
0002c0 f4 b4 11 32 69 2e 90 36 62 f4 fb 2f 10 99 18 33
       8.481255e-09 4.2969373e-06 4.5830278e-10 3.5529467e-08
0002d0 52 fa b2 b5 4c b4 6d 32 52 af 05 b2 d2 ed b5 32
       -1.3334886e-06 1.383621e-08 -7.781482e-09 2.1179321e-08
0002e0 50 98 1a 34 e0 3d c4 32 50 79 c9 33 3f d9 c5 ba
       1.4397779e-07 2.284554e-08 9.3818585e-08 -0.0015094652
0002f0 b7 db 69 35 e0 b8 2f 2f c6 b8 31 b5 ce 36 81 34
       8.711899e-07 1.5981838e-10 -6.620652e-07 2.4067998e-07
000300 e1 ef 57 b5 c8 00 2f b3 52 66 94 b4 43 6e e8 ae
       -8.044281e-07 -4.0746073e-08 -2.7641596e-07 -1.0569725e-10
000310 23 f2 94 26 18 2a 43 b4 5c 80 2e b5 dc a9 2d 31
       1.0335194e-15 -1.8176104e-07 -6.500684e-07 2.5271367e-09
000320 a0 e8 9a 30 1b 40 1b 2e 11 5f 15 35 e0 e9 07 b3
       1.1271091e-09 3.5299857e-11 5.5645165e-07 -3.1644845e-08
000330 ba ea b9 2f 60 91 9b b2 60 e2 c4 ad dd 93 fb b4
       3.3818087e-10 -1.8110484e-08 -2.2383151e-11 -4.6859978e-07
000340 de 38 6c b3 d4 98 87 b3 70 af f6 b0 61 20 21 b7
       -5.4999752e-08 -6.314227e-08 -1.7948718e-09 -9.603887e-06
000350 5e e3 06 34 d9 43 d2 b2 21 73 21 b4 c2 8b 08 2b
       1.2562438e-07 -2.4478071e-08 -1.5036177e-07 4.851086e-13
000360 75 40 62 b5 72 e4 8f 35 34 6e fa b3 68 ec 09 b2
       -8.428536e-07 1.0720817e-06 -1.1661578e-07 -8.028202e-09
000370 2f 58 ba b6 eb c1 8e 34 c4 5d 0c 33 84 43 fb 3a
       -5.553498e-06 2.6590655e-07 3.268157e-08 0.0019169901
000380 28 2d b6 35 29 7f 3d b3 40 b6 bc b6 02 a9 0b b0
       1.3573199e-06 -4.4120643e-08 -5.6240533e-06 -5.080808e-10
000390 58 71 06 af 86 29 7b 35 0f 39 a7 b2 00 24 f3 2b
       -1.2227497e-10 9.356521e-07 -1.9467306e-08 1.727618e-12
0003a0 6e 61 c3 35 04 df 99 2d 95 2a e6 35 d6 2c ae b4
       1.4556988e-06 1.7493125e-11 1.7148728e-06 -3.2442648e-07
0003b0 f4 b3 b7 2f fc ac ab 31 da 92 eb 24 19 a6 1a b5
       3.341537e-10 4.996421e-09 1.0216378e-16 -5.7611174e-07
0003c0 60 43 e1 b2 50 bf c9 32 9e fc 22 b4 78 da f4 37
       -2.6224086e-08 2.3486479e-08 -1.5179327e-07 2.9188799e-05
0003d0 79 2d 8f 37 a2 07 8d b7 6c 40 d0 b4 54 1a 27 b5
       1.7068103e-05 -1.6812064e-05 -3.8789892e-07 -6.225066e-07
0003e0 78 83 bb b3 79 9d 08 b4 3a f3 45 2e f0 aa cc 2f
       -8.73178e-08 -1.2723275e-07 4.5008643e-11 3.7228842e-10
0003f0 a0 1c 7d b2 1b bc 41 b7 af ad 22 b3 f3 37 db b6
       -1.4733047e-08 -1.1547493e-05 -3.787653e-08 -6.533222e-06

fc3.bias f4 [256]
000000 4f 51 83 38 16 03 92 36 42 d2 ab 34 88 6a a6 35
       6.261712e-05 4.3514983e-06 3.2004215e-07 1.2398968e-06
000010 90 07 c6 b6 85 73 0a b9 78 26 8c 31 c4 5c 94 b5
       -5.90174e-06 -0.0001320374 4.0789097e-09 -1.1053858e-06
000020 0a a1 96 37 a6 36 61 31 ce 1e 99 36 9a 23 18 34
       1.7956383e-05 3.2772873e-09 4.5633415e-06 1.4169055e-07
000030 43 a9 48 be c9 15 aa 39 8b ee 11 bb b0 16 87 34
       -0.19595818 0.00032441158 -0.0022267427 2.5162217e-07
000040 05 8e 9c b8 f5 ed 85 35 03 2f 0d b6 58 3a ec b3
       -7.465113e-05 9.978527e-07 -2.1038002e-06 -1.1000219e-07
000050 c8 34 26 37 66 e8 03 35 74 4a 51 b9 df 14 b1 b9
       9.90666e-06 4.9139487e-07 -0.00019959529 -0.0003377562
000060 34 2b 29 39 2e 48 95 39 91 70 fc 39 cc 5f 45 2d
       0.0001613319 0.00028473273 0.00048149054 1.1219425e-11
000070 36 bc a6 b5 de c4 0a b7 6f d8 2d bc 23 11 b7 3e
       -1.242274e-06 -8.271278e-06 -0.010610684 0.35755262
000080 0e 70 e6 b1 c0 0f 90 b3 02 ad 7a 32 e8 69 ce 36
       -6.70662e-09 -6.7083874e-08 1.4591253e-08 6.1516075e-06
000090 f6 95 c9 34 29 7e 0f b8 51 aa 2a 36 51 2a ac 30
       3.7548278e-07 -3.4211353e-05 2.5431111e-06 1.2526674e-09
0000a0 60 b2 b0 30 9d c7 3e 31 be 65 19 3c ce c3 d1 b4
       1.2856383e-09 2.7762106e-09 0.009362636 -3.907175e-07
0000b0 31 9e ff b5 1e 8a 88 3d c0 ed 2a af ac 36 d5 b2
       -1.904502e-06 0.06666969 -1.5545876e-10 -2.4821325e-08
0000c0 46 07 26 30 37 51 a6 b9 a8 4a fc b7 60 ce 5e b5
       6.0400784e-10 -0.00031722497 -3.0075505e-05 -8.300176e-07
0000d0 69 e1 c5 b5 c4 cb 0b 31 4c 5a 96 b4 26 ea 95 38
       -1.4743247e-06 2.034299e-09 -2.8005377e-07 7.148487e-05
0000e0 c0 1d ae 32 54 e4 8c b2 02 b9 1d ba b8 78 2a b9
       2.0269795e-08 -1.6401977e-08 -0.0006016643 -0.00016257435
0000f0 c0 ac 19 3e 5f cd 8a b7 d7 5d 2f bb 1d 4d 1e b4
       0.15007305 -1.6546515e-05 -0.0026758814 -1.474295e-07
000100 65 9d c0 b5 97 21 b9 b3 2e 3d 3b 3e ff 29 ca 31
       -1.4350923e-06 -8.620844e-08 0.18285057 5.883748e-09
000110 61 4b 8c 30 f1 87 e3 b6 7d 17 5e 33 8a 2f 30 bd
       1.0207765e-09 -6.780953e-06 5.1709765e-08 -0.043014087
000120 95 fc 96 34 54 49 bc 3e e0 bd 3a b7 0b 90 c2 3a
       2.8123455e-07 0.36774695 -1.1130673e-05 0.0014843954
000130 94 39 e9 34 b8 cd 18 b7 61 2f 4d b0 4c 68 4a b9
       4.3441526e-07 -9.107804e-06 -7.4645895e-10 -0.00019303075
000140 2f c0 7c b4 80 d8 68 b7 b5 32 63 3f d0 c0 09 39
       -2.3539245e-07 -1.3878685e-05 0.8874925 0.00013137166
000150 71 dc 00 b4 76 68 ab 35 38 8b bb b1 37 e8 a1 36
       -1.2001125e-07 1.2770895e-06 -5.4582436e-09 4.8252073e-06
000160 85 b0 54 b2 a9 d8 cd b6 7c 4f f1 36 d3 84 49 31
       -1.238016e-08 -6.1346987e-06 7.191613e-06 2.9324851e-09
000170 4f d6 00 00 c3 b6 e6 37 50 e4 20 b3 1f 71 35 ba
       7.688e-41 2.7503242e-05 -3.7460552e-08 -0.00069214584
000180 30 cf 67 33 fd 30 d6 36 5d 3b c0 3c 16 ff f6 2d
       5.3972315e-08 6.3834e-06 0.023465807 2.8080243e-11
000190 4f c7 71 b9 e0 11 4c 39 1a d4 50 bb a3 0c 29 b6
       -0.00023057799 0.00019461615 -0.0031864704 -2.5190318e-06
0001a0 51 76 13 b8 e7 5b da b2 73 59 a6 35 75 56 c6 b0
       -3.5157722e-05 -2.5420333e-08 1.2393997e-06 -1.4430969e-09
0001b0 cd 4e 03 b6 77 a3 33 38 f5 a1 19 b7 9d 1a a1 b9
       -1.956639e-06 4.2829164e-05 -9.157219e-06 -0.0003072814
0001c0 d9 45 26 b4 6a 69 87 2f 62 71 cc 39 37 05 8a b6
       -1.5485365e-07 2.4631258e-10 0.0003899439 -4.1133276e-06
0001d0 b2 04 99 b2 36 0f 9a 33 c2 4f e3 34 d9 e8 c0 3e
       -1.781368e-08 7.173951e-08 4.2340076e-07 0.3767765
0001e0 85 51 59 ae aa e7 32 aa 6f 09 b7 39 3b de 3d b2
       -4.941249e-11 -1.588995e-13 0.0003491151 -1.1051777e-08
0001f0 40 2d 50 b4 90 84 49 a5 3b e9 01 39 03 1c a9 37
       -1.9387971e-07 -1.7478885e-16 0.00012389284 2.0159414e-05
000200 23 d6 85 34 23 ab 7d 3e 58 3e aa 36 24 ff c4 37
       2.4928985e-07 0.24772315 5.0736526e-06 2.348383e-05
000210 48 3e b0 b6 ed 7d 5f 3f 43 38 24 ba 13 1b 78 39
       -5.2524592e-06 0.8730152 -0.0006264487 0.00023661209
000220 7a e7 00 b1 44 28 21 b6 2d 7e 97 37 f7 3c e3 3e
       -1.875803e-09 -2.4014307e-06 1.8059358e-05 0.4438245
000230 43 fe c5 2d de e9 9b ba 80 63 27 ba bd 2e 6a 39
       2.2509222e-11 -0.0011895259 -0.0006385371 0.0002233339
000240 15 26 6b 34 a2 74 93 39 02 14 a0 30 25 2e 8f 95
       2.1899935e-07 0.00028124923 1.1647219e-09 -5.7830043e-26
000250 10 57 a2 b2 72 7a 65 b2 3e da 21 b6 d3 c0 08 b5
       -1.8898874e-08 -1.3357395e-08 -2.4117903e-06 -5.0944544e-07
000260 ab 6d 14 3c 5c 0a db b7 18 e1 e8 32 b6 60 d5 3e
       0.00905935 -2.6111658e-05 2.7110715e-08 0.41675347
000270 84 eb dd b4 b8 18 b3 b4 68 5c e2 36 69 f7 b1 38
       -4.1335818e-07 -3.3359333e-07 6.7460824e-06 8.4861014e-05
000280 56 89 0d 35 53 fb 82 b5 04 dd 05 3a 98 22 11 2e
       5.2726443e-07 -9.7589e-07 0.0005106481 3.299991e-11
000290 b3 bb 55 b9 07 6e 41 bd d3 85 1c b6 2b 24 4d b8
       -0.00020383186 -0.04722407 -2.3323707e-06 -4.8909493e-05
0002a0 10 89 ce 37 56 1d 89 b9 ef 75 3f 36 cf 25 8b 35
       2.4620938e-05 -0.00026152533 2.8529864e-06 1.0367311e-06
0002b0 4e ce 54 39 bc 3f 63 b3 3e 41 35 bb 8d bd 71 ba
       0.0002029475 -5.2910522e-08 -0.0027657296 -0.00092216657
0002c0 28 11 dd b8 90 0a cb 37 c7 ae d2 34 ae 29 0b b9
       -0.00010541297 2.4204404e-05 3.9242715e-07 -0.000132716
0002d0 d2 b1 52 ba 0a d1 4c 3b b2 3f 10 b7 39 ad 12 b5
       -0.00080373615 0.0031252527 -8.597899e-06 -5.464131e-07
0002e0 80 e2 76 3e 79 55 08 bd 3f 83 ae b5 75 b3 e2 33
       0.2410984 -0.033284638 -1.3002208e-06 1.0556588e-07
0002f0 0d eb ba bc 2a f0 0a b5 0f 51 99 b2 89 6f 0c 39
       -0.02281716 -5.175849e-07 -1.7848405e-08 0.0001339299
000300 32 31 ba ae a0 59 5e b6 00 6b ee b1 cf 39 32 bc
       -8.4670396e-11 -3.3132746e-06 -6.938876e-09 -0.01087804
000310 e9 8d a7 b4 26 65 90 b7 15 56 68 b7 b6 f9 44 bc
       -3.1209427e-07 -1.7213239e-05 -1.384832e-05 -0.012022426
000320 44 99 ff 32 97 23 0d 33 a8 0d e9 34 a5 38 85 36
       2.9755604e-08 3.286149e-08 4.3409568e-07 3.970303e-06
000330 e3 ec ca 34 49 63 99 3b b0 a2 24 33 9d 73 95 34
       3.779779e-07 0.004681025 3.833219e-08 2.7837532e-07
000340 d2 78 1c 37 d1 6a 6b b8 0c ab 9d b1 68 c3 02 ae
       9.326455e-06 -5.6127847e-05 -4.588747e-09 -2.9732133e-11
000350 80 f0 ee 30 14 43 97 38 2b 78 e0 3e 4e 89 72 39
       1.7385133e-09 7.212735e-05 0.4384168 0.00023130068
000360 42 b5 3b 3e ed 34 a3 38 62 7a c6 b4 ef 16 93 35
       0.18330863 7.782304e-05 -3.696942e-07 1.0959028e-06
000370 60 49 40 b7 28 72 87 ae f9 cb aa b9 3c 2a 89 b2
       -1.1461176e-05 -6.1593675e-11 -0.00032576898 -1.5968105e-08
000380 ad 36 5e b4 ac fa 8e b7 b0 02 ef 31 70 28 43 b7
       -2.0695252e-07 -1.7044447e-05 6.956121e-09 -1.1632321e-05
000390 f3 cc 2d 34 d7 ea 83 31 21 72 8c b8 54 11 ed ae
       1.618644e-07 3.8393e-09 -6.6969784e-05 -1.078059e-10
0003a0 78 05 4e 36 96 63 5e 3f 32 36 4d b8 67 83 bc b4
       3.0699575e-06 0.86870706 -4.8926282e-05 -3.5113337e-07
0003b0 6b 55 e2 30 e6 9e 80 31 e7 60 4c b6 84 66 12 39
       1.6467941e-09 3.743355e-09 -3.0454773e-06 0.00013961835
0003c0 58 90 c9 3e 28 e4 d8 ba ee 1f 95 36 89 45 16 37
       0.39367938 -0.0016547488 4.444263e-06 8.956887e-06
0003d0 49 9c c9 b8 e8 3f d9 b7 cd 4f 61 b5 be f2 ca 30
       -9.613537e-05 -2.5898174e-05 -8.3935157e-07 1.4766426e-09
0003e0 42 44 ac b5 00 d9 e7 b7 58 44 61 35 93 a6 00 3e
       -1.2834864e-06 -2.7638394e-05 8.3918485e-07 0.12563543
0003f0 1e 67 c4 b7 7e cc 5d b5 49 56 4d 3e b2 44 86 3c
       -2.3413038e-05 -8.262649e-07 0.20052446 0.016390178
