shanghai_road_delivery/results_centralized/centralized_episode_350.pth_centralized_actor.pth (torch, 922090 bytes, 20 tensors)

fc1.weight f4 [256, 364]
00000000: c1ac 94b3 38d7 adb2 0702 d7b3 7539 cdb3
00000010: 66d3 ceb3 5a6a c5b3 0013 63b9 aeac 08b6
00000020: f2fd ba30 acfa 5936 8080 6a35 c0a4 97b3
00000030: 8b5e 973a 3c05 9a38 5fca 17b3 b6cf 0fb3
00000040: 1851 2533 ea0f 2035 5f3b 0c37 3292 9633
00000050: 9bb5 8232 7573 8130 93fa aeb2 cc7c 0835
00000060: c873 d631 6e38 0f3b 7a86 60b9 1f84 2b34
00000070: 297b 7a33 4687 d5ac 1c1b 96ae c090 e6ae
00000080: 4ff7 9db0 0ced fcb4 dd3c 8f2f 1290 64b7
00000090: bbd6 0db0 a501 d7b3 2c98 84b0 a501 d7b3
000000a0: 77cf dfb1 9a69 62b4 3502 99b3 98f3 57b3
000000b0: 566a b2b0 872e 04b3 7815 18b3 21f3 66b2
000000c0: d8b3 dfb6 a501 d7b3 d131 eeb4 a501 d7b3
000000d0: 00f0 33ae e84a b931 7f02 d7b3 d458 d7b3
000000e0: 2bda d6b3 a3fa d7b3 4282 6e32 e887 0c33
000000f0: 1887 0031 0618 532d 5a79 232e c0a4 97b3
00000100: d07c c633 ddd0 44b4 56c9 17b3 d021 10b3
00000110: 3d68 2533 a4ec 0cac bc7c 6436 d614 9233
00000120: 9bb5 8232 6ab7 4b0f 7229 1e33 f3ad 84b7
00000130: 6899 76b3 6aff b630 2093 30b2 8808 e2bb
00000140: 3c98 3432 1c44 37b9 0a53 92ae 2596 1c29
00000150: 1272 96b0 7e9d 1caf 7acb 8e2f 80db 002f
00000160: eae5 0cb0 a501 d7b3 c5fb 84b0 a501 d7b3
00000170: c940 8a33 522f 49b4 9f82 3eb3 298a 4cb3
00000180: 0fb7 8533 be6b b2b3 71b5 24b3 bc30 e5b1
00000190: 35fb c3b1 5201 e4b3 3c48 982f a501 d7b3
000001a0: f8b9 64b3 d821 5a30 0702 d7b3 b4df d4b3
000001b0: 3cb3 d4b3 2bcd d7b3 8619 be35 4c5a 022b
000001c0: 201e e0b0 1d02 56b3 c022 cfad c0a4 97b3
000001d0: 8f16 dc38 d002 97ae 10c9 17b3 e020 10b3
000001e0: 9963 2533 3417 822c 4b79 c6b9 f4d8 a133
000001f0: 9bb5 8232 00c3 c431 f386 d6b2 d394 9634
00000200: 7262 3f30 3abb a2ae dc3d 13a4 32cc bcab
00000210: f8fc ee31 ecd6 5237 7763 6c33 9261 0100
00000220: 81eb 9db0 e0b2 00aa 0e4e 8f2f 227b 72ad
00000230: 6767 0cb0 a501 d7b3 b595 84b0 a501 d7b3
00000240: 905b eb33 2ec4 6634 2575 a5b3 aa7a 34b4
00000250: 6118 88b4 b8d5 85b3 27bb 1db3 bbfb 5432
00000260: 12db 562f b059 e1b3 0807 4bb3 a501 d7b3
00000270: a8e1 8733 a26f 7032 6602 d7b3 f20e dfb3
00000280: fe02 dfb3 50cb deb3 626e 7aad 503f 37bb
00000290: 7ec2 c22f 32d2 b939 3dd2 aeaf c0a4 97b3
000002a0: 3672 cd38 2d52 3434 4fb6 13b3 dd6a 0fb3
000002b0: e856 2533 bdca 482f 8a26 2538 d614 9233
000002c0: 9bb5 8232 4886 e7b5 cf2a d8b2 d08a a1b6
000002d0: f4ad 7130 3816 dcb6 3a4b 0bb1 e64c 20ab
000002e0: a815 0432 c7e2 872c 6000 6c33 4e0a 0000
000002f0: 76a8 96ae 1ac9 ad2f 282b 8f2f 7890 e936
00000300: 4701 0eb0 a501 d7b3 45ff 84b0 a501 d7b3
00000310: 4b37 8933 c021 4b32 6a2a 11b4 7028 59b2
00000320: 3a1f d0b3 e09d 7333 04f5 1eb3 b505 7fb2
00000330: a907 d033 c6ba dcb3 704d 39ab a501 d7b3
00000340: 3207 1831 f8fb 18b3 0702 d7b3 86f3 dcb3
00000350: 3409 d9b3 f496 e5b3 8c07 3cb8 6c79 0733
00000360: 6a45 df3b 6d9f eab6 8ed0 a6b5 c0a4 97b3
00000370: 2005 4cb3 a011 e036 44b1 17b3 e020 10b3
00000380: b664 2533 f7fc 2639 9652 e6ba f4c3 9a33
00000390: 9bb5 8232 e84e 7a2f ecda 7932 1c64 0135
000003a0: e022 63b0 a929 13ba 7e00 5daf fc5f 9536
000003b0: c419 5732 f6fa 5e34 b2f6 6933 a955 5fac
000003c0: 0e67 97ae 385d 75b4 81eb 9db0 4864 8cb8
000003d0: 630b 0db0 a501 d7b3 f53d 84b0 a501 d7b3
000003e0: 1427 4734 cae8 43b4 019f 1ab3 a846 2033
000003f0: d0de 0eb2 1d26 d333 d38d 68b3 7938 80b2
-6.923211e-08 -2.023772e-08 -1.00120864e-07 -9.556508e-08 -9.631076e-08 -9.1928726e-08 -0.00021655485 -2.0366092e-06
1.3605457e-09 3.248143e-06 8.7358785e-07 -7.061453e-08 0.0011548562 7.344267e-05 -3.5341483e-08 -3.3483694e-08
3.849081e-08 5.96278e-07 8.358474e-06 7.011512e-08 1.5216576e-08 9.4188e-10 -2.0370214e-08 5.084555e-07
6.2413825e-09 0.0021853703 -0.00021412401 1.5973681e-07 5.8319674e-08 -6.0688425e-12 -6.826026e-11 -1.0484902e-10
-1.1493543e-09 -4.7111132e-07 2.6054794e-10 -1.3623403e-05 -5.160065e-10 -1.0012017e-07 -9.647514e-10 -1.0012017e-07
-6.51374e-09 -2.1086308e-07 -7.125019e-08 -5.0280136e-08 -1.2981427e-09 -3.077596e-08 -3.5409784e-08 -1.3443043e-08
-6.6668545e-06 -1.0012017e-07 -4.43672e-07 -1.0012017e-07 -4.091305e-11 5.3927245e-09 -1.0012172e-07 -1.00278754e-07
-1.0004836e-07 -1.0057308e-07 1.38830405e-08 3.2719896e-08 1.8703243e-09 1.1999296e-11 3.716969e-11 -7.061453e-08
9.242797e-08 -1.8329906e-07 -3.534054e-08 -3.3558365e-08 3.851186e-08 -2.0026559e-12 3.4047252e-06 6.802445e-08
1.5216576e-08 1.0043997e-29 3.6824936e-08 -1.5816628e-05 -5.741586e-08 1.3314836e-09 -1.0278001e-08 -0.0068979897
1.0511993e-08 -0.00017477613 -6.654062e-11 3.4769188e-14 -1.0946357e-09 -1.424407e-10 2.5974228e-10 1.1719514e-10
-5.125843e-10 -1.0012017e-07 -9.675821e-10 -1.0012017e-07 6.43791e-08 -1.8736799e-07 -4.435662e-08 -4.7623107e-08
6.226593e-08 -8.308369e-08 -3.8349246e-08 -6.6703176e-09 -5.703806e-09 -1.06173175e-07 2.7699965e-10 -1.0012017e-07
-5.3254524e-08 7.9356033e-10 -1.00120864e-07 -9.912711e-08 -9.904622e-08 -1.00490375e-07 1.4163531e-06 4.631059e-13
-1.6306707e-09 -4.982768e-08 -2.3548608e-11 -7.061453e-08 0.00010494619 -6.8671846e-11 -3.5340292e-08 -3.3557512e-08
3.850764e-08 3.6973983e-12 -0.00037855873 7.53661e-08 1.5216576e-08 5.7265197e-09 -2.4974247e-08 2.804796e-07
6.9625294e-10 -7.400165e-11 -3.192794e-17 -1.3414879e-12 6.955471e-09 1.2567016e-05 5.5038495e-08 1.26837e-40
-1.1490188e-09 -1.1430744e-13 2.606701e-10 -1.3783448e-11 -5.1078647e-10 -1.0012017e-07 -9.646813e-10 -1.0012017e-07
1.09596954e-07 2.1491789e-07 -7.70472e-08 -1.6808431e-07 -2.5349712e-07 -6.23217e-08 -3.6724625e-08 1.2397261e-08
1.9541016e-10 -1.0493693e-07 -4.7271016e-08 -1.0012017e-07 6.327474e-08 1.3995221e-08 -1.0012154e-07 -1.0386965e-07
-1.0384791e-07 -1.0374663e-07 -1.4235365e-11 -0.0027961321 3.542659e-10 0.00035442557 -3.17998e-10 -7.061453e-08
9.796435e-05 1.6793702e-07 -3.4391913e-08 -3.3391974e-08 3.8496097e-08 1.8261921e-10 3.9374958e-05 6.802445e-08
1.5216576e-08 -1.7249922e-06 -2.5165177e-08 -4.814334e-06 8.792249e-10 -6.5590975e-06 -2.0269924e-09 -5.6950137e-13
7.688335e-09 3.862108e-12 5.4948373e-08 3.697e-42 -6.851135e-11 3.1611408e-10 2.6042213e-10 6.9607595e-06
-5.1661114e-10 -1.0012017e-07 -9.676816e-10 -1.0012017e-07 6.3896174e-08 1.1823829e-08 -1.3519607e-07 -1.2640257e-08
-9.691435e-08 5.6721433e-08 -3.7010082e-08 -1.4844251e-08 9.687148e-08 -1.0278522e-07 -6.583267e-13 -1.0012017e-07
2.2123001e-09 -3.5619422e-08 -1.00120864e-07 -1.0288845e-07 -1.0106524e-07 -1.0691102e-07 -4.482972e-05 3.154257e-08
0.0068136947 -6.992303e-06 -1.2428661e-06 -7.061453e-08 -4.7502112e-08 6.677772e-06 -3.531865e-08 -3.3557512e-08
3.8508652e-08 0.0001592523 -0.001757222 7.2068275e-08 1.5216576e-08 2.27654e-10 1.4543485e-08 4.8201923e-07
-8.263168e-10 -0.0005613813 -2.0100008e-10 4.45172e-06 1.25205055e-08 2.076666e-07 5.4473908e-08 -3.1737757e-12
-6.884991e-11 -2.2851316e-07 -1.1490188e-09 -6.694399e-05 -5.131168e-10 -1.0012017e-07 -9.621873e-10 -1.0012017e-07
1.8547536e-07 -1.8245478e-07 -3.6000532e-08 3.7317164e-08 -8.3161495e-09 9.832386e-08 -5.4145698e-08 -1.4926842e-08

fc1.bias f4 [256]
00000000: a501 d7b3 0aab d838 762b 8e3c 6027 6bae
00000010: 3695 5f30 8eb6 81b9 4c86 203e 5deb 0bac
00000020: 78b3 1e39 28f3 4037 20a2 5fb0 371c 92bb
00000030: 41a3 96b6 febc 81b5 41db 1ab1 f2c5 84b9
00000040: 5a6d 0fb6 e63f 96bb 32e0 2638 78ad 54bb
00000050: 3b4f 4f31 0902 2dbd 6dbe daba 7ea6 aa32
00000060: 40d8 16b8 3a25 d63c e6d5 6333 534b acb2
00000070: 449d 2d39 ca83 b8b3 5856 abb6 f262 60b9
00000080: befc 303b 7165 7cbd e009 4aab aa22 ccb9
00000090: 180d c32f 3981 f138 d0c0 453e daf3 f233
000000a0: c4f2 caba ca99 08b1 1637 acb6 ae33 c73a
000000b0: f803 ddb9 08cc 9937 e44f 45b4 ccb0 4032
000000c0: cc50 c5b3 b127 8b39 1a5b 69ba a4a4 f5b7
000000d0: 670c 12ba 3e79 4db4 4ca7 29af 8471 7c3b
000000e0: 9dc4 bdae 51ee 05b3 96da af34 f376 3333
000000f0: 4907 65b8 5c30 4b35 247c 193e 9b83 98b3
00000100: b9dc 2f32 d412 5eb2 4485 d8b4 0635 aeb5
00000110: 4ac2 c4b4 d64b e7b2 143b 95b3 dcd1 17ae
00000120: a2b7 53bb a85a a4b6 188b 3e30 a312 b4ba
00000130: 15c1 533a b864 8839 12e8 cf33 694f 8633
00000140: c467 0fbb a971 1f3e ea7a bc3b 10d3 90b1
00000150: 07cf 3aae 1ff1 1cb6 c7eb fcb4 1e19 83b0
00000160: bb0a 0d30 1c65 093b 8522 e2ba a477 043a
00000170: 5388 58b8 48c5 273a 1d83 f1ba 7f5d de3c
00000180: 3c45 4632 4c8b f439 c040 0bb2 9623 2ab1
00000190: 970e 5eb8 6112 c8b0 9a15 40bc 12f5 da3d
000001a0: cde4 573d 3f21 763c f2f5 03b2 c879 8c32
000001b0: 9a68 3b37 d79d e8bc 52d4 e9b8 6e8f 3f37
000001c0: 037b 35b6 3aa1 5abc 6f3c 84ae 4f39 c5b7
000001d0: facd e3b2 da47 05b5 ab5f 2db1 7fb9 b5b0
000001e0: d01a 59b2 4886 f7b3 bba6 a9b5 9cb2 05b6
000001f0: 8815 8f30 60f5 c1b1 b872 98bd c8a0 4938
00000200: cecb dfbc 060a 51b3 5370 c52e 2e06 c833
00000210: 00ba 91bb 0dd3 83b1 b693 08b4 625f c4b2
00000220: d483 62b5 da40 31b0 7050 6eae 555b 8cb4
00000230: c2df bfb8 51ca 24b0 a6f7 c8af 09a9 9eba
00000240: e32f 07b2 9267 78b9 02d5 13b0 ca24 d334
00000250: 2b2f d52f 2161 463e 588f 09b7 925d 1338
00000260: 0d14 5f36 262f efaa 3099 9a38 ded7 c1ac
00000270: e9b8 492b fd68 c6ae dcef 1aba 72dc 08b7
00000280: ea4a 8db4 c60b bd39 b3d9 3bb9 c40f 17bb
00000290: 8e37 6bba f24b 0fb4 ceaf 0d3c bd15 da38
000002a0: d616 4139 1eea 17b2 0030 0fac 2caf 8dbb
000002b0: 4f92 3bb1 3a8c 6038 44b6 133b 071e e3b4
000002c0: 84ba 22af 360a 2bac fa66 f530 dcdf 4735
000002d0: 5268 aaaf b449 10b5 5146 c2ad 788d 8037
000002e0: ee10 4eb7 fc7e 7dac 6030 0bb2 5a78 4c3c
000002f0: 632c c2b9 8a68 1f3a c013 2538 305f bfb0
00000300: 4e7e 41b3 d869 7cab b6b9 e72e 27f0 86b6
00000310: 226b 7d3c 5c65 b8b5 3c36 a8ba 004d 9cbb
00000320: 8d4d 3eae e758 a134 0f11 8932 6607 ecb5
00000330: 3054 803d 8ad6 35b5 b3b3 4a3d 98f9 2cba
00000340: b6ae 34b6 52aa 9a39 0acd 01b1 fc45 273e
00000350: 8213 ef2f dad9 c332 dc42 9135 c277 d83a
00000360: c095 04b6 9d7f 4e31 2508 dd38 8c39 c5b6
00000370: 7217 4c36 42dc 0ebb 9571 1fb2 23f6 7eb3
00000380: 95bb 0eb3 7933 dcb8 5851 3fb6 b450 90b2
00000390: e1bf ab38 37e6 48ba 1658 66b9 f6d0 dfb3
000003a0: 3e23 b0bc 7068 5b3a cb2b 67ba 6cad 28ae
000003b0: 98d9 83b6 3474 7c3e c143 0cbc 6916 10bc
000003c0: 19e1 1ebc fd69 60b4 5278 49bb 3748 84b6
000003d0: 3c3c b632 6c1d a03c a4ed 1db6 033b f6b7
000003e0: 0ed8 bdb6 96cf f62b d799 022f d23e 18ac
000003f0: 74f2 c0b1 a260 38b3 960d 04b7 40e9 75b4
-1.0012017e-07 0.00010331541 0.017354708 -5.3467786e-11 8.133897e-10 -0.0002474081 0.1567623 -1.988374e-12
0.00015134912 1.1500706e-05 -8.135732e-10 -0.00445893 -4.4893536e-06 -9.666253e-07 -2.253458e-09 -0.00025324483
-2.1372311e-06 -0.004585254 3.9786282e-05 -0.0032452028 3.0167502e-09 -0.04223827 -0.0016688831 1.9866317e-08
-3.5964185e-05 0.026140798 5.3047096e-08 -2.0057689e-08 0.00016557152 -8.59214e-08 -5.106249e-06 -0.00021399165
0.0027006115 -0.06162018 -7.177852e-13 -0.0003893574 3.5479597e-10 0.00011515845 0.19311833 1.13133595e-07
-0.0015483727 -1.9878024e-09 -5.1324123e-06 0.0015197897 -0.00042155362 1.833403e-05 -1.8376119e-07 1.121607e-08
-9.188224e-08 0.00026541718 -0.000890182 -2.9282943e-05 -0.0005571306 -1.913622e-07 -1.5429896e-10 0.003851981
-8.6296505e-11 -3.1183223e-08 3.2755332e-07 4.178487e-08 -5.460464e-05 7.5693765e-07 0.14988762 -7.1019905e-08
1.0236527e-08 -1.2926382e-08 -4.03301e-07 -1.2979442e-06 -3.664921e-07 -2.6926426e-08 -6.9490994e-08 -3.4519818e-11
-0.0032305499 -4.8981346e-06 6.931926e-10 -0.0013738464 0.00080777827 0.00026014983 9.681402e-08 6.254306e-08
-0.0021881917 0.15570702 0.005751957 -4.2149466e-09 -4.247538e-11 -2.3386162e-06 -4.7110208e-07 -9.538643e-10
5.131075e-10 0.0020964807 -0.0017252719 0.0005053228 -5.1625375e-05 0.00063999416 -0.0018425916 0.027144192
1.1540859e-08 0.0004664309 -8.105587e-09 -2.4758484e-09 -5.2942512e-05 -1.4557139e-09 -0.0117239 0.10691275
0.052708436 0.015022575 -7.681125e-09 1.6353525e-08 1.1170423e-05 -0.028395576 -0.000111498535 1.1417882e-05
-2.7042704e-06 -0.0133441035 -6.0134e-11 -2.3510916e-05 -2.6519945e-08 -4.965092e-07 -2.5229194e-09 -1.3222204e-09
-1.2637159e-08 -1.15262594e-07 -1.2640006e-06 -1.9922509e-06 1.0410739e-09 -5.644935e-09 -0.07443756 4.8071874e-05
-0.027318861 -4.867072e-08 8.9784756e-11 9.31435e-08 -0.0044472218 -3.8365955e-09 -1.2719724e-07 -2.2860778e-08
-8.4383396e-07 -6.4484384e-10 -5.4186378e-11 -2.6143485e-07 -9.149268e-05 -5.995036e-10 -3.6555753e-10 -0.001210482
-7.868922e-09 -0.00023689706 -5.378099e-10 3.932858e-07 3.877799e-10 0.19372989 -8.199211e-06 3.5134675e-05
3.324126e-06 -4.2487644e-13 7.3718256e-05 -5.509356e-12 7.166616e-13 -9.022647e-11 -0.00059103756 -8.157558e-06
-2.6317804e-07 0.0003605766 -0.00017914809 -0.0023050169 -0.0008972817 -1.3345542e-07 0.008647872 0.00010399099
0.00018414421 -8.842589e-09 -2.0348168e-12 -0.0043238606 -2.7295248e-09 5.3536358e-05 0.0022539059 -4.2303893e-07
-1.4800078e-10 -2.430623e-12 1.7855364e-09 7.4459035e-07 -3.0996944e-10 -5.375143e-07 -2.2086473e-11 1.5324666e-05
-1.2282499e-05 -3.6023953e-12 -8.101864e-09 0.012479866 -0.00037035634 0.0006080946 3.935746e-05 -1.3924133e-09
-4.5051188e-08 -8.967527e-13 1.0537653e-10 -4.0214686e-06 0.015467437 -1.3738568e-06 -0.0012833546 -0.0047699213
-4.3269877e-11 3.0053272e-07 1.5956656e-08 -1.7585523e-06 0.062660575 -6.773995e-07 0.04948778 -0.00065984717
-2.6923785e-06 0.00029500067 -1.8888522e-09 0.1633529 4.3487708e-10 2.2800055e-08 1.08228e-06 0.0016515183
-1.9756699e-06 3.0049485e-09 0.00010539618 -5.877757e-06 3.0412016e-06 -0.0021798764 -9.280844e-09 -5.9362844e-08
-3.3232556e-08 -0.00010500005 -2.8508566e-06 -1.6800506e-08 8.189656e-05 -0.0007663699 -0.00021967324 -1.04222565e-07
-0.02150118 0.00083697494 -0.00088184763 -3.8352807e-11 -3.9294355e-06 0.24653703 -0.008561076 -0.0087944055
-0.009697222 -2.0900184e-07 -0.0030741883 -3.9423135e-06 2.121498e-08 0.01954528 -2.3533148e-06 -2.9352965e-05
-5.657791e-06 1.7536968e-12 1.1878086e-10 -2.1635371e-12 -5.615499e-09 -4.2928725e-08 -7.870976e-06 -2.2902259e-07

fc2.weight f4 [256, 256]
00000000: 5a1b 0330 9368 852a 09d9 83a7 6650 90b2
00000010: e295 8c32 64a7 2c3a 684d a8b5 8b80 0f0e
00000020: 0863 35ae 2020 ee2f 588c 24b7 8890 1f30
00000030: c0f8 c72e 343e 99ab 9cd1 b439 eef5 50b2
00000040: f182 a6b2 2492 b4b2 cbe6 3635 c8e7 dab8
00000050: 61d9 98bb 7654 d6b6 9c4e 1534 efd3 f4b9
00000060: b51b 0c2a 6080 7ab3 2767 9b25 c8d6 302e
00000070: bd11 702b f730 31ae 584f e52f 2455 45a8
00000080: c058 28b4 0c8a e738 5af8 bda5 a4fa cea9
00000090: 16fb 8e2e 34b6 5b38 929e ceb2 0898 8527
000000a0: 92e3 3e35 a4a3 829d c4a3 9d34 60c6 84ba
000000b0: d00a 3529 c7f1 0539 c442 a225 b4ba f72d
000000c0: f4ba f2b4 5838 58ab 4088 9037 8547 519a
000000d0: b137 98b3 1866 1133 3a9d 9935 87b3 1636
000000e0: f0f0 aa21 245e 4b3a 588d d630 a0f4 6a29
000000f0: ccb0 1635 1440 1db1 d183 a5b2 6ea4 a1af
00000100: a8ba a8b3 8cc4 aeb4 1647 981c 9ffb f0b3
00000110: 94ed 94b4 f855 5da9 c238 11ad 6074 1bae
00000120: b271 68b8 84ac 3e21 7ce4 9daa e0c6 779c
00000130: 8db7 9b30 c00c 7834 ef6d e434 3686 36b4
00000140: f27a eeb4 d400 e334 356d 7a35 8096 ac2b
00000150: a3c0 f303 34d3 3a34 b41a 98b2 a077 27b0
00000160: e91d ce2c 2730 0533 96db 6235 c733 7bb4
00000170: 801c b526 d4c9 e82c 141b 9a2b 5843 5db0
00000180: ba1e 08b0 c8db d2ae d281 1927 a0fd c42b
00000190: 4029 64ac 6a26 4c38 981d 11b4 5c32 0136
000001a0: 0085 442f ecad 7734 3c17 b3ae c012 c0a7
000001b0: 88fc 62b9 f4fc deb3 fc5f 8728 06bb 49ae
000001c0: 2d7a 3933 99f7 cf35 8878 0db3 5906 f23a
000001d0: fda3 1a30 b0c1 a839 6458 4027 3d58 3236
000001e0: baba 1bad 2ddb 7fae 5089 02ac 8546 37b5
000001f0: 51ab beb9 007d 5227 78c3 73b3 80e2 1daa
00000200: 93c7 c9b5 a051 523a 333a 732b 8655 08a8
00000210: 0073 d1a8 ec64 5eb8 f433 d737 2e22 3131
00000220: c9d0 f2b3 60c5 1dab 5aa8 5724 a069 f32f
00000230: 4e49 cab2 df87 02bb 9882 12a5 2a3d 2b38
00000240: a654 182c d7f8 9036 240b 31b7 560c 95b1
00000250: ddee 4e28 20e7 a733 befd bcb4 7d0c 2eb3
00000260: e845 8eb2 9a81 6523 a6cb 3e28 fc1e 5ca7
00000270: 89a3 12a4 8a24 c535 7499 ba35 2373 ddb3
00000280: a887 8bb3 b81b 09b0 4080 99af 1d32 04b5
00000290: 58e0 28b4 4afd 37b8 3620 57b5 2c12 262f
000002a0: c757 56aa af63 3cad 69ba 8733 56a3 832f
000002b0: d6ed 3d36 5e23 59b6 00da 9132 ae0d 53ad
000002c0: 1821 bead 98a5 7e20 68f9 70ab 743d 61b1
000002d0: 49ed 1d30 487d d7ad 0859 1e2a 2d12 be30
000002e0: 1f66 2835 cc62 4b30 a6d6 15b0 829f 51ae
000002f0: 4094 90b4 6c44 dbae 24b3 aeb1 acf5 0b33
00000300: e640 7230 0469 bb27 586f c3b1 f077 179d
00000310: 82ad 8037 971e 4a30 7d88 969d ea70 361d
00000320: 70df 1bb7 1a92 502c b822 b9b8 285b e130
00000330: 0dc8 bcb4 a538 0039 2952 1e35 d274 92a8
00000340: 32ac eeb9 e3d9 dab0 170e b52d ce43 462c
00000350: 90d3 9b27 1d00 0133 5dde ba33 508f cd32
00000360: 82f4 8bb1 59b0 78af c627 8230 4010 7cab
00000370: 0ef5 a5ac de93 85ae 204e 84b6 6eed 5436
00000380: 9a08 e2ac 6825 a4b1 9e02 b9b6 90dc 50b2
00000390: 16fb 4eb4 3a3c c83a 5e49 a92f d818 c039
000003a0: 3698 8d35 adc5 7eb0 44be 1caf 74b5 d212
000003b0: 9503 51ad a1e8 93b5 eeef cdad 9965 deae
000003c0: fa96 3336 93f3 9231 8216 483a 213d 08ac
000003d0: 3bc5 e537 51e4 8d27 205b da2e bdcf 5b19
000003e0: 08e2 0f34 a200 dcb2 a632 19aa 6faa 03a9
000003f0: 14c8 4d33 00ff d12a 7be3 7c35 0898 1cb6
4.769639e-10 2.369811e-13 -3.6595114e-15 -1.6800367e-08 1.6366304e-08 0.00065862224 -1.2539504e-06 1.7688002e-30
-4.1242593e-11 4.3314774e-10 -9.807838e-06 5.8049254e-10 9.093659e-11 -1.0888569e-12 0.00034488447 -1.2163111e-08
-1.9384489e-08 -2.1021215e-08 6.813613e-07 -0.00010438223 -0.0046645855 -6.3875295e-06 1.3905304e-07 -0.0004669721
1.2444111e-13 -5.8324417e-08 2.6958113e-16 4.020853e-11 8.5289745e-13 -4.028863e-11 4.1711234e-10 -1.0954159e-14
-1.5678506e-07 0.000110406516 -3.2954563e-16 -9.191717e-14 6.502014e-11 5.238336e-05 -2.4053666e-08 3.707975e-15
7.1111674e-07 -3.4579914e-21 2.9362684e-07 -0.0010129921 4.0199452e-14 0.00012773937 2.8147762e-16 2.8163562e-11
-4.521204e-07 -7.681681e-13 1.7229584e-05 -4.327796e-23 -7.088182e-08 3.3853297e-08 1.1445147e-06 2.245624e-06
1.1583424e-18 0.00077578635 1.5610722e-09 5.2170616e-14 5.613663e-07 -2.288293e-09 -1.9268471e-08 -2.9402564e-10
-7.857062e-08 -3.2553032e-07 1.0076892e-21 -1.12216405e-07 -2.774001e-07 -4.9146424e-14 -8.2548985e-12 -3.534628e-11
-5.5418997e-05 6.4602827e-19 -2.8047345e-13 -8.1982484e-22 1.1329903e-09 2.3101438e-07 4.2548297e-07 -1.6998897e-07
-4.442041e-07 4.2282647e-07 9.3291175e-07 1.2263107e-12 1.4326484e-36 1.7399435e-07 -1.7707272e-08 -6.0924243e-10
5.858193e-12 3.101027e-08 8.45111e-07 -2.3395033e-07 1.2567123e-15 6.616244e-12 1.0949874e-12 -8.0495033e-10
-4.9520177e-10 -9.5887354e-11 2.1303391e-15 1.3997033e-12 -3.2423647e-12 4.8673166e-05 -1.3514943e-07 1.925181e-06
1.7873347e-10 2.306694e-07 -8.144105e-11 -5.3311034e-15 -0.00021647115 -1.03836925e-07 1.5029637e-14 -4.586822e-11
4.3184787e-08 1.5494762e-06 -3.2938743e-08 0.0018465027 5.6257915e-10 0.00032187765 2.669327e-15 2.6575428e-06
-8.8521915e-12 -5.8174954e-11 -1.8550335e-12 -6.827543e-07 -0.00036367265 2.9211117e-15 -5.6755624e-08 -1.4022984e-13
-1.5033751e-06 0.00080230273 8.641171e-13 -7.5680615e-15 -2.3253535e-14 -5.3022915e-05 2.565419e-05 2.5776319e-09
-1.1306981e-07 -5.605152e-13 4.6763293e-17 4.4276494e-10 -2.354923e-08 -0.0019917411 -1.2707728e-16 4.082654e-05
2.1647488e-12 4.320503e-06 -1.0552616e-05 -4.337873e-09 1.1487092e-14 7.818585e-08 -3.520235e-07 -4.052389e-08
-1.6562765e-08 1.2441559e-17 1.0591278e-14 -3.054793e-15 -3.1797223e-17 1.4688278e-06 1.3902741e-06 -1.0312058e-07
-6.4973676e-08 -4.98797e-10 -2.7921665e-10 -4.9246756e-07 -1.5727835e-07 -4.3866494e-05 -8.0140615e-07 1.5104068e-10
-1.9037472e-13 -1.0708697e-11 6.320335e-08 2.3944818e-10 2.8301633e-06 -3.2356106e-06 1.6979357e-08 -1.1996999e-11
-2.1615196e-11 2.1569427e-19 -8.561125e-13 -3.2776741e-09 5.745347e-10 -2.4498306e-11 1.4064108e-13 1.3829485e-09
6.273348e-07 7.399137e-10 -5.451092e-10 -4.766277e-11 -2.6929956e-07 -9.971121e-11 -5.0844324e-09 3.2586897e-08
8.8131313e-10 5.2016785e-15 -5.6879053e-09 -2.004669e-21 1.5339585e-05 7.353064e-10 -3.9845795e-21 2.4145875e-21
-9.290743e-06 2.963968e-12 -8.827954e-05 1.6396813e-09 -3.5163285e-07 0.00012228133 5.8979145e-07 -1.6259919e-14
-0.00045523193 -1.5923515e-09 2.0583575e-11 2.8175131e-12 4.325052e-15 3.0035256e-08 8.7017476e-08 2.3930312e-08
-4.0732298e-09 -2.261812e-10 9.470049e-10 -8.9550936e-13 -4.7167886e-12 -6.074406e-11 -3.9430015e-06 3.1728664e-06
-6.4242613e-12 -4.777281e-09 -5.5137343e-06 -1.2157344e-08 -1.927659e-07 0.0015276738 3.0793051e-10 0.00036639604
1.0549618e-06 -9.2685576e-10 -1.4255713e-10 1.3297595e-27 -1.188107e-11 -1.1020057e-06 -2.3412352e-11 -1.01134386e-10
2.6760958e-06 4.2768504e-09 0.00076327485 -1.9360696e-12 2.739077e-05 3.9382903e-15 9.929679e-11 1.1363987e-23
1.3400143e-07 -2.5611659e-08 -1.3606702e-13 -2.923567e-14 4.7912252e-08 3.73028e-13 9.4208343e-07 -2.3334305e-06

fc2.bias f4 [256]
00000000: 92e4 abb5 a4ee ba33 8a46 7830 8889 ce31
00000010: ae42 8739 d98c afb7 9e1f 15b8 9c52 afaf
00000020: facd 4033 4a37 7bbb d40b 19bb 7f19 52b5
00000030: 19c8 20b4 92f0 35b6 d701 65b5 30f1 42b3
00000040: 8e70 da2b 8ecf 443f 82e4 7cbc 4382 c4b6
00000050: c047 fc37 8121 47b9 c656 13b6 8e51 8eaf
00000060: f0e0 0a39 eec9 7a3c 41ae e836 54d2 28b6
00000070: e7b6 01b7 a023 812b 0cad 27bd 7491 0736
00000080: 42f5 5bac 22af 81b8 c878 3533 7b8e 26b0
00000090: cc89 f239 50d1 4134 7039 193b 29c5 3634
000000a0: a90d 4732 9fa9 d8bd 7d83 8cae cdd8 1d3f
000000b0: 56c9 0bb8 b64e 70aa f795 713c 4037 cd32
000000c0: 2e60 1bb3 2e93 00ae dcce bcb2 d50d 0fb9
000000d0: 3d3c a338 36b8 8ab0 b528 d9b4 bc6c 04b2
000000e0: fa74 b138 74ab 4238 c359 46b8 4184 83b2
000000f0: ca8a 64b8 3603 a4ba e82b 0c38 5c03 1b2c
00000100: 4bab 2f3e 88b7 8f3d 1841 d1ba c314 963d
00000110: b0fe 802f b8ba 823d a9af 27b5 5cf7 98b7
00000120: c434 9233 8ef9 bd3d 0447 d2b6 94b7 aeb8
00000130: 468c 0b33 121b 9636 f21a cf3b 7148 59b1
00000140: 2ec4 b339 96ae 5639 4c13 dcb3 0ad8 7fbc
00000150: 8c17 17b9 f686 d51d 654c 9539 053a b8b6
00000160: 534b 5db5 0fbf 89af 3ef7 d4ba 84c8 4bae
00000170: bf5b 17b7 8086 04b9 a8d9 c8b4 3056 8932
00000180: 68dd 0c39 c169 64aa bcf5 23b8 1af1 e1ad
00000190: 846e 07b1 14d8 ff38 5cc6 90bd 9c9a 033e
000001a0: 715f ceb6 2ec2 d632 28e9 1bb6 3884 a03b
000001b0: cf68 b83d d209 2b3b be86 3d37 b85c 3c3e
000001c0: 5011 82b6 6a22 9339 024b 51bc 434c 9faf
000001d0: 23c5 f038 9aef 50b7 da41 32b9 9596 4db4
000001e0: d56f 223e 425c febd c0cc 9f28 aa7f 0a34
000001f0: 98f8 cbb5 bf8c d9bc eef1 cb3c d959 47b8
00000200: c20f 7fbb 8cde 77bb 808b 87b1 66b7 05b5
00000210: 454b 38b6 7d8a 7fac 7224 ddbd d736 26b7
00000220: 5cf2 a934 27f3 42bb 17fb 242c 4e27 24b3
00000230: 113f 3037 1ab1 06bc 4030 7db9 5aa4 1739
00000240: 10d7 1d39 5c64 602e 4cb0 563d 927a 06ae
00000250: d8b9 5934 676a 16b6 aa22 1c3e 95a8 4bb4
00000260: 1929 84b8 9564 a09e fad6 3338 1e12 42be
00000270: 4e7c 9aba 000c f2ba 6f91 8cb2 7f86 90b7
00000280: 1509 74b7 334a 50b6 ccd5 f0b3 28e2 ee2e
00000290: 9f40 2bb6 66a8 babb 2b59 2d3e 9860 9d33
000002a0: c0e7 9633 8064 7f35 d828 1f35 d51d 9eb1
000002b0: 7ac4 2fbb bd7a 83ba c92d 0232 7488 d7ae
000002c0: a8b0 cfb8 9d54 5b38 9a07 0c3e 1109 8f30
000002d0: e071 b4b1 24fc 6aba 88b5 083f bb66 d1ba
000002e0: a06d 98b5 2eac 8231 5d56 9035 61b9 423e
000002f0: 84fd bb9e 063c 3dbe f62c f42e d777 3e3b
00000300: 892f 2bb6 60f9 273e 420a 5fb9 eec1 6dbd
00000310: d65a 2838 d1eb 353e ae4b 59ab 7c12 26b0
00000320: 419d 0831 08fb 8e34 b407 29b2 3de1 1033
00000330: 84db 20bd b0ce 442f f938 073e 80de a5bd
00000340: 220a cfb1 f631 c4bd 400c 0eb6 6167 3a3e
00000350: 6f0c b332 7f1d 1138 b71a 1ebd 6e48 2f3e
00000360: 580c 9eb7 eea3 d2b2 327a 2138 e84a 2dae
00000370: 4e24 a8ad 06c0 5434 06c2 2bbd 7831 0dbc
00000380: c8b6 ecb4 16b5 0c39 2a37 20ba 3c79 33ba
00000390: 64ef 1a39 b6fc 82b4 1b57 49b6 2a0f 603d
000003a0: bcab 82b0 071a 2a3a c4fa 0d2e fe8b 861e
000003b0: 5e7f d7bd 8a10 5db1 c00b 42b9 f172 54b9
000003c0: 4473 eab9 5ede 2a39 540e 442f dbda 7bb6
000003d0: 58f5 873a bb3c ac39 9f85 44a8 3a21 18b6
000003e0: b82d ad9e 180f 6b3f 4611 1cb4 5ed9 15be
000003f0: 11ab 1538 643c d230 e030 353e 592f c53c
-1.2807016e-06 8.7047084e-08 9.0322116e-10 6.0110246e-09 0.00025798887 -2.0927213e-05 -3.5553814e-05 -3.1891012e-10
4.4890818e-08 -0.0038332515 -0.0023352997 -7.82682e-07 -1.4973956e-07 -2.7111132e-06 -8.5311825e-07 -4.5388504e-08
1.5521072e-12 0.76879203 -0.01543534 -5.8564196e-06 3.0074152e-05 -0.000189906 -2.1955216e-06 -2.5887598e-10
0.00013244501 0.015306933 6.9344246e-06 -2.5156378e-06 -7.731584e-06 9.175889e-13 -0.040936515 2.0201232e-06
-3.1257917e-12 -6.1838204e-05 4.2252196e-08 -6.0592925e-10 0.00046260504 1.8050673e-07 0.0023380183 1.7021797e-07
1.15864305e-08 -0.10579228 -6.38982e-11 0.61658937 -3.332769e-05 -2.134359e-13 0.014745227 2.3890266e-08
-3.6176225e-08 -2.9234552e-11 -2.198015e-08 -0.00013642696 7.783666e-05 -1.0093177e-09 -4.0449018e-07 -7.708135e-09
8.461806e-05 4.6412883e-05 -4.7290476e-05 -1.531055e-08 -5.4488693e-05 -0.0012513164 3.3419492e-05 2.202869e-12
0.17155187 0.07017428 -0.0015964834 0.07328179 2.346403e-10 0.0638327 -6.2467967e-07 -1.8234998e-05
6.808253e-08 0.092761144 -6.266755e-06 -8.331161e-05 3.2491037e-08 4.4734998e-06 0.006320351 -3.1618834e-09
0.00034287706 0.00020473669 -1.02480584e-07 -0.015615473 -0.00014409254 5.6520177e-21 0.00028476413 -5.4903817e-06
-8.2438527e-07 -2.505591e-10 -0.0016248 -4.633495e-11 -9.021663e-06 -0.00012638606 -3.741127e-07 1.5988093e-08
0.0001343392 -2.0287159e-13 -3.9091086e-05 -2.5686609e-11 -1.9707906e-09 0.00012199595 -0.07069084 0.12851948
-6.1503893e-06 2.5001182e-08 -2.3232515e-06 0.004898574 0.09004366 0.0026098383 1.129665e-05 0.18394744
-3.8763174e-06 0.00028063665 -0.012774231 -2.897612e-10 0.000114808114 -1.2453553e-05 -0.00016999934 -1.9146894e-07
0.15862973 -0.124199405 1.7741342e-14 1.2898695e-07 -1.5197029e-06 -0.02655637 0.024895635 -4.7528974e-05
-0.0038919304 -0.0037821857 -3.9448764e-09 -4.981324e-07 -2.746195e-06 -3.6314556e-12 -0.10797967 -9.907139e-06
3.1655043e-07 -0.002974698 2.3445185e-12 -3.8219973e-08 1.0505101e-05 -0.008220935 -0.00024145935 0.00014461708
0.00015052804 5.102084e-11 0.052414224 -3.0576937e-11 2.027731e-07 -2.2413676e-06 0.15247598 -1.8967178e-07
-6.3019055e-05 -1.6982259e-20 4.287714e-05 -0.18952224 -0.0011786313 -0.0018466711 -1.636428e-08 -1.7228767e-05
-1.4545648e-05 -3.1037605e-06 -1.121476e-07 1.08631604e-10 -2.55186e-06 -0.005696344 0.16928546 7.3284525e-08
7.0270744e-08 9.514115e-07 5.929155e-07 -4.6017967e-09 -0.002681999 -0.0010031086 7.577406e-09 -9.801307e-11
-9.903434e-05 5.229247e-05 0.13674775 1.0407196e-09 -5.2516356e-09 -0.00089639635 0.53401995 -0.0015976051
-1.1356788e-06 3.8030725e-09 1.0753971e-06 0.19016029 -1.9904247e-20 -0.18479928 1.1103822e-10 0.002906313
-2.5508655e-06 0.16403723 -0.00021270759 -0.058046274 4.013892e-05 0.17765738 -7.7198913e-13 -6.0416716e-10
1.9879993e-09 2.663221e-07 -9.838846e-09 3.3732466e-08 -0.039271846 1.7899526e-10 0.13205327 -0.08099079
-6.025645e-09 -0.09579842 -2.116678e-06 0.18203498 2.0843997e-08 3.4598164e-05 -0.038599696 0.17117473
-1.8840816e-05 -2.4521764e-08 3.8499194e-05 -3.9402176e-11 -1.9115511e-11 1.9813896e-07 -0.041933082 -0.008617751
-4.4091416e-07 0.000134189 -0.0006111736 -0.00068463734 0.00014775764 -2.4398258e-07 -3.0002036e-06 0.05470196
-9.507555e-10 0.0006488864 3.2282413e-11 1.4245701e-20 -0.1052234 -3.2169134e-09 -0.00018505659 -0.00020260715
-0.00044717838 0.00016295302 1.7831187e-10 -3.7529305e-06 0.0010372801 0.00032851644 -1.090916e-14 -2.2669105e-06
-1.8335996e-20 0.91819906 -1.4534916e-07 -0.146337 3.5683686e-05 1.5296675e-09 0.17694426 0.024070429

fc3.weight f4 [256, 256]
00000000: 62ed a0b5 2151 412b 4059 efa6 e0a2 06ab
00000010: 04b5 e7b0 35f2 2db1 5b86 b0b1 a066 b1b4
00000020: a451 3128 ae17 782f e834 77b1 f802 7f39
00000030: b5ab ad18 3bf6 06af 14a2 bdac 7e79 ce2c
00000040: d463 26a7 7a3c 94b9 0079 6b2b fbed 8bb2
00000050: 59de 4433 4db5 6636 7a11 c4b2 3e94 8624
00000060: ff8e 21b0 4bc3 2233 d09f 0aad 2b62 8939
00000070: b659 b3b0 d46c 2038 bd39 fe34 4eb4 a33a
00000080: 1279 56b0 9fad 11b6 b812 7cb0 08ed e8ac
00000090: 1b92 98af 3e80 11ac f989 1732 f231 12b7
000000a0: 70ff 6da8 1225 2937 1dba ce29 205b 7bb9
000000b0: e657 0425 9a34 5f1c e48c 99b6 d159 e3a6
000000c0: e462 93b1 1aa7 23b9 9da0 ceab 42dd 5eb1
000000d0: 7922 5c32 1e1f 9baa 94c8 b138 df28 9e2a
000000e0: aa6a 19b1 04e1 9db0 fdf6 fc31 ec9a a8a6
000000f0: 9911 6f30 dc84 9732 da76 1fb2 1653 3c3a
00000100: 3121 1eb7 4e3a 84b5 c86e 2b32 fffb efb4
00000110: 8e25 2824 d84b 6a39 b611 2b2f c9bb 22b7
00000120: 74c0 e92b e8e8 4a33 4a91 5eab a989 1daf
00000130: b5a4 88a7 eec3 3032 a5ed a631 18cf 8ca3
00000140: c800 bf2e c8a9 16b7 5dcb 44ac c958 60b1
00000150: 75dd 99ac 0697 8b1c ec57 762f bed6 502a
00000160: ec16 19b9 2f33 6ba9 3438 fa34 770f 76a6
00000170: 4b82 f92f 6ab9 0eb2 88e9 ea34 38e7 f026
00000180: 353f 402f a0f5 1527 e617 a6b6 358a d427
00000190: 8078 692a aa95 8bae 6107 5238 69ed abb5
000001a0: 602e dcaa 5d99 70ae 1406 2e32 3092 efb4
000001b0: d062 9434 ec39 1d31 1235 0dbb 119a 05b7
000001c0: 4cbb b7b0 aa4e 07b4 2fe1 0cad 5453 5e35
000001d0: 1086 9d2f 3edd 4eb0 e8f4 0f30 ba94 3d1c
000001e0: 5033 f0b3 8376 dcb0 cdf3 b523 3814 bb2d
000001f0: 6a2c d92f 0893 6730 9120 d1af 9495 8031
00000200: 23e5 4e31 404c ebb1 00fe 7127 73b5 56b0
00000210: 48d6 6cac 7e95 3c26 1109 2038 cf3a 6aad
00000220: 6757 122d e26a 1cb5 15bf 8cb1 6ee2 5ca9
00000230: 16f4 24ae dcfd f42e 5ee0 5030 f6ff 82b0
00000240: 803a f2ac 6e20 0d36 6ed4 61ba 4e62 4730
00000250: 0a11 19ae 4248 452e c43c ccb6 7879 3837
00000260: 7d2f 2d31 a152 049d f087 9132 e946 e0b6
00000270: 32dd a533 d6b9 4bad b81c 84a7 ba92 33b5
00000280: 045b d528 74ce 61a9 fafe 0dba 78a0 e228
00000290: 6e19 2d2c c850 00af 6002 12b7 eb21 5c30
000002a0: df62 432d 1c3d 2336 6802 e8ae 9af0 c8b4
000002b0: 12ca 7f3a 800e 92b5 5fe2 00af 9c9f 41a6
000002c0: c5a6 c92b 5588 1232 d550 0cb3 8046 43ad
000002d0: 8417 6fab d657 f032 012e f1b8 36a3 26b5
000002e0: ed44 cd2b 7482 85a9 3007 a82f 065e e735
000002f0: 47f6 9a9c 1533 40b6 bec2 27b7 c638 85ae
00000300: 9097 532f dc0b d534 8063 eb30 1667 f8af
00000310: 00bc 40a9 f450 65b7 8221 b421 dff8 54bb
00000320: a8ed 68a1 a89b c22d 5308 c52a d415 5cae
00000330: 6acb 98b3 dd38 ffa9 c1fe 4331 c0ab 2b3b
00000340: d086 49a7 8a21 5f38 e8f5 482e 032e 4eb9
00000350: ce20 83ab 6c8b 78b8 ec6c 6ead 21da a8b2
00000360: eb81 3233 d213 8c25 4cfe 6929 90a7 3629
00000370: 9a44 b128 7a23 892b b763 88ac 28cc c137
00000380: 031a 45ba f0a1 8aaf 0410 4232 4717 53b5
00000390: aba6 34af 2470 c42b 58d8 3a2c d07e 48b4
000003a0: d6c7 a9a8 6425 00b0 cc3a 3625 6032 a11b
000003b0: cf6f 6ab1 6aab e8ac 946a d9ac a6ee 81a6
000003c0: 00b5 ee2d 4a87 e32d f2df 3928 89fa b1a8
000003d0: cf0c 29b2 26ec 22b1 f1d4 3db4 a07c 342d
000003e0: 71ad b41c c1e7 d8b9 d2b8 1cae 9e0b 1aad
000003f0: bc64 02b1 4295 c027 5997 5eb7 b945 f4b2
-1.1990016e-06 6.8679963e-13 -1.6608148e-15 -4.78324e-13 -1.685891e-09 -2.5312492e-09 -5.1375486e-09 -3.304349e-07
9.843177e-15 2.2563881e-10 -3.5973304e-09 0.00024319801 4.489283e-24 -1.2274708e-10 -5.3896974e-12 5.8683605e-12
-2.3091245e-15 -0.00028273818 8.365669e-13 -1.628995e-08 4.583703e-08 3.4378202e-06 -2.282535e-08 5.836437e-17
-5.877467e-10 3.7896182e-08 -7.879877e-12 0.00026203817 -1.3049462e-09 3.8248327e-05 4.7353197e-07 0.0012489648
-7.80248e-10 -2.1707745e-06 -9.1703667e-10 -6.6201523e-12 -2.7752453e-10 -2.0676928e-12 8.820728e-09 -8.713907e-06
-1.3211532e-14 1.0081816e-05 9.180523e-14 -0.00023971172 1.1478956e-16 7.3852497e-22 -4.576157e-06 -1.5775634e-15
-4.2895056e-09 -0.00015607142 -1.468176e-12 -3.2431022e-09 1.2813524e-08 -2.7555123e-13 8.477378e-05 2.8094798e-13
-2.2325062e-09 -1.1487207e-09 7.3622446e-09 -1.1699333e-15 8.69727e-10 1.7639131e-08 -9.282042e-09 0.00071840116
-9.425262e-06 -9.851735e-07 9.978699e-09 -4.470057e-07 3.6461003e-17 0.00022344233 1.5558652e-10 -9.699675e-06
1.6609062e-12 4.7243617e-08 -7.9071873e-13 -1.4327974e-10 -3.792616e-15 1.0289098e-08 4.858253e-09 -1.5266538e-17
8.685813e-11 -8.980227e-06 -2.7966165e-12 -3.2646759e-09 -4.373108e-12 9.237287e-22 2.2404806e-10 1.8548615e-13
-0.00014599756 -5.2224877e-14 4.6607022e-07 -8.5369354e-16 4.5385415e-10 -8.307646e-09 4.3755813e-07 1.6716017e-15
1.7484754e-10 2.0811057e-15 -4.9499677e-06 5.8991665e-15 2.0736364e-13 -6.347574e-11 5.0074774e-05 -1.2809588e-06
-3.911203e-13 -5.4705896e-11 1.0129515e-08 -4.4623584e-07 2.7639044e-07 2.2879432e-09 -0.0021546525 -7.963289e-06
-1.3368235e-09 -1.2601473e-07 -8.0080794e-12 8.2822703e-07 2.865339e-10 -7.525677e-10 5.237113e-10 6.272708e-22
-1.11852046e-07 -1.604079e-09 1.9727313e-17 2.1268418e-11 3.9503628e-10 8.4246254e-10 -3.8040018e-10 3.7422954e-09
3.0107195e-09 -6.848069e-09 3.3583162e-15 -7.81106e-10 -3.3656567e-12 6.54282e-16 3.8155416e-05 -1.3314418e-11
8.318546e-12 -5.8270064e-07 -4.0962598e-09 -4.904621e-14 -3.7506075e-11 1.114093e-10 7.5988804e-10 -9.531493e-10
-6.8845485e-12 2.1029514e-06 -0.00086147233 7.253548e-10 -3.4803306e-11 4.4856792e-11 -6.086748e-06 1.0995536e-05
2.5201807e-09 -1.7512773e-21 1.6942039e-08 -6.6839752e-06 7.7236464e-08 -1.1580478e-11 -3.6668497e-15 -6.689621e-07
2.3687222e-14 -5.0139106e-14 -0.00054167176 2.5160633e-14 2.4598895e-12 -1.1670231e-10 -8.702831e-06 8.0083734e-10
1.11064205e-11 2.4324463e-06 -1.0550566e-10 -3.7427964e-07 0.0009757589 -1.0882068e-06 -1.1721955e-10 -6.7176637e-16
1.4328197e-12 8.529317e-09 -3.2669806e-08 -1.1100121e-11 -8.494249e-13 2.797962e-08 -0.000115003444 -6.207732e-07
1.4585257e-12 -5.9290165e-14 3.056413e-10 1.7238206e-06 -1.0254526e-21 -2.8639963e-06 -9.999318e-06 -6.058225e-11
1.9244184e-10 3.968297e-07 1.712678e-09 -4.5184184e-10 -4.2795628e-14 -1.3668312e-05 1.2206144e-18 -0.0032496972
-7.8919193e-19 2.2124372e-11 3.5000006e-13 -5.0041596e-11 -7.1150524e-08 -1.1334139e-13 2.8521046e-09 0.00261949
-2.7967435e-15 5.319858e-05 4.5693144e-11 -0.00019662832 -9.317215e-13 -5.9257654e-05 -1.3552919e-11 -1.9656968e-08
4.1562014e-08 2.429956e-16 5.195696e-14 4.0557455e-14 1.9680699e-14 9.744282e-13 -3.876423e-12 2.310246e-05
-0.00075188297 -2.5217117e-10 1.1295928e-08 -7.86375e-07 -1.6430117e-10 1.3957763e-12 2.6552285e-12 -1.8672586e-07
-1.8849434e-14 -4.6619264e-10 1.5805905e-16 2.666777e-22 -3.4115037e-09 -6.6128674e-12 -6.1793435e-12 -9.015859e-16
2.7137848e-11 2.5866993e-11 1.0318123e-14 -1.97596e-14 -9.840007e-09 -2.3708338e-09 -1.7679464e-07 1.0259488e-11
1.1956234e-21 -0.000413714 -3.5634447e-11 -8.756466e-12 -1.897475e-09 5.345253e-15 -1.32674695e-05 -2.8437045e-08

fc3.bias f4 [256]
00000000: 5e53 88b9 877e 7cad 6230 aeaf 753a dc33
00000010: 5006 8538 d7f7 c7b2 aea9 b0a9 fd44 c1b8
00000020: 5816 2737 42b1 beba 5d60 b631 016c f4b2
00000030: 2e09 38b3 6663 3b2e bade 01b5 40f2 e4bc
00000040: 088b eeb7 40aa 9637 ca4e 4f2e 047d bd3a
00000050: da1d 182e 132b a33d bf0e 47bd 0c92 a7b7
00000060: 7033 e437 36ae a632 648b 3239 e217 f23d
00000070: aee9 0838 a7bb 07be fb0d ed35 dea8 103e
00000080: efe7 a03d ac0f 3131 c5ad 17ba 587d 9927
00000090: 2cb3 ab34 f7c1 9cb5 d137 0bba 472a a0b0
000000a0: e131 56bd bf00 5dbd 123d 3f3e dfcf 7db0
000000b0: c3f3 5c36 c8ec 75bc 4d4c a09e 6a82 8736
000000c0: 0769 22b2 665c 25b3 447e 463e 519e 9fb2
000000d0: dc95 1433 44c4 b331 b4ae 632e 6e9a 8a2d
000000e0: 987e 12af b453 8638 97ce 8834 40e1 f6bd
000000f0: 39e1 a0b8 82ff 96a9 0ca6 44b9 e6c5 1f36
00000100: abfa ae3c f51d 8ab2 e295 862d 3806 b238
00000110: 2439 e027 e4f8 d9b2 9e06 69bc 0adf 46b8
00000120: c1c5 742f 20fb a417 b03e 8736 0676 75b8
00000130: c411 59b1 b3b0 f3b7 88ba 1831 4ba4 03be
00000140: 769d 322b b1ad 5032 24f0 0c3d 5448 0ebc
00000150: 3ebd b6ae d468 36b4 96c1 d6bc dcaf 5538
00000160: b4fb ac3d 77e3 b73b e9da 7736 e6ba 5c34
00000170: 3271 7a39 38f9 463e a403 573b 3c56 292f
00000180: b0e7 be31 6367 273f 5f10 2b36 10a3 8bac
00000190: b817 473e 8ea7 153e 1c1c 64bd fac6 ff33
000001a0: ee9a 9339 1d4b 633e aaca 1437 d668 8533
000001b0: 5cda 463e 9265 b4ba fa57 bb3a f715 21ad
000001c0: 5dc8 b6b3 a4dc 43bc 6477 f433 4a24 44be
000001d0: 3c6f 2cba 828a f633 ee65 82b0 c767 3bbb
000001e0: a477 583c cac4 642c 6090 1939 8275 5b35
000001f0: 59f9 c034 d418 9132 b6b6 72b5 7c4d d1b7
00000200: 36a0 c2b1 1c29 0e3b 1e94 b9bd dfd2 a730
00000210: 81c1 0b36 cb46 1eb8 081c 403e e718 1e2e
00000220: da6a 983a 94cb d9aa 9a45 d2bb 1bca aab9
00000230: 80f2 4033 b0f2 35b2 5a39 5a30 a55c a1a9
00000240: 4847 723c 3a81 3fb2 6026 fdaa fba4 0d2f
00000250: 0da6 3dae c48c 8935 67d7 fc3a 87f5 f937
00000260: be5b 7b36 aeb4 00ba 90bf 5eb9 db75 333a
00000270: 4e6e b7bd e26f d2b9 0874 46b7 652a cd35
00000280: 2e51 1cb7 3187 3732 17e2 25b0 86a9 1ab6
00000290: b4ae 9d2a 33b2 ad33 ee47 5039 5395 15b2
000002a0: d17b 51b8 582f 8aad e72f 46be 2a4c 9631
000002b0: c2fc e12f 4811 dbb6 65ee 04b6 881d 41b7
000002c0: 5275 baa9 8e81 5a32 0162 09af c4f0 b2b7
000002d0: ab62 b5af 282e 7fbd 2678 b1b7 b097 adb8
000002e0: 7d04 05bb df62 a9b3 26fb b336 c1d9 9cae
000002f0: 24b6 90b7 1e55 f9bb bfd3 913d 5b9f 6134
00000300: 51d0 3e3e aae1 f837 e2d9 cb34 817c 08b7
00000310: d430 9ab7 9067 29b1 bcb2 86b1 32b8 f6b6
00000320: 118e 06bb b06b 273e 2834 9eb2 5366 f72c
00000330: 5a0d 00b4 b173 ce37 6531 083d fbdd af31
00000340: 1ca1 9fb4 c159 f12f 0b0b 0b38 802a 1637
00000350: 80b0 ab2c b7d7 3e3e 7494 98b6 cd4e 1130
00000360: bdf1 a5b7 fea0 cab3 adbd 39ac 44ba a8b0
00000370: 2175 85b5 9a51 8db5 1921 812c ae9f c7b4
00000380: 8cfd af30 8637 e6bd da3b a0b8 448b ebb7
00000390: 9d85 f6b3 2aae a83d 5a0a 9534 f464 bdb6
000003a0: 8b51 0f38 818d 463e ef40 8dbc debc c3b4
000003b0: 12a5 dd32 fe0e b032 9d6e 8834 d0fc d6ae
000003c0: 2adf f5a4 f0ce bd34 8e5a e73e 3635 3e34
000003d0: 8504 63b3 2c61 37af 2bb7 1830 7b1a 39be
000003e0: c7f1 3531 dd4c 8fb3 6290 d89c 5263 423e
000003f0: c497 1632 e3fc 3cb3 9a82 2cbd abd6 8c34
-0.00026002055 -1.4352636e-11 -3.1684794e-10 1.02551816e-07 6.34311e-05 -2.3279354e-08 -7.845405e-14 -9.215807e-05
9.959178e-06 -0.0014548677 5.3078524e-09 -2.8454453e-08 -4.2849187e-08 4.260716e-11 -4.8380355e-07 -0.027947545
-2.8436552e-05 1.7960672e-05 4.713633e-11 0.0014456813 3.4587312e-11 0.079672 -0.048598047 -1.997596e-05
2.720367e-05 1.9404165e-08 0.0001702733 0.118209615 3.2642558e-05 -0.13255177 1.7661945e-06 0.14126918
0.07856738 2.5765798e-09 -0.00057860865 4.260193e-15 3.1981597e-07 -1.1679357e-06 -0.00053107465 -1.1653548e-09
-0.052293662 -0.05395579 0.1867564 -9.2336266e-10 3.2924443e-06 -0.015010066 -1.6972216e-20 4.0384957e-06
-9.4535215e-09 -3.8501092e-08 0.19384104 -1.858203e-08 3.459523e-08 5.2318985e-09 5.1768992e-11 1.5757364e-11
-1.3323598e-10 6.405209e-05 2.5482288e-07 -0.12054682 -7.6713455e-05 -6.705662e-14 -0.00018753874 2.3808038e-06
0.021359762 -1.6078937e-08 1.5300598e-11 8.48886e-05 6.223444e-15 -2.5375307e-08 -0.014222769 -4.74146e-05
2.2261927e-10 1.0661644e-24 4.0306113e-06 -5.852247e-05 -3.1587755e-09 -2.905014e-05 2.2224942e-09 -0.12855642
6.3456824e-13 1.2146686e-08 0.034408703 -0.008684237 -8.310018e-11 -1.6988207e-07 -0.026215356 5.094694e-05
0.08446446 0.0056118327 3.693329e-06 2.055709e-07 0.00023884026 0.19431007 0.0032808566 1.5401097e-10
5.5560676e-09 0.6539213 2.5490515e-06 -3.968721e-12 0.19442642 0.14614698 -0.05569087 1.19105565e-07
0.00028153457 0.22196622 8.868674e-06 6.212365e-08 0.19419235 -0.001376318 0.0014293187 -9.156668e-12
-8.511481e-08 -0.01195446 1.13838524e-07 -0.19154468 -0.00065778545 1.1480462e-07 -9.487715e-10 -0.0028595792
0.013212118 3.2509989e-12 0.00014645001 8.1754854e-07 3.594421e-07 1.6891512e-08 -9.0417905e-07 -2.4950823e-05
-5.664357e-09 0.0021691984 -0.09061454 1.2210782e-09 2.0825248e-06 -3.7736067e-05 0.18760693 3.594716e-11
0.0011628524 -3.8688204e-13 -0.0064169886 -0.00032575507 4.4924036e-08 -1.0590767e-08 7.938944e-10 -7.1659075e-14
0.014787503 -1.1147046e-08 -4.4968456e-13 1.2882488e-10 -4.3121107e-11 1.0248264e-06 0.0019290269 2.9797446e-05
3.7455316e-06 -0.0004909736 -0.00021242932 0.000684587 -0.08956586 -0.0004013768 -1.1828735e-05 1.5286029e-06
-9.317226e-06 1.0682741e-08 -6.0347943e-10 -2.3046464e-06 2.8010027e-13 8.0883545e-08 0.00019863222 -8.706894e-09
-4.9944796e-05 -1.5709808e-11 -0.19354211 4.3742334e-09 4.1106857e-10 -6.5287204e-06 -1.9808297e-06 -1.1510572e-05
-8.280411e-14 1.2718727e-08 -1.2494895e-10 -2.1331369e-05 -3.2993816e-10 -0.062299877 -2.1155993e-05 -8.277537e-05
-0.0020296865 -7.88766e-08 5.3638532e-06 -7.1327395e-11 -1.7250954e-05 -0.0076090237 0.071204655 2.1012731e-07
0.18634154 2.9668987e-05 3.7970227e-07 -8.13522e-06 -1.8380968e-05 -2.4651605e-09 -3.920233e-09 -7.3528145e-06
-0.0020531456 0.16349673 -1.8417339e-08 7.0315225e-12 -1.1925786e-07 2.4610987e-05 0.03325023 5.1184066e-09
-2.973328e-07 4.3901419e-10 3.3150467e-05 8.950592e-06 4.8797077e-12 0.18636976 -4.547235e-06 5.2862675e-10
-1.9782101e-05 -9.435642e-08 -2.6395372e-12 -1.2276549e-09 -9.943361e-07 -1.0529068e-06 3.670075e-12 -3.718282e-07
1.2804988e-09 -0.11241059 -7.640543e-05 -2.8079034e-05 -1.1479572e-07 0.08236344 2.7760944e-07 -5.6443914e-06
3.41698e-05 0.19389917 -0.017242877 -3.6459e-07 2.5802851e-08 2.0495914e-08 2.5412456e-07 -9.776502e-11
-1.0662987e-16 3.535456e-07 0.45186275 1.7714487e-07 -5.2856667e-08 -1.6678275e-10 5.5557575e-10 -0.18076508
2.64764e-09 -6.672938e-08 -1.4331003e-21 0.189832 8.765657e-09 -4.400216e-08 -0.04211674 2.6233224e-07

action_heads.0.weight f4 [2, 256]
00000000: 50de a0b0 2c49 e9a6 6ec9 461e 2209 8fac
00000010: af98 50b2 796b 73af bec4 949b 5dfa c6b6
00000020: 0f0f 19b5 bc97 16b1 4ef2 52ad 97c8 0ab3
00000030: c07c eaad c5fc 90b6 607f afb3 24c2 8fb1
00000040: c70a ffb2 1c8c c0b0 87e3 6227 cc79 cbbc
00000050: 762d 51a5 9239 9ebd 9df1 e0b2 55a7 9eaf
00000060: e6e5 7aaf ea55 ddb0 4dfa 36af f786 fab2
00000070: 5a3e 9fad 7c42 1ab7 cac3 6cb1 36fe 3bbc
00000080: 5230 31be d8bc 809d e475 c3af 247a 2625
00000090: 10e5 67b0 c316 79ab c5df 35b0 05a2 0fac
000000a0: e0c8 7bb3 42ad f9bb 4a58 12ba 9bac 771d
000000b0: 4f06 52ac 5a6a e8b1 b668 6a9a ee84 c5b2
000000c0: 0ba7 7727 2ef9 80ad aaa5 68b6 1ffb 0ba6
000000d0: 7a01 48af 3931 30b0 4a5f e027 123f 86ac
000000e0: fc89 1320 04dd b3b1 2cb2 c9ac cec5 d3b1
000000f0: 713e 04b3 6a2a c2b4 0534 50ad dcc4 3fae
00000100: a687 92bd 357c 4c24 f7ac 9cb4 1e0d 5fb2
00000110: 068c 8f99 95db 77ad 4eb1 27af 3f04 adb0
00000120: 6a9a 891c b415 e8ba 94b1 b9b1 6030 afb5
00000130: a152 91a8 d2d4 1db0 8cb9 c317 64e7 92ba
00000140: f862 061c 4a8c a3ae ac1f a1bc fc67 8bb2
00000150: 371e bca0 147a 1e1b af66 5cb0 687d dcad
00000160: 1f96 73bd 92f5 9eb2 0944 5bab 6c32 a4ae
00000170: c06e d7ad 88de 4bb4 0c41 c7b3 46d6 8eaf
00000180: 26b4 5e24 4667 15bf 7fbb 83be b6fd 8125
00000190: 5735 0cbf 9767 24be 93f4 12b8 fea5 95a7
000001a0: 2273 07b0 db60 05b4 98dd bfad 0b45 2327
000001b0: dcb7 10b7 a96e 7ab2 7ea3 c7ac 0725 13ac
000001c0: 753f 0f9e 245d 6fbe dcff e1b3 68db 2aa9
000001d0: 6837 feaf ce93 96ad 1c48 1820 9162 2bbe
000001e0: 3a71 2ebf 0fcb 91a3 e0a8 72b1 1f87 5a24
000001f0: 60c7 f3a2 1413 8cac 5f7f b6b0 c8a6 9bb2
00000200: 7b27 919c f3c0 b2b8 ac35 16b2 e7c3 6baf
00000210: 849c 89af 0a19 51bb 3517 8bb9 7b95 911d
00000220: 68de c8b1 86d6 83a6 5c30 b9af 4ce4 d3b7
00000230: 4611 13af 653d 581a f9a8 179c 4603 1a26
00000240: a019 a0b2 663b 2228 6044 5b25 bcee bd94
00000250: 4d16 1bab 3cf3 83b1 b6dc e8aa b068 a6b1
00000260: a2d8 8bb3 6492 4ab3 cad9 a6b3 dad4 9abc
00000270: a81f 4bb2 b2d6 18ac 721a 37af affa fab4
00000280: 5d82 85b2 ad6f eea0 b4f1 601b 9bd0 fab5
00000290: 55fa 73af 6cf1 f3af e2f4 d2ae c731 89a5
000002a0: cf9c 3cb2 517b aead 4e49 27bd 0b3b 37a4
000002b0: ac9b baa6 9130 09bf 06ab 0db3 1afb 78ad
000002c0: a1af eeb0 2bf2 c3ab 6874 74af 4f75 d3af
000002d0: 3d75 49a0 d671 f9b5 51e3 e71c e2cf 76af
000002e0: ec52 5dbe 7dca 4db0 3dcf 2cb4 24ef fa28
000002f0: 0d7b b7ae 7e17 299f 241b b9be 9fe4 02ae
00000300: b9ca 67bc eae8 8cb2 3e71 6a28 10b6 cfb3
00000310: 101b 22b1 703c 04ab 18e6 b0ae cf68 ffb1
00000320: ce60 c0b2 1f45 72be 720c 3db6 a866 0121
00000330: 88f9 1bb0 2fc4 86b0 b0dd 23ae 395b 5b1c
00000340: 34cc 3aae 10db 5823 3b6a 8cbb f368 8e26
00000350: 2892 26a5 b016 6fb9 a2a2 53bb d2ba 5baf
00000360: 56f9 0ab7 6626 ecac 0ebd 0ea0 984e 8425
00000370: 3cd3 16b5 b7e7 3c29 3865 1226 649d f5a3
00000380: a6e2 a21e 3919 07bd e2e0 c9b1 929f 6bad
00000390: 6c2c 32ae 2889 07bc f74d c09b 8635 5faf
000003a0: 86a3 94b2 b790 46be 2706 9cb1 ad37 d8a7
000003b0: 5aee 9bac 6d1f 5926 e7a9 8324 f2b1 63ab
000003c0: 2de2 e2bb 8bd6 6bb1 7ad4 a6be 85c9 92b3
000003d0: 1a9e 279f c882 ed9c 2c53 deae 2eb9 a4b3
000003e0: c43f f0a2 10a4 18b1 7847 c799 b30e f9be
000003f0: 0289 e31a de93 ddac ba5f 84b7 8255 3caf
-1.1704717e-09 -1.6187456e-15 1.05236874e-20 -4.0653184e-12 -1.214191e-08 -2.2138903e-10 -2.4611688e-22 -5.930006e-06
-5.7018855e-07 -2.1914124e-09 -1.199092e-11 -3.2313064e-08 -2.665812e-11 -4.3209607e-06 -8.172242e-08 -4.183919e-09
-2.9690808e-08 -1.400966e-09 3.1487143e-15 -0.02483835 -1.8143263e-16 -0.077258244 -2.6186905e-08 -2.885893e-10
-2.2819044e-10 -1.6104285e-09 -1.6641728e-10 -2.9165205e-08 -1.8103897e-11 -9.194595e-06 -3.4453813e-09 -0.011474183
-0.17303589 -3.4076578e-21 -3.555406e-10 1.4439588e-16 -8.436283e-10 -8.849416e-13 -6.616541e-10 -2.0411461e-12
-5.8623186e-08 -0.007619531 -0.0005582614 3.2779413e-21 -2.9846297e-12 -6.7641794e-09 -4.847465e-23 -2.2994268e-08
3.436869e-15 -1.4662573e-11 -3.4667123e-06 -4.8565645e-16 -1.8190419e-10 -6.4098377e-10 6.22758e-15 -3.8155113e-12
1.249704e-19 -5.234712e-09 -5.7325446e-12 -6.163396e-09 -3.0790435e-08 -3.6166176e-07 -1.1834982e-11 -4.3603218e-11
-0.07154779 4.4340656e-17 -2.9183113e-07 -1.2983291e-08 -1.4842408e-23 -1.40890815e-11 -1.5251553e-10 -1.2588613e-09
9.105815e-22 -0.0017706663 -5.404397e-09 -1.3052595e-06 -1.6134068e-14 -5.7418703e-10 1.2648418e-24 -0.0011207876
4.4464795e-22 -7.437302e-11 -0.019668423 -1.6229016e-08 -3.1868433e-19 1.3108899e-22 -8.0181456e-10 -2.5066796e-11
-0.05946934 -1.8505293e-08 -7.789885e-13 -7.466813e-11 -2.4491853e-11 -1.8986805e-07 -9.2784916e-08 -2.59819e-10
4.8291168e-17 -0.5836071 -0.25728986 2.2549854e-16 -0.5476889 -0.16055141 -3.503689e-05 -4.1535777e-15
-4.927633e-10 -1.2421826e-07 -2.1812593e-11 2.2658222e-15 -8.625877e-06 -1.4577076e-08 -5.6740715e-12 -2.091051e-12
-7.5834796e-21 -0.23375374 -1.05239195e-07 -3.7937887e-14 -4.62417e-10 -1.7118664e-11 1.289876e-19 -0.16736819
-0.6814152 -1.580693e-17 -3.531163e-09 4.7385667e-17 -6.607638e-18 -3.9811574e-12 -1.3278444e-09 -1.8120218e-08
-9.605501e-22 -8.523641e-05 -8.743353e-09 -2.1442724e-10 -2.5031366e-10 -0.0031905794 -0.00026529437 3.853574e-21
-5.8460508e-09 -9.148098e-16 -3.3685665e-10 -2.525947e-05 -1.3375709e-10 4.4717347e-23 -5.01801e-22 5.343392e-16
-1.8638104e-08 9.0056865e-15 1.9018388e-16 -1.9178287e-26 -5.509801e-13 -3.8402543e-09 -4.1364628e-13 -4.8431374e-09
-6.512097e-08 -4.716493e-08 -7.769593e-08 -0.018900324 -1.1823353e-08 -2.171968e-12 -1.6653148e-10 -4.6748525e-07
-1.554252e-08 -4.039267e-19 1.8606944e-22 -1.8687164e-06 -2.2189657e-10 -4.4372983e-10 -9.593194e-11 -2.3799442e-16
-1.0978694e-08 -1.9836273e-11 -0.040841393 -3.973181e-17 -1.2948538e-15 -0.5358973 -3.2984666e-08 -1.4152924e-11
-1.7366696e-09 -1.3922798e-12 -2.2233027e-10 -3.846403e-10 -1.7064153e-19 -1.8585076e-06 1.5345058e-21 -2.2447424e-10
-0.21613663 -7.486632e-10 -1.6094141e-07 2.7859286e-14 -8.343735e-11 -3.5806574e-20 -0.3615352 -2.9761634e-11
-0.014147454 -1.6404062e-08 1.3014165e-14 -9.6723056e-08 -2.3589486e-09 -4.6979694e-13 -8.044426e-11 -7.433392e-09
-2.2395763e-08 -0.2365918 -2.8170439e-06 4.3842764e-19 -5.6743277e-10 -9.805542e-10 -3.7258807e-11 7.2578924e-22
-4.2472872e-11 1.1755772e-17 -0.0042851246 9.881676e-16 -1.4447725e-16 -0.00022801268 -0.0032292982 -1.9984306e-10
-8.283494e-06 -6.7117865e-12 -1.2090421e-19 2.2951607e-16 -5.618674e-07 4.1945366e-14 5.07911e-16 -2.662961e-17
1.7246157e-20 -0.03298304 -5.875436e-09 -1.3393635e-11 -4.051197e-11 -0.008272447 -3.181412e-22 -2.0300747e-10
-1.730383e-08 -0.19391142 -4.540897e-09 -6.0012407e-15 -4.4318273e-12 7.532959e-16 5.710002e-17 -8.089355e-13
-0.006923935 -3.4318954e-09 -0.32583982 -6.835311e-08 -3.5494404e-20 -1.5717151e-21 -1.01101655e-10 -7.670529e-08
-6.5119645e-18 -2.221217e-09 -2.0604984e-23 -0.48644027 9.410635e-23 -6.2976143e-12 -1.5780202e-05 -1.7128879e-10

action_heads.0.bias f4 [2]
00000000: ddde e1be 437d 15be
-0.44115344 -0.14598565
