shanghai_road_delivery/results_centralized/centralized_final.pth_centralized_critic.pth (torch, 919116 bytes, 7 tensors)

fc1.weight f4 [256, 378]
0	0xbdbd2e0d	-0.09237299
1	0x3caf9aa6	0.021436047
2	0xbd9dd4f1	-0.07706631
3	0xbd9d63e8	-0.07685071
4	0xbd9d765c	-0.07688591
5	0xbd9ce791	-0.07661355
6	0x800497e6	-4.21833e-40
7	0x2bc0d5c6	1.3701755e-12
8	0xb8cfce95	-9.909008e-05
9	0x3359539d	5.0600296e-08
10	0x2b2cd71c	6.14052e-13
11	0xbd0ce6bd	-0.034399737
12	0x001ebc4a	2.82261e-39
13	0xb348cd31	-4.675275e-08
14	0x00224152	3.14584e-39
15	0x811e1fe6	-2.9042903e-38
16	0x018ef82c	5.251867e-38
17	0x2c1a3345	2.1913177e-12
18	0x00167dfe	2.065578e-39
19	0x001ec11d	2.824341e-39
20	0x3b17e418	0.0023176726
21	0x0000859f	4.7934e-41
22	0x3a50c704	0.0007964226
23	0x00517c83	7.483342e-39
24	0xbb2c9549	-0.0026334098
25	0x35b52f98	1.3499402e-06
26	0x3b1610d0	0.0022898205
27	0x29a03e92	7.1162816e-14
28	0x800e2110	-1.297558e-39
29	0xba5ce5b0	-0.000842656
30	0x8038904c	-5.194552e-39
31	0xb3a183e1	-7.5211354e-08
32	0x0020f556	3.026746e-39
33	0xb2c35384	-2.2738966e-08
34	0x8001db93	-1.70604e-40
35	0xbb231c44	-0.0024888674
36	0x8015a4de	-1.987689e-39
37	0xbd9dd4f6	-0.07706635
38	0x0004b5a1	4.32498e-40
39	0xbd9dd4f6	-0.07706635
40	0xbe09a19a	-0.13440552
41	0xb123edd9	-2.3854823e-09
42	0x8a0b34a2	-6.702506e-33
43	0x00964118	1.3798676e-38
44	0xbe03eeef	-0.12884115
45	0xaaa5bdb6	-2.9441526e-13
46	0x1a834e2d	5.430663e-23
47	0x8125d06c	-3.045525e-38
48	0x3a96cd9c	0.0011505368
49	0xbd9dd4f6	-0.07706635
50	0xb0bc86c2	-1.3717101e-09
51	0xbd9dd4f6	-0.07706635
52	0x3c2cea2e	0.01055388
53	0x3a0bdd06	0.0005335364
54	0xbd9dd4f3	-0.077066325
55	0xbd9dfa7f	-0.07713794
56	0xbd9de818	-0.07710284
57	0xbd9edb45	-0.07756666
58	0x00071fd8	6.54272e-40
59	0x34561902	1.9939401e-07
60	0xb575983e	-9.1491154e-07
61	0xb9a165cf	-0.00030784166
62	0xb922f180	-0.0001553949
63	0xbd0ce6bd	-0.034399737
64	0x001ebc4a	2.82261e-39
65	0xba79c9d0	-0.00095286686
66	0x00224152	3.14584e-39
67	0x811e1fe6	-2.9042903e-38
68	0x018ef82c	5.251867e-38
69	0xaaf89189	-4.4154635e-13
70	0x00167dfe	2.065578e-39
71	0x001ec11d	2.824341e-39
72	0x3b17e418	0.0023176726
73	0x80082217	-7.46913e-40
74	0x3b874a62	0.00412874
75	0x004675d0	6.470748e-39
76	0x3cc239e9	0.023709254
77	0x398e9e12	0.00027202122
78	0x3b0f8caa	0.002190391
79	0xb341c8a4	-4.5118796e-08
80	0x80160fdc	-2.02607e-39
81	0xb489a788	-2.5640134e-07
82	0x8038904c	-5.194552e-39
83	0xbbb0f715	-0.005400548
84	0x0020f556	3.026746e-39
85	0xbad1f264	-0.0016017673
86	0x8001db93	-1.70604e-40
87	0x3896bfe1	7.1882976e-05
88	0x8015a4de	-1.987689e-39
89	0xbd9dd4f6	-0.07706635
90	0x0004b5a1	4.32498e-40
91	0xbd9dd4f6	-0.07706635
92	0xbd766ad1	-0.06016046
93	0xb11bfbf5	-2.269869e-09
94	0x8a6be7a8	-1.1358408e-32
95	0x8016bc50	-2.087935e-39
96	0xbd5e5e2a	-0.05428902
97	0xaa85bd02	-2.3756696e-13
98	0x1b99ff1f	2.5476595e-22
99	0x005ab1cc	8.328976e-39
100	0xba4baac8	-0.0007769284
101	0xbd9eddf9	-0.07757182
102	0x3a753d39	0.0009355131
103	0xbd9dd4f6	-0.07706635
104	0x3d4bd3f8	0.049762696
105	0xbc9dd01b	-0.019264271
106	0xbd9dd4f0	-0.0770663
107	0xbd9d90f3	-0.076936625
108	0xbd9db41e	-0.0770037
109	0xbd9bd8bd	-0.07609699
110	0x001ca79a	2.631518e-39
111	0x3652d8c0	3.1418604e-06
112	0x327d21dd	1.4734238e-08
113	0xac6ff083	-3.4097454e-12
114	0xac52d5a0	-2.996138e-12
115	0xbd0ce6bd	-0.034399737
116	0x001ebc4a	2.82261e-39
117	0x2bf00cdc	1.7056595e-12
118	0x00224152	3.14584e-39
119	0x811e1fe6	-2.9042903e-38
120	0x018ef82c	5.251867e-38
121	0x2cc88f68	5.700263e-12
122	0x00167dfe	2.065578e-39
123	0x001ec11d	2.824341e-39
124	0x3b17e418	0.0023176726
125	0x000190d6	1.43793e-40
126	0x3aae30f4	0.0013289736
127	0x800f4b85	-1.404624e-39
128	0xbb8a9dde	-0.004230245
129	0x002b47d8	3.974699e-39
130	0xb9ccfbcf	-0.00039097524
131	0xad10c017	-8.228105e-12
132	0x80160fdc	-2.02607e-39
133	0xb4bff3c3	-3.5753882e-07
134	0x800e2110	-1.297558e-39
135	0xadf21eed	-2.7525949e-11
136	0x0020f556	3.026746e-39
137	0xb3bcde30	-8.794848e-08
138	0x8001db93	-1.70604e-40
139	0xba64a9fe	-0.00087228406
140	0x8015a4de	-1.987689e-39
141	0xbd9dd4f6	-0.07706635
142	0x0004b5a1	4.32498e-40
143	0xbd9dd4f6	-0.07706635
144	0xbe89c829	-0.26910523
145	0xb0e5a4ab	-1.6708744e-09
146	0x06cf5ac6	7.7998125e-35
147	0x8081f4c3	-1.1934583e-38
148	0xbe87eba8	-0.2654698
149	0xaa5ec3b9	-1.9785466e-13
150	0x1b7bd682	2.0831545e-22
151	0x80ce98af	-1.8972885e-38
152	0x3bb58054	0.0055389795
153	0xbd9d6304	-0.07684901
154	0x3810cc91	3.4522793e-05
155	0xbd9dd4f6	-0.07706635
156	0xb9017caf	-0.00012348847
157	0x3b762e90	0.0037564375
158	0xbd9dd4f1	-0.07706631
159	0xbd9d218e	-0.07672416
160	0xbd9d639b	-0.07685014
161	0xbd9bd1ed	-0.076083995
162	0xba5b45d6	-0.00083645934
163	0xb17e0cb8	-3.6969094e-09
164	0x3a1e848c	0.00060469727
165	0x34145bda	1.381699e-07
166	0x31819c00	3.7721293e-09
167	0xbd0ce6bd	-0.034399737
168	0x001ebc4a	2.82261e-39
169	0x800260be	-2.18376e-40
170	0x00224152	3.14584e-39
171	0x811e1fe6	-2.9042903e-38
172	0x018ef82c	5.251867e-38
173	0xb2848ce6	-1.5430896e-08
174	0x00167dfe	2.065578e-39
175	0x001ec11d	2.824341e-39
176	0x3b17e418	0.0023176726
177	0x8000dcbe	-7.9187e-41
178	0x3947cec0	0.0001905514
179	0x004bfe2f	6.978846e-39
180	0xbaae1152	-0.0013280308
181	0xad949d54	-1.689552e-11
182	0xba936ec7	-0.0011248224
183	0x32a2bb85	1.8944556e-08
184	0x80160fdc	-2.02607e-39
185	0xb75b883c	-1.3085137e-05
186	0x800e2110	-1.297558e-39
187	0x30b06be6	1.2836352e-09
188	0x8038904c	-5.194552e-39
189	0xb4ba205a	-3.466874e-07
190	0x8001db93	-1.70604e-40
191	0x2d8089bb	1.461308e-11
192	0x8015a4de	-1.987689e-39
193	0xbd9dd4f6	-0.07706635
194	0x0004b5a1	4.32498e-40
195	0xbd9dd4f6	-0.07706635
196	0xbbc96643	-0.0061462237
197	0xb1319a93	-2.5844755e-09
198	0x8a8044d9	-1.2351849e-32
199	0x00a2278b	1.4891536e-38
200	0xbbc50e92	-0.0060137
201	0xaa2000ea	-1.4211172e-13
202	0x1ad6b33a	8.879788e-23
203	0x802c9325	-4.093547e-39
204	0x3bf8519c	0.007578088
205	0xbd9c732c	-0.07639155
206	0xb512eff2	-5.4738405e-07
207	0xbd9dd4f6	-0.07706635
208	0xbc901e6e	-0.017592635
209	0x3bbb5310	0.005716689
210	0xbd9dd4f0	-0.0770663
211	0xbd9a0df9	-0.07522196
212	0xbd9a43eb	-0.075324856
213	0xbd99f70f	-0.07517826
214	0x8057c25f	-8.059415e-39
215	0x34edcd5c	4.429411e-07
216	0xac6548fc	-3.2583372e-12
217	0x2d882762	1.54789e-11
218	0xba115c92	-0.0005545105
219	0xbd0ce6bd	-0.034399737
220	0x001ebc4a	2.82261e-39
221	0xb2db1ca0	-2.5507973e-08
222	0x00224152	3.14584e-39
223	0x811e1fe6	-2.9042903e-38
224	0x018ef82c	5.251867e-38
225	0xb4b9eea0	-3.4632558e-07
226	0x00167dfe	2.065578e-39
227	0x001ec11d	2.824341e-39
228	0x3b17e418	0.0023176726
229	0x80079550	-6.96412e-40
230	0x3b332bd9	0.0027339368
231	0x80da187b	-2.002892e-38
232	0xbb49f81e	-0.0030818055
233	0x358e718f	1.0612874e-06
234	0x3a101024	0.0005495569
235	0xabb8a115	-1.3118696e-12
236	0x80160fdc	-2.02607e-39
237	0xadb69f33	-2.0761703e-11
238	0x800e2110	-1.297558e-39
239	0xb9fe0619	-0.00048451198
240	0x8038904c	-5.194552e-39
241	0x31b4cc2c	5.261901e-09
242	0x0020f556	3.026746e-39
243	0x32df3c99	2.5988173e-08
244	0x8015a4de	-1.987689e-39
245	0xbd9dd4f6	-0.07706635
246	0x0004b5a1	4.32498e-40
247	0xbd9dd4f6	-0.07706635
248	0xbdb3e6be	-0.08784245
249	0xac447a1c	-2.792106e-12
250	0x9bd13136	-3.4607951e-22
251	0x803915c9	-5.242438e-39
252	0xbdb0ef7c	-0.08639428
253	0xb04b0524	-7.3858275e-10
254	0x869675fd	-5.6597097e-35
255	0x00a31776	1.4977602e-38

fc1.bias f4 [256]
0	0xbd9dd4f6	-0.07706635
1	0xad045914	-7.523111e-12
2	0xb7e47fa6	-2.7239159e-05
3	0xb5aacbd5	-1.272531e-06
4	0xb8bffcb5	-9.15466e-05
5	0xb88e3fab	-6.782947e-05
6	0xb68b302e	-4.1481317e-06
7	0xbc9bc034	-0.019012548
8	0xb76ac1fc	-1.3992652e-05
9	0xb6cbd2d9	-6.0744173e-06
10	0xb7836372	-1.5662725e-05
11	0xb94da716	-0.00019612568
12	0xb794e632	-1.7750168e-05
13	0x3f2b6cdd	0.6696299
14	0xbd7a9e0c	-0.06118588
15	0xbc1d76ac	-0.009610813
16	0xb22f21c3	-1.0194017e-08
17	0xb42d7d79	-1.6157527e-07
18	0xb7bc300c	-2.243372e-05
19	0xbce5c3b8	-0.028047428
20	0xbcd8df7f	-0.026473759
21	0xb5ed12cd	-1.7663348e-06
22	0xbc7859cb	-0.015158127
23	0xbe4923ec	-0.1964261
24	0xb72586fd	-9.866196e-06
25	0xba506cec	-0.0007950801
26	0xb1c95524	-5.8595493e-09
27	0xbca8d3f4	-0.02060888
28	0xb3b45825	-8.3979366e-08
29	0xb4893910	-2.5559757e-07
30	0xb802c0d3	-3.1173997e-05
31	0xa6e56866	-1.5918364e-15
32	0xb53f7700	-7.132621e-07
33	0xb84f64ec	-4.9446637e-05
34	0xbb818058	-0.0039520673
35	0xbd2e6116	-0.042573057
36	0xba41a37a	-0.00073867256
37	0xb460e6a4	-2.0945532e-07
38	0xbf37bb70	-0.7177038
39	0xa4a558c1	-7.17077e-17
40	0x9f8c8d59	-5.9526146e-20
41	0xb5e516cc	-1.7068464e-06
42	0xb2c54f62	-2.2969918e-08
43	0xb54c0275	-7.59995e-07
44	0xbcf29171	-0.029610367
45	0xbc21e98a	-0.00988234
46	0xb6210307	-2.3992632e-06
47	0xb74c67f0	-1.2183547e-05
48	0xb11f075f	-2.3141735e-09
49	0xa9772726	-5.4878973e-14
50	0x9704d176	-4.2915877e-25
51	0xb81ab35a	-3.6883495e-05
52	0xb286f98c	-1.5713134e-08
53	0x8dd0586d	-1.2840277e-30
54	0xbe8182de	-0.25295156
55	0xafea223a	-4.2588671e-10
56	0xb4300c3b	-1.6395727e-07
57	0xb948e6ae	-0.00019159421
58	0xba1929fd	-0.00058427436
59	0xb0d52ae6	-1.5509982e-09
60	0xba989403	-0.0011640791
61	0xbc642598	-0.013924979
62	0xb72b3496	-1.0204638e-05
63	0xb727deb7	-1.00058305e-05
64	0xbde5d550	-0.11222327
65	0xbb0fbe54	-0.0021933513
66	0xbee85954	-0.45380652
67	0xb95962d9	-0.00020731556
68	0xbcce2523	-0.025164193
69	0xb7bf2f9d	-2.2791146e-05
70	0xb26c7a64	-1.3764836e-08
71	0xbf04ac6b	-0.5182559
72	0xbc0ae806	-0.00847817
73	0xaf2d57b6	-1.576542e-10
74	0xb254db80	-1.2389933e-08
75	0xbafeea56	-0.00194485
76	0xbe77de37	-0.24205862
77	0xb78495e6	-1.5805428e-05
78	0xb0f031b4	-1.7476425e-09
79	0xb92a0a26	-0.00016216244
80	0xb40936d9	-1.2779073e-07
81	0xb38f7956	-6.681027e-08
82	0x919d539d	-2.4821763e-28
83	0xbca34586	-0.019930612
84	0xbb2ad4a8	-0.0026066694
85	0xb13dd96d	-2.7626712e-09
86	0xb8996a16	-7.3153686e-05
87	0xb982397f	-0.0002483837
88	0xbbbec677	-0.0058219987
89	0xb602bfb4	-1.9483095e-06
90	0xba9dfa36	-0.0012052718
91	0xba4c5a24	-0.00077954144
92	0xb6e6cc07	-6.878286e-06
93	0xb8c92420	-9.591156e-05
94	0xba135dbb	-0.0005621572
95	0xbe9baa18	-0.3040321
96	0xb61d5d6f	-2.3449209e-06
97	0xb9b336f1	-0.00034182475
98	0xbb33e799	-0.0027451275
99	0xbb021794	-0.001985048
100	0xb7cc373e	-2.434442e-05
101	0xb6c46356	-5.8528194e-06
102	0xaa0644af	-1.192542e-13
103	0xb4ad207a	-3.224739e-07
104	0xbe99390d	-0.2992634
105	0xbb7b2fde	-0.0038328092
106	0xb7e15318	-2.6860784e-05
107	0x3ec1e3ca	0.37869102
108	0xb2abd084	-2.0001842e-08
109	0xb86ac3fc	-5.5972472e-05
110	0xb2db7d96	-2.5552065e-08
111	0xb48e7aa8	-2.6538805e-07
112	0xb9618465	-0.00021506993
113	0xbe47b105	-0.19501121
114	0xb532b754	-6.6576945e-07
115	0x2f63b6f0	2.0710522e-10
116	0xba3d31eb	-0.0007217216
117	0xb59be3cd	-1.1614699e-06
118	0xbec728b7	-0.3889825
119	0xb39cf69f	-7.309176e-08
120	0x96f5f346	-3.9735412e-25
121	0xba32f4b1	-0.0006826623
122	0xbed289e1	-0.41120818
123	0xb584171b	-9.841491e-07
124	0xbb912e0d	-0.0044305385
125	0xb7b08b8a	-2.1045813e-05
126	0xbf022257	-0.5083365
127	0xba364baa	-0.0006954024
128	0xbb0634d4	-0.0020478265
129	0xbdf9a722	-0.12190081
130	0xb83d1176	-4.5077373e-05
131	0xb5b61654	-1.3566555e-06
132	0xbdadd1cd	-0.08487282
133	0xb663e15a	-3.3956808e-06
134	0xa6a91085	-1.1731208e-15
135	0xbe36ae5a	-0.17839947
136	0xbb7a8946	-0.0038228794
137	0xbd74c377	-0.059756722
138	0xb8c89520	-9.56452e-05
139	0xb398e499	-7.119633e-08
140	0xb590d7ce	-1.0791643e-06
141	0xbbedb65a	-0.007254404
142	0xb828c397	-4.023648e-05
143	0xb74d3d08	-1.2233162e-05
144	0xb926578d	-0.00015863609
145	0xb490e310	-2.69873e-07
146	0xb4596b50	-2.024874e-07
147	0xb3546e00	-4.946014e-08
148	0xb3265ca5	-3.8734147e-08
149	0xb7231356	-9.720059e-06
150	0xba3e60b8	-0.0007262337
151	0xb7de2db9	-2.6485754e-05
152	0xb2f02e74	-2.7960802e-08
153	0xb82db225	-4.1412324e-05
154	0xb836575c	-4.347354e-05
155	0x368827be	4.0577424e-06
156	0xbdad60d0	-0.08465731
157	0xab052592	-4.730323e-13
158	0xa152dc04	-7.1441956e-19
159	0xbdd9dc6e	-0.10637747
160	0xbde479ef	-0.111560695
161	0xa321ed10	-8.7780274e-18
162	0xbdf27640	-0.11838961
163	0xb75c5691	-1.3133177e-05
164	0xb9692a98	-0.00022236479
165	0xb633b318	-2.6777325e-06
166	0xbaa147ad	-0.0012304686
167	0x97c84511	-1.2942132e-24
168	0xba132f59	-0.00056146603
169	0xb6524e14	-3.1337886e-06
170	0xb0a1ee9b	-1.1782108e-09
171	0xaa0a9ac6	-1.231056e-13
172	0xb3c9b55a	-9.3927795e-08
173	0xb89faf9d	-7.614421e-05
174	0xbeefacd4	-0.46811545
175	0xb662c90f	-3.3793656e-06
176	0xb49be872	-2.9040126e-07
177	0x3f24733a	0.6423832
178	0xb6f833bc	-7.3969986e-06
179	0xb419ddac	-1.4329879e-07
180	0xa996fa77	-6.704787e-14
181	0xbd0b4de4	-0.03400983
182	0xb4d905ee	-4.0423714e-07
183	0xbc5a3d22	-0.013320239
184	0xac9681ae	-4.2776538e-12
185	0xb6c08fcc	-5.738786e-06
186	0xb9bc0d30	-0.0003586798
187	0xbe0cb1bb	-0.13739674
188	0xbcff8a0c	-0.031193756
189	0xba88c3b2	-0.0010434298
190	0x39944ac9	0.0002828448
191	0xbdda3c9e	-0.10656093
192	0xb5f96518	-1.8581368e-06
193	0xb38cecb1	-6.562312e-08
194	0xb786703d	-1.602631e-05
195	0xbaa465b7	-0.001254252
196	0xa8b0eaf5	-1.9641822e-14
197	0xba796858	-0.00095141446
198	0xb496783f	-2.8027168e-07
199	0xbf107363	-0.56426066
200	0xb76dfd9d	-1.418535e-05
201	0xb6c1df11	-5.7778166e-06
202	0xa0ce428f	-3.4941802e-19
203	0xb52c61c3	-6.4217255e-07
204	0xbe014f57	-0.12627922
205	0xb8a1dc7a	-7.718145e-05
206	0xbc41bc4c	-0.011824679
207	0xb408e7d6	-1.2750328e-07
208	0xb6b11f73	-5.2786722e-06
209	0xbc20a508	-0.0098049715
210	0xbf016869	-0.5054994
211	0xb76f9ef7	-1.4282522e-05
212	0xbdd78515	-0.1052343
213	0xb9cd7bcb	-0.0003919288
214	0xb9b1e2d1	-0.00033929062
215	0xb98c1301	-0.0002671704
216	0xba3d748a	-0.00072271435
217	0xb55a06d3	-8.122126e-07
218	0xb6200fa4	-2.3850962e-06
219	0xb2f165ac	-2.8102328e-08
220	0xbe1a8325	-0.1508909
221	0xb7236b7f	-9.7405855e-06
222	0xb92ca209	-0.00016463561
223	0xb9b882ee	-0.00035192765
224	0x9ec68e74	-2.1022983e-20
225	0xb1d36edb	-6.153511e-09
226	0xb5f58e7a	-1.8295389e-06
227	0xb544d1fa	-7.3321246e-07
228	0x9bafc759	-2.9080147e-22
229	0xbb53c024	-0.003231057
230	0x3e716c2d	0.23576422
231	0xbb0188a1	-0.0019765275
232	0xb7a11686	-1.9203184e-05
233	0x98383124	-2.3806252e-24
234	0xbb4c7c94	-0.0031202184
235	0xaec1092f	-8.778255e-11
236	0x3388bc50	6.367247e-08
237	0xb46b36ea	-2.1906058e-07
238	0xb91b8518	-0.00014831533
239	0xb8e694c0	-0.000109949615
240	0xb30e3231	-3.31076e-08
241	0xbc3e01d8	-0.011597119
242	0xbcf4d4b0	-0.029886574
243	0xb282516e	-1.5171022e-08
244	0xbc14ae1d	-0.009074715
245	0xb82cb710	-4.1178486e-05
246	0xb07a937b	-9.115905e-10
247	0xbbc0807a	-0.0058746906
248	0xb4a1601f	-3.0058524e-07
249	0xa2abff72	-4.6620106e-18
250	0xbeaf796d	-0.34272328
251	0xb63ed979	-2.8438792e-06
252	0xb84dd42d	-4.9073413e-05
253	0xbcfbd0fb	-0.030739298
254	0xbbb556ee	-0.0055340445
255	0xbeae02e0	-0.33986568

fc2.weight f4 [256, 256]
0	0x00302fd7	4.425266e-39
1	0x1ebd780f	2.0060808e-20
2	0x9242f8ed	-6.152243e-28
3	0x1f87351e	5.72626e-20
4	0x8b002d68	-2.4686063e-32
5	0x1d5c10e8	2.9125498e-21
6	0x283f7724	1.0628464e-14
7	0x20a13f72	2.7316445e-19
8	0x2b9accb2	1.0999172e-12
9	0xa757d6bd	-2.9953654e-15
10	0xaa962a45	-2.6674683e-13
11	0x80797659	-1.115455e-38
12	0x96b0f870	-2.859112e-25
13	0xbd82c086	-0.06384377
14	0x3f09f43f	0.53888315
15	0x2b51d431	7.454619e-13
16	0x00b99f94	1.7046813e-38
17	0x1e4c817b	1.0826446e-20
18	0x1ca66891	1.1011988e-21
19	0x2a044b1e	1.1750017e-13
20	0x8002524b	-2.13192e-40
21	0x94401788	-9.6981635e-27
22	0xaca87330	-4.7876356e-12
23	0xacb6ad0e	-5.191964e-12
24	0xa91acd82	-3.437312e-14
25	0x00023c47	2.05294e-40
26	0x0002bd64	2.51612e-40
27	0x28c91488	2.2324387e-14
28	0x00032559	2.88904e-40
29	0x2ca7f17c	4.7732356e-12
30	0x21ab16ab	1.1593411e-18
31	0x0002eadb	2.67921e-40
32	0x26931a8f	1.0207373e-15
33	0x298db88c	6.2936716e-14
34	0xad5745e8	-1.2236857e-11
35	0x3ae4b6e5	0.0017449526
36	0x2a58935e	1.9235782e-13
37	0x8000d650	-7.6881e-41
38	0x9c23f604	-5.4250144e-22
39	0x9741a4c9	-6.256965e-25
40	0x00a164e4	1.4821708e-38
41	0xa579acab	-2.165581e-16
42	0x04b0a388	4.152758e-36
43	0x2c98d7eb	4.3440715e-12
44	0x2b21fb2d	5.7547267e-13
45	0x8001c3cc	-1.62074e-40
46	0x1e8bbc52	1.4795085e-20
47	0x23e65bfe	2.497561e-17
48	0x801c9775	-2.625726e-39
49	0x8001dad5	-1.70338e-40
50	0x000142e6	1.15834e-40
51	0xa49899ba	-6.6179915e-17
52	0x0e9a4e0f	3.80391e-30
53	0x38b80a15	8.7756816e-05
54	0x277982c4	3.462658e-15
55	0x00020083	1.83855e-40
56	0x0009205f	8.38132e-40
57	0x8ea48542	-4.0557444e-30
58	0x1eb18290	1.8794603e-20
59	0x8002b0f4	-2.4715e-40
60	0xa6267e2a	-5.7763804e-16
61	0xab9cb149	-1.1133673e-12
62	0x2545f2d2	1.7169297e-16
63	0x2f1e8927	1.4418743e-10
64	0xa6b6ec06	-1.2692761e-15
65	0x1a0edc82	2.9543037e-23
66	0x9f9b25bd	-6.5707486e-20
67	0xa5515342	-1.8156069e-16
68	0x0015d9d9	2.006694e-39
69	0x918dc0b8	-2.236465e-28
70	0x144feede	1.04979375e-26
71	0x2371e79d	1.3113682e-17
72	0x153b565b	3.7832472e-26
73	0x0e285568	2.074872e-30
74	0x8001bb42	-1.59011e-40
75	0xbaf27c56	-0.001850019
76	0x2b15d6fd	5.323379e-13
77	0x968e6ca6	-2.3009904e-25
78	0x830b57e2	-4.0949313e-37
79	0xa80af4dc	-7.713634e-15
80	0x267c9bb2	8.764107e-16
81	0x9f1b1db8	-3.284711e-20
82	0x00017010	1.32036e-40
83	0xaa643230	-2.026788e-13
84	0x3a1fda59	0.0006097905
85	0x003c1a7a	5.519628e-39
86	0x800364b1	-3.11628e-40
87	0x24d213d9	9.1106606e-17
88	0xa2d11aea	-5.667806e-18
89	0x918af509	-2.1923576e-28
90	0x92ca03fc	-1.2748974e-27
91	0xba9a7c26	-0.0011786267
92	0x2b8e1735	1.0096148e-12
93	0x390653b5	0.00012810419
94	0xb6c906de	-5.9910662e-06
95	0x225f4f16	3.0264003e-18
96	0x9f0b7302	-2.9529527e-20
97	0x000322f8	2.88051e-40
98	0xae808678	-5.8446525e-11
99	0x8605c5bd	-2.5159795e-35
100	0x1759e106	7.04005e-25
101	0x24f2c096	1.05277024e-16
102	0xa21f4b25	-2.15883e-18
103	0x10842881	5.2127226e-29
104	0x238654f0	1.4564282e-17
105	0x9589b71a	-5.562274e-26
106	0xa5c15929	-3.354058e-16
107	0xafdf7906	-4.0649456e-10
108	0x9f141525	-3.135771e-20
109	0x0e7938fc	3.0719057e-30
110	0x8000c31a	-6.9989e-41
111	0x2525e3fb	1.4388711e-16
112	0xb5fc0e7c	-1.8779679e-06
113	0xa6f1b843	-1.6772679e-15
114	0x3a4dcbfc	0.00078505254
115	0x217d417c	8.58064e-19
116	0x1d920440	3.8650273e-21
117	0x06d82787	8.130825e-35
118	0x2daed20f	1.9874795e-11
119	0x26897ef2	9.540693e-16
120	0xbb4e7fd4	-0.0031509297
121	0xa91aae4c	-3.4346048e-14
122	0x00016161	1.26768e-40
123	0x9bf9b95b	-4.1313378e-22
124	0x14e428e7	2.303825e-26
125	0x80145773	-1.868081e-39
126	0x2ef6dcc4	1.1226001e-10
127	0xa38361b2	-1.4244424e-17
128	0x9768a004	-7.516521e-25
129	0x1781c6e2	8.386635e-25
130	0x0006fcf1	6.41751e-40
131	0xab8fc4fe	-1.0215437e-12
132	0x38823420	6.208592e-05
133	0x9e23ce09	-8.671755e-21
134	0x359913a4	1.1405104e-06
135	0xaa80824d	-2.2827782e-13
136	0xa4c2efe3	-8.454047e-17
137	0x1dfe9560	6.738769e-21
138	0xac665704	-3.273327e-12
139	0x24c9d981	8.753832e-17
140	0x0057cb62	8.062648e-39
141	0xb76cfb64	-1.4125228e-05
142	0x24510e56	4.5331794e-17
143	0xae2134de	-3.6654117e-11
144	0x307212bb	8.8065705e-10
145	0x98affc53	-4.5491222e-24
146	0x27141b26	2.0553843e-15
147	0xb520265d	-5.966047e-07
148	0x1a93ad96	6.107822e-23
149	0x000076f1	4.2668e-41
150	0xb418c0d6	-1.4226256e-07
151	0xa6932efc	-1.0212909e-15
152	0x85cb0313	-1.9091158e-35
153	0x2471bdca	5.2419302e-17
154	0x2201964c	1.7562327e-18
155	0xb43f20de	-1.7800218e-07
156	0xa89f7209	-1.7702001e-14
157	0x80023d72	-2.05713e-40
158	0xa91fee40	-3.551174e-14
159	0x3c9d9116	0.019234221
160	0xab1016ee	-5.11909e-13
161	0x02934e8c	2.1644792e-37
162	0xaad564c8	-3.7906332e-13
163	0x14288a04	8.509051e-27
164	0x0844cc2e	5.9221617e-34
165	0x1ea10c5a	1.7051647e-20
166	0xacf05e3c	-6.8316724e-12
167	0x8002e166	-2.64529e-40
168	0x00011aae	1.01406e-40
169	0x00008655	4.8189e-41
170	0x80440de0	-6.249791e-39
171	0x80008dba	-5.0842e-41
172	0x015d5aa0	4.065631e-38
173	0xad972538	-1.7183241e-11
174	0x2ea52166	7.509264e-11
175	0x2abed5d0	3.3899142e-13
176	0x1d070c58	1.7873483e-21
177	0xbd6cdaa4	-0.0578257
178	0xa21c0117	-2.114252e-18
179	0xa295053b	-4.039207e-18
180	0x80023eec	-2.06243e-40
181	0x3c192941	0.009348215
182	0x0b4638ce	3.8176148e-32
183	0x0e90f80e	3.573761e-30
184	0x800168a2	-1.2937e-40
185	0xb9c8159d	-0.00038163076
186	0x37fc3c16	3.006872e-05
187	0xbd59e5eb	-0.053197782
188	0x3267b180	1.34863285e-08
189	0x069cceea	5.898471e-35
190	0x2bd32897	1.5003718e-12
191	0x16122748	1.1806181e-25
192	0x11085b8b	1.0756717e-28
193	0x1bcdec3e	3.4067073e-22
194	0x231d8efe	8.541267e-18
195	0xbbbf03bd	-0.005829303
196	0x0001507e	1.2071e-40
197	0xb980c8cb	-0.00024563665
198	0x14a7f814	1.696054e-26
199	0xb41be682	-1.4519358e-07
200	0xa59c6a30	-2.7133642e-16
201	0x8a545cb8	-1.0224867e-32
202	0x9021cc72	-3.190915e-29
203	0x00015369	1.21757e-40
204	0x20783400	2.1023622e-19
205	0x2c93f3c6	4.2050556e-12
206	0xb73a9b6e	-1.1122653e-05
207	0xab57042c	-7.6389134e-13
208	0x80214717	-3.056074e-39
209	0xaa88b7ca	-2.4285982e-13
210	0x165e4ceb	1.7957288e-25
211	0x80014598	-1.16801e-40
212	0x9852523a	-2.7183378e-24
213	0x12592f38	6.853133e-28
214	0x8000823e	-4.6722e-41
215	0xbc1081e8	-0.008820035
216	0x9b1a8d05	-1.2784147e-22
217	0x176d055b	7.658559e-25
218	0x2bc67f9e	1.4104167e-12
219	0xa0adb33e	-2.9425953e-19
220	0xa4308758	-3.8278557e-17
221	0xa2c262bb	-5.268834e-18
222	0x26a49e5e	1.1422712e-15
223	0x16985d04	2.4615626e-25
224	0x2db7a2d8	2.0877008e-11
225	0x0000402a	2.3018e-41
226	0xa05b7290	-1.8587927e-19
227	0x98262e8d	-2.14785e-24
228	0x8001308f	-1.09255e-40
229	0x0001f740	1.80532e-40
230	0xbd909da4	-0.070613176
231	0xb22430b2	-9.557128e-09
232	0xb6ad7faa	-5.170664e-06
233	0x80026d97	-2.22984e-40
234	0x9db305b8	-4.738682e-21
235	0x8018244e	-2.217076e-39
236	0x21aaa6d9	1.1563812e-18
237	0xa6a0b23c	-1.1150541e-15
238	0xa90332f2	-2.913203e-14
239	0xa35a7a4d	-1.1843702e-17
240	0xa7f4f420	-6.7988285e-15
241	0x001988ff	2.345032e-39
242	0x92b010d5	-1.1111311e-27
243	0x000141a2	1.1538e-40
244	0xa54009de	-1.6656689e-16
245	0x3301eb2a	3.0249034e-08
246	0x0145dc4e	3.6341246e-38
247	0x000018e1	8.925e-42
248	0x8a9c6a80	-1.5062314e-32
249	0x92b5f1a7	-1.1482278e-27
250	0xa52ffe65	-1.5265023e-16
251	0xa2fe8e6c	-6.8997633e-18
252	0x005c7804	8.491919e-39
253	0x3ce797f9	0.028270708
254	0x2e1b30b4	3.5286177e-11
255	0x1716b8b7	4.8700757e-25

fc2.bias f4 [256]
0	0xbbbe9efd	-0.0058172927
1	0xbe071542	-0.13191703
2	0xbdebeb1e	-0.115194544
3	0xba180e42	-0.00058004644
4	0xb92f5846	-0.00016722185
5	0xbde470bb	-0.11154314
6	0xbcc7be75	-0.02438281
7	0x3b73538b	0.0037128653
8	0xba69d652	-0.0008920181
9	0x3d6ffc7f	0.05859041
10	0xbc46a3ad	-0.012123984
11	0xba5ac4ed	-0.0008345384
12	0x3e653074	0.22381765
13	0x39f43ce0	0.00046584662
14	0xb98d3ea4	-0.00026940287
15	0xbd0de7d1	-0.034644905
16	0xbdcd485f	-0.10023569
17	0xbcac6a6e	-0.021046843
18	0xbe4b8974	-0.19876653
19	0xbd43c0b9	-0.047791217
20	0xbde9238a	-0.11383732
21	0x3c3fe1c8	0.011711545
22	0xbe08fb6d	-0.13377161
23	0xbecffaaf	-0.40620944
24	0x3c83152b	0.016001305
25	0x3e29054d	0.16505928
26	0xbda314a2	-0.0796292
27	0xbda3cce4	-0.07998064
28	0xaaae40f0	-3.0953668e-13
29	0x3e676081	0.22595407
30	0xbc261a1d	-0.010138062
31	0xbd5a4956	-0.053292595
32	0x3e77aad1	0.24186255
33	0x40369dba	2.8533769
34	0xbd0d5850	-0.03450805
35	0xbccdebd4	-0.025136866
36	0xbcdc61cb	-0.0269021
37	0x3fbde6ce	1.4836061
38	0xbcd0efbe	-0.025504943
39	0xbd233556	-0.039845787
40	0xbb339ce2	-0.0027406742
41	0xbb111d90	-0.0022142865
42	0xbaa8ee07	-0.001288832
43	0xbd7a569a	-0.061117746
44	0xbd3d3474	-0.0461926
45	0xb7656e63	-1.3675165e-05
46	0x40326c32	2.7878537
47	0xbd91561d	-0.07096503
48	0x40635c5a	3.5525117
49	0xba0f9a8a	-0.0005478045
50	0x3dfc0019	0.12304706
51	0xbb0b64fa	-0.0021269904
52	0x3e067ca9	0.13133492
53	0xbd5772aa	-0.052599587
54	0x3dc5e0a9	0.09661991
55	0xbb0d6b5c	-0.0021578884
56	0x3fd42461	1.6573602
57	0xbc203813	-0.009778994
58	0xba34eea3	-0.0006902015
59	0x3edf8e48	0.4366324
60	0xbcbff3bc	-0.023431651
61	0xbe3b8d69	-0.18315662
62	0xbb543094	-0.0032377588
63	0xbe008bc2	-0.12553313
64	0xb9afcd45	-0.0003353154
65	0xb81f1346	-3.7926504e-05
66	0x401a38a5	2.4097073
67	0x3e3c2a69	0.18375553
68	0xbe723a40	-0.23655033
69	0x4005340b	2.0813015
70	0xbe31bdcc	-0.17357558
71	0xbd0d08fd	-0.0344324
72	0x40030499	2.0471556
73	0x3e82c83c	0.25543392
74	0x40474f4e	3.1142154
75	0xb8864924	-6.4032414e-05
76	0xbda5cef5	-0.080961145
77	0xbe24d9db	-0.1609873
78	0x40121684	2.2826242
79	0xbd9dd5d2	-0.077067986
80	0xbd28013c	-0.041016802
81	0xbe477eed	-0.19482012
82	0x3eb77aea	0.35835963
83	0xbda7ece8	-0.08199483
84	0xb8f2dfd2	-0.00011581149
85	0x3c7a543c	0.015278872
86	0xbd0c29ac	-0.03421943
87	0xbc2d9fff	-0.010597228
88	0x3fc1112a	1.5083363
89	0xb888ca54	-6.522672e-05
90	0x3d2d8a86	0.042368434
91	0x3c848038	0.01617442
92	0xbda5bd18	-0.080927074
93	0xbbdff99a	-0.0068351747
94	0xbcf054da	-0.029337335
95	0x3ef01c76	0.46896714
96	0x40270384	2.6095896
97	0xb91484d1	-0.00014163858
98	0xbd8c3c12	-0.06847395
99	0xbc8ed112	-0.017433677
100	0xbced696f	-0.028980939
101	0x3d4e504a	0.05036954
102	0x40173820	2.3628006
103	0xbdb317f5	-0.08744804
104	0xbb807b9e	-0.0039209863
105	0xb82064ee	-3.824097e-05
106	0xb82f6c44	-4.182408e-05
107	0xb9cf185c	-0.00039500266
108	0x3ea007fd	0.31256095
109	0xb70b783f	-8.313043e-06
110	0xbcc3386a	-0.023830611
111	0xbe7af394	-0.2450698
112	0x3d46ef87	0.048568275
113	0x3eb60e46	0.35557765
114	0xbd924429	-0.07141907
115	0xbcb8275f	-0.022479711
116	0x3e045f63	0.12927012
117	0x3f897c2a	1.0741017
118	0xbe01290b	-0.12613313
119	0xbbf92f26	-0.0076044975
120	0xbc5a9d57	-0.013343177
121	0xbc3a8866	-0.011385059
122	0x3eb416f5	0.35173765
123	0x3ea6a386	0.32546633
124	0xbc49c2a3	-0.012314471
125	0x3cf1daef	0.029523341
126	0xbccb19fd	-0.024792666
127	0xbd65b338	-0.05607912
128	0xbd93193e	-0.07182549
129	0x3e003ed3	0.12523966
130	0xb80db0f7	-3.378183e-05
131	0xbe116ff0	-0.14202857
132	0x4063c83e	3.5590968
133	0xbda55b5f	-0.08074068
134	0x3dbe103b	0.092804395
135	0xbaa68e2b	-0.0012707164
136	0xbd622e20	-0.05521977
137	0xbbe92dd4	-0.007116059
138	0x3c914ae9	0.017735915
139	0xbc75296b	-0.014963488
140	0xbd98d5a0	-0.07462621
141	0xbb01efad	-0.0019826696
142	0xbae3c7d9	-0.0017378285
143	0xbca34dae	-0.019934501
144	0x407cd4e3	3.9504936
145	0xbb0f3e0e	-0.0021857056
146	0x3db83fa9	0.08996517
147	0xbd56905a	-0.052383758
148	0xbc46c3d1	-0.012131647
149	0x3ecb9ac9	0.3976653
150	0x3e980aa6	0.29695624
151	0xbd84b9ce	-0.06480752
152	0xbb288ec3	-0.0025719858
153	0xbd999127	-0.07498389
154	0xbdf60a8f	-0.12013733
155	0xbccfb7e0	-0.025356233
156	0x3d00995f	0.031396266
157	0xbcb21015	-0.021736184
158	0xbd553cea	-0.052060045
159	0xbcd02d85	-0.02541233
160	0x3bca33ec	0.0061707404
161	0xbd70eb22	-0.05881799
162	0xbd2b0391	-0.041751448
163	0xba9099e5	-0.0011032192
164	0xbc824295	-0.01590089
165	0x3f229429	0.63507324
166	0xbe8a190e	-0.2697224
167	0xbdb2382f	-0.087021224
168	0xb70af1ec	-8.281768e-06
169	0x3d832639	0.06403775
170	0xbbd4972f	-0.006487749
171	0x406430e1	3.5654833
172	0x3da369a0	0.07979131
173	0xb7bbd89d	-2.2393006e-05
174	0xb846b4db	-4.7375313e-05
175	0xbc582a5b	-0.013193692
176	0xbb1fae2e	-0.0024365294
177	0xbdd6f67a	-0.104962304
178	0xbbd61b2b	-0.0065340004
179	0x400698a2	2.103066
180	0x404ee32e	3.232616
181	0xbcd49784	-0.025951155
182	0x3de53b39	0.111929365
183	0x3a9cf318	0.0011974303
184	0xbd39e17b	-0.04538105
185	0x3d2682e2	0.040652163
186	0xbd32c3eb	-0.043643873
187	0x3eac6a33	0.33674774
188	0xbe1c80ea	-0.15283552
189	0xbd930f7c	-0.07180688
190	0xbdb15dc8	-0.086604655
191	0xbb2b50de	-0.002614073
192	0xbd24690f	-0.040139254
193	0x3f7adf4a	0.9799696
194	0xbe0633e9	-0.1310574
195	0xbdfc9102	-0.123323455
196	0x3ec8c9dc	0.39216506
197	0xbb9ad3df	-0.004724964
198	0xbb56ad32	-0.003275704
199	0xbc41f4b3	-0.011838126
200	0x3ca7d048	0.020485058
201	0xbad70012	-0.0016403219
202	0x402c0e5b	2.6883762
203	0xbc537d50	-0.012908295
204	0xbd719eda	-0.058989383
205	0x3cf5d8a4	0.030010529
206	0x3d5eb6e0	0.054373622
207	0xb9cb8c15	-0.00038823546
208	0xbb7ea884	-0.0038857767
209	0x3fc36ccd	1.5267578
210	0xbd1c6231	-0.03817958
211	0xba78af9e	-0.0009486618
212	0xb7e37b61	-2.7117962e-05
213	0xbe20aeb1	-0.1569164
214	0xbd9b0b44	-0.07570508
215	0x3dd2b4ea	0.10288413
216	0xbda8780e	-0.082260236
217	0xbda8193f	-0.0820794
218	0xba0dd636	-0.0005410643
219	0xbc578853	-0.013155061
220	0x3dc8aa81	0.09798146
221	0xbc3e1c47	-0.0116034215
222	0xbb2348ed	-0.0024915293
223	0xbdce87ae	-0.100844726
224	0xbb2b085d	-0.0026097514
225	0xbe133379	-0.14375104
226	0x40667a2d	3.601207
227	0xb9af220d	-0.0003340397
228	0x3d22a93f	0.039712187
229	0xbdc1d506	-0.09464459
230	0xb769bdf5	-1.393211e-05
231	0xbaa000bc	-0.001220725
232	0xbe162788	-0.14663517
233	0xb82936de	-4.034384e-05
234	0xbd86c34c	-0.06580219
235	0xbcc25fb7	-0.023727281
236	0xbd0288dd	-0.031868804
237	0xb9d8ad66	-0.00041327922
238	0xbf2d5cad	-0.67719537
239	0xbe4686c7	-0.19387351
240	0x3b62ef00	0.0034627318
241	0x3dd9087c	0.105973214
242	0xbdfef6d0	-0.124494195
243	0xbac872cf	-0.0015293005
244	0x3fbefa70	1.4920177
245	0xbd398202	-0.04529
246	0x3dc700b3	0.0971693
247	0xbac83c8d	-0.0015276835
248	0x3c9f3d39	0.019438373
249	0xbba62a3a	-0.005070952
250	0xbd016c94	-0.03159769
251	0xbdcdf94f	-0.100573175
252	0xb37adad5	-5.8406687e-08
253	0xbd9188ad	-0.07106147
254	0x40033b33	2.0504882
255	0xbd15f6c1	-0.036612276

fc3.weight f4 [256, 256]
0	0x2fc6fcea	3.6195696e-10
1	0x2530c4e0	1.533227e-16
2	0xbba94952	-0.005166211
3	0x0001b645	1.57221e-40
4	0xb327687d	-3.897775e-08
5	0xb3d6e97f	-1.0007624e-07
6	0xb3033020	-3.0544584e-08
7	0xb4bcfc53	-3.520132e-07
8	0xaa6f937e	-2.1278636e-13
9	0xb43db18b	-1.7666586e-07
10	0x2da57efb	1.8814719e-11
11	0xb32b0806	-3.9821337e-08
12	0xbb7f080e	-0.0038914713
13	0xba09e156	-0.0005259713
14	0xab2feb96	-6.249943e-13
15	0xb265f969	-1.3386264e-08
16	0x3321de33	3.7687823e-08
17	0xbb6aa95b	-0.003580651
18	0xbd0a7e55	-0.033811886
19	0xbc27ab93	-0.010233778
20	0xbc6674a5	-0.014065896
21	0xb3073924	-3.1484106e-08
22	0xb96652f5	-0.00021965413
23	0xbb06bc5a	-0.0020559044
24	0xb4e5a73d	-4.2776256e-07
25	0xbd1a5ccb	-0.03768615
26	0xb5204937	-5.9711186e-07
27	0xbc7bb410	-0.015362754
28	0x00004d9e	2.7844e-41
29	0x347c487c	2.3495699e-07
30	0x2f8a878a	2.519836e-10
31	0x31a55532	4.8118176e-09
32	0x35b173fc	1.3221284e-06
33	0xb9496872	-0.00019207763
34	0xb32e3b45	-4.0566437e-08
35	0x8010d7d0	-1.546787e-39
36	0xb9571cf3	-0.00020514782
37	0xb79bc991	-1.8571302e-05
38	0xb9e917b6	-0.0004445889
39	0xb9b641f9	-0.000347629
40	0xabfcca3e	-1.796181e-12
41	0x8002fd03	-2.74434e-40
42	0x2e846656	6.0208435e-11
43	0xbafd6d16	-0.0019334878
44	0xbb4af80b	-0.00309706
45	0x10887599	5.382373e-29
46	0xbb0ac042	-0.0021171723
47	0x332b07ed	3.982125e-08
48	0xb5310158	-6.5939594e-07
49	0x00029783	2.38023e-40
50	0x344c8151	1.9046026e-07
51	0xad27b1b2	-9.532307e-12
52	0x318cb97c	4.0956234e-09
53	0xaff7bbf2	-4.5062581e-10
54	0xb333bc05	-4.1847688e-08
55	0x0017de19	2.19189e-39
56	0xb4b45f72	-3.3597058e-07
57	0x2ffe6a00	4.6277648e-10
58	0xb4cf2c04	-3.858878e-07
59	0xb9500704	-0.0001983904
60	0x3517b91d	5.652126e-07
61	0x3315adce	3.484984e-08
62	0x2ee78bb3	1.05294794e-10
63	0x2d9a6252	1.7551436e-11
64	0xaf1931b9	-1.3932934e-10
65	0xaed45a7e	-9.6567185e-11
66	0x34d144dd	3.8979388e-07
67	0xbbb37120	-0.005476132
68	0xb90b8c37	-0.00013308307
69	0xb753effb	-1.2632455e-05
70	0xb2894083	-1.5978236e-08
71	0x0000ef67	8.5881e-41
72	0x349daebb	2.9370662e-07
73	0xaa93f684	-2.62835e-13
74	0xb4998e52	-2.8602022e-07
75	0xaef7a3f0	-1.1261381e-10
76	0xb2715b2d	-1.4048777e-08
77	0xaf9d5db0	-2.8624703e-10
78	0xb7bfdadf	-2.2870894e-05
79	0xbd13fe04	-0.03613092
80	0x0001d949	1.69783e-40
81	0xb01bc795	-5.6672295e-10
82	0x2d04f27a	7.557172e-12
83	0xb8709a78	-5.736432e-05
84	0xb4b82a0f	-3.4303272e-07
85	0xb95c9c51	-0.00021039067
86	0xb1ccae39	-5.9569882e-09
87	0xaa2ef3f1	-1.5538939e-13
88	0x31bb2158	5.446207e-09
89	0x2e9f9c66	7.258265e-11
90	0x00012103	1.03678e-40
91	0x32fda226	2.9526813e-08
92	0xaf416234	-1.7588137e-10
93	0xacedd785	-6.7598726e-12
94	0x2cac9dd8	4.906058e-12
95	0xb40323ec	-1.2213394e-07
96	0x3508b718	5.0930385e-07
97	0x2e1215cb	3.3215913e-11
98	0x24a61403	7.2024925e-17
99	0xba2c397c	-0.0006569845
100	0xba0ffc79	-0.00054926384
101	0x35a9eda2	1.2660641e-06
102	0x34b55e90	3.378268e-07
103	0xb70028f6	-7.6389315e-06
104	0xaa61ed3e	-2.0066324e-13
105	0x82965ace	-2.2092638e-37
106	0xafcffd6d	-3.783315e-10
107	0x26217e99	5.602967e-16
108	0xada32baa	-1.8550345e-11
109	0xac1bde53	-2.215024e-12
110	0x24a9139a	7.332527e-17
111	0xbb512fb5	-0.0031919305
112	0xb2ca76e8	-2.3569967e-08
113	0x30a79eac	1.2195946e-09
114	0xb9c5790d	-0.00037664958
115	0x0a26b301	8.026276e-33
116	0x2fbb671a	3.408836e-10
117	0x3209f1c2	8.029419e-09
118	0xba9bac74	-0.0011876957
119	0x3556c4f3	8.000781e-07
120	0xaea767a1	-7.612689e-11
121	0x2d580bb8	1.22807806e-11
122	0x335d41f9	5.1515574e-08
123	0x2710a622	2.0074075e-15
124	0xb222ad3f	-9.469033e-09
125	0xb4661a07	-2.1429888e-07
126	0xb8349e93	-4.3063028e-05
127	0x33b5a808	8.459034e-08
128	0xb25d3a2c	-1.287712e-08
129	0xb18ae126	-4.041925e-09
130	0xae69f2c1	-5.3193675e-11
131	0xbaf65b7a	-0.0018795573
132	0x341d7678	1.4664863e-07
133	0xba919176	-0.0011105973
134	0x2f07e349	1.2358926e-10
135	0xb23b3eea	-1.0899138e-08
136	0xbad7ade7	-0.0016455025
137	0xab1cb7b9	-5.56773e-13
138	0xb5815440	-9.635769e-07
139	0x32af6286	2.0417485e-08
140	0x34bb284a	3.4860778e-07
141	0xac6ad360	-3.3370737e-12
142	0x280daa16	7.863954e-15
143	0xb414d62d	-1.3861491e-07
144	0xbaa12480	-0.0012294203
145	0xaf66782e	-2.0961075e-10
146	0xb287aff1	-1.5796077e-08
147	0xbc08077e	-0.0083025675
148	0x009c7ba6	1.4370694e-38
149	0x340ca798	1.3099486e-07
150	0xa72fda49	-2.4404461e-15
151	0xb991fcfd	-0.00027845046
152	0xada9082c	-1.9216705e-11
153	0xb346243b	-4.613342e-08
154	0x3288c97a	1.5924105e-08
155	0xa9320550	-3.9528548e-14
156	0xb283d8fd	-1.5349082e-08
157	0x80011a6b	-1.01312e-40
158	0xbb607e03	-0.0034254796
159	0xb9de112d	-0.00042355937
160	0x2df38f3c	2.768951e-11
161	0xb88aaa91	-6.612123e-05
162	0xbae0aac8	-0.001714074
163	0xae145a3b	-3.3731445e-11
164	0x2c27c042	2.3838852e-12
165	0xa9d6c8e8	-9.538361e-14
166	0xb6fd776d	-7.5538906e-06
167	0xb3148700	-3.4581717e-08
168	0xb0cf5408	-1.5085115e-09
169	0xb274f668	-1.4258696e-08
170	0xa7a5eb6d	-4.605195e-15
171	0xb4d8f6ac	-4.0412613e-07
172	0x8000b0af	-6.3382e-41
173	0xaf96cb86	-2.7429453e-10
174	0xaecbba72	-9.2644906e-11
175	0x291a6bb2	3.428828e-14
176	0x35126934	5.454233e-07
177	0xbd24afdc	-0.040206775
178	0x80007bf3	-4.4465e-41
179	0x33cc43a8	9.511797e-08
180	0x3491639c	2.708083e-07
181	0xb31e7b64	-3.6899465e-08
182	0xbb010f69	-0.0019693023
183	0x00029d13	2.40019e-40
184	0xb0c4b75c	-1.4312991e-09
185	0xb26694c5	-1.3421588e-08
186	0xbbdc4bc0	-0.0067228973
187	0x37fb79ab	2.9978188e-05
188	0xb981c948	-0.00024754764
189	0x2edfdd08	1.0180129e-10
190	0xbb89d20b	-0.0042059473
191	0xb242e272	-1.1343774e-08
192	0xb28ed1d1	-1.662639e-08
193	0x337f71d6	5.9475347e-08
194	0xbb098116	-0.0020981482
195	0xbae09d9f	-0.0017136818
196	0xae37fadd	-4.1832194e-11
197	0xa7543e62	-2.9454728e-15
198	0x82bc5cd2	-2.7677393e-37
199	0xaf2c09f1	-1.5646841e-10
200	0x329ee5db	1.8498147e-08
201	0x27b26c53	4.952237e-15
202	0xb7b46bfb	-2.1507954e-05
203	0x2d8b1e46	1.5815915e-11
204	0xb4095d25	-1.2793005e-07
205	0x8008d57f	-8.11272e-40
206	0x3300dc46	3.000266e-08
207	0x32341fe7	1.0484633e-08
208	0xb0d3c87c	-1.5409252e-09
209	0xbac72ba1	-0.0015195498
210	0xbc3df8bf	-0.01159495
211	0xb33bf65a	-4.3763386e-08
212	0x33b73308	8.530884e-08
213	0xb9fa8f8d	-0.0004779067
214	0xb51c84ea	-5.8307944e-07
215	0x3301b2f0	3.0197896e-08
216	0xba9b4603	-0.0011846427
217	0x3499c471	2.86414e-07
218	0x2f17f1d7	1.3819289e-10
219	0x8002586b	-2.1539e-40
220	0xbb6e2ade	-0.0036341469
221	0xb553680f	-7.875505e-07
222	0x31d34402	6.14864e-09
223	0xb06b03aa	-8.549771e-10
224	0x30466d86	7.218762e-10
225	0xb8c3950d	-9.3260875e-05
226	0xb8acb620	-8.2355225e-05
227	0x0ea55da5	4.0765817e-30
228	0x303faf07	6.9734124e-10
229	0x3352cace	4.9078885e-08
230	0x002ecf15	4.29872e-39
231	0x346632b4	2.1438865e-07
232	0xbbdf04ed	-0.006806007
233	0xace567f2	-6.5201117e-12
234	0xbc38abcb	-0.011271427
235	0xb3c0fb3e	-8.9863974e-08
236	0xaf11a746	-1.32471e-10
237	0x092eeff0	2.1057306e-33
238	0xb2bd330b	-2.2025707e-08
239	0xbbc56afe	-0.0060247174
240	0xad5d004c	-1.25624615e-11
241	0xa9254658	-3.6698373e-14
242	0xbc671bc6	-0.014105743
243	0xaf7d9ea0	-2.3066571e-10
244	0xb8453324	-4.701609e-05
245	0xb2a4b17e	-1.9172827e-08
246	0x33072fde	3.1475672e-08
247	0x2b0c4e54	4.9846694e-13
248	0x8002839b	-2.30882e-40
249	0xab840ef2	-9.383312e-13
250	0x310ee13a	2.0791746e-09
251	0xb2b8d441	-2.1516941e-08
252	0x8002e2a1	-2.6497e-40
253	0xbad5bf16	-0.0016307558
254	0xb8a32442	-7.779199e-05
255	0x39d4c8be	0.00040585356

fc3.bias f4 [256]
0	0x3405a992	1.244828e-07
1	0x296a850e	5.2073844e-14
2	0xbc07f07d	-0.008297083
3	0x0000ceb6	7.4154e-41
4	0x3a10bb6e	0.0005521093
5	0xace32dd1	-6.4568147e-12
6	0x384202dd	4.625587e-05
7	0x3a8a882a	0.0010569145
8	0x00005f9e	3.4301e-41
9	0x3bf95bd0	0.007609822
10	0x30b85bf4	1.3413897e-09
11	0xb8b59040	-8.657621e-05
12	0x9c4adc5c	-6.7121e-22
13	0xbdf8d723	-0.12150409
14	0x3b94662a	0.0045287805
15	0xb7bad4e9	-2.2272072e-05
16	0x9ed2d004	-2.2320648e-20
17	0xbb1e9dd6	-0.0024202964
18	0xb847c260	-4.7626323e-05
19	0x32823a68	1.5160552e-08
20	0x35033a6e	4.888633e-07
21	0x275170c8	2.9065715e-15
22	0x30e2b3b5	1.649474e-09
23	0x3950f898	0.00019929034
24	0xb6cf471d	-6.1773594e-06
25	0x960bc19e	-1.1289425e-25
26	0x2b2e760e	6.198105e-13
27	0xb97ccfd8	-0.0002411002
28	0xbafb89e2	-0.0019190873
29	0x2266a0e2	3.1255983e-18
30	0x372444e5	9.7912025e-06
31	0x28c8c7fa	2.2291187e-14
32	0xb7414497	-1.1519666e-05
33	0x3b56a856	0.0032754145
34	0xac843366	-3.757372e-12
35	0x91cecd3e	-3.262756e-28
36	0x3a95992b	0.0011413445
37	0xbebe5192	-0.37171608
38	0x8e540be1	-2.6136737e-30
39	0x9f13c361	-3.1290074e-20
40	0x91e54b54	-3.6176254e-28
41	0xb16c52ae	-3.4389518e-09
42	0xba93d540	-0.0011278763
43	0x3104df16	1.9335338e-09
44	0x89f9759d	-6.0055173e-33
45	0xb6617462	-3.3595356e-06
46	0xbbf266b4	-0.007397497
47	0x267d56cb	8.7894634e-16
48	0xb6e64612	-6.8626914e-06
49	0x2a8f0e39	2.5411772e-13
50	0x3cfbd1da	0.030739713
51	0x1c1c9c0d	5.181776e-22
52	0x3eee31d2	0.46522385
53	0x3d4d3cc4	0.05010678
54	0x210e0f46	4.8131686e-19
55	0x9acf9fe0	-8.5871485e-23
56	0xbe537c03	-0.20652775
57	0xbbe7759b	-0.00706358
58	0xb5e72048	-1.7220236e-06
59	0xacf4ce8e	-6.9578293e-12
60	0xb142d645	-2.8352514e-09
61	0xa93baa16	-4.1669867e-14
62	0x39a8d11b	0.00032199253
63	0x3a41085c	0.00073636114
64	0x3b9ee733	0.0048493384
65	0x1498f0c4	1.5443043e-26
66	0x158a72ac	5.5918676e-26
67	0x00a3a313	1.5027686e-38
68	0xb03928af	-6.7360423e-10
69	0x3b7df631	0.0038751478
70	0xb845c9e8	-4.71565e-05
71	0xb13fe999	-2.7926943e-09
72	0xb40f5771	-1.3349724e-07
73	0x37777f13	1.4751934e-05
74	0x1a2cadd0	3.570917e-23
75	0x9b868792	-2.225605e-22
76	0xb168359e	-3.3790921e-09
77	0xb8561a32	-5.1045972e-05
78	0x259afd4d	2.6886385e-16
79	0x381f2bc4	3.7949314e-05
80	0x9456f725	-1.085298e-26
81	0xb464d2da	-2.1310862e-07
82	0x3a829968	0.0009963932
83	0xbb55378e	-0.0032534334
84	0x2f07735a	1.231916e-10
85	0xb4c87bc8	-3.7342966e-07
86	0xb489559d	-2.558053e-07
87	0x25064846	1.1647134e-16
88	0x397a48dd	0.00023869002
89	0x80025348	-2.13547e-40
90	0xb794bb05	-1.7730063e-05
91	0xbd0f15c6	-0.034932874
92	0xb69b8d06	-4.6357773e-06
93	0xbbc38732	-0.0059670443
94	0x2d49d242	1.1472214e-11
95	0x8ecfdb00	-5.124033e-30
96	0x1fe6edcc	9.780219e-20
97	0x91c092b4	-3.0382672e-28
98	0x36e6cf68	6.8786794e-06
99	0xaf4d0788	-1.8647317e-10
100	0x3c2c634a	0.010521719
101	0x9fb2ef77	-7.5782094e-20
102	0x35b24042	1.3280735e-06
103	0x2d8ffa4c	1.6368372e-11
104	0x32a67b67	1.938106e-08
105	0xa848a689	-1.1138342e-14
106	0x3da3163d	0.07963226
107	0x1d8f250b	3.7890086e-21
108	0x91996cbd	-2.420616e-28
109	0x39031d17	0.0001250397
110	0xac31c1f2	-2.5260874e-12
111	0x1fea4d52	9.923077e-20
112	0xb80f390e	-3.4146993e-05
113	0xa4c2aac4	-8.442338e-17
114	0x2e5f98c8	5.0840027e-11
115	0x312c3cc0	2.5063827e-09
116	0xbca4374e	-0.020045903
117	0x9119291e	-1.2082242e-28
118	0x310996ae	2.0021775e-09
119	0x3fb9de09	1.4520885
120	0x30ac62ce	1.2542729e-09
121	0x86d1f688	-7.897931e-35
122	0xbb478277	-0.0030442753
123	0x36ace089	5.152139e-06
124	0x229ebda3	4.302677e-18
125	0x3761f1b0	1.3467317e-05
126	0xa62ca8b0	-5.99031e-16
127	0x2ab993da	3.2965194e-13
128	0x395791a2	0.0002055825
129	0x0e3accde	2.302491e-30
130	0xb78fd96d	-1.7148175e-05
131	0x00036370	3.11178e-40
132	0x3f09105b	0.5354058
133	0xb3b136f2	-8.252199e-08
134	0xad5f0789	-1.26777555e-11
135	0x1f4257b1	4.1153635e-20
136	0xb451b779	-1.9531389e-07
137	0xac8ed2ee	-4.0593006e-12
138	0x34af9530	3.2704838e-07
139	0xacb17135	-5.043211e-12
140	0xabab798d	-1.2184018e-12
141	0x193f7300	9.897693e-24
142	0xb492d6ac	-2.7350814e-07
143	0x000174d1	1.33741e-40
144	0x3681bcbc	3.866471e-06
145	0x33e09aa7	1.0458944e-07
146	0xb798f693	-1.8234632e-05
147	0xb9e8476e	-0.00044303708
148	0xbabeab7b	-0.0014546955
149	0xbb20d188	-0.0024538953
150	0xb8eebbae	-0.000113836824
151	0xbd80b17e	-0.06283854
152	0xbb4518c3	-0.0030074574
153	0xa01d839c	-1.3341963e-19
154	0x38f90466	0.000118740645
155	0x3f37208b	0.7153403
156	0xaac9b2f3	-3.5828943e-13
157	0xba61f589	-0.00086196564
158	0xad056fa1	-7.584961e-12
159	0x1bae20a2	2.8806974e-22
160	0xbd881ea6	-0.06646471
161	0x3a0ec252	0.0005445826
162	0x391d5bd4	0.00015006895
163	0xbb97a874	-0.0046282355
164	0xac931407	-4.1802148e-12
165	0x386bd526	5.6226876e-05
166	0x3e0ee091	0.13952853
167	0x25032fa7	1.1378584e-16
168	0xac11a361	-2.0696433e-12
169	0x3b71ab17	0.003687566
170	0x27f63fe0	6.834797e-15
171	0x3ce3d3e4	0.027810998
172	0x30914ee1	1.0572557e-09
173	0xbed26288	-0.41090798
174	0xb7cf384c	-2.4702538e-05
175	0x3af3dcc2	0.001860522
176	0x3d75295c	0.059853896
177	0x21d2acb8	1.4275872e-18
178	0xabb4414e	-1.2807895e-12
179	0xae53abea	-4.8128536e-11
180	0x1420e4cc	8.123058e-27
181	0x35b630c2	1.3574247e-06
182	0xb3c5adc6	-9.2051366e-08
183	0x271bb761	2.160998e-15
184	0x949aec0e	-1.5643133e-26
185	0xa50be0c5	-1.2132483e-16
186	0x3a0135c4	0.0004928971
187	0xa782bb88	-3.628557e-15
188	0xb39cc48d	-7.3000685e-08
189	0x94900e85	-1.4546011e-26
190	0x1405b557	6.750547e-27
191	0x396ff3f3	0.00022883694
192	0xbb6f88e6	-0.0036550104
193	0x36c0d0a6	5.746336e-06
194	0x0028ae2b	3.7359e-39
195	0x30068d0d	4.894936e-10
196	0xaf9a3cd3	-2.8055655e-10
197	0x93ad68e0	-4.3774754e-27
198	0xb3bd0fde	-8.8038846e-08
199	0x3d11c9e8	0.035592943
200	0x12bd9359	1.1963901e-27
201	0x355994a6	8.105511e-07
202	0x39a85d6d	0.00032113065
203	0x9a4dad64	-4.253307e-23
204	0xa781f504	-3.607034e-15
205	0xb922526e	-0.00015480231
206	0xbe32d339	-0.17463388
207	0xb3e6da70	-1.0749943e-07
208	0x3b3eb615	0.0029100229
209	0x00011610	9.975e-41
210	0x3a8a6656	0.0010559063
211	0xb6f5a9f0	-7.3213523e-06
212	0x226cf000	3.211102e-18
213	0x34023d4d	1.2129495e-07
214	0x2048d49f	1.701101e-19
215	0x13308701	2.2280885e-27
216	0x351f860b	5.9427174e-07
217	0xb3138cc1	-3.435412e-08
218	0x2a8e574a	2.5284836e-13
219	0xb5139ab8	-5.498691e-07
220	0x2e2c3690	3.9156733e-11
221	0x35f5ad58	1.8304372e-06
222	0x2be6145c	1.6348134e-12
223	0xb490e52d	-2.6988837e-07
224	0x9ee4f616	-2.4242218e-20
225	0xb8caac14	-9.664163e-05
226	0x24034a10	2.846883e-17
227	0xba37bf75	-0.00070094253
228	0x1ffbddd0	1.0666959e-19
229	0x37805512	1.5298403e-05
230	0xb1afe8d1	-5.1196385e-09
231	0x270a3a3f	1.9182922e-15
232	0x2d593549	1.2346854e-11
233	0x14632279	1.146737e-26
234	0x3b944c17	0.004525672
235	0x2898d3e5	1.6967285e-14
236	0xbb1c0eed	-0.0023812607
237	0x36043639	1.9701095e-06
238	0x2fdd32ab	4.0235668e-10
239	0xab82777a	-9.270217e-13
240	0xba073b7e	-0.00051587063
241	0x3e4d128d	0.20026608
242	0x1a2763a6	3.4615286e-23
243	0xbad38bb7	-0.0016139661
244	0xb4362134	-1.696215e-07
245	0x958a6d85	-5.591055e-26
246	0x3b2a0543	0.0025943078
247	0x93d18db8	-5.2898763e-27
248	0x3ca9a2d7	0.02070753
249	0x33c631ea	9.229173e-08
250	0x93ef54cc	-6.04157e-27
251	0xab65cbe5	-8.1640104e-13
252	0x92f092fc	-1.5182364e-27
253	0x1e6b9d11	1.2473277e-20
254	0x3bd92346	0.0066265194
255	0xb6fcd4ac	-7.5349435e-06

fc4.weight f4 [1, 256]
0	0x3de05134	0.10952988
1	0xbbf1b350	-0.007376112
2	0xbb91eba5	-0.00445314
3	0xbd5a9859	-0.053367946
4	0xbdddc571	-0.108286746
5	0xbdcf353a	-0.10117574
6	0x3e5c9eb5	0.21544917
7	0xbc1f68c0	-0.009729564
8	0x3e2c9eee	0.16857502
9	0xbd6a242b	-0.0571634
10	0xbd72afe2	-0.059249766
11	0xbf373c93	-0.71576804
12	0xbdf4d299	-0.11954231
13	0xbdd07d68	-0.10180169
14	0x3db4dd4f	0.08831274
15	0xbe697b5d	-0.22800966
16	0xbdc069b7	-0.093951635
17	0x3bb40aa0	0.0054944307
18	0x3c8ee6bf	0.017444013
19	0xbd675789	-0.056479964
20	0xbe064985	-0.13113983
21	0xbdb32a90	-0.087483525
22	0xbe1cd43c	-0.15315336
23	0xbb85beb6	-0.0040815724
24	0xbf0b8a87	-0.5450825
25	0x3d41570f	0.047202166
26	0x3d4423cc	0.0478857
27	0x3add0b0e	0.0016864256
28	0x3e2b9451	0.16755797
29	0x3f364656	0.71201074
30	0x3e429fc3	0.19006257
31	0x3d5263c9	0.051364694
32	0x3dc1e93a	0.094683126
33	0xbe31b41f	-0.17353867
34	0x3e85cc01	0.26132205
35	0x3da90693	0.08253207
36	0x3d4a3de2	0.049375422
37	0xbe4dd813	-0.20101957
38	0xbddd70dc	-0.10812542
39	0xbe111b8d	-0.14170666
40	0xbbb70be2	-0.0055861333
41	0xbeaae64d	-0.3337883
42	0x3d60f5f6	0.054922067
43	0x3ea4d0a4	0.3219043
44	0x3c998852	0.01874176
45	0xbf23267c	-0.637306
46	0x3cef6cf0	0.02922675
47	0x3cba0e68	0.022711948
48	0xbe42fc79	-0.19041623
49	0x3f228f64	0.63500047
50	0xbd7eb710	-0.0621863
51	0x3e3d88ca	0.18509212
52	0x3e462b12	0.19352368
53	0xbe22ac4d	-0.1588604
54	0x3e08fd5a	0.13377896
55	0xbdb99c45	-0.09063009
56	0xbeef6e67	-0.46763918
57	0xbeaf906e	-0.3428988
58	0xbd2f75ea	-0.04283706
59	0x3dac1fa7	0.08404475
60	0xbd04f4f4	-0.032460168
61	0x3e33ed3a	0.17570964
62	0x3c7f682b	0.0155888
63	0x3e07d6a4	0.13265473
64	0xbe2d8efa	-0.16949072
65	0x3dbfb1f2	0.09360112
66	0xbe18249e	-0.14857718
67	0x3e25543b	0.16145413
68	0xbc80350a	-0.015650291
69	0x3e3b0ccc	0.182666
70	0xbe4d35a5	-0.20039995
71	0x3da6b02f	0.08139073
72	0x3db475d1	0.08811534
73	0x3ef625b3	0.48075637
74	0xbede313b	-0.43396935
75	0xbb74dab3	-0.00373618
76	0x3da1285e	0.078690276
77	0xbbcbc7af	-0.0062188725
78	0x3c99776a	0.018733699
79	0x3f118a75	0.56851894
80	0xbcb21b26	-0.021741461
81	0xbe266c3b	-0.16252224
82	0x3f124891	0.5714198
83	0x3e1ed7db	0.1551203
84	0xbe466ffe	-0.19378659
85	0xbd24f14b	-0.040269177
86	0x3dbe925d	0.0930526
87	0xbe31ced2	-0.17364052
88	0xbd2c887c	-0.04212235
89	0xbcbc79c0	-0.023007274
90	0x39b7824a	0.00035001553
91	0x3e2c19c7	0.16806708
92	0xbcf3403e	-0.029693719
93	0x3de7f7c4	0.113265544
94	0xba90a145	-0.001103439
95	0x3f17d5a2	0.5931035
96	0x3d187249	0.037218366
97	0xbc12a95d	-0.008951512
98	0xbb93b23c	-0.004507331
99	0xbcd49d32	-0.025953863
100	0xbd36ceb4	-0.04463072
101	0xbe966ce5	-0.29379955
102	0xbda6d72a	-0.08146508
103	0xbb10bca7	-0.0022085102
104	0xbbcf4cda	-0.0063263
105	0xbd3c8400	-0.046024323
106	0x3e888f6e	0.26671928
107	0x3ad0c654	0.0015928247
108	0x3b7db4bc	0.0038712462
109	0x3f156819	0.58361965
110	0xbda4c1e4	-0.08044794
111	0x3d2d6985	0.04233696
112	0xbe107284	-0.14106184
113	0x3ec81cb3	0.39084396
114	0x3e11b752	0.14230087
115	0x3dc51e21	0.09624887
116	0xbdf1f08e	-0.1181346
117	0x3f2ca3cc	0.67437434
118	0x3dfc0886	0.12306313
119	0x40f66acd	7.700537
120	0x3e0dbb1b	0.13840906
121	0x3def511a	0.11685391
122	0x3e891e4d	0.2678093
123	0x3f15bc9d	0.58490926
124	0x3bd26097	0.006420206
125	0xbec1ad35	-0.3782746
126	0xbcc1d127	-0.023659302
127	0xbd226453	-0.039646458
128	0xbc68c9e2	-0.014208289
129	0xbe40b826	-0.18820247
130	0xbdb95932	-0.09050216
131	0xbb080839	-0.0020756854
132	0x3f926e51	1.1439916
133	0x3c127583	0.00893915
134	0x3dc3df1b	0.09564038
135	0x3e325f00	0.17419052
136	0x3d9ca72a	0.076490715
137	0xbb923865	-0.004462289
138	0x3baaa6cd	0.0052078725
139	0xbda39b27	-0.07988577
140	0xbe5111e5	-0.20416982
141	0xbdc5bd10	-0.096552014
142	0x3e9ec0c2	0.31006438
143	0xbd9f75c6	-0.077861354
144	0xbd10dc1b	-0.03536616
145	0x3c8ddab6	0.017316204
146	0xbd180785	-0.037116546
147	0xba03d996	-0.0005029676
148	0x3f570b83	0.8400194
149	0xbdf72261	-0.12067104
150	0x3e46c56e	0.19411251
151	0xbd95c5a0	-0.073130846
152	0xbd0787ae	-0.03308838
153	0xbe8db7fd	-0.27679434
154	0xbde21a76	-0.11040203
155	0x3f3050cd	0.6887329
156	0x3b7ac992	0.0038267118
157	0xbe69c598	-0.22829282
158	0x3de5afe2	0.112151876
159	0xbdb39fd4	-0.08770719
160	0xbd476400	-0.04867935
161	0xbd53b753	-0.051688503
162	0xbdbb8f1e	-0.09158157
163	0xbeab5a19	-0.33467177
164	0x3ce0d28a	0.027444143
165	0xbdf0a9a9	-0.1175111
166	0x3e243a24	0.16037804
167	0x3e633ff6	0.22192368
168	0x3e96ead0	0.29476023
169	0xbcdfca24	-0.027318068
170	0x3dff4b0b	0.12465485
171	0xbefe9faf	-0.49731204
172	0xbe39d322	-0.18146947
173	0xbf4d5cce	-0.80219734
174	0xbc3aaa37	-0.011393121
175	0x3ca111b7	0.019661767
176	0x3e260903	0.16214375
177	0xbd15663e	-0.03647446
178	0xbe3ac7a4	-0.1824022
179	0xbc700443	-0.014649454
180	0xbcf26dd6	-0.02959339
181	0xbec0bf9c	-0.37646186
182	0x3bafe22d	0.0053675384
183	0x3dd88bc7	0.105735354
184	0x3e73dc04	0.23814398
185	0xbe595a64	-0.21225888
186	0x3c8a1202	0.01685429
187	0x3e67bd57	0.22630821
188	0x3df5f74b	0.12010058
189	0xbd6ae0c4	-0.05734326
190	0x3d9b57a0	0.075850725
191	0xbc8bfc9f	-0.017088233
192	0x3f141e47	0.578587
193	0xbe4aa353	-0.19788866
194	0xbed8ef31	-0.4236999
195	0x3cd7b4eb	0.026331386
196	0x3c582ebf	0.013194739
197	0xbe73076e	-0.23733303
198	0xbc50e134	-0.012749005
199	0x3e240fab	0.16021602
200	0xbcea33c2	-0.028589133
201	0xbd165c7a	-0.036709286
202	0xbee4a498	-0.44656825
203	0xbd978076	-0.07397549
204	0x3ec95ffa	0.39331037
205	0xbee33598	-0.44376826
206	0xbe87a426	-0.26492423
207	0x3de29074	0.110627085
208	0xbd8302d7	-0.06397026
209	0x3e864003	0.26220712
210	0xbd6e7c4c	-0.058224007
211	0xbbfef8f3	-0.007781142
212	0x3cf92119	0.03041129
213	0x3c7f7922	0.015592845
214	0xba63b42d	-0.0008686211
215	0x3bb93a8c	0.0056527313
216	0xbd2e8a88	-0.042612582
217	0xbf152b30	-0.58269024
218	0xb953e2f4	-0.00020207075
219	0x3e8266f6	0.25469178
220	0x3dda444c	0.10657558
221	0xbc344188	-0.011001952
222	0xba822000	-0.000992775
223	0xbe83aa09	-0.25715664
224	0xbce8b68e	-0.028407361
225	0xbbb632e5	-0.0055602663
226	0xbe02f9fd	-0.12790675
227	0xbcf1c4d4	-0.0295128
228	0xbe29b584	-0.16573149
229	0x3d43f459	0.04784045
230	0xbdb99c2f	-0.09062993
231	0x3e761471	0.24031235
232	0xbb7f157c	-0.0038922718
233	0x3dd226fe	0.102613434
234	0xbd5f7d6d	-0.054562975
235	0x3e08ecf1	0.13371636
236	0xbd5a28e9	-0.05326167
237	0xbbfe80eb	-0.007766833
238	0xbd291b11	-0.04128558
239	0xbdf8e488	-0.12152964
240	0xbb32f545	-0.0027306837
241	0x3ed4cd8e	0.41563076
242	0x3b6dd30c	0.0036289124
243	0xbdb8cb7e	-0.09023188
244	0xbdda68b0	-0.10664499
245	0xbe1e7075	-0.15472586
246	0xbbaf3f1e	-0.0053481003
247	0xbe3966d8	-0.18105638
248	0x3e8951b5	0.2682015
249	0xbf05b99f	-0.5223636
250	0xbe78fec7	-0.2431594
251	0xba0ee27e	-0.000545062
252	0xbe67ebc7	-0.22648536
253	0xbf18ddce	-0.5971345
254	0xbe3aaf7b	-0.18231003
255	0x3ed21f70	0.4103961
