shanghai_road_delivery/results_centralized/centralized_episode_450.pth_centralized_actor.pth (torch, 922090 bytes, 20 tensors)

fc1.weight f4 [256, 364]
000000 2f af cb 39 76 7d bc b9 f0 57 8e 3a f8 9b 99 3a
       0.000388497 -0.0003595163 0.0010859948 0.0011719456
000010 d3 8c 98 3a ce f2 9c 3a 74 9d 85 b0 0a ec de b7
       0.0011638649 0.0011974217 -9.721774e-10 -2.6574377e-05
000020 66 92 13 38 aa 72 a3 b8 b4 be e3 ab 80 63 5a ba
       3.5183875e-05 -7.7938035e-05 -1.6182251e-12 -0.00083308667
000030 d6 b7 69 b8 d2 1a 3e ae 02 c2 5b b7 6e 51 6a b7
       -5.572274e-05 -4.322482e-11 -1.3098588e-05 -1.3966446e-05
000040 70 97 28 37 f8 2b 65 2d 0b 6d 34 b6 00 dc 9e 38
       1.004884e-05 1.3026906e-11 -2.6885562e-06 7.575005e-05
000050 4f 6a ad b9 e4 ca 55 2c bd 39 ad b9 ca 48 9e b1
       -0.00033076337 3.0381747e-12 -0.0003304015 -4.6066804e-09
000060 be e1 77 36 15 56 86 ae 6c ab 98 36 5c 6f f3 b4
       3.6937267e-06 -6.108906e-11 4.549909e-06 -4.5343302e-07
000070 7d 3f 22 b9 90 fb 41 b8 36 b1 3d b9 fd 85 45 2d
       -0.00015473175 -4.624907e-05 -0.00018090461 1.1227905e-11
000080 6c 32 96 b3 f8 c2 3b ac f0 77 d4 37 e0 24 93 2e
       -6.994091e-08 -2.6682528e-12 2.532822e-05 6.6913364e-11
000090 da c4 7d 39 d2 57 8e 3a 5c be 33 39 d2 57 8e 3a
       0.00024201293 0.0010859913 0.00017141685 0.0010859913
0000a0 26 b8 e1 37 be 4c 2d 38 eb 61 d2 37 56 81 9a 36
       2.6907841e-05 4.1317886e-05 2.5079547e-05 4.6046143e-06
0000b0 10 0f ce b7 85 37 68 38 86 a9 cf 37 51 52 98 b7
       -2.4564128e-05 5.5364817e-05 2.4755263e-05 -1.8158144e-05
0000c0 9c a6 91 ab d2 57 8e 3a 84 1f 4a ae d2 57 8e 3a
       -1.0349113e-12 0.0010859913 -4.5957474e-11 0.0010859913
0000d0 d0 30 29 ba 2d 95 06 ba ee 57 8e 3a 4f bb 92 3a
       -0.0006454112 -0.0005133923 0.0010859945 0.0011194738
0000e0 48 64 91 3a 63 b3 96 3a 18 e4 dc b6 66 c1 1f 31
       0.0011092508 0.0011497553 -6.5830645e-06 2.324748e-09
0000f0 c0 1c f2 b2 a0 2f da b3 ba 88 78 2e 80 63 5a ba
       -2.8185582e-08 -1.0160079e-07 5.651011e-11 -0.00083308667
000100 c2 90 68 b8 38 c7 5d b2 02 c2 5b b7 6e 51 6a b7
       -5.5447927e-05 -1.290919e-08 -1.3098588e-05 -1.3966446e-05
000110 70 97 28 37 7e 83 43 b2 48 ea 20 35 88 dd 9e 38
       1.004884e-05 -1.1380392e-08 5.994557e-07 7.5752905e-05
000120 4f 6a ad b9 a0 85 14 b1 17 65 ac b9 0a a6 fc af
       -0.00033076337 -2.1612792e-09 -0.00032881714 -4.595651e-10
000130 fa bf 01 b7 1d 65 d7 2f fb 41 5a ba a0 9b 55 b6
       -7.733697e-06 3.9180117e-10 -0.0008325872 -3.183006e-06
000140 90 13 e7 b8 af 76 c9 34 a2 79 3d b9 1a 0b 89 30
       -0.00011018582 3.752552e-07 -0.00018069756 9.971217e-10
000150 6c 32 96 b3 ca 23 da a9 f0 77 d4 37 2f 83 97 2f
       -6.994091e-08 -9.687353e-14 2.532822e-05 2.7559952e-10
000160 01 20 7d 39 d2 57 8e 3a 76 c0 33 39 d2 57 8e 3a
       0.00024139883 0.0010859913 0.00017142468 0.0010859913
000170 48 86 63 35 f5 fa 75 38 0b db d3 37 53 9a d7 b7
       8.4759495e-07 5.8646274e-05 2.525516e-05 -2.570186e-05
000180 40 ce 91 35 a4 fc 26 38 e5 f9 88 37 20 58 32 36
       1.0863369e-06 3.9812774e-05 1.632883e-05 2.6575362e-06
000190 02 53 26 b8 31 f6 96 3a ac 9f 33 32 d2 57 8e 3a
       -3.965479e-05 0.0011517463 1.04554765e-08 0.0010859913
0001a0 73 2e 8a 39 2a 89 a1 39 f0 57 8e 3a ad 69 95 3a
       0.00026356018 0.00030810508 0.0010859948 0.0011399292
0001b0 c3 27 94 3a 2c a2 97 3a 00 db ab b6 28 8c 89 35
       0.0011303354 0.0011568717 -5.121692e-06 1.0248086e-06
0001c0 25 d9 d5 3a 5a dc 75 ac ce c4 6d a9 80 63 5a ba
       0.0016315324 -3.4938914e-12 -5.2795272e-14 -0.00083308667
0001d0 94 d2 65 b8 d4 69 a6 3a 02 c2 5b b7 6e 51 6a b7
       -5.479397e-05 0.0012696334 -1.3098588e-05 -1.3966446e-05
0001e0 70 97 28 37 bc c9 0c 37 63 e8 2f b6 6e d6 9e 38
       1.004884e-05 8.39162e-06 -2.62123e-06 7.573968e-05
0001f0 4f 6a ad b9 a8 de 5a b3 d4 57 ae b9 e6 2a 6e b1
       -0.00033076337 -5.0959585e-08 -0.00033253303 -3.4657943e-09
000200 7f 5e bc 38 00 92 45 3b 3c 45 ee b7 e7 2a de b4
       8.98214e-05 0.0030146837 -2.840405e-05 -4.1381938e-07
000210 4e 15 ba b8 0e 75 b8 35 1e 1b 23 b9 92 61 01 00
       -8.8731394e-05 1.3743136e-06 -0.00015554993 1.26837e-40
000220 6c 32 96 b3 d7 65 80 b7 f0 77 d4 37 c8 b4 53 ba
       -6.994091e-08 -1.5306212e-05 2.532822e-05 -0.000807595
000230 a4 c2 7c 39 d2 57 8e 3a 42 be 33 39 d2 57 8e 3a
       0.00024105102 0.0010859913 0.00017141647 0.0010859913
000240 aa 9b ca 37 c7 60 46 38 fc 96 ce 37 d4 14 76 36
       2.4152763e-05 4.729701e-05 2.4627421e-05 3.666898e-06
000250 08 12 c5 36 30 e5 89 38 38 9b 89 37 46 04 78 b7
       5.8731566e-06 6.5753586e-05 1.6403952e-05 -1.4782947e-05
000260 43 99 12 b9 1b 53 9a 3a ae a4 3e 38 d2 57 8e 3a
       -0.0001398074 0.0011774035 4.54529e-05 0.0010859913
000270 20 4e 5d 38 c8 4f 15 39 ee 57 8e 3a f4 ec 8f 3a
       5.2763266e-05 0.00014239468 0.0010859945 0.0010980652
000280 6d 88 8f 3a a4 58 94 3a cc f3 e8 b7 67 b2 ed 36
       0.0010950692 0.0011317921 -2.7770082e-05 7.083919e-06
000290 f6 9b bf 30 8a 63 44 34 e9 4d 1d 34 80 63 5a ba
       1.3941406e-09 1.8290135e-07 1.4650108e-07 -0.00083308667
0002a0 d1 b9 66 b8 92 e3 23 36 be c3 5b b7 6e 51 6a b7
       -5.500933e-05 2.4421356e-06 -1.3098992e-05 -1.3966446e-05
0002b0 70 97 28 37 7a b9 8e 31 df 76 91 b5 88 dd 9e 38
       1.004884e-05 4.15383e-09 -1.0837938e-06 7.5752905e-05
0002c0 4f 6a ad b9 03 9e a1 37 b6 1b ad b9 1e a0 8f b7
       -0.00033076337 1.9266276e-05 -0.00033017778 -1.7121489e-05
0002d0 a4 d2 ba 35 80 3e 6d ad 22 cd b3 34 28 73 f3 30
       1.3919384e-06 -1.3485768e-11 3.3490602e-07 1.7713306e-09
0002e0 80 12 ff b8 85 d7 15 33 7c 1f 23 b9 4e 0a 00 00
       -0.000121627934 3.488778e-08 -0.0001555662 3.697e-42
0002f0 fe b7 3d b9 64 d8 33 b7 f0 77 d4 37 64 3c 35 2c
       -0.00018092987 -1.0719614e-05 2.532822e-05 2.575517e-12
000300 42 e1 7d 39 d2 57 8e 3a d7 c0 33 39 d2 57 8e 3a
       0.00024211875 0.0010859913 0.00017142609 0.0010859913
000310 6e f3 58 39 45 11 2d 38 7e f3 8b 37 c8 fe 4c 36
       0.0002069005 4.1262498e-05 1.6683476e-05 3.054667e-06
000320 ef 77 d9 b7 6b d2 6c 38 3a 06 cd 37 f0 73 9b b7
       -2.5924264e-05 5.646275e-05 2.4440804e-05 -1.8531427e-05
000330 22 ea 37 b4 fd 4c 8f 3a e3 e1 df b0 d2 57 8e 3a
       -1.712838e-07 0.0010932978 -1.6289586e-09 0.0010859913
000340 f1 28 91 3a ab 79 2a 3a ee 57 8e 3a 20 f2 91 3a
       0.0011074824 0.00065031153 0.0010859945 0.0011134781
000350 7a c9 90 3a bf a6 96 3a 1a 36 b4 b3 58 8c 50 ab
       0.0011046373 0.0011493786 -8.391744e-08 -7.409121e-13
000360 8a 9a 11 38 87 03 34 2f 8c 62 9d b9 80 63 5a ba
       3.471462e-05 1.6372158e-10 -0.00030018797 -0.00083308667
000370 7f 2b 66 b8 30 13 1e 33 54 c2 5b b7 6e 51 6a b7
       -5.4876782e-05 3.6804693e-08 -1.3098663e-05 -1.3966446e-05
000380 70 97 28 37 c1 e2 15 ad c7 b2 35 b6 55 da 9e 38
       1.004884e-05 -8.520019e-12 -2.7075164e-06 7.5746946e-05
000390 4f 6a ad b9 a2 f8 dd 2b 80 18 ba b9 c8 15 1a 2b
       -0.00033076337 1.5772004e-12 -0.00035494938 5.474202e-13
0003a0 eb 07 08 36 84 fb 93 b6 34 de 34 b2 90 57 a0 b1
       2.0270188e-06 -4.4102217e-06 -1.0527902e-08 -4.6665676e-09
0003b0 9b 8e bd b8 b0 e1 de ad 55 3f 23 b9 84 0d f2 b2
       -9.0387846e-05 -2.5338703e-11 -0.00015568484 -2.8178654e-08
0003c0 8f bf 3d b9 6e 0f a5 3b 6c 32 96 b3 04 dc 42 b5
       -0.00018095806 0.0050372398 -6.994091e-08 -7.2590797e-07
0003d0 0a 3b 7d 39 d2 57 8e 3a 2c bd 33 39 d2 57 8e 3a
       0.00024149954 0.0010859913 0.00017141242 0.0010859913
0003e0 24 bc 6f b8 37 32 2d 38 0c 87 d3 37 e2 ff ad 36
       -5.715726e-05 4.129318e-05 2.5216046e-05 5.1855905e-06
0003f0 80 18 2e b7 f8 55 71 38 fd 77 cf 37 87 b1 ab b7
       -1.03769125e-05 5.7538942e-05 2.4732197e-05 -2.0467456e-05

fc1.bias f4 [256]
000000 d2 57 8e 3a ba 7e db b1 e4 c8 53 3b 09 f1 7b 36
       0.0010859913 -6.388146e-09 0.0032315785 3.7542216e-06
000010 12 65 b7 30 48 de 8d b7 6b 0f 30 b9 d2 32 a3 b5
       1.3343728e-09 -1.6912018e-05 -0.00016790412 -1.2159237e-06
000020 cc ac e8 37 3b b5 29 39 da e7 21 b9 f4 b4 f6 b3
       2.773702e-05 0.0001618461 -0.00015440528 -1.1488183e-07
000030 f9 9e 7a b9 f2 a6 3a 2d 44 de 61 38 4b c9 84 35
       -0.0002390108 1.0609945e-11 5.385118e-05 9.89335e-07
000040 6a 3c 99 35 04 88 80 3a 95 eb 10 38 2e e9 f1 34
       1.1416971e-06 0.0009806161 3.455168e-05 4.505941e-07
000050 fd c0 b7 b8 bf 58 a8 b4 50 7e 36 34 50 80 c5 37
       -8.762067e-05 -3.135701e-07 1.6996023e-07 2.354398e-05
000060 19 15 8c b9 e2 0e d2 38 15 a7 99 33 fe c4 97 b8
       -0.000267186 0.000100163525 7.15501e-08 -7.236934e-05
000070 42 5a 88 3b 3f 46 51 3a 7a 2f 3f b8 4e fe 11 b7
       0.00416115 0.0007983185 -4.5582165e-05 -8.701883e-06
000080 d5 26 01 39 2d 1a 9f b4 f1 75 dd b6 c8 56 0f b8
       0.00012316865 -2.9635103e-07 -6.6000434e-06 -3.4174678e-05
000090 32 7e 24 36 10 64 b1 35 a0 89 ea b5 00 37 61 b5
       2.451136e-06 1.321665e-06 -1.7474413e-06 -8.389907e-07
0000a0 80 c1 43 37 54 fa 06 b4 80 fc 92 b2 6a ad 05 37
       1.16679585e-05 -1.2570791e-07 -1.711146e-08 7.967794e-06
0000b0 87 96 51 37 29 03 7f b8 57 6e d4 35 a1 77 bd b9
       1.2492418e-05 -6.079968e-05 1.5827344e-06 -0.0003613802
0000c0 e7 b4 e2 b8 cb a7 9b b7 04 d8 55 38 d6 54 a1 31
       -0.000108102155 -1.8555575e-05 5.0984338e-05 4.6953614e-09
0000d0 03 b4 9c 3e 25 05 74 ba 8a 9c b1 37 3c ea 0c b8
       0.30606088 -0.0009308628 2.1172938e-05 -3.359675e-05
0000e0 ef 4a 54 b7 ca 74 7f b2 9d f0 22 ba 6c 67 d0 3a
       -1.26536315e-05 -1.4869508e-08 -0.0006215664 0.0015899963
0000f0 79 e1 b0 38 2e a1 c9 b6 df ee 86 31 76 5c 76 37
       8.4343315e-05 -6.0090306e-06 3.92707e-09 1.468427e-05
000100 22 5e 72 39 14 30 23 b8 1e cc 8d b3 72 8b 5a 3b
       0.00023113986 -3.8907005e-05 -6.602953e-08 0.0033347276
000110 73 24 16 b6 5c ec a7 31 71 cd 70 37 c7 ce 5a 38
       -2.2372958e-06 4.8872106e-09 1.4352948e-05 5.2167827e-05
000120 bf fd 85 b6 74 70 36 b9 df 64 f9 b9 ff 12 d3 3a
       -3.993249e-06 -0.00017398765 -0.00047568136 0.0016103684
000130 b5 ce 80 37 04 71 d9 b6 e1 d3 a3 b6 ae dd cb 35
       1.5355045e-05 -6.4802607e-06 -4.8824445e-06 1.5189196e-06
000140 c6 d4 fd b6 83 7f ad b5 e6 e1 73 ba 82 ee 29 b9
       -7.5647577e-06 -1.2926615e-06 -0.0009303376 -0.00016205947
000150 eb fa e8 31 4e 8f c5 37 27 c9 16 37 1e 1c 9b 33
       6.7806147e-09 2.3550961e-05 8.987531e-06 7.2228644e-08
000160 c4 0b 82 b8 e8 65 f5 b2 b4 a1 52 b7 c8 51 04 b6
       -6.2010746e-05 -2.8568095e-08 -1.2554625e-05 -1.9717136e-06
000170 f3 96 e0 3a a8 02 28 bd ae d9 98 b0 7a 27 16 35
       0.001713483 -0.04101816 -1.1121324e-09 5.59368e-07
000180 d5 c6 25 b8 9a 4b 8c b8 04 ba 28 b6 52 f1 5b b7
       -3.9524242e-05 -6.689802e-05 -2.5142226e-06 -1.3109604e-05
000190 54 6c cc 30 2a f3 21 b2 0b e9 cc b9 00 17 ff ad
       1.4873742e-09 -9.4267225e-09 -0.00039083543 -2.9000358e-11
0001a0 d0 6f 88 b5 bb 19 8b b3 41 6a c5 37 96 4d fc b5
       -1.0165331e-06 -6.477372e-08 2.3533708e-05 -1.8798044e-06
0001b0 dd 76 2f 3e b8 e5 28 b3 2d ad 47 bb 9e 9e 97 b5
       0.17135186 -3.9324476e-08 -0.003046821 -1.129654e-06
0001c0 02 d4 e9 b5 c4 c9 fd 38 e8 86 e9 34 98 eb f0 37
       -1.7421555e-06 0.00012101562 4.349779e-07 2.8719936e-05
0001d0 76 4f 37 b7 d0 3f f2 b6 be c4 86 39 c6 05 16 bc
       -1.0926151e-05 -7.2195908e-06 0.00025705056 -0.00915665
0001e0 cc b4 b3 36 b4 27 0f b7 91 f2 46 35 32 61 04 38
       5.3556632e-06 -8.532708e-06 7.411373e-07 3.1561773e-05
0001f0 4c a3 37 38 0f 83 16 b9 82 ea 68 ba 8b c6 4a 3e
       4.3782682e-05 -0.00014353938 -0.0008885042 0.198023
000200 f4 f0 1e b9 45 cc 0c b5 3b a7 dc 39 60 b5 ab b4
       -0.00015157816 -5.2451315e-07 0.00042086266 -3.19832e-07
000210 19 52 24 ba 71 20 36 b8 5c 36 e6 37 87 0a e5 b4
       -0.0006268337 -4.3422395e-05 2.744345e-05 -4.2662234e-07
000220 7c d7 f9 b3 c5 d1 45 35 7f 44 9a 35 77 c5 cb b8
       -1.16341624e-07 7.3693474e-07 1.1493829e-06 -9.716575e-05
000230 9a b8 32 b4 f8 40 0a b6 69 40 06 b7 e2 6f 4b ba
       -1.66447e-07 -2.060142e-06 -8.002019e-06 -0.0007760507
000240 20 63 4a 34 36 bf 57 36 90 9c 4f b8 d8 44 8e b4
       1.8848777e-07 3.2148796e-06 -4.9498456e-05 -2.6499652e-07
000250 0e 0f 7d b9 cf 0a d5 b5 f2 86 00 ba be 73 c4 3a
       -0.00024133569 -1.5872882e-06 -0.0004902921 0.0014988107
000260 ee 8b 6d 38 1e 33 d1 b6 04 ba 35 34 af ae 63 b6
       5.6635523e-05 -6.234636e-06 1.692461e-07 -3.3927315e-06
000270 00 29 33 38 78 70 e7 b9 fb 23 8f 33 62 6c 8f bb
       4.271511e-05 -0.0004414355 6.665501e-08 -0.004376934
000280 cf e4 c7 37 09 92 da 3c a0 f8 d7 34 3b 6d 85 34
       2.3829196e-05 0.026680963 4.022777e-07 2.4852656e-07
000290 dc ae 7c b6 de 16 48 ba 88 14 a4 ad c6 54 1f ba
       -3.7652708e-06 -0.0007632802 -1.8653759e-11 -0.0006078001
0002a0 52 da 10 30 3c cf da b3 99 50 74 a9 4b 7e 07 ba
       5.2697147e-10 -1.0189112e-07 -5.424879e-14 -0.00051686604
0002b0 a5 57 7e b8 44 c8 a0 b6 60 20 0d b8 c2 0d 0d b5
       -6.0639944e-05 -4.7916856e-06 -3.364717e-05 -5.2546613e-07
0002c0 b6 81 01 38 10 bf 2c b2 91 80 20 35 f5 ed da 38
       3.08768e-05 -1.005516e-08 5.9791734e-07 0.00010439373
0002d0 0c e4 d6 31 93 6f 3a b8 41 1b 8a 37 84 e4 2c b5
       6.2541456e-09 -4.4449767e-05 1.6463573e-05 -6.4407527e-07
0002e0 bf 7e 62 3a f8 a0 8d b5 2e 9a 46 36 7b b8 52 b5
       0.00086401025 -1.0552167e-06 2.9594044e-06 -7.849955e-07
0002f0 ba 2c 36 b7 d1 f6 87 38 1c b8 24 3a f6 f3 80 b3
       -1.0858459e-05 6.483275e-05 0.0006283538 -6.004841e-08
000300 a5 39 97 2e c3 9c 4f 38 1c 03 b0 32 26 1d d5 36
       6.876925e-11 4.949864e-05 2.049051e-08 6.351288e-06
000310 3e 3d 46 ba 11 b0 c9 b3 0a bb e4 34 7e 11 81 b3
       -0.00075622264 -9.391818e-08 4.2604398e-07 -6.0102124e-08
000320 8d e3 8b 37 30 dc 5a 31 ad 95 75 b9 6f d9 a2 b7
       1.6676053e-05 3.1848337e-09 -0.0002342078 -1.9413155e-05
000330 f0 ca 60 b4 72 88 ab 2f 1e 76 20 38 f0 69 8c 39
       -2.0935454e-07 3.120167e-10 3.8256978e-05 0.0002678181
000340 f2 4e 5b b8 05 5e e4 b8 3b 75 19 ba 8e ad 74 b5
       -5.2287192e-05 -0.000108894 -0.00058539555 -9.114964e-07
000350 1d 4b 8c ba 67 5d 6a 3a 04 b9 8f b0 47 e7 80 b0
       -0.0010703538 0.00089403096 -1.0457204e-09 -9.378959e-10
000360 c2 03 c9 b6 60 f2 78 b7 11 80 35 b6 78 d7 c9 35
       -5.9907043e-06 -1.4838384e-05 -2.7045646e-06 1.5038377e-06
000370 03 fe 63 31 da 3c 31 b8 d2 5b d5 b4 91 70 69 38
       3.3177237e-09 -4.225676e-05 -3.974115e-07 5.5656365e-05
000380 1e 86 47 38 7b 16 6d 36 60 b6 6e ba de 14 37 33
       4.7570204e-05 3.5328837e-06 -0.00091061555 4.2626986e-08
000390 92 9b a7 b8 ea 29 00 3d 97 7c 8a b3 fd 95 70 b5
       -7.992158e-05 0.031289972 -6.4487885e-08 -8.962523e-07
0003a0 2c 5c 6a b3 8b 9b 82 3a e8 91 f2 3c 5b f3 50 38
       -5.45662e-08 0.0009964568 0.02961059 4.9817707e-05
0003b0 2e e6 23 2e 7d e0 1b 2f df 92 02 b5 ce 05 6f 3d
       3.726635e-11 1.4176922e-10 -4.86425e-07 0.058355145
0003c0 57 3f 2d bb ae a6 86 b6 54 68 a5 b6 c9 95 92 38
       -0.0026435459 -4.0129153e-06 -4.9295286e-06 6.989722e-05
0003d0 83 21 17 37 88 4a c0 38 40 8d 8a b8 69 9b 00 34
       9.008104e-06 9.169156e-05 -6.606663e-05 1.1977467e-07
0003e0 89 ef 80 ba ff 83 b2 ba 4e 35 a0 b7 13 01 8f b9
       -0.0009837012 -0.001361966 -1.9098308e-05 -0.00027275886
0003f0 e9 18 9a b1 01 fd 0b 37 d4 9c 1d b7 66 04 f7 37
       -4.484822e-09 8.343953e-06 -9.394444e-06 2.9446743e-05

fc2.weight f4 [256, 256]
000000 2e 4a c6 b4 ce 8f 01 2e 68 9b 3b b7 6c 6f 4d ae
       -3.6934347e-07 2.945893e-11 -1.1182252e-05 -4.6710566e-11
000010 b0 76 67 2e f2 0e f1 b8 ca a0 e2 38 90 31 0f b4
       5.2628735e-11 -0.00011494559 0.00010806469 -1.3335944e-07
000020 8b d9 86 b4 a4 26 26 b8 a4 17 b9 36 c1 74 cc b2
       -2.5117728e-07 -3.961347e-05 5.516182e-06 -2.380182e-08
000030 12 be 00 38 44 b0 09 2b c1 12 ca 2d ae 90 32 b3
       3.0694595e-05 4.8916795e-13 2.297307e-11 -4.157544e-08
000040 fc 02 03 2f da d1 45 38 3e 22 83 b7 30 92 65 36
       1.1915441e-10 4.71639e-05 -1.5632362e-05 3.4208751e-06
000050 84 c6 50 33 28 00 20 30 b4 0f a6 30 a6 70 ee 2f
       4.8609323e-08 5.8207883e-10 1.2082553e-09 4.337199e-10
000060 3a d4 69 b2 fc a3 45 b7 c0 61 7f 30 37 85 cf b5
       -1.361064e-08 -1.1780296e-05 9.290737e-10 -1.5461472e-06
000070 28 d4 60 38 ce 2c 0d 39 e3 4d 23 b4 c8 4b c4 b3
       5.3603348e-05 0.00013463499 -1.5208893e-07 -9.140746e-08
000080 d7 2e 5e 33 ae 23 d2 b9 e0 39 92 2f 04 48 62 32
       5.1731003e-08 -0.00040080905 2.6598368e-10 1.3171306e-08
000090 3a 39 b5 b4 6e c8 d2 33 1d f9 4b b8 3c 04 27 32
       -3.3755515e-07 9.815345e-08 -4.8630976e-05 9.721642e-09
0000a0 0c ba 3a 35 66 1f 01 33 c4 33 52 b1 ba a4 b0 36
       6.9561133e-07 3.006371e-08 -3.0588447e-09 5.2643854e-06
0000b0 1a 8f f8 37 4f 84 ac 33 27 55 c6 34 d0 8b 71 35
       2.963054e-05 8.033441e-08 3.694233e-07 8.998295e-07
0000c0 19 2c 2f b8 a6 5e 1b b8 5a 04 37 b6 1e 51 5a 2f
       -4.176432e-05 -3.7043028e-05 -2.7271658e-06 1.9855803e-10
0000d0 f8 16 32 39 e0 bc ef b1 08 25 c3 b6 c9 27 c8 37
       0.0001698396 -6.977288e-09 -5.815764e-06 2.3860384e-05
0000e0 d8 75 63 37 de b5 40 25 d1 f5 d5 b3 2c 78 9c 34
       1.3557692e-05 1.6714964e-16 -9.963299e-08 2.91447e-07
0000f0 1a 08 6c 37 a6 c3 3c b4 b0 55 1c a6 32 10 54 32
       1.40685825e-05 -1.7580041e-07 -5.42395e-16 1.23437065e-08
000100 08 1a a8 b8 33 30 a0 b5 b8 b0 95 31 c6 d7 a5 37
       -8.015713e-05 -1.1934957e-06 4.3565613e-09 1.977001e-05
000110 9b 23 91 b3 a0 44 b5 2f e0 84 ce b3 d1 17 9f 37
       -6.758565e-08 3.297247e-10 -9.616792e-08 1.8965367e-05
000120 72 16 5f b5 3b 8d 65 3a 98 e4 19 36 d2 de 0d b9
       -8.3106636e-07 0.0008756702 2.2931836e-06 -0.00013529815
000130 77 5c 03 b4 9b 1c c5 32 fd dc 5c 31 d4 84 e8 36
       -1.2233964e-07 2.2946827e-08 3.213983e-09 6.929602e-06
000140 02 76 0b b4 22 cc fc 30 1c 2c fe 35 fe fd d1 35
       -1.2988315e-07 1.8393431e-09 1.8937312e-06 1.5645635e-06
000150 30 9b bf b5 e0 4d 07 b6 d0 f0 4a b3 ea b0 40 33
       -1.4275774e-06 -2.0161897e-06 -4.7250808e-08 4.4864386e-08
000160 27 a2 39 b8 c2 94 53 32 27 f8 4e 35 4e 4d 4a ae
       -4.4258453e-05 1.231564e-08 7.710209e-07 -4.5998143e-11
000170 fc dc 2b 37 20 e5 9c 37 d4 67 07 2e de 78 c1 b5
       1.0243846e-05 1.8703344e-05 3.0787664e-11 -1.4414798e-06
000180 f5 1d 52 37 26 68 ce 32 08 a7 2e b7 28 25 60 36
       1.252395e-05 2.4028918e-08 -1.0410098e-05 3.3400229e-06
000190 94 2f 7d ad eb 7b c5 33 ba e8 d2 35 c0 1b a5 2b
       -1.43919494e-11 9.196068e-08 1.5713952e-06 1.1731657e-12
0001a0 8a 4e 1f 31 ac 4d d4 2e 76 21 a8 ae 5a bf 5d a7
       2.318219e-09 9.654441e-11 -7.6456994e-11 -3.0773643e-15
0001b0 2a cc 98 b8 0c e8 e3 b4 e3 8d 68 36 0a ec b2 31
       -7.285953e-05 -4.245088e-07 3.4653283e-06 5.2073164e-09
0001c0 08 26 0a b9 c0 b4 be b4 c0 5d 65 31 92 3a ab b6
       -0.00013174873 -3.552177e-07 3.3377177e-09 -5.1030156e-06
0001d0 94 b9 19 b1 90 85 8c b8 56 cc 3d 36 2c d5 32 b7
       -2.236992e-09 -6.700598e-05 2.8282134e-06 -1.065926e-05
0001e0 bc f2 85 37 6b e3 0b b5 50 64 b0 31 94 7b 41 2b
       1.5967868e-05 -5.211247e-07 5.1336784e-09 6.8738873e-13
0001f0 6f 14 c7 b6 d4 97 9e 34 4e 23 f5 36 68 95 33 39
       -5.933041e-06 2.9540263e-07 7.305679e-06 0.00017126428
000200 08 be f4 b8 72 04 b4 34 a1 20 b8 b8 66 7a a5 32
       -0.00011670223 3.3530847e-07 -8.779881e-05 1.9264188e-08
000210 ca 77 96 36 ee af 92 b2 d3 a4 d4 38 b2 97 af a8
       4.4842936e-06 -1.707664e-08 0.00010139649 -1.949469e-14
000220 68 ed 0d b3 04 f5 f0 34 f8 df 1c 32 7c ba a3 b5
       -3.304504e-08 4.4881756e-07 9.13132e-09 -1.219872e-06
000230 de 92 df 36 ce 92 87 b2 8c ad 98 36 a0 32 24 38
       6.6630155e-06 -1.5782827e-08 4.5501565e-06 3.9147795e-05
000240 84 7c f7 2f 78 de fe b7 6b 93 48 37 d7 3f a8 af
       4.5017512e-10 -3.0382755e-05 1.1955252e-05 -3.0604383e-10
000250 8a ea 81 b6 24 00 87 b4 be a5 8d ae 1e 62 06 b7
       -3.8718035e-06 -2.5145812e-07 -6.4413794e-11 -8.009867e-06
000260 5e d5 be b8 7e 6f 93 30 e0 8c 68 b4 d4 7a 5e b7
       -9.099649e-05 1.0727346e-09 -2.1657934e-07 -1.3260829e-05
000270 64 13 ab b2 f2 3e 50 b8 a4 05 a7 30 d0 23 97 b7
       -1.9915838e-08 -4.9649687e-05 1.2152452e-09 -1.801728e-05
000280 ed db f5 34 34 40 c4 b7 14 f2 93 b2 f4 ab 02 b4
       4.5794823e-07 -2.3394918e-05 -1.7223137e-08 -1.216975e-07
000290 d3 46 6e 36 f9 7f 46 34 d1 77 3c 2d ec ea 22 36
       3.5505989e-06 1.8486743e-07 1.0713167e-11 2.4276624e-06
0002a0 6f 36 bd ba 4d 72 ab b4 d1 89 a8 28 42 ef 75 2e
       -0.0014435778 -3.1934397e-07 1.8711515e-14 5.5919054e-11
0002b0 ac 6f 61 b4 5f 38 85 37 d7 cd 04 35 30 55 09 2f
       -2.0995384e-07 1.5881085e-05 4.947337e-07 1.2490342e-10
0002c0 c2 83 4b 37 c6 f5 62 32 38 a3 2e b5 30 33 46 37
       1.213042e-05 1.3210814e-08 -6.5057566e-07 1.1813638e-05
0002d0 df ca ab b0 2c df de b5 a0 1f 67 36 04 9d 62 b5
       -1.2499547e-09 -1.660524e-06 3.444009e-06 -8.442005e-07
0002e0 3c 11 8d b5 38 8f 88 af 72 fa e3 30 27 a4 96 a4
       -1.0510335e-06 -2.484002e-10 1.6587605e-09 -6.5330215e-17
0002f0 02 da 2c b3 6f 49 88 33 c2 2f 34 b5 d3 5b 71 b3
       -4.0245148e-08 6.346351e-08 -6.712472e-07 -5.61957e-08
000300 27 d9 0f 27 4b 90 f9 34 d8 f5 92 28 ad bc 33 35
       1.9962955e-15 4.648485e-07 1.6315874e-14 6.6957256e-07
000310 14 60 c1 b8 1e ac 37 b0 27 89 6e b4 c4 58 14 b6
       -9.220853e-05 -6.6819605e-10 -2.2215373e-07 -2.2105387e-06
000320 44 bd 7e 34 8a 2e 1c b3 00 6d 3e 2d 09 9f a9 34
       2.3724448e-07 -3.6363907e-08 1.08244524e-11 3.1594416e-07
000330 7c 6c b4 37 a4 86 3b a5 d0 9e 64 b5 3b 78 27 b8
       2.150819e-05 -1.6265283e-16 -8.516772e-07 -3.9927876e-05
000340 90 bd 9c 36 78 35 29 37 60 d3 88 33 30 f0 6c b7
       4.6712303e-06 1.0085634e-05 6.3714424e-08 -1.4122619e-05
000350 99 a6 d0 38 36 16 93 b8 6b 54 9f 2a 61 2f ee ab
       9.949244e-05 -7.013643e-05 2.830265e-13 -1.6924067e-12
000360 23 e0 20 b6 66 50 54 36 4e f1 a6 33 79 62 9c 36
       -2.3972323e-06 3.163726e-06 7.7738704e-08 4.660626e-06
000370 fb f2 ac a6 fe 16 50 b2 4b c3 25 33 f6 4f c4 b4
       -1.2000758e-15 -1.2112421e-08 3.8594674e-08 -3.6566024e-07
000380 6d 0d 0d b8 4a b7 a6 32 d9 76 98 37 e9 af 40 33
       -3.3629523e-05 1.9408294e-08 1.8175155e-05 4.4863473e-08
000390 90 ae 1f 34 df 31 70 38 4a 8e 14 bb 4e 00 02 b2
       1.4871534e-07 5.7266905e-05 -0.0022667819 -7.567065e-09
0003a0 22 51 2d b4 b3 4e 16 b5 20 9e 92 38 4c 15 75 b6
       -1.6141396e-07 -5.5993877e-07 6.9912756e-05 -3.6520241e-06
0003b0 7a 7c 00 2e fa 5a 69 2d cc 1d da 34 7a a2 8b b7
       2.9214388e-11 1.32647174e-11 4.0627344e-07 -1.664575e-05
0003c0 ac 3d bf b1 80 62 ab af 47 ab 18 ad 7a fd 14 b7
       -5.565843e-09 -3.1174707e-10 -8.678231e-12 -8.8805045e-06
0003d0 02 0f a1 38 75 94 03 b6 83 ea e1 b7 9c 9a ac b5
       7.679874e-05 -1.9606935e-06 -2.6931293e-05 -1.2859996e-06
0003e0 f4 60 19 37 63 cd 63 38 d3 e6 24 37 36 f1 d4 38
       9.142084e-06 5.43123e-05 9.828905e-06 0.00010153877
0003f0 fe 1d 08 ae b8 59 84 32 40 c4 13 b1 30 69 38 35
       -3.094946e-11 1.5407622e-08 -2.150287e-09 6.869841e-07

fc2.bias f4 [256]
000000 0f 0f 5a 38 d8 b6 12 3a d0 0f 3f 36 5c b7 8e 28
       5.1989275e-05 0.0005596704 2.8470422e-06 1.5844686e-14
000010 e8 e1 63 3a 44 3f ca 2b e0 65 65 35 24 f9 0f ba
       0.00086930254 1.4370523e-12 8.5457395e-07 -0.0005492142
000020 60 ab 46 b8 cf c9 2f b7 9a 0f fe b9 4b 54 e1 b5
       -4.7366484e-05 -1.04778e-05 -0.0004845828 -1.6788339e-06
000030 2c 04 b9 36 1b 67 cb b6 59 ff fb 37 de 1d 72 bb
       5.5139153e-06 -6.0618745e-06 3.0040437e-05 -0.0036944072
000040 cf 99 1d bb d3 75 c2 ba 87 6f 69 b7 c7 13 07 3a
       -0.0024047976 -0.001483614 -1.3913849e-05 0.00051527884
000050 09 d0 5f ba 5a 6f ab b6 36 85 6b 39 b0 27 97 30
       -0.00085377746 -5.10916e-06 0.00022460971 1.0997976e-09
000060 bc da 7b bb 12 c4 14 ba 08 6a ff b7 96 e6 e6 29
       -0.0038429936 -0.00056749687 -3.0447743e-05 1.0254052e-13
000070 1c 52 ee 36 4b 00 80 3b 00 4a 86 2d 92 0c cf 39
       7.1025115e-06 0.003906285 1.5266899e-11 0.00039491482
000080 26 7d 9f bb 34 36 a8 38 2a 3b 43 b9 fc 17 2c b4
       -0.004867214 8.0209604e-05 -0.0001861869 -1.6027474e-07
000090 a7 2b e4 3a ae 97 44 3a 08 a6 40 aa 79 b1 ff b7
       0.0017408029 0.00074994087 -1.7110629e-13 -3.0481011e-05
0000a0 4e d4 08 b7 e4 10 62 35 69 51 1e b5 28 f4 21 bb
       -8.155663e-06 8.421614e-07 -5.8978054e-07 -0.002471218
0000b0 42 5c 31 39 5c 6b c7 36 3e 4f 1d b6 16 57 a2 bb
       0.00016914404 5.9431604e-06 -2.3440948e-06 -0.004954229
0000c0 70 89 c6 b7 85 bd 78 ba cb ab 6e 3a 0e c9 1b 3b
       -2.3667439e-05 -0.000948869 0.00091045786 0.002377096
0000d0 61 cc a8 b4 f5 e2 5d b2 81 89 e8 39 08 54 e0 37
       -3.1441144e-07 -1.2915497e-08 0.00044352937 2.6742011e-05
0000e0 c3 df 8a b9 e7 e5 c2 2b 77 0e 0e b5 c0 5c 17 37
       -0.00026488127 1.384834e-12 -5.292017e-07 9.021896e-06
0000f0 16 4d 3b b6 72 e4 01 b1 80 00 b4 ba bc a6 3e 3a
       -2.7910041e-06 -1.8901827e-09 -0.0013733059 0.000727277
000100 a5 d8 39 3c 17 43 dc b8 5f b1 4b 35 5a d0 22 3b
       0.011343156 -0.00010502914 7.58815e-07 0.0024843425
000110 35 71 e1 b9 e4 36 0a 3f 87 70 23 bb 00 75 3c 39
       -0.0004299969 0.53990006 -0.0024938898 0.00017972663
000120 aa e0 5d b9 28 0b 2b 37 4f f5 10 b8 ea 1e 72 38
       -0.00021159896 1.0194992e-05 -3.4560737e-05 5.7726087e-05
000130 a7 96 c1 bb b3 94 15 36 70 2c 8b 37 9a 4b ef 39
       -0.0059078517 2.2289285e-06 1.6590784e-05 0.0004564196
000140 c7 52 b0 37 da 41 94 b9 12 26 f7 36 52 5c 30 3a
       2.1019381e-05 -0.00028277823 7.3656056e-06 0.0006727624
000150 58 e3 13 bc af 95 8c 39 f6 40 c4 b8 cc 62 60 3b
       -0.009026371 0.00026814404 -9.358108e-05 0.0034238575
000160 f5 20 ad b8 2b 85 55 3b e6 bc f4 b9 80 f1 3a 3f
       -8.2554216e-05 0.0032580595 -0.00046680047 0.7302475
000170 57 85 ba b9 a6 5d 94 33 79 e3 c6 38 c7 67 49 b8
       -0.0003557603 6.9088216e-08 9.483746e-05 -4.8018785e-05
000180 09 c8 9c b8 2e da a7 b5 d6 25 ee b3 f4 09 d9 39
       -7.475919e-05 -1.2505968e-06 -1.1089621e-07 0.0004139688
000190 e1 e0 8e 3a a6 85 78 39 5c b9 6b b7 e7 06 b3 b9
       0.0010900759 0.00023700911 -1.4050249e-05 -0.00034146683
0001a0 6d b9 32 b8 0f e5 33 36 40 31 5d bb 2f 3c f5 39
       -4.26112e-05 2.6806408e-06 -0.003375128 0.00046774882
0001b0 7b e5 3a b8 fd a4 5c ba ad 84 e7 38 f0 89 e0 b2
       -4.4559576e-05 -0.0008416919 0.00011039651 -2.6139759e-08
0001c0 36 e2 72 b9 40 6c 66 3b 56 7e 2a b4 65 32 74 2f
       -0.00023163189 0.0035159737 -1.5878445e-07 2.2209574e-10
0001d0 6b 5e 04 37 e9 75 cc 3a 1d 4e 81 b3 77 f4 6d 37
       7.8897965e-06 0.0015599105 -6.021239e-08 1.418322e-05
0001e0 2d 68 e8 ba 03 a0 6d 3a 7c 48 4c ba ff 5f e0 39
       -0.0017731242 0.0009064676 -0.00077927834 0.00042796132
0001f0 97 15 76 3b ec 33 dd 3a 0f b4 e5 3b 73 21 b9 38
       0.003754949 0.0016876436 0.00700999 8.827718e-05
000200 ba 00 c1 3a 21 12 12 ba c8 23 ba 39 c9 4a 19 39
       0.0014724948 -0.00055721594 0.00035503344 0.00014619077
000210 28 b9 33 3a 34 bb 4d 37 1a bb a3 b9 62 5b 01 3b
       0.00068558985 1.2262539e-05 -0.00031229184 0.0019738306
000220 60 15 e3 36 f1 d5 3e 3a 0f 45 31 bc b4 a9 bc 3b
       6.7676156e-06 0.00072798046 -0.0108196875 0.005757535
000230 58 02 05 3a 04 2e 1c af 0d 9f 16 39 7f eb 62 3f
       0.00050738966 -1.4204465e-10 0.00014364366 0.8864059
000240 7a 59 3c 37 3a 83 e3 b9 33 f2 87 35 06 62 e3 ac
       1.1226506e-05 -0.00043394585 1.0128773e-06 -6.462611e-12
000250 3e 85 bd bc 46 8a 01 35 38 ce e8 38 84 46 f7 37
       -0.023134824 4.825746e-07 0.00011101033 2.9477531e-05
000260 50 e5 05 b6 7e 7f ca 3a d6 e1 96 b7 fb 32 31 34
       -1.9952022e-06 0.0015449373 -1.7986556e-05 1.6502956e-07
000270 54 d5 df 39 2b 94 33 ba 1a 41 88 bb cf 8a 8c 38
       0.00042692816 -0.0006850387 -0.0041581513 6.701575e-05
000280 dd f4 40 b6 f7 6c f3 3a f8 a6 cc 39 17 3f 6d 38
       -2.8752759e-06 0.0018571903 0.00039034314 5.656396e-05
000290 e7 0a 0d ba 39 27 48 ba 5b 43 01 3a 34 d7 9a b9
       -0.0005380348 -0.0007635239 0.0004930996 -0.00029533508
0002a0 28 8e 38 39 f2 2c 1d b9 e0 0d 59 bb 0a 03 04 39
       0.00017600565 -0.0001498943 -0.0033119842 0.00012589633
0002b0 56 1f 2d 3b 8e 02 28 3b 6a 91 39 ba 61 29 e4 ba
       0.0026416383 0.0025636288 -0.00070788583 -0.0017407351
0002c0 e2 63 26 bb 5a 3c 76 ba 1e 47 11 36 cf 2e 9a 39
       -0.0025389125 -0.00093931484 2.164808e-06 0.00029408044
0002d0 dc ac 6b 35 38 1b 62 39 7d 29 df b9 7b 77 7f ba
       8.7795866e-07 0.0002156318 -0.00042564786 -0.0009745282
0002e0 82 bb 05 b6 88 48 05 b7 98 30 c3 39 82 c7 e1 37
       -1.9927688e-06 -7.944305e-06 0.00037229504 2.6914993e-05
0002f0 35 49 d8 3e d0 14 68 b8 32 f9 92 b9 20 50 5c b8
       0.42243353 -5.5332494e-05 -0.00028032955 -5.252671e-05
000300 1f e9 a9 bb 4f 6e 37 30 0a 47 ea b5 71 82 d7 2b
       -0.005185261 6.673177e-10 -1.7455034e-06 1.5312874e-12
000310 b1 d4 84 3a a4 d0 2b 3c 40 6d 59 39 31 b9 26 38
       0.0010134188 0.0104867555 0.00020735431 3.9749957e-05
000320 4a 1d d9 39 c6 71 f2 39 29 96 13 b7 0b dd b5 bb
       0.00041411287 0.00046242605 -8.796845e-06 -0.005550032
000330 b6 37 b7 b8 ff 4d 96 b9 6a 59 c6 b0 b0 89 b8 37
       -8.736497e-05 -0.0002866834 -1.4431809e-09 2.1998625e-05
000340 3f f9 47 ba 5c 89 4e 37 69 a2 e3 b7 7f 90 b2 b7
       -0.0007628388 1.2310538e-05 -2.7136137e-05 -2.128654e-05
000350 57 f0 b5 b5 8b 25 83 b9 61 a1 2a b9 08 2c 9c 38
       -1.3555499e-06 -0.0002501424 -0.00016272582 7.446861e-05
000360 6b e4 03 38 3e f1 40 b9 d4 ed b1 39 05 f7 d5 bd
       3.1445565e-05 -0.00018400417 0.00033937267 -0.10447506
000370 2d 92 5c ba 46 5f ff b7 0b d3 7a b5 d9 f4 5f 39
       -0.0008414116 -3.0442734e-05 -9.3439365e-07 0.0002135815
000380 d8 de 1a 3a 0a 1a c0 b9 2f 25 0a 3f c0 cf 69 3a
       0.000590784 -0.00036640494 0.5396299 0.0008919202
000390 1e e1 2f 37 ae 3b ad 39 7c 4b 6c b6 d3 d4 14 b8
       1.0483227e-05 0.00033041596 -3.5210678e-06 -3.5484158e-05
0003a0 52 bb 0c ba 50 71 42 33 ac a4 8c b8 02 5d 06 b6
       -0.0005368489 4.5272202e-08 -6.706393e-05 -2.0021694e-06
0003b0 fc 88 15 37 38 d2 0f b4 68 34 b9 b8 51 4c f9 37
       8.912986e-06 -1.339439e-07 -8.831249e-05 2.971865e-05
0003c0 99 e4 20 32 3e 17 02 3a 8b 3c e2 b8 30 75 21 b8
       9.365203e-09 0.000496257 -0.00010787797 -3.849453e-05
0003d0 ad 94 07 b8 44 39 ac b9 f3 07 bd 3a 23 6e 2a ba
       -3.2324973e-05 -0.00032849063 0.0014421925 -0.0006501397
0003e0 a8 38 33 37 4f bb 3d 3b a7 b9 c1 2f ec ef 66 39
       1.0682423e-05 0.0028950756 3.523841e-10 0.00022023887
0003f0 2f 4a 51 b6 74 e1 ed b9 86 c1 b6 38 4d 97 74 bc
       -3.1186607e-06 -0.00045372138 8.714483e-05 -0.014928651

fc3.weight f4 [256, 256]
000000 e5 e5 56 b6 1b 5b 0b bc ae 13 23 b7 f8 63 fe 22
       -3.2022301e-06 -0.008505608 -9.720139e-06 6.8952684e-18
000010 a7 84 d9 b9 d5 3a 5c 11 b2 1c ed 35 6f 10 90 39
       -0.000414883 1.7373069e-28 1.7666227e-06 0.00027478064
000020 05 d3 44 39 0a 64 52 36 24 2d 9f 3a 00 74 f3 34
       0.00018770628 3.135067e-06 0.001214419 4.5346678e-07
000030 5f b7 ec 37 f6 d9 14 33 84 98 1b 31 45 02 ba 3a
       2.8218781e-05 3.465717e-08 2.2642164e-09 0.001419135
000040 a7 9c c3 ba 55 7a 0d b9 80 88 7c b9 17 5d 74 ba
       -0.0014924005 -0.0001349238 -0.00024083443 -0.0009321733
000050 e8 91 94 39 e9 cb 77 b9 cc bd 06 3b 89 17 89 ad
       0.00028337468 -0.00023631718 0.0020559905 -1.5585548e-11
000060 f8 b1 85 ba 89 e5 42 bc 91 ef 1f 37 5c cd 0d 22
       -0.0010200134 -0.011895546 9.532917e-06 1.921778e-18
000070 76 91 03 b9 04 96 e5 ba 78 3d e1 2a e6 0c 3c bc
       -0.00012547322 -0.0017516022 4.0010681e-13 -0.011477685
000080 04 5f 76 b7 8a b6 1f b8 63 15 2a 33 fd 97 53 31
       -1.4684865e-05 -3.8078557e-05 3.960066e-08 3.0790936e-09
000090 dc 72 ff b9 97 11 16 37 8d ed bf a4 b1 14 38 b3
       -0.00048722967 8.944792e-06 -8.323547e-17 -4.2859657e-08
0000a0 88 74 c6 b9 a2 85 d9 36 10 c6 ba 35 71 6c 11 b9
       -0.00037852325 6.482661e-06 1.3915724e-06 -0.00013868675
0000b0 6c 98 ab ba 58 d0 9a b4 5c c9 a3 36 ca d4 02 38
       -0.001309169 -2.8836325e-07 4.88122e-06 3.119259e-05
0000c0 26 fe 8f b5 dc 2f ee ba c5 46 89 38 24 dc ab ba
       -1.0728297e-06 -0.0018172222 6.545851e-05 -0.0013111872
0000d0 98 91 6f 36 a7 52 05 b4 4b 86 a6 ba 93 b0 24 ba
       3.5698522e-06 -1.2416659e-07 -0.0012704817 -0.0006282415
0000e0 b0 db 9b bb 24 cc 98 a0 d7 0b e6 b5 0a f1 06 3a
       -0.0047564134 -2.588489e-19 -1.7139781e-06 0.0005147612
0000f0 d5 3c dd 37 67 f8 11 2d 65 03 b3 b7 4a a9 14 bc
       2.637358e-05 8.297452e-12 -2.1340044e-05 -0.009073565
000100 65 33 1b 3b 0d c9 a2 b4 b4 2e 4e b5 1c f3 08 3b
       0.0023681757 -3.0321135e-07 -7.680894e-07 0.0020896858
000110 c2 c7 52 35 6d 2b 06 3e 6f c3 8e 38 6f 60 5a bb
       7.852178e-07 0.13102503 6.80749e-05 -0.003332164
000120 7f 12 2e bc 42 b3 60 b3 7d 12 64 bb 12 de 98 39
       -0.010624527 -5.2317098e-08 -0.003480106 0.00029157154
000130 f4 87 67 38 7d b0 9a 36 73 ea 5e 38 58 95 47 3b
       5.5201308e-05 4.6101036e-06 5.3147272e-05 0.0030454006
000140 98 94 b1 b3 a2 b4 22 b9 40 83 0b 31 9b 46 d2 3b
       -8.269234e-08 -0.00015516815 2.030177e-09 0.0064171082
000150 fd a3 0b 3b 67 ce 4f b4 4f fe 60 3a a0 ae 04 3d
       0.0021307461 -1.9353466e-07 0.0008582817 0.032393098
000160 90 04 b2 ba 02 36 93 3b f0 9a 43 3a d3 bf 72 3e
       -0.0013581682 0.004492522 0.0007461747 0.23705988
000170 41 b8 95 39 46 ef ab 30 31 1c 05 3a 11 14 5a b4
       0.00028556774 1.2509893e-09 0.0005077748 -2.0310132e-07
000180 84 35 dc 39 5a f0 ef b2 c5 1b 9d 38 9c a6 2f bc
       0.00042001542 -2.7932561e-08 7.491516e-05 -0.010720875
000190 91 77 47 bb 8a 4f 85 ba 49 33 e9 b6 06 2a e3 b5
       -0.0030436257 -0.0010170799 -6.9499115e-06 -1.6925048e-06
0001a0 73 b2 05 30 4c f4 5c ae f7 b7 aa b9 9c 03 79 b8
       4.863871e-10 -5.0239188e-11 -0.0003256199 -5.9369588e-05
0001b0 7a dc 26 39 e0 ba 33 bc 50 3b ae 38 fc 3c 05 b3
       0.00015913128 -0.010969847 8.3080144e-05 -3.102194e-08
0001c0 8e 4d bf 35 11 02 86 ba 58 87 7d 35 9c 2b b9 2e
       1.425318e-06 -0.0010224005 9.4446796e-07 8.4205726e-11
0001d0 ba 8d 5f 37 9d b8 31 3b fe 57 08 38 37 b4 88 b9
       1.3324834e-05 0.0027118095 3.2506876e-05 -0.00026074212
0001e0 7a 15 42 34 7e 75 24 3b e7 e7 17 bc 71 22 0d 39
       1.8075471e-07 0.0025094445 -0.009271598 0.00013459638
0001f0 72 77 72 3a 13 75 9c 3a d0 ed 19 3c 8d d7 82 b7
       0.0009249366 0.0011936746 0.009395078 -1.5597581e-05
000200 0a 47 35 bb ba 0c af 1b ae fc 15 bc 66 b2 cb 3c
       -0.002766075 2.8959546e-22 -0.009154482 0.02486534
000210 e6 94 8b bb 9b e6 a9 3b a4 b3 ad 38 8d 97 6d 38
       -0.0042596934 0.005184961 8.2827435e-05 5.6646346e-05
000220 4f 52 2c b2 62 d9 af ba 5c 77 9f 37 c3 99 a9 38
       -1.00304325e-08 -0.0013416226 1.9009858e-05 8.087188e-05
000230 2b 79 fb b6 ed bd 12 af 00 5b 73 37 2f 2e 00 b6
       -7.4944887e-06 -1.3346098e-10 1.4505116e-05 -1.9100369e-06
000240 a4 b4 ee 36 f7 7c b8 3b ae 4e 8b 34 b4 5a 38 2f
       7.113982e-06 0.0056301313 2.5948015e-07 1.6766927e-10
000250 8e 38 03 3a 96 d4 0b b1 14 33 7a bb 76 21 7b b9
       0.0005005681 -2.0348003e-09 -0.0038177418 -0.0002394969
000260 d3 c7 c6 b8 b2 ac 19 bb c6 19 63 3a 91 e6 e8 b2
       -9.478596e-05 -0.0023448882 0.00086632033 -2.7113204e-08
000270 19 54 f3 ba 21 7c 06 bc 1f 19 de 3b 17 f8 55 38
       -0.0018564492 -0.008208306 0.006777897 5.101421e-05
000280 04 f7 3a 36 4d de e4 ba 14 c0 a2 bb a8 7b c4 36
       2.7859942e-06 -0.001746127 -0.004966745 5.8556507e-06
000290 4f dc f6 39 b7 2a 8b bb e2 c8 1a 3c 48 57 d9 38
       0.0004708492 -0.0042470354 0.009447308 0.00010363624
0002a0 dc 41 26 b6 d2 08 9a 39 50 b7 8c 3a 42 c0 2c bc
       -2.4774263e-06 0.0002937974 0.0010735784 -0.010543885
0002b0 50 50 54 b5 b3 7e 14 3b e6 0f b5 3b a2 3f 3c ba
       -7.9093024e-07 0.0022658526 0.005525577 -0.0007181113
0002c0 9d fc 14 3a 20 6a 51 38 da 10 a5 36 56 76 d9 bb
       0.0005683394 4.992832e-05 4.919345e-06 -0.006636421
0002d0 96 54 8a b3 fd 45 12 bc 06 37 7b 38 3a 79 d8 bb
       -6.441512e-08 -0.008927819 5.9894308e-05 -0.006606248
0002e0 6b 99 8c 34 66 ca 8a 31 ef 45 3b bc 28 82 0b 33
       2.6188658e-07 4.0393386e-09 -0.011430248 3.2481836e-08
0002f0 d1 a4 01 3e 61 a1 5a b2 80 35 9d 35 69 14 a6 b9
       0.12660529 -1.2725963e-08 1.1712982e-06 -0.00031677194
000300 92 cc 79 39 f0 49 e5 34 52 eb a8 31 3a fc 0c 28
       0.00023822699 4.270837e-07 4.9161963e-09 7.826254e-15
000310 f0 60 00 ba 74 0c c9 38 04 b4 2b bb 8b 73 d9 36
       -0.00048972573 9.5867465e-05 -0.0026199827 6.480555e-06
000320 90 7a 20 3b 5a 7b ca 3b f8 1e 7c 35 2a 4a 80 3a
       0.0024487115 0.0061792554 9.392238e-07 0.0009787728
000330 34 64 3b 39 3d ed 25 3d d4 72 c7 b0 2d 1d 8c 36
       0.00017871038 0.04050945 -1.4511792e-09 4.1757216e-06
000340 bb bd 1d 39 18 9b 44 b8 b5 74 2b 37 b5 88 16 33
       0.00015043367 -4.6874484e-05 1.0219567e-05 3.504893e-08
000350 6e 89 20 32 f0 07 db 35 b4 3c 16 3a b6 63 4b b8
       9.344474e-09 1.6319082e-06 0.00057310914 -4.8491835e-05
000360 e6 a1 42 b6 c2 19 93 ba da ed a0 b9 44 fd eb 34
       -2.900249e-06 -0.0011222886 -0.0003069479 4.3956436e-07
000370 0f be 52 b8 a9 f5 0a 34 f6 b6 bb 3a df bf 8d 39
       -5.0244907e-05 1.2941622e-07 0.0014321494 0.0002703657
000380 76 0b a1 bb 8c 24 08 bb 98 f1 29 3e 4c a5 29 3b
       -0.0049146963 -0.0020773737 0.16596067 0.0025885878
000390 8b e7 1c 3a 05 e1 1a 3c 34 0c 8a b2 8e 0c 39 ba
       0.00059854303 0.009453063 -1.6070864e-08 -0.0007059061
0003a0 d9 93 9c b8 74 c2 3a b7 29 6b 6c 32 e0 66 df 38
       -7.4661984e-05 -1.1131739e-05 1.3761373e-08 0.000106526306
0003b0 95 81 81 32 15 b8 71 37 fa ee e8 b3 c5 e3 0a b4
       1.5076504e-08 1.4407579e-05 -1.08468114e-07 -1.2935114e-07
0003c0 02 35 4f 2f c9 eb 2e 3a a0 88 38 3b 6c c8 99 bb
       1.8845372e-10 0.0006672708 0.0028157607 -0.0046930816
0003d0 12 f0 4d b4 04 4f c9 33 bb 04 10 37 c5 8d 44 bb
       -1.917945e-07 9.374165e-08 8.58417e-06 -0.0029991728
0003e0 74 0f 38 35 f6 fe a5 30 f4 04 1a 2b 38 64 cf 3b
       6.856783e-07 1.2077794e-09 5.4718664e-13 0.0063290857
0003f0 21 cc 03 39 54 f7 42 3a 44 dc 56 b9 27 5c 5f 3c
       0.00012569177 0.00074373675 -0.00020490686 0.013632811

fc3.bias f4 [256]
000000 4e af d2 39 f8 a9 80 b2 82 42 3c 3a ab 21 c7 b8
       0.00040184933 -1.4978454e-08 0.00071815413 -9.4953306e-05
000010 90 60 e8 37 e8 4b b4 b2 73 05 ec 38 49 90 75 b7
       2.770152e-05 -2.0989276e-08 0.00011254372 -1.4636732e-05
000020 9e f4 db 37 9c 5f 95 37 7b c5 16 b9 27 d5 3e b5
       2.6220743e-05 1.7806706e-05 -0.00014378682 -7.1090693e-07
000030 df cb 23 3c b0 9c 38 b8 34 f0 7f b7 88 2d 50 39
       0.009997337 -4.4014945e-05 -1.5255111e-05 0.00019853387
000040 9a f3 33 35 aa d5 29 b9 92 4e c7 b5 04 d6 45 b3
       6.7037183e-07 -0.00016196692 -1.4849522e-06 -4.6062283e-08
000050 98 95 74 b7 cd 7f 10 a5 f4 13 9d 35 6b 44 6f 3d
       -1.4578363e-05 -1.253331e-16 1.1703219e-06 0.058414858
000060 d4 4e b9 2f a8 46 c9 3c 07 8a 97 30 18 66 03 b1
       3.3707315e-10 0.024569824 1.1025926e-09 -1.9121043e-09
000070 49 ca 3f 2f e7 80 53 b2 64 2d 33 39 ad 8c 1a 9e
       1.7443215e-10 -1.23111255e-08 0.0001708768 -8.181783e-21
000080 91 68 0f 38 05 a1 cd b5 7e b7 36 b3 07 be e1 32
       3.4191242e-05 -1.5320553e-06 -4.2542062e-08 2.6279862e-08
000090 3c 56 1f 2e ef 91 e3 37 78 45 14 36 fe 52 89 38
       3.6229006e-11 2.7128464e-05 2.2094155e-06 6.5481276e-05
0000a0 3b 0b da 2c 65 f2 3e b3 83 f0 4b 39 3e 13 b9 35
       6.1971795e-12 -4.445828e-08 0.00019449186 1.3789174e-06
0000b0 4e 88 c8 b9 74 25 d0 32 db 40 68 ba 19 bb 8a 37
       -0.00038248528 2.4231419e-08 -0.0008859762 1.6538006e-05
0000c0 48 6a b6 b9 4b aa 1c 35 18 ba c0 15 6e ee 1b 3b
       -0.0003479293 5.836234e-07 7.7841787e-26 0.0023793238
0000d0 a2 fe e2 b3 58 72 27 b2 5f 7e 0f ba 58 ae 57 b2
       -1.05702625e-07 -9.746678e-09 -0.0005473848 -1.2554288e-08
0000e0 40 4f dd 38 5c b8 6f 39 3f 47 0a 30 56 0f 74 b7
       0.00010552863 0.00022861495 5.0305354e-10 -1.4547104e-05
0000f0 5e 59 76 b2 af bf c9 3e 61 dc 30 33 85 4d 47 b3
       -1.4339404e-08 0.39404055 4.1178627e-08 -4.64038e-08
000100 5b af 67 b3 96 cf 01 80 59 64 90 97 b8 6a ee b6
       -5.3943364e-08 -1.66303e-40 -9.331113e-25 -7.1053764e-06
000110 38 f1 10 b7 3e 30 30 38 c6 e0 10 37 c0 bc 77 af
       -8.639232e-06 4.20066e-05 8.635403e-06 -2.2531577e-10
000120 b0 0f 33 36 81 6a bc b0 98 de 87 38 66 79 2e ba
       2.668221e-06 -1.370907e-09 6.478763e-05 -0.0006655663
000130 84 0f b2 39 a8 fb 5e ba ca 92 60 35 a9 4e 55 b5
       0.00033962366 -0.00085061276 8.366011e-07 -7.946315e-07
000140 c5 aa a4 39 06 02 9a 3a ee 5e 6c 34 91 eb 7b b1
       0.0003140775 0.0011749871 2.2013748e-07 -3.6659211e-09
000150 d2 5d b4 33 4e 5a cd 37 d4 cd 98 32 da 50 ff b9
       8.398969e-08 2.4479956e-05 1.7788729e-08 -0.0004869763
000160 d5 c5 23 35 8c 42 fd a4 1e f0 bc b6 95 c9 05 aa
       6.1010115e-07 -1.09833995e-16 -5.63079e-06 -1.1882711e-13
000170 07 aa f6 37 0a 64 ba 35 9c e8 d0 b1 5b a2 ec 37
       2.940466e-05 1.3887195e-06 -6.0800414e-09 2.8208995e-05
000180 91 ac 01 bb b3 37 f8 3b 61 10 c7 2e b4 53 08 3d
       -0.0019786695 0.0075749992 9.052382e-11 0.03328295
000190 36 88 fd bb c1 58 92 a9 60 c2 10 b0 42 ce 34 3b
       -0.007737185 -6.499099e-14 -5.266312e-10 0.002758876
0001a0 17 8d 34 ba 1c c3 53 37 38 07 00 ba 4e a9 0b 34
       -0.0006887479 1.26220075e-05 -0.0004883888 1.3006976e-07
0001b0 37 1f 13 b4 ee 1d 3a af 60 57 d7 2b 17 03 47 37
       -1.3701798e-07 -1.6927235e-10 1.530092e-12 1.1862044e-05
0001c0 60 f6 dc 34 24 61 63 36 a4 b7 4d 37 02 c1 2b 35
       4.1157455e-07 3.388218e-06 1.2261709e-05 6.398333e-07
0001d0 a0 8b 4b 37 f5 08 22 33 ff 0b f1 b1 b1 94 aa b6
       1.2132252e-05 3.772671e-08 -7.015387e-09 -5.0837048e-06
0001e0 34 0c 1d 38 da 7d 71 39 7c 25 48 b5 a7 c7 b0 b7
       3.7443082e-05 0.00023030434 -7.4560353e-07 -2.1073805e-05
0001f0 74 08 79 35 93 4a d4 ba fc 7d 26 32 b3 de bc ba
       9.277203e-07 -0.0016196541 9.691117e-09 -0.0014409631
000200 19 f5 a2 30 d3 58 ad 39 c0 e3 37 b7 fe 01 d7 b5
       1.1856712e-09 0.0003306331 -1.0960677e-05 -1.6019328e-06
000210 4d e3 a1 3c 87 55 a3 ab 8d 61 64 b4 50 b2 22 3e
       0.019761706 -1.1605585e-12 -2.1269643e-07 0.15888333
000220 d8 a6 af 3a 04 eb 1c 35 ba 1c 01 2b 56 ea 7b b1
       0.0013401164 5.845652e-07 4.586987e-13 -3.6658512e-09
000230 88 db 86 3a 09 ea a2 ba f1 aa 19 37 8c 84 d6 ba
       0.0010288814 -0.0012429367 9.159311e-06 -0.0016366406
000240 4d 37 e7 b6 d3 48 81 bd 8d 7e 0a b6 f8 e7 65 33
       -6.8907743e-06 -0.06312718 -2.0637265e-06 5.352919e-08
000250 48 a9 f2 38 c6 00 96 b8 07 bd 00 30 d1 64 5a b9
       0.0001157099 -7.1527014e-05 4.683475e-10 -0.00020827657
000260 bf bc 2c 34 fa 51 89 b3 39 10 12 35 9e 7f 41 27
       1.6087414e-07 -6.394471e-08 5.4412845e-07 2.6853312e-15
000270 86 c5 2b ba 71 35 05 b4 80 05 60 38 bd de 30 b5
       -0.00065525656 -1.2406032e-07 5.3410884e-05 -6.5889236e-07
000280 5b aa c1 b8 30 72 9f 2f 50 fc 1a 16 0c 24 10 b1
       -9.234688e-05 2.9003067e-10 1.2519637e-25 -2.0975248e-09
000290 21 bc 17 33 76 55 67 b1 6b a4 5c be 30 bf a6 39
       3.532853e-08 -3.3663503e-09 -0.21547095 0.00031804433
0002a0 79 61 1d ba 00 bf 31 b2 62 96 57 15 fb 56 bd 38
       -0.0006003599 -1.0346184e-08 4.3537535e-26 9.028424e-05
0002b0 65 2c 19 b4 c8 39 b0 19 be e2 f6 b0 94 0a 55 34
       -1.4265386e-07 1.8221311e-23 -1.79633e-09 1.9841019e-07
0002c0 03 d0 7a b4 b7 e9 27 b8 9f 37 e7 3a 75 c4 9c 3c
       -2.3358739e-07 -4.0033567e-05 0.0017640478 0.019136647
0002d0 c5 b0 92 b9 68 4c 02 bb 8e 4b 51 39 f6 d7 7e bb
       -0.00027978994 -0.0019881967 0.0001995994 -0.0038886047
0002e0 60 7f ee b4 e1 4b a3 33 b9 a8 92 2e 82 c2 9e 0d
       -4.4423632e-07 7.604081e-08 6.6692825e-11 9.784328e-31
0002f0 b1 d2 21 b8 18 ff a4 31 05 20 07 b7 2b c2 4a be
       -3.8581613e-05 4.802029e-09 -8.054082e-06 -0.19800632
000300 90 06 ca bb 82 90 73 bb 48 a8 64 37 10 a9 b6 b1
       -0.006165333 -0.003716499 1.362904e-05 -5.3161173e-09
000310 6a 7b 95 36 3c be b7 38 28 52 ba 3b bd 19 39 b3
       4.4549133e-06 8.761554e-05 0.0056860633 -4.3097078e-08
000320 02 00 00 80 d8 f1 b8 af e6 e8 91 3b e3 2f ff 3a
       -3e-45 -3.3641245e-10 0.0044528125 0.0019469227
000330 a0 a8 18 39 49 3e 0a 38 3f 7c 11 b2 c0 de ab ae
       0.00014558667 3.295977e-05 -8.468361e-09 -7.815748e-11
000340 9c c6 dd b5 51 23 95 b2 05 16 d4 39 3d 23 bf 31
       -1.6523586e-06 -1.7361943e-08 0.00040452197 5.5628377e-09
000350 76 ec 9b b9 a5 81 b9 b9 36 58 a2 b5 1e 38 a4 37
       -0.0002974008 -0.00035382542 -1.2095613e-06 1.9576455e-05
000360 f7 08 cf 39 be cc 09 38 5a d9 b4 bb 04 bc 69 3b
       0.00039488796 3.2854026e-05 -0.0055190744 0.0035665045
000370 ee 20 80 2f aa ca 16 31 bc a5 50 2d f8 bb d3 34
       2.3306462e-10 2.1943074e-09 1.18602315e-11 3.9438578e-07
000380 f4 ea 0d 9c 05 77 8e 30 4c 18 f7 b5 4c 51 f7 39
       -4.6956656e-22 1.0365687e-09 -1.8410005e-06 0.00047172082
000390 30 c7 57 ba b1 62 f2 34 04 61 aa 3d 79 fc c8 8c
       -0.00082312804 4.514782e-07 0.083192855 -3.096683e-31
0003a0 bf 65 01 80 4c 48 c8 a3 85 eb 9b 35 12 2a dd b4
       -1.28335e-40 -2.1714662e-17 1.1616945e-06 -4.1195068e-07
0003b0 99 1d 21 39 dd 9b 6d 30 cc cc 92 33 49 65 ca 3d
       0.00015365182 8.644159e-10 6.835907e-08 0.098826
0003c0 91 26 74 b4 42 84 aa b9 cc 80 41 a5 82 73 96 bd
       -2.2738301e-07 -0.00032523467 -1.678372e-16 -0.0734625
0003d0 0f 54 08 38 15 17 07 bb 70 3a 79 b5 b7 59 0b b5
       3.2503212e-05 -0.0020613123 -9.2844766e-07 -5.191209e-07
0003e0 d8 4a 54 36 5b a9 2c ba 7f d5 ba b6 53 e4 d9 b1
       3.1634027e-06 -0.0006586515 -5.568086e-06 -6.3414887e-09
0003f0 be 7a 32 37 51 80 97 bd 7d e9 85 2f 6f 79 2c b6
       1.0638205e-05 -0.07397521 2.4358462e-10 -2.570068e-06
