shanghai_road_delivery/results_centralized/centralized_episode_150.pth_centralized_actor.pth (torch, 922090 bytes, 20 tensors)

fc1.weight f4 [256, 364]
0	0xb184f420	-3.8694594e-09
1	0xb2be3af7	-2.2145725e-08
2	0x349671dc	2.802252e-07
3	0x3495f473	2.7931273e-07
4	0x34961a56	2.795884e-07
5	0x349689fc	2.8040074e-07
6	0xb0a543a8	-1.2024559e-09
7	0xb007af5a	-4.9361903e-10
8	0x3b3a3ad0	0.0028416403
9	0xae8f0ece	-6.505517e-11
10	0x35ca3eb9	1.5068428e-06
11	0x33cf8802	9.663928e-08
12	0x33db396c	1.0208427e-07
13	0xb4c30f28	-3.6332608e-07
14	0xb43452a0	-1.6793865e-07
15	0xb52a40f3	-6.342445e-07
16	0xb4ac0e3c	-3.2047853e-07
17	0x2e18741c	3.4663925e-11
18	0x330ff922	3.3521367e-08
19	0x35248bd8	6.129826e-07
20	0xb3945890	-6.9078965e-08
21	0x32a1e460	1.884672e-08
22	0xb385601b	-6.2107766e-08
23	0x35a03c27	1.1938436e-06
24	0xade23b9f	-2.5719702e-11
25	0x343b07f2	1.7418623e-07
26	0xb1141e55	-2.1554076e-09
27	0xb41015b0	-1.3418935e-07
28	0x34d39ef2	3.941746e-07
29	0x2fb22ab0	3.2408343e-10
30	0x345c1f60	2.0500511e-07
31	0xb982a232	-0.00024916377
32	0xb080783f	-9.347402e-10
33	0x2d926ae8	1.6645754e-11
34	0xacaa38c6	-4.8379937e-12
35	0xb51c6492	-5.826088e-07
36	0xb4df85b0	-4.1634257e-07
37	0x349671dc	2.802252e-07
38	0x31146f24	2.160001e-09
39	0x349671dc	2.802252e-07
40	0x364fa3ae	3.0940678e-06
41	0x35179ce0	5.6480167e-07
42	0xb4b5b7bb	-3.384756e-07
43	0xb50629c7	-4.9979684e-07
44	0x36c0b522	5.7431325e-06
45	0xb607dc37	-2.024475e-06
46	0x34ad9756	3.2333872e-07
47	0x34a887b3	3.1391173e-07
48	0xb842c794	-4.6439076e-05
49	0x349671da	2.8022515e-07
50	0xb09a501f	-1.1227747e-09
51	0x349671dc	2.802252e-07
52	0x335401c8	4.9361716e-08
53	0xb261e758	-1.3149325e-08
54	0x349671dc	2.802252e-07
55	0x34965683	2.8002623e-07
56	0x34968214	2.8034322e-07
57	0x3495a682	2.7874563e-07
58	0xb01841f0	-5.539098e-10
59	0xb663a4d0	-3.392157e-06
60	0x3a31bd84	0.0006780254
61	0xa40761d2	-2.9356316e-17
62	0xaca09921	-4.5644742e-12
63	0x33cf87c7	9.6638864e-08
64	0x33ca5dbc	9.423408e-08
65	0xb695899e	-4.456567e-06
66	0xb4343f22	-1.6786774e-07
67	0xb52a47a3	-6.343418e-07
68	0xb4ac0de4	-3.2047603e-07
69	0x32673760	1.34585605e-08
70	0x33144e5d	3.4530206e-08
71	0x35245b87	6.122795e-07
72	0xb3943438	-6.9012856e-08
73	0x328f2968	1.666622e-08
74	0xb3956222	-6.9562034e-08
75	0x33966e08	7.004934e-08
76	0xb38b9443	-6.4996605e-08
77	0x2d09c2f2	7.830835e-12
78	0x346c7acc	2.2023886e-07
79	0xaf1e9b4a	-1.4425186e-10
80	0xb10b5732	-2.0276727e-09
81	0x36b4bced	5.386412e-06
82	0x347125ef	2.2458674e-07
83	0x3625f1cc	2.472766e-06
84	0xafd803d0	-3.929288e-10
85	0x3093e25e	1.0759995e-09
86	0xacab05e9	-4.8607685e-12
87	0xa9ddcec0	-9.850237e-14
88	0xb44d26c0	-1.910621e-07
89	0x349671dc	2.802252e-07
90	0xb193e9d4	-4.3048463e-09
91	0x349671da	2.8022515e-07
92	0x344c55a8	1.9030142e-07
93	0x350bcf56	5.208325e-07
94	0xb49934d3	-2.8536905e-07
95	0xb4d0fc95	-3.8926797e-07
96	0xb62e77f5	-2.5997845e-06
97	0xb60d66e4	-2.1070528e-06
98	0x3509c942	5.1329346e-07
99	0x34eebb22	4.4467112e-07
100	0x31889ce8	3.975959e-09
101	0x3495cad1	2.790098e-07
102	0xafba309d	-3.3867745e-10
103	0x349671dc	2.802252e-07
104	0xb45bf308	-2.0484379e-07
105	0x34060808	1.2482644e-07
106	0x349671df	2.802253e-07
107	0x34973475	2.816411e-07
108	0x3496fb14	2.812236e-07
109	0x34970b27	2.8134056e-07
110	0x388e7f31	6.794779e-05
111	0x346a79c8	2.1837252e-07
112	0xa7168b80	-2.0892305e-15
113	0xb9f1d0ee	-0.00046122767
114	0xb69d0414	-4.6794394e-06
115	0x33cf8801	9.6639276e-08
116	0x33cf4160	9.65108e-08
117	0xb44d50a0	-1.9121444e-07
118	0xb434b73c	-1.6830467e-07
119	0xb52a4794	-6.3434095e-07
120	0xb4ac0dbe	-3.2047495e-07
121	0xb39161a4	-6.7698494e-08
122	0x33098350	3.2017226e-08
123	0x35245283	6.121483e-07
124	0xb3948d50	-6.917492e-08
125	0x378b7087	1.662249e-05
126	0xb3831f43	-6.105849e-08
127	0xb19decde	-4.59623e-09
128	0xb386fe5c	-6.286129e-08
129	0x0000306d	1.7372e-41
130	0x37435e88	1.16449155e-05
131	0xba90f7e4	-0.0011060205
132	0xb10b55f5	-2.0276023e-09
133	0xb443473c	-1.8186705e-07
134	0x34d1642a	3.9002163e-07
135	0x00016192	1.26837e-40
136	0x382d9fac	4.139512e-05
137	0xb0b94a00	-1.3481554e-09
138	0xaca97d16	-4.8171562e-12
139	0xaf2bebf6	-1.563619e-10
140	0xb460b040	-2.0925745e-07
141	0x349671da	2.8022515e-07
142	0x31499eb8	2.933957e-09
143	0x349671da	2.8022515e-07
144	0x362dcee4	2.5899435e-06
145	0x351aa0ba	5.760336e-07
146	0xb498a25a	-2.8430333e-07
147	0xb4888468	-2.5428312e-07
148	0x35c35a3e	1.4554896e-06
149	0xb60c9a9a	-2.0951616e-06
150	0x3508b07f	5.0920784e-07
151	0x356855ac	8.6551404e-07
152	0x36629e8f	3.3768918e-06
153	0x3494337f	2.7604617e-07
154	0xb62e3bb8	-2.5962781e-06
155	0x349671dc	2.802252e-07
156	0x336f495d	5.5713247e-08
157	0xb4702282	-2.2364296e-07
158	0x349671dc	2.802252e-07
159	0x349682f0	2.8034947e-07
160	0x34967e16	2.8031417e-07
161	0x3497d325	2.827957e-07
162	0x354b6817	7.5774864e-07
163	0xaedbf918	-1.0003215e-10
164	0xa74f1a40	-2.874125e-15
165	0x2e2435da	3.7337113e-11
166	0xaabef2b6	-3.3919194e-13
167	0x33cf880c	9.6639354e-08
168	0x33c01ba0	8.945722e-08
169	0x3af23ce9	0.0018481287
170	0xb43471ec	-1.6805251e-07
171	0xb52a3b78	-6.3416473e-07
172	0xb4ac0e3f	-3.2047862e-07
173	0xb9ae0cee	-0.000331975
174	0x33023e27	3.032451e-08
175	0x35245b86	6.1227945e-07
176	0xb3946882	-6.910797e-08
177	0x3ad7e809	0.001647235
178	0xb390fd94	-6.751648e-08
179	0x34014e3f	1.2042527e-07
180	0xb385a4bc	-6.22326e-08
181	0x31833b7c	3.8193644e-09
182	0x2d35f92c	1.0343986e-11
183	0xb3f78d02	-1.1527483e-07
184	0xb0ff2835	-1.8565119e-09
185	0x394d27aa	0.000195651
186	0x34d0f410	3.8920598e-07
187	0x00000a4e	3.697e-42
188	0x3484f0f8	2.4762244e-07
189	0x2c312d2e	2.5178293e-12
190	0xaca9896e	-4.8185267e-12
191	0x2fc37abe	3.5557507e-10
192	0xb4bda740	-3.5325684e-07
193	0x349671dc	2.802252e-07
194	0xb191bf52	-4.241806e-09
195	0x349671da	2.8022515e-07
196	0x3549a135	7.511292e-07
197	0x350d1384	5.255499e-07
198	0xb498a162	-2.8429628e-07
199	0xb4b37de9	-3.343296e-07
200	0x35ac1720	1.2821729e-06
201	0xb605159f	-1.983113e-06
202	0x35020293	4.843252e-07
203	0x3512d957	5.470551e-07
204	0x33f607fa	1.14567186e-07
205	0x349486d2	2.7665243e-07
206	0xba2fde1e	-0.0006708818
207	0x349671dc	2.802252e-07
208	0x3329968e	3.9485307e-08
209	0xb149634d	-2.9305796e-09
210	0x349671dd	2.8022524e-07
211	0x3496a380	2.805864e-07
212	0x3496a5f3	2.806042e-07
213	0x3495b652	2.7886068e-07
214	0xb3372cba	-4.2648686e-08
215	0x32764250	1.4334162e-08
216	0x2e0a366a	3.1425897e-11
217	0xadd3b5f0	-2.406872e-11
218	0x3595a8bf	1.1150477e-06
219	0x33cf880a	9.663934e-08
220	0x33da8f38	1.01774674e-07
221	0xb5a5eeb1	-1.2362926e-06
222	0xb4348420	-1.6811873e-07
223	0xb52a4796	-6.3434106e-07
224	0xb4ac0d94	-3.2047376e-07
225	0xae99a0e8	-6.986217e-11
226	0x33065e8a	3.128529e-08
227	0x35248b9f	6.1297936e-07
228	0xb39461cd	-6.909577e-08
229	0xb2c14faa	-2.2504384e-08
230	0xb395355e	-6.9480606e-08
231	0x92cbefb5	-1.2870193e-27
232	0x34053ba0	1.2408282e-07
233	0xb4f0813c	-4.4797514e-07
234	0x326ad9a2	1.3670077e-08
235	0x2f3a2d8f	1.6932787e-10
236	0xb10b5716	-2.0276665e-09
237	0xb5070240	-5.0294693e-07
238	0x34d136de	3.8969205e-07
239	0x3626bfc1	2.4847543e-06
240	0xb2e26a88	-2.6358308e-08
241	0x38eea4e1	0.000113794355
242	0x3604f5b0	1.9812542e-06
243	0x32d913d2	2.5271138e-08
244	0xb4368b90	-1.7000843e-07
245	0x349671da	2.8022515e-07
246	0xb184dbfe	-3.866716e-09
247	0x349671dc	2.802252e-07
248	0x35f4d90b	1.8242584e-06
249	0x350fd8be	5.358705e-07
250	0xb4994449	-2.8548155e-07
251	0xb49f84aa	-2.9712584e-07
252	0xb6231eb4	-2.4306764e-06
253	0xb609d5e3	-2.053909e-06
254	0x35018152	4.824443e-07
255	0x353e7482	7.0950057e-07

fc1.bias f4 [256]
0	0x349671db	2.8022518e-07
1	0x380672ac	3.2054886e-05
2	0x372c44e2	1.0268037e-05
3	0x3415d14f	1.3952852e-07
4	0x30a563ea	1.2033727e-09
5	0x37f801a9	2.9564677e-05
6	0xb684a2e1	-3.952868e-06
7	0x3e218c9c	0.15776294
8	0xb26c8c94	-1.3768972e-08
9	0x39d8a778	0.00041323504
10	0x318cb865	4.0954995e-09
11	0x36b2bca8	5.326776e-06
12	0x3c1dd9a6	0.009634411
13	0x34dbcfd9	4.0943158e-07
14	0x37c4ef0e	2.347634e-05
15	0x356622a2	8.5732074e-07
16	0x37c59f3f	2.3558385e-05
17	0x3d84ca27	0.0648387
18	0x3e9a0d03	0.30088052
19	0xb16aef8e	-3.4187653e-09
20	0x356804d4	8.643376e-07
21	0xb5545080	-7.90933e-07
22	0xb3a2b28c	-7.57619e-08
23	0xb3e42f23	-1.06256515e-07
24	0x36c2b460	5.802649e-06
25	0x36c41004	5.8431197e-06
26	0x367cb0d3	3.7653851e-06
27	0xb58bac41	-1.040644e-06
28	0xb539062c	-6.892685e-07
29	0x348ecab6	2.6597053e-07
30	0xb99666d1	-0.00028686834
31	0xb60f5c64	-2.136244e-06
32	0xb41f4841	-1.4834315e-07
33	0xb7e7758c	-2.7592083e-05
34	0x37a6d46b	1.9887657e-05
35	0xb81745af	-3.6066103e-05
36	0x3e941570	0.28922606
37	0x353a7fea	6.947654e-07
38	0x2e3b1465	4.253699e-11
39	0xb21ef740	-9.253029e-09
40	0x357305e8	9.053315e-07
41	0xb5b2d175	-1.3322993e-06
42	0xb5a1d961	-1.20587e-06
43	0x2ba88c94	1.1976136e-12
44	0xb64bd2c1	-3.0372032e-06
45	0x35f0665c	1.7911184e-06
46	0xb1299c5a	-2.4681612e-09
47	0xb5021f52	-4.847435e-07
48	0x362f97a2	2.6165294e-06
49	0xabd4e5d5	-1.5127297e-12
50	0x3888cd55	6.5232314e-05
51	0x33d2a933	9.809664e-08
52	0xb4d754a7	-4.0108463e-07
53	0x38bd6bc4	9.032295e-05
54	0xb6957ef4	-4.4553253e-06
55	0x354d7130	7.653316e-07
56	0xb5b57626	-1.3519937e-06
57	0xac85dfb0	-3.8049217e-12
58	0xb28efdb8	-1.6646354e-08
59	0xb59ba77e	-1.1597147e-06
60	0xb622fda4	-2.428752e-06
61	0xb2f0e694	-2.8044532e-08
62	0x3698a514	4.5491706e-06
63	0xb2f7a0e5	-2.882775e-08
64	0x28993c60	1.7012596e-14
65	0xb38f39c8	-6.669467e-08
66	0xb58f94b0	-1.0697604e-06
67	0x37baf48a	2.22868e-05
68	0xb3814c04	-6.020858e-08
69	0xb1298d76	-2.4673148e-09
70	0x35a14ec4	1.2018359e-06
71	0x378ec900	1.7021317e-05
72	0xb3f6af29	-1.1487129e-07
73	0xb3e47d30	-1.0639849e-07
74	0x3eca4fe8	0.3951409
75	0x33b493fd	8.408822e-08
76	0xb70a24f8	-8.234048e-06
77	0x3c4af663	0.012387845
78	0xb25d915c	-1.2896944e-08
79	0xb2d167bd	-2.4377977e-08
80	0xb6a270a9	-4.8410916e-06
81	0xb488e6de	-2.5499952e-07
82	0xb5d86b83	-1.6124544e-06
83	0xb4ea4974	-4.363934e-07
84	0xb77ead8c	-1.5179987e-05
85	0xb68a38ec	-4.119347e-06
86	0x317109e5	3.507574e-09
87	0xb6792c14	-3.7129548e-06
88	0x3683cf44	3.928233e-06
89	0xb3f2d9a0	-1.1308589e-07
90	0xb4fd45fe	-4.7175848e-07
91	0xb790c215	-1.7256514e-05
92	0x36a81e10	5.01029e-06
93	0xb40f7f75	-1.3364281e-07
94	0xb813f862	-3.5278856e-05
95	0xb41c7449	-1.4570936e-07
96	0x34d025c0	3.8770486e-07
97	0x3809b117	3.2828273e-05
98	0x333220a6	4.1473548e-08
99	0x343811dc	1.7142833e-07
100	0x36084da7	2.0310779e-06
101	0x3645135e	2.936656e-06
102	0x3157ee14	3.142195e-09
103	0x36cd7fc0	6.124348e-06
104	0xb5b83a56	-1.3726046e-06
105	0x38b52b62	8.638833e-05
106	0xb5b87fa8	-1.3746221e-06
107	0x35ef9a08	1.7851717e-06
108	0xb487a9d4	-2.5269276e-07
109	0xb86ac94a	-5.5977413e-05
110	0x348708d4	2.5152133e-07
111	0x2ed0b246	9.4904126e-11
112	0x388a6edd	6.601003e-05
113	0x361e4f37	2.3589944e-06
114	0xace47bdf	-6.493902e-12
115	0x2f0863f1	1.2404634e-10
116	0x37e58d46	2.7364713e-05
117	0xb996250b	-0.0002863783
118	0x32a84afe	1.9591877e-08
119	0xaba87ba7	-1.1971438e-12
120	0x3351f360	4.8882953e-08
121	0xb6687812	-3.4640584e-06
122	0xb817d2d8	-3.619757e-05
123	0x3709dcd4	8.217252e-06
124	0x336436c2	5.313519e-08
125	0xae8e3e93	-6.468528e-11
126	0x2eb49d20	8.213363e-11
127	0x3598082b	1.132726e-06
128	0x38f4bbd4	0.000116698124
129	0x3e3f76b8	0.18697631
130	0x35306f22	6.572683e-07
131	0xb4ba12f8	-3.4659e-07
132	0x35b08adf	1.3153439e-06
133	0xb64d181a	-3.056141e-06
134	0xb71c82b3	-9.328755e-06
135	0xb409c490	-1.2830628e-07
136	0x353354d9	6.6806166e-07
137	0xb5df1b79	-1.662279e-06
138	0x32f8823a	2.893022e-08
139	0x331b931c	3.6222545e-08
140	0x398263b3	0.00024869814
141	0x35be62ef	1.4184897e-06
142	0x397a14a6	0.0002384955
143	0x36098578	2.049228e-06
144	0xb6a4dca1	-4.9132655e-06
145	0xb6cc2b5b	-6.084721e-06
146	0x30ee5f90	1.734394e-09
147	0x3da3be92	0.07995333
148	0x36b46681	5.376351e-06
149	0x31234e58	2.3764155e-09
150	0x32346b5e	1.0501791e-08
151	0x359e3dbc	1.1789884e-06
152	0x34c6ccb4	3.7029315e-07
153	0xb648fad6	-2.9948328e-06
154	0xb65e5966	-3.3132615e-06
155	0xb62a4b1d	-2.5375696e-06
156	0x3734ee2d	1.0784291e-05
157	0xb7e06804	-2.6751317e-05
158	0x31f68488	7.1746094e-09
159	0xb50e191d	-5.2935667e-07
160	0x36c19dfa	5.770239e-06
161	0x364443c4	2.924572e-06
162	0xb6c654f7	-5.910751e-06
163	0x350cb26c	5.24137e-07
164	0x2e3897b2	4.197149e-11
165	0x354bcb0a	7.5918854e-07
166	0x2f87c800	2.4698465e-10
167	0xb5922106	-1.0887459e-06
168	0x2a98a8a1	2.7117634e-13
169	0xb403403d	-1.2223695e-07
170	0xb484d43f	-2.4741345e-07
171	0x3595c070	1.1157372e-06
172	0x35157ba4	5.5686746e-07
173	0x34e666de	4.2915684e-07
174	0x31772f20	3.5970018e-09
175	0x399b4b41	0.00029619972
176	0x333d6b14	4.410238e-08
177	0x3769376c	1.3900786e-05
178	0x3569d650	8.711113e-07
179	0xb6ff6152	-7.610922e-06
180	0xb772054d	-1.4425558e-05
181	0xb38de764	-6.607914e-08
182	0xb2c5d835	-2.3032138e-08
183	0x3169cbb7	3.402176e-09
184	0xb5cfd874	-1.5485698e-06
185	0x31ad5adc	5.045292e-09
186	0xb70216fb	-7.753954e-06
187	0x35925083	1.090128e-06
188	0x37e48e84	2.7246082e-05
189	0xb64714c0	-2.966539e-06
190	0x371e2be3	9.427752e-06
191	0x3613e5ec	2.203854e-06
192	0x3228708e	9.804479e-09
193	0x30adc5cc	1.2643624e-09
194	0xb8a7b147	-7.996201e-05
195	0xb7f34f9a	-2.9004925e-05
196	0xb088177a	-9.901975e-10
197	0xb69625ab	-4.4747335e-06
198	0xb2e134cd	-2.6217458e-08
199	0xb6df6916	-6.6581515e-06
200	0xb6245e9d	-2.4492977e-06
201	0x34c76b2c	3.7144616e-07
202	0xb30c87e0	-3.2719868e-08
203	0x3d56f598	0.05248031
204	0x38933514	7.019393e-05
205	0xb3160d57	-3.493673e-08
206	0x35bde41e	1.4147988e-06
207	0xb47efde0	-2.3747953e-07
208	0x3366dc4e	5.3751414e-08
209	0x36042ce6	1.9695667e-06
210	0xb80ed1d0	-3.405084e-05
211	0xb7385726	-1.09875455e-05
212	0xb379b014	-5.8134972e-08
213	0x3244e9e0	1.1461879e-08
214	0xb674ab8e	-3.6458691e-06
215	0x38f4a5e1	0.00011665724
216	0x3558351a	8.0543543e-07
217	0x359ed390	1.183349e-06
218	0xb0a51d5c	-1.2013674e-09
219	0x34404560	1.7906632e-07
220	0x312c8760	2.5106246e-09
221	0x34d02eaa	3.8776972e-07
222	0x34ca84ea	3.772214e-07
223	0x36762f87	3.668452e-06
224	0xba175e78	-0.000577427
225	0x2e7238b6	5.50748e-11
226	0x33932f8e	6.853871e-08
227	0x36890a6a	4.0841305e-06
228	0x368e1839	4.2347497e-06
229	0x3394a6d6	6.922134e-08
230	0x3c2ff65e	0.010739891
231	0xb61f2368	-2.3713455e-06
232	0xad77b94e	-1.408147e-11
233	0xb99f46a4	-0.00030379475
234	0x330a72f9	3.2235196e-08
235	0xb798f7c1	-1.8235181e-05
236	0xb9012cd3	-0.00012319097
237	0xb94a2d54	-0.00019281107
238	0x368f831b	4.276995e-06
239	0x38b2e721	8.5307525e-05
240	0x32815898	1.5057864e-08
241	0x343b099e	1.7419231e-07
242	0x34aea330	3.252876e-07
243	0x2fbf0d06	3.475195e-10
244	0xb2d136f9	-2.4355801e-08
245	0x33bb1406	8.711508e-08
246	0x340753c2	1.2603326e-07
247	0xadafd678	-1.999044e-11
248	0x3e331995	0.17490228
249	0x374462ec	1.1705542e-05
250	0xb3d9fa5c	-1.015039e-07
251	0x36943972	4.4174312e-06
252	0xb62b7464	-2.5548734e-06
253	0x3784b366	1.5819165e-05
254	0xb1178d13	-2.2053583e-09
255	0x36341a20	2.6837297e-06

fc2.weight f4 [256, 256]
0	0xaf04ea01	-1.2088465e-10
1	0x3463fa94	2.1232182e-07
2	0x30f4123c	1.7758519e-09
3	0x2dfa8712	2.8481693e-11
4	0x267dec80	8.8097525e-16
5	0x2d3607c8	1.034723e-11
6	0xb5f25ea6	-1.8057951e-06
7	0x362b51b4	2.5528543e-06
8	0x2b681d7c	8.2463875e-13
9	0xb68c2620	-4.1767635e-06
10	0x29977592	6.726142e-14
11	0xab1efea4	-5.648626e-13
12	0x3608db5a	2.0393259e-06
13	0x2f77dfb4	2.2543994e-10
14	0xb500af9e	-4.793927e-07
15	0x2db874b2	2.0970201e-11
16	0x34864ef9	2.5016905e-07
17	0xb78ab98d	-1.6537286e-05
18	0xb733257c	-1.0677959e-05
19	0xadf6e3bd	-2.8068098e-11
20	0xafbb08ef	-3.402145e-10
21	0x2ef3e908	1.1091755e-10
22	0xb128caf0	-2.4562574e-09
23	0xae2f53e1	-3.9864893e-11
24	0x2fc730dd	3.6232609e-10
25	0x29874960	6.007933e-14
26	0x310fea7b	2.0942525e-09
27	0x303ca906	6.86342e-10
28	0x2e0263fe	2.964739e-11
29	0x32e24b08	2.6343983e-08
30	0xb4898564	-2.5615293e-07
31	0xaf2e823a	-1.5871474e-10
32	0xb37fcc1e	-5.9557458e-08
33	0xb712449a	-8.718251e-06
34	0x2a3976b8	1.647249e-13
35	0xb2b31be6	-2.085103e-08
36	0xb68553f6	-3.973483e-06
37	0xa7ecb5d8	-6.5700314e-15
38	0xae4d7565	-4.671587e-11
39	0x2c55ee47	3.040139e-12
40	0x3080be5a	9.367327e-10
41	0xa93bf7d2	-4.173729e-14
42	0xb25ee0f0	-1.2973246e-08
43	0x9a9aa689	-6.396196e-23
44	0x2e14ebe7	3.3860827e-11
45	0x2fa1214d	2.930939e-10
46	0xb08f0bb2	-1.0407943e-09
47	0xad104fbc	-8.203157e-12
48	0xaeb8d1c0	-8.40461e-11
49	0xa800f7f4	-7.159194e-15
50	0xb3167e2b	-3.5039346e-08
51	0xad83b120	-1.4971635e-11
52	0x2dc9ecd4	2.2956227e-11
53	0xac90b54c	-4.112854e-12
54	0xb00c5186	-5.1047555e-10
55	0x309068b7	1.0507141e-09
56	0x2d6e7e7f	1.35568215e-11
57	0x26208cc2	5.5701914e-16
58	0xafefc4c6	-4.3613663e-10
59	0xaacfdc48	-3.6923437e-13
60	0xae5d87a0	-5.037004e-11
61	0x2e0422e6	3.004432e-11
62	0xb0b42f0e	-1.3110097e-09
63	0x2f777548	2.2506186e-10
64	0xa17262fe	-8.2123804e-19
65	0x2ce778ca	6.578825e-12
66	0xb13cdecc	-2.7484246e-09
67	0xae2b9170	-3.9010073e-11
68	0xa79e2ca0	-4.390219e-15
69	0x2d8d1daa	1.6043018e-11
70	0x2d536d20	1.2018192e-11
71	0xae842230	-6.008738e-11
72	0x2e049337	3.0144078e-11
73	0x28371400	1.01628775e-14
74	0x35a3907c	1.2186497e-06
75	0x2bd0bd7a	1.4831879e-12
76	0x36a699f9	4.9651103e-06
77	0xb4a00b5d	-2.981059e-07
78	0x2b9db500	1.1205759e-12
79	0xa8ebc21a	-2.617442e-14
80	0xb033edf0	-6.545795e-10
81	0x31d8b692	6.307183e-09
82	0xb0c2810e	-1.4152037e-09
83	0x2fa867fe	3.0632913e-10
84	0x2aa16dd0	2.8675543e-13
85	0x2dac93cd	1.9619773e-11
86	0x2b9c573d	1.110868e-12
87	0xb1faf862	-7.3041955e-09
88	0x3310e2a4	3.373374e-08
89	0xad0a9870	-7.87824e-12
90	0x2e24b276	3.7447788e-11
91	0xa8e1c50f	-2.5065479e-14
92	0x3401b788	1.208083e-07
93	0xb0bd456a	-1.3771289e-09
94	0xb3a8e9e9	-7.8656576e-08
95	0x2e8d5bbe	6.428234e-11
96	0x313d3fcb	2.7539382e-09
97	0xb37f819c	-5.9489693e-08
98	0xafad9978	-3.1577563e-10
99	0x35894c4c	1.0229501e-06
100	0xacc5d183	-5.6223372e-12
101	0xb4080cdb	-1.2670664e-07
102	0xb0ee49a2	-1.7337707e-09
103	0xb4131fe0	-1.3702038e-07
104	0x33710248	5.611426e-08
105	0xb6c2158a	-5.784158e-06
106	0x2f3209ea	1.6192528e-10
107	0xb7700a04	-1.4307447e-05
108	0x327cb46c	1.4709354e-08
109	0xb5fd48fd	-1.8871211e-06
110	0xad8ecddc	-1.6234951e-11
111	0x279ab4a3	4.2939433e-15
112	0xb5d6093d	-1.5946931e-06
113	0x2dee830c	2.7115664e-11
114	0x269aad98	1.0732949e-15
115	0xa9b16ae0	-7.878919e-14
116	0xb279d452	-1.4541984e-08
117	0x327b7af4	1.4638079e-08
118	0xaf504f5d	-1.8945685e-10
119	0xa8948139	-1.6487342e-14
120	0xb0443a36	-7.138711e-10
121	0xb0ea56ca	-1.7050408e-09
122	0x31b31f89	5.213171e-09
123	0xb50f3a18	-5.335619e-07
124	0xad0e97a0	-8.105433e-12
125	0x29ffafb6	1.1354756e-13
126	0xab8f586d	-1.0185304e-12
127	0x2f54fa09	1.9370118e-10
128	0xb538e1b4	-6.887378e-07
129	0xb6803bdf	-3.821667e-06
130	0xad72e988	-1.3807962e-11
131	0xb0cf9d3d	-1.5105922e-09
132	0xbb699197	-0.0035639757
133	0x303acee8	6.796044e-10
134	0xadd62856	-2.4346896e-11
135	0xa6f1d2bc	-1.6779854e-15
136	0x2f62fe12	2.0644844e-10
137	0xb20b47d2	-8.107195e-09
138	0xaf8b38b4	-2.5324243e-10
139	0x2c9472ce	4.219159e-12
140	0x34149920	1.383928e-07
141	0xb0822769	-9.469946e-10
142	0xb6e19e9f	-6.7239885e-06
143	0xb09df96c	-1.1494143e-09
144	0xb1da9be8	-6.3623595e-09
145	0xb0abe29d	-1.2506295e-09
146	0x2e9ca783	7.123815e-11
147	0xb59c6619	-1.165262e-06
148	0xaf4a513a	-1.840065e-10
149	0xa9ef383a	-1.0623486e-13
150	0x26382710	6.3890763e-16
151	0x2e6c43d8	5.3720445e-11
152	0xb1bef2dc	-5.5573377e-09
153	0x39885fcd	0.0002601132
154	0xb1e13392	-6.5542247e-09
155	0x317ddd9f	3.6942323e-09
156	0xb72f1f16	-1.0438051e-05
157	0xb46ad8f0	-2.187187e-07
158	0xab4a94f0	-7.197151e-13
159	0xabd5c8da	-1.5190308e-12
160	0xb204e782	-7.73605e-09
161	0xb0326462	-6.4898675e-10
162	0xb4c36a66	-3.6398995e-07
163	0xabfefb4c	-1.8117534e-12
164	0x26575068	7.470208e-16
165	0xb24724f9	-1.1591731e-08
166	0x2a479604	1.7726798e-13
167	0xac41dff7	-2.7551275e-12
168	0xa9076af9	-3.0068806e-14
169	0x281efd9a	8.825753e-15
170	0xac20f097	-2.2870922e-12
171	0xaf35f307	-1.6548195e-10
172	0xab78c548	-8.838108e-13
173	0x330b20c4	3.239326e-08
174	0x2aeb56e8	4.180469e-13
175	0xb118190a	-2.2133144e-09
176	0xb195cd62	-4.35982e-09
177	0x31c4eba0	5.7311382e-09
178	0xae28e8b3	-3.8405456e-11
179	0x352a5d8a	6.346605e-07
180	0xac4c12c3	-2.9000558e-12
181	0x2da8e5c9	1.9201434e-11
182	0x3046796f	7.220455e-10
183	0xa7a8f49e	-4.689458e-15
184	0xb2a45314	-1.9129892e-08
185	0x2e438ae9	4.4461244e-11
186	0x2b0eb4d4	5.0699484e-13
187	0x32eac433	2.7330406e-08
188	0x31ac77b9	5.0194697e-09
189	0xb8b470b4	-8.6040614e-05
190	0xadd6537f	-2.4366063e-11
191	0x2a2184de	1.434577e-13
192	0xa7c3b830	-5.432307e-15
193	0x2b4149e8	6.866994e-13
194	0xb6b3f1a2	-5.3627455e-06
195	0x30f1f90c	1.7605841e-09
196	0x2c9e587b	4.5004534e-12
197	0x331fc8ba	3.7202632e-08
198	0xab9126ea	-1.031367e-12
199	0xab476172	-7.0834235e-13
200	0xb306d23e	-3.139052e-08
201	0xaac7da40	-3.5500942e-13
202	0x2f82ac70	2.3769386e-10
203	0xb510d747	-5.395745e-07
204	0x32b99093	2.160258e-08
205	0x30171780	5.4966875e-10
206	0xaeede0d6	-1.0817451e-10
207	0xa7dfd24e	-6.2122946e-15
208	0x3229c4aa	9.881811e-09
209	0x3542e6ae	7.2606315e-07
210	0xaf38c92e	-1.6806176e-10
211	0xb44c63d4	-1.9035298e-07
212	0xaf065256	-1.221648e-10
213	0xb090ab4a	-1.0526062e-09
214	0xae8e1bfc	-6.4623834e-11
215	0xb4e543e0	-4.270396e-07
216	0x32ae112e	2.0264078e-08
217	0xb1686cb2	-3.382223e-09
218	0xa9714720	-5.357444e-14
219	0x31217cbb	2.3499485e-09
220	0xad66fff0	-1.3130816e-11
221	0xac293dce	-2.4050653e-12
222	0xab15b8fd	-5.3192157e-13
223	0x2d9b66ba	1.766708e-11
224	0xb246e5fa	-1.15774075e-08
225	0x28da05c0	2.4205356e-14
226	0xaf03c072	-1.1982751e-10
227	0xadd11c2a	-2.3773056e-11
228	0x31b70660	5.3267257e-09
229	0x2f818c1e	2.3564523e-10
230	0x35e89cc0	1.7330967e-06
231	0xb264e446	-1.332325e-08
232	0x2ba84aad	1.1957845e-12
233	0xb4b1b8af	-3.3103194e-07
234	0xadae88ec	-1.9842315e-11
235	0x2f1b7769	1.4139591e-10
236	0xb69e8c9f	-4.7251374e-06
237	0xb27dfda6	-1.4784211e-08
238	0x2ffb7b10	4.5744075e-10
239	0xb18ae0d6	-4.0418895e-09
240	0xaef7a9bc	-1.12624104e-10
241	0xabd86b84	-1.5377565e-12
242	0xae73a96e	-5.5402287e-11
243	0xa8a6b6e2	-1.8509015e-14
244	0x315bd159	3.1987695e-09
245	0x311b1bc3	2.257125e-09
246	0xb182a222	-3.8019303e-09
247	0xaec050b4	-8.745485e-11
248	0xb629abcc	-2.5282961e-06
249	0xafbe33b7	-3.4597544e-10
250	0x2feed2c0	4.3441695e-10
251	0x305f932d	8.1336077e-10
252	0x310e3233	2.0692255e-09
253	0xacb8bd80	-5.2506333e-12
254	0xa6df2140	-1.5482746e-15
255	0xb0a343b4	-1.1879053e-09

fc2.bias f4 [256]
0	0x3677ebd6	3.6943143e-06
1	0xb7cb3350	-2.422338e-05
2	0x333b2c44	4.357959e-08
3	0x33bd61f7	8.818818e-08
4	0xb2812cb4	-1.5037905e-08
5	0xb8c12e78	-9.2116126e-05
6	0x3269cbd0	1.3608727e-08
7	0x36c93899	5.9968556e-06
8	0x35d1a790	1.562048e-06
9	0xb6b0d40e	-5.269895e-06
10	0x33cb2f94	9.4615785e-08
11	0x3e18078e	0.14846632
12	0x3686a4dc	4.0127034e-06
13	0xb484d5dd	-2.4742522e-07
14	0x343ac2fb	1.7393533e-07
15	0x358079c6	9.572184e-07
16	0xb418eac2	-1.4241508e-07
17	0x3588e423	1.0199186e-06
18	0x3976ec5a	0.00023548436
19	0x31931572	4.280701e-09
20	0x3b2be7fb	0.00262308
21	0xb69d62fe	-4.690489e-06
22	0x37290208	1.0073658e-05
23	0xb97587fe	-0.00023415682
24	0x2f68b344	2.1163965e-10
25	0xb713afa1	-8.802775e-06
26	0xb3c1a688	-9.017555e-08
27	0xb8de16f0	-0.00010590057
28	0x34377d05	1.7088685e-07
29	0x3602999f	1.9460929e-06
30	0xb96a0175	-0.00022316522
31	0x3ae5c003	0.0017528537
32	0xb30f6320	-3.3384936e-08
33	0x3234118a	1.0481367e-08
34	0x351e8c7a	5.9064007e-07
35	0xb4d85218	-4.0292866e-07
36	0xb6d430d4	-6.3237767e-06
37	0xb5445fc8	-7.315507e-07
38	0xb3624b0b	-5.2687977e-08
39	0x378bb6d0	1.665522e-05
40	0xb5bb86ad	-1.3971782e-06
41	0xb682dbc9	-3.8998883e-06
42	0x368ebb7d	4.2537563e-06
43	0xaf465c50	-1.8040791e-10
44	0xb628f690	-2.517747e-06
45	0xb0fa66ec	-1.8219146e-09
46	0x35b39972	1.3381198e-06
47	0x308a1bf8	1.0048771e-09
48	0x3ae03e93	0.0017108492
49	0x3635c0b4	2.708327e-06
50	0xb525e656	-6.180247e-07
51	0x34065514	1.2510674e-07
52	0xb5d07167	-1.5530212e-06
53	0x3421f75c	1.5084282e-07
54	0xb38c7252	-6.540053e-08
55	0x36bb23fe	5.5772243e-06
56	0x3711673b	8.666709e-06
57	0xb8f39cdb	-0.000116163596
58	0x3a449bd6	0.0007500028
59	0x3ae79c4f	0.0017670485
60	0xb2fc5ca8	-2.9378796e-08
61	0xb9c17edb	-0.00036906343
62	0x343338b9	1.669131e-07
63	0xb7b41ff2	-2.1472548e-05
64	0x3a790fbc	0.0009500941
65	0xb65f4ee0	-3.32755e-06
66	0xb93120af	-0.00016892211
67	0x358435b0	9.850392e-07
68	0xb8d7aca2	-0.00010284154
69	0xb1ff632b	-7.432751e-09
70	0xb43a3158	-1.7340551e-07
71	0xb77c4aa2	-1.5037747e-05
72	0xb61656a0	-2.2402164e-06
73	0x36fdf0a7	7.568003e-06
74	0xb7a82875	-2.0046e-05
75	0xb70f9598	-8.558294e-06
76	0xb701240d	-7.697393e-06
77	0x34ee2eb0	4.4364924e-07
78	0xb3ad3295	-8.065141e-08
79	0x37931e47	1.7537865e-05
80	0xb92d62e1	-0.00016535401
81	0x3b899775	0.0041989633
82	0xb3fbc696	-1.1724221e-07
83	0x342e575c	1.6236794e-07
84	0x39c02a1b	0.00036652465
85	0x3a1c6132	0.0005965411
86	0xb7120b4c	-8.704908e-06
87	0x34733d1e	2.2653373e-07
88	0x38f68a82	0.00011755993
89	0x35f4d2d8	1.824078e-06
90	0x371007d0	8.584888e-06
91	0x320b5ac9	8.111507e-09
92	0xb7de67de	-2.651283e-05
93	0xb4ba771e	-3.473187e-07
94	0xb8eaf6d4	-0.00011203965
95	0xb91ca4af	-0.00014938669
96	0x35789944	9.261023e-07
97	0xb4d8fc28	-4.0416603e-07
98	0xb6ae5524	-5.1955158e-06
99	0x315611d9	3.1151244e-09
100	0xb6c46520	-5.8530277e-06
101	0x393ee575	0.00018205291
102	0xb7721a72	-1.4430481e-05
103	0xb48c948c	-2.6185114e-07
104	0xb8da980c	-0.00010423371
105	0x31e4ff4e	6.664698e-09
106	0x371e6dad	9.44307e-06
107	0x363237ad	2.6556474e-06
108	0xb4a0f0e6	-2.99776e-07
109	0x3aa3db32	0.0012501238
110	0x3b2a671c	0.00260014
111	0x3b1d2bdb	0.0023982439
112	0xb1b204a3	-5.181009e-09
113	0xb4bd77b6	-3.5291094e-07
114	0x393f091b	0.00018218571
115	0x32fc009c	2.9336938e-08
116	0xb649b8f6	-3.0058995e-06
117	0xb8bd0939	-9.01394e-05
118	0x33fc4aea	1.1748291e-07
119	0xb41204a7	-1.3599002e-07
120	0x3b90897e	0.0044109216
121	0xb955bec6	-0.00020384332
122	0xb606039c	-1.9969657e-06
123	0xb6cc9926	-6.0975026e-06
124	0x36ed47fe	7.0715314e-06
125	0x39db2e8f	0.00041805624
126	0x32f7d199	2.8849898e-08
127	0xb415aa21	-1.3938599e-07
128	0x35b8fc7d	1.3782552e-06
129	0x34f8c475	4.633654e-07
130	0x367d5d78	3.7754344e-06
131	0xb733dddb	-1.0720886e-05
132	0x34cbc678	3.7956102e-07
133	0xb5c26070	-1.4482193e-06
134	0xb5bc4294	-1.4026468e-06
135	0x360d3644	2.1042224e-06
136	0xb2cfa3c0	-2.4172436e-08
137	0x35035d84	4.8937386e-07
138	0xb98ec510	-0.00027231174
139	0x33848909	6.1716555e-08
140	0xb4983ef4	-2.835801e-07
141	0x3abec08e	0.0014553235
142	0xb99abfda	-0.0002951611
143	0xb918b135	-0.00014561864
144	0x3ab96807	0.0014145382
145	0xb2211e30	-9.378297e-09
146	0xb108878e	-1.9867659e-09
147	0x3461cd0f	2.1029358e-07
148	0x3709b12c	8.207087e-06
149	0x383f0ba7	4.55488e-05
150	0x367effc1	3.7997818e-06
151	0xb643cf45	-2.917791e-06
152	0xb618ef94	-2.2789218e-06
153	0xb69ea082	-4.7274525e-06
154	0x39890733	0.0002613604
155	0xb889aaaa	-6.564458e-05
156	0xb78d99e8	-1.6880178e-05
157	0xb6959aa0	-4.4585468e-06
158	0x3394d898	6.931185e-08
159	0x39877bf3	0.00025841556
160	0xb4348cba	-1.6815002e-07
161	0x32886694	1.5879131e-08
162	0xb68ddcea	-4.2278452e-06
163	0xb5816c4d	-9.642769e-07
164	0xb8fcb58c	-0.00012050112
165	0xb8951c3c	-7.110133e-05
166	0xb80d8749	-3.3743014e-05
167	0xb68312fe	-3.906315e-06
168	0x350d71a2	5.269195e-07
169	0xb5bdd0b3	-1.4142337e-06
170	0x3aea24f5	0.0017863797
171	0x35472a90	7.4195214e-07
172	0x3525eee1	6.1814904e-07
173	0x372a15ef	1.0137896e-05
174	0x36444b1e	2.925e-06
175	0xb69d70b8	-4.692087e-06
176	0xb3627a3f	-5.2730908e-08
177	0x32ec6dc2	2.7523928e-08
178	0xb684480a	-3.942293e-06
179	0x36b3e25b	5.360967e-06
180	0x35232c20	6.078644e-07
181	0x3b03961b	0.0020078484
182	0xb6ba18be	-5.5461123e-06
183	0xb69b4eac	-4.6285186e-06
184	0x3913e7ff	0.00014105438
185	0xb6b41bdf	-5.3676627e-06
186	0xb694b139	-4.431375e-06
187	0x326b9c97	1.3714405e-08
188	0xb4b5ef83	-3.3888145e-07
189	0xb5d571be	-1.590284e-06
190	0xb781e6ae	-1.5485417e-05
191	0x37a0e683	1.9180827e-05
192	0x3680133a	3.8169355e-06
193	0x3a427a58	0.00074187433
194	0xb914990a	-0.00014171391
195	0xb60091cc	-1.9158351e-06
196	0x3ecaf77e	0.39641947
197	0x38bace79	8.90763e-05
198	0x34989412	2.8419942e-07
199	0xb8b21486	-8.491524e-05
200	0xb91d69e7	-0.00015012138
201	0x3ab69c8c	0.0013932153
202	0x348229c4	2.4244775e-07
203	0x3542164b	7.230307e-07
204	0x351befc0	5.809088e-07
205	0xb4c4b735	-3.6641146e-07
206	0x38223277	3.867081e-05
207	0x33abd9c6	8.002421e-08
208	0xb9270026	-0.00015926416
209	0x38df1c05	0.00010638688
210	0x354069dd	7.1679625e-07
211	0xb4c3b91a	-3.645626e-07
212	0x39ceba9a	0.0003943041
213	0x3363258d	5.288671e-08
214	0x3a7e234c	0.00096945907
215	0x34090ff8	1.2764929e-07
216	0x34f8ef46	4.6367694e-07
217	0x350e50c0	5.301663e-07
218	0x30c2f35b	1.4184524e-09
219	0x360d6a13	2.107238e-06
220	0xb3a9c6ce	-7.905838e-08
221	0xb3e8a11f	-1.08326496e-07
222	0xb5deb604	-1.6593262e-06
223	0x33a79358	7.803345e-08
224	0x35242be8	6.1158653e-07
225	0xb44927e0	-1.873409e-07
226	0x38a4823d	7.844388e-05
227	0x38ae764a	8.3189996e-05
228	0xb9012f2e	-0.00012319974
229	0xb512189c	-5.442505e-07
230	0x35e3d467	1.6974635e-06
231	0xb159fef8	-3.172259e-09
232	0xb3c9ad76	-9.391344e-08
233	0x37fa391e	2.982892e-05
234	0xb91936ac	-0.00014611584
235	0xb2b090e8	-2.0554992e-08
236	0x355c441f	8.2055516e-07
237	0xb98c2f48	-0.00026738108
238	0x371bf818	9.296484e-06
239	0xb4d61221	-3.9873797e-07
240	0x353c87b2	7.023292e-07
241	0xb3253030	-3.8460882e-08
242	0x330bd730	3.255917e-08
243	0xb6a6b994	-4.9687897e-06
244	0xb894e3e7	-7.09964e-05
245	0x35d5405c	1.5888468e-06
246	0x378acb82	1.6545648e-05
247	0x3776a078	1.4700105e-05
248	0x3ae76efc	0.0017656977
249	0xb03a1400	-6.769483e-10
250	0x35a0cb7d	1.1980152e-06
251	0x3aa5ab9c	0.0012639645
252	0x318d9823	4.120936e-09
253	0x3a55bda9	0.0008153567
254	0x35967486	1.1209784e-06
255	0x32430992	1.135267e-08

fc3.weight f4 [256, 256]
0	0xaf0aab90	-1.2611978e-10
1	0xb27f60d6	-1.48649715e-08
2	0x304c21ee	7.4262985e-10
3	0x32333cbc	1.0432981e-08
4	0x2e9a9796	7.030036e-11
5	0xb2b3d43f	-2.0934861e-08
6	0x37c8fe4c	2.3960274e-05
7	0xb090c9d8	-1.0534746e-09
8	0xae923f9c	-6.6506106e-11
9	0xb022db1b	-5.9246624e-10
10	0xb0139084	-5.368366e-10
11	0xb96ad398	-0.00022394804
12	0x30cf3d20	1.5078605e-09
13	0x2f6f4eaa	2.176487e-10
14	0x2f15cec4	1.3624929e-10
15	0x310a287c	2.0104656e-09
16	0xb2421876	-1.1297848e-08
17	0x2f5f9c5c	2.0337282e-10
18	0xb0be27f7	-1.3835678e-09
19	0x308ff886	1.0475254e-09
20	0xb66430bc	-3.4003015e-06
21	0xb11f0d1e	-2.3145001e-09
22	0x35e303d4	1.6913932e-06
23	0xb5b2cb9a	-1.3321289e-06
24	0x32824c09	1.5168569e-08
25	0x31f2415e	7.0505584e-09
26	0xb3ec2ee8	-1.09981386e-07
27	0xb4faa97f	-4.6689453e-07
28	0x35727ca9	9.033343e-07
29	0x363c12d4	2.8025142e-06
30	0xb4946fc4	-2.7648468e-07
31	0x358c5d04	1.0457884e-06
32	0x2e7c8cd6	5.7423254e-11
33	0xad9681a0	-1.711059e-11
34	0xb159ba70	-3.1683633e-09
35	0xb2d7539b	-2.5067314e-08
36	0x2f9465c6	2.6993358e-10
37	0x30af8a18	1.2772174e-09
38	0x3235d5e7	1.0584222e-08
39	0xb4c06d42	-3.5842282e-07
40	0xb2a81244	-1.956608e-08
41	0x2e835f26	5.974092e-11
42	0xb4c23e76	-3.6180762e-07
43	0xb4f6d71e	-4.597759e-07
44	0x354548b8	7.349404e-07
45	0x2cfd454c	7.198386e-12
46	0xb754399e	-1.26496e-05
47	0x2914d270	3.3045127e-14
48	0x34ed1526	4.4160078e-07
49	0xadea3008	-2.662405e-11
50	0x331e2018	3.681643e-08
51	0x295b4a00	4.8691953e-14
52	0x3394ab7b	6.922979e-08
53	0x32d4269e	2.469761e-08
54	0xb59df85e	-1.1769696e-06
55	0x34cf359a	3.8595755e-07
56	0xb301861b	-3.015712e-08
57	0xaff0a57c	-4.377333e-10
58	0xb34a8891	-4.7155996e-08
59	0xb62fee66	-2.6215798e-06
60	0x3602e137	1.9502602e-06
61	0x377c9c5f	1.50567785e-05
62	0x3987b54b	0.0002588428
63	0x339562c2	6.956317e-08
64	0xb57d2276	-9.429999e-07
65	0x335811c6	5.0307584e-08
66	0xb2d31820	-2.4574604e-08
67	0xafbd4437	-3.442737e-10
68	0x32be1912	2.2130312e-08
69	0xb85dd8a8	-5.2892283e-05
70	0x2ea4f232	7.500879e-11
71	0xb92fa21d	-0.00016749692
72	0xb2ac864e	-2.008451e-08
73	0x300347b6	4.775943e-10
74	0x346182e2	2.1002373e-07
75	0x329c33f4	1.8184416e-08
76	0xaff1a892	-4.395742e-10
77	0xb0100fc9	-5.2409327e-10
78	0x2fbbe670	3.4178838e-10
79	0xb2050400	-7.742528e-09
80	0xb5c8e53e	-1.496788e-06
81	0xb587375c	-1.0074396e-06
82	0xb6966ec6	-4.483244e-06
83	0x338eeea6	6.6558e-08
84	0xb4b9c680	-3.4603363e-07
85	0x328a5c76	1.610736e-08
86	0x3291a5e4	1.695566e-08
87	0x300f1b38	5.2061777e-10
88	0x3b0679ef	0.0020519455
89	0x310ff475	2.0948197e-09
90	0x308631f1	9.763977e-10
91	0x2c0d6ec8	2.0098801e-12
92	0x32a31bc2	1.898832e-08
93	0x2e690bf0	5.298867e-11
94	0xb0de3800	-1.6168542e-09
95	0x35b3bcd2	1.3391493e-06
96	0x2ebfb961	8.718604e-11
97	0x303d5908	6.888432e-10
98	0x3133a472	2.6141405e-09
99	0xaf44132b	-1.7832906e-10
100	0x31d8e008	6.311897e-09
101	0x350dc064	5.280656e-07
102	0x3362d2d1	5.2811462e-08
103	0x3043fb0b	7.129734e-10
104	0xb674483e	-3.6400884e-06
105	0xb230ad35	-1.0283931e-08
106	0x32368bff	1.0625626e-08
107	0x33d6bf13	9.999908e-08
108	0x30ef8fb4	1.7430382e-09
109	0xb3d496e2	-9.899465e-08
110	0xb1abe8a0	-5.0032014e-09
111	0xb5a63ac0	-1.2385062e-06
112	0xab5eab56	-7.910802e-13
113	0xb209275e	-7.983401e-09
114	0xb55426a2	-7.903237e-07
115	0x263727c6	6.354478e-16
116	0xad721870	-1.3761534e-11
117	0xb02505c4	-6.0034844e-10
118	0x31fda626	7.382158e-09
119	0x30bb7fbb	1.3642344e-09
120	0x3710295c	8.592699e-06
121	0x32245914	9.56631e-09
122	0x305b8a3c	7.986818e-10
123	0x34f9baa8	4.6515675e-07
124	0x304b280a	7.390787e-10
125	0x35096ac0	5.119182e-07
126	0xbaa7257e	-0.0012752262
127	0xaf41eb76	-1.76369e-10
128	0x348841e8	2.5379927e-07
129	0x2fdbfa14	4.001356e-10
130	0x3469f029	2.1787186e-07
131	0x2f3cd8aa	1.7175475e-10
132	0x3b17f234	0.0023185136
133	0xaf069df5	-1.2243347e-10
134	0xaffb871b	-4.5752632e-10
135	0x31cfd2e8	6.04847e-09
136	0x2da8cf92	1.9191568e-11
137	0x3b39d81a	0.0028357566
138	0xb5bc0d35	-1.4010935e-06
139	0x319d92d8	4.5859956e-09
140	0xbb45c84e	-0.0030179205
141	0x360adb57	2.0691275e-06
142	0x35594780	8.0942846e-07
143	0x3248cf0b	1.1688608e-08
144	0xb60a0b6c	-2.057025e-06
145	0x2d181c00	8.646417e-12
146	0x2f80056c	2.3286917e-10
147	0xb12f57ad	-2.551569e-09
148	0x3530f546	6.592203e-07
149	0xb3c42e9c	-9.1354394e-08
150	0x309263b4	1.0651235e-09
151	0x39d30073	0.0004024539
152	0x309a33b8	1.1219674e-09
153	0x339b54b0	7.2331545e-08
154	0x3523e8e8	6.1061155e-07
155	0x36b6026b	5.424304e-06
156	0x32c6af45	2.3129937e-08
157	0x3622cf1e	2.426044e-06
158	0xb4f2f5e0	-4.525491e-07
159	0x35d32d58	1.5733922e-06
160	0xae986415	-6.929938e-11
161	0x2d101091	8.189131e-12
162	0x324093a1	1.1209438e-08
163	0x303a27f1	6.7723166e-10
164	0xba150cda	-0.0005685814
165	0xb49e6288	-2.9501484e-07
166	0x3409deef	1.2840222e-07
167	0xb446caba	-1.8513938e-07
168	0x308d4688	1.0279146e-09
169	0xb404a7b2	-1.2354465e-07
170	0x360b7a82	2.0783923e-06
171	0x33bbc4b6	8.7436476e-08
172	0x3264388b	1.3284203e-08
173	0x318be5af	4.0715444e-09
174	0xb0f05456	-1.7486268e-09
175	0xb6d68a30	-6.393784e-06
176	0xac8ff496	-4.091459e-12
177	0x2d719b98	1.3733813e-11
178	0x34345a74	1.6796713e-07
179	0x3163d808	3.3155647e-09
180	0xb5aedda6	-1.3028518e-06
181	0xb2ddfb3e	-2.5842038e-08
182	0x2edcb4b4	1.0036541e-10
183	0xb1c5c6b3	-5.756044e-09
184	0x358a2e75	1.0295322e-06
185	0x3358ae9e	5.0450232e-08
186	0xb8b6d6de	-8.7184584e-05
187	0x2d0b95a4	7.934462e-12
188	0xba19db10	-0.00058691297
189	0xb1e8edb7	-6.7791137e-09
190	0x347438ec	2.2744979e-07
191	0x3513080a	5.4773466e-07
192	0x348674a1	2.5044304e-07
193	0x369a180a	4.592356e-06
194	0xb36dccea	-5.536723e-08
195	0x314b9d7f	2.9629914e-09
196	0xb84935d0	-4.797225e-05
197	0x35d0fdea	1.5571106e-06
198	0x3054edde	7.746318e-10
199	0x36575d8b	3.2091946e-06
200	0x31bf0e5a	5.560463e-09
201	0xb6e4ec96	-6.8224717e-06
202	0x31f6dee9	7.1848842e-09
203	0x304875d7	7.2927037e-10
204	0x352daf22	6.4702374e-07
205	0x33721add	5.6369448e-08
206	0x3416b56c	1.403584e-07
207	0x329882aa	1.7754548e-08
208	0xb55ac756	-8.15014e-07
209	0xb5ae1762	-1.2970816e-06
210	0xb087ca2b	-9.880002e-10
211	0x36028bcb	1.945288e-06
212	0xb6782366	-3.6975484e-06
213	0x32438ece	1.1382964e-08
214	0x3582ed82	9.754879e-07
215	0x30cc3d0a	1.4860302e-09
216	0x30c2212a	1.4124784e-09
217	0x3106a2d4	1.9592123e-09
218	0x3051d32b	7.6333845e-10
219	0x2fbabb1f	3.396616e-10
220	0x30bb4996	1.3626955e-09
221	0x2f18f598	1.3911572e-10
222	0xb23afd9f	-1.0884292e-08
223	0xb004de82	-4.8337523e-10
224	0xb4288edb	-1.569819e-07
225	0x32d27a82	2.4502928e-08
226	0x33ed8c60	1.10617066e-07
227	0xb3aa571c	-7.932087e-08
228	0x33ffe2fc	1.1915651e-07
229	0xb47f15fe	-2.3756726e-07
230	0x2fedc9a4	4.3253323e-10
231	0x2f65d084	2.0901508e-10
232	0x2d755c48	1.3947128e-11
233	0x335aecde	5.097251e-08
234	0x36268aea	2.4816786e-06
235	0x30925d75	1.064946e-09
236	0x3203b2a2	7.66582e-09
237	0xb6c60d80	-5.9024314e-06
238	0x31b79d10	5.343857e-09
239	0xae15cd05	-3.406077e-11
240	0x2ec4c05e	8.9472194e-11
241	0x2dff018f	2.8990836e-11
242	0xb8525cc0	-5.015428e-05
243	0x322ca71c	1.0049714e-08
244	0x348dc3f0	2.640586e-07
245	0x2c846aba	3.7635147e-12
246	0x36b77758	5.4677184e-06
247	0x3581a56a	9.659391e-07
248	0xb694e9c7	-4.437959e-06
249	0x2e027ea2	2.967105e-11
250	0xb4a41cc9	-3.0568324e-07
251	0xb5f447e0	-1.8200335e-06
252	0xaad2c621	-3.7440973e-13
253	0x3611e06c	2.1737314e-06
254	0xb2012c15	-7.518811e-09
255	0xb584954e	-9.87822e-07

fc3.bias f4 [256]
0	0x36fb2971	7.4852073e-06
1	0xb28617b0	-1.5610425e-08
2	0x27df1d02	6.1926384e-15
3	0xa50a090e	-1.197266e-16
4	0x32aaa524	1.9865702e-08
5	0xb52c8ab9	-6.427686e-07
6	0x3b9fe905	0.004880073
7	0xb99f4c24	-0.00030383572
8	0xaf831eab	-2.3850552e-10
9	0xb3c700c1	-9.266797e-08
10	0xbd5d9dfa	-0.054105736
11	0xb25b7a6c	-1.2775313e-08
12	0xb65fdf81	-3.3359686e-06
13	0xba745051	-0.00093198294
14	0xb634337c	-2.6852058e-06
15	0xb3d380bc	-9.84887e-08
16	0xb29b3efe	-1.807302e-08
17	0x0e32e5fe	2.2050931e-30
18	0xb3b8a620	-8.598386e-08
19	0x38d75962	0.00010268648
20	0x2ff2c721	4.4161033e-10
21	0x370e7661	8.491422e-06
22	0xb5094a82	-5.11449e-07
23	0x32832ec0	1.5271667e-08
24	0xb4bfaab4	-3.5700725e-07
25	0xb4f09130	-4.480912e-07
26	0xaec11a10	-8.7812535e-11
27	0xb555d9d4	-7.9665665e-07
28	0x350d7e21	5.2710135e-07
29	0xb58c2857	-1.0442553e-06
30	0x30eff7e0	1.7459989e-09
31	0xb7bb0804	-2.229587e-05
32	0x2da61dba	1.8885216e-11
33	0x350e8a50	5.3100393e-07
34	0x337538e8	5.7095264e-08
35	0x3788bd98	1.630075e-05
36	0x3641ba30	2.8867616e-06
37	0xaf57b6b9	-1.9619052e-10
38	0xb696fb86	-4.4996295e-06
39	0x33131cfa	3.425246e-08
40	0xbe0c68cd	-0.13711853
41	0x3902e189	0.00012481785
42	0x33aaed0e	7.959362e-08
43	0x36514f9f	3.1189772e-06
44	0xb2025f83	-7.588713e-09
45	0xb6ea3830	-6.9802845e-06
46	0xb5a04b79	-1.1942894e-06
47	0x3564cbc6	8.523315e-07
48	0x39811b73	0.0002462525
49	0x3335c1d2	4.2318625e-08
50	0x3336016e	4.2376477e-08
51	0x399d2af6	0.00029977382
52	0x3507fb2b	5.0656917e-07
53	0xb71bfcbc	-9.297564e-06
54	0xbe3e099c	-0.18558353
55	0x343935fd	1.7249108e-07
56	0xb3a7e4c4	-7.818156e-08
57	0xb24f7848	-1.2076335e-08
58	0x2e33c0ac	4.0871015e-11
59	0x31d3254c	6.1451484e-09
60	0xb731d9d0	-1.0600736e-05
61	0xb75cc2cb	-1.3158376e-05
62	0xb354fcd4	-4.9590042e-08
63	0x36554162	3.1777531e-06
64	0xb361a6e1	-5.253867e-08
65	0xb59130e6	-1.0817573e-06
66	0x34e3f1e8	4.2458055e-07
67	0x355ec726	8.2991244e-07
68	0x3416bda8	1.4038835e-07
69	0xb1a9a7cf	-4.937625e-09
70	0x36f618ab	7.334243e-06
71	0xb1250663	-2.401429e-09
72	0x37b8293e	2.1953714e-05
73	0x31439ce1	2.846541e-09
74	0x340ac2ad	1.2923074e-07
75	0x37e26ee5	2.6992939e-05
76	0xb361212d	-5.2417068e-08
77	0x34424caa	1.8095548e-07
78	0xa882a15a	-1.4502874e-14
79	0x30b687e7	1.3280869e-09
80	0xb7bd66ab	-2.2578364e-05
81	0x2f09fcdd	1.2549912e-10
82	0xb6e73dfe	-6.8915533e-06
83	0x34c67b58	3.6970118e-07
84	0xae0e1a80	-3.23106e-11
85	0x3626dbc4	2.4863848e-06
86	0x3408bfed	1.2735809e-07
87	0x361eb7eb	2.365089e-06
88	0x3282a48d	1.520882e-08
89	0x2e56cc48	4.8839405e-11
90	0x39bac621	0.00035624302
91	0x39b7ee3e	0.00035081984
92	0x32801741	1.4911736e-08
93	0x30f755d0	1.7996005e-09
94	0x355e97e8	8.29225e-07
95	0xb5274006	-6.2305514e-07
96	0xab365922	-6.4783086e-13
97	0x361487f5	2.2132856e-06
98	0x2c745b9a	3.4725335e-12
99	0x3e99a354	0.30007422
100	0xb3f8ed0a	-1.1591517e-07
101	0x364a9fca	3.0193355e-06
102	0x32d1a6f2	2.440672e-08
103	0x33aece1a	8.139996e-08
104	0x32706b93	1.3994298e-08
105	0xb4aee107	-3.2573755e-07
106	0x8000b03c	-6.3221e-41
107	0xb1258d22	-2.4090885e-09
108	0x349679bc	2.802825e-07
109	0x2f7b58da	2.2859883e-10
110	0xb34b35de	-4.7313613e-08
111	0x235042f8	1.1289884e-17
112	0x343b63bb	1.7452014e-07
113	0xb7183e26	-9.074376e-06
114	0xaf8083f2	-2.3376817e-10
115	0x3409a9b2	1.2820854e-07
116	0xb46d43d9	-2.2097028e-07
117	0xb1d35aee	-6.1512457e-09
118	0xb7a6e128	-1.9893589e-05
119	0x3cbc1611	0.02295974
120	0x3286728f	1.5651748e-08
121	0x3a19bfb0	0.00058650505
122	0x33e728c0	1.0764188e-07
123	0x352f7b4d	6.5372006e-07
124	0xb49e92b4	-2.9536534e-07
125	0x32c2d302	2.2680528e-08
126	0xb0ecfa2c	-1.7242363e-09
127	0x372706d6	9.955567e-06
128	0xb3e3f6ea	-1.06154246e-07
129	0x35003515	4.776096e-07
130	0xb98fa688	-0.0002739916
131	0x343c3a80	1.7530147e-07
132	0xb61a0bb0	-2.2954591e-06
133	0x31d04e8f	6.062528e-09
134	0xb036c77f	-6.6494715e-10
135	0xb0322230	-6.4804606e-10
136	0xb1390461	-2.6923532e-09
137	0xae3c0560	-4.2751025e-11
138	0xafea0214	-4.256583e-10
139	0xb36df546	-5.5403937e-08
140	0xb59d138a	-1.1703098e-06
141	0x374272d9	1.1590041e-05
142	0x34b09252	3.2889017e-07
143	0xb287b696	-1.5799099e-08
144	0xbaad130f	-0.0013204532
145	0xb2e004a8	-2.607915e-08
146	0xb96acbb3	-0.00022391863
147	0x3250c690	1.2152341e-08
148	0xae76f63d	-5.6152628e-11
149	0x34c1b688	3.608186e-07
150	0x35c12d6a	1.4392838e-06
151	0xb4263d20	-1.5482192e-07
152	0x3bba1942	0.0056792805
153	0x32a75cad	1.9483503e-08
154	0x3692c342	4.37387e-06
155	0xadc80f83	-2.2744256e-11
156	0xb4ff0d65	-4.7507197e-07
157	0xb43ee631	-1.7778872e-07
158	0x31e507cd	6.665664e-09
159	0xb79fcbc0	-1.9049156e-05
160	0xb05a55a2	-7.942963e-10
161	0x33fb9a10	1.1716122e-07
162	0x331690bf	3.5056242e-08
163	0x31c054a4	5.597558e-09
164	0x311294be	2.1330346e-09
165	0x2f29eb12	1.5453974e-10
166	0x3554ea41	7.931704e-07
167	0x36a23cdd	4.8350616e-06
168	0x34def7a2	4.15309e-07
169	0x36974695	4.5083675e-06
170	0xb5b3fa3a	-1.3409365e-06
171	0xb60ffc1a	-2.1455403e-06
172	0xb3fc2b78	-1.17425714e-07
173	0x35de1f7c	1.6549452e-06
174	0x2f409d4d	1.7518183e-10
175	0xb422d221	-1.516387e-07
176	0xb487acc8	-2.5271424e-07
177	0xb55e0232	-8.270464e-07
178	0xb49e7cd4	-2.9520618e-07
179	0xb7500b32	-1.2400373e-05
180	0xb283e28b	-1.5353427e-08
181	0xb42be1a8	-1.600771e-07
182	0xad5df95c	-1.26177645e-11
183	0xb1bbdda8	-5.4676157e-09
184	0xb50ff006	-5.362093e-07
185	0x34f7d42e	4.6161716e-07
186	0x32068b69	7.831525e-09
187	0xb2a1f39d	-1.885365e-08
188	0xb0928b3e	-1.0662473e-09
189	0x30211f68	5.861609e-10
190	0x312082cb	2.3357412e-09
191	0x3814cdd4	3.5477642e-05
192	0xb46845b8	-2.1632047e-07
193	0x35552b64	7.9411825e-07
194	0x3402e9d2	1.2192257e-07
195	0xb53d8cf9	-7.061313e-07
196	0xb86af7fb	-5.6020897e-05
197	0x34c68fa1	3.6984878e-07
198	0x39a15210	0.00030769454
199	0xaed872a8	-9.84291e-11
200	0xb566cb77	-8.597776e-07
201	0xb77ab3aa	-1.49429925e-05
202	0x37380895	1.0969253e-05
203	0xb4758271	-2.2864857e-07
204	0xaf313309	-1.6116188e-10
205	0x3a24cba0	0.0006286446
206	0x359d282a	1.1709101e-06
207	0x274355f2	2.7108277e-15
208	0x371b4615	9.255037e-06
209	0x35d97825	1.6202727e-06
210	0xb0e5cfbe	-1.6720987e-09
211	0xb39904e5	-7.125508e-08
212	0x3e5e7243	0.21723275
213	0xb16ef874	-3.4774787e-09
214	0x336a82fc	5.46015e-08
215	0x31733d4f	3.5396004e-09
216	0xb8b82c99	-8.782111e-05
217	0xb9b94257	-0.00035335377
218	0xb37eb732	-5.93056e-08
219	0xb6d93eb6	-6.4744045e-06
220	0x3603c075	1.9632546e-06
221	0x3919d620	0.00014670985
222	0x369e5fb1	4.719907e-06
223	0xb6225b07	-2.4192866e-06
224	0x2f197ca4	1.395955e-10
225	0xb7c3572f	-2.328641e-05
226	0x37aa99d6	2.0337215e-05
227	0xb8010c55	-3.076748e-05
228	0xb65cb4f3	-3.288788e-06
229	0x36f2d376	7.2367793e-06
230	0xb333c4a6	-4.1855536e-08
231	0x37036f9d	7.8341955e-06
232	0xb06bf022	-8.583375e-10
233	0xb36dd458	-5.5373988e-08
234	0x3412e520	1.3680665e-07
235	0x343daf74	1.7665826e-07
236	0x39cad41c	0.00038686476
237	0x374b8c0e	1.2132352e-05
238	0xb609fede	-2.0562943e-06
239	0x2d2b6100	9.741763e-12
240	0x30507af5	7.584469e-10
241	0x31439140	2.84588e-09
242	0xb487d2ee	-2.529918e-07
243	0x3113d698	2.1513298e-09
244	0x2eca2cc6	9.19385e-11
245	0xbb56d5d8	-0.003278127
246	0xba985804	-0.001162291
247	0x3580746c	9.570626e-07
248	0x36970214	4.5003926e-06
249	0xb1a04b09	-4.6651434e-09
250	0x36ce2f32	6.1447727e-06
251	0x35a08db0	1.1962165e-06
252	0x34c8684b	3.7328786e-07
253	0x342a145e	1.5839893e-07
254	0xb45518e3	-1.9846225e-07
255	0x3019e740	5.59897e-10
