shanghai_road_delivery/results_centralized/centralized_episode_450.pth_centralized_critic.pth (torch, 919188 bytes, 7 tensors)

fc1.weight f4 [256, 378]
000000 5f 97 05 37 c2 c0 b4 36 04 89 37 b8 10 05 36 b8
       7.962662e-06 5.386858e-06 -4.3758206e-05 -4.3396896e-05
000010 84 4b 36 b8 f0 9d 34 b8 f6 63 8b 9d 89 c3 89 38
       -4.346251e-05 -4.3062435e-05 -3.689635e-21 6.56909e-05
000020 aa 6c 98 2e be 6d 6e b7 ea d9 42 38 1f f9 45 37
       6.9314623e-11 -1.4211457e-05 4.6456153e-05 1.1800118e-05
000030 f8 c6 30 36 d0 b0 9c b5 94 d0 5e b7 65 5f 95 37
       2.6341859e-06 -1.1674365e-06 -1.32807945e-05 1.7806606e-05
000040 37 45 13 b7 3e 7e 9d 32 c4 38 ae b5 d0 67 6e 37
       -8.777998e-06 1.8334614e-08 -1.2980531e-06 1.4210076e-05
000050 9a 01 8b b6 0c f2 ee 1f 8e 41 7c 36 b6 1f 1a 00
       -4.1427093e-06 1.01197354e-19 3.7589084e-06 2.399099e-39
000060 ee 83 5d 22 42 5a d0 2b 60 39 b5 9f 70 d9 18 2f
       3.0020928e-18 1.480434e-12 -7.67514e-20 1.3901569e-10
000070 22 5b 19 37 c8 af 03 2e ec 6d e8 1e c8 dc 02 b6
       9.140729e-06 2.9942077e-11 2.4609418e-20 -1.9500021e-06
000080 5e 39 ae b7 00 65 73 b9 08 21 a6 35 2a 2b dd 37
       -2.076913e-05 -0.00023211911 1.2377577e-06 2.6365353e-05
000090 dc 37 22 b6 1f 89 37 b8 d9 ce 90 b7 1f 89 37 b8
       -2.4172396e-06 -4.3758304e-05 -1.7262459e-05 -4.3758304e-05
0000a0 13 68 2c be 21 9f a0 b9 11 01 d0 b7 c7 4c 84 36
       -0.16836576 -0.00030636138 -2.4796029e-05 3.9428446e-06
0000b0 6c c4 10 bc 06 bd 6a b9 40 8d cd 37 c6 11 60 b7
       -0.008835893 -0.00022386396 2.4503679e-05 -1.3355579e-05
0000c0 7d b4 8d af 1f 89 37 b8 a4 47 80 bb 1f 89 37 b8
       -2.5775995e-10 -4.3758304e-05 -0.00391479 -4.3758304e-05
0000d0 cc f1 06 b7 68 6e 64 34 17 89 37 b8 ac 23 2f b8
       -8.04332e-06 2.127432e-07 -4.3758275e-05 -4.1756473e-05
0000e0 eb 80 30 b8 04 64 2b b8 f4 2a c7 9b 3c bf 3c 36
       -4.2081734e-05 -4.0862724e-05 -3.2949546e-22 2.8125496e-06
0000f0 70 f3 b9 35 9c 0d f6 2a 56 8e d9 33 1f f9 45 37
       1.3854424e-06 4.3707822e-13 1.0130741e-07 1.1800118e-05
000100 f8 c6 30 36 50 2f d8 aa 94 d0 5e b7 65 5f 95 37
       2.6341859e-06 -3.8402137e-13 -1.32807945e-05 1.7806606e-05
000110 37 45 13 b7 20 b9 de b3 c4 38 ae b5 d0 67 6e 37
       -8.777998e-06 -1.03713546e-07 -1.2980531e-06 1.4210076e-05
000120 9a 01 8b b6 c0 48 f8 1c 83 ff 86 b6 28 83 41 b8
       -4.1427093e-06 1.6430069e-21 -4.0232567e-06 -4.6136935e-05
000130 1f 65 25 a2 88 af ca b0 49 84 a2 a2 ac f3 18 34
       -2.2415203e-18 -1.4747323e-09 -4.405025e-18 1.424475e-07
000140 fc 3b f5 36 3a 64 04 b0 ec 6d e8 1e b2 c5 f4 2f
       7.308552e-06 -4.816375e-10 2.4609418e-20 4.4523812e-10
000150 5e 39 ae b7 be 56 5d 3b 08 21 a6 35 74 29 32 38
       -2.076913e-05 0.0033773626 1.2377577e-06 4.2477113e-05
000160 dc 37 22 b6 1f 89 37 b8 d9 ce 90 b7 1f 89 37 b8
       -2.4172396e-06 -4.3758304e-05 -1.7262459e-05 -4.3758304e-05
000170 06 38 aa bd 57 3f 96 b9 1c a7 21 b8 5e 6e 3f 37
       -0.08311467 -0.0002865742 -3.8541024e-05 1.1410184e-05
000180 11 5a bd bc 58 66 81 b9 f3 d8 74 36 02 c0 2e b6
       -0.023114236 -0.0002468105 3.6485114e-06 -2.6039784e-06
000190 2a 16 81 b5 8c 29 34 b8 22 1d 92 32 1f 89 37 b8
       -9.6177e-07 -4.2954038e-05 1.7009885e-08 -4.3758304e-05
0001a0 6a 69 02 b7 de 46 14 37 17 89 37 b8 d1 bc 35 b8
       -7.773147e-06 8.8379875e-06 -4.3758275e-05 -4.332961e-05
0001b0 32 25 36 b8 f2 1b 2f b8 46 42 e5 1c 36 6c 43 b4
       -4.3426822e-05 -4.1749277e-05 1.517108e-21 -1.8200157e-07
0001c0 58 65 31 2b 0e ab d3 2d 52 ca 7d ae 1f f9 45 37
       6.3023675e-13 2.4063886e-11 -5.7705236e-11 1.1800118e-05
0001d0 f8 c6 30 36 5a 0d d7 2d 94 d0 5e b7 65 5f 95 37
       2.6341859e-06 2.44486e-11 -1.32807945e-05 1.7806606e-05
0001e0 37 45 13 b7 56 a3 7f 2d c4 38 ae b5 d0 67 6e 37
       -8.777998e-06 1.453134e-11 -1.2980531e-06 1.4210076e-05
0001f0 9a 01 8b b6 6a 94 7d 1f 7d 11 7a b6 0d d1 a6 16
       -4.1427093e-06 5.36976e-20 -3.7263083e-06 2.6950676e-25
000200 5e ae c2 35 a1 35 01 80 d4 cd 4f 9e c2 a3 ab 2e
       1.4504874e-06 -1.11074e-40 -1.1001053e-20 7.805269e-11
000210 fc 3b f5 36 97 2f de 2f 22 5b 19 37 8c 04 21 bb
       7.308552e-06 4.041538e-10 9.140729e-06 -0.002456936
000220 5e 39 ae b7 0c bc 00 b7 08 21 a6 35 a4 fa 70 b1
       -2.076913e-05 -7.673178e-06 1.2377577e-06 -3.506707e-09
000230 dc 37 22 b6 1f 89 37 b8 d9 ce 90 b7 1f 89 37 b8
       -2.4172396e-06 -4.3758304e-05 -1.7262459e-05 -4.3758304e-05
000240 b3 c9 90 bc 9a 9c a9 b9 26 5d 3d 37 32 46 c1 36
       -0.017674303 -0.0003235087 1.1286966e-05 5.76002e-06
000250 80 8e ea 3c cf 89 87 b9 92 30 4c 37 e6 61 80 35
       0.028632402 -0.00025851882 1.2170656e-05 9.565235e-07
000260 70 a7 b1 b3 e6 42 34 b8 db 00 03 b0 1f 89 37 b8
       -8.2726615e-08 -4.297765e-05 -4.765874e-10 -4.3758304e-05
000270 3c 44 a8 b6 32 4a 1b 37 17 89 37 b8 8a 8f 34 b8
       -5.0147337e-06 9.255995e-06 -4.3758275e-05 -4.3049025e-05
000280 02 1a 35 b8 03 b2 31 b8 00 01 e4 1f 08 c0 b3 b9
       -4.3177984e-05 -4.2365875e-05 9.656341e-20 -0.00034284615
000290 fb a3 f3 2e f4 f5 4a 35 34 4a 03 3a 1f f9 45 37
       1.10794894e-10 7.5608773e-07 0.00050083105 1.1800118e-05
0002a0 f8 c6 30 36 be 60 02 80 94 d0 5e b7 65 5f 95 37
       2.6341859e-06 -2.18376e-40 -1.32807945e-05 1.7806606e-05
0002b0 37 45 13 b7 f4 a2 a0 2d c4 38 ae b5 d0 67 6e 37
       -8.777998e-06 1.826226e-11 -1.2980531e-06 1.4210076e-05
0002c0 9a 01 8b b6 6b 80 63 1e 0f fe 75 b6 b8 f9 73 9d
       -4.1427093e-06 1.2043836e-20 -3.6655726e-06 -3.2289884e-21
0002d0 b8 7a 99 36 58 67 84 af 07 a1 1f 9e 90 46 a9 31
       4.5740417e-06 -2.408409e-10 -8.4506896e-21 4.9265694e-09
0002e0 fc 3b f5 36 64 66 9d b1 22 5b 19 37 82 a8 61 2e
       7.308552e-06 -4.580942e-09 9.140729e-06 5.1308742e-11
0002f0 ec 6d e8 1e ff d7 c1 34 08 21 a6 35 ca e2 75 2f
       2.4609418e-20 3.610621e-07 1.2377577e-06 2.2363192e-10
000300 dc 37 22 b6 1f 89 37 b8 d9 ce 90 b7 1f 89 37 b8
       -2.4172396e-06 -4.3758304e-05 -1.7262459e-05 -4.3758304e-05
000310 65 20 63 bb fc d4 9d b9 78 9d 21 b8 56 91 47 37
       -0.003465676 -0.0003010406 -3.8532045e-05 1.1895163e-05
000320 f2 6d 23 3c 33 db 87 b9 65 46 cb 37 b4 8f 29 b7
       0.0099749435 -0.00025912523 2.4232266e-05 -1.01066435e-05
000330 54 a1 37 9e 02 b4 35 b8 20 b7 b7 38 1f 89 37 b8
       -9.721301e-21 -4.3321408e-05 8.76023e-05 -4.3758304e-05
000340 9a 0d 92 36 cf 8b 9a b6 14 89 37 b8 2d f7 34 b8
       4.3527225e-06 -4.6058335e-06 -4.3758264e-05 -4.3145545e-05
000350 96 cb 35 b8 67 56 32 b8 01 f5 27 39 af 60 03 b6
       -4.3343367e-05 -4.2518976e-05 0.00016017632 -1.9576798e-06
000360 40 e6 31 2c b4 d0 3b 3a 2b a8 25 ab 1f f9 45 37
       2.5281027e-12 0.0007164583 -5.8853156e-13 1.1800118e-05
000370 f8 c6 30 36 2e c5 88 b5 94 d0 5e b7 65 5f 95 37
       2.6341859e-06 -1.0190176e-06 -1.32807945e-05 1.7806606e-05
000380 37 45 13 b7 ff 1f 23 b3 c4 38 ae b5 d0 67 6e 37
       -8.777998e-06 -3.7980495e-08 -1.2980531e-06 1.4210076e-05
000390 9a 01 8b b6 f3 65 ec 1c 70 93 88 b6 bc 89 85 1d
       -4.1427093e-06 1.5643523e-21 -4.07028e-06 3.534722e-21
0003a0 38 dc 23 b6 1c d1 9e 2b c0 e5 4d b6 c3 67 24 34
       -2.4417077e-06 1.1284615e-12 -3.0681113e-06 1.5311439e-07
0003b0 fc 3b f5 36 a6 21 4e 37 22 5b 19 37 00 71 1b b1
       7.308552e-06 1.2286391e-05 9.140729e-06 -2.2619702e-09
0003c0 ec 6d e8 1e 59 4e b0 b7 5e 39 ae b7 b8 1b 64 b6
       2.4609418e-20 -2.1017318e-05 -2.076913e-05 -3.3990782e-06
0003d0 dc 37 22 b6 1f 89 37 b8 d9 ce 90 b7 1f 89 37 b8
       -2.4172396e-06 -4.3758304e-05 -1.7262459e-05 -4.3758304e-05
0003e0 df a7 ad bd 46 24 a0 b9 3d 7e 12 b8 bc 72 8e 37
       -0.084792845 -0.00030544604 -3.492668e-05 1.6981146e-05
0003f0 08 ae 58 3a a6 28 8b b9 af 4c 39 37 12 ed 1e b7
       0.0008265679 -0.0002654243 1.1044714e-05 -9.472731e-06

fc1.bias f4 [256]
000000 1f 89 37 b8 43 66 36 ba 93 be 4f b8 f9 ed e8 a7
       -4.3758304e-05 -0.0006957987 -4.9530132e-05 -6.4650946e-15
000010 ee 31 7a b1 a1 8c a6 b5 77 7f d0 b1 cb 8d 73 bd
       -3.640817e-09 -1.2408892e-06 -6.068088e-09 -0.059461396
000020 87 8a 4e ba 19 71 24 b3 13 2f bb bc da 19 50 be
       -0.00078789185 -3.8287087e-08 -0.022849595 -0.20322362
000030 b2 8c d3 b3 ed 90 24 3f 22 f7 2f be 09 0c 4c ba
       -9.8510455e-08 0.6428364 -0.17184117 -0.0007783776
000040 67 97 bb bc 33 90 bf b5 1e 83 47 a8 ff 58 57 ad
       -0.022899343 -1.4272576e-06 -1.1075151e-14 -1.2241096e-11
000050 6a c0 81 ba 9e b1 9c b7 a2 00 95 ba b4 e4 85 aa
       -0.0009899263 -1.8679359e-05 -0.0011367986 -2.378424e-13
000060 9a 1e 6e b9 80 ea 10 32 bb 79 99 be ed da 14 b3
       -0.00022708849 8.435222e-09 -0.29975685 -3.4658047e-08
000070 0e 7c 58 be d0 51 b3 a5 df 7f 55 bc 56 b4 83 be
       -0.21141073 -3.1106989e-16 -0.013030975 -0.25723523
000080 57 b7 a2 ba 79 1f 06 38 33 f2 bb 9e 06 77 2b b8
       -0.0012414259 3.19774e-05 -1.9899566e-20 -4.0880426e-05
000090 ce c9 6e b9 f7 b6 02 b6 1e aa 67 b3 f0 c4 b0 b6
       -0.00022772627 -1.947801e-06 -5.39386e-08 -5.2681353e-06
0000a0 b4 05 01 ba 3f 2f 23 b4 b4 98 3b b7 d2 4b 42 b9
       -0.00049218093 -1.5197746e-07 -1.11816225e-05 -0.00018529527
0000b0 2e 27 6a b6 ca 36 02 b5 00 83 63 bd a1 03 81 b7
       -3.4891523e-06 -4.85085e-07 -0.055544853 -1.5379688e-05
0000c0 e4 da 09 b5 07 eb 95 bc a3 b0 fd ba 4d 57 84 bc
       -5.1355005e-07 -0.018300546 -0.001935501 -0.01615491
0000d0 73 31 b0 a8 3a 0a 65 b6 a1 66 93 a1 e9 f9 0c b8
       -1.956137e-14 -3.4129612e-06 -9.988273e-19 -3.3611348e-05
0000e0 4e 84 c5 b9 c0 43 50 ba c6 0f 82 af e1 1d 78 bd
       -0.00037673343 -0.0007944666 -2.365807e-10 -0.06057537
0000f0 31 2b 92 b6 19 94 d1 be 58 1c 25 ba 3c f3 96 b7
       -4.356167e-06 -0.40933302 -0.0006298474 -1.7994658e-05
000100 c5 cc 0c b2 93 9e fd b8 19 8c 47 ab 34 28 14 bc
       -8.195632e-09 -0.00012093517 -7.0893427e-13 -0.009042788
000110 73 76 6c a9 05 a2 f4 ba ab 10 b0 b7 c7 4d dd b9
       -5.2505265e-14 -0.0018664008 -2.0988597e-05 -0.00042210353
000120 6d 87 38 be f2 31 44 b7 11 3e 3d 8f 0c a4 0b 3d
       -0.18020411 -1.1694139e-05 -9.330373e-30 0.034091994
000130 8c 8c 3e b2 8d f2 1a b9 2e a8 c4 be 07 0a f3 a7
       -1.1091412e-08 -0.00014776942 -0.3840956 -6.745692e-15
000140 2a 20 9b b9 45 70 b7 a8 70 59 30 b5 16 a2 66 b9
       -0.00029587868 -2.036577e-14 -6.569526e-07 -0.00021994891
000150 3a ed ce b8 1c 25 8d b8 78 a5 7f 38 67 85 56 b5
       -9.867032e-05 -6.730316e-05 6.0950842e-05 -7.991534e-07
000160 54 d8 96 35 04 c8 6d bc ac b0 fa b6 5d 84 d7 b8
       1.1238831e-06 -0.0145130195 -7.471148e-06 -0.000102766535
000170 b4 8a 49 b7 3c cf 03 ac b7 78 05 b4 f2 2c 93 bb
       -1.2012828e-05 -1.8731258e-12 -1.2430506e-07 -0.004491442
000180 cd 98 97 bc d2 dc 4c b6 81 38 91 a7 50 ab 1d b7
       -0.018505478 -3.0526903e-06 -4.0306846e-15 -9.397816e-06
000190 02 8e f1 b9 55 5d 0b b2 5b 64 b2 b2 1b 33 41 be
       -0.00046072906 -8.112086e-09 -2.0767564e-08 -0.18867151
0001a0 b3 c4 19 aa 02 f0 bc b8 e7 24 5c bb 7b dd 12 b9
       -1.3657374e-13 -9.0092435e-05 -0.0033591331 -0.00014006153
0001b0 81 50 9a be a6 e9 ce b5 07 27 91 bb e2 98 59 bb
       -0.30139545 -1.5416197e-06 -0.0044297013 -0.0033202698
0001c0 5f bb 45 bc 26 92 ca b4 3c df b4 b7 c7 82 e5 b8
       -0.0120685985 -3.773177e-07 -2.1561624e-05 -0.0001094393
0001d0 17 ce b6 b6 cc 7e e0 b8 c6 ce 33 ba f2 c2 0a b3
       -5.4480147e-06 -0.0001070477 -0.000685912 -3.230793e-08
0001e0 88 a1 dd b7 a8 b4 a0 b9 33 3d 53 be 85 d3 53 bd
       -2.6420472e-05 -0.00030652178 -0.20628814 -0.051715393
0001f0 28 d8 75 b3 a9 87 fc bc bf 93 dc b3 59 20 49 b9
       -5.72401e-08 -0.030826407 -1.0271423e-07 -0.00019180904
000200 bd a9 11 9a 56 13 e4 b8 99 0f 97 bb dc 90 94 9b
       -3.012241e-23 -0.00010875489 -0.0046100137 -2.457816e-22
000210 63 d5 6d b7 c0 07 de b3 fc 7a 00 bc b9 43 05 ba
       -1.4175984e-05 -1.033909e-07 -0.007841822 -0.0005083639
000220 76 4b 11 bc 9c de 3d b4 ae 70 98 bc 4a 16 95 3d
       -0.008868089 -1.7682981e-07 -0.018608417 0.07279642
000230 d1 f7 45 ad 90 2e b2 b6 11 47 e9 ac 19 69 e4 aa
       -1.125318e-11 -5.310234e-06 -6.6301483e-12 -4.0573862e-13
000240 4c 1f 04 b0 94 34 6c be 86 81 72 b5 08 bb 9e b2
       -4.8065796e-10 -0.23066932 -9.0340507e-07 -1.8478673e-08
000250 39 55 f6 b5 42 21 13 b9 ce b7 bb b4 0a 1a db 9b
       -1.8353231e-06 -0.00014031402 -3.49652e-07 -3.6247338e-22
000260 79 b6 82 3b 70 82 0d b9 a0 d3 1b a4 90 06 2c b9
       0.0039890376 -0.000134954 -3.378952e-17 -0.00016405643
000270 d0 30 fa b7 1d ab 0e be 17 bb f3 bd 44 42 80 be
       -2.9825052e-05 -0.13932462 -0.11900919 -0.25050557
000280 9f 40 2c a7 43 0c ae bc 51 f6 57 b7 ad 04 45 bc
       -2.3904826e-15 -0.021246081 -1.2872349e-05 -0.012025041
000290 4b 68 35 bf fd 83 8a b7 fe 3e 00 bb 88 22 d2 b8
       -0.70862263 -1.6512344e-05 -0.0019568796 -0.00010020012
0002a0 bb 0a 61 bb 36 e5 b5 ae cd 09 2b be bf 21 f2 b8
       -0.0034338671 -8.271643e-11 -0.16702957 -0.00011545745
0002b0 45 80 93 37 c7 d3 5d b9 13 bd e5 b5 83 2e 04 ba
       1.7583496e-05 -0.00021155096 -1.7116857e-06 -0.0005042331
0002c0 49 ff e4 b8 d3 af 2c 3f 10 da f9 af 48 a1 37 ac
       -0.00010919438 0.67455786 -4.544778e-10 -2.6095393e-12
0002d0 98 0e ee bd 62 97 cc b9 aa b4 9e b9 8e 2c c7 b2
       -0.11623877 -0.000390227 -0.00030270714 -2.318691e-08
0002e0 98 d8 8b b4 6d 57 dd bd ed 03 6b ab e6 87 ce bb
       -2.604836e-07 -0.10807691 -8.349422e-13 -0.0063028214
0002f0 07 72 14 36 06 7d 2d b4 2a 9c 0a bc a2 38 14 b8
       2.2120091e-06 -1.6157364e-07 -0.008460084 -3.5338693e-05
000300 77 7c 3c a7 91 0f 8a b0 80 e4 23 b6 49 cf b6 ba
       -2.6157714e-15 -1.0045246e-09 -2.4421897e-06 -0.0013947274
000310 b8 c1 bb bc 4e 0b 07 b7 3f 69 66 be 52 76 8c a6
       -0.02291952 -8.049259e-06 -0.22501086 -9.746522e-16
000320 2b 81 05 bc fd d5 27 b3 e9 78 65 b6 fa 7a 5c ba
       -0.008148472 -3.907734e-08 -3.4194038e-06 -0.0008410659
000330 b5 18 aa ba 86 50 9a b2 ca e9 7c a8 e9 23 bc bc
       -0.0012977334 -1.7964577e-08 -1.4039505e-14 -0.022966342
000340 5f ad 0f b9 1e 53 06 bc 2d 2d 51 b1 ed 9f 36 be
       -0.00013702128 -0.008198528 -3.0439182e-09 -0.17834444
000350 06 77 f4 b3 b6 16 6f b9 fe 5f 38 b0 eb ad b0 b5
       -1.1383786e-07 -0.00022801277 -6.7075223e-10 -1.3163639e-06
000360 33 34 d6 b2 2f 0b b7 b4 d5 67 eb be cf 6a 6f b5
       -2.4936616e-08 -3.4094543e-07 -0.45977655 -8.9189865e-07
000370 53 c6 86 b5 2d 6f 14 b9 02 7a bb b8 38 c5 cd ba
       -1.0041498e-06 -0.00014155796 -8.9395806e-05 -0.0015699035
000380 e6 6a 3e bf 4b 9a 27 be 85 52 b4 b5 be 84 93 be
       -0.74381864 -0.16367452 -1.3435061e-06 -0.28812212
000390 3e cc 8d b8 ec 97 a8 b5 36 87 dd 3e 4b f6 b8 9b
       -6.761447e-05 -1.256119e-06 0.4326722 -3.059941e-22
0003a0 a5 88 b6 ae 97 eb f9 b8 1f 12 e9 b9 96 29 e0 b1
       -8.300675e-11 -0.00011917127 -0.00044454724 -6.523986e-09
0003b0 c2 23 28 b9 66 e4 15 bd bb 31 19 9c fb a7 f2 b1
       -0.0001603505 -0.03659477 -5.068773e-22 -7.062224e-09
0003c0 ee 52 16 b3 08 0d c2 b5 9e ab 1a b6 5e 2d 48 bb
       -3.500002e-08 -1.4457919e-06 -2.3047683e-06 -0.003054462
0003d0 ba 39 2d b3 e0 78 06 ba 74 ef df b5 25 89 50 bc
       -4.0332203e-08 -0.0005129706 -1.6684485e-06 -0.01272801
0003e0 da 76 f1 b7 72 83 24 3c d8 d8 c3 bc 07 c0 2a b4
       -2.8784783e-05 0.010041105 -0.02390711 -1.5902343e-07
0003f0 00 0d a0 b8 0a 2f 09 bd dc af 27 97 8b bd e6 ae
       -7.631816e-05 -0.033492126 -5.4182576e-25 -1.0492859e-10

fc2.weight f4 [256, 256]
000000 aa 1b 0f 00 bc 0a 23 00 67 94 4a 80 db 76 02 00
       1.387456e-39 3.218093e-39 -6.849063e-39 2.26308e-40
000010 e1 d2 00 00 7e 48 e9 2a 03 77 01 80 2c 11 2d b7
       7.5649e-41 4.1439416e-13 -1.34529e-40 -1.0315602e-05
000020 08 87 d5 36 56 7d dc 9a 67 74 bd ba 78 c7 68 1b
       6.3636144e-06 -9.119236e-23 -0.0014454246 1.9255042e-22
000030 b8 0e 55 b8 a5 2c ea bb 07 85 1b 00 33 8d ff 1b
       -5.0796865e-05 -0.0071464353 2.52728e-39 4.227746e-22
000040 5b 34 21 00 50 17 05 90 b2 29 00 80 7f 0e 01 80
       3.049353e-39 -2.6247584e-29 -1.4957e-41 -9.7036e-41
000050 4b 52 02 80 6b 4d ba 31 6f 84 00 80 c8 7d 88 2d
       -2.13192e-40 5.422114e-09 -4.7508e-41 1.5517268e-11
000060 09 67 28 00 00 ae 00 00 64 bd 02 00 d8 9d 2a 8a
       3.710382e-39 6.242e-41 2.51612e-40 -8.2148894e-33
000070 96 14 b2 39 df e2 00 80 5c 98 72 1c e6 09 cb b9
       0.00033966143 -8.1386e-41 8.0268003e-22 -0.00038726552
000080 ca 24 01 80 c6 17 a8 b7 aa e8 24 1c 70 5b c6 8c
       -1.05033e-40 -2.0038231e-05 5.456376e-22 -3.0561762e-31
000090 23 c2 01 00 50 d6 00 80 90 66 e3 28 f6 41 01 00
       1.61479e-40 -7.6881e-41 2.5246542e-14 1.15498e-40
0000a0 c4 0c 08 80 6a 07 39 80 c5 38 2f b2 a6 ed 1a 00
       -7.39263e-40 -5.237283e-39 -1.0199249e-08 2.472975e-39
0000b0 7c fb d1 30 cc c3 01 80 ff ae 01 80 0e af 71 30
       1.5278228e-09 -1.62074e-40 -1.54612e-40 8.7924057e-10
0000c0 d5 c7 00 00 d5 da 01 80 e6 42 01 00 a7 d4 21 b5
       7.1686e-41 -1.70338e-40 1.15834e-40 -6.0286624e-07
0000d0 9a f8 01 80 bc 06 96 a6 07 7d 3f 00 83 00 02 00
       -1.81017e-40 -1.0410166e-15 5.830488e-39 1.83855e-40
0000e0 b3 e4 01 00 70 b4 00 80 4b 92 01 00 f4 b0 02 80
       1.73877e-40 -6.4729e-41 1.44316e-40 -2.4715e-40
0000f0 3d 00 02 00 24 6c 27 3a e9 ef 59 8c 88 40 0e 00
       1.83756e-40 0.00063866586 -1.6789267e-31 1.308846e-39
000100 de 07 01 80 87 28 0f 0d 9d b2 02 80 de c5 02 80
       -9.4658e-41 4.411406e-31 -2.47745e-40 -2.54652e-40
000110 49 df ff 2d 00 a3 d5 8b 38 b7 0a 80 51 84 9b a5
       2.9089302e-11 -8.228987e-32 -9.84081e-40 -2.6977875e-16
000120 99 3a 44 00 6a b8 01 00 e9 6e 01 00 ec 21 1f ba
       6.265835e-39 1.57991e-40 1.31623e-40 -0.00060704234
000130 20 c0 00 80 28 94 10 80 3e 30 db 0c 5a 82 00 00
       -6.8921e-41 -1.522516e-39 3.3771327e-31 4.6761e-41
000140 08 0f 72 32 12 06 01 80 10 70 01 00 62 92 04 23
       1.4089672e-08 -9.4013e-41 1.32036e-40 7.186732e-18
000150 30 84 29 8d e8 54 01 80 c2 f0 3c 80 e9 0e 02 80
       -5.223626e-31 -1.22294e-40 -5.596497e-39 -1.8902e-40
000160 0e c2 02 00 9a 13 01 80 0e bb 1a 00 ef f8 19 80
       2.53285e-40 -9.8867e-41 2.454825e-39 -2.385188e-39
000170 53 90 8f 85 5d 5b 17 24 de 76 e0 8c f0 1e 01 00
       -1.3500672e-35 3.2820293e-17 -3.4584205e-31 1.02934e-40
000180 66 2b 7f b8 65 91 30 0f 3d 11 00 00 70 34 5d 02
       -6.0837156e-05 8.705472e-30 6.184e-42 1.6251565e-37
000190 9c 2f 92 a2 f6 41 00 80 28 23 df ae 34 21 19 8c
       -3.9623788e-18 -2.3662e-41 -1.0147111e-10 -1.1796683e-31
0001a0 5a be 02 80 c2 01 51 37 e8 a9 06 81 ba 2a 00 80
       -2.51956e-40 1.245778e-05 -2.4733815e-38 -1.5327e-41
0001b0 43 d0 0c 39 df ba 01 80 1a c3 00 80 6d 1d ad b0
       0.00013429024 -1.58872e-40 -6.9989e-41 -1.259577e-09
0001c0 fc 69 ee 8b db 20 00 80 70 e4 8f 3a 65 57 08 80
       -9.183373e-32 -1.1786e-41 0.0010978114 -7.66035e-40
0001d0 64 32 96 8b 11 89 00 00 b7 b5 01 00 44 68 08 00
       -5.785372e-32 4.917e-41 1.57022e-40 7.72087e-40
0001e0 4b 5c 86 24 76 43 01 80 61 61 01 00 47 27 5b b1
       5.826959e-17 -1.16036e-40 1.26768e-40 -3.189102e-09
0001f0 ac 5d 0c 00 ec 71 aa 03 a7 48 0b a5 c2 f5 48 2c
       1.135629e-39 1.0017857e-36 -1.2080944e-16 2.8558132e-12
000200 32 4b 00 00 54 e9 8b 80 65 d6 e4 2b a6 41 22 00
       2.6975e-41 -1.2848836e-38 1.6259881e-12 3.145957e-39
000210 c8 bf 9e 0b d8 44 16 00 e0 12 04 02 0b 5c 49 80
       6.1147947e-32 2.045077e-39 9.703245e-38 -6.73701e-39
000220 37 c4 48 81 9b e6 00 80 10 ad f5 b4 c6 0c e9 03
       -3.6874976e-38 -8.2726e-41 -4.5760726e-07 1.3697442e-36
000230 fc 13 00 80 53 9e 99 ae 44 82 11 80 a8 3f 02 17
       -7.169e-42 -6.9857585e-11 -1.607934e-39 4.208561e-25
000240 cd ef 3a 00 d1 d1 00 80 68 32 70 84 03 9e 5f ae
       5.412483e-39 -7.5268e-41 -2.823501e-36 -5.0844672e-11
000250 1d 19 b4 b5 86 df 3e ac 2b c4 00 00 85 e0 59 80
       -1.3418354e-06 -2.7124704e-12 7.0372e-41 -8.253902e-39
000260 df 8b 00 80 12 de b2 2b 41 e4 4b 00 c6 65 0f 00
       -5.0176e-41 1.2709298e-12 6.969544e-39 1.414042e-39
000270 e9 d2 00 00 72 3d 02 80 4c 62 4c 0d 30 5c 01 80
       7.566e-41 -2.05713e-40 6.2980674e-31 -1.24906e-40
000280 1c d9 38 b6 a3 1c 44 80 c8 c6 f8 34 b7 1c 82 ad
       -2.754451e-06 -6.255087e-39 4.6338232e-07 -1.479204e-11
000290 8f b2 05 b2 c2 35 00 00 1a c8 02 00 66 e1 02 80
       -7.782218e-09 1.9285e-41 2.55454e-40 -2.64529e-40
0002a0 4d 83 a0 86 55 86 00 00 cb 53 43 32 ba 8d 00 80
       -6.037824e-35 4.8189e-41 1.1369546e-08 -5.0842e-41
0002b0 71 39 89 ab ec 88 00 80 8b b0 01 80 f8 94 ee 82
       -9.750379e-13 -4.9118e-41 -1.55167e-40 -3.505646e-37
0002c0 a0 03 32 27 a2 b4 30 bc ed e4 ba 36 32 7e 84 80
       2.4704427e-15 -0.010785254 5.5698824e-06 -1.2167556e-38
0002d0 ec 3e 02 80 e7 c9 99 80 48 f4 8b 30 53 31 01 00
       -2.06243e-40 -1.412326e-38 1.018301e-09 1.0953e-40
0002e0 e5 b6 b8 00 4f 69 01 00 10 b1 cd 86 5f b4 10 00
       1.6963341e-38 1.29613e-40 -7.73726e-35 1.534073e-39
0002f0 b2 b7 42 2f 7f bc 80 a9 42 10 15 30 14 36 b5 b8
       1.7709459e-10 -5.717041e-14 5.422899e-10 -8.6408254e-05
000300 b5 2b 0b 8e dc bc 55 04 6f 7b 01 80 5c 28 24 00
       -1.7154117e-30 2.512475e-36 -1.36115e-40 3.320556e-39
000310 1e 9f 36 8f 03 56 02 30 a6 5a 0e 39 d3 a4 fc 31
       -9.003938e-30 4.7415954e-10 0.00013575944 7.3529036e-09
000320 14 d7 ca 9e 67 64 09 80 ef ed 25 80 69 53 01 00
       -2.1476536e-20 -8.62537e-40 -3.483268e-39 1.21757e-40
000330 13 fb 01 80 05 5d 02 80 7a d7 0a 00 b4 e6 0e b2
       -1.81904e-40 -2.1704e-40 9.95653e-40 -8.317944e-09
000340 37 4d 01 80 b0 fd 00 00 47 77 01 00 d0 80 ea b9
       -1.19535e-40 9.1006e-41 1.34624e-40 -0.0004472793
000350 91 8e 00 00 1c 9b 19 1f 3e 82 00 80 01 15 74 30
       5.1143e-41 3.2527314e-20 -4.6722e-41 8.879653e-10
000360 55 b0 23 9a 26 14 04 a5 80 ec 4e 94 4d 89 01 00
       -3.385005e-23 -1.1456001e-16 -1.04469836e-26 1.4109e-40
000370 4e 54 bd 25 40 37 d4 2b e8 e5 11 00 f0 9d ff 2b
       3.28434e-16 1.5078841e-12 1.643678e-39 1.8162676e-12
000380 3b 90 11 ae 2a 40 00 00 7a 68 d9 31 03 68 ee b3
       -3.3097285e-11 2.3018e-41 6.327409e-09 -1.1101658e-07
000390 9a 70 64 23 9d fd 41 9a 72 64 c5 bb d1 38 05 00
       1.2383749e-17 -4.0116332e-23 -0.006023937 4.7956e-40
0003a0 19 75 6e 80 97 6d 02 80 26 8c ab b6 81 e2 07 80
       -1.0143911e-38 -2.22984e-40 -5.1125126e-06 -7.24103e-40
0003b0 e7 ad 81 30 7e d6 13 0c f0 ed 8a 81 88 1d 5f 01
       9.435411e-10 1.1389014e-31 -5.103462e-38 4.097982e-38
0003c0 93 49 00 00 94 cc 0c 2b 0c 15 87 2a 66 41 89 08
       2.6393e-41 5.00219e-13 2.3995422e-13 8.260763e-34
0003d0 f9 2c 8c 0e 70 19 8c b6 50 c2 0d 00 50 06 26 2b
       3.455597e-30 -4.1752864e-06 1.263568e-39 5.898381e-13
0003e0 6a d9 00 80 a7 41 06 01 c8 bc c8 35 a7 58 01 00
       -7.7993e-41 2.4659016e-38 1.4956104e-06 1.23638e-40
0003f0 ab 6c 0a 80 5e 5a 36 ad 3d ac 38 00 64 58 53 2f
       -9.57338e-40 -1.0365568e-11 5.204575e-39 1.9221741e-10

fc2.bias f4 [256]
000000 ad b3 07 ba b9 ed d2 ba da a6 b6 bd 42 cd 99 b9
       -0.0005176615 -0.0016092575 -0.08918543 -0.00029335363
000010 07 39 94 be c8 5c e1 3c 0c 3c 9e b9 a8 8f 0b bb
       -0.28949758 0.027510062 -0.00030180847 -0.0021295343
000020 2c 93 5f 3b bf cc 22 3c 89 4e 19 bb db 57 16 b9
       0.003411482 0.009936511 -0.0023392758 -0.00014337843
000030 a4 92 81 be 6e cc a9 bc f1 e5 9c bb b9 cb 0d bd
       -0.2530719 -0.020727362 -0.0047881533 -0.034618113
000040 3c 1a 6d bb ea 40 e3 bd 75 86 da bd b9 36 9b bd
       -0.0036178967 -0.11096366 -0.10670177 -0.07578797
000050 77 da 09 3f 65 02 01 bd 50 33 a6 3e 7d 90 64 bc
       0.53848976 -0.031496424 0.32461023 -0.013950464
000060 75 fe 49 b7 2d ab 8a bd da 4b 3e be 5f ab d5 bd
       -1.2039779e-05 -0.067709304 -0.18583623 -0.10433077
000070 78 5d 13 36 17 eb 81 bd 4d dd 1b b8 57 53 b4 bd
       2.1959113e-06 -0.06343668 -3.7160982e-05 -0.08804958
000080 cd c9 21 be f7 56 34 40 a3 39 80 b9 3a aa 50 37
       -0.15799637 2.817808 -0.00024457005 1.24374e-05
000090 3e 21 a1 bc 11 12 1c 40 09 a8 5f bd e6 75 13 bc
       -0.019669171 2.4386027 -0.05460361 -0.009000277
0000a0 60 60 25 bc 8e 0b 10 bd a6 b0 16 bd 90 48 ab bd
       -0.010093778 -0.03516727 -0.03678956 -0.083634496
0000b0 57 b3 6e be 89 0b 5a ba 37 46 e0 3f 93 11 d2 bc
       -0.233106 -0.0008317759 1.7521428 -0.025643146
0000c0 83 13 56 40 18 f1 52 b7 ca 98 00 3d a5 9c 0f b8
       3.344941 -1.2573109e-05 0.03139571 -3.4239743e-05
0000d0 ad b7 03 ba a2 19 c6 ba 27 e1 84 3e 7c de 0e bc
       -0.0005024623 -0.001511384 0.25953028 -0.008720037
0000e0 44 13 00 40 2f ea a7 b8 4f a6 f9 bb 06 a5 fe 3c
       2.0011759 -8.0068006e-05 -0.0076187025 0.031084549
0000f0 5b a3 06 bd a1 33 d0 ba ef 16 c7 bc f5 a5 48 bd
       -0.03287063 -0.0015884527 -0.024302928 -0.048986394
000100 73 b4 aa ba 26 23 88 3f b8 68 2e 40 d1 1a c1 bc
       -0.0013023749 1.0635726 2.7251415 -0.023572357
000110 aa 7e 76 bd bd 90 07 40 5a 54 58 bb be ca 32 ba
       -0.06017939 2.1182091 -0.0033009262 -0.0006820372
000120 d6 53 3c 40 7d 50 82 3a 9a 5c 3f 40 08 9b b6 af
       2.942617 0.00099422 2.990027 -3.3215763e-10
000130 84 94 b9 bd 98 d5 17 bd 63 17 3d 40 ce ae f7 bc
       -0.0906153 -0.037068933 2.9545524 -0.03023472
000140 af 3b 9b ba 2d d5 9f bc 5d 26 07 ba 8f 87 80 be
       -0.0011843349 -0.01951083 -0.0005155558 -0.25103423
000150 bd e4 74 be 5f 9a 47 3f 87 4d 98 ba c8 c5 90 b8
       -0.23915382 0.77969927 -0.0011619785 -6.903295e-05
000160 81 8a df 3f 25 0c 26 bd c4 17 37 3a 6a ce 60 bb
       1.7464143 -0.040538926 0.00069844374 -0.003430272
000170 26 d1 fe 3c 16 9d 36 bc 88 d4 95 b9 74 27 19 3f
       0.03110559 -0.011145851 -0.00028577843 0.59825826
000180 53 42 17 40 16 35 e2 bc 38 c6 dd ba 15 1e d7 bd
       2.363423 -0.027613204 -0.0016920036 -0.105037846
000190 e4 01 a6 bd 33 4d 22 3e e9 02 24 40 1e 97 c6 3b
       -0.08105829 0.15849762 2.5626776 0.006060495
0001a0 ff 5b 11 b8 14 d3 c0 ba 34 49 12 bb ef 49 14 b7
       -3.4656372e-05 -0.0014711344 -0.0022321464 -8.838701e-06
0001b0 95 7c ba b3 60 b3 e4 ba eb ae 0b b7 fe 74 f1 bc
       -8.683961e-08 -0.0017448477 -8.325772e-06 -0.029474732
0001c0 c0 70 3e ba 62 fd d2 3c fd 17 a5 bd 50 04 4b 3b
       -0.0007264726 0.025755588 -0.08061216 0.0030977912
0001d0 b2 37 61 be a3 0a e9 bb d4 9b a6 bd c6 de 2b b8
       -0.21993902 -0.0071118637 -0.081351906 -4.097705e-05
0001e0 db af 87 bb 78 3e b1 b9 3a 33 6f bd 73 8f 45 3b
       -0.0041408367 -0.00033806614 -0.058398463 0.0030145317
0001f0 a0 a3 90 38 46 63 98 ba 06 d4 02 bd 04 46 d0 bd
       6.8969326e-05 -0.0011626265 -0.031940483 -0.101696044
000200 bb ee 9a bd 6a 05 cf 3d e4 64 7d ba 86 09 9c bc
       -0.075650655 0.101084545 -0.0009666218 -0.01904751
000210 32 16 78 40 69 b4 f2 bc 0e 9d 08 3d cb ae 9e b9
       3.8763547 -0.029627042 0.033352904 -0.0003026634
000220 72 57 f7 bd d0 56 68 bc bb 9c 86 39 f0 42 27 36
       -0.12077226 -0.014180854 0.00025675245 2.4923902e-06
000230 92 48 9b 3e d7 e1 c4 bb 97 44 08 aa a7 fe d6 bd
       0.30328804 -0.0060083675 -1.2103023e-13 -0.1049779
000240 31 37 3a 40 95 d4 b0 bb e3 17 b5 3d 07 6f 08 be
       2.9096186 -0.0053964355 0.08842447 -0.13323604
000250 bb 43 ee bb 88 a1 0a 3c de e9 55 b5 65 c5 d2 be
       -0.0072712577 0.008461364 -7.9689005e-07 -0.41166225
000260 e9 77 59 ba ca 99 7c bb fb 91 a7 3a 68 0d 27 ba
       -0.0008295761 -0.0038543814 0.0012784594 -0.0006372542
000270 53 14 d7 b5 a7 49 a7 b7 20 4a 39 be c9 44 35 bd
       -1.6024663e-06 -1.9942248e-05 -0.18094683 -0.04425505
000280 fc 3c 05 b9 f4 f4 07 be e8 a2 f6 bd 34 22 80 b9
       -0.00012706587 -0.13277036 -0.12042791 -0.00024439546
000290 89 99 1b b9 1f b8 ef bb 68 29 6a 3c 9a ba c5 bc
       -0.00014839148 -0.00731565 0.014292099 -0.02413683
0002a0 16 b4 7e bd 56 50 39 b9 62 45 1c bb be 50 6b 40
       -0.062183462 -0.00017672902 -0.0023845066 3.676803
0002b0 36 f4 03 b7 2c 4b e8 bb 92 b9 86 b8 fb 98 78 bb
       -7.865068e-06 -0.0070890393 -6.424183e-05 -0.003793298
0002c0 7d b7 86 b4 7c 7f e4 bb 7e c5 ab b9 f9 8d 93 3f
       -2.509295e-07 -0.006973205 -0.00032762805 1.1527702
0002d0 f4 8e 4a 40 bd 4d 8e 3f 09 01 e2 bd 1e b1 da 3e
       3.1649752 1.1117474 -0.11035354 0.42713255
0002e0 36 fa c5 bc 08 df 3b bd 6a 0b b6 bd cd c0 e1 bd
       -0.024167161 -0.045866996 -0.08888896 -0.11023102
0002f0 ad bc 4c bd ec c5 db ba 5d bd b0 3b 00 44 fe bb
       -0.049984623 -0.0016767359 0.0053936676 -0.007759571
000300 ac 81 6e 3b 44 e1 4d 3e f6 f9 fa bb c9 39 3f bd
       0.0036393208 0.20105463 -0.007659192 -0.046685968
000310 0b b4 bb ba 10 c6 57 b6 bf 07 42 bc 2f f8 d5 bc
       -0.0014320625 -3.2152784e-06 -0.011842667 -0.02611932
000320 f3 72 ef bd 06 67 ec bc 04 c4 4d 40 2a fb 0e 3c
       -0.11691847 -0.02885772 3.2150888 0.008726874
000330 94 6d 8a ba 1a 7e 6b ba a9 45 9f bd 9a 3f 56 bd
       -0.0010561221 -0.0008983329 -0.077769585 -0.05230675
000340 bf a8 7e bb 9f c6 c9 3f 20 2a aa bc 74 37 36 b6
       -0.0038857905 1.5763739 -0.02077204 -2.7152391e-06
000350 19 36 60 bd c8 7a 42 be f2 f5 cb be 9e ba a1 3f
       -0.05473909 -0.1899215 -0.3983608 1.2635076
000360 2b f0 a4 bd e6 a9 b6 bc a2 2b ed bc 3d 45 52 b9
       -0.08053621 -0.02229781 -0.02895147 -0.00020052954
000370 16 39 03 be c2 fa 31 bb ff 31 5f bd 2f d3 b9 bd
       -0.12814745 -0.002715752 -0.05449104 -0.09073483
000380 7d 3e 92 bc d2 a7 65 bc 58 87 8f 40 e0 31 ca b8
       -0.017852062 -0.014017062 4.4852715 -9.6414005e-05
000390 ce e6 03 b8 7e f0 8c 3e 57 6d 2d be b0 4a 17 3d
       -3.1447787e-05 0.2752723 -0.16936241 0.036936462
0003a0 0d fb ac bc 97 6a 32 ba bd ab 1e bd 2f d0 99 3d
       -0.021115804 -0.0006806044 -0.038738 0.07510411
0003b0 8e 41 8e bd 47 34 ca bb 75 e2 46 bc eb ae 9c bd
       -0.06946097 -0.0061707827 -0.0121389525 -0.076505505
0003c0 c1 73 92 b5 56 0f de b9 d3 b1 a3 bd ec 52 ba bb
       -1.0911536e-06 -0.00042354566 -0.07992902 -0.0056861546
0003d0 62 18 f6 3f d6 b5 f0 bb 78 49 b4 ba d8 c1 1a bb
       1.9226191 -0.0073458953 -0.0013754806 -0.0023614075
0003e0 d5 1b 89 bb 55 04 18 ba 9e 85 41 bb c0 b3 e5 b8
       -0.004184226 -0.00057989854 -0.0029529105 -0.00010953052
0003f0 a4 0e 87 ba 8e 9e 59 bd f2 33 45 40 f5 ec b0 bd
       -0.0010304046 -0.053129725 3.0812955 -0.08638946

fc3.weight f4 [256, 256]
000000 c5 53 4e 88 26 a9 00 00 9d ab 3a b5 e2 a0 53 8c
       -6.208934e-34 6.0679e-41 -6.954013e-07 -1.6303263e-31
000010 3b 2a bd 89 94 7f e5 01 f0 e1 37 81 96 13 17 80
       -4.553981e-33 8.430438e-38 -3.3773894e-38 -2.119243e-39
000020 c4 25 00 80 d2 f2 24 8e 66 e7 00 80 f6 06 a7 09
       -1.3548e-41 -2.0331474e-30 -8.301e-41 4.0210334e-33
000030 e3 fd 65 90 37 14 79 ae 47 64 12 8e 7e dd 09 0c
       -4.5357874e-29 -5.6634e-11 -1.8044171e-30 1.0620749e-31
000040 ba 66 e9 0b a3 5b c7 ae 97 38 a9 a7 a1 a8 a5 b1
       8.99029e-32 -9.06575e-11 -4.6968278e-15 -4.821303e-09
000050 0e 59 f1 1e 82 82 33 03 9e 28 26 8e bd 00 76 97
       2.55537e-20 5.275319e-37 -2.0480636e-30 -7.948782e-25
000060 10 c6 03 00 3e d7 b7 b2 66 76 47 01 f9 0f 67 b0
       3.46558e-40 -2.1401885e-08 3.6635474e-38 -8.406001e-10
000070 78 91 ad 06 41 4d 8f 89 11 d2 55 08 af 5a d8 0a
       6.5289114e-35 -3.4498647e-33 6.434429e-34 2.0834155e-32
000080 a7 aa fd 0e eb 20 2c 8a d0 8c 01 80 d1 0d 05 80
       6.2533648e-30 -8.28769e-33 -1.4235e-40 -4.64134e-40
000090 d0 eb 80 8e 44 86 89 8d 3c 85 17 8e c5 c1 20 a6
       -3.1781515e-30 -8.4756e-31 -1.8676337e-30 -5.577376e-16
0000a0 b3 e5 01 00 f7 50 c6 8d 82 11 02 00 12 c9 78 20
       1.74236e-40 -1.2222184e-30 1.89952e-40 2.1072946e-19
0000b0 d8 6c 2c ae b8 19 1e 05 e0 f8 43 a9 f9 e0 a5 8f
       -3.9204945e-11 7.433848e-36 -4.3514563e-14 -1.6356912e-29
0000c0 fc 46 2f 8d 4b c4 9b 82 87 29 12 80 e7 1c 8a 00
       -5.4011483e-31 -2.288787e-37 -1.667936e-39 1.2683667e-38
0000d0 e8 f9 29 86 8c c1 01 00 81 35 86 a3 10 8f 2a 05
       -3.196897e-35 1.61267e-40 -1.4550969e-17 8.019638e-36
0000e0 c2 0d c1 8c a8 b2 1d 89 67 1e 0a 8d 01 24 5f 0d
       -2.9744639e-31 -1.8982191e-33 -4.256113e-31 6.876052e-31
0000f0 b2 34 00 00 9c 9e 42 85 1b 38 00 80 a8 ef a8 8d
       1.8904e-41 -9.150968e-36 -2.0127e-41 -1.04114945e-30
000100 60 e4 00 80 64 16 03 00 74 34 4d 8e 29 8a 26 8f
       -8.1926e-41 2.83539e-40 -2.5293456e-30 -8.2110406e-30
000110 b9 a4 56 ab 10 2d df 0a 33 81 04 87 a5 8e 00 00
       -7.625667e-13 2.149107e-32 -9.968545e-35 5.1171e-41
000120 0f 3c 60 1f 3c 40 ad 0d 45 0d a7 8f ed a1 49 8d
       4.7483524e-20 1.0677412e-30 -1.6472583e-29 -6.213282e-31
000130 04 1b 37 8d eb fd 00 00 10 47 0d 0d 7d b1 5f af
       -5.6423748e-31 9.1089e-41 4.353452e-31 -2.0344788e-10
000140 90 a4 f6 8c 7f 12 91 8c 5d 52 01 00 6f a5 b7 0c
       -3.8001344e-31 -2.235192e-31 1.21382e-40 2.829518e-31
000150 ca 11 00 00 a8 9c 91 a2 12 55 83 8d cc 9a af 83
       6.382e-42 -3.9468195e-18 -8.093978e-31 -1.0321115e-36
000160 d2 b2 33 8f 3b ae 37 83 93 36 7f 81 f1 74 ee 83
       -8.859821e-30 -5.3978873e-37 -4.6875258e-38 -1.4015231e-36
000170 69 ca 1b 05 96 86 00 00 6b c5 22 80 ae fd 90 0d
       7.325242e-36 4.828e-41 -3.193227e-39 8.935756e-31
000180 4f 91 0f 8d c6 89 06 00 a5 c5 1b 83 d0 64 1f ad
       -4.4240186e-31 6.00437e-40 -4.577729e-37 -9.0604885e-12
000190 54 b5 1f 0e 23 ee 87 91 8e 30 3e 15 de 47 0d 20
       1.968557e-30 -2.1446008e-28 3.8408497e-26 1.1966943e-19
0001a0 aa 33 01 80 8c c0 01 00 88 bd 42 00 70 ce 00 00
       -1.10369e-40 1.60908e-40 6.129134e-39 7.4056e-41
0001b0 3c e5 01 80 be a5 8c 82 12 95 00 00 dd af 55 ab
       -1.74069e-40 -2.0666282e-37 5.3476e-41 -7.591686e-13
0001c0 e5 cf b9 0e 87 b1 1e 00 14 ca 75 ad 58 1b 0b 81
       4.5806216e-30 2.81875e-39 -1.3971508e-11 -2.5549886e-38
0001d0 94 11 93 82 99 59 a6 04 2e ec 46 b3 b0 23 de 82
       -2.1609798e-37 3.9108695e-36 -4.631527e-08 -3.2640452e-37
0001e0 ba 82 e0 06 22 29 00 80 03 1c 93 0e 4a 97 02 00
       8.445152e-35 -1.4756e-41 3.6265272e-30 2.37943e-40
0001f0 09 e5 5d 85 7a 72 16 80 8f d9 b6 ac eb 82 fb 1f
       -1.0433437e-35 -2.061447e-39 -5.196905e-12 1.0651922e-19
000200 39 9c a7 11 f3 9b 6c 8d 98 89 82 8c e8 03 2d ae
       2.6444234e-28 -7.291083e-31 -2.0112483e-31 -3.9339115e-11
000210 ff c5 5b 0d 21 2a 23 8d 60 ab 0e 06 b7 cc 70 02
       6.7722914e-31 -5.0278964e-31 2.6833138e-35 1.7691166e-37
000220 36 2d 93 0e a0 17 b2 80 f3 80 19 00 fe d0 67 8b
       3.6281834e-30 -1.6355193e-38 2.342146e-39 -4.464621e-32
000230 f9 57 01 00 00 81 52 09 2f 21 0e 00 52 2a 29 a8
       1.23394e-40 2.5338486e-33 1.297601e-39 -9.390561e-15
000240 e3 cd a9 0d d5 e9 64 84 05 48 0a 00 37 99 0e b3
       1.0464995e-30 -2.6908642e-36 9.44191e-40 -3.32013e-08
000250 00 be 01 00 c0 aa 01 00 9a 64 69 83 59 38 31 94
       1.59995e-40 1.53089e-40 -6.858803e-37 -8.947329e-27
000260 f7 30 22 00 e9 88 03 80 48 be 84 97 3c 64 8a 03
       3.139972e-39 -3.2462e-40 -8.578334e-25 8.133924e-37
000270 29 09 00 00 9c bc 71 8c a8 e0 ff 97 4b 3c 0d a6
       3.286e-42 -1.8622722e-31 -1.65357e-24 -4.9000914e-16
000280 db 8c 00 00 e2 31 e1 14 d5 a3 d9 b2 9f fb 1e 00
       5.053e-41 2.273887e-26 -2.5336627e-08 2.84533e-39
000290 eb 24 01 00 39 07 99 09 14 89 1e 8e 7d 9b 11 00
       1.05079e-40 3.6840202e-33 -1.9541004e-30 1.616982e-39
0002a0 b6 86 6b 86 b5 c2 d2 08 af c3 3d 00 a7 d4 41 8e
       -4.4297558e-35 1.2684691e-33 5.672163e-39 -2.3891475e-30
0002b0 f4 52 01 80 68 20 0b 89 7c 76 58 83 85 50 7b 91
       -1.21593e-40 -1.6746754e-33 -6.361271e-37 -1.9825221e-28
0002c0 ee e9 04 00 8c 09 9f a5 05 97 8c 0c c1 d9 2b 0d
       4.5126e-40 -2.7588572e-16 2.1661307e-31 5.2955555e-31
0002d0 7b 58 5b 0e 86 c9 26 91 d6 3e c6 b0 e6 76 69 8e
       2.7036436e-30 -1.315719e-28 -1.4424255e-09 -2.8776715e-30
0002e0 b5 df 10 8f 93 09 2d 0d 1a d3 af a8 5b 4b 1b 0e
       -7.1428326e-30 5.3321265e-31 -1.9520454e-14 1.9141507e-30
0002f0 a5 83 7a b2 2c 5c 01 00 cb 0a 2d b0 a9 dd 02 00
       -1.4581848e-08 1.249e-40 -6.295237e-10 2.63188e-40
000300 af ab c0 06 99 6c 01 00 11 15 4e 8e 1e 8d a0 a5
       7.247464e-35 1.30793e-40 -2.5401603e-30 -2.78512e-16
000310 ee 3c ea 0d a9 be 00 80 90 d1 cf 8e 88 0e a3 0d
       1.4436032e-30 -6.8396e-41 -5.123124e-30 1.0049149e-30
000320 fb 35 ba 8b 65 ac 00 80 c0 11 a6 0e bf 59 00 80
       -7.1725815e-32 -6.1844e-41 4.0939252e-30 -3.2195e-41
000330 93 05 02 80 5a 63 33 82 ce 9c cd 8d 7d 42 9b 8e
       -1.8567e-40 -1.3179356e-37 -1.267185e-30 -3.8274476e-30
000340 b3 c7 02 80 90 e4 a0 19 10 4e 24 a3 1a 4f f8 0d
       -2.5531e-40 1.6635928e-23 -8.906988e-18 1.5303223e-30
000350 b8 a5 00 00 94 31 a2 0d e2 e6 4f 8c d2 5d 08 8e
       5.9449e-41 9.995956e-31 -1.6016179e-31 -1.6808467e-30
000360 cd 23 89 ad 9f a5 23 0e c5 8f 02 80 6b 58 02 80
       -1.5590996e-11 2.0171045e-30 -2.35246e-40 -2.1539e-40
000370 6f 95 13 16 14 90 01 00 78 d5 89 85 16 a1 e3 05
       1.1921718e-25 1.43521e-40 -1.2961834e-35 2.1406151e-35
000380 aa e6 79 08 51 89 2a 8f fe 62 ab 8c 33 d6 01 80
       7.5201856e-34 -8.408093e-30 -2.64063e-31 -1.68676e-40
000390 c3 73 19 87 ef 2a 5f 8d de fc b8 0e 0c 6e 4b 80
       -1.154446e-34 -6.876886e-31 4.5603004e-30 -6.92714e-39
0003a0 28 90 1c b1 4c 0e 00 00 5b 88 99 8f 61 97 03 06
       -2.278293e-09 5.129e-42 -1.5139487e-29 2.4749577e-35
0003b0 35 31 b4 19 a3 83 05 00 bd 0e db 01 28 f6 90 b1
       1.8631438e-23 5.064e-40 8.0469043e-38 -4.2189363e-09
0003c0 cf 23 02 00 8a ad d5 0b 86 c7 e1 b1 b2 8a f8 82
       1.96517e-40 8.230573e-32 -6.571045e-09 -3.6519932e-37
0003d0 af 44 79 8d 93 f4 c7 8a bb 45 01 80 8c 4d 00 80
       -7.6811724e-31 -1.9255002e-32 -1.1685e-40 -2.7819e-41
0003e0 1b 3f 6c 84 77 f8 00 00 7e b1 80 0e 9b 40 03 80
       -2.7770643e-36 8.9132e-41 3.1725355e-30 -2.98683e-40
0003f0 71 1d a2 8e 6a 44 02 a4 b1 b2 99 1c 0a 3f b5 17
       -3.9964434e-30 -2.8247205e-17 1.0170881e-21 1.1712764e-24

fc3.bias f4 [256]
000000 aa 26 e7 0d fd 4e d5 20 19 cf af ad 00 85 08 b1
       1.4245782e-30 3.6135874e-19 -1.9987166e-11 -1.9866206e-09
000010 ad 13 d0 3d 27 10 f0 1c 71 1b 90 39 b0 94 07 3d
       0.10160003 1.5886043e-21 0.00027486266 0.033100784
000020 d9 e3 a2 b7 f2 f3 a8 32 06 34 99 31 50 26 9b b8
       -1.9418005e-05 1.9668708e-08 4.4588004e-09 -7.398112e-05
000030 a1 5e 0f b7 19 e5 90 2d 64 2f 1c 9c 7a 69 6b 2b
       -8.545497e-06 1.6472644e-11 -5.167732e-22 8.363515e-13
000040 00 4f 95 a2 5d c9 4f 38 b0 74 d0 3a 7c 68 dc 35
       -4.0470175e-18 4.954018e-05 0.0015903916 1.6421686e-06
000050 af db d3 b9 90 a3 b7 39 be 84 a9 ab 90 eb 7a 37
       -0.00040408733 0.00035026344 -1.2045016e-12 1.4956007e-05
000060 ea 90 b6 37 84 10 1b ba 99 c5 a6 25 e3 54 b8 08
       2.1763572e-05 -0.0005915242 2.8930307e-16 1.1094054e-33
000070 a0 76 36 b6 90 76 24 1d 98 bc 92 38 68 11 0c 3b
       -2.7189162e-06 2.1766515e-21 6.996951e-05 0.002137268
000080 27 40 58 3b 6c 33 5a 39 44 9d 9f 36 6e 07 1b bb
       0.0032997222 0.00020809256 4.7568774e-06 -0.0023655551
000090 2b 31 86 ae 4c 09 2f 36 9c 41 17 9d 99 cb 3c 2c
       -6.1023485e-11 2.6082444e-06 -2.0018603e-21 2.6829426e-12
0000a0 50 65 3c 24 90 6e 66 36 66 e8 7b ad f9 ad 05 b5
       4.0851817e-17 3.4337027e-06 -1.4319301e-11 -4.9799525e-07
0000b0 54 f7 1b bb a8 98 53 24 2b fc 4a bb f6 e9 e0 36
       -0.0023798542 4.5882637e-17 -0.0030973058 6.702957e-06
0000c0 78 98 d0 1a 20 2b 09 39 85 e2 a9 a9 b5 4d 8e b7
       8.627311e-23 0.00013081403 -7.5444025e-14 -1.6963904e-05
0000d0 69 39 97 bc 3c c0 e0 3a 6e 80 2e 95 33 a8 ed 23
       -0.018459992 0.0017147134 -3.5240333e-26 2.5766827e-17
0000e0 ee b0 4f ba a9 c8 52 bc 15 31 c3 30 b0 83 49 95
       -0.0007922788 -0.012865224 1.4202067e-09 -4.069551e-26
0000f0 95 aa f4 a0 aa 6b 3a 29 f0 a1 a8 a4 27 63 09 9f
       -4.144809e-19 4.139368e-14 -7.313272e-17 -2.9092895e-20
000100 38 c9 0b b5 90 f8 15 3c 4e d6 00 35 69 06 6f 26
       -5.2074347e-07 0.0091535 4.799557e-07 8.292847e-16
000110 83 3d 1d 35 7a 68 4a 35 ac ba 22 2f d6 1e 38 33
       5.857657e-07 7.54029e-07 1.4800133e-10 4.2868884e-08
000120 22 76 f3 0c 13 08 04 96 ef a3 01 80 0b 04 3d 3a
       3.7511177e-31 -1.0665423e-25 -1.50644e-40 0.000721038
000130 fe a4 4e aa 86 24 26 9c fc f1 98 39 62 42 b4 1f
       -1.8353719e-13 -5.4972e-22 0.00029171992 7.6342786e-20
000140 fc 54 86 a0 d7 f0 1b 9e 07 e8 00 00 32 c6 b1 30
       -2.275672e-19 -8.255436e-21 8.3236e-41 1.2934775e-09
000150 a4 f8 4a b9 ab 2b 3e 36 44 3e c2 32 5b e4 b2 3b
       -0.00019356847 2.8337624e-06 2.2612888e-08 0.005459351
000160 e2 4c 98 37 30 aa 13 31 16 3c b2 39 78 22 e6 2c
       1.8155613e-05 2.1488056e-09 0.00033995573 6.54082e-12
000170 1c 87 4b 39 dc 65 ea 24 3b 61 53 39 b3 cf a4 2f
       0.00019409921 1.0165388e-16 0.00020158749 2.9979005e-10
000180 fa b9 9b 3a 56 12 28 bd ae 99 ef a8 6d a8 d0 ab
       0.0011880987 -0.04103311 -2.6600978e-14 -1.4826036e-12
000190 5f 43 05 b9 64 9d 81 b9 06 06 6e 33 ea 06 d5 93
       -0.00012708966 -0.00024722063 5.541917e-08 -5.3775577e-27
0001a0 e8 f2 62 b5 76 d3 3e 32 38 f7 05 33 0c 97 12 2c
       -8.4545036e-07 1.1107536e-08 3.119132e-08 2.0831696e-12
0001b0 23 dc 1c a9 17 2a c9 a6 87 d6 aa 3b 56 dc c1 0f
       -3.4829897e-14 -1.3958585e-15 0.005213562 1.911614e-29
0001c0 82 52 c3 27 8f 1c 2e b1 bc ad 92 b9 77 fc 09 bd
       5.4212828e-15 -2.5336566e-09 -0.00027976732 -0.033688035
0001d0 48 a3 f2 09 92 ba 8c 95 ba d8 c5 39 09 1f e1 3f
       5.841293e-33 -5.6839906e-26 0.00037736242 1.7587596
0001e0 f1 53 bf a5 0f a2 95 30 5c e0 74 2d 0b 6e 8f 39
       -3.31901e-16 1.0887237e-09 1.3919612e-11 0.00027357074
0001f0 84 9d 90 b5 49 17 9d 9f ef e1 11 9f 2f 6f 35 b7
       -1.0774679e-06 -6.653061e-20 -3.0891832e-20 -1.0814328e-05
000200 9b 54 8f 32 80 d8 83 29 f8 64 c9 36 d2 7e 39 36
       1.6685865e-08 5.8551254e-14 6.002021e-06 2.7640967e-06
000210 4d 8d b4 3e 34 d0 44 b3 53 33 16 bd e9 54 62 93
       0.35264054 -4.5824166e-08 -0.03667004 -2.8567074e-27
000220 ec b7 e8 32 19 16 9b ba da 27 38 38 2e 5f aa 3b
       2.7091993e-08 -0.0011832147 4.3906133e-05 0.0051993346
000230 f8 bd 22 34 da 52 da b0 a2 1a aa 0e 32 34 dd b9
       1.5156536e-07 -1.5885135e-09 4.1933882e-30 -0.00042191293
000240 ae d1 8b bb f8 32 03 00 52 49 95 a2 45 ac b6 b9
       -0.004266939 2.9379e-40 -4.046416e-18 -0.00034842096
000250 32 6c 83 bb 19 26 ba a3 cc af 6d 3b 06 9b 38 94
       -0.0040107006 -2.0182295e-17 0.0036268113 -9.320199e-27
000260 69 aa e1 39 24 d4 9a af 7c 04 0b 38 a1 80 54 3f
       0.0004304231 -2.8163172e-10 3.314436e-05 0.8300877
000270 5e b9 7e 8e f5 8f e3 07 d0 f7 14 a9 2c 71 52 13
       -3.1397168e-30 3.4239774e-34 -3.3077545e-14 2.6561524e-27
000280 f8 c7 81 39 db 4f 43 af 06 96 2a ba cb 59 79 38
       0.00024753786 -1.7763517e-10 -0.00065073406 5.9449852e-05
000290 44 9d 05 3b dc c1 48 bc 31 f0 02 bc 70 07 5f bb
       0.0020387927 -0.012253251 -0.007991836 -0.0034031533
0002a0 36 9e 21 3a 26 74 33 28 db 77 a4 bd b2 87 af 33
       0.0006165238 9.961682e-15 -0.08030673 8.1737554e-08
0002b0 50 05 cb ad e6 89 c1 b4 b9 36 66 3b 50 5b 1a 3c
       -2.3080787e-11 -3.6049386e-07 0.0035127832 0.009421185
0002c0 87 f4 65 38 31 d8 24 9b d0 18 c1 3c 62 7b 80 b6
       5.482559e-05 -1.3635617e-22 0.023571402 -3.829061e-06
0002d0 81 0e bb b8 8c 15 39 ab ab ca 24 a0 39 04 e0 a3
       -8.9195564e-05 -6.5755105e-13 -1.3958398e-19 -2.4287917e-17
0002e0 1f 56 04 bd 4a 53 a2 b6 9b 14 2a a1 93 e3 26 bc
       -0.032308694 -4.8376723e-06 -5.762551e-19 -0.010186094
0002f0 2f d3 9c 39 66 d7 04 b1 1e a1 15 2e 54 d8 04 bc
       0.00029911983 -1.9330968e-09 3.402178e-11 -0.008108217
000300 a7 3d f2 3d aa fb a8 39 f6 0c 0c 2c 3d 57 91 ac
       0.118281655 0.0003223096 1.9902391e-12 -4.1308333e-12
000310 f8 86 51 ab 2c 63 5e 31 bf d2 07 b1 cc b6 00 00
       -7.443902e-13 3.2361624e-09 -1.976488e-09 6.5575e-41
000320 8c 69 c2 38 d5 a7 02 15 83 41 51 9b a8 f3 e6 2f
       9.2703005e-05 2.6385687e-26 -1.7309243e-22 4.2009884e-10
000330 00 9e 4e b6 0e d3 05 2c 94 2d 22 ae 0a e2 1f b9
       -3.078836e-06 1.9017596e-12 -3.6875017e-11 -0.00015247628
000340 65 6e 40 ba 58 2a eb a1 ca 2b 19 39 f6 f7 1c b8
       -0.0007340669 -1.5935428e-18 0.0001460753 -3.742423e-05
000350 d3 9d 0a bb 0c 00 28 b8 5a fc a5 3a 14 f1 b9 bc
       -0.00211512 -4.0054365e-05 0.0012663708 -0.022697963
000360 e6 f7 ad ba d4 98 a2 b2 01 42 19 1d c4 bf 6a 31
       -0.0013272732 -1.892878e-08 2.0283505e-21 3.4160488e-09
000370 cc 3d 5a a3 ca 4a 23 37 19 1d 21 3d 4c 27 e8 ae
       -1.183089e-17 9.73297e-06 0.03933439 -1.0557119e-10
000380 b0 25 d7 ba e1 d9 9f bd a9 ba 6f 39 b8 98 17 21
       -0.001641443 -0.07805229 0.00022862352 5.136291e-19
000390 02 e5 1d bb 2a cd f5 86 70 49 b9 bd b9 40 57 b2
       -0.0024092798 -9.246022e-35 -0.0904721 -1.2529363e-08
0003a0 d7 d4 d1 30 9f 2e 1d 2d ee 6e 93 b8 22 09 ec 24
       1.5267244e-09 8.934769e-12 -7.0301685e-05 1.02364157e-16
0003b0 48 f0 56 a2 81 b9 0d 38 01 51 a8 3d 11 be c3 23
       -2.9129612e-18 3.3789784e-05 0.08218575 2.1222439e-17
0003c0 3d 5f 81 a4 27 5e 87 b9 46 17 8b 1d 2c 14 b3 2f
       -5.610617e-17 -0.00025819356 3.6817058e-21 3.2574243e-10
0003d0 06 8c f2 31 7d 8e b5 9d 98 e1 a6 2c 0b 16 7b be
       7.059046e-09 -4.805763e-21 4.7430497e-12 -0.24520127
0003e0 fa 1d 43 ba fc 91 da a2 97 4d b2 ba c2 9c 75 3b
       -0.00074431265 -5.9243585e-18 -0.0013603446 0.0037477468
0003f0 be 8f 52 be c8 e2 d1 99 a2 a6 1d b9 8e 9c 74 39
       -0.20562646 -2.170169e-23 -0.00015034762 0.00023327974
