shanghai_road_delivery/results_centralized/centralized_episode_350.pth_centralized_critic.pth (torch, 919188 bytes, 7 tensors)

fc1.weight f4 [256, 378]
00000000: fd76 759f eabe 0a20 f6d6 f4b1 76c9 f7b1
00000010: 2e53 f7b1 86fd beb1 0ab1 2821 c078 dd29
00000020: cc3e 0333 98ac ca33 86d0 de3b 6838 3121
00000030: 528e 7721 b43a 9d2b 95ae aea0 35f1 7120
00000040: b281 4921 e0a6 9fad 6c83 711f 0f06 fe21
00000050: 8486 661f 1c20 0180 4b8a 099f 7445 0000
00000060: 6011 141d ccfe 2833 1b6c 491f bca6 da36
00000070: bc69 6ea1 8aa1 12b3 38ff 64a0 c432 be2b
00000080: 329a 4ca0 a08f b431 4981 ca20 8912 1637
00000090: de29 c61f 81d7 f4b1 edd2 369f 81d7 f4b1
000000a0: c0da 96bb 36cc 70b4 defb 1ca2 c867 ca21
000000b0: 5018 46bc 5a22 0ab1 b08f e821 6a01 43a1
000000c0: ac95 c1a1 e4d5 f4b1 2afc b331 81d7 f4b1
000000d0: 0844 8e20 a8e3 d89c fbd6 f4b1 3666 e8b1
000000e0: 45c2 eab1 5704 ddb1 664f 0200 3f77 ce32
000000f0: 3e8e 832b 05cc 5c34 a8db a53b 6838 3121
00000100: 528e 7721 ccec 84ae 95ae aea0 35f1 7120
00000110: b281 4921 3cac fbb7 6c83 711f 0f06 fe21
00000120: 8486 661f 0451 c61d 48ae e11f 90e6 0280
00000130: c858 739f 2c8f 0330 84c8 2e19 4e87 7d32
00000140: a672 5ba0 dd61 45b5 38ff 64a0 faa2 02b8
00000150: 329a 4ca0 9482 fd2b 4981 ca20 34af b7b0
00000160: de29 c61f 81d7 f4b1 edd2 369f 81d7 f4b1
00000170: 68ff bebc 0462 88b4 5c9c 3621 da7e 5221
00000180: 524b 14bc 877c 25b1 5a6b 5321 5d14 9620
00000190: 62a0 85a0 233a d3b1 9589 5bb8 81d7 f4b1
000001a0: e8e5 bfa0 0270 4320 fbd6 f4b1 1e9c ebb1
000001b0: 8206 eeb1 3f81 dab1 0c40 9521 80bc b2ab
000001c0: ef14 e3ba 9a0b 89b7 e3dc 9d35 6838 3121
000001d0: 528e 7721 67e3 792e 95ae aea0 35f1 7120
000001e0: b281 4921 5c8b 1bbb 6c83 711f 0f06 fe21
000001f0: 8486 661f 186e 729e bb3b 4ea0 a52a 0100
00000200: 552d 4d20 a135 0180 eff3 2b20 803e bdab
00000210: a672 5ba0 045a 74b0 bc69 6ea1 22f2 cd2d
00000220: 329a 4ca0 cc02 d032 4981 ca20 22b2 34b7
00000230: de29 c61f 81d7 f4b1 edd2 369f 81d7 f4b1
00000240: 612b 39bc 7198 64b4 cecd 46a2 c5fa 9ca1
00000250: 9046 04bb 4efe feb0 a067 8221 37bf fd20
00000260: 0263 991e 7c35 ebb1 97a6 58b7 81d7 f4b1
00000270: b70c 0523 ef69 33a0 f6d6 f4b1 aca6 adb1
00000280: 5ec5 aeb1 de89 aab1 f4db 041c d0b3 be32
00000290: 2a7d 3faf eeb5 b42c a25e f833 6838 3121
000002a0: 528e 7721 be60 0280 95ae aea0 35f1 7120
000002b0: b281 4921 5645 16ab 6c83 711f 0f06 fe21
000002c0: 8486 661f 2ec7 081b c5b9 eb9f 82d6 0200
000002d0: 74d4 4f1f 486c bb38 9567 399e b2f2 1e00
000002e0: a672 5ba0 2c88 af38 bc69 6ea1 f86e 0f2e
000002f0: 38ff 64a0 95db adba 4981 ca20 d7fd b9b5
00000300: de29 c61f 81d7 f4b1 edd2 369f 81d7 f4b1
00000310: aa42 94bc eb3a 89b4 b87a 4a21 11ba e620
00000320: d6ba 2bbc 52ed 56b1 dded e3a1 f4e8 16a1
00000330: 705d 679f f212 e8b1 a1b6 01ad 81d7 f4b1
00000340: 9c2f 08a2 59fb af1f d7d6 f4b1 63ec e6b1
00000350: 9f58 eab1 02f7 dcb1 20f0 a48f 276a b32d
00000360: c092 86b9 f890 fcb2 947f ad2e 6838 3121
00000370: 528e 7721 025e 0f3b 95ae aea0 35f1 7120
00000380: b281 4921 cdbe 993a 6c83 711f 0f06 fe21
00000390: 8486 661f 3a57 cf0d 38de 0920 5299 950f
000003a0: c02e 431d ceb6 b7b8 0e1e ce1e 3cc7 90b6
000003b0: a672 5ba0 45c9 8b2e bc69 6ea1 4535 a1b4
000003c0: 38ff 64a0 4c32 9cb2 329a 4ca0 4a6c c6ab
000003d0: de29 c61f 81d7 f4b1 edd2 369f 81d7 f4b1
000003e0: 8792 e9bc f516 77b4 ba38 3aa2 88dd 1ea1
000003f0: 0c26 23bc a366 06b1 8e94 f121 5358 b5a1
-5.1979193e-20 1.1752223e-19 -7.125773e-09 -7.2115496e-09 -7.1981026e-09 -5.55855e-09 5.7154923e-19 9.835318e-14
3.0557928e-08 9.4377526e-08 0.0067997603 6.0044586e-19 8.3875215e-19 1.1171814e-12 -2.9592275e-19 2.0493303e-19
6.82731e-19 -1.8150315e-11 5.1142445e-20 1.7213313e-18 4.8815663e-20 -1.03354e-40 -2.9125272e-20 2.4915e-41
1.959662e-21 3.9347285e-08 4.2652828e-20 6.5163167e-06 -8.0777475e-19 -3.4140193e-08 -1.9396796e-19 1.3514402e-12
-1.7330491e-19 5.2550178e-09 3.4305685e-19 8.945012e-06 8.3925525e-20 -7.1258346e-09 -3.8714473e-20 -7.1258346e-09
-0.0046037138 -2.2426033e-07 -2.127528e-18 1.3715523e-18 -0.0120907575 -2.010117e-09 1.5758965e-18 -6.607044e-19
-1.3117807e-18 -7.125651e-09 5.2382534e-09 -7.1258346e-09 2.4100755e-19 -1.4352529e-21 -7.125775e-09 -6.7637087e-09
-6.832382e-09 -6.43244e-09 2.12154e-40 2.4035783e-08 9.34759e-13 2.0563319e-07 0.0050615855 6.0044586e-19
8.3875215e-19 -6.0447286e-11 -2.9592275e-19 2.0493303e-19 6.82731e-19 -3.0001735e-05 5.1142445e-20 1.7213313e-18
4.8815663e-20 5.249393e-21 9.557953e-20 -2.66381e-40 -5.153069e-20 4.786098e-10 9.036083e-24 1.4757303e-08
-1.8587956e-19 -7.353063e-07 -1.9396796e-19 -3.11462e-05 -1.7330491e-19 1.8012974e-12 3.4305685e-19 -1.3364798e-09
8.3925525e-20 -7.1258346e-09 -3.8714473e-20 -7.1258346e-09 -0.023315147 -2.540329e-07 6.187094e-19 7.1318654e-19
-0.009051161 -2.4081446e-09 7.163166e-19 2.5424464e-19 -2.263721e-19 -6.1475176e-09 -5.2341802e-05 -7.1258346e-09
-3.2508798e-19 1.6554203e-19 -7.125775e-09 -6.8571486e-09 -6.9274515e-09 -6.3593286e-09 1.0113586e-18 -1.269998e-12
-0.0017324964 -1.6337075e-05 1.1761698e-06 6.0044586e-19 8.3875215e-19 5.681802e-11 -2.9592275e-19 2.0493303e-19
6.82731e-19 -0.0023734188 5.1142445e-20 1.7213313e-18 4.8815663e-20 -1.283414e-20 -1.7468642e-19 1.07133e-40
1.7379175e-19 -1.11074e-40 1.4564974e-19 -1.3446605e-12 -1.8587956e-19 -8.8894603e-10 -8.0777475e-19 2.341333e-11
-1.7330491e-19 2.4215659e-08 3.4305685e-19 -1.0770311e-05 8.3925525e-20 -7.1258346e-09 -3.8714473e-20 -7.1258346e-09
-0.011301846 -2.1289613e-07 -2.6942956e-18 -1.0637349e-18 -0.002018366 -1.855321e-09 8.836572e-19 4.2986403e-19
1.6240454e-20 -6.8454806e-09 -1.29133905e-05 -7.1258346e-09 7.212637e-18 -1.519694e-19 -7.125773e-09 -5.053911e-09
-5.0865046e-09 -4.963325e-09 4.395942e-22 2.220068e-08 -1.7415816e-10 5.136106e-12 1.15656135e-07 6.0044586e-19
8.3875215e-19 -2.18376e-40 -2.9592275e-19 2.0493303e-19 6.82731e-19 -5.338693e-13 5.1142445e-20 1.7213313e-18
4.8815663e-20 1.1314015e-22 -9.98337e-20 2.60622e-40 4.4009692e-20 8.937024e-05 -9.815239e-21 2.842128e-39
-1.8587956e-19 8.370014e-05 -8.0777475e-19 3.2612996e-11 -1.9396796e-19 -0.0013264293 3.4305685e-19 -1.3857451e-06
8.3925525e-20 -7.1258346e-09 -3.8714473e-20 -7.1258346e-09 -0.018098194 -2.5561107e-07 6.860268e-19 3.9086644e-19
-0.010481557 -3.1276e-09 -1.544508e-18 -5.113029e-19 -4.8993442e-20 -6.7542425e-09 -7.373353e-12 -7.1258346e-09
-1.8456641e-18 7.45312e-20 -7.125759e-09 -6.720755e-09 -6.8203714e-09 -6.4309242e-09 -1.6264141e-29 2.0397085e-11
-0.0002566781 -2.9402585e-08 7.8897916e-11 6.0044586e-19 8.3875215e-19 0.0021876101 -2.9592275e-19 2.0493303e-19
6.82731e-19 0.0011729837 5.1142445e-20 1.7213313e-18 4.8815663e-20 1.2778359e-30 1.1677877e-19 1.4751591e-29
2.5832204e-21 -8.76017e-05 2.1823529e-20 -4.3147284e-06 -1.8587956e-19 6.356741e-11 -8.0777475e-19 -3.0027346e-07
-1.9396796e-19 -1.8183663e-08 -1.7330491e-19 -1.4098802e-12 8.3925525e-20 -7.1258346e-09 -3.8714473e-20 -7.1258346e-09
-0.028512252 -2.301202e-07 -2.5237731e-18 -5.3825676e-19 -0.009957802 -1.9557909e-09 1.6370117e-18 -1.2288416e-18

fc1.bias f4 [256]
00000000: 92d7 f4b1 26c4 8fbe bd0e 3fb5 de5f c7b4
00000010: 8e1a 88bb 6be1 70b7 9cbe 97b9 20f2 aeb6
00000020: 3d7e c9bc 212a 15bb 1b7f 9bbc f6be 2cb9
00000030: 1158 35ad 29f9 94bb 25b5 5fbb 57e5 1cbb
00000040: f5f6 d0b9 162a ecbd a59a bebb 0a60 82b8
00000050: ab19 66b8 b619 f5b5 cf3e d3ba 00c9 3fba
00000060: 5c35 5cb4 d600 d1b6 1da4 15bd 33ba 30ba
00000070: 8320 b1b9 77ca deb8 26ea 4bb6 e488 bdb7
00000080: a2c8 86af e62c 84be dc8d 41b3 90e0 80bb
00000090: f103 0dbc 5b2b bea3 12c0 87ba 70b3 299f
000000a0: 81bd a2b9 0ba5 beb5 bda5 40b2 690b c0b7
000000b0: 9e01 a3be 8c4c aab9 8014 68b5 da7d 33b9
000000c0: 68fd 1bbf 1041 94b1 4b85 aeb9 94ea d4b9
000000d0: b6e2 f2b7 c2e9 37a9 6107 28b7 35a6 c3be
000000e0: 87ed a4b9 4de1 34b9 75a1 27ba f7bd 89bb
000000f0: b634 baba caa4 6cbb 3731 19bb 84db 36b8
00000100: aa06 13ba 3e96 30be d77e 10bf 6933 bcb6
00000110: 828c adbd bf33 acba 7ff0 cb34 f4b4 61bd
00000120: 4e01 d7ba dec8 beba 948c 97b9 1f7b efbe
00000130: 7a68 b0b3 a41f c8b5 d78c 95b3 c59e 0cb6
00000140: 402b a0b4 b857 d4bb 306e 9ab5 f2c1 2eb8
00000150: 948c 88ba 915b 9bb2 a61b 2dbd 3fac b6b9
00000160: fcb4 b7b9 c03c b232 7d47 84b7 34b0 a6bd
00000170: 1311 32b9 f422 2ab2 b18f 12b5 f577 fda7
00000180: 619a e4bd b341 dfb5 9f09 cfa8 fc7e 61b7
00000190: 2720 baba f1ec 87b1 721f 94b9 a2d3 0cba
000001a0: 2439 b5b5 c849 83b6 f39f efaf c552 e2be
000001b0: 1803 46bb b9c6 80b5 8feb b83e cece 5db8
000001c0: dc73 31b9 2a06 b9b3 f6ef 8cb8 f0ce b3b8
000001d0: 61ae 72bc 21cf 68b5 00fc 0eb8 7313 14b6
000001e0: 1e9d babb c50f d8bb 7332 11be 06ab d8bb
000001f0: 7cfb e1bc d978 f0bc e90d 629e 7238 91b7
00000200: 66fb c3bc cfd5 39be b1bf 45bc b7b8 6e9b
00000210: f437 47b9 5ac7 f0b5 5b96 3dba a976 7ab1
00000220: 9b0c 86a7 5d14 94b2 7951 86b9 e960 92bc
00000230: fa9e d0b9 ab6e 56b9 aed4 dabd 4f92 85b0
00000240: c8d7 c1be 38b2 15bd 01b7 42b8 c0a1 3dbb
00000250: 342d 98be 1cf7 0bb7 5b77 78ba 6dbe a6bb
00000260: ae49 a4b2 aa33 90b8 73f6 acb8 d047 d2b4
00000270: d0c8 77b7 d6e1 61bd 91df 9abd c058 08b6
00000280: ef49 3cbd a0c4 cabd 6e57 dab5 de30 a8b6
00000290: 3b39 06b4 3291 0db3 588a f1b4 5839 ebba
000002a0: ec68 a2b9 087b 20ba e62e c6bb 5d05 7bba
000002b0: e6dc 8abe 4ca4 11b2 645c e1bc 9b9d 7cb5
000002c0: c9f8 5cb9 24f1 bd3e cbae 71b8 8461 8dbe
000002d0: 867e 1eb7 7190 99b3 8c68 73bb 9f6b 1bb6
000002e0: e3b8 acb5 afdd 44ba e388 74bb 3e4d 04bf
000002f0: 57bf 0cbc 3ec3 09b2 db8e c8b7 a42d e1bb
00000300: acf3 32bb 1536 d6b5 f28b f0b3 bc11 02b9
00000310: dffd 62b9 dbe7 74bc faf3 58bc 7158 57b7
00000320: dab0 a1b4 9dcc a9bc 75e5 91ba fdf2 2ebe
00000330: 6084 10bb 1295 39b7 1668 bbb5 722b 05be
00000340: 5e8f 57b6 2bb9 e8be 9248 34be 6883 a7b9
00000350: f51d b939 a665 2eb9 258e 1b92 c810 efbb
00000360: f848 3cab dd28 6fbc 2299 29bd cdd8 4db5
00000370: 8f7b c8b8 498e 28ba 960a 753b 2488 48b9
00000380: 00d8 88ad 9934 11b8 c17b 05bf ca80 10be
00000390: 162c 2eb1 781d 5fb7 1d6b e53e 8ef1 88ba
000003a0: ab24 1bb5 2456 4db7 30ed 84b8 7793 87bd
000003b0: c658 38bb 1472 28bb d477 b2be 5c2a b7bd
000003c0: 2ce6 04b2 2e98 3ab7 d213 6ebb 8b5b 95b4
000003d0: df0c 95b3 4d78 a1ac 8577 aab3 f9a0 edbd
000003e0: 1de9 79b7 ad3e f3b4 d8c9 d8b5 bfc2 00b9
000003f0: d753 26b1 35d2 8db9 0ed4 85bd 4fef 4cb6
-7.125842e-09 -0.28079337 -7.117449e-07 -3.713639e-07 -0.004153556 -1.4357599e-05 -0.0002894298 -5.213791e-06
-0.024596328 -0.0022760706 -0.018981507 -0.00016474337 -1.03082135e-11 -0.004546304 -0.003413507 -0.0023940408
-0.0003985685 -0.11531465 -0.005816775 -6.216772e-05 -5.486018e-05 -1.8261405e-06 -0.0016116741 -0.0007316023
-2.0508509e-07 -6.2287827e-06 -0.036533464 -0.0006741613 -0.00033784294 -0.00010623497 -3.038565e-06 -2.25943e-05
-2.4517016e-10 -0.25815505 -4.5065335e-08 -0.00393302 -0.008606897 -2.0618203e-17 -0.0010356924 -3.593557e-20
-0.0003104024 -1.4204137e-06 -1.1213555e-08 -2.2893497e-05 -0.3183717 -0.0003248196 -8.6456566e-07 -0.00017117654
-0.6093354 -4.3147637e-09 -0.00033287177 -0.00040610565 -2.8954219e-05 -4.0836915e-14 -1.0015298e-05 -0.38212743
-0.0003145749 -0.00017250069 -0.00063946034 -0.004203554 -0.0014206383 -0.0036108964 -0.0023375282 -4.359662e-05
-0.0005608598 -0.17244813 -0.5644354 -5.6088215e-06 -0.08474065 -0.001313798 3.798668e-07 -0.05510421
-0.0016403587 -0.0014555713 -0.00028905703 -0.4677362 -8.214643e-08 -1.491037e-06 -6.963972e-08 -2.0954042e-06
-2.983379e-07 -0.0064801835 -1.1505963e-06 -4.166546e-05 -0.0010417872 -1.8086014e-08 -0.042262696 -0.00034842078
-0.00035039324 2.0749553e-08 -1.5768916e-05 -0.08139077 -0.00016981763 -9.90325e-09 -5.4598337e-07 -7.0351664e-15
-0.11162258 -1.6633916e-06 -2.2985789e-14 -1.3440611e-05 -0.0014200256 -3.9559542e-09 -0.00028252188 -0.0005372112
-1.3502181e-06 -3.9126935e-06 -4.3587498e-10 -0.44203773 -0.0030214246 -9.594579e-07 0.36117217 -5.2883108e-05
-0.00016923196 -8.615855e-08 -6.7204164e-05 -8.57393e-05 -0.014812083 -8.6728147e-07 -3.409013e-05 -2.206504e-06
-0.0056949994 -0.0065936767 -0.14179401 -0.0066121845 -0.027585737 -0.0293545 -1.1967217e-20 -1.7311631e-05
-0.023923587 -0.18147968 -0.012069629 -1.9746583e-22 -0.00018998963 -1.7939412e-06 -0.00072321825 -3.6447239e-09
-3.720614e-15 -1.7238728e-08 -0.00025619174 -0.017868476 -0.00039791298 -0.00020449857 -0.10685097 -9.718607e-10
-0.3785994 -0.036546916 -4.642364e-05 -0.0028935522 -0.29721987 -8.34258e-06 -0.00094782346 -0.0050886185
-1.9125618e-08 -6.876078e-05 -8.247504e-05 -3.91678e-07 -1.4769103e-05 -0.055147015 -0.07562173 -2.0317239e-06
-0.045968946 -0.099007845 -1.6267711e-06 -5.012479e-06 -1.2500543e-07 -3.2961175e-08 -4.4990406e-07 -0.0017946167
-0.0003097722 -0.0006121849 -0.006048071 -0.00095756893 -0.27121657 -8.477468e-09 -0.027509876 -9.410666e-07
-0.00021073515 0.37098038 -5.7621666e-05 -0.2761346 -9.446992e-06 -7.1508914e-08 -0.0037141172 -2.3159444e-06
-1.2868808e-06 -0.000750984 -0.0037313036 -0.5168036 -0.008590541 -8.0188425e-09 -2.390838e-05 -0.006871896
-0.0027305884 -1.5959982e-06 -1.1201327e-07 -0.00012404373 -0.00021647614 -0.014947857 -0.013241762 -1.28355905e-05
-3.0117263e-07 -0.02072745 -0.0011131006 -0.1708488 -0.0022051558 -1.1061567e-05 -1.3962879e-06 -0.13004854
-3.2120947e-06 -0.45453772 -0.17605808 -0.00031950627 0.0003530827 -0.000166318 -4.9084583e-28 -0.0072957017
-6.689228e-13 -0.014597145 -0.041405804 -7.668394e-07 -9.559758e-05 -0.00064298935 0.0037390343 -0.00019124203
-1.5557333e-11 -3.461968e-05 -0.5214196 -0.14111629 -2.5345392e-09 -1.3298697e-05 0.44808283 -0.0010447965
-5.779536e-07 -1.2239008e-05 -6.33843e-05 -0.066199236 -0.0028129085 -0.0025702761 -0.34857047 -0.08943626
-7.735746e-09 -1.1121896e-05 -0.0036327732 -2.782002e-07 -6.9406944e-08 -4.5892513e-12 -7.9379824e-08 -0.11602969
-1.48958325e-05 -4.530788e-07 -1.6151998e-06 -0.0001227958 -2.4203837e-09 -0.00027050232 -0.06534587 -3.0537665e-06

fc2.weight f4 [256, 256]
00000000: 92cc 4611 2c9b f92e 4d5d a9ad 84f0 59b1
00000010: 94b2 8b38 af7a 2ea4 7371 0d8c faeb 768c
00000020: 6ec4 bd00 118d 0680 0a9e 1913 cc8a 6028
00000030: 9091 0280 8225 6519 f050 58b6 e971 0180
00000040: 1b42 e62d 6887 0280 e21a dab0 17d2 480b
00000050: 341c 0780 04d3 cf0c 504b 073b 6ff5 e016
00000060: 0bcb 0080 00ae 0000 6147 a414 2a34 d984
00000070: 3134 0280 0412 1bb4 9a05 8913 b5e2 7717
00000080: dc94 0200 7dda 1d80 f801 3f01 377f 0700
00000090: 5d28 1c0d 625c 0000 88ed 2394 f641 0100
000000a0: 0097 c703 36c6 0195 e0ff ca8b f47b 3eae
000000b0: f5ad 0c3a 01a3 7032 ffae 0180 16dd df85
000000c0: 3493 3430 e51d 1c00 6096 0d9e c8e0 bd35
000000d0: 5387 0410 06ba 2180 1054 3a8d b959 8734
000000e0: 0fb0 260a 617a 148e 38d0 0e19 f4b0 0280
000000f0: 937b 992c 3c9c 8f91 ba83 0080 3449 d609
00000100: 78d7 3111 93ea 9c8e 2d97 0c80 cd80 ab14
00000110: a620 af84 4449 eb92 6e9e 0000 a7e7 1500
00000120: 6cda 0000 a489 691e 4715 caaf a4a4 0937
00000130: 947e c215 00e8 ca19 38c1 ba04 5e31 0000
00000140: 5031 b213 6c6f 8598 a90b 359a e04b 0200
00000150: 384c 9899 002a 0000 56fa 28a6 97a5 0580
00000160: 2781 c293 3905 0080 39e2 b494 562c f229
00000170: f9d4 5999 2062 d081 14b1 3291 67da f115
00000180: ad4f 1700 ef5d 0200 a0a6 ef8e 3776 4883
00000190: 3389 bd87 ed48 ce97 1779 b028 b241 0080
000001a0: fa64 0000 c2de d690 62a8 0100 8db4 f0b9
000001b0: 8d45 3d00 1c60 0280 fed7 0abe b192 ffae
000001c0: 496d e296 3a65 0080 99b5 1d00 59c9 a632
000001d0: 3ee7 c191 43a1 6d00 e306 07b8 6c50 163b
000001e0: 5790 a38b 9cd6 e695 a685 7a91 7f2c 76b4
000001f0: b4ec 8a02 5d76 d1af d797 0200 d2b0 0a00
00000200: 60de 4e94 6756 0600 237d a318 8b59 9e89
00000210: c67f 0e00 5da9 0200 d6ed 2518 0be8 140c
00000220: 68a4 2b85 70b6 2f2f 7124 0107 b174 2780
00000230: b5c5 82b2 d93d 5fb3 6bd8 a230 1b18 9585
00000240: ded9 0a00 70c0 263b 8a92 9983 94d3 e508
00000250: e46d 7833 aced 2d94 51a9 9218 0460 bf3a
00000260: 1adb 082d fb7c 6082 7207 0700 de99 0180
00000270: a0c0 d316 6787 0e2d 174e 4e03 b1ca 0930
00000280: 3f13 9b17 9e44 cb00 4212 cc0c 5b41 a794
00000290: 9a03 3ca8 5cf3 9fb0 9bee 88b9 a8cf f105
000002a0: 883d 3080 2e19 0080 274a a511 6baf 0191
000002b0: a468 ec8a 4153 3294 ccb1 3400 56a4 428f
000002c0: 16dc 948e 0605 57bd 7f60 d291 d937 b4b8
000002d0: 3cd7 7898 29c1 910a ce85 9b96 7bde bc2d
000002e0: 5af5 0602 10b3 0000 e1fd b2b2 763e 2600
000002f0: 50ec 10b2 283d 0100 e837 1614 c708 ea94
00000300: e071 2b92 1b45 0900 08b7 0100 95d1 0580
00000310: bd69 0280 efd6 b4b3 3936 9f8f f268 1736
00000320: 674a 9d01 12f5 f907 eb5f cdb7 2064 0280
00000330: 7f60 5a35 055d 0280 096a 0000 16b5 112e
00000340: 444e dd8f 6987 813d bcf9 2db7 ddb0 da0b
00000350: 8b0d db10 c05e b98c 4e11 0100 dc28 9b33
00000360: 3b5a 0111 6392 fdb4 1ec4 a88e 609d 3c03
00000370: bb63 0600 9c87 0b8e 1927 0000 eb24 5b14
00000380: cf64 0c00 5c5c b90e 3052 5231 5a7f 1034
00000390: 9e09 a712 0866 2d86 e54e 1cbe c38b 0000
000003a0: 2d92 8f89 951c d1b7 b028 b0b5 2260 8d39
000003b0: 98a5 d817 f47f ce37 c065 4611 5974 cc94
000003c0: b47c 0aad cb20 6f91 ba6a 8b37 4f27 3695
000003d0: 6ee4 f12a b788 3680 aa0d d29f b84a 1d2c
000003e0: 6ad9 0080 6248 5e0e 0490 0b13 933e 0680
000003f0: 06d1 0500 b504 d130 0263 c72d aa88 0e80
1.5682484e-28 1.1350773e-10 -1.925451e-11 -3.1714373e-09 6.661299e-05 -3.7834153e-17 -1.0896385e-31 -1.9022162e-31
1.7427374e-38 -6.01618e-40 1.9389234e-27 1.2464595e-14 -2.35889e-40 1.1846597e-23 -3.223362e-06 -1.32699e-40
2.617733e-11 -2.32246e-40 -1.5869228e-09 3.8676653e-32 -6.52966e-40 3.20204e-31 0.0020644255 3.6344042e-25
-7.2838e-41 6.242e-41 1.6587922e-26 -5.106436e-36 -2.02394e-40 -1.4442054e-07 3.4589186e-27 8.009615e-25
2.37072e-40 -2.741608e-39 3.5082572e-38 6.88485e-40 4.8119797e-31 3.3141e-41 -8.276242e-27 1.15498e-40
1.1730837e-36 -2.6207703e-26 -7.819257e-32 -4.331109e-11 0.0005366498 1.4006901e-08 -1.54612e-40 -2.1052033e-35
6.5692807e-10 2.582118e-39 -7.495575e-21 1.4147017e-06 2.613666e-29 -3.097304e-39 -5.741686e-31 2.521099e-07
8.025722e-33 -1.8301332e-30 7.383277e-24 -2.4715e-40 4.362241e-12 -2.2657709e-28 -4.7255e-41 5.1587466e-33
1.4029234e-28 -3.8682856e-30 -1.156258e-39 1.731739e-26 -4.1172285e-36 -1.4848646e-27 5.6834e-41 2.011647e-39
7.8355e-41 1.2363381e-20 -3.6758704e-10 8.20417e-06 7.855568e-26 2.0980015e-23 4.3905833e-36 1.771e-41
4.4982143e-27 -3.44922e-24 -3.7439342e-23 2.1089e-40 -1.5747216e-23 1.5067e-41 -5.8625977e-16 -5.1858e-40
-4.909984e-27 -1.874e-42 -1.8264584e-26 1.075465e-13 -1.12616465e-23 -7.6547935e-38 -1.409629e-28 9.76837e-26
2.140799e-39 2.17368e-40 -5.9078503e-30 -5.891042e-37 -2.8518198e-34 -1.3330847e-24 1.959244e-14 -2.3567e-41
3.6224e-41 -8.475133e-29 1.5224e-40 -0.00045910888 5.626915e-39 -2.18149e-40 -0.13558957 -1.1622115e-10
-3.6581238e-25 -3.6313e-41 2.728374e-39 1.9416506e-08 -3.0592545e-28 1.0067919e-38 -3.2192922e-05 0.0022936119
-6.3002495e-32 -9.3234854e-26 -1.9762706e-28 -2.2926723e-07 2.0413138e-37 -3.810098e-10 2.38141e-40 9.81786e-40
-1.0444198e-26 5.82008e-40 4.226087e-24 -3.8121322e-33 1.331533e-39 2.44427e-40 2.1445827e-24 1.1471333e-31
-8.070578e-36 1.5980972e-10 9.71559e-35 -3.623445e-39 -1.5223899e-08 -5.1977484e-08 1.1848561e-09 -1.4020748e-35
9.96511e-40 0.0025444292 -9.0261755e-37 1.3832178e-33 5.7841945e-08 -8.7811405e-27 3.791108e-24 0.0014600758
7.779355e-12 -1.6492789e-37 6.4552e-40 -1.47033e-40 3.4210452e-25 8.101831e-12 6.06276e-37 5.012835e-10
1.0021499e-24 1.8667221e-38 3.1442165e-31 -1.6888469e-26 -1.0436877e-14 -1.163794e-09 -0.00026117716 2.2739812e-35
-4.430177e-39 -9.033e-42 2.607811e-28 -1.023036e-28 -2.2765335e-32 -9.003122e-27 4.839227e-39 -9.5965884e-30
-3.6696752e-30 -0.052495025 -3.3191628e-28 -8.593471e-05 -3.2161914e-24 1.4035651e-32 -2.5126043e-25 2.1471927e-11
9.915178e-38 6.4236e-41 -2.0837378e-08 3.512156e-39 -8.435634e-09 1.13774e-40 7.58409e-27 -2.3631424e-26
-5.409845e-28 8.5131e-40 1.57495e-40 -5.34361e-40 -2.21603e-40 -8.4209994e-08 -1.5699496e-29 2.256184e-06
5.7779454e-38 3.7609395e-34 -2.448257e-05 -2.19589e-40 8.135175e-07 -2.1704e-40 3.8038e-41 3.313002e-11
-2.182243e-29 0.063246556 -1.0369749e-05 8.423666e-32 8.6401135e-29 -2.8560789e-31 9.8043e-41 7.225182e-08
1.020411e-28 -4.7231433e-07 -4.160405e-30 5.542889e-37 5.8679e-40 -1.7198366e-30 1.4026e-41 1.1063955e-26
1.138189e-39 4.569496e-30 3.060574e-09 1.3457375e-07 1.05415525e-27 -3.2612644e-35 -0.15264471 5.0137e-41
-3.456346e-33 -2.4928051e-05 -1.3124863e-06 0.0002696524 1.4000475e-24 2.4616696e-05 1.56508e-28 -2.0644627e-26
-7.8720815e-12 -1.8863881e-28 1.661979e-05 -3.6785616e-26 4.2968705e-13 -5.008161e-39 -8.8961065e-20 2.235252e-12
-7.7993e-41 2.7398464e-30 1.7615272e-27 -5.7346e-40 5.34161e-40 1.5208089e-09 2.2667649e-11 -1.334723e-39

fc2.bias f4 [256]
00000000: 246f 1abb 85ea bbbb 722f 8f3e f17d c0bd
00000010: 7121 9c3c ce75 70bb 6a27 4abd 5db5 80bd
00000020: 077c 91bb 89e3 96bb 984f d6bd d8e9 90be
00000030: 2a5a 24be 1cf8 11be b0f0 7338 8bc5 863d
00000040: 7353 0abb 7b8b cabe 6a17 afbd 6449 103d
00000050: dd9a 083f 3313 02ba 9c3d 38b9 2aee 58be
00000060: 84c2 96bc a181 b53c 92c1 60be 000d 7dbd
00000070: bb12 96bd 9f6e d63b 602c 95bc 8de1 a33c
00000080: af85 4b3d cfea 3340 a20e 24be 07e5 05be
00000090: 686c b23a 9191 7dbe 3a19 fabd 58f0 6cbd
000000a0: 65d8 63bb 7bb2 4e3d ee39 ccbd cf73 0abd
000000b0: 69e2 11be a81e b5bd 4063 0340 9c11 eb3d
000000c0: 2ffc 3740 d69d 02b5 0ec8 ea3c 1318 a3bc
000000d0: 40db 32b9 b80d 5eba d608 b93d d84f 89be
000000e0: c07d 1e40 2717 64bd a5dc f4be c311 183e
000000f0: 1fbe 38bc 3b9f 12b3 1d60 6dbd 8c91 403c
00000100: d7fa 2d3e 1bf8 833b 1bd1 1b40 7495 2ebe
00000110: f73f 913e 3528 403f 5e6a e8bc 2ab1 64bc
00000120: 4544 3b40 81aa 33ba 4450 0440 6e08 bebd
00000130: e27d 07bf c36a 51ba e77d 0a3f e614 f6bd
00000140: 6d6b 50b6 b9ef 92b9 7d93 8cb9 90c6 2fbd
00000150: c170 a2ba 9498 1a40 d777 87b2 1b01 0bbb
00000160: 8938 0240 71ee 3fba 9ef8 6bb9 0400 03bb
00000170: e218 8bbe e5ce 13bc 38d9 0cbc 67bc 2abb
00000180: 8736 f93f 9226 1bbe 2fa4 d5bb 448f 62be
00000190: 2e32 943e 2d2d dc3f 3893 b23f 28e9 a3be
000001a0: a2c8 a53b a1b3 50be 430e b2bd 3127 8cba
000001b0: a789 12b9 f869 31be d74b 0fbd c1dd 7d3e
000001c0: 1936 7c3f 062a 46be 4848 47be 30ed 9abd
000001d0: 99ba bbb9 db6a a5bc 214a 8d3e cb6c 0eb9
000001e0: 65f4 9fb8 f271 04bb b2bf 2ebc 3ebb 4eba
000001f0: 988e 6037 441b 44bc f8f2 6b3d 19ae 8ebd
00000200: 9c0e 80be 830e 8abd 7200 83ba 9759 9ebe
00000210: b08a 4840 36fe 863f 2a98 0dbc 52e0 06be
00000220: efcc e4bd c3e4 20bb f97c a1b9 9393 1dbe
00000230: f648 32be 6967 8dbe 8ade bcbd 14b5 8a3f
00000240: 1470 7740 da3b 9239 630c 21bd 8519 3bbf
00000250: c68d 94bb 8bcc 90b9 fcb3 4ebd 6208 9a3d
00000260: e2f9 3eb8 7c88 59ba f243 803d 6b11 5fbe
00000270: 597a 71b9 0da5 ffbc 90b0 0bbe 40d9 733f
00000280: 1012 ecb3 212b f8b9 841f 7dbe c62a eab9
00000290: 60c5 b5bb 06b9 bdb6 f7b1 58be 6808 40bd
000002a0: 34c2 21ba caec abbe 8abe 17bd 2894 7940
000002b0: 5a52 5cbb 35dd 16bb 8884 84bc 1120 4a3e
000002c0: b0d2 ee3b 679a a7be 47eb 42bc 3189 613f
000002d0: 0279 1b40 00d9 6eb8 9b42 efbd daf6 57b9
000002e0: ed33 bbbd efdb 1fbe acf9 a2be 6a29 53bd
000002f0: 6e52 1fbe 05a9 253c 6eff 80be d2a2 41b8
00000300: 5ee2 7fb9 9055 1eb8 9adc a8bd d586 9fbe
00000310: 6021 2ebb a74e 4aba dbd7 99bb aafd afb9
00000320: 40a0 473f 5d3e 7bbc 80f0 3d40 15c0 f0bb
00000330: f7a1 a4be 84f5 9cba f5b1 fbbd 94b4 d2b9
00000340: b077 97bc 0563 3040 6a90 52bd a449 fbbb
00000350: 80cf 4db9 afb4 c43c 9df9 713e aee0 efb9
00000360: 6f75 4ebc 7e3e 73bb 0f4e 9a3b 3bbb 94bb
00000370: 5535 f5bc 9047 d8be 6cbd 79b9 7e4c 21b9
00000380: cfe2 bebd 7002 37bd c0da 3f40 1c9c 24b9
00000390: 0bff 05bd 7e22 14be 0087 51bc fcfb 88ba
000003a0: a837 973d 7f27 523b 4f75 833e 34da e5bd
000003b0: a304 a03e c4d0 5d3a fec5 d2bd 68be 003e
000003c0: 0614 46b5 4a78 87bd f645 08be 91f2 40bc
000003d0: a5f9 1f40 f054 5f3e 11a3 59bd 27d8 1f39
000003e0: 61af bbbd 590f babc 5a5d f1bc 7c61 efb8
000003f0: fe3c 8fbc 609a 25bd b68f d23f 89e1 e5ba
-0.002356478 -0.005734744 0.27965885 -0.093990214 0.019058915 -0.003669131 -0.049353994 -0.06284592
-0.004439834 -0.004604761 -0.104644 -0.2830341 -0.1605002 -0.14254802 5.8159872e-05 0.06580647
-0.0021106869 -0.3955954 -0.08549388 0.03522624 0.533613 -0.00049619674 -0.00017570559 -0.21184602
-0.0184033 0.022156538 -0.21948841 -0.061779976 -0.07327791 0.006543949 -0.018209636 0.020005012
0.049688037 2.8112066 -0.16021207 -0.13075648 0.001361263 -0.2476256 -0.12211843 -0.057846397
-0.0034766432 0.05046318 -0.09971987 -0.03380185 -0.14246525 -0.08843738 2.0529327 0.11477968
2.874767 -4.8658455e-07 0.028659847 -0.01990894 -0.0001705708 -0.0008470672 0.090348884 -0.26818728
2.4764252 -0.055686142 -0.47824588 0.14850526 -0.011275797 -3.4138093e-08 -0.05795299 0.011753451
0.16990219 0.004027379 2.4346378 -0.170492 0.28369114 0.7506135 -0.028371032 -0.013958255
2.9260418 -0.0006853715 2.067399 -0.092789516 -0.52926457 -0.0007988626 0.5409836 -0.12015705
-3.1056945e-06 -0.00028025897 -0.00026812768 -0.042913973 -0.0012393222 2.4155626 -1.5770565e-08 -0.0021210376
2.0347006 -0.00073216023 -0.00022503964 -0.0019989023 -0.27167422 -0.0090214955 -0.008596711 -0.0026052238
1.9469765 -0.15151432 -0.0065198164 -0.22124964 0.28944534 1.7201287 1.3951178 -0.32013822
0.0050593177 -0.20381023 -0.086941265 -0.0010692832 -0.00013974925 -0.1732558 -0.034984436 0.24791624
0.98520046 -0.19351968 -0.19461167 -0.07564771 -0.00035806446 -0.020192554 0.27595618 -0.00013582704
-7.627233e-05 -0.0020209518 -0.010665821 -0.00078861776 1.3384641e-05 -0.011969391 0.05760476 -0.069668
-0.25011146 -0.06741049 -0.000999464 -0.30927727 3.1334648 1.0546329 -0.008642236 -0.13171509
-0.111719005 -0.0024550415 -0.00030801425 -0.15388326 -0.17410645 -0.27617958 -0.092221335 1.0836511
3.8662157 0.00027891883 -0.039318454 -0.73085815 -0.0045335023 -0.00027618217 -0.050464615 0.0752113
-4.553225e-05 -0.0008298231 0.062629595 -0.21783988 -0.00023029129 -0.031206632 -0.13641572 0.9525337
-1.0992892e-07 -0.0004733438 -0.24719054 -0.00044663827 -0.0055472106 -5.6541785e-06 -0.21161638 -0.046883017
-0.0006170601 -0.33579093 -0.037046947 3.8996677 -0.0033618421 -0.0023020033 -0.016176477 0.19738795
0.0072882995 -0.32734987 -0.011896915 0.8809996 2.4292607 -5.694572e-05 -0.11682626 -0.00020595957
-0.091407634 -0.15611242 -0.3183111 -0.051553167 -0.15558788 0.010111098 -0.25194877 -4.6166424e-05
-0.00024403023 -3.774982e-05 -0.082452014 -0.31157556 -0.0026570186 -0.00077174086 -0.0046949214 -0.00033567596
0.779789 -0.015334693 2.967804 -0.0073471167 -0.3215482 -0.0011975025 -0.12289802 -0.00040188862
-0.018489689 2.7560437 -0.051407255 -0.0076686908 -0.00019627623 0.024011938 0.23630376 -0.00045753032
-0.012601241 -0.0037116106 0.0047090123 -0.004538921 -0.029932657 -0.42242098 -0.00023817056 -0.00015382652
-0.09320604 -0.04468006 2.9977264 -0.00015698414 -0.03271393 -0.14466283 -0.012788534 -0.0010451074
0.073836625 0.0032066999 0.25675437 -0.112232596 0.31253538 0.00084615895 -0.1029167 0.12572634
-7.3789886e-07 -0.0661474 -0.13307938 -0.011776582 2.499612 0.21809745 -0.053134028 0.00015243945
-0.0916431 -0.022712396 -0.029463459 -0.00011414566 -0.017485138 -0.040430427 1.6450107 -0.0017538528

fc3.weight f4 [256, 256]
00000000: 9d95 0000 b9c0 851e 8f71 9db3 ae52 9120
00000010: 6a25 1f20 aa2e 4ca7 e535 7499 6e91 0eaa
00000020: ec4e 0100 42ac 0080 4f6c 0180 2172 4e0c
00000030: 211d cab7 6828 d727 c431 3dab 634d 0fb1
00000040: 0e9a 0280 1273 1cb5 adce 87ac 0801 45b8
00000050: e515 0c26 d6ca 27a6 01fe 0100 4fe6 a8b1
00000060: 4669 649a 1d5f 92b0 8a5b 39a1 9f74 f4b2
00000070: ca65 de26 a19e 2525 f47e 0180 4685 2228
00000080: 1206 50b5 5546 252d d609 8cab 8649 121b
00000090: 2538 00a8 9b47 cbb4 225c 0080 b325 c3b2
000000a0: 295a bda9 51e2 8920 2e25 0180 9a18 1eb5
000000b0: 0d8d 0aae 47c7 0000 51d3 72b2 8172 39a5
000000c0: da15 92a6 d60d 0280 fe40 f3a1 1ed8 0b21
000000d0: bbc0 0127 4847 0180 2670 0bab cd1e 0100
000000e0: 5dc8 43a7 aa4e 0200 8fcd 0280 df7a 832a
000000f0: 1289 0000 0720 0100 0437 272a 4db6 0100
00000100: 7601 3728 a6b1 7d1e 6d0f baa9 b7ac ceb2
00000110: f254 7dab 85b5 5f27 2aec 1c9c 5e41 0100
00000120: 3d5f 942c 93b1 1123 1332 15b7 1257 0080
00000130: 9ef3 a9a2 e8f5 ef21 5f42 fc28 1ffd 24b4
00000140: 6b9e 1aa5 6d26 bea0 7f8d a41b 8075 c325
00000150: 2202 0080 713e b3ab f218 0180 873f 3426
00000160: b375 49ac 08a7 0828 ac02 0280 c145 0000
00000170: ec55 1f97 e0ce 81a2 c130 b7a6 16d2 0180
00000180: 5560 2eab f278 0200 ad71 0080 7345 d0b7
00000190: 969a 1b26 f0f1 99ab c744 afab 25d6 452a
000001a0: d4dc c19e e03a 9b1f 32ae d41e c9f6 669e
000001b0: 7a63 0000 3260 1d1f a7a6 8b21 c694 9925
000001c0: a5f2 09b2 dc99 169e c801 e1a5 48ca a51e
000001d0: dec3 0d00 c614 9a1f 4785 99b2 3b34 bba0
000001e0: 9c7e 1a00 2cf4 519e 54f2 0080 d61c 0280
000001f0: d6d0 a71e 5b06 2a80 74bc 52b5 b85d 70a5
00000200: 352d efb4 3c8a 3698 94eb a223 4191 37b4
00000210: aaee fdab 63f0 aa26 9f14 0180 c956 c21f
00000220: 4478 3ba6 0981 0180 f2ed 8bab 3287 0100
00000230: 3448 0000 7021 0d21 3ee5 6827 ee08 f02b
00000240: c4d5 982b a6b5 baa2 8f1f 0280 b271 d428
00000250: 9600 9327 626c 0000 cead 2228 f19f 6fb6
00000260: 7789 0180 bceb d79e c0e7 4625 aac5 3622
00000270: ac55 0080 224d 079a d0b2 89b4 8c53 02a6
00000280: 7daf 0180 65e5 fa9c 894e 9fb6 1357 68a7
00000290: 5bca cf1e 863b 0080 917d 929e d90a 0180
000002a0: 1537 7726 2206 1c9b b4f5 c8a7 a7d0 4a2c
000002b0: 6c1f 30a3 c9f4 cea3 a68c 0100 c5cd 3e2a
000002c0: ccf8 c199 e582 7fa8 0fed 0280 bc03 0928
000002d0: 2dc0 472c 2fe3 2db4 8be1 8bb0 6295 2da7
000002e0: 1abf 8ea5 3b76 0180 1dee 3d1e e6b0 0129
000002f0: 2094 c128 a04e 0100 877d 05af 9299 36a4
00000300: 58d4 9a27 9e6d 0ab6 fa8f 0b1d 5a85 06b6
00000310: 20eb 0700 d368 0000 f23b 83a2 12fb c127
00000320: 552a 44b6 837a 8221 4f94 e3ab ba0c 0ba5
00000330: dc58 0ba8 1d01 0000 b4fd abb1 7708 0080
00000340: d043 13a7 9ee4 0bac 47aa dcb2 8e41 06a5
00000350: 4ef3 e19d af34 d1b6 4611 952a 6fbc 0100
00000360: 94f0 1fb5 cd3b 0100 a250 fa20 339f 5e9d
00000370: d484 1bb2 3397 0180 06b9 0080 21d2 0000
00000380: 38f9 0280 268e 1280 d4a7 3ca6 628f 0100
00000390: a82e 0200 044d 0000 9aec 0000 d6a8 c5a7
000003a0: 2032 8fa9 5ecb 17ac 93f4 5fb7 708f 0080
000003b0: f169 ce2c 9c97 10a7 215a a221 370e 97a9
000003c0: 3a7a 0280 1269 449f c3f7 c7b1 97c8 3f1c
000003d0: cc7c d9b3 9efb 8b1e 9680 3ea9 f151 0000
000003e0: 1477 8da7 e8b3 582b 8f73 4a9f 2315 1826
000003f0: 1a54 4025 65b5 f1a4 077c c62b 1c4b 0100
5.3671e-41 1.4161631e-20 -7.3315384e-08 2.4618668e-19 1.3480203e-19 -2.8335984e-15 -1.2625388e-23 -1.266259e-13
1.20147e-40 -6.1794e-41 -1.30689e-40 1.5904007e-31 -2.409384e-05 5.9718296e-15 -6.721535e-13 -2.0853228e-09
-2.38935e-40 -5.828198e-07 -3.8598764e-12 -4.696942e-05 4.860193e-16 -5.821466e-16 1.82955e-40 -4.9156266e-09
-4.7234334e-23 -1.0649931e-09 -6.280159e-19 -2.8458372e-08 1.5431934e-15 1.4365214e-16 -1.37378e-40 9.0217056e-15
-7.749487e-07 9.394781e-12 -9.950328e-13 1.2100594e-22 -7.117602e-15 -3.7863796e-07 -3.3051e-41 -2.2718131e-08
-8.4089264e-14 2.3358466e-19 -1.05173e-40 -5.8895387e-07 -3.1502845e-11 7.1487e-41 -1.4134302e-08 -1.6084988e-16
-1.0136708e-15 -1.88634e-40 -1.6483524e-18 4.738106e-19 1.8006826e-15 -1.17406e-40 -4.953836e-13 1.02885e-40
-2.7170303e-15 2.1189e-40 -2.57412e-40 2.3355534e-13 4.9172e-41 1.03325e-40 1.4851667e-13 1.57233e-40
1.01588575e-14 1.3430445e-20 -8.262735e-14 -2.4060098e-08 -9.000154e-13 3.1045869e-15 -5.1921305e-22 1.15285e-40
4.2169866e-12 7.8980686e-18 -8.892751e-06 -3.1235e-41 -4.606548e-18 1.6260361e-18 2.8006404e-14 -1.5365775e-07
-1.3411045e-16 -3.221268e-19 2.7222964e-22 3.390673e-16 -7.65e-43 -1.2736046e-12 -1.00784e-40 6.253614e-16
-2.8629154e-12 7.585736e-15 -1.8463e-40 2.5023e-41 -5.148412e-25 -3.5184557e-18 -1.2711391e-15 -1.672e-40
-6.1950906e-13 2.27058e-40 -4.0779e-41 -2.4827872e-05 5.398593e-16 -1.0938455e-12 -1.2453587e-12 1.7571411e-13
-2.0526002e-20 6.5742454e-20 2.2518419e-20 -1.22271326e-20 3.5685e-41 3.3325614e-20 9.463119e-19 2.6642082e-16
-8.0296205e-09 -7.972751e-21 -3.9032485e-16 1.7553716e-20 1.264125e-39 6.5255904e-20 -1.7872152e-08 -3.1713595e-19
2.433142e-39 -1.11148614e-20 -8.6931e-41 -1.94015e-40 1.7768185e-20 -3.859371e-39 -7.850533e-07 -2.0848435e-16
-4.4550112e-07 -2.359274e-24 1.7663846e-17 -1.7096046e-07 -1.8042974e-12 1.1861277e-15 -9.9233e-41 8.230577e-20
-6.504165e-16 -1.38125e-40 -9.942587e-13 1.40334e-40 2.5902e-41 4.781691e-19 3.232074e-15 1.7055504e-12
1.0859581e-12 -5.060773e-18 -1.94992e-40 2.3586036e-14 4.080133e-15 3.888e-41 9.030494e-15 -3.5706873e-06
-1.41149e-40 -2.2861508e-20 1.7252282e-16 2.4770242e-18 -3.0733e-41 -2.7979653e-23 -2.5648342e-07 -4.521604e-16
-1.54789e-40 -1.6602909e-21 -4.747712e-06 -3.224367e-15 2.200067e-20 -2.1353e-41 -1.5510284e-20 -9.5727e-41
8.576999e-16 -1.2905999e-22 -5.5777543e-15 2.8821752e-12 -9.547633e-18 -2.2438235e-17 1.4229e-40 1.694678e-13
-2.005622e-23 -1.4183727e-14 -2.68712e-40 7.6058375e-15 2.838628e-12 -1.619453e-07 -1.0177684e-09 -2.4089553e-15
-2.476257e-16 -1.34249e-40 1.0054817e-20 2.879719e-14 2.1491543e-14 1.20041e-40 -1.2140876e-10 -3.9595038e-17
4.297381e-15 -2.0627408e-06 1.847093e-21 -2.0045177e-06 7.27195e-40 3.7604e-41 -3.557109e-18 5.384047e-15
-2.9230916e-06 8.841571e-19 -1.6170484e-12 -1.206064e-16 -7.735318e-15 4e-43 -5.0055977e-09 -3.037e-42
-2.043711e-15 -1.9879996e-12 -2.5688804e-08 -1.1644858e-16 -5.9808575e-21 -6.2348186e-06 2.6479703e-13 1.59433e-40
-5.9582203e-07 1.13288e-40 4.2405006e-19 -2.946376e-21 -9.052389e-09 -1.46076e-40 -6.6374e-41 7.538e-41
-2.73074e-40 -1.704032e-39 -6.545305e-16 1.43272e-40 2.00408e-40 2.7628e-41 8.4877e-41 -5.4861536e-15
-6.359171e-14 -2.1571282e-12 -1.334878e-05 -5.1456e-41 5.866634e-12 -2.0066202e-15 1.1001404e-18 -6.708213e-14
-2.27518e-40 -4.1591527e-20 -5.8198295e-09 6.3455855e-22 -1.012755e-07 1.4821264e-20 -4.2300005e-14 2.9395e-41
-3.9264466e-15 7.6988286e-13 -4.2870752e-20 5.276424e-16 1.668184e-16 -1.04824384e-16 1.4103171e-12 1.1878e-40

fc3.bias f4 [256]
00000000: 554e 912b 8cc8 92a1 947f 53a2 6886 05ab
00000010: 3769 0e3a cb86 37b9 ad2e a4ae 00cf 8739
00000020: 82d9 e828 c44e fa39 818f 453e b9da 88b1
00000030: 1c60 0080 59f8 35ad 4808 a9bc d089 4739
00000040: c20b 70b9 f208 5fb8 7237 9538 650e 0080
00000050: d689 119f fa4d 87b8 0e78 4cb9 a72a 763a
00000060: 5c2f 46bb f445 49b0 6c6c 03b0 f4e2 8eb1
00000070: cb02 a8ba 0eab 973e 525c 88b9 a5ec 89ba
00000080: d1e8 13b4 3833 43b9 cd67 64ad eb54 a1ba
00000090: 4c99 10bd 6fa7 0c3d 95ef 81bb 7bfa fe95
000000a0: 78dc 24bb 6bd7 b3b1 401b 94ba c668 46b4
000000b0: b048 483b 0467 c9b9 f39a d8bd c202 cc35
000000c0: 0247 1313 bb3d 993e 6c8f ab2a b26e c5b5
000000d0: e1b7 b6bc 5222 8bb9 3a9a ed30 533c 27b1
000000e0: 1ce1 72b9 7f66 8cbb f307 bdbd 9c3a 183a
000000f0: c687 6986 2020 95ae b412 8632 a0af feb6
00000100: d792 283d 6b65 2c8a ea50 c72c b0a6 6821
00000110: 4887 acb4 2095 6839 d0ba 7f39 e8bc 6533
00000120: 863c 6fbb 5462 0200 0278 cdba 1187 efba
00000130: 821a ac34 463d e830 f177 9f3d a3fa 9a8d
00000140: 4034 92bb 79e0 bcad e8ce a33c a244 bc3a
00000150: 3f37 9bbd 84f3 c937 38de 0200 29e4 9596
00000160: d4af b31f fdb7 c3bb 2ca4 153b 5e3b b5b6
00000170: c854 ad34 81c9 b7b0 bcb8 43ac 4c0c c134
00000180: 70ad 892f f9dd 7eb4 5738 b3be a0ba d538
00000190: 3b76 873b 3d0a c1b6 604e 4c38 9100 59bb
000001a0: fb8c 8231 127a 07b5 1594 eab7 b46b e23b
000001b0: a75e 7138 fba8 7cbd b5f7 0138 9016 4f36
000001c0: dd99 ae39 c66b 3c2e 7a35 e9b7 226e 7c3b
000001d0: 089f fd39 290b cdb8 70c3 0e18 bcfd d83f
000001e0: f8b1 d639 8e57 07a7 bbc7 3db2 9760 ce3b
000001f0: 10ff 8db7 0ba2 34ba 9af8 933d c4aa 873b
00000200: 62aa 81bc cb48 173b 80af 3b9d 4b83 a221
00000210: 974d 5eb8 aa39 30b8 9ae7 9629 0fee ad2e
00000220: 3c65 63bb 0d99 0280 7290 eb39 5e13 06b7
00000230: 9886 94b6 de7a d0af 4546 1c35 6afb 733a
00000240: d298 74b1 fb9b d4ac cdd5 0aba 569d 60ba
00000250: d6d2 5eba c21a 88b9 806d 583b 649e 163a
00000260: ee51 10b7 b3f7 f23b 720e 0332 2be2 cc3f
00000270: eef4 7cba d005 d33b 97a0 9cb7 78c5 5f3a
00000280: 5651 5638 cd77 4937 f99b abb7 bcc3 ca32
00000290: 7e68 961e da12 efb8 2133 ae31 f17a 160c
000002a0: 0b13 383c 3606 2c3b 319f 4a03 8ef0 1638
000002b0: 30b4 1f3d e741 4c14 b64d 87b4 7525 d224
000002c0: 3d3b ebbd 300f 1dba e65d 62b5 fc0d d5b9
000002d0: 10ab 7636 9c10 8738 61d4 212e 7c4f ec36
000002e0: b656 87b8 d0f5 2fb6 0830 01b5 1477 0538
000002f0: aea7 e1ae 3068 99bc 997c 31bb cb3f d13b
00000300: dc21 c1ba d05d f5b0 11bb 7f3c cb9e 88b8
00000310: bd28 3e09 aa4c feb9 d4ca 133c 2bdc 09bb
00000320: da9c 6cb9 cc0e cd3a 5baf 43bc 9aff 053c
00000330: ca3d 4c96 6630 a8bb 85c1 0035 87b6 0bbe
00000340: 9fc2 0d2e 0833 e0a8 ecd8 aa3c 28b7 d7bb
00000350: 60d3 dd2d 0c7c dab7 3ded b9bc 3977 f6bd
00000360: ee05 5033 54df 8039 7dc1 4cbb bc44 599d
00000370: 1f1b 2030 7f67 2938 d0c0 e237 fc0f 93b8
00000380: cd4f a1bc 7282 0238 d68a cb3c e539 0180
00000390: a1e6 70ba e47f 9739 2c5a aebb 8a5b 44bd
000003a0: 8ee1 35bb 45fa c138 8426 22bb d992 e83c
000003b0: e2e6 7c3a 40e7 6f3e 2175 8ab3 be9e 3833
000003c0: 6a03 85b3 e366 bdbb ed34 e82f 2d55 d0bd
000003d0: 3824 97bc dae2 289e 00ce c3b6 1007 17ba
000003e0: 1882 64b8 d007 85b0 d1b5 8432 67ee 0130
000003f0: e55b 5216 6db2 2337 3678 b03a c142 f0b1
1.0324611e-12 -9.946429e-19 -2.8663372e-18 -4.743762e-13 0.00054325484 -0.00017502454 -7.466148e-11 0.00025903434
2.5851503e-14 0.000477424 0.19293024 -3.982987e-09 -3.4478e-41 -1.0343803e-11 -0.020633832 0.00019029458
-0.00022892564 -5.3175674e-05 7.115201e-05 -5.164e-42 -3.081896e-20 -6.451826e-05 -0.0001949968 0.0009390511
-0.003024063 -7.3222783e-10 -4.78116e-10 -4.1585455e-09 -0.0012818215 0.29622692 -0.00026008725 -0.0010522796
-1.377514e-07 -0.0001861573 -1.2983348e-11 -0.0012308633 -0.035302445 0.034339365 -0.003965328 -1.0298497e-25
-0.0025155824 -5.234076e-09 -0.0011299625 -1.8478303e-07 0.0030560903 -0.0003841446 -0.10576429 1.5199987e-06
1.8589018e-27 0.2992991 3.047522e-13 -1.470986e-06 -0.022304477 -0.00026537717 1.7287853e-09 -2.4335989e-09
-0.00023162778 -0.0042846794 -0.09230032 0.00058070733 -4.392218e-35 -6.781442e-11 1.5608158e-08 -7.5902353e-06
0.041155662 -8.300573e-33 5.6649034e-12 7.8825267e-19 -3.2135927e-07 0.00022180798 0.00024388288 5.3490027e-08
-0.003650458 2.18944e-40 -0.0015676024 -0.0018274506 3.2056784e-07 1.6897637e-09 0.07786549 -9.551321e-31
-0.004461795 -2.1472811e-11 0.019996122 0.0014363716 -0.07578897 2.4074463e-05 2.63388e-40 -2.4216238e-25
7.610033e-20 -0.005972861 0.002283345 -5.4011316e-06 3.2285448e-07 -1.3372273e-09 -2.7813715e-12 3.5957999e-07
2.504339e-10 -2.3736347e-07 -0.3500392 0.00010191393 0.004133967 -5.75304e-06 4.8710383e-05 -0.003311191
3.7995256e-09 -5.0469055e-07 -2.796393e-05 0.006909812 5.754703e-05 -0.06168459 3.0986692e-05 3.0858537e-06
0.00033302503 4.2841973e-11 -2.7800666e-05 0.0038517793 0.00048374408 -9.7772405e-05 1.845174e-24 1.6952434
0.00040949858 -1.8782477e-15 -1.1046661e-08 0.0062981355 -1.6927283e-05 -0.00068906014 0.07225151 0.00414023
-0.015828315 0.002308416 -2.4839975e-21 1.10123e-18 -5.3001186e-05 -4.2015374e-05 6.7015146e-14 7.909417e-11
-0.0034697792 -2.38575e-40 0.00044930313 -7.991532e-06 -4.4264125e-06 -3.7922282e-10 5.8216784e-07 0.0009307178
-3.5593541e-09 -6.0427197e-12 -0.0005296141 -0.0008568367 -0.0008500045 -0.00025959878 0.0033024251 0.0005745648
-8.602145e-06 0.007414782 7.628488e-09 1.6006521 -0.00096495345 0.006439902 -1.867143e-05 0.00085362
5.1097326e-05 1.2008427e-05 -2.0457419e-05 2.3604905e-08 1.5925085e-20 -0.000113999195 5.069879e-09 1.1592576e-31
0.011235009 0.002624882 5.9545207e-37 3.598682e-05 0.0389902 1.0312365e-26 -2.5202252e-07 9.113644e-17
-0.11485908 -0.0005991338 -8.43282e-07 -0.00040636945 3.6756428e-06 6.4403954e-05 3.6795792e-11 7.0426013e-06
-6.453453e-05 -2.6220114e-06 -4.812614e-07 3.182057e-05 -1.0261601e-10 -0.018726438 -0.0027082323 0.0063857785
-0.0014734822 -1.7852759e-09 0.015608565 -6.514563e-05 2.2889573e-33 -0.00048503774 0.009020526 -0.0021035771
-0.00022565146 0.0015644669 -0.0119436635 0.008178616 -1.6498486e-25 -0.0051327227 4.7965324e-07 -0.13643847
3.2232546e-11 -2.4891127e-14 0.02085539 -0.006583113 2.521866e-11 -2.6045389e-05 -0.022696132 -0.12034459
4.8434167e-08 0.00024580455 -0.0031243258 -2.8755246e-21 5.82462e-10 4.0389128e-05 2.7031085e-05 -7.0124835e-05
-0.019691372 3.1115902e-05 0.024846476 -1.12604e-40 -0.000918964 0.0002889625 -0.005320808 -0.04793886
-0.002775285 9.2495735e-05 -0.0024742195 0.028390335 0.00096474413 0.23428059 -6.4474314e-08 4.2985214e-08
-6.193916e-08 -0.0057800873 4.223816e-10 -0.10172496 -0.018449888 -8.940758e-21 -5.8354344e-06 -0.0005761245
-5.4480595e-05 -9.679244e-10 1.5449503e-08 4.7268717e-10 1.6992662e-25 9.7571e-06 0.001346356 -6.9925084e-09

fc4.weight f4 [1, 256]
00000000: 45a1 5abb 78d0 43be e57e 9fbb 9dbb 53bf
00000010: a41b 073d 95ac 303c 695c 3dbe a962 383c
00000020: 3ce7 33bd 062c 63bc e667 293f d472 023e
00000030: 50cb dd35 a742 b6be 92d4 bf39 bc4f 0abd
00000040: 8921 83bc f45b 933d 46ae 793e 394b 153d
00000050: 563e 8e3d b854 083d edcc 603f 4379 b63d
00000060: 01c0 fbbb 7b6d 043f 116d d73d 5e59 9c3e
00000070: 95c2 07be f10e ef3e 1538 02bc 79df dc3c
00000080: 4a4a c53c a42c cabe fb88 89be 0361 683e
00000090: a1a0 263c bdc0 25bd 9606 41bf 56ef d8be
000000a0: 376d b3bb 4037 713e 2208 e0ba 9713 cdbe
000000b0: 5e7c 683f ffe1 74be 588d c63e fc0e a93d
000000c0: abe5 7bbc b710 54be 4019 8c3c 5a50 c5bd
000000d0: ec32 883e 6bff 3ebd 1ff7 20be 87a7 9fbe
000000e0: 3c6e 16bf f4be 68bc 26e8 6bbe 7c53 15ba
000000f0: fdc7 d2b9 4a11 0dbf abe2 2abf dbc9 5cbe
00000100: e6cf 133d e465 bf3c dd41 e63b b721 4a3d
00000110: fb10 3e3c 4ebd 863c 19c4 293e fc76 913e
00000120: 26e8 cabe 3260 21bd 1c88 a13c 7ec6 89be
00000130: 0423 90bc 8034 313f 6a3c 5d3e a1fe 87be
00000140: 1868 02bf 45f9 15bc d785 623c d156 01bc
00000150: e67d 0cbe 62f7 87be 20a5 0c3a ba4a dfbe
00000160: 6af5 353e ce39 163d 0114 2ebc 1274 1a3f
00000170: c1ed 8a3d f6e5 663d 816c 33bc c829 a03d
00000180: d895 61bd d331 80bb 5668 bc3e a32a 7abe
00000190: 4f71 493d 9201 a8ba eb62 a83e e110 153e
000001a0: 9947 a3be b5d0 e5bd 3c4c 2239 4fa9 0dbe
000001b0: db30 03bd f2bd 19be d005 bf3d 602b 363d
000001c0: eb8f 123e a3ed f1bd 149d 233f c1b2 45be
000001d0: 057a 91be d573 50bd b12c f7bd 6abc 3b40
000001e0: f683 3dbd f188 e73e dea7 443e 4528 753e
000001f0: d31a 97bd e202 9cbe c96f 943e c7df 8e3e
00000200: 69fd dabc 24e9 b1bc 567f 123f 7131 283e
00000210: 6a7d 02be c158 05be 9eaa 72be 78ea 19be
00000220: 9aaf f0bd 5073 8ebd eb0f 863d e758 423c
00000230: 0d58 7dbe 5be0 46bd 63fb db3c 12c7 6abc
00000240: ab82 5b3f 66b3 06bd 3321 93be 2b12 b3bd
00000250: c0ef 43bf 3716 a13e ce11 643c f61a c03b
00000260: 1ed8 81bb 7990 573c b03d 0fbf 0178 613f
00000270: 2a24 f2bd 5136 aabe 00ce 87be 803c a63c
00000280: 3280 2cbf 20d3 89b9 dd06 5bbc 366c 0bbd
00000290: cd85 4b3d aa58 11bd 0aa6 52bf b2d8 2f3c
000002a0: 24a2 953d b403 09bd 40f6 cebd 5801 a5bc
000002b0: 40b7 383e aae5 643e 04ec e93d 7efa 46bd
000002c0: c85b 47be eaf7 eabb 294b c4bb 222e 7f3b
000002d0: fb4a 95bb 8e23 c3bd 9433 3dbd 9966 f8be
000002e0: de60 633e a8ec 8ebd 345d e4be e48c 47bc
000002f0: 7834 2bbe 2dbc e3be 0cad 5d3e 1385 573e
00000300: bf32 bebd 8dc6 3dbf ff01 a03e 6224 2ebb
00000310: dfb3 9abd aec3 39be 600e 1d3f 1570 89be
00000320: 592d 7a3c 429c 2dbd 5d0d bdbd f957 20be
00000330: 2b3f 8dbe 5efe a03b b698 57bf 47a3 97be
00000340: 3e69 23bd a4c9 3c39 2094 c2be 218f 8dbd
00000350: 74f8 d8bc a14d 16be c26e 38be 7b00 f13e
00000360: ae2e 0abf 40b9 ccbd cb8a 8ebd 7ef2 adbc
00000370: 9374 66bd 60a7 b93d 9d41 313f c9eb 97bb
00000380: fe5e 7cbd a5ae e5bc ba46 813e cc8d ac3d
00000390: 0ccf 82bd bd57 c9be a1dd 59bd b81d e1bd
000003a0: 48f0 23bd 3e56 bd3a b4c7 353e de1c 80bd
000003b0: bba1 bf3c a2ae b33e b9fa 833e 0532 6d3f
000003c0: bad9 41be 67cf c23e 6a28 0b3e 7bb3 69bd
000003d0: 42ea 5f3e 7907 0cbd 2366 c9be 6884 9ebd
000003e0: 3d5d e43b 7bab 82be 1b8d b2bc da76 91bd
000003f0: 6a2f bc3d 20a8 47bc ec19 10bd 5297 12bf
-0.0033360284 -0.19122493 -0.004867422 -0.8270815 0.032985345 0.010783334 -0.18492283 0.011253991
-0.043921694 -0.0138654765 0.6617416 0.12739116 1.6524955e-06 -0.35597727 0.00036588736 -0.033767447
-0.016007202 0.07195273 0.24382886 0.03644869 0.069454834 0.03328392 0.8781269 0.089098476
-0.0076828008 0.51729554 0.1051885 0.30536932 -0.13257821 0.46691087 -0.007947941 0.026962029
0.024083275 -0.39487183 -0.2686232 0.22693257 0.010170133 -0.040467013 -0.75400674 -0.423701
-0.005475666 0.23556232 -0.0017092268 -0.40054008 0.9081477 -0.23914336 0.38779712 0.08254811
-0.015374581 -0.20709501 0.017101884 -0.096344665 0.2660135 -0.046630304 -0.15719269 -0.311825
-0.58761954 -0.014205683 -0.23037776 -0.0005696339 -0.00040203324 -0.55104506 -0.6675212 -0.21561377
0.03608694 0.023364015 0.0070268945 0.04934856 0.011600728 0.01644769 0.16578712 0.2841109
-0.3963024 -0.03939838 0.019718222 -0.2690925 -0.017594822 0.69220734 0.21605077 -0.26561454
-0.50940084 -0.009153669 0.013825855 -0.007894234 -0.13719901 -0.26555926 0.0005365182 -0.436117
0.177694 0.03667622 -0.0106248865 0.6033336 0.06783629 0.05637165 -0.010951162 0.07820469
-0.055074543 -0.0039121895 0.36798352 -0.24430327 0.049180325 -0.0012817851 0.32887968 0.1455722
-0.31890562 -0.11221448 0.00015477923 -0.13834117 -0.032029014 -0.15013865 0.093272805 0.04447496
0.14312713 -0.11812904 0.6391156 -0.1930647 -0.28413406 -0.050891716 -0.12069071 2.933375
-0.046268426 0.45221666 0.19204661 0.23941143 -0.07378163 -0.3047095 0.28991535 0.27905104
-0.026732164 -0.021717615 0.5722555 0.1642511 -0.12743154 -0.13022138 -0.23697898 -0.15030849
-0.11752243 -0.06955588 0.06546005 0.011862016 -0.2474062 -0.048553806 0.026853269 -0.014329689
0.8574626 -0.03288593 -0.28736266 -0.087437 -0.76537704 0.3146226 0.013920261 0.005862589
-0.0039625308 0.013157004 -0.559535 0.88073736 -0.11823304 -0.33244565 -0.26524353 0.02029252
-0.6738311 -0.00026287977 -0.013368336 -0.034038745 0.04968815 -0.035484947 -0.82284606 0.0107328165
0.073063165 -0.033450797 -0.10105562 -0.020142242 0.18038654 0.22353235 0.114219695 -0.04857873
-0.19468606 -0.007170667 -0.005990405 0.003893741 -0.0045560575 -0.09528266 -0.046191767 -0.48515776
0.2220492 -0.06978732 -0.44602358 -0.012179587 -0.16719234 -0.44479504 0.21648043 0.21046858
-0.09287023 -0.7413109 0.31251523 -0.0026571979 -0.07553839 -0.18141052 0.6135006 -0.26843324
0.015269601 -0.042385347 -0.092310645 -0.15658559 -0.27587256 0.0049131354 -0.84217393 -0.29616758
-0.03989529 0.00018004194 -0.38003635 -0.06912065 -0.02648566 -0.1467805 -0.18011001 0.4707068
-0.5397748 -0.09996271 -0.069600664 -0.021233793 -0.056263518 0.090651274 0.6924074 -0.004636262
-0.06161403 -0.028037379 0.25249273 0.08425483 -0.06387147 -0.39324751 -0.053189877 -0.109919965
-0.040024072 0.0014445258 0.17751962 -0.06255506 0.023392549 0.35094172 0.25777224 0.9265445
-0.18930712 0.3804886 0.13589635 -0.05705593 0.21866706 -0.034186814 -0.39335737 -0.07740098
0.0069691227 -0.25521454 -0.0217958 -0.07102747 0.09188731 -0.01218608 -0.03518097 -0.57262146
