shanghai_road_delivery/results_centralized/centralized_episode_200.pth_centralized_actor.pth (torch, 922090 bytes, 20 tensors)

fc1.weight f4 [256, 364]
-2.900872e-07 -6.9629465e-07 2.8746474e-06 2.86451e-06 2.8648049e-06 2.865544e-06 -0.00016019063 1.4018043e-13
1.03941165e-05 7.909759e-13 1.7041717e-08 9.893208e-07 5.35794e-09 -5.7829122e-05 -1.5443913e-09 2.1638518e-09
-2.614068e-09 0.0012580138 -1.4573679e-07 -1.7609674e-09 -4.1643085e-07 -1.0679323e-08 1.119552e-07 -8.5695846e-11
-6.793538e-11 -2.2127422e-05 -5.4334496e-06 1.8426913e-09 1.2368634e-08 3.585832e-05 6.171769e-09 4.4725456e-07
-1.0406263e-08 -8.512167e-12 2.700323e-09 -6.9353724e-13 1.883263e-08 2.8746497e-06 7.590223e-09 2.8746497e-06
-2.2894637e-09 1.8673463e-10 -5.161361e-09 -3.5441934e-09 7.311972e-09 -2.0450335e-08 1.0977534e-08 3.326674e-09
7.730267e-06 2.8746497e-06 -1.2681604e-13 2.8746497e-06 -3.2634688e-07 -3.0837646e-07 2.8746485e-06 2.8626025e-06
2.8658828e-06 2.8661534e-06 -2.9177805e-09 -0.000106772044 -2.4990986e-12 -5.428226e-11 -0.0011452152 9.893313e-07
7.763064e-09 -7.6356974e-07 -1.5577069e-09 1.9240187e-09 -2.6114073e-09 -1.3575364e-09 4.8806112e-05 -1.8867539e-09
-4.16424e-07 -1.1188767e-08 -4.1724724e-07 -2.951011e-07 4.3498183e-09 -3.059006e-08 -0.00052418676 7.1780484e-09
2.3909663e-10 -8.126259e-08 -5.895605e-09 -9.141326e-09 -1.0040867e-08 7.669469e-06 2.6566633e-09 -0.00053569215
1.832442e-08 2.8746497e-06 -5.58623e-09 2.8746495e-06 -4.8016258e-09 5.0962994e-09 -5.9012186e-09 3.3079037e-09
2.1085981e-08 -1.188312e-08 -3.5293004e-09 -4.1210857e-10 1.6993206e-07 2.8679715e-06 0.0016487195 2.8746497e-06
4.744807e-07 -4.1362335e-07 2.8746485e-06 2.8737823e-06 2.874612e-06 2.8068716e-06 0.00022699538 1.0641842e-11
0.00021313356 4.074887e-12 -7.345263e-10 9.893213e-07 7.101793e-09 -2.886802e-09 -1.4773667e-09 1.9264679e-09
-2.61016e-09 3.069706e-07 1.5931167e-08 -1.9089743e-09 -4.164406e-07 -0.0026517096 -4.3650724e-07 -3.3899594e-09
2.005315e-09 5.826053e-39 4.61755e-09 -1.0483063e-09 2.3894087e-10 4.4392742e-05 1.1810946e-08 1.26837e-40
-2.020295e-10 0.00014738383 2.741968e-09 -1.3976413e-07 1.838531e-08 2.8746497e-06 4.4049617e-09 2.8746497e-06
7.7351636e-10 8.87975e-09 -6.569489e-09 -1.6925084e-09 4.426809e-09 -3.4709942e-09 1.2756153e-08 -1.3886687e-08
-6.744193e-05 2.8741294e-06 7.4751827e-10 2.8746497e-06 7.605164e-07 -1.0573369e-06 2.8746485e-06 2.8728407e-06
2.8735983e-06 2.8663103e-06 2.0873352e-10 0.00052548497 8.749851e-09 1.0258081e-12 2.7164828e-05 9.893187e-07
9.017545e-09 1.5717813e-12 -1.52483e-09 2.3587288e-09 -2.6141216e-09 -2.1984625e-09 -0.00047514387 -1.8867725e-09
-4.164337e-07 -1.0835133e-06 -4.1634533e-07 -2.855802e-05 -5.660686e-07 -3.290491e-05 3.4936432e-09 0.000105253595
2.6281524e-10 -2.0431767e-09 1.1691882e-08 3.697e-42 -3.0167624e-09 1.8510647e-05 2.7396636e-09 2.1392734e-05
1.8747084e-08 2.8746497e-06 -4.9308113e-11 2.8746497e-06 1.807271e-10 -6.5065873e-09 -6.2012524e-09 4.2483936e-09
-2.0596904e-08 2.0017279e-08 -9.362162e-09 7.0210846e-09 -6.151377e-09 2.877204e-06 -9.639088e-11 2.8746497e-06
1.202543e-06 -4.6385196e-07 2.874648e-06 2.8693203e-06 2.8676698e-06 2.8915633e-06 -2.007061e-05 -9.443775e-06
2.676189e-07 1.1086654e-12 -4.132188e-09 9.893193e-07 5.4598495e-09 8.9253845e-06 -1.5117454e-09 1.9262134e-09
-2.608898e-09 1.8355608e-05 2.1247299e-05 -1.7614337e-09 -4.164328e-07 2.787421e-07 -4.779246e-07 0.00047000652
9.477978e-08 0.0010593227 -2.7281514e-11 0.0017599163 2.390904e-10 -2.5873647e-05 1.1763416e-08 -1.4003661e-05
-7.786692e-09 1.8955436e-08 1.4848416e-09 4.468224e-08 1.8249452e-08 2.8746495e-06 -5.6198095e-09 2.8746497e-06
5.9132277e-09 -5.9226744e-09 -6.5256547e-09 4.5369726e-09 2.8087594e-09 -2.0310894e-08 -7.9140055e-09 5.3714713e-09
00000000: 48bd 9bb4 01e9 3ab5 11ea 4036 e83b 4036
00000010: f940 4036 ac4d 4036 d8f8 27b9 42d4 1d2a
00000020: 6462 2e37 d2a3 5e2b 2263 9232 cec8 8435
00000030: f018 b831 8c8d 72b8 7042 d4b0 e2b2 1431
00000040: 2ca3 33b1 f0e3 a43a d37b 1cb4 8806 f2b0
00000050: d291 dfb4 2978 37b2 066c f033 7972 bcae
00000060: 3864 95ae 479e b9b7 fa50 b6b6 f041 fd30
00000070: d47d 5432 9466 1638 740f d431 331e f034
00000080: 3bc7 32b2 64bf 15ad 9690 3931 a036 43ab
00000090: 64c5 a132 1bea 4036 2766 0232 1bea 4036
000000a0: ac54 1db1 2051 4d2f d057 b1b1 1c8e 73b1
000000b0: c93c fb31 c3aa afb2 b597 3c32 789b 6431
000000c0: 3eb1 0137 1bea 4036 3cc8 0eaa 1bea 4036
000000d0: c634 afb4 f08e a5b4 16ea 4036 231b 4036
000000e0: 7e53 4036 2458 4036 2382 48b1 ceea dfb8
000000f0: c2db 2fac 64bc 6eae 0c1b 96ba 2ac9 8435
00000100: 515e 0532 1df8 4cb5 f016 d6b0 b237 0431
00000110: 5d74 33b1 1194 bab0 2ab5 4c38 20a8 01b1
00000120: e190 dfb4 b838 40b2 0602 e0b4 636e 9eb4
00000130: 6875 9531 2062 03b3 9469 09ba c8a2 f631
00000140: dc71 832f 9582 aeb3 4a92 cab1 fa0b 1db2
00000150: 3380 2cb2 1eac 0037 8490 3631 b16d 0cba
00000160: d367 9d32 1bea 4036 00f1 bfb1 1aea 4036
00000170: 8cfb a4b1 861b af31 abc3 cab1 4251 6331
00000180: 9020 b532 8426 4cb2 1c88 72b1 208f e2af
00000190: 9276 3634 6077 4036 d919 d83a 1bea 4036
000001a0: 21bc fe34 f60f deb4 16ea 4036 34db 4036
000001b0: 75e9 4036 b05d 3c36 9c05 6e39 9836 3b2d
000001c0: 9b7c 5f39 525f 8f2c b1e7 49b0 d2c8 8435
000001d0: 0804 f431 2861 46b1 380c cbb0 c862 0431
000001e0: 6c5e 33b1 b8cd a434 02d9 8832 082f 03b1
000001f0: 2993 dfb4 4ec8 2dbb 1959 eab4 ccf4 68b1
00000200: e0cd 0931 aa70 3f00 66a8 9e31 0014 90b0
00000210: f05b 832f 5832 3a38 17e9 4a32 9261 0100
00000220: 4022 5eaf 0c8b 1a39 366d 3c31 1212 16b4
00000230: b9ed 9d32 1bea 4036 745a 9731 1bea 4036
00000240: 609f 5430 8e8d 1832 d6b9 e1b1 d89d e8b0
00000250: a01a 9831 6086 6eb1 2726 5b32 4c92 6eb2
00000260: 9c6f 8db8 2be1 4036 ec79 4d30 1bea 4036
00000270: 4a26 4c35 d2e9 8db5 16ea 4036 07cb 4036
00000280: 0bd8 4036 d65a 4036 4381 652f b3c0 093a
00000290: 4052 1632 a25e 902b 06e0 e337 bbc8 8435
000002a0: 95eb 1a32 6435 dd2b 3092 d1b0 3217 2231
000002b0: 1da4 33b1 c313 17b1 bb1c f9b9 74a8 01b1
000002c0: 3692 dfb4 3c6d 91b5 1186 dfb4 e28f efb7
000002d0: f0f3 17b5 6103 0ab8 d214 7031 98bb dc38
000002e0: f57b 902f f267 0cb1 71dd 4832 4e0a 0000
000002f0: 724f 4fb1 5047 9b37 ac44 3c31 8c74 b337
00000300: 4609 a132 1bea 4036 00dc 58ae 1bea 4036
00000310: 28b6 462f 8c90 dfb1 cb12 d5b1 44f9 9131
00000320: 12ed b0b2 76f2 ab32 39d7 20b2 1d3e f131
00000330: 165c d3b1 fd15 4136 3ef7 d3ae 1bea 4036
00000340: 1067 a135 5407 f9b4 14ea 4036 8c8e 4036
00000350: 3172 4036 ae0c 4236 4f5d a8b7 b470 1eb7
00000360: 43ad 8f34 e107 9c2b 1cfb 8db1 c1c8 8435
00000370: 5899 bb31 3cbe 1537 d0c5 cfb0 4e5e 0431
00000380: 3848 33b1 5efa 9937 3a3c b237 f016 f2b0
00000390: 1792 dfb4 06a6 9534 ba4a 00b5 356b f639
000003a0: bc89 cb33 f9d8 8a3a 82f8 efad feac e63a
000003b0: fb70 832f 3c0b d9b7 0d18 4a32 44f1 6ab7
000003c0: 3cc6 05b2 72d3 a232 3813 cc30 a4e8 3f33
000003d0: f8c2 9c32 1aea 4036 5e18 c1b1 1bea 4036
000003e0: 4d2d cb31 6580 cbb1 4438 e0b1 a2e3 9b31
000003f0: 3804 4131 2178 aeb2 2af6 07b2 f68f b831

fc1.bias f4 [256]
2.8746497e-06 9.0639645e-05 0.0013257731 0.00029449162 4.226109e-06 -0.00034467716 3.6690165e-07 -1.5648104e-05
0.12318587 5.624471e-08 -3.151444e-08 0.0001083975 -7.474675e-08 0.0014827336 1.344233e-07 0.0002827816
-6.685478e-08 -3.413239e-05 -0.0005871323 1.2236048e-06 1.3496667e-06 0.00022955309 3.4904458e-06 -0.0003190494
-0.0028148291 -2.5724727e-05 0.00010280925 -0.027616888 -0.00010052422 3.7136306e-07 -0.0012238037 3.6561462e-06
-1.0328325e-06 -7.4410073e-06 -0.0014301157 -0.002057051 -2.543094e-08 -0.0023777292 -8.345844e-05 1.9492654e-06
6.1738746e-08 0.00448862 -3.490847e-05 -3.9244017e-09 4.763993e-06 9.563432e-07 0.0048207967 0.17794503
-0.033831157 1.6635746e-05 -5.284256e-06 0.0011926917 -2.5591063e-08 -3.1512158e-08 1.2952842e-07 1.3110141e-06
2.240661e-05 -0.00011376483 -0.052445002 -0.023262164 2.933984e-06 -5.205157e-08 -3.8813755e-06 -4.203735e-08
8.788729e-08 -1.3310989e-08 1.6641764e-06 -2.5174952e-05 -3.8380028e-07 9.584583e-07 0.06706419 1.7882462e-08
-3.5677033e-08 0.043728426 0.003065023 1.3230479e-07 5.2521955e-08 -5.887352e-05 1.8609467e-06 1.5613685e-05
0.0012370334 0.0012848525 6.409989e-07 -4.7528147e-07 3.2082502e-05 -3.8950157e-06 2.1022976e-07 -1.9917695e-07
-3.2227295e-08 -9.896312e-05 8.319501e-06 -1.5233493e-05 0.00752484 -1.7477544e-06 -0.000731956 3.389654e-06
-0.0008840028 0.00027296823 0.0007033317 -8.271245e-05 -3.0635251e-06 -8.297828e-05 -1.3277221e-06 -0.0002900352
-0.059498496 -3.176124e-05 -7.582661e-05 -5.456294e-06 0.0005792279 -9.120269e-05 -3.6872616e-09 0.12191868
1.9136867e-06 -3.548863e-07 -1.5247674e-05 -4.3207892e-06 -0.00045457436 -0.0015052186 -0.00034438015 0.00087020744
1.6903343e-05 0.0002102816 0.39075863 3.352336e-05 -4.345424e-05 0.00021045093 0.0019348264 -3.481724e-08
-5.548417e-10 4.2320582e-05 9.904289e-05 4.6419473e-08 5.443902e-08 0.09524205 -4.7230493e-08 -0.00012934984
-0.0039642835 6.9198663e-06 -3.317943e-05 -5.845441e-06 -7.55291e-09 3.7662535e-06 0.01822259 -2.088254e-06
-0.0016057376 0.0010696725 1.0220788e-08 -4.6712664e-08 5.826048e-05 -6.15873e-08 -0.0036788238 1.5501247e-06
-1.9885759e-08 0.15670402 -0.00045889785 -0.002839931 -2.8816048e-06 -3.604594e-05 4.1039606e-05 -0.0057487884
-0.00011779325 0.076890655 3.7039495e-06 1.6851405e-05 -3.914671e-07 1.7721264e-05 0.07860451 -2.612389e-07
-2.7758105e-07 -0.00010163871 0.0099873515 -8.108578e-06 8.3706245e-06 -1.2991041e-05 -5.4539546e-09 6.037834e-05
-6.163941e-06 -0.00547982 -0.018987756 0.0005775611 -8.862702e-05 -5.2864878e-05 3.151424e-08 -4.0697593e-08
-1.381711e-11 0.019580431 9.603851e-05 -1.7687137e-06 0.0011364147 -2.3140465e-05 -3.264896e-06 2.9228468e-06
-2.7025387e-06 -1.6215145e-05 -1.39890775e-08 -2.9309325e-05 1.1176424e-05 0.00012209677 0.02993536 2.3718243e-05
0.0009574471 -9.653809e-08 1.626092e-06 -1.0622687e-09 -1.2828928e-06 -0.00022125503 1.9824618e-06 1.1597165e-05
-1.1033572e-08 5.552525e-08 -1.578658e-06 0.0020195984 4.4992453e-07 -5.5912176e-05 1.1336994e-05 -4.3520918e-06
0.07018988 0.00011259086 -0.003975529 -0.00052553497 1.1859145e-05 -1.5033815e-05 -9.3985324e-07 2.0101657e-05
0.2548702 -6.656424e-07 1.09164885e-05 1.9476127e-07 -1.4955352e-06 2.2144537e-05 -5.656748e-07 0.0001633149
0.00018106666 1.3247113e-06 1.2785445e-07 -2.0091227e-05 -9.692752e-05 3.3769131e-06 0.0013634979 -0.0046377108
-1.507032e-07 3.9913893e-06 -2.099554e-06 -4.6085897e-05 2.1048141e-05 -1.5278818e-05 -3.6323094e-08 -1.4244546e-05
1.6987808e-05 -2.2905529e-06 -1.4718756e-05 -5.757419e-05 1.3775185e-05 0.0003429269 2.4796676e-05 -0.003590259
00000000: 1bea 4036 ca15 be38 90c5 ad3a ff65 9a39
00000010: 00ce 8d36 c9b5 b4b9 94fa c434 0c44 83b7
00000020: e048 fc3d b691 7133 7e5a 07b3 7753 e338
00000030: 7684 a0b3 4958 c23a ff55 1034 4e42 9439
00000040: ce91 8fb3 6029 0fb8 c8e9 19ba be3a a435
00000050: 3226 b535 30b4 7039 673d 6a36 1646 a7b9
00000060: ff78 38bb 6ecb d7b7 4c9b d738 d03c e2bc
00000070: 88d0 d2b8 c05f c734 0a68 a0ba 1d5c 7536
00000080: db9f 8ab5 c4ad f9b6 b872 bbba 97cf 06bb
00000090: 3a73 dab2 add3 1bbb 6906 afb8 20d0 0236
000000a0: 3c95 8433 4615 933b af6a 12b8 67d7 86b1
000000b0: 63da 9f36 b45b 8035 c6f7 9d3b 3937 363e
000000c0: 8a92 0abd fe8c 8b37 6a4f b1b6 1854 9c3a
000000d0: 58d3 dbb2 fc57 07b3 8014 0b34 1af6 af35
000000e0: d4f5 bb37 0795 eeb8 92d0 56bd 4b90 bebc
000000f0: 76e5 4436 4e8f 5fb3 c33c 82b6 8e8c 34b3
00000100: 8cbc bc33 59ae 64b2 aa5c df35 cc2e d3b7
00000110: 1c0d ceb4 60a4 8035 f358 893d f39b 9932
00000120: 503b 19b3 941c 333d 8ede 483b aa0f 0e34
00000130: 8094 6133 f6ee 76b8 a4c5 f935 22fa 8237
00000140: f423 a23a 7f68 a83a 1c11 2c35 302a ffb4
00000150: 5390 0638 eeb1 82b6 84bb 6134 58dd 55b4
00000160: 496a 0ab3 6c8a cfb8 fc93 0b37 5b93 7fb7
00000170: ef92 f63b 6294 eab5 bce0 3fba d079 6336
00000180: 6cbc 67ba 2d1d 8f39 cb5f 383a e975 adb8
00000190: f696 4db6 a004 aeb8 2f34 b2b5 de0f 98b9
000001a0: b2b4 73bd 5f37 05b8 1a05 9fb8 3515 b7b6
000001b0: 54d7 173a 1244 bfb8 fe62 7db1 80b0 f93d
000001c0: e36c 0036 3487 beb4 43d0 7fb7 4cfb 90b6
000001d0: f053 eeb9 c14a c5ba ec8d b4b9 a21e 643a
000001e0: a7cb 8d37 0a7f 5c39 8411 c83e 6f9b 0c38
000001f0: a342 36b8 7eac 5c39 009a fd3a f689 15b3
00000200: 8383 18b0 6181 3138 3fb5 cf38 c05e 4733
00000210: 56d0 6933 440e c33d 7ada 4ab3 15a2 07b9
00000220: d2e6 81bb 3331 e836 242a 0bb8 f523 c4b6
00000230: 0dc2 01b2 bebf 7c36 8b47 953c ee23 0cb6
00000240: 9d77 d2ba 4134 8c3a 8097 2f32 1ea1 48b3
00000250: b75c 7438 fa41 84b3 6c18 71bb e10d d035
00000260: 3fd1 aab2 0577 203e 3a98 f0b9 231e 3abb
00000270: 9861 41b6 0930 17b8 f121 2c38 5560 bcbb
00000280: c507 f7b8 d978 9d3d 5e91 7836 1e5c 8d37
00000290: d42a d2b4 20a8 9437 67fb a03d 6740 8cb4
000002a0: 7306 95b4 de26 d5b8 fda1 233c 140a 08b7
000002b0: 8f6f 0c37 19f4 59b7 7e65 bbb1 c03e 7d38
000002c0: dad3 ceb6 1090 b3bb 368c 9bbc 7867 173a
000002d0: 45dd b9b8 3bbb 5db8 465a 0733 7acb 2eb3
000002e0: bb12 73ad 2467 a03c 4868 c938 8a64 edb5
000002f0: c0f3 943a c51d c2b7 7c1a 5bb6 2026 4436
00000300: 435d 35b6 c205 88b7 9d54 70b2 4cdd f5b7
00000310: 6082 3b37 1a07 0039 003b f53c 8af6 c637
00000320: 30fd 7a3a 6050 cfb3 1840 da35 42ff 91b0
00000330: dc2f acb5 b200 68b9 6f0a 0536 7291 4237
00000340: 2a8e 3db2 a87a 6e33 47e2 d3b5 3d5b 043b
00000350: 288d f134 3e83 6ab8 0534 3e37 2f08 92b6
00000360: b6bf 8f3d c21e ec38 2845 82bb 0ec4 09ba
00000370: a4f6 4637 be39 7cb7 394a 7cb5 fb9f a837
00000380: 597e 823e 99ae 32b5 f625 3737 921f 5134
00000390: 33ba c8b5 08c3 b937 e0d8 17b5 823f 2b39
000003a0: b6dc 3d39 bccc b135 5d48 0934 9589 a8b7
000003b0: 9145 cbb8 ed9e 6236 66b7 b23a f0f7 97bb
000003c0: fbd0 21b4 c6ed 8536 10e6 0cb6 5b4c 41b8
000003d0: 8a90 b037 032b 80b7 aa01 1cb3 dcfb 6eb7
000003e0: 0a81 8e37 66b7 19b6 93f0 76b7 d17b 71b8
000003f0: f81b 6737 dfca b339 7502 d037 8d4a 6bbb

fc2.weight f4 [256, 256]
-1.215153e-08 -1.0698634e-06 -1.318207e-05 -0.0009242755 2.4115433e-08 -1.4043868e-09 -8.048657e-05 3.7757196e-36
0.00018682358 -2.184965e-09 -5.820937e-05 -5.8721245e-10 1.02983566e-10 -5.7970656e-06 -5.612071e-09 -2.6500464e-07
1.5841788e-09 5.218052e-06 3.07306e-36 -2.702983e-06 5.7837246e-09 -1.3227549e-05 2.5350303e-08 2.7566482e-05
6.1123746e-06 9.835164e-06 -0.0008761478 2.7638025e-05 -5.644011e-07 1.2461038e-06 2.4582776e-05 -1.8534893e-06
-1.2311818e-06 8.017437e-05 3.7939003e-09 0.0045549837 -3.688377e-19 3.61286e-07 -0.00011131157 4.622746e-06
1.3495794e-06 7.198482e-07 2.1916048e-10 -1.3659556e-13 1.7238096e-06 1.4775109e-06 -4.702758e-06 -0.00026464497
-5.6118915e-07 1.2067044e-06 1.1950303e-07 -3.0371157e-07 2.6642972e-09 -1.3194159e-09 -2.459647e-07 -3.983422e-07
1.5593496e-07 1.320565e-08 -0.00014208417 -2.6007784e-24 -2.5057348e-08 -2.0847053e-06 -3.4834063e-08 -2.981132e-10
-1.4195106e-10 3.8778428e-10 4.6944835e-05 1.8865393e-08 -1.0134103e-10 -1.8941753e-08 -1.4584839e-06 4.797451e-11
-2.3428423e-10 -8.1591475e-05 -1.1918715e-05 8.602583e-10 8.135112e-05 -1.6312409e-22 8.932057e-09 -2.0343597e-07
1.0292451e-05 -4.2958175e-07 -6.720658e-05 1.06407e-10 -0.001514779 -2.820539e-05 4.7358367e-12 7.917864e-10
-1.4604734e-10 -5.862509e-08 1.17910695e-05 -9.716984e-12 1.6340209e-09 1.9848407e-09 1.6438833e-05 -5.5457156e-07
4.519112e-07 -1.631415e-07 8.759775e-06 -8.2120687e-07 -2.2035653e-07 -3.5447515e-06 -5.737593e-07 1.5776828e-07
-0.00014411246 2.9919415e-06 -8.241613e-06 1.2185749e-05 -9.561644e-08 -0.00087921217 8.5169205e-10 -2.8474702e-05
8.3895446e-11 -0.00015851864 5.447662e-09 -2.9949234e-09 5.167675e-07 4.6202054e-08 1.5646156e-05 -3.0586128e-07
-5.2629007e-06 1.8729747e-06 3.420022e-05 9.007558e-08 1.0034722e-07 -2.8532742e-07 -5.6222046e-07 -6.0610575e-12
-1.6192633e-10 6.7610394e-08 -2.5739264e-06 -1.5147812e-09 1.9979849e-05 -2.10905e-05 3.366018e-06 -5.810516e-24
2.9465587e-06 0.00029989544 2.705694e-05 -8.8420165e-08 2.5745905e-11 1.2425946e-08 -5.2397572e-05 1.4598656e-05
7.401096e-06 -4.9701885e-07 9.0827157e-10 3.3830418e-11 4.0158813e-08 -2.952113e-10 2.707543e-07 -3.8444034e-07
-2.289696e-06 1.6341233e-05 4.2507037e-07 -1.6467256e-09 -4.0614662e-10 -5.072381e-08 1.5672619e-08 -4.7324866e-05
6.2027975e-05 1.1612697e-05 -2.1009044e-05 -1.8926531e-09 3.6251635e-08 -0.00045501327 2.3517698e-05 6.6956474e-10
-4.458e-11 0.0010132934 2.8642262e-09 -4.900231e-07 4.0389523e-09 6.324285e-07 4.616484e-10 1.8154262e-06
-3.4868453e-08 -1.5122757e-06 1.4726482e-05 7.840186e-07 -2.0708148e-07 1.7099579e-08 -2.1226079e-10 3.954449e-08
1.2041106e-12 -7.888443e-06 -3.5063e-05 -2.233141e-05 2.6953145e-10 3.965174e-07 1.5351332e-05 -1.6987358e-05
0.00038111513 1.0998581e-09 -7.9786004e-14 0.00087826146 7.88207e-09 -1.2087882e-08 8.37422e-06 -1.6983652e-08
1.1412831e-06 -2.9515004e-06 -1.5933256e-05 6.354721e-13 6.930908e-08 -2.4075484e-07 1.0460584e-05 -2.9161693e-06
6.3757014e-08 1.4115074e-07 -3.900817e-10 -2.759253e-07 -3.724336e-08 6.053389e-06 -1.1779422e-09 -6.300158e-08
0.00013497443 -2.4468063e-08 -1.5289465e-06 -4.2903324e-05 -1.3512897e-07 6.15263e-05 -3.4725582e-09 -5.5054418e-08
0.00014565187 -1.4560304e-13 -1.750438e-05 -1.291397e-09 -1.3828376e-08 7.75414e-06 2.5880117e-06 -9.510152e-06
-2.3798407e-08 2.7523165e-05 -4.647456e-07 -6.911946e-08 9.675074e-09 -1.31114e-05 -1.4682151e-05 -0.0001230937
7.577384e-09 2.6992478e-07 -1.1120469e-08 1.4688983e-05 1.0923848e-09 -3.8219398e-05 4.7420436e-08 -1.0718609e-08
3.215205e-08 -7.8362117e-10 4.4490635e-06 -7.481544e-09 -2.2265605e-05 3.6797957e-07 1.4572279e-08 4.2169265e-07
00000000: fec2 50b2 3a98 8fb5 8f28 5db7 144b 72ba
00000010: 6626 cf32 7804 c1b0 e6ca a8b8 f299 a004
00000020: 13e6 4339 5026 16b1 d625 74b8 6769 21b0
00000030: 9876 e22e 6a84 c2b6 4cd4 c0b1 f645 8eb4
00000040: 56ba d930 ba16 af36 a9b6 8204 e564 35b6
00000050: 2eba c631 e4eb 5db7 e8c1 d932 923e e737
00000060: e618 cd36 b501 2537 49ad 65ba 35d8 e737
00000070: 5981 17b5 cd3f a735 1c37 ce37 68c5 f8b5
00000080: 163f a5b5 4a23 a838 805b 8231 f941 953b
00000090: 2db9 d9a0 c5f6 c134 f26f e9b8 161d 9b36
000000a0: 3223 b535 973b 4135 31f8 702f fdca 19aa
000000b0: a65d e735 e34e c635 62cc 9db6 0cc0 8ab9
000000c0: a0a4 16b5 0cf6 a135 be50 0034 cd0d a3b4
000000d0: d016 3731 d256 b5b0 220d 84b4 bcdb d5b4
000000e0: 136f 2734 10df 6232 6efc 14b9 b939 4998
000000f0: b13d d7b2 f7e6 0bb6 759c 15b3 b4e3 a3af
00000100: ac13 1caf c92f d52f a2e6 4438 700d a232
00000110: eed9 deae 5bb5 a2b2 20c1 c3b5 7ffe 522e
00000120: 93cc 80af 171c abb8 7ef6 47b7 4c77 6c30
00000130: 0d9b aa38 7634 459b 9a73 1932 0e70 5ab4
00000140: bead 2c37 44a1 e6b4 42f1 8cb8 d1fd e92e
00000150: 8d8b c6ba 9d9a ecb7 a0a0 a62c 04a5 5930
00000160: ac94 20af f8ca 7bb3 42d2 4537 68f1 2aad
00000170: 0094 e030 b065 0831 20e6 8937 dedd 14b5
00000180: 349e f234 fe2b 2fb4 f2f6 1237 e870 5cb5
00000190: 249b 6cb4 5ee2 6db6 7004 1ab5 0467 2934
000001a0: e51c 17b9 2ac9 4836 7545 0ab7 6571 4c37
000001b0: b255 cdb3 ee7a 66ba 801c 6a30 f5dc eeb7
000001c0: f07c b82e 0638 26b9 242e bb31 40cf 4db1
000001d0: feb7 0a35 b26f 4633 dd3f 8337 4135 a4b4
000001e0: f997 b0b6 ec62 fb35 3572 0f38 936f c133
000001f0: 787e d733 1a2f 99b4 7feb 16b5 2741 d5ac
00000200: 360a 32af 3531 9133 b8bb 2cb6 a030 d0b0
00000210: 669a a737 81eb b0b7 c0e3 6136 90c8 e098
00000220: 7ebd 4536 493b 9d39 56f8 e237 80e1 bdb3
00000230: a076 e22d e379 5532 77c5 5bb8 c0ec 7437
00000240: ee56 f836 e06a 05b5 eea9 7930 aac9 142e
00000250: 157b 2c33 4c4b a2af 305c 9134 1465 ceb4
00000260: aea8 19b6 8814 8937 3a35 e434 0253 e2b0
00000270: 0e48 dfaf 6bdb 59b3 74a0 8632 b07e 46b8
00000280: 0415 8238 27d4 4237 943c b0b7 e80f 02b1
00000290: 18b3 1b33 d98e eeb9 df47 c537 6e0c 3830
000002a0: 9e10 44ae 7cd0 843a 00d4 4431 228a 03b5
000002b0: 00c7 8a31 28c4 2935 3ccb fd2f 92a9 f335
000002c0: 45c2 15b3 66f9 cab5 c211 7737 5975 5235
000002d0: 205a 5eb4 5fe2 9232 1a62 69af a0d7 2933
000002e0: a876 a92b 9b58 04b7 9c10 13b8 5654 bbb7
000002f0: 2e2d 942f f0e0 d434 bcc6 8037 1380 8eb7
00000300: 68d0 c739 d129 9730 80a9 b3a9 213b 663a
00000310: b669 0732 11ab 4fb2 007f 0c37 72e3 91b2
00000320: 302e 9935 6412 46b6 68a8 85b7 97de 322b
00000330: 12d7 9433 1841 81b4 de7f 2f37 68b3 43b6
00000340: caea 8833 388f 1734 1e73 d6af e222 94b4
00000350: 82f5 1fb3 371e cb36 28e5 a1b0 7c4b 87b3
00000360: ec87 0d39 d72d d2b2 3436 cdb5 18f3 33b8
00000370: f817 11b4 ae07 8138 e4a1 6eb1 f974 6cb3
00000380: 20ba 1839 38ef 23aa 5fd6 92b7 fe7c b1b0
00000390: d791 6db2 c717 0237 b4ad 2d36 cb8d 1fb7
000003a0: 406d ccb2 8ce1 e637 2682 f9b4 d36e 94b3
000003b0: 6d37 2632 09f9 5bb7 5c53 76b7 b712 01b9
000003c0: b02d 0232 2eea 9034 570c 3fb2 b470 7637
000003d0: e022 9630 c44d 20b8 52ab 4b33 f124 38b2
000003e0: 8e17 0a33 7066 57b0 2a49 9536 2e88 00b2
000003f0: 06c7 bab7 ba8e c534 9059 7a32 ff64 e234

fc2.bias f4 [256]
-1.6315385e-05 -7.483033e-07 0.0005329473 -4.3776708e-07 6.639516e-05 0.025239673 8.158675e-06 1.0851208e-09
-1.3680362e-05 -0.00028485234 -1.6401954e-07 -3.1744997e-07 2.8631384e-05 -3.541947e-05 -0.00038227628 -0.0013051396
-3.5757766e-05 0.00096921524 0.00042081092 -0.00019693217 5.338726e-05 -1.6344951e-06 3.3555116e-05 0.00038852598
-1.6786975e-05 0.0002050052 -3.527331e-05 -1.855794e-05 1.1016664e-06 2.2866357e-07 -2.7783042e-08 0.027498318
5.570666e-07 4.955133e-05 -2.5256038e-06 0.06330051 -1.0509051e-05 0.00014571213 -0.0004159814 -2.766953e-05
-7.893218e-06 -1.2049322e-06 5.1436928e-05 1.560617e-06 6.7308e-05 -2.7874563e-08 -3.797032e-06 0.0712169
-9.0073377e-07 -5.049036e-07 -0.00012950404 2.6430971e-05 -9.653146e-05 1.8493745e-05 0.12999637 0.030505218
0.0008093316 -1.9964648e-07 1.1615892e-08 9.376515e-08 -7.7990604e-05 -7.4791035e-07 -4.765429e-06 1.49110565e-05
6.4134124e-06 4.458087e-06 6.243556e-07 4.823741e-05 4.306524e-05 -1.6469312e-06 -0.000283839 8.134118e-08
0.0003287144 0.0012942206 -5.7276475e-06 0.00077669055 1.12814064e-07 2.6596078e-07 1.9588428e-05 -1.2132474e-06
4.350036e-05 4.5081237e-09 -0.0003595488 5.308449e-06 4.340116e-06 -0.00013005955 -7.474898e-06 -0.0004856996
1.7458922e-07 -0.00033857056 6.4330336e-05 0.00027069612 -2.7962335e-06 -8.869715e-07 -1.3195806e-06 -2.0727991e-06
-2.244999e-06 5.6247536e-05 -5.700157e-06 -0.00015857718 0.194592 -1.6077809e-06 -2.0509173e-05 4.4776363e-05
1.513234e-10 7.945297e-06 -3.998731e-05 -0.00060950755 9.09774e-05 3.799826e-05 -8.100812e-05 -5.8125798e-09
3.4455175e-07 -0.008787976 8.305774e-05 -2.5850858e-07 2.6549733e-05 6.436986e-07 -3.7042642e-05 0.00017842208
2.3791652e-05 0.00035136176 -0.0001937665 1.2611866e-07 -1.0150737e-05 -1.8063145e-05 4.3463433e-07 -2.1286964e-07
-2.1271765e-07 4.651731e-06 0.00044334843 -4.5557925e-05 1.6280921e-05 6.387324e-07 -7.566393e-05 -5.6675468e-05
0.00024651462 1.1901274e-05 -9.3631665e-05 -2.975169e-06 -2.1624195e-05 7.319896e-09 -0.00015176098 -0.0003224368
1.2832706e-07 -2.4769047e-06 -1.3976161e-05 1.48606405e-05 -2.8685827e-07 -2.2009383e-05 0.00017949472 0.20057629
-5.575591e-05 6.109436e-06 1.660507e-05 -3.705035e-07 -0.00024261657 0.0002334908 -9.852452e-07 3.4942088e-05
-1.3230169e-08 -6.5936323e-09 0.000104287305 -0.00034125338 -2.5665736e-07 0.0011309703 -4.705655e-06 1.6355982e-05
-5.6954814e-05 -6.403429e-05 4.2188174e-07 -2.8426388e-05 -3.3025872e-06 -7.2787304e-07 -1.9942958e-07 1.1242005e-06
0.00018148255 -1.1525235e-06 0.00016673219 2.5445563e-06 0.0011237883 -6.620048e-09 0.00020326706 0.00028129516
8.460176e-05 0.43620372 -0.025155505 -7.2796145e-05 4.4592074e-05 -4.8892607e-06 0.0013621282 -8.432419e-07
3.0731746e-05 0.1779513 -3.0285792e-05 -3.325097e-05 1.0362965 3.0899341e-06 8.788845e-05 4.1829826e-05
3.449058e-08 -6.0305496e-07 4.1020132e-07 -3.9260365e-05 1.74974e-08 -3.6501053e-05 0.000386359 -0.00026745023
3.4600558e-09 -3.5595021e-06 -4.3648115e-06 -7.6439085e-07 0.00025808834 1.982505e-06 -1.3146943e-06 0.0002219033
1.37955485e-05 0.017962644 9.834368e-06 -1.786335e-05 -5.499124e-05 4.291284e-05 0.0002318075 -7.5862686e-06
-0.0008366707 -0.00034801938 0.33294392 0.2020924 0.0010936651 0.00013759214 0.00016625607 -4.6813795e-05
0.054478236 0.00016839997 -9.770707e-09 -4.651052e-05 6.777516e-05 -8.406921e-05 0.00036004 1.5231548e-06
7.674141e-06 0.0002881027 6.4437045e-05 3.3843346e-08 -8.5640366e-08 3.2792914e-06 0.00027935376 0.00026893054
3.8979758e-07 8.7579406e-07 9.818464e-06 -0.0006311083 0.00021959424 -2.8685534e-05 -6.4169643e-07 -3.103032e-08
00000000: 06dd 88b7 03df 48b5 7db5 0b3a 4006 ebb4
00000010: a13d 8b38 6ec3 ce3c 3ee1 0837 4b23 9530
00000020: b584 65b7 3c58 95b9 591d 30b4 fe6d aab4
00000030: 6e2d f037 5e8f 14b8 416c c8b9 3811 abba
00000040: 9cfa 15b8 ef12 7e3a 49a0 dc39 947f 4eb9
00000050: 22ec 5f38 d360 dbb5 88bd 0c38 13b3 cb39
00000060: c1d1 8cb7 aaf6 5639 6ef2 13b8 dfac 9bb7
00000070: f8dc 9335 9086 7534 8ea7 eeb2 2744 e13c
00000080: 5389 1535 56d5 4f38 8b7d 29b6 b3a3 813d
00000090: 0850 30b7 4dca 1839 1418 dab9 dd1b e8b7
000000a0: 1d6d 04b7 28b9 a1b5 fbbd 5738 6476 d135
000000b0: b527 8d38 d070 efb2 83d0 7eb6 2bda 913d
000000c0: f4c9 71b5 b688 07b5 7acb 07b9 14b8 dd37
000000d0: ef70 cab8 0423 9b37 c51d 053e 14e6 f93c
000000e0: 5329 543a 685e 56b4 3c8f 4732 f05b c933
000000f0: e38e a3b8 02c4 48b5 b9e6 9fb6 802a 7a37
00000100: cb32 d736 ad96 9536 6499 2735 8652 4a38
00000110: f3a0 3438 200c ddb5 3ad0 94b9 c9ad ae33
00000120: 4d57 ac39 d6a2 a93a 1e30 c0b6 d29a 4b3a
00000130: 3044 f233 5fc9 8e34 d451 a437 ddd6 a2b5
00000140: 2874 3638 e0e5 9a31 d381 bcb9 3b1f b236
00000150: 50a1 9136 9860 08b9 e3d0 fab6 7fa5 feb9
00000160: b876 3b34 2c82 b1b9 16e9 8638 38ec 8d39
00000170: eda6 3bb6 3818 6eb5 721c b1b5 6b1a 0bb6
00000180: caa8 16b6 55eb 6b38 fa43 bfb6 bd47 26b9
00000190: 2043 473e eeca d7b5 1d0b acb7 41ce 3b38
000001a0: c061 262f ca4c 0537 0cb8 27b8 5cc7 1fba
000001b0: 1fcb be38 5260 1f38 e7e2 a9b8 feb7 c7b1
000001c0: d5fa b834 71fb 0fbc 492f ae38 26c9 8ab4
000001d0: 1eb7 de37 a2ca 2c35 3c5e 1bb8 d016 3b39
000001e0: 2f94 c737 fa36 b839 cc2d 4bb9 3c6b 0734
000001f0: 154d 2ab7 4f86 97b7 b057 e934 2991 64b4
00000200: 6267 64b4 1116 9c36 3871 e839 7315 3fb8
00000210: 0393 8837 5b75 2b35 c3ad 9eb8 d2b6 6db8
00000220: a23e 8139 95ab 4737 1e5c c4b8 04a9 47b6
00000230: 9b65 b5b7 7c82 fb31 0722 1fb9 bc0c a9b9
00000240: 46ca 0934 e638 26b6 287b 6ab7 f751 7937
00000250: 8001 9ab4 caa0 b8b7 bf36 3c39 df63 4d3e
00000260: 74db 69b8 a8ff cc36 1e4b 8b37 9de9 c6b4
00000270: e466 7eb9 36d5 7439 c43c 84b5 c88e 1238
00000280: e64a 63b2 348e e2b1 d2b4 da38 41ea b2b9
00000290: b8ca 89b4 113d 943a 45e5 9db6 3434 8937
000002a0: c4e2 6eb8 264a 86b8 fc7e e234 3475 eeb7
000002b0: 04a2 5db6 0e63 43b5 c922 56b4 3ce3 9635
000002c0: 5a4c 3e39 68b0 9ab5 d5d4 2e39 25c3 2a36
000002d0: 144c 933a 8f76 e3b1 1624 5539 cc7a 9339
000002e0: 396c b138 1856 df3e eb12 cebc 22aa 98b8
000002f0: 6008 3b38 6e0e a4b6 7089 b23a 245b 62b5
00000300: f6e5 0038 de38 363e 3e0e feb7 f576 0bb8
00000310: 5da5 843f aa5c 4f36 c150 b838 6f72 2f38
00000320: cb22 1433 9fe1 21b5 a439 dc34 7fab 24b8
00000330: 314d 9632 b518 19b8 3a90 ca39 9038 8cb9
00000340: f2c5 6d31 c8df 6eb6 7275 92b6 8a30 4db5
00000350: 0850 8739 2d0b 0536 8d74 b0b5 b7ae 6839
00000360: 6e73 6737 6526 933c 4afe 2437 41d9 95b7
00000370: 65a6 66b8 50fd 3338 5a11 7339 8d8d feb6
00000380: 0554 5bba 5f76 b6b9 a077 aa3e 4ff1 4e3e
00000390: 5059 8f3a 9c46 1039 0655 2e39 ee59 44b8
000003a0: 9224 5f3d 8694 3039 06dc 27b2 4a14 43b8
000003b0: 8322 8e38 504e b0b8 c0c3 bc39 336f cc35
000003c0: 2fc0 0037 7d0c 9739 6022 8738 275b 1133
000003d0: 4ae9 b7b3 cc11 5c36 3a76 9239 3fff 8c39
000003e0: 5f45 d134 1c18 6b35 fbb9 2437 f670 25ba
000003f0: e142 6639 b7a1 f0b7 0b41 2cb5 3346 05b3

fc3.weight f4 [256, 256]
-7.792709e-09 1.1089281e-09 -5.3730895e-09 3.9014547e-10 3.444677e-07 -1.6806576e-09 1.9016966e-08 -8.078671e-14
5.4253427e-08 1.983898e-11 2.8557121e-09 5.004869e-10 -3.4366692e-09 1.0929968e-10 4.9497135e-08 -9.7684165e-08
-1.2566952e-08 5.849943e-10 3.2816887e-09 -1.3002432e-09 -0.002162333 -4.7854463e-11 1.0154021e-05 1.8677831e-07
-0.0026436765 -6.7956245e-09 1.5592836e-06 -1.6357262e-06 7.47447e-10 -3.3409304e-07 7.18169e-09 4.7961407e-10
-1.9201249e-10 6.4090865e-11 -1.5287167e-09 -2.887293e-08 -7.65197e-09 -3.4445924e-07 -4.8827683e-08 8.951676e-05
-9.4532487e-07 5.3090536e-09 -0.0029439698 8.810154e-08 -1.42682275e-08 1.2101918e-12 -8.157835e-08 -9.970651e-08
-6.178805e-10 -5.0495684e-11 1.1633381e-06 -3.057571e-11 1.2766046e-05 -1.923614e-10 -1.1525786e-05 -0.0013996472
2.405662e-08 -5.0904697e-12 -3.0092898e-10 -1.571312e-08 -0.0022699884 3.4591847e-11 -2.558454e-05 8.746082e-08
9.417689e-05 1.0610359e-09 -2.7856854e-07 -1.0346708e-10 -2.4550367e-10 2.5358626e-05 1.7170299e-08 -5.402119e-09
0.0001735045 -1.12510556e-10 5.4861124e-12 -0.0016690613 -2.8583889e-11 0.00022206586 -7.297842e-12 -1.1673562e-06
-2.2034985e-07 -2.9915126e-11 5.472576e-05 3.1464446e-05 -0.00024400564 8.03755e-09 1.5286186e-10 5.14008e-16
-1.7789218e-06 -1.7025705e-09 1.461704e-09 -3.2961566e-08 3.3713557e-05 -1.1695917e-11 0.0047764583 7.57494e-09
1.0043292e-10 -9.930828e-10 -6.235975e-11 4.2013025e-07 1.30224125e-05 -1.3808989e-07 3.725214e-06 2.2503825e-11
7.627421e-14 5.4308097e-10 1.20819905e-08 -1.2875169e-11 2.0437887e-09 1.2706465e-08 -1.3494747e-08 4.4778622e-11
-1.780899e-10 -5.2916173e-27 1.659302e-08 4.3601328e-10 -3.0478278e-10 -1.2439871e-09 -6.6790606e-05 2.147855e-07
-1.0843461e-08 -8.262744e-09 2.4282555e-08 1.7665207e-06 4.9213256e-10 0.0002808806 3.8067569e-10 -2.0556334e-11
3.5657846e-10 6.8875544e-11 0.00015492301 7.1624384e-10 6.826381e-08 2.1885099e-10 -1.3394796e-10 9.546177e-09
-1.902319e-11 -5.050367e-11 2.283429e-08 -2.692972e-06 -0.00019765596 -2.3794817e-11 -4.114422e-06 4.9261706e-09
-4.4899548e-07 2.6570635e-09 -4.421317e-09 7.097725e-10 -0.0002914035 9.767116e-11 -1.1101218e-08 -0.00020953375
6.4442345e-09 5.2885696e-07 0.00012630786 -3.4524452e-09 7.6761137e-07 4.674001e-05 0.00035800342 6.6531464e-07
-8.360586e-12 3.3822663e-11 -1.310082e-08 -5.985258e-20 -2.5079024e-07 -3.0576857e-06 4.2695047e-09 4.8768306e-06
8.171472e-09 1.4828341e-08 -6.6317364e-07 9.632931e-09 2.5670806e-06 8.3604105e-12 1.8949717e-10 0.0004720108
5.6879657e-10 -8.991162e-10 -0.00015389067 -1.1949084e-09 6.1328596e-05 1.2630495e-13 -0.00045826717 4.5143246e-08
1.607333e-08 -1.7403938e-06 0.00036409264 1.8938647e-07 5.2564076e-07 1.6281336e-12 -3.9926062e-09 0.0024476845
1.3745453e-08 4.267351e-06 -5.1925838e-08 1.0857971e-07 1.4736033e-05 -5.067139e-05 4.6880126e-09 0.00018724657
8.7851185e-12 -1.6836273e-06 2.8036071e-09 -1.3930907e-08 -1.5825384e-05 -6.935956e-09 2.8723216e-06 -2.3285054e-07
5.947083e-07 1.514202e-10 -6.2453154e-10 2.921055e-09 0.0009453192 1.0808221e-09 2.028975e-07 2.4882457e-11
0.0013407706 1.6852135e-07 -8.9345456e-05 1.0312341e-10 -1.5199517e-09 2.4387875e-12 -8.899806e-05 -1.7402492e-08
1.6615255e-08 0.00056681933 -0.0008132823 9.552443e-07 2.568273e-06 -3.041094e-07 -8.117521e-09 -4.727491e-11
5.795903e-09 3.661462e-08 0.0007561885 -6.625275e-08 -3.3457348e-10 3.328023e-07 1.2589081e-09 -4.1564846e-12
1.3273785e-10 1.1946654e-08 0.0009589737 7.2339744e-06 -1.5108965e-09 -1.0890444e-11 1.2927722e-09 -1.3526994e-07
-1.9627637e-09 4.663998e-10 -2.3666892e-08 0.00021308166 -9.0369023e-10 4.5068005e-11 1.24740165e-08 -1.3218744e-07
00000000: b2e0 05b2 f068 9830 329e b8b1 187c d62f
00000010: 48ef b834 e2fc e6b0 c05a a332 5eea b5a9
00000020: 4604 6933 6981 ae2d 383e 4431 a292 0930
00000030: 862a 6cb1 405a f02e ad96 5433 70c6 d1b3
00000040: 0ae6 57b2 50cd 2030 1484 6131 3eb4 b2b0
00000050: eeb5 0dbb 5677 52ae 305b 2a37 3b8d 4834
00000060: 8841 2dbb f27e e9b1 9448 d135 208b dbb5
00000070: e874 4d30 665d b3b4 d0c2 f631 d7d5 0330
00000080: b61e 53af f3ef 8c2e f01a d2b0 3f04 f8b2
00000090: b875 03b2 1eee b8b4 9bb6 51b3 f2ba bb38
000000a0: 3bc2 7db5 ee6a b631 9eef 40bb 5532 bd33
000000b0: 5420 75b2 c151 aa2b 2c30 afb3 3c1e d6b3
000000c0: 7ad7 29b0 1615 5eae fe23 9c35 3079 06ae
000000d0: c02d 5637 ec80 53af e05e 41b7 5e74 b7ba
000000e0: 11a5 ce32 e01a b3ac fd6f a5af 84f9 86b2
000000f0: 16c4 14bb f522 182e 629e d6b7 18d2 bb33
00000100: d580 c538 e2d3 9130 2b8e 95b4 ca86 e3ae
00000110: 92f7 86af 3cb9 d437 e37d 9332 8b9d b9b1
00000120: c2ee 3539 d069 f7ae 8206 c12c 67c4 daba
00000130: 326d fbad 5ada 6839 8f62 00ad 0eae 9cb5
00000140: 4e99 6cb4 7091 03ae 5689 6538 b1f8 0338
00000150: c4db 7fb9 8515 0a32 ca12 282f 1927 1426
00000160: 4ac3 eeb5 e0ff e9b0 23e5 c830 a091 0db3
00000170: a867 0d38 bac1 4dad d683 9c3b f022 0232
00000180: b5da dc2e ff7c 88b0 6b21 89ae 438e e134
00000190: d67a 5a37 dc45 14b4 b0fe 7936 1cf2 c52d
000001a0: 17c1 ab29 ed47 1530 2891 4f32 9b80 62ad
000001b0: b672 0c31 a04b 5a32 86d6 67b2 3ff0 442e
000001c0: dacf 43af 609f d193 7088 8e32 6ab3 ef2f
000001d0: 5d8e a7af e8f8 aab0 ef11 8cb8 ca9f 6634
000001e0: 0c4a 3ab2 eff3 0db2 e795 d032 3019 ed35
000001f0: c046 0730 2843 9339 5747 d12f c0d0 b4ad
00000200: f507 c42f 7c75 972e d472 2239 2ee1 4430
00000210: 6d98 9233 14a1 702f 0047 13af 8800 2432
00000220: 6a54 a7ad 141e 5eae 2225 c432 e8b8 34b6
00000230: de41 4fb9 2a4d d1ad 9e0e 8ab6 0e43 a931
00000240: 780d f1b4 8e97 3631 51ea 97b1 cd19 4330
00000250: 84c7 98b9 fac7 d62e acb7 3eb2 4ab6 5bb9
00000260: 166c dd31 c6f6 0d35 8271 0439 0f40 6db1
00000270: da0d 4e35 b40a 4438 68b2 bb39 1398 3235
00000280: bb14 13ad efc0 142e 0412 61b2 aa52 8d9f
00000290: 59a4 86b4 a432 4db6 f6b2 9231 a8a3 a336
000002a0: 8462 0c32 bcbf 7e32 f204 32b5 147e 2532
000002b0: 1c46 2c36 f113 132d b65a 502f 3878 f739
000002c0: 8059 1c30 ae25 77b0 b65d 21b9 1a3a a4b0
000002d0: 8a9d 8038 ec34 0e2a 9443 f0b9 86e3 4133
000002e0: a011 8a32 7a97 e9b5 b0e3 be39 285a 4b34
000002f0: c219 0d35 b223 e52b 562f 89b1 5569 203b
00000300: 2425 6c32 4430 8f36 1005 5fb3 542c e933
00000310: c83a 7737 fe87 54b8 3214 a131 9e57 4439
00000320: a88c 1a2d fef8 e1b5 94a9 4031 c754 6fb2
00000330: c1c0 84b7 5051 eeb1 1cc2 4036 7805 7ab4
00000340: 0ba4 1f35 ff7c 262f 80ab 2bb0 bebb 4831
00000350: 4ccf 773a 0c8c 9430 0adc 5934 50de da2d
00000360: ccbc af3a ccf2 3434 fa5e bbb8 52c5 e22e
00000370: 8ce6 d0b0 4a9d 2b2c 78a4 bab8 7c7c 95b2
00000380: 55b9 8e32 9a96 143a 7432 55ba f235 8035
00000390: 985a 2c36 7a44 a3b4 3c75 0bb2 d1ea 4fae
000003a0: 4d25 c731 3342 1d33 f43a 463a d646 8eb3
000003b0: 08ef b7af 00ac b234 e405 ad30 493e 92ac
000003c0: 62f2 112f f13d 4d32 a363 7b3a 5ebb f236
000003d0: f2a7 cfb0 3396 3fad 61ad b130 b83e 11b4
000003e0: 4ee1 06b1 f833 0030 0c4c cbb2 ac6e 5f39
000003f0: 8c67 78b0 1036 462e 4e4d 5632 68ef 0db4

fc3.bias f4 [256]
-1.4799925e-05 5.328839e-08 3.3451947e-08 -9.846542e-09 1.8238165e-05 0.000107510146 0.32383817 -5.809409e-08
0.0005003937 6.3956904e-05 -2.9753946e-07 0.0004180548 -1.50097e-06 0.41455054 -2.4807328e-05 3.0069414e-06
-0.14973174 -3.876345e-07 0.0002446302 6.7150184e-05 -3.014888e-08 1.5978461e-05 -1.7456214e-05 -0.00012757748
4.4474795e-08 4.2809056e-06 4.9583646e-06 0.15408914 1.3827985e-06 6.9721886e-05 -7.8256024e-05 0.00018306478
-1.6673523e-06 1.3338443e-05 1.2317605e-07 3.7627922e-07 -1.4829114e-08 1.4617325e-06 6.662879e-08 -0.14381935
-2.3655109e-07 -1.4851964e-06 0.5766776 7.0736995e-08 1.4361092e-05 0.0002183357 0.0010022527 -2.015174e-05
0.00033803127 0.00014299944 -7.425483e-08 0.00022283536 1.2379355e-06 -8.6290944e-05 -0.0008822266 -0.022743119
-4.5379596e-07 5.402348e-06 0.0006963783 0.0015041879 -2.7318223e-05 -7.058888e-07 5.46029e-07 0.9012415
1.6111037e-05 -1.1924854e-05 7.858346e-07 -0.18014394 0.07715271 4.8961356e-06 -5.4723387e-05 0.00037511834
-7.566174e-05 -2.986377e-08 4.8515193e-07 -5.1641728e-05 6.0272285e-08 0.00046606158 -2.8481209e-09 -4.4950144e-10
6.225728e-06 -1.816484e-05 1.12423495e-05 -3.212982e-06 9.950162e-08 -1.0496963e-05 6.1074516e-06 6.334205e-06
2.7271151e-05 1.1562237e-05 1.3181966e-06 -0.104143806 0.031096736 -5.036801e-06 0.19398896 -7.9052604e-08
-2.9534523e-05 -0.0006806143 -0.00017041073 -0.03415678 7.491406e-06 -4.132757e-08 6.922778e-08 1.3615015e-08
2.3647752e-05 4.36987e-07 -7.668677e-12 0.77423954 -2.3581035e-07 1.1649755e-08 -6.0189134e-09 0.14160164
-0.002084193 0.00015121103 0.0030013428 3.5799549e-06 0.00019768055 0.7175179 -6.168564e-06 -1.4497111e-06
7.251423e-06 -0.00025268248 0.0006252961 0.78498083 -0.003370746 0.61501235 1.5794913e-05 -1.8356877e-07
2.1994039e-08 3.5878667e-08 -0.00030652861 -0.066517286 2.6072902e-09 3.0241483e-07 5.7272996e-07 0.020308545
-3.5291032e-05 -0.15921934 -1.9313086e-06 4.613919e-07 -0.009795255 -1.3963383e-05 -2.7189096e-06 -2.2480727e-07
0.40848553 -4.1761282e-08 -0.0022419703 0.31096128 0.018770663 1.0672372e-06 -1.0060819e-06 2.0694653e-05
0.5121616 0.00034923767 0.00018037707 1.0021969e-05 -8.521626e-07 7.082916e-08 7.847888e-09 -2.2199845e-06
0.03240561 0.9651241 -0.06970911 5.3570545e-07 2.8035133e-06 -7.0708424e-08 -1.5090764e-05 -2.2262881e-07
-2.3293012e-10 -1.724184e-07 -1.432234e-07 -1.9881952e-07 2.2905651e-06 -5.862097e-11 1.5680085e-07 -0.11556578
-0.15746938 0.00016523057 1.228417e-06 -7.0189424e-05 -6.925965e-07 0.37861037 -6.7325864e-08 -7.2788855e-05
-1.336692e-08 -1.9028369e-06 -1.2839172e-05 0.000364109 -1.3237987e-07 -7.413801e-05 -0.00571514 -0.00013579783
0.77128184 2.5263287e-08 0.0001170108 0.0032406363 0.24816045 5.4845277e-06 -0.05962274 1.3308636e-05
-5.5855002e-05 3.1095105e-08 -6.7701455e-07 -1.2943085e-05 0.00023329043 0.4877221 0.00029000046 2.47543e-09
7.347625e-06 -2.3851683e-09 1.8713006e-05 0.53970176 -5.3499295e-13 -6.060956e-09 -9.672281e-09 -3.0253002e-06
0.00072753325 -0.0009803658 0.0977394 0.46003583 -9.173949e-06 2.4366642e-07 -9.783932e-06 -7.419751e-05
-2.677943e-05 4.0045613e-08 4.2759562e-05 1.6127455e-05 1.2227668e-05 6.7349497e-06 2.3821606e-07 -1.08906395e-08
2.1430411e-08 1.2230654e-08 -0.028128916 -0.04663369 -3.2855382e-07 1.3498328e-05 0.60290205 0.0036308884
5.7330394e-06 8.517791e-05 -4.8725037e-06 3.5117969e-06 2.0060801e-07 -4.7308367e-07 0.48044083 0.0030380618
4.332629e-08 -0.1023588 2.3092314e-06 -1.0958027e-08 0.04045995 2.2485207e-05 5.2150405e-08 -0.3015176
00000000: 324d 78b7 34df 6433 ceac 0f33 8d29 29b2
00000010: 29fe 9837 1277 e138 1ece a53e 2183 79b3
00000020: da2c 033a 9a20 8638 83bd 9fb4 5e2e db39
00000030: f074 c9b5 f83f d43e 5519 d0b7 dcca 4936
00000040: 4753 19be 141c d0b4 b641 8039 fbd2 8c38
00000050: 0b7d 01b3 7c09 8637 ef6e 92b7 52c6 05b9
00000060: 8e04 3f33 b3a4 8f36 0760 a636 8bc9 1d3e
00000070: 9898 b935 a737 9238 621d a4b8 14f5 3f39
00000080: cac9 dfb5 2dc8 5f37 6042 0434 6c03 ca34
00000090: 22c3 7eb2 bf30 c435 9115 8f33 6145 13be
000000a0: abfe 7db4 f656 c7b5 25a1 133f 13e8 9733
000000b0: 6cf0 7037 0bf1 6439 055e 833a 880b a9b7
000000c0: ca39 b139 1ff2 1539 0676 9fb3 e9a8 6939
000000d0: 2427 a635 19f7 b4b8 3a45 67ba c74f babc
000000e0: 3ea1 f3b4 d145 b536 288d 363a 2c28 c53a
000000f0: 7029 e5b7 4f7c 3db5 d492 1235 c3b7 663f
00000100: 3026 8737 dc10 48b7 24f2 5235 a777 38be
00000110: 3d02 9e3d 7c49 a436 ca86 65b8 88ab c439
00000120: 96ac 9eb8 9043 00b3 633b 0235 e299 58b8
00000130: 0a6f 8133 ba59 f439 acb8 43b1 b41d f7af
00000140: 99e6 d036 b260 98b7 869d 3c37 9c9e 57b6
00000150: 98ad d533 1d1c 30b7 9cee cc36 688a d436
00000160: 5ac4 e437 6efb 4137 e4ec b035 5949 d5bd
00000170: 95be fe3c cb01 a9b6 0ba5 463e a1c3 a9b3
00000180: e8c0 f7b7 416b 32ba 48b0 32b9 fbe7 0bbd
00000190: b05e fb36 2580 31b3 60aa 9433 78e7 6932
000001a0: 295f c637 099b ea34 a7e8 06ad 9034 463f
000001b0: 0e33 7db4 2a24 4832 ecce ceb1 0500 113e
000001c0: f596 08bb 678e 1e39 2db2 443b 283f 7036
000001d0: 7848 4f39 41af 373f 90fb ceb6 b293 c2b5
000001e0: 4051 f336 787a 84b9 e9ea 233a 81f4 483f
000001f0: bce7 5cbb 7371 1d3f 517f 8437 001b 45b4
00000200: 67ed bc32 0319 1a33 93b5 a0b9 373a 88bd
00000210: ef2b 3331 945b a234 b4bd 1935 1b5e a63c
00000220: 7505 14b8 650a 23be a19b 01b6 38b5 f734
00000230: 477c 20bc 4644 6ab7 8376 36b6 8d62 71b4
00000240: 0425 d13e 045d 33b3 05ee 12bb 5136 9f3e
00000250: efc4 993c fe3d 8f35 b608 87b5 6e99 ad37
00000260: 061d 033f e319 b739 9a23 3d39 0724 2837
00000270: 2bc0 64b5 be1a 9833 60d3 0632 0bfb 14b6
00000280: bfbb 043d 5f12 773f a6c3 8ebd 66cd 0f35
00000290: fe23 3c36 5ed8 97b3 562e 7db7 be0b 6fb4
000002a0: 000e 80af 0222 39b4 f3c8 19b4 187b 55b4
000002b0: 9cb7 1936 ace8 80ae 175d 2834 c0ad ecbd
000002c0: a73f 21be be41 2d39 16e0 a435 a932 93b8
000002d0: deea 39b5 38d9 c13e c994 90b3 38a6 98b8
000002e0: 56a4 65b2 fa64 ffb5 d367 57b7 e2e5 be39
000002f0: 4d24 0eb4 8b7a 9bb8 1246 bbbb f464 0eb9
00000300: ba72 453f 8e02 d932 b263 f538 db60 543b
00000310: c61d 7e3e bc07 b836 f936 74bd 2848 5f37
00000320: da45 6ab8 6e8d 0533 16bc 35b5 2026 59b7
00000330: 6c9f 7439 b6b6 f93e 340b 9839 3a1c 2a31
00000340: 9e8b f636 53e8 23b1 e0f9 9c37 e529 0a3f
00000350: 4e96 16ab bc40 d0b1 242b 26b2 4306 4bb6
00000360: eeb7 3e3a 9e7f 80ba 982b c83d d189 eb3e
00000370: d0e9 19b7 42d1 8234 ab25 24b7 7c9a 9bb8
00000380: 63a4 e0b7 9efe 2b33 bb58 3338 7249 8737
00000390: 6f25 4d37 c7fc e136 55c8 7f34 8a19 3bb2
000003a0: f915 b832 fc1e 5232 9d6e e6bc f802 3fbd
000003b0: 1864 b0b4 e176 6237 ca57 1a3f 33f4 6d3b
000003c0: 6f5e c036 8ba1 b238 7d7e a3b6 36ac 6b36
000003d0: b666 5734 20fc fdb4 57fc f53e 381a 473b
000003e0: c215 3a33 7ea1 d1bd 4bf8 1a36 ea41 3cb2
000003f0: 55b9 253d 9d9e bc37 fafb 5f33 8460 9abe

action_heads.0.weight f4 [2, 256]
2.2812376e-06 9.902755e-11 -1.8913955e-09 -3.1981268e-05 8.797359e-07 -4.565687e-07 -0.24292812 2.7106701e-09
-3.38097e-05 -2.0241783e-05 2.585175e-12 -8.958372e-06 2.8657556e-07 -7.3796896e-06 -3.938506e-07 -3.0551868e-07
-0.1570024 -6.2114265e-07 -0.00936692 -1.7347811e-06 2.0857052e-11 -1.1960684e-06 8.8202614e-07 -8.6843875e-07
-8.682209e-07 -2.7969836e-08 8.924492e-08 -0.003191304 -4.0849464e-08 3.6443137e-07 3.3618992e-08 -1.557072e-06
-8.018593e-06 -1.0249008e-06 3.139379e-07 -8.09098e-09 -1.9161912e-09 -2.9793586e-08 -3.100304e-11 -0.14035259
1.1662796e-09 -3.0766178e-06 2.4668052e-06 5.386771e-10 -1.8337873e-06 -3.1620953e-06 -3.0460865e-06 9.103121e-06
-0.49646714 3.3690085e-06 2.0764409e-07 -9.5191274e-07 -2.691812e-06 8.6351406e-07 -2.9892174e-16 -0.33316493
1.8820957e-08 -0.0007476279 -3.526753e-06 -6.206268e-06 -2.2764534e-06 7.7913946e-08 2.6626058e-05 -0.047654238
1.7855427e-06 -3.671907e-08 -3.9734223e-07 -0.09897968 -0.3574358 4.400529e-07 -7.080712e-07 -5.2792973e-05
-4.982432e-06 1.1712851e-09 -8.0903195e-09 -1.8434523e-07 1.647562e-10 3.9379975e-06 -0.008051211 -5.2809086e-09
-1.4087237e-07 -1.022416e-06 -4.0380107e-07 4.1340735e-07 -0.31709394 -3.5481105e-09 -3.2768625e-05 -2.6635219e-06
-3.7359506e-08 -0.012594002 2.5829062e-08 -0.008682261 -0.00028881212 -6.6622206e-08 -0.06878963 2.61766e-09
-2.1857677e-08 -1.2716008e-05 -8.984525e-05 -0.008866411 1.426167e-05 -6.2112377e-09 4.578957e-12 1.0735411e-08
-2.6546519e-05 -0.00041321508 -4.3153528e-12 -0.007792988 3.2026155e-06 8.5717975e-09 1.8601276e-09 -0.004222062
2.3286568e-05 -1.4985179e-07 -1.093133e-05 -3.3797323e-07 -0.07481773 -0.006819443 9.437201e-08 -5.5141146e-13
-8.884487e-07 -0.45513335 4.4251894e-05 -0.013022019 1.7705881e-05 -0.40612948 2.728952e-06 6.2784897e-09
1.4395724e-10 1.147143e-07 -6.595646e-05 -0.34531438 -6.4455917e-06 -3.4276553e-08 -3.1083422e-07 -0.3389664
-3.715063e-07 -0.06456307 -5.0657115e-07 -1.9795282e-07 -4.548863e-06 -3.7059274e-06 -1.0149901e-06 -5.9255188e-05
-8.831543e-06 1.6599222e-12 -0.23443323 -0.3520977 -0.00022444251 -0.0017571622 3.759589e-08 -1.7234127e-07
-2.2674169e-05 2.5056625e-06 -3.1001719e-07 -2.2227367e-07 -8.040971e-05 -5.3021428e-11 -1.6029432e-08 4.410378e-08
-5.862242e-05 -0.07568448 -0.22429848 2.6204289e-05 1.5561933e-05 -2.967041e-08 1.0699463e-06 1.7655467e-09
3.010836e-11 -1.0748678e-08 9.641844e-07 -4.0385214e-05 -7.219046e-09 -4.311845e-09 3.7477438e-08 -0.30468798
-0.08906123 1.3960499e-07 -1.6175723e-06 -2.7616875e-06 -1.8567865e-05 -0.07045779 7.4887563e-10 2.96187e-06
-9.370277e-06 -1.9544716e-06 -2.9599192e-07 -5.1808993e-06 7.9382216e-11 -4.7924715e-07 -5.9513848e-05 -3.6564757e-06
-0.04857138 1.6536e-08 -4.24385e-06 -0.009490129 -0.005321856 2.276704e-07 -0.32847401 -2.3355403e-07
-3.3971544e-06 3.3422447e-09 -2.4515723e-06 -1.639972e-08 -2.1971093e-06 -1.96788e-05 -0.00016151892 1.5760932e-07
-9.560017e-08 -1.1481603e-10 -1.3931092e-06 -0.00061039923 2.633088e-37 1.362579e-11 -2.4706592e-09 -6.55487e-06
-6.6271323e-06 -0.38256428 -0.42052552 -0.00014060785 3.6702107e-07 3.9830375e-08 3.079671e-08 -3.0575325e-07
-0.10171955 3.7037315e-14 -4.4694757e-06 -0.02003342 -1.0177499e-05 3.5740885e-07 5.4057182e-08 7.945339e-11
-1.02620724e-11 -2.5318847e-09 -2.1400705e-05 2.4301375e-18 -0.19958611 6.08029e-07 -2.7396032e-05 -2.8283807e-07
1.0585262e-05 -1.508435e-07 -3.5272936e-07 -0.00084417115 1.2695864e-12 1.1376741e-08 -0.033421025 -8.673651e-06
-1.2483853e-09 -0.06106221 -1.3255803e-09 -1.6844012e-08 0.00029142003 -1.06058565e-07 8.986699e-08 -0.12016677
00000000: 5d17 1936 8ec3 d92e c8f9 01b1 a023 06b8
00000010: fe26 6c35 531e f5b4 26c2 78be 9d46 3a31
00000020: e4ce 0db8 e6cc a9b7 5fea 352c ea4b 16b7
00000030: a5da 9934 0d9f f7b6 6a72 d3b4 2b06 a4b4
00000040: 3dc5 20be 99bc 26b5 b677 19bc a0d6 e8b5
00000050: e875 b72d 9988 a0b5 60c4 6c35 a81e 69b5
00000060: b00f 69b5 5242 f0b2 eaa6 bf33 3225 51bb
00000070: 7672 2fb3 11a7 c334 7964 1033 96fc d0b5
00000080: 9887 06b7 538f 89b5 4c8b a834 8200 0bb2
00000090: fead 03b1 caec ffb2 525a 08ae 97b8 0fbe
000000a0: d14a a030 e477 4eb6 648b 2536 0812 1430
000000b0: 7420 f6b5 6234 54b6 5e6b 4cb6 9bb9 1837
000000c0: f130 febe 2017 6236 c6f4 5e34 f286 7fb5
000000d0: faa4 34b6 3ccc 6735 1051 aca5 9894 aabe
000000e0: b9ab a132 76fc 43ba 28ad 6cb6 703f d0b6
000000f0: 2cc5 18b6 a551 a733 065b df37 1731 43bd
00000100: c8a6 ef35 0bb5 1db3 4d52 d5b4 dcb5 cabd
00000110: d301 b7be 6940 ec34 4812 3eb5 066e 5db8
00000120: c42e a7b6 eefa a030 9afd 0ab2 6ef0 45b4
00000130: bf26 352f 2423 8436 3ae9 03bc 5d73 b5b1
00000140: b442 17b4 f239 89b5 ffc9 d8b4 46f2 dd34
00000150: 235a a2be 05d3 73b1 0b71 09b8 f5be 32b6
00000160: 3675 20b3 1357 4ebc b5de dd32 0b40 0ebc
00000170: b56b 97b9 f211 8fb3 94e1 8cbd 5de2 3331
00000180: 8ac1 bbb2 d756 55b7 4d6b bcb8 6c44 11bc
00000190: 6845 6f37 a06a d5b1 941b a12c d66e 3832
000001a0: 37b0 deb7 caa4 d8b9 3ed5 97ac 525c ffbb
000001b0: 84ec 5636 2a43 1332 6ca7 ff30 3959 8abb
000001c0: 8657 c337 f2e6 20b4 b465 37b7 b072 b5b4
000001d0: 0a3a 99bd a275 dfbb 90a9 ca33 6235 1bab
000001e0: bb7d 6eb5 3d07 e9be 1c9b 3938 4e5a 55bc
000001f0: 1787 9437 34f0 cfbe 0a23 3736 2eba d731
00000200: 5c48 1e2f da58 f633 1b52 8ab8 0ccd b0be
00000210: 3647 d8b6 7837 13b3 bbe0 a6b4 018d adbe
00000220: 7073 c7b4 a539 84bd 4efb 07b5 db8c 54b4
00000230: 70a2 98b6 59b3 78b6 cb3a 88b5 c688 78b8
00000240: 302b 14b7 009d e92b 440f 70be 2646 b4be
00000250: 5458 6bb9 9450 e6ba 1e79 2133 cf0c 39b4
00000260: 6834 beb7 f426 2836 7070 a6b4 1faa 6eb4
00000270: a2a1 a8b8 d230 69ae 18b1 89b2 9e6c 3d33
00000280: 58e1 75b8 7700 9bbd 80ae 65be 48d1 db37
00000290: ff8a 8237 ecdd feb2 139b 8f35 a7a7 f230
000002a0: 006b 042e 30a9 38b2 2069 8135 4b63 29b8
000002b0: 660b f8b1 6427 94b1 e1f6 2033 1000 9cbe
000002c0: bc65 b6bd 54e6 1534 5c1b d9b5 6e55 39b6
000002d0: 30c2 9bb7 2c4c 90bd 70d9 4d30 8ac4 4636
000002e0: 0935 1db7 9129 03b6 d2e8 9eb4 96d7 adb6
000002f0: 3790 ae2e 9da5 00b5 829e 79b8 c661 75b6
00000300: c9f2 46bd 0c0b 8e32 6566 8eb6 7c7c 1bbc
00000310: f762 aebb 9075 7434 bf2d a8be d8c6 7ab4
00000320: abfa 63b6 64ad 6531 b185 24b6 5edf 8cb2
00000330: 0d72 13b6 e713 a5b7 685d 29b9 523b 2934
00000340: c04c cdb3 ae7b fcae defa bab5 3303 20ba
00000350: dd32 b302 1ab5 6f2d 4cc8 29b1 e8f1 dbb6
00000360: a25e deb6 77df c3be 1f4f d7be 2270 13b9
00000370: fe0a c534 f611 2b33 5745 0433 6826 a4b4
00000380: 5752 d0bd 1ecd 2629 81f8 95b6 201d a4bc
00000390: 06c0 2ab7 e6e1 bf34 802c 6833 48b8 ae2e
000003a0: 4488 34ad 63fd 2db1 aa85 b3b7 0050 3322
000003b0: 4d60 4cbe 6f37 2335 88d0 e5b7 f8d8 97b4
000003c0: 5b97 3137 8cf7 21b4 c15e bdb4 5e4b 5dba
000003d0: acad b22b 7073 4332 7ce4 08bd 0c85 11b7
000003e0: a793 abb0 5e1c 7abd b62f b6b0 60b0 90b2
000003f0: bcc9 9839 50c2 e3b3 e6fc c033 ff19 f6bd

action_heads.0.bias f4 [2]
-0.42939514 -4.2894935e-05
00000000: aed9 dbbe 16ea 33b8
