shanghai_road_delivery/results_centralized/centralized_episode_250.pth_centralized_critic.pth (torch, 919188 bytes, 7 tensors)

fc1.weight f4 [256, 378]
000000 7f 2d d9 20 9a 66 c6 a1 9b bb ae ad 01 6a 88 ad
       3.6791337e-19 -1.344416e-18 -1.9864823e-11 -1.5508485e-11
000010 db 33 8f ad 40 29 7d ad 68 32 21 9e 04 3f cb 3a
       -1.6280246e-11 -1.4390544e-11 -8.533693e-21 0.0015506451
000020 70 79 8a 38 e8 54 0a 2c fd 2f 78 2c 54 2a fc a2
       6.602972e-05 1.9658112e-12 3.5269559e-12 -6.8349554e-18
000030 cd 06 b9 22 60 a2 de 30 39 8b 3f 22 ae 67 2e 27
       5.015155e-18 1.6198776e-09 2.595903e-18 2.4203556e-15
000040 be a4 95 a2 4a a1 1c b3 04 94 f5 a0 5c 41 fd a4
       -4.056096e-18 -3.6468272e-08 -4.1602563e-19 -1.0983198e-16
000050 d2 1b 12 a2 06 f9 20 a1 81 ac 85 a1 b9 e2 9e 22
       -1.9801418e-18 -5.453969e-19 -9.058092e-19 4.3066038e-18
000060 f7 16 c1 a1 e2 13 84 b0 f8 30 12 9e bc a3 d0 2f
       -1.3084267e-18 -9.609915e-10 -7.739302e-21 3.795132e-10
000070 80 37 02 23 74 09 a4 2b 87 13 10 a3 8c e5 8b ac
       7.059067e-18 1.1655525e-12 -7.810391e-18 -3.9761024e-12
000080 a2 bc 5c a2 9a 74 00 3b ed 6c d0 a2 ee 79 00 ba
       -2.9915421e-18 0.001960075 -5.6493843e-18 -0.00049009814
000090 f2 bb c2 20 94 bc ae ad 66 03 98 23 94 bc ae ad
       3.298925e-19 -1.9865255e-11 1.6481312e-17 -1.9865255e-11
0000a0 3c b9 11 be d7 07 79 ba 37 83 54 af b1 cd 72 a3
       -0.14230818 -0.00094997644 -1.9327905e-10 -1.3162403e-17
0000b0 45 1d 12 be f5 69 1a ba 7f a9 c4 28 38 eb cb a2
       -0.14268978 -0.00058904226 2.1833878e-14 -5.5272308e-18
0000c0 aa 7d a9 38 60 bd ae ad ec 9b e4 ac 94 bc ae ad
       8.081955e-05 -1.986561e-11 -6.4974606e-12 -1.9865255e-11
0000d0 cd dc 87 22 b7 f2 07 22 9b bb ae ad 69 d2 8c ad
       3.6825605e-18 1.8424404e-18 -1.9864823e-11 -1.6009598e-11
0000e0 2f d3 90 ad 44 0e 8b ad 30 d4 01 00 cd ec 09 2d
       -1.6464689e-11 -1.5808806e-11 1.67954e-40 7.840129e-12
0000f0 67 c5 50 af 8e a8 83 38 08 c1 c2 b6 54 2a fc a2
       -1.8987621e-10 6.2779625e-05 -5.8041223e-06 -6.8349554e-18
000100 cd 06 b9 22 ac 8e a9 30 39 8b 3f 22 ae 67 2e 27
       5.015155e-18 1.2336918e-09 2.595903e-18 2.4203556e-15
000110 be a4 95 a2 fc df 29 ae 04 94 f5 a0 5c 41 fd a4
       -4.056096e-18 -3.862509e-11 -4.1602563e-19 -1.0983198e-16
000120 d2 1b 12 a2 5a b0 18 21 cb 29 09 22 68 79 02 80
       -1.9801418e-18 5.1733e-19 1.8589087e-18 -2.27223e-40
000130 d0 e3 6f 21 6b 47 38 39 8b a7 af a0 58 7e ea ad
       8.1277857e-19 0.00017574213 -2.9757024e-19 -2.6658828e-11
000140 b7 76 a5 a2 4a 11 07 b3 87 13 10 a3 25 e4 9e 2d
       -4.4849034e-18 -3.144786e-08 -7.810391e-18 1.8063837e-11
000150 a2 bc 5c a2 e6 41 22 af ed 6c d0 a2 1b db 0e b6
       -2.9915421e-18 -1.4757226e-10 -5.6493843e-18 -2.1287185e-06
000160 f2 bb c2 20 94 bc ae ad 66 03 98 23 94 bc ae ad
       3.298925e-19 -1.9865255e-11 1.6481312e-17 -1.9865255e-11
000170 eb 20 9b be 44 57 3c ba 29 e8 22 af 3a c6 1c 23
       -0.30298552 -0.00071846345 -1.4816294e-10 8.498753e-18
000180 5d 80 91 be 82 23 0a ba 9c 07 89 a6 d2 47 92 a2
       -0.28418246 -0.00052695733 -9.508347e-16 -3.964942e-18
000190 b0 f7 c4 20 1b 35 76 ad 10 98 c4 3b 94 bc ae ad
       3.3367597e-19 -1.3995273e-11 0.0059995726 -1.9865255e-11
0001a0 3a 2f 94 a2 c0 e0 52 a2 57 bb ae ad 72 0b 85 ad
       -4.0165483e-18 -2.8579289e-18 -1.9864705e-11 -1.5125432e-11
0001b0 2b 61 89 ad ec e4 76 ad f0 05 24 1c 9e c2 0e ac
       -1.5618248e-11 -1.4034312e-11 5.427072e-22 -2.0287448e-12
0001c0 6c a4 3f 3a a0 fb 8e b9 ee 0c c2 30 54 2a fc a2
       0.00073105725 -0.00027271826 1.4119033e-09 -6.8349554e-18
0001d0 cd 06 b9 22 c0 13 f6 b4 39 8b 3f 22 ae 67 2e 27
       5.015155e-18 -4.583544e-07 2.595903e-18 2.4203556e-15
0001e0 be a4 95 a2 24 47 4d 3b 04 94 f5 a0 5c 41 fd a4
       -4.056096e-18 0.003132292 -4.1602563e-19 -1.0983198e-16
0001f0 d2 1b 12 a2 72 be 94 20 11 f0 a5 20 a7 40 00 00
       -1.9801418e-18 2.5198201e-19 2.811095e-19 2.3193e-41
000200 16 4c de a0 00 28 59 34 f6 dd 3f 9f d8 d3 ff b5
       -3.7658612e-19 2.0224252e-07 -4.0629425e-20 -1.9060635e-06
000210 b7 76 a5 a2 ec e2 80 bb 80 37 02 23 88 c9 4b 33
       -4.4849034e-18 -0.003933301 7.059067e-18 4.7447912e-08
000220 a2 bc 5c a2 b0 2b 8d ba ed 6c d0 a2 6b e0 8b 2f
       -2.9915421e-18 -0.0010770466 -5.6493843e-18 2.544341e-10
000230 f2 bb c2 20 94 bc ae ad 66 03 98 23 94 bc ae ad
       3.298925e-19 -1.9865255e-11 1.6481312e-17 -1.9865255e-11
000240 fc 60 a2 bd 60 7a 83 ba 4a 2f 43 ad 98 c7 0c 23
       -0.079286546 -0.0010030977 -1.1094967e-11 7.631681e-18
000250 df f0 8e bd 33 5f 10 ba 1c 02 e4 ac 16 73 ff 22
       -0.06979536 -0.000550735 -6.480384e-12 6.923974e-18
000260 28 b0 cc 9f 3c 6c 9d ad b9 a8 14 ab 94 bc ae ad
       -8.6688787e-20 -1.78969e-11 -5.281431e-13 -1.9865255e-11
000270 ee f8 ba a2 ab d4 11 22 36 bb ae ad 6f 97 88 ad
       -5.0678966e-18 1.976375e-18 -1.9864648e-11 -1.552866e-11
000280 79 38 8f ad 6f 2f 60 ad 9d 60 8a a1 3b 8d d7 aa
       -1.6282297e-11 -1.2743458e-11 -9.376817e-19 -3.828967e-13
000290 d5 2e 9b 39 fd 79 a7 b4 40 62 30 ac 54 2a fc a2
       0.00029598796 -3.1194932e-07 -2.5065644e-12 -6.8349554e-18
0002a0 cd 06 b9 22 be 60 02 80 39 8b 3f 22 ae 67 2e 27
       5.015155e-18 -2.18376e-40 2.595903e-18 2.4203556e-15
0002b0 be a4 95 a2 ce 6d b2 2d 04 94 f5 a0 5c 41 fd a4
       -4.056096e-18 2.028502e-11 -4.1602563e-19 -1.0983198e-16
0002c0 d2 1b 12 a2 c7 cb 1f 22 80 b2 ef 1f b9 cc 1c 80
       -1.9801418e-18 2.1656397e-18 1.0151574e-19 -2.644835e-39
0002d0 10 8b b6 a0 23 aa 9d 25 78 c5 40 1f ab a2 18 ac
       -3.0924023e-19 2.7350448e-16 4.0820924e-20 -2.1690798e-12
0002e0 b7 76 a5 a2 d6 13 25 2c 80 37 02 23 00 39 02 bb
       -4.4849034e-18 2.3458921e-12 7.059067e-18 -0.00198704
0002f0 87 13 10 a3 42 15 3d 2d ed 6c d0 a2 ce b0 02 ae
       -7.810391e-18 1.0748126e-11 -5.6493843e-18 -2.9715612e-11
000300 f2 bb c2 20 94 bc ae ad 66 03 98 23 94 bc ae ad
       3.298925e-19 -1.9865255e-11 1.6481312e-17 -1.9865255e-11
000310 73 f3 37 be 9d a2 88 ba 61 2c 2f ae 15 62 9d a2
       -0.17963962 -0.0010424439 -3.982981e-11 -4.2658784e-18
000320 70 f4 36 be 71 0d 1f ba cc d9 99 28 49 90 6a a2
       -0.17866683 -0.00060673716 1.7080867e-14 -3.1789297e-18
000330 60 64 d9 9e b9 a2 77 ad 60 7a aa b8 94 bc ae ad
       -2.3017283e-20 -1.4076456e-11 -8.129026e-05 -1.9865255e-11
000340 c6 20 a0 22 03 67 28 a2 9b bb ae ad e9 a2 9a ad
       4.3402787e-18 -2.282278e-18 -1.9864823e-11 -1.758012e-11
000350 72 72 9c ad 53 1b 94 ad 8e 16 01 00 f0 54 5f ae
       -1.778597e-11 -1.6837786e-11 9.9927e-41 -5.077977e-11
000360 46 10 23 2b 4c 39 04 3b 0d 90 98 34 54 2a fc a2
       5.7931817e-13 0.0020175753 2.8417017e-07 -6.8349554e-18
000370 cd 06 b9 22 72 09 47 b5 39 8b 3f 22 ae 67 2e 27
       5.015155e-18 -7.414702e-07 2.595903e-18 2.4203556e-15
000380 be a4 95 a2 f4 08 56 af 04 94 f5 a0 5c 41 fd a4
       -4.056096e-18 -1.9466367e-10 -4.1602563e-19 -1.0983198e-16
000390 d2 1b 12 a2 91 25 3f 38 a4 46 24 a1 3e 56 1a 00
       -1.9801418e-18 4.5572935e-05 -5.5658853e-19 2.418661e-39
0003a0 10 43 98 9f d6 cf 22 2d 9a 47 88 a0 ee e2 b7 33
       -6.448545e-20 9.254783e-12 -2.3086678e-19 8.56288e-08
0003b0 b7 76 a5 a2 88 36 24 3b 80 37 02 23 e8 b5 37 af
       -4.4849034e-18 0.0025056917 7.059067e-18 -1.6708379e-10
0003c0 87 13 10 a3 6d c3 3f 29 a2 bc 5c a2 d0 5c 80 ae
       -7.810391e-18 4.2580024e-14 -2.9915421e-18 -5.837253e-11
0003d0 f2 bb c2 20 94 bc ae ad 66 03 98 23 94 bc ae ad
       3.298925e-19 -1.9865255e-11 1.6481312e-17 -1.9865255e-11
0003e0 3f 28 33 be 17 17 4e ba 1a 7a 29 b0 a5 9d 76 22
       -0.17495821 -0.0007861717 -6.165536e-10 3.3422673e-18
0003f0 b8 6e 31 be ec ae 37 ba e8 8d 43 aa 88 cb 09 23
       -0.17327392 -0.00070069614 -1.7368713e-13 7.469884e-18

fc1.bias f4 [256]
000000 3c bc ae ad f6 88 4c b5 50 d5 ed b2 ab 9c 52 bb
       -1.9865103e-11 -7.6195226e-07 -2.7687435e-08 -0.0032136838
000010 ac 28 92 b6 4b 2e 7e b2 56 24 20 ba a5 2c 99 b9
       -4.355874e-06 -1.4795272e-08 -0.000610893 -0.00029215697
000020 37 70 64 ba f5 c2 95 b4 a2 26 94 b4 13 33 d9 af
       -0.0008714231 -2.7895263e-07 -2.7595257e-07 -3.950836e-10
000030 e5 8e 2b b9 b9 95 df b5 e6 30 34 b0 43 5d 0d bb
       -0.00016361063 -1.665837e-06 -6.555311e-10 -0.002157048
000040 e7 24 8d ba a2 4a 7e b5 f9 7f e2 ad 8e ca a1 ba
       -0.0010768444 -9.473098e-07 -2.5750057e-11 -0.0012343691
000050 f0 a8 09 b5 84 68 e4 af 1c d8 09 bc 39 08 0e b0
       -5.1282314e-07 -4.154722e-10 -0.008413341 -5.1670984e-10
000060 13 09 93 be ce 14 a2 b4 7c 0c 18 bf 00 c7 41 bd
       -0.2871786 -3.018999e-07 -0.5939405 -0.04730892
000070 c8 cc 40 b6 64 ff 8c b9 d3 bc 04 bc 5c db 41 b9
       -2.8729428e-06 -0.00026893162 -0.00810166 -0.00018487632
000080 ee 3f fa ba d3 50 20 b8 e4 19 62 ba 26 4d 3a bd
       -0.0019092539 -3.8222246e-05 -0.0008625074 -0.04548373
000090 98 5b 2f bb cc 1d 46 bb 3b 04 0e bb 08 b6 22 b3
       -0.0026757475 -0.0030230163 -0.0021670002 -3.788412e-08
0000a0 72 a5 63 be 0d cb 3d ab b0 51 32 b5 3e 47 84 b7
       -0.22231081 -6.742808e-13 -6.642904e-07 -1.5768801e-05
0000b0 e3 6e a4 ba fd f3 33 b2 7e d4 4c b9 fa 78 f2 b7
       -0.0012545254 -1.0474648e-08 -0.00019534116 -2.8904982e-05
0000c0 04 4a 12 3d ba 2c 44 ba 70 c6 71 b5 17 82 55 ba
       0.035715118 -0.00074834714 -9.006826e-07 -0.000814469
0000d0 68 91 c0 b9 de 9f c2 ba 17 8a 16 b9 66 26 3f 39
       -0.0003672943 -0.001484867 -0.00014356557 0.00018229484
0000e0 02 51 51 b6 87 b9 b0 b5 1a 65 a8 38 2d 83 45 b5
       -3.119058e-06 -1.3167017e-06 8.029696e-05 -7.3579105e-07
0000f0 fc f6 26 b9 b0 4f ff bc 87 bd a8 b5 29 81 26 ae
       -0.00015923003 -0.031165928 -1.2572135e-06 -3.7858747e-11
000100 54 a3 a1 b6 79 0d 4a b1 51 9d e6 ba 7a 3a ab b7
       -4.817188e-06 -2.9402527e-09 -0.0017594491 -2.0412019e-05
000110 61 d6 48 bb 90 e4 32 bd b2 77 0a ab 45 99 f7 b5
       -0.0030645358 -0.043675005 -4.919356e-13 -1.8447541e-06
000120 8c 5a 47 3c ff 30 fa b2 78 60 1c b7 a7 e9 0f b4
       0.012167584 -2.9126111e-08 -9.3207855e-06 -1.3402915e-07
000130 9f 05 83 b4 83 db df bb 8c 8c a3 b7 28 d8 6e b5
       -2.440474e-07 -0.0068315878 -1.9496561e-05 -8.897646e-07
000140 d6 01 84 be d6 e7 9a 34 ea b6 b4 b8 04 d4 a4 36
       -0.2578265 2.8853418e-07 -8.617139e-05 4.9122627e-06
000150 d1 a3 a7 ba f8 ff 67 bd c7 a2 04 af 0e fc a3 bc
       -0.001278991 -0.056640595 -1.206316e-10 -0.02001765
000160 93 d0 9c b9 7f 37 93 b6 a1 64 5b b5 94 40 d6 bc
       -0.0002991004 -4.387402e-06 -8.173029e-07 -0.02615384
000170 9a bd 44 b9 2f 6f 04 be 00 88 09 b5 9c 00 6c b8
       -0.00018762649 -0.12933038 -5.1234383e-07 -5.6267352e-05
000180 4c bc 4d b1 d2 9a 07 b6 67 cc 93 b6 6d 6d 98 b6
       -2.993846e-09 -2.0206685e-06 -4.404737e-06 -4.542692e-06
000190 c0 49 6c bc fe fd 09 b4 33 51 89 bd 16 af 41 bc
       -0.01442188 -1.2851521e-07 -0.06704941 -0.011821529
0001a0 fb c5 65 bb a4 59 64 bc 3a 1b 0d b4 b4 fc cb 33
       -0.0035060633 -0.013937388 -1.3141553e-07 9.4988906e-08
0001b0 b2 94 b7 b4 e9 be 35 b7 cf 1f 07 3f 2f 94 b3 a8
       -3.4194596e-07 -1.083289e-05 0.5278291 -1.9937257e-14
0001c0 4c 3c 4b b8 9f 43 16 b8 e5 e1 5b b8 6e 9d e2 b6
       -4.8455127e-05 -3.5825764e-05 -5.242405e-05 -6.753652e-06
0001d0 43 4e de b7 c5 8c 0c 39 66 aa 44 2f 61 c5 37 b6
       -2.6500906e-05 0.00013403881 1.7886634e-10 -2.7384015e-06
0001e0 e9 e9 11 b6 1c 9f 37 bc 52 4a f6 b6 61 2a ac b3
       -2.1742837e-06 -0.011207368 -7.3400233e-06 -8.017083e-08
0001f0 93 63 8f b9 2e ab 51 bc dc 67 7b b8 ff bb eb b5
       -0.00027349274 -0.01279716 -5.993979e-05 -1.7563578e-06
000200 dc f8 3b b9 50 cb 20 b9 f0 6d ed b4 0f f4 cd b7
       -0.00017926417 -0.00015334529 -4.422468e-07 -2.4551553e-05
000210 6f ab a1 b9 79 f7 5e ba 48 9f 31 bc 4e 67 c2 b9
       -0.0003083604 -0.0008505504 -0.010841198 -0.00037079531
000220 09 46 56 bd fd 84 ad b9 b8 e7 7c bc ca 3b 55 bb
       -0.052312884 -0.00033096215 -0.015436105 -0.0032536858
000230 5c a0 93 b2 be 77 a1 39 2f 5c 34 b0 92 e8 6f b7
       -1.7185975e-08 0.00030797528 -6.561462e-10 -1.429966e-05
000240 b5 d5 61 b5 c7 49 ef b7 ee 0c 0f b7 c2 76 81 ba
       -8.4130016e-07 -2.8525375e-05 -8.526475e-06 -0.0009877312
000250 40 31 56 ba b1 6f 3d bf b7 c5 c3 b6 4c 05 cd b7
       -0.0008170791 -0.7399855 -5.83447e-06 -2.444037e-05
000260 de c2 6a b4 c4 ca 4c bb 10 48 80 b9 b7 2b 63 af
       -2.186384e-07 -0.0031248787 -0.00024467753 -2.066106e-10
000270 12 6c fe b0 73 74 32 b9 7d 46 46 ba d1 45 6a b1
       -1.8511648e-09 -0.00017018784 -0.0007563604 -3.4091168e-09
000280 23 9e 59 bb 01 fa 0c b7 40 ab 11 be 8f 4e ce ba
       -0.003320583 -8.402859e-06 -0.14225483 -0.0015739965
000290 35 53 b4 bd ce 62 0a 3e 5d 62 10 b5 a2 e6 51 b5
       -0.08804933 0.13514253 -5.378732e-07 -7.819418e-07
0002a0 a8 ab 6e bb 5b 5b a9 ba 46 92 e1 bc 20 89 53 b2
       -0.0036418233 -0.0012920903 -0.027535569 -1.2312995e-08
0002b0 9e a7 ed b6 83 03 06 b9 a2 11 37 b5 c7 eb 6a b9
       -7.0826636e-06 -0.00012780544 -6.819847e-07 -0.00022403813
0002c0 ea e7 76 be 4e 70 32 3f a6 3e 89 ad 94 d5 7d b8
       -0.24111906 0.69702613 -1.5602918e-11 -6.051881e-05
0002d0 2e 34 5e be 9c cb 79 b4 bd e1 92 39 e0 21 c1 b4
       -0.21699592 -2.3264005e-07 0.00028015478 -3.59737e-07
0002e0 b5 ab 05 bc 00 36 7e bb 10 aa a1 b7 20 3b cc 9d
       -0.008158614 -0.003878951 -1.9271887e-05 -5.4059484e-21
0002f0 ea 1c be b6 7d ef 3b b4 0b 6e b9 b5 78 ef 0b b8
       -5.6658073e-06 -1.7502857e-07 -1.3815601e-06 -3.3363205e-05
000300 42 63 20 b2 9c 37 6d b9 9d f7 19 bb d7 97 13 bc
       -9.335794e-09 -0.00022622797 -0.0023493536 -0.009008369
000310 34 f2 04 b3 e1 6b 31 b3 99 dd d8 bb 18 fa 94 af
       -3.0953927e-08 -4.130914e-08 -0.0066182134 -2.7098745e-10
000320 c2 47 0f b5 09 e4 21 b8 16 c6 f7 b8 db c0 37 b7
       -5.337607e-07 -3.8597766e-05 -0.00011814774 -1.0952553e-05
000330 0e cd 6d b7 9d 36 7e ba c4 d2 87 bb 18 d8 cb aa
       -1.4174044e-05 -0.0009697469 -0.0041449983 -3.620999e-13
000340 92 51 9a b4 2d ef af b9 93 fb a1 b9 db 91 db ba
       -2.8744086e-07 -0.000335568 -0.0003089575 -0.0016751842
000350 72 27 d9 b6 8a a8 40 b8 25 a2 bc af 2b a6 fb b3
       -6.471696e-06 -4.593333e-05 -3.4312211e-10 -1.1718324e-07
000360 61 35 1b ae 22 d5 58 b9 ec ba f7 b8 eb 3e ab b9
       -3.529033e-11 -0.00020678763 -0.00011812695 -0.0003266254
000370 a0 8c 8c b4 19 00 55 b5 6d b5 f7 b6 0a 88 af ba
       -2.617935e-07 -7.9348825e-07 -7.3822944e-06 -0.0013391983
000380 56 d5 0c bd 3b ea 11 bd 79 d0 39 37 67 f0 83 b7
       -0.03438314 -0.03562377 1.1075398e-05 -1.5728363e-05
000390 d8 31 ac b6 54 db 7a b3 09 15 2d 3f e3 27 a3 b2
       -5.131802e-06 -5.840714e-08 0.6761022 -1.8993836e-08
0003a0 2d a6 0d be 49 ba eb b2 75 ce 14 b4 a7 ac 4d b0
       -0.13832922 -2.7442313e-08 -1.3858683e-07 -7.482392e-10
0003b0 55 76 5f b2 c6 1c cb b6 51 50 7f be 80 43 bb b8
       -1.3007214e-08 -6.053221e-06 -0.24932982 -8.929428e-05
0003c0 eb a0 92 b8 90 f1 2c b7 ef cb 24 b6 06 bd 1e ba
       -6.991796e-05 -1.0308242e-05 -2.455661e-06 -0.00060553884
0003d0 dd 98 09 b9 89 a2 17 bc db 20 42 b9 9f 5f 7d b4
       -0.00013122284 -0.00925506 -0.00018513521 -2.3597248e-07
0003e0 e7 6c 86 b2 67 d4 69 b6 89 fe 42 b9 b6 b5 b9 b8
       -1.5649176e-08 -3.484334e-06 -0.00018596103 -8.855334e-05
0003f0 95 ce af bb 34 56 9b b6 e8 e6 d6 b8 ce c6 45 b9
       -0.0053652027 -4.6293953e-06 -0.00010247325 -0.00018861445

fc2.weight f4 [256, 256]
000000 34 a8 40 1a cb 94 1f a7 f2 fe 83 23 96 ed 06 ba
       3.9840543e-23 -2.2146343e-15 1.4311022e-17 -0.00051470974
000010 86 06 53 a8 30 34 89 31 9a e4 d8 39 4f 4e b6 b5
       -1.17142675e-14 3.993158e-09 0.00041369052 -1.3582847e-06
000020 08 40 a4 a3 2d 6d 49 9c 3d 73 1d 12 f4 59 dd 80
       -1.7808034e-17 -6.664643e-22 4.9682507e-28 -2.0327914e-38
000030 e4 d0 4a 39 46 06 7c 35 79 87 2d b0 d3 7b d8 bb
       0.00019342039 9.3886445e-07 -6.312955e-10 -0.006606558
000040 8c 0e 8d a4 58 67 05 80 5b a5 02 80 3c fe 65 aa
       -6.1173646e-17 -4.9625e-40 -2.4299e-40 -2.0427491e-13
000050 32 fa 28 00 f8 b9 88 2f d0 0d c0 3a b3 9d 0b 1f
       3.763173e-39 2.4870395e-10 0.0014652554 2.956484e-20
000060 96 0a 87 b9 ce 13 01 00 ec ea 80 bd 9a 34 42 ba
       -0.00025757094 9.894e-41 -0.06294808 -0.0007408351
000070 8c c4 01 89 af 1e d3 ad 59 9e 2f aa a0 cc 1d 2a
       -1.5620226e-33 -2.4001549e-11 -1.559806e-13 1.4015395e-13
000080 20 20 31 bd 60 82 13 26 0d 19 ee b8 b8 ea 14 37
       -0.043243527 5.117756e-16 -0.000113533904 8.876137e-06
000090 94 3b 3b ba c4 ea 8d 0d 89 b3 83 3c de d3 c0 b6
       -0.0007142362 8.746314e-31 0.01607682 -5.7467105e-06
0000a0 d1 0a 2d bd b2 b2 3e 8b b6 ff d1 b6 0f 63 ea b7
       -0.042246643 -3.6727104e-32 -6.258454e-06 -2.7941102e-05
0000b0 21 b8 98 3c f4 f5 91 a5 e2 f0 92 2f 7f 60 00 00
       0.018642487 -2.5320155e-16 2.6728403e-10 3.4616e-41
0000c0 c0 b9 09 3f 75 f3 cf b9 bc 5e 1c b4 d1 89 35 ab
       0.53799057 -0.00039663506 -1.4563096e-07 -6.4495376e-13
0000d0 a0 89 4a bb f8 f8 d2 a8 64 4f e1 9f 34 8e ad b9
       -0.0030904785 -2.3422657e-14 -9.542255e-20 -0.0003310308
0000e0 2e cb 47 39 e5 22 2b 27 40 75 86 bb 6e e0 fa 23
       0.00019053809 2.3749934e-15 -0.0041033328 2.7200104e-17
0000f0 5e 8a 0d 3a 3c 52 9c 3b 31 55 10 32 15 e5 d4 ab
       0.00053993415 0.0047705453 8.4012735e-09 -1.5127089e-12
000100 d8 8f a0 35 32 5a e2 ae 0a 6c 13 b9 ba 96 53 b2
       1.1962793e-06 -1.0293312e-10 -0.0001405926 -1.2316088e-08
000110 f8 0d cc aa ac c1 ba 36 dd 18 aa 08 b4 c9 82 b5
       -3.6247372e-13 5.5657783e-06 1.0237348e-33 -9.744458e-07
000120 b6 d9 f8 3b 31 49 a6 32 2d 84 7d 37 76 c1 cd 9a
       0.0075943125 1.9358227e-08 1.511075e-05 -8.5098566e-23
000130 7d 7e 5b 36 f9 10 87 3b d6 ea 26 23 2e d3 9b b4
       3.270717e-06 0.0041218963 9.0486065e-18 -2.9024653e-07
000140 72 19 20 ac a0 23 f6 34 40 7e 74 aa c8 17 38 b5
       -2.2751493e-12 4.584699e-07 -2.1715355e-13 -6.857995e-07
000150 ca 78 50 b3 3f 75 5f b7 f8 59 95 9b 0c a9 d0 b6
       -4.853863e-08 -1.3319134e-05 -2.4708123e-22 -6.2185627e-06
000160 8a 28 06 bb f1 db 0e b8 dc 15 23 33 5e b1 b6 24
       -0.002047094 -3.4060275e-05 3.7971276e-08 7.923039e-17
000170 8c 6c 1c 2c 08 85 b3 1d 88 dd c7 83 ae e4 5d 37
       2.222919e-12 4.7518457e-21 -1.174703e-36 1.322587e-05
000180 d0 8a 19 a7 d1 ed 14 35 b0 d0 6a 9a a5 53 01 00
       -2.1308266e-15 5.5480365e-07 -4.8558642e-23 1.21842e-40
000190 81 e7 f6 2f 90 c5 14 b5 62 27 15 be 44 8f f8 bb
       4.4911633e-10 -5.542179e-07 -0.14565805 -0.007585438
0001a0 27 32 12 ae 28 02 5e 3a 6e 2c 00 80 39 f7 0e ae
       -3.32411e-11 0.0008468949 -1.5938e-41 -3.250664e-11
0001b0 8a 48 00 00 bf 08 92 36 7d 8d 03 c0 83 4b 86 84
       2.6022e-41 4.3521572e-06 -2.0555108 -3.1572595e-36
0001c0 32 d7 01 80 80 38 28 b6 a8 3a c0 b5 02 cb a4 25
       -1.69033e-40 -2.5066838e-06 -1.4322186e-06 2.8587028e-16
0001d0 34 4b 0f b2 f4 5f 23 38 ed 16 f8 30 73 d1 cb b4
       -8.340795e-09 3.895159e-05 1.8050891e-09 -3.796409e-07
0001e0 6d e2 23 34 3a e9 13 87 6c e5 94 35 48 fc 3c b6
       1.5262931e-07 -1.112759e-34 1.109363e-06 -2.816103e-06
0001f0 2a 55 8c 38 d8 ef 08 80 fc 62 32 39 15 86 b1 1b
       6.691583e-05 -8.20724e-40 0.00017012277 2.9368842e-22
000200 be 11 93 a8 9c e3 f3 37 d8 2e c2 32 09 aa 01 b3
       -1.6327973e-14 2.9073846e-05 2.2605875e-08 -3.01898e-08
000210 92 3b 8b 80 ce dd f3 2d 16 a9 1d 1d 16 f1 c1 3a
       -1.2786504e-38 2.7724403e-11 2.0866192e-21 0.0014796581
000220 6a aa 84 33 d0 eb b4 37 0d af 17 2e 43 55 a1 a6
       6.177727e-08 2.156748e-05 3.44889e-11 -1.1194729e-15
000230 f0 ab ae 1a f8 97 30 3a 1c 36 f4 2e 57 ed 32 38
       7.2242493e-23 0.00067365123 1.1105447e-10 4.2659547e-05
000240 76 73 03 9d 6a 9b aa b4 32 ec 02 35 6f 74 06 bb
       -1.7397398e-21 -3.1778046e-07 4.8772483e-07 -0.0020516177
000250 9c 17 95 b9 0e 96 cf 3c ed a2 b4 37 2a bc 1b b0
       -0.00028437085 0.025340106 2.153354e-05 -5.665607e-10
000260 f2 0c d1 35 70 0c 8c 3c da 51 dd 38 3b 6d 01 8a
       1.5575481e-06 0.017095774 0.00010553347 -6.231668e-33
000270 27 e4 a4 b5 20 73 6b 9a ee d3 25 a5 f0 4b 7c 2c
       -1.2285353e-06 -4.8689858e-23 -1.4383273e-16 3.5853508e-12
000280 b0 17 b9 b2 e4 29 a3 2d 4e 87 1a 3c 5a ca a5 bb
       -2.1547606e-08 1.8549558e-11 0.009431673 -0.0050595226
000290 cd 30 cf be 80 18 82 bf 34 74 16 00 26 56 d7 36
       -0.4046692 -1.0163727 2.062067e-39 6.4175283e-06
0002a0 7e 40 08 95 91 9b 1b bb 35 35 89 b8 40 9f 99 ac
       -2.7515857e-26 -0.0023743848 -6.54258e-05 -4.366202e-12
0002b0 cd b5 42 38 56 60 28 2e b4 80 4f 34 e0 22 0e bb
       4.642252e-05 3.828434e-11 1.9325199e-07 -0.0021688268
0002c0 4e 6e 1c be 21 b3 1b be 6e f1 fb 15 3e 42 01 00
       -0.15276453 -0.15205051 1.01759e-25 1.15599e-40
0002d0 72 07 0a ab 7e b8 a6 ab 1c 81 b6 39 02 a0 c0 32
       -4.903778e-13 -1.1846216e-12 0.0003480994 2.2424505e-08
0002e0 e4 b7 e2 af 09 d9 03 ba 98 f9 db 28 47 c1 07 80
       -4.1239823e-10 -0.0005029594 2.4422128e-14 -7.12183e-40
0002f0 64 36 6e 36 ec 34 07 83 66 18 ec 8b be fb 1f ba
       3.5496423e-06 -3.9733686e-37 -9.0940604e-32 -0.0006102881
000300 d7 55 86 01 3c 47 b1 9f bc 62 c6 37 59 b5 29 bb
       4.9347e-38 -7.508026e-20 2.3649416e-05 -0.0025895445
000310 e3 90 81 b1 44 f9 b4 20 0a 37 27 39 28 1f 43 80
       -3.770866e-09 3.0658136e-19 0.00015946865 -6.164155e-39
000320 56 98 ee b4 7e 6d ac b6 da b8 7a ba ee d6 df b0
       -4.4441794e-07 -5.138746e-06 -0.0009564288 -1.6286472e-09
000330 20 cf 59 b4 62 51 9b b5 2d 14 a6 a1 07 35 4e 0d
       -2.0285052e-07 -1.1572085e-06 -1.1253938e-18 6.354248e-31
000340 3f 9c 35 00 02 9c 4d 3a 90 fc b0 37 7f cd e1 ba
       4.923332e-39 0.00078433764 2.1098444e-05 -0.001722738
000350 10 f6 21 9a b2 d4 2a ba b5 20 08 31 07 c1 57 00
       -3.3492787e-23 -0.00065166794 1.9809197e-09 8.058933e-39
000360 4f 83 35 2e 10 04 35 aa 12 6b 0a 37 a8 c0 f0 38
       4.127126e-11 -1.6077439e-13 8.25037e-06 0.00011479977
000370 7a 92 67 b4 dc b7 fe 17 af 48 10 30 14 3b ce 3a
       -2.156684e-07 1.6460778e-24 5.2490184e-10 0.0015734159
000380 2c 4e 92 2b 3c f9 9e b4 92 31 ae b6 ac 3b 4e b6
       1.0395621e-12 -2.9611135e-07 -5.191375e-06 -3.0731126e-06
000390 0e 25 ce 9a 69 56 92 0b 37 fd 5a 3f 8c d3 36 b2
       -8.525947e-23 5.636717e-32 0.85542625 -1.06418945e-08
0003a0 34 d7 79 be 96 c6 8e 0d 42 65 41 b6 b8 c3 a7 ab
       -0.243985 8.7992335e-31 -2.881818e-06 -1.1920387e-12
0003b0 00 a8 ee ad 5a 6e 90 38 25 b4 c9 39 bd b6 5f 1e
       -2.7132074e-11 6.88701e-05 0.00038471926 1.1843311e-20
0003c0 c3 9e b3 37 48 db ff 34 6a b5 1c 9c 3b c8 c3 39
       2.1412392e-05 4.7657e-07 -5.185054e-22 0.00037342482
0003d0 f0 01 42 36 fd 5c 15 39 c8 2a 24 af 3e cd 11 af
       2.890938e-06 0.00014244388 -1.4930912e-10 -1.326059e-10
0003e0 48 d8 f4 9d e9 bd 00 b8 0e 7e ce ae d8 0b 41 b8
       -6.480989e-21 -3.0694446e-05 -9.390187e-11 -4.6025816e-05
0003f0 18 d4 85 ac d4 aa 2f b8 26 89 33 b9 a8 88 31 37
       -3.8036345e-12 -4.1882347e-05 -0.00017121862 1.058184e-05

fc2.bias f4 [256]
000000 2f 7e cd be 83 8e f9 ba 91 bf 65 3d 90 ad c7 b8
       -0.40135333 -0.0019039664 0.056090895 -9.521388e-05
000010 23 cf 3e ba 5b 23 d1 bd df c9 00 bb 57 ef 86 bd
       -0.00072787906 -0.10211822 -0.0019651575 -0.06588619
000020 de 20 7e b9 fe 84 1f bc 02 df e1 b7 b4 85 b5 bb
       -0.00024235572 -0.009736298 -2.6925936e-05 -0.0055396203
000030 66 c0 bb 3c 4a 4e 09 3e 56 03 c7 bb 62 cd cd bd
       0.022918891 0.13408771 -0.0060733957 -0.10048939
000040 50 c6 9f 38 da 11 ac bb 4d 7b e9 3c 5a 64 89 3e
       7.6186494e-05 -0.0052511515 0.028501177 0.26834375
000050 76 28 90 bb ac 7e a3 bd 27 3a ed b6 e3 5d 37 3e
       -0.0043993546 -0.07983145 -7.0699202e-06 0.17906909
000060 64 76 a9 3e 18 9b 7d 3c 48 99 0e b7 20 66 bd 3c
       0.33098137 0.015478872 -8.499548e-06 0.023119986
000070 f2 cf b6 bb 50 77 98 b8 fb c1 14 38 67 0b f6 3d
       -0.005578988 -7.2701485e-05 3.5466608e-05 0.120138936
000080 b6 79 9b 3e 4e ab 45 bb 8e 5b c5 bd fa e8 26 ba
       0.30366296 -0.003016192 -0.09636603 -0.00063671137
000090 94 83 ef 3d a6 a8 44 3e 06 c5 1c bb 04 72 44 3e
       0.116950184 0.1920496 -0.0023921146 0.19184119
0000a0 28 5d a0 b9 41 4b 08 be f1 ae 3a bd 0d 38 dc bd
       -0.00030586985 -0.13309957 -0.045576993 -0.10752878
0000b0 5d 19 37 bd 96 75 79 bb 51 4c 7d 3e 80 c6 ad 37
       -0.044701923 -0.0038064471 0.24736144 2.071564e-05
0000c0 b3 e1 17 3f c9 5f 0a 3b b3 4b f0 b7 e0 e5 11 3c
       0.59328765 0.0021114221 -2.864548e-05 0.008904904
0000d0 21 0c 7f ba 54 e5 ca b7 dd f8 98 3f 70 a1 59 3e
       -0.00097292854 -2.4187066e-05 1.1950947 0.2125299
0000e0 80 80 91 ba b4 9a 82 bd 64 1b 97 b9 b8 91 f9 3e
       -0.0011100918 -0.063771635 -0.00028821372 0.48743987
0000f0 33 a8 b9 b7 92 63 d5 bb 39 a2 b7 b9 86 e9 bc bd
       -2.2132042e-05 -0.006512114 -0.00035025345 -0.092242286
000100 cd 62 0b 3c b9 a9 85 b5 f5 8b 6a 3f 88 d1 13 be
       0.008507443 -9.958668e-07 0.9161981 -0.14435399
000110 99 f8 64 3e 61 e1 0d bb e6 b2 8c bb 5d 49 05 3b
       0.22360457 -0.002164923 -0.0042937873 0.0020337917
000120 d3 23 37 3f ac 27 16 b9 9a b6 cc bd ba ef a9 b9
       0.7153904 -0.00014319894 -0.09995766 -0.00032412802
000130 9e 73 1c ba 10 55 ee bd 2c e3 8e 3e 8e ff 27 bd
       -0.0005968156 -0.11637318 0.27907693 -0.0410152
000140 30 13 4d 33 cb 04 09 3d 20 55 62 ae e4 ae 23 3e
       4.7747733e-08 0.033451837 -5.1462057e-11 0.15984684
000150 60 bd 7f b9 e0 eb 5e 3f 9e ef 64 b9 e2 79 23 bc
       -0.00024389243 0.87078667 -0.00021833039 -0.00997779
000160 c2 f7 21 3f f3 cd 54 3a b0 d4 22 bd de 72 1c bc
       0.63268673 0.0008117847 -0.039753616 -0.009548871
000170 18 b6 cf b9 60 bf 47 bb f4 4f 6e b9 2b 6e 32 ba
       -0.00039617787 -0.0030479059 -0.00022727234 -0.00068065774
000180 a9 e6 2b 3f f6 d6 bc ba 31 98 30 be 7a ec 4f 3d
       0.67148834 -0.0014407325 -0.17245556 0.05076263
000190 f5 f0 b6 bc c1 57 08 3f 07 cf 5c 3f b6 8d ab 3d
       -0.022331694 0.532589 0.862534 0.083766386
0001a0 92 df 12 ba fc 37 82 37 5e 96 c3 ba f2 41 a9 ba
       -0.00056027726 1.5523277e-05 -0.0014922132 -0.001291333
0001b0 bd 30 88 b7 15 ac b5 b7 b2 6a c7 bc 2b 0f c1 bb
       -1.6235159e-05 -2.1657013e-05 -0.024342868 -0.0058917007
0001c0 94 11 04 3f a4 f0 49 bc 52 e1 63 3e 13 69 7a b8
       0.5158932 -0.01232544 0.22253922 -5.9702503e-05
0001d0 b3 ba 93 bd b5 05 77 bb 7d 8f 62 3e 0e 62 08 bc
       -0.072133444 -0.003769261 0.22125049 -0.008324159
0001e0 6a 16 0e 3b 92 a2 9b be a9 e4 e6 bd ab ec 91 bd
       0.002168084 -0.3039747 -0.11274082 -0.07125219
0001f0 a8 12 be b9 af 1a 68 bd 38 6f a7 3e 08 81 24 b8
       -0.00036253524 -0.056666072 0.3270204 -3.9220817e-05
000200 78 65 c4 3e 48 db 5d ba f7 34 1e b6 ae 03 d5 b9
       0.38358665 -0.00084631564 -2.3574664e-06 -0.00040629267
000210 e1 e1 41 3f aa 3a 06 3f 6a 03 8c b4 f9 cb c9 ba
       0.7573529 0.52433264 -2.6079516e-07 -0.0015395872
000220 ee fa fa 3e 4d 25 1c bd 2c c7 b3 b9 6c 51 15 be
       0.4901957 -0.03812151 -0.00034289935 -0.14581841
000230 c3 5e dc b9 03 20 07 bc 5f fa 84 b7 40 03 6a ba
       -0.00042032273 -0.008247378 -1.5852214e-05 -0.0008926876
000240 a5 8c 56 3f a2 d4 de b9 c3 c9 44 bc 11 60 a4 3d
       0.83808357 -0.00042501563 -0.012010994 0.08026136
000250 d2 d6 ab bd fa c9 d2 bd 2b 5d 9c 3e 3d 5f c8 3d
       -0.08390583 -0.1029243 0.30539832 0.0978379
000260 9a c3 a3 ba ae ac 7e 3b 27 b0 3b 3f 60 5a a0 bb
       -0.0012494207 0.003886025 0.7331566 -0.004893586
000270 3b 0f 81 be 9d b6 a6 b8 30 50 28 bd 4c a1 09 bb
       -0.25206932 -7.949511e-05 -0.041092098 -0.0021000681
000280 18 06 2b ba e1 ac 1f ba 93 1b 75 3e 2e 45 00 ba
       -0.00065240404 -0.00060911296 0.239363 -0.0004893121
000290 12 4e 39 b8 fb a6 d6 3c 2f 30 95 3d 27 29 38 b9
       -4.4180146e-05 0.02620267 0.07284581 -0.00017562938
0002a0 3c 7f 56 ba f5 ce 92 bc d1 e8 13 b7 b7 d3 48 3f
       -0.00081824115 -0.01792095 -8.81609e-06 0.7844805
0002b0 92 70 a8 3a 09 3f 3c bb 0d 77 3e ba 85 a6 8d 3f
       0.0012850931 -0.0028724095 -0.0007265665 1.1066443
0002c0 c6 1c 30 b7 74 ab 30 3e a2 57 ba bc 97 95 c2 bd
       -1.0497117e-05 0.17252904 -0.022746865 -0.09501188
0002d0 a1 46 4b 3f e3 54 f0 3d 34 4f d9 3d 6a f2 7e b7
       0.79404646 0.11734941 0.1061081 -1.5196021e-05
0002e0 52 d3 81 bd 68 6d 06 bc b5 32 83 3e 0a 43 8d 3d
       -0.06339134 -0.008204795 0.25624624 0.06897552
0002f0 16 f7 01 3e 7f fd 07 ba 0f 7e 92 3e 18 41 18 bd
       0.12691912 -0.0005187615 0.286118 -0.037171453
000300 91 b7 49 3b 74 dc bf ba f5 02 2d b9 5e 3e 9f bc
       0.003077958 -0.0014637844 -0.00016499667 -0.019438919
000310 44 95 92 ba a6 d6 f7 b8 cc 8b 8a b9 4b be b4 bc
       -0.0011183401 -0.00011817859 -0.00026425568 -0.022063395
000320 fb 10 8e 3e 51 11 22 b7 3e 07 d3 3e 70 82 2c b8
       0.2774733 -9.659984e-06 0.41216463 -4.1129475e-05
000330 7e a8 ec b8 34 32 ec bb b1 48 b6 be e1 a3 b7 ba
       -0.00011284741 -0.007208133 -0.35602334 -0.0014010632
000340 dd b4 5c bc f7 b4 2d 3f e7 39 3e 3d 13 7a 9e 3e
       -0.013470856 0.67854255 0.04644194 0.3095251
000350 16 0d 06 b8 6b ec 7e bc 1c d3 a8 3e 78 c3 9a b8
       -3.1960277e-05 -0.015559296 0.32973564 -7.379701e-05
000360 8e 02 ee 3e bb 5a 88 be 36 80 0e be f8 45 cd 3a
       0.46486324 -0.26631722 -0.13916096 0.0015661111
000370 9e e6 9b 3d 3f 33 ae bc 6a 6b 4d b9 a7 01 17 bc
       0.07612346 -0.02126467 -0.00019590338 -0.009216703
000380 f9 84 ab b7 b4 c4 da 3a ed 5d df 3e 3e 86 3b 3b
       -2.0446709e-05 0.0016690702 0.43626347 0.002861395
000390 ec 59 2e b9 32 04 d1 bb d0 a4 c2 bc 7e 9c 43 bc
       -0.00016627432 -0.006378674 -0.02376023 -0.011939166
0003a0 55 40 0a bd d8 d4 42 be 2f 4b 16 3d a7 ee 2e b9
       -0.033752758 -0.19026506 0.036692794 -0.00016682838
0003b0 53 18 5c b9 1f 5a 8e ba bc 3e 6e ba d3 bf 03 bd
       -0.00020989896 -0.0010860598 -0.00090883276 -0.03216536
0003c0 5e 2d 03 ba 5f 60 b6 bc 7a ce 6c 3d a3 73 fe be
       -0.00050040137 -0.02226275 0.0578141 -0.496976
0003d0 2f 30 b4 3f 20 c8 63 38 48 bf ed ba ad 2a 71 3d
       1.4077204 5.43074e-05 -0.0018138671 0.05887859
0003e0 00 d3 1c bd 30 5f 15 ba f6 d0 30 ba 20 f2 0c b6
       -0.038287163 -0.0005698083 -0.0006745005 -2.100256e-06
0003f0 21 00 ad b8 40 3d 5f b9 8a 79 18 3c 4d 6e 8b bc
       -8.249307e-05 -0.00021289755 0.009306321 -0.017020369

fc3.weight f4 [256, 256]
000000 57 42 1d 1d ce b8 23 89 98 6a b6 31 72 cf bf 88
       2.0813074e-21 -1.9707306e-33 5.3090154e-09 -1.15441645e-33
000010 d4 a6 05 9d ab e7 5d 17 5e 78 81 1f a0 77 33 95
       -1.7688652e-21 7.1701357e-25 5.4832756e-20 -3.624313e-26
000020 02 fb b9 0a 11 f0 33 92 d2 12 00 80 ab e5 94 97
       1.790927e-32 -5.6778346e-28 -6.751e-42 -9.622252e-25
000030 92 ca 4e b5 de aa 86 34 6e 2e af 9a ae 24 b3 31
       -7.703576e-07 2.5083767e-07 -7.2453315e-23 5.2137556e-09
000040 a6 55 d5 af 3e 86 07 b9 34 77 25 b9 15 19 cd b2
       -3.880533e-10 -0.00012924612 -0.00015780033 -2.3876547e-08
000050 e4 dd 51 9f 84 ac f5 95 5f 66 a7 9b 87 e5 60 33
       -4.4441015e-20 -9.9226894e-26 -2.7693988e-22 5.2362818e-08
000060 c3 ad 97 9d a5 3a 51 b3 07 e7 b4 07 60 b4 73 b7
       -4.0149033e-21 -4.871494e-08 2.7219176e-34 -1.45259255e-05
000070 c7 e6 47 0b c3 24 e5 9d e7 ca 5f 9e 39 57 c2 b4
       3.8499623e-32 -6.0653806e-21 -1.1847481e-20 -3.619878e-07
000080 63 64 0d b4 aa 40 fe 96 67 1d 10 a2 70 de 92 9e
       -1.3168169e-07 -4.1076722e-25 -1.9531205e-18 -1.555035e-20
000090 53 70 6c 1c 58 a0 1d b6 80 f3 01 00 3d 3f ce b6
       7.8231025e-22 -2.3488155e-06 1.79187e-40 -6.1466403e-06
0000a0 90 ad 32 97 34 30 da ad ce a1 52 1a fc ff 88 b4
       -5.773397e-25 -2.4805137e-11 4.3557687e-23 -2.5518227e-07
0000b0 25 47 cc b9 0e 38 b4 9f 5c 5e 24 26 93 87 ee 93
       -0.0003896292 -7.63257e-20 5.702681e-16 -6.0213333e-27
0000c0 c3 8b 10 25 c9 79 a3 96 a4 96 05 00 58 c6 d4 9c
       1.2537362e-16 -2.6410928e-25 5.13217e-40 -1.4080254e-21
0000d0 f6 3b da 90 cf 20 88 99 94 01 59 b6 02 d1 8f 19
       -8.6078223e-29 -1.4075322e-23 -3.2336438e-06 1.4870271e-23
0000e0 8f b6 e2 96 20 34 6c 9e d7 db 2c 98 62 5d 21 9e
       -3.662748e-25 -1.2504515e-20 -2.234147e-24 -8.54258e-21
0000f0 d0 cb 00 80 97 b5 ec b5 42 fc f5 8d 07 68 d3 0e
       -7.3114e-41 -1.763622e-06 -1.516002e-30 5.211569e-30
000100 aa b4 14 15 1e cf 29 11 0d 52 ab b7 b4 71 cb b7
       3.003088e-26 1.3395572e-28 -2.0422996e-05 -2.4252433e-05
000110 14 d8 73 27 87 c5 23 9d 5f a8 ef 15 6e 91 10 8c
       3.384016e-15 -2.167499e-21 9.6796974e-26 -1.113712e-31
000120 13 ed 5a 1d c7 26 00 80 e1 26 4f 9e 44 b3 ae 1d
       2.8974624e-21 -1.391e-41 -1.0966529e-20 4.6242773e-21
000130 9d 34 3a 99 9b ea 26 9b 94 13 66 27 7c 95 5f b9
       -9.6266e-24 -1.3807003e-22 3.1929525e-15 -0.00021322625
000140 64 10 fa 9a b6 e6 f6 1f e3 ba 50 10 78 87 98 b3
       -1.0342406e-22 1.0456673e-19 4.116474e-29 -7.102693e-08
000150 ea 87 16 1e 35 a2 22 a5 08 b2 54 93 b6 61 11 9a
       7.96904e-21 -1.4106218e-16 -2.6845938e-27 -3.0064227e-23
000160 95 e1 97 b6 31 58 3d 1f a4 3c 82 17 a5 a3 0e 97
       -4.526412e-06 4.0095257e-20 8.416361e-25 -4.6089223e-25
000170 0e fb bf 1e d6 2c 1b 17 50 fe e7 b7 80 9c 83 1f
       2.0326745e-20 5.013979e-25 -2.765577e-05 5.5739566e-20
000180 da a1 ba ba 5f 32 c2 1c e3 fb 0b 19 cb d3 9c b8
       -0.0014238909 1.2850864e-21 7.237e-24 -7.478109e-05
000190 0c fd 7d 36 7f 1c 66 b0 72 f3 89 b6 e5 eb ab b6
       3.784723e-06 -8.371401e-10 -4.111259e-06 -5.123659e-06
0001a0 a8 40 30 9c 41 a7 2c 97 b8 1c 10 9b 7c 67 23 99
       -5.831708e-22 -5.57873e-25 -1.192068e-22 -8.447801e-24
0001b0 66 97 f0 1f 73 55 8e 0e 3a 62 01 9a aa a7 18 9a
       1.0189442e-19 3.5087987e-30 -2.675592e-23 -3.15683e-23
0001c0 de e8 c6 a9 c7 33 28 99 7d a6 df 2e 0b 28 a3 b3
       -8.8333624e-14 -8.695853e-24 1.017044e-10 -7.597563e-08
0001d0 9d b1 00 19 b4 2e 36 99 d1 93 77 30 82 63 36 17
       6.653314e-24 -9.418611e-24 9.0068136e-10 5.893297e-25
0001e0 8e 9d 51 99 e7 09 88 0c e8 ab 5f 98 aa 29 c4 13
       -1.0836865e-23 2.0960078e-31 -2.8908865e-24 4.951844e-27
0001f0 cd 0c 94 16 00 f7 0a 99 20 e3 51 b5 99 fe a6 11
       2.3918768e-25 -7.184314e-24 -7.818908e-07 2.634709e-28
000200 24 fc 34 b8 6c 77 27 18 34 57 6f 97 0b 46 08 00
       -4.315017e-05 2.1644537e-24 -7.733513e-25 7.5981e-40
000210 74 8b 26 b4 30 b0 4d ac f0 17 58 1f 34 f6 0e 95
       -1.5510687e-07 -2.9230056e-12 4.575958e-20 -2.8870892e-26
000220 8c da b4 ae 01 b4 91 27 a7 18 38 15 01 bc d2 1e
       -8.224274e-11 4.0440745e-15 3.717795e-26 2.2312371e-20
000230 1d ce 23 b8 ec 79 b6 b5 e4 f7 04 b1 98 5c 4f 1f
       -3.9054186e-05 -1.3595541e-06 -1.9349438e-09 4.3910547e-20
000240 c5 0d cd a3 2e 70 4b a3 a6 34 87 93 4e 32 8b b7
       -2.2231976e-17 -1.1028407e-17 -3.4130706e-27 -1.6593516e-05
000250 e1 16 b9 9b 84 81 9e 9e 9c 42 32 13 99 d9 b0 36
       -3.0620468e-22 -1.6782467e-20 2.24996e-27 5.2705404e-06
000260 56 e3 f8 1a ba 7f 82 93 10 f4 49 a4 da f7 39 0b
       1.0293768e-22 -3.294256e-27 -4.3791656e-17 3.5816167e-32
000270 9b 42 3b 9f 21 ef 44 92 fd 96 bb 9e 00 af cf 15
       -3.9653885e-20 -6.2141444e-28 -1.9861842e-20 8.3882735e-26
000280 6a 09 9b 92 88 a4 08 1e 5d 07 9a b6 61 34 d9 13
       -9.784196e-28 7.233804e-21 -4.590415e-06 5.483015e-27
000290 df 59 cb b4 7d 7e 33 27 90 d7 c4 9d 30 e9 12 14
       -3.7877086e-07 2.490981e-15 -5.2103654e-21 7.4171044e-27
0002a0 e4 86 3c 15 e4 ff 80 9d ce b8 72 19 ad 77 99 1f
       3.8072708e-26 -3.4145903e-21 1.2548428e-23 6.499601e-20
0002b0 a4 23 e1 9f 38 5b ca 92 ee 43 23 1a f8 3e 54 b5
       -9.535017e-20 -1.2770479e-27 3.3762483e-23 -7.9067786e-07
0002c0 bd a1 79 86 d2 29 36 b6 92 54 bf 1c 5b 49 89 92
       -4.6950521e-35 -2.7144456e-06 1.2661181e-21 -8.663999e-28
0002d0 f5 74 2a b5 80 a7 9b 1d 41 b4 b5 b6 5b 62 00 00
       -6.350013e-07 4.120135e-21 -5.4152047e-06 3.5283e-41
0002e0 00 aa 45 9c 38 d8 7e 0a d2 be 72 1d 64 97 0d 35
       -6.540155e-22 1.22703214e-32 3.2127085e-21 5.2746896e-07
0002f0 f1 8d e5 b6 f0 75 c5 12 5b 71 9a 1f 1e dd 7b 94
       -6.841256e-06 1.2461522e-27 6.540907e-20 -1.2715869e-26
000300 53 a0 0c 15 fb b8 8b b5 09 1f db 0b db 37 3e 32
       2.8399248e-26 -1.0410143e-06 8.440243e-32 1.1072156e-08
000310 66 f5 ab 12 b9 1f fd 9f 3c 95 02 14 54 79 56 8f
       1.0852113e-27 -1.0720215e-19 6.592754e-27 -1.05743816e-29
000320 e8 cf 55 9b 6e 2d 2f 17 38 24 01 30 10 44 0f 1d
       -1.7686125e-22 5.660289e-25 4.6981397e-10 1.896108e-21
000330 fe 5e eb 17 fd 49 39 98 e9 07 17 1f a1 6b 82 1d
       1.5210498e-24 -2.3948044e-24 3.1982037e-20 3.4522e-21
000340 cb 2c 43 1e b2 af b1 9f d6 8b 16 b8 40 17 d5 90
       1.0332477e-20 -7.525308e-20 -3.589302e-05 -8.404951e-29
000350 62 c9 48 1c 3f 89 48 38 0c 11 7e a0 48 80 bf 9a
       6.643473e-22 4.7811536e-05 -2.1520277e-19 -7.9203e-23
000360 5d 1b c7 31 17 9a a1 15 18 5d b4 9b 12 8e 9c 93
       5.794773e-09 6.527049e-26 -2.9838662e-22 -3.952003e-27
000370 7f fe f8 b7 de f6 82 8d f9 19 dd 97 ee 1f 81 1d
       -2.9682413e-05 -8.0713e-31 -1.4288347e-24 3.417903e-21
000380 1a 99 99 14 96 e8 75 95 26 5d 2e 9e c5 30 46 89
       1.550944e-26 -4.9660834e-26 -9.230746e-21 -2.3856314e-33
000390 77 5a 6b 1d 18 88 c3 9e eb e4 39 99 15 3e 55 1e
       3.114876e-21 -2.0702715e-20 -9.6105054e-24 1.1288964e-20
0003a0 5f a6 49 b8 07 68 9a aa 3c 83 c0 b7 c8 4a ae 11
       -4.807708e-05 -2.742808e-13 -2.2949294e-05 2.7498447e-28
0003b0 cc 67 ae 09 bd f4 28 87 e1 f4 a7 a8 ba 72 e5 b5
       4.1986586e-33 -1.2710837e-34 -1.8646924e-14 -1.7095219e-06
0003c0 d0 a4 34 b5 09 d5 6d 18 fd f8 2d b2 7b 1f 13 20
       -6.729506e-07 3.0739087e-24 -1.0126539e-08 1.24618e-19
0003d0 26 07 7c 9f 7a 77 93 13 a3 80 a0 b0 22 42 3a 97
       -5.336899e-20 3.722583e-27 -1.1678093e-09 -6.0183313e-25
0003e0 39 7e 9d 22 f8 a5 a3 1e c7 14 2e 1e cb 37 86 26
       4.268858e-18 1.732694e-20 9.21578e-21 9.313241e-16
0003f0 50 b4 f3 98 c4 54 3a 8f 6c 58 7e 1e 18 d4 3c 9b
       -6.2996097e-24 -9.186833e-30 1.3464933e-20 -1.5619527e-22

fc3.bias f4 [256]
000000 6a 96 54 9d bc 85 0b b4 66 50 f7 39 4d 39 2a 3f
       -2.8135729e-21 -1.2994036e-07 0.00047171413 0.66493684
000010 78 cc eb ba e6 2c 94 34 c4 19 7e 18 76 b4 91 35
       -0.0017990014 2.7599816e-07 3.2841739e-24 1.0855863e-06
000020 ae ef ee 32 35 f8 03 3e 6b 9d c3 b6 73 04 5c 1e
       2.781584e-08 0.12887652 -5.8297787e-06 1.1647623e-20
000030 c5 14 c9 97 22 5a ae ab 1b fb 00 80 26 a2 17 25
       -1.2994564e-24 -1.238846e-12 -9.008e-41 1.31521e-16
000040 c5 f5 c7 be a0 b5 2e 83 95 23 3c 2e 93 ed 4c a7
       -0.39054695 -5.13425e-37 4.2777854e-11 -2.8439476e-15
000050 13 f0 47 a7 dd c1 ec 2b 18 f2 7e 9d db 40 66 9a
       -2.7746942e-15 1.6822616e-12 -3.374178e-21 -4.7615275e-23
000060 33 88 2e 20 3e 0b ac b0 5a e5 fe 38 0c 37 4d 34
       1.4783438e-19 -1.2517842e-09 0.00012154384 1.9112139e-07
000070 ef 4a e2 1e 58 78 e8 b2 de 99 02 00 d4 bb 91 3e
       2.3959673e-20 -2.706308e-08 2.38868e-40 0.28463614
000080 54 c3 cd ba 5f 17 05 80 51 db 02 b9 02 d1 00 a5
       -0.0015698471 -4.67561e-40 -0.00012479468 -1.1173045e-16
000090 3c 5d 01 80 65 29 99 3a 7d 31 40 88 af 4d de b0
       -1.25282e-40 0.001168531 -5.783607e-34 -1.6174705e-09
0000a0 9e 24 02 31 c0 26 ae b6 e2 fa 50 2c 24 b0 dd b5
       1.8938304e-09 -5.190115e-06 2.9697846e-12 -1.6517047e-06
0000b0 ee 9c 03 28 65 c7 13 31 d0 85 01 80 e6 c7 27 a2
       7.3059895e-15 2.1504658e-09 -1.39838e-40 -2.2738546e-18
0000c0 a8 a8 b0 31 cd 23 f6 39 e0 61 8a 35 a1 4a 17 00
       5.141448e-09 0.0004694745 1.0310287e-06 2.138988e-39
0000d0 3d 49 00 80 4f 5c 8b ac a7 2b 02 00 d5 23 7f 36
       -2.6273e-41 -3.960866e-12 1.9933e-40 3.8018818e-06
0000e0 46 11 01 80 70 a6 fa b0 ba f1 da b6 b8 55 02 b0
       -9.8032e-41 -1.8237198e-09 -6.525047e-06 -4.741554e-10
0000f0 3a df 8c 2f 54 56 00 00 39 70 00 80 60 2b 00 80
       2.5624464e-10 3.0969e-41 -4.0258e-41 -1.556e-41
000100 96 a4 33 b9 d7 89 e2 3c f3 44 09 b6 aa 35 db 9b
       -0.00017132083 0.027653618 -2.0454725e-06 -3.626519e-22
000110 7e 7a b7 bc 98 17 bf b9 0d c3 6f b5 c9 04 0c 89
       -0.022397276 -0.00036447938 -8.9318274e-07 -1.6854137e-33
000120 72 5f 02 80 74 3b 87 bb c6 2e 85 a1 ad 65 85 34
       -2.1791e-40 -0.0041269604 -9.024811e-19 2.484716e-07
000130 34 58 27 bb 44 94 cd b9 08 9b 01 80 ab 90 55 ac
       -0.002553475 -0.00039211113 -1.4745e-40 -3.0349427e-12
000140 55 8e 1a b8 22 72 8f bc 46 e9 cb a2 58 4b 54 3e
       -3.684902e-05 -0.017510477 -5.527025e-18 0.20731866
000150 d6 c0 2d 3c 53 83 b6 a0 c8 c5 16 3d 92 c7 e7 8a
       0.010605058 -3.0918902e-19 0.036809713 -2.2319561e-32
000160 c6 66 00 00 f8 42 97 8a 04 cf 11 92 78 73 a5 ae
       3.6868e-41 -1.4565962e-32 -4.60091e-28 -7.523843e-11
000170 ca 78 c1 aa d0 95 50 b0 6e 3c cd ba f4 d6 0f b9
       -3.43675e-13 -7.5882856e-10 -0.0015658268 -0.00013717619
000180 0e cf 22 3d 1c 51 03 8f 2e 02 0e 23 1a 66 7b 9f
       0.039748244 -6.47442e-30 7.698297e-18 -5.3235774e-20
000190 b3 23 02 00 43 6a d3 30 98 51 5c 38 7a 06 fb 03
       1.96477e-40 1.5382472e-09 5.2528078e-05 1.4753941e-36
0001a0 d3 0e 8a 2d 84 2d bc b7 f9 4f eb 0f 36 64 8f bb
       1.5695367e-11 -2.2432541e-05 2.3203593e-29 -0.0043759597
0001b0 46 bb de b0 89 43 01 00 c1 5e 2b ab bf 85 93 39
       -1.6205852e-09 1.16063e-40 -6.08829e-13 0.00028137674
0001c0 2c dc 3e 0a d4 68 b1 b7 8c 5c 51 37 46 ef 64 b9
       9.189577e-33 -2.1148859e-05 1.24789185e-05 -0.0002183291
0001d0 70 29 cf b4 6c 5a 00 00 ee 8f 92 a7 f7 d4 91 38
       -3.8586904e-07 3.2437e-41 -4.067919e-15 6.9538066e-05
0001e0 f9 eb 16 a3 d5 b0 00 00 7e 72 bb 1f 43 4c db 32
       -8.1814854e-18 6.3435e-41 7.938699e-20 2.5529635e-08
0001f0 72 4d 00 80 16 1e 99 ab c0 14 b7 95 d0 46 0e 25
       -2.7782e-41 -1.0879654e-12 -7.394585e-26 1.2340529e-16
000200 6c 7a a7 2a 5e 7b 8f bc ab fc c7 3d 1e a9 e9 33
       2.9750106e-13 -0.01751488 0.097649895 1.088067e-07
000210 d9 99 7f 00 f6 b1 3e b1 f4 e0 de 33 7d 2d 00 b6
       1.1718298e-38 -2.7749798e-09 1.0378599e-07 -1.9099964e-06
000220 5d 0f c0 b0 b6 84 f3 35 c8 7f 28 31 c8 52 7d 36
       -1.3974205e-09 1.8143535e-06 2.4519853e-09 3.7748123e-06
000230 9e 73 35 3c eb 95 e1 b5 75 c6 a8 b8 b8 f4 3e 3d
       0.011074929 -1.6807438e-06 -8.04783e-05 0.0466201
000240 2a 3d 01 80 e4 88 16 3a 02 89 c3 31 8a ee a7 3b
       -1.13777e-40 0.0005742444 5.690823e-09 0.0051248716
000250 86 23 96 b5 64 4e 9a 2f 9c 5b 9a 32 0b c5 b9 b3
       -1.118621e-06 2.8068137e-10 1.7969619e-08 -8.650576e-08
000260 3c 55 01 00 55 19 01 00 06 55 80 2a 0b 0c 47 3f
       1.22412e-40 1.00923e-40 2.2796364e-13 0.7775275
000270 4e a7 02 80 75 21 35 1b d7 47 95 29 4c 8e b2 3a
       -2.43689e-40 1.498278e-22 6.6293915e-14 0.001362273
000280 3b 26 01 00 bb 43 08 90 65 35 99 2b 98 f2 1c bd
       1.0555e-40 -2.6873448e-29 1.0886124e-12 -0.038317293
000290 fa 49 1c 1b a7 b8 8b b5 91 53 fe b8 86 8f de 3d
       1.2927921e-22 -1.0410048e-06 -0.00012127229 0.10867219
0002a0 db a4 4a 3b 46 84 19 3d ea 24 74 3b e6 a8 b7 3a
       0.0030921015 0.03747966 0.0037253448 0.0014012128
0002b0 3c dc f7 99 bb f2 1f 38 cb 29 c4 ba 1d 09 87 99
       -2.5628153e-23 3.8134614e-05 -0.0014966069 -1.3962354e-23
0002c0 c0 f5 98 be e9 f5 b9 3b 97 f0 63 37 fe 83 57 bc
       -0.29874992 0.0056750667 1.3586271e-05 -0.013154028
0002d0 a2 e1 9d a8 e9 78 46 1b 41 a5 0f 37 54 87 45 14
       -1.7528354e-14 1.6417244e-22 8.56194e-06 9.972647e-27
0002e0 92 70 4b b2 55 a4 a2 14 90 d7 28 b8 e5 48 7d 37
       -1.1841751e-08 1.6422637e-26 -4.025508e-05 1.5096947e-05
0002f0 d5 40 a3 ba 1b 30 80 bb 4a f1 cc 37 60 bf e5 38
       -0.0012455235 -0.0039119846 2.4431054e-05 0.00010955217
000300 6e 4e f9 29 9c 06 3f af 53 cc 00 00 8a ae c9 b1
       1.1071427e-13 -1.7373697e-10 7.3298e-41 -5.8697127e-09
000310 16 c2 0c 9c 30 63 d0 af 06 61 a1 1e 04 19 c5 3d
       -4.6572964e-22 -3.7905457e-10 1.7086666e-20 0.09623912
000320 f6 f4 c1 98 d6 ed 9c 39 a5 ac 8f 35 15 3c 15 ae
       -5.013668e-24 0.0002993184 1.0704576e-06 -3.393204e-11
000330 59 87 97 94 44 8f 56 b7 0e c8 ff b0 a5 1b 04 b9
       -1.5300489e-26 -1.2788751e-05 -1.8610551e-09 -0.000125988
000340 84 f7 aa ac b0 af ae 25 36 f6 f0 95 f8 26 88 bb
       -4.8591704e-12 3.030324e-16 -9.732368e-26 -0.004155036
000350 04 eb da a2 52 c0 d4 ba b3 b4 5c b3 80 a1 5b 0a
       -5.933785e-18 -0.0016231632 -5.1387087e-08 1.0574841e-32
000360 90 f2 96 10 52 95 b7 ab d8 e3 86 b8 af dd 00 80
       5.9538295e-29 -1.3044377e-12 -6.432057e-05 -7.9525e-41
000370 23 3f a4 b8 44 03 3c 10 5c 2d 99 9d 23 83 00 00
       -7.8318895e-05 3.7078978e-29 -4.0545663e-21 4.7043e-41
000380 ae 63 3c 1b 2a d2 17 b9 8d d3 55 31 a2 c6 0d b9
       1.5583204e-22 -0.00014478774 3.1115832e-09 -0.00013520804
000390 9d a3 2e 86 2e d9 4a ba b4 15 bf 36 db e5 b2 3c
       -3.2845967e-35 -0.0007738051 5.69477e-06 0.02183812
0003a0 24 ef eb bc ac b5 ef 30 11 f7 51 b9 70 6d ea 96
       -0.028800555 1.7441173e-09 -0.00020023833 -3.7873804e-25
0003b0 72 77 86 0f 13 13 31 a3 32 4a 00 00 1f 36 e7 ba
       1.3259429e-29 -9.599228e-18 2.6616e-41 -0.0017640031
0003c0 7e 61 dd b0 7c 36 83 b6 83 17 8b 37 bc f6 5d 23
       -1.6107575e-09 -3.910447e-06 1.658104e-05 1.2032682e-17
0003d0 b0 60 26 3c f6 9d 33 b7 aa 72 aa 2d 8a 78 d3 ad
       0.010154888 -1.070601e-05 1.9377683e-11 -2.4041453e-11
0003e0 68 8c eb 16 e6 20 01 00 c4 8e f4 39 fa cc b4 20
       3.8054906e-25 1.03637e-40 0.00046645675 3.0628828e-19
0003f0 2c f8 eb 39 44 15 05 be cf 75 64 22 2a 90 7c 22
       0.00045007595 -0.12996393 3.096213e-18 3.4228688e-18
