shanghai_road_delivery/results_centralized/centralized_final.pth_centralized_actor.pth (torch, 921946 bytes, 20 tensors)

fc1.weight f4 [256, 364]
-3.7414233e-10 -1.7810015e-10 -1.4365025e-09 -1.688764e-09 -1.6646078e-09 -1.7709374e-09 9.472874e-05 -0.0019991235
7.664286e-11 -0.0046869484 2.0777308e-05 6.830539e-10 6.019177e-09 1.509935e-07 8.683041e-10 -2.6549678e-09
1.6488163e-09 1.7026196e-12 -0.00034549716 3.4014511e-09 -3.7938264e-10 3.6009616e-05 -3.1913494e-10 1.2285596e-05
0.00015521038 -2.7075925e-11 1.4069446e-08 -1.0634935e-07 -2.8324995e-10 5.501188e-06 8.049573e-09 0.004081237
-2.2462532e-10 -2.2672619e-14 -6.985413e-10 3.1441353e-13 -1.6011104e-10 -1.436498e-09 5.9250223e-09 -1.436498e-09
4.964555e-09 1.0745089e-09 -1.1312044e-09 4.175983e-10 -2.3881389e-10 -4.7181015e-10 -4.0506104e-10 -6.8001377e-10
1.2104126e-06 -1.436498e-09 -4.334332e-12 -1.436498e-09 -2.6692284e-10 1.1168844e-11 -1.4365014e-09 -1.5155966e-09
-1.4907167e-09 -1.5828845e-09 -8.500516e-06 -0.00090335927 0.00073761254 1.5680258e-06 -4.0197977e-11 6.830539e-10
6.0429324e-09 -4.3601813e-06 8.683041e-10 -2.6549678e-09 1.6488163e-09 2.2159469e-08 -0.0014988898 3.401857e-09
-3.7938264e-10 -4.8124895e-09 -2.1623314e-10 6.927981e-07 3.1544786e-10 -8.962117e-06 -5.2829896e-10 5.0312686e-08
3.4050895e-09 -2.0117102e-07 8.041239e-09 -2.109573e-08 -2.2462532e-10 -3.6022655e-05 -6.985413e-10 -0.00048178947
-3.1687453e-10 -1.436498e-09 5.9268377e-09 -1.436498e-09 -6.955737e-09 -8.790615e-10 -1.143974e-09 -1.6629774e-09
-4.8700277e-10 6.9513906e-10 -6.118229e-10 1.848468e-10 0.00024528924 -1.5893207e-09 6.6858547e-07 -1.436498e-09
-2.6698624e-10 9.501229e-10 -1.4365031e-09 -1.5648121e-09 -1.5404595e-09 -1.6014283e-09 4.2765958e-05 -6.812887e-09
-7.548526e-10 6.760965e-10 0.0014141565 6.830539e-10 6.0989596e-09 -1.9470936e-10 8.683041e-10 -2.6549678e-09
1.6488163e-09 2.946642e-10 -0.000495606 3.400249e-09 -3.7938264e-10 -2.942108e-12 -3.9760073e-10 3.7865687e-12
-1.8095948e-06 2.5460224e-07 -0.004650385 9.509789e-11 2.2529774e-09 -8.606335e-09 -2.9977132e-10 1.26837e-40
-2.2462532e-10 0.00013290573 -6.985413e-10 -2.0161627e-14 -3.99345e-10 -1.436498e-09 5.924881e-09 -1.436498e-09
6.7955472e-09 1.1475587e-09 -1.3017295e-09 3.658771e-10 -3.998555e-11 -5.351868e-10 -6.3299155e-10 -1.7144763e-09
-7.104227e-11 -1.6746211e-09 0.0020825411 -1.436498e-09 7.5137035e-10 8.253259e-10 -1.4365014e-09 -1.4655098e-09
-1.458653e-09 -1.5398691e-09 0.00020312643 -6.2027744e-12 0.0014617352 9.1454474e-08 -1.8827206e-05 6.830539e-10
6.0803824e-09 -2.2050493e-08 8.6834784e-10 -2.6549678e-09 1.6488163e-09 0.00021689426 6.282816e-07 3.401857e-09
-3.7938264e-10 -4.0997398e-05 -3.6001313e-10 -4.743437e-10 -5.3112115e-10 -4.5805946e-12 -0.00030904217 3.6373414e-05
4.184887e-09 -3.9432316e-13 -3.001868e-10 3.697e-42 8.050366e-09 -0.001740847 -6.985413e-10 -5.0267323e-07
-1.3167334e-10 -1.436498e-09 5.927129e-09 -1.436498e-09 4.064501e-08 1.1121661e-09 -1.3836927e-09 5.48912e-10
-2.507646e-09 -4.771932e-10 -6.1825517e-10 -8.8912644e-10 -2.7292172e-06 -1.4498323e-09 1.5717132e-12 -1.436498e-09
2.3735902e-10 7.282796e-10 -1.4365011e-09 -1.504791e-09 -1.4834113e-09 -1.584988e-09 -4.399949e-06 -2.6977282e-11
-5.1028707e-07 4.514122e-12 5.129936e-08 6.830539e-10 6.0919367e-09 5.0941438e-09 8.683041e-10 -2.6549678e-09
1.6488163e-09 -0.0003806411 -0.000111870766 3.4011662e-09 -3.7938264e-10 0.00017288537 -4.6119486e-10 4.2524463e-11
3.9434722e-10 -2.1958262e-10 2.4899344e-10 2.6978164e-10 2.214822e-09 5.558662e-13 -3.024524e-10 8.6154046e-08
8.051631e-09 1.1284313e-08 -2.2462532e-10 6.767155e-08 -2.9235192e-10 -1.436498e-09 5.924128e-09 -1.436498e-09
-1.9846153e-08 1.1299466e-09 -1.3963863e-09 5.554157e-10 4.688383e-11 -4.3815018e-10 -4.0416848e-10 -7.6065343e-10
00000000: daaf cdaf bcd2 43af 706e c5b0 1a1a e8b0
00000010: 2ec8 e4b0 5265 f3b0 1ba9 c638 ba03 03bb
00000020: 188a a82e f994 99bb ee4a ae37 a5c1 3b30
00000030: 3ed1 ce31 c720 2234 78ad 6e30 b072 36b1
00000040: 919c e230 569f ef2b d823 b5b9 f6be 6931
00000050: 5c91 d0af 0809 1738 4072 afaf 3c1e 4e37
00000060: f8bf 2239 9029 eead 14b6 7132 2c62 e4b3
00000070: e3b7 9baf d896 b836 654a 0a32 e6bb 853b
00000080: 68fa 76af 8037 cca8 7903 40b0 c4ff b02a
00000090: 400b 30af 486e c5b0 0c95 cb31 486e c5b0
000000a0: b094 aa31 ecad 9330 b778 9bb0 bc93 e52f
000000b0: 114a 83af b0b0 01b0 46af deaf b7eb 3ab0
000000c0: 7675 a235 486e c5b0 3180 98ac 486e c5b0
000000d0: 0dbe 92af 007c 442d 666e c5b0 514d d0b0
000000e0: eee1 ccb0 cc8c d9b0 709d 0eb7 6acf 6cba
000000f0: 575c 413a f574 d235 e6ca 30ae a5c1 3b30
00000100: 32a2 cf31 ac4d 92b6 78ad 6e30 b072 36b1
00000110: 919c e230 3059 be32 6576 c4ba 1ac6 6931
00000120: 5c91 d0af 1b5b a5b1 38c0 6daf b9f8 3935
00000130: 576b ad2f 005c 16b7 bc37 11b0 6217 5833
00000140: f8fe 6931 7801 58b4 be25 0a32 0036 b5b2
00000150: 68fa 76af 0817 17b8 7903 40b0 b098 fcb9
00000160: 2034 aeaf 486e c5b0 04a5 cb31 486e c5b0
00000170: 4fff eeb1 74a2 71b0 023a 9db0 d18e e4b0
00000180: c6dd 05b0 1014 3f30 362d 28b0 c03d 4b2f
00000190: 2a9a 8039 406f dab0 d878 3335 486e c5b0
000001a0: f9c6 92af 7a95 8230 766e c5b0 ee10 d7b0
000001b0: 1ab8 d3b0 4019 dcb0 995f 3338 ca16 eab1
000001c0: 087e 4fb0 10d8 3930 385b b93a a5c1 3b30
000001d0: 048f d131 d015 56af 78ad 6e30 b072 36b1
000001e0: 919c e230 4dfe a12f 8eeb 01ba d0a9 6931
000001f0: 5c91 d0af 4e08 4fac 5495 daaf 613a 852c
00000200: 34e1 f2b5 44b0 8834 4262 98bb 5a1f d12e
00000210: ccd2 1a31 10db 13b2 10cd a4af 9261 0100
00000220: 68fa 76af 9c5c 0b39 7903 40b0 8c99 b5a8
00000230: d08a dbaf 486e c5b0 ce93 cb31 486e c5b0
00000240: 447e e931 22b8 9d30 89e8 b2b0 a024 c92f
00000250: badb 2fae 6c1c 13b0 d2fe 2db0 c6a2 ebb0
00000260: 3e39 9cae 7e28 e6b0 3e7b 083b 486e c5b0
00000270: fd88 4e30 26dd 6230 666e c5b0 0b6b c9b0
00000280: ca79 c8b0 54a3 d3b0 56fe 5439 a03d daac
00000290: b297 bf3a a165 c433 1eef 9db7 a5c1 3b30
000002a0: 9ceb d031 8c69 bdb2 8cb0 6e30 b072 36b1
000002b0: 919c e230 1c6e 6339 2fa7 2835 1ac6 6931
000002c0: 5c91 d0af 9ff4 2bb8 58eb c5af f862 02b0
000002d0: 54fe 11b0 542a a1ac f006 a2b9 a88f 1838
000002e0: a8ca 8f31 f5fb ddaa 8907 a5af 4e0a 0000
000002f0: e24d 0a32 222d e4ba 7903 40b0 71ef 06b5
00000300: c0c6 10af 486e c5b0 94a7 cb31 486e c5b0
00000310: a991 2e33 deda 9830 5c2c beb0 40e2 1630
00000320: fa52 2cb1 7c2b 03b0 d7f1 29b0 b666 74b0
00000330: 9827 37b6 7043 c7b0 f032 dd2b 486e c5b0
00000340: 507d 822f 1f30 4830 646e c5b0 20d1 ceb0
00000350: e5e0 cbb0 cfd6 d9b0 46a3 93b6 704b edad
00000360: a9fa 08b5 99d3 9e2c 3e54 5c33 a5c1 3b30
00000370: 3e51 d131 9008 af31 78ad 6e30 b072 36b1
00000380: 919c e230 c990 c7b9 299c eab8 f3b9 6931
00000390: 5c91 d0af 9048 3539 688b fdaf 4a06 3b2e
000003a0: 70cb d82f 036f 71af b6e2 882f 6450 942f
000003b0: 9033 1831 6276 1c2b 6446 a6af b003 b933
000003c0: 7353 0a32 efdc 4132 68fa 76af d452 9133
000003d0: e0b8 a0af 486e c5b0 2e8d cb31 486e c5b0
000003e0: 277a aab2 764c 9b30 faea bfb0 e8ab 1830
000003f0: 8032 4e2e 28e0 f0af a831 deaf 3a16 51b0

fc1.bias f4 [256]
-1.4364985e-09 -1.2383287e-05 5.6667947e-08 -4.683873e-05 9.006534e-07 6.7876954e-06 2.7477551e-08 -0.0001594312
-7.421613e-06 1.1410033e-05 -1.855159e-07 2.2714089e-07 1.2283843e-07 -1.041599e-08 3.826797e-07 -2.3109308e-06
3.7843738e-13 1.6239808e-06 0.0077800117 9.486056e-07 -8.2978414e-07 -2.772144e-09 -3.1941186e-12 -4.4355958e-10
-1.9550565e-05 -0.0034643419 -3.0785077e-07 -7.8949165e-07 9.5363355e-08 6.9677467e-13 -9.743887e-09 -0.0001195428
3.048923e-06 4.7424917e-09 -0.10399871 -4.6791356e-06 -7.5645397e-07 0.004605085 2.4377929e-05 -0.003625609
1.0000976e-07 -0.0016740191 -0.018768517 -6.5798e-05 6.4615506e-06 -1.3419512e-07 -0.008496385 -5.9395237e-08
6.275848e-08 -1.6364138e-06 -9.140166e-06 5.4072736e-08 -0.006006041 -9.0516856e-05 4.4847166e-05 2.651274e-07
-1.4733311e-07 -1.287974e-08 2.4580986e-06 -3.5681686e-07 -4.169461e-09 0.00015165814 1.6780953e-14 3.4028528e-07
-1.5015952e-10 -4.312612e-07 -0.00079290656 2.0015406e-07 -2.9109104e-11 1.8197965e-09 9.47294e-05 1.506547e-06
-1.7215264e-07 -1.0053634e-07 3.664075e-06 -1.4725195e-12 -0.013493646 -2.752698e-05 4.9994595e-13 -0.000121021956
-1.2440429e-09 6.74951e-07 6.4218874e-08 1.533007e-07 8.264608e-07 -2.5579391e-11 3.021863e-05 8.0495175e-09
6.071199e-08 3.5440425e-11 1.8274686e-05 -8.3277757e-10 3.978254e-05 -1.7474463e-06 -2.6806621e-08 -9.845836e-07
1.0665201e-06 9.919111e-07 8.113444e-06 2.3211746e-06 -3.3830037e-08 2.4704786e-07 0.108792335 -1.0637237e-08
-1.0414198e-06 2.3406304e-09 3.5907863e-07 -1.157357e-05 -5.5977293e-05 -4.296639e-08 -7.190676e-11 2.870193e-06
4.2343015e-07 1.1942944e-06 9.572565e-09 -1.0962104e-06 -1.087667e-06 -0.20930363 -0.0001807223 -9.372625e-11
-6.566415e-05 0.00012748528 -1.2020019e-08 -2.3093394e-06 8.403116e-06 -0.0008055799 2.0990848e-07 -1.5489331e-05
1.6702328e-10 -5.8357773e-06 -5.840361e-10 0.00010746403 0.2718529 -1.69995e-07 0.03626196 -2.933285e-05
-3.4263414e-07 8.108213e-06 -0.0003210705 -0.009625431 -0.00021305998 -0.00017810008 3.3401054e-08 7.532175e-07
-1.2961618e-06 -2.2889823e-05 -0.0005788479 1.0649519e-05 -1.1245339e-05 -3.4429752e-07 1.3711108e-06 -8.207196e-06
2.687991e-08 5.446839e-06 3.4669557e-07 -7.5481303e-06 -0.00030412283 -8.130368e-06 -2.2113205e-05 -1.86923e-09
5.3367377e-17 6.102427e-05 -2.0715277e-06 -0.008520698 -4.5832396e-05 -6.8801404e-05 2.9264838e-10 1.6863864e-11
-0.0113394605 4.2962142e-07 1.0698723e-06 7.032578e-05 -0.00014209386 -3.4900975e-07 -7.259686e-08 -0.014405809
4.4514515e-08 0.000914559 -0.0010674088 1.3104715e-06 -0.00032201258 -0.010240564 -1.2755623e-05 -1.3866469e-07
2.161665e-08 -0.12109401 0.000964528 -0.006511907 -6.7519057e-09 -5.7131874e-06 8.310819e-05 -1.238103e-08
-0.0044490215 0.0064279307 0.018684477 3.0159328e-09 0.0015415547 1.9835384e-06 -2.7072358e-09 -0.00013866831
4.8135993e-09 -2.0462932e-05 2.1466061e-05 -2.7007644e-07 9.737181e-09 -1.3215185e-08 -0.0020091916 -2.4606246e-09
1.6690987e-07 -0.00016731798 -7.3072334e-07 -3.271604e-10 -5.4408633e-09 3.5196598e-12 -7.620214e-08 -0.024221398
-3.3308072e-07 0.00012499055 -1.2750366e-08 -2.8949852e-08 0.47369146 -4.0978566e-08 -1.0386054e-06 -0.0055677765
1.0537488e-05 -9.255293e-07 -0.0009886256 -8.286864e-06 -5.892247e-06 -3.240085e-08 -1.7415867e-12 0.2049275
5.577069e-07 -1.7047415e-09 -4.927419e-08 -0.00030792353 3.4235906e-10 3.213011e-06 -1.16754e-06 -1.3344491e-09
3.6609326e-05 -1.40089e-10 -7.5018797e-06 -9.463945e-08 0.00021363725 -0.3109112 5.8921387e-08 -2.6191892e-12
-6.363211e-05 -4.178156e-07 -5.6369513e-06 1.7605303e-11 0.00045348975 3.206243e-07 0.00036020405 5.8615854e-09
00000000: 4c6e c5b0 d0c1 4fb7 1163 7333 b474 44b8
00000010: 6ec4 7135 dcc1 e336 c607 ec32 fd2c 27b9
00000020: 2c07 f9b6 b86d 3f37 3932 47b4 03e4 7334
00000030: 92e5 0334 02f2 32b2 1973 cd34 7d15 1bb6
00000040: 930a d52a 8ef7 d935 78ef fe3b aea3 7e35
00000050: 55be 5eb5 1380 3eb1 20c4 60ac 76d9 f3af
00000060: 8500 a4b7 030a 63bb b046 a5b4 74ed 53b5
00000070: 8fca cc33 e81f 442b 1166 27b2 0db3 fab8
00000080: 199c 4c36 66f3 a231 47fd d4bd 7801 9db6
00000090: 1f0f 4bb5 41e6 963b 347f cc37 a09b 6dbb
000000a0: f2c4 d633 c36a dbba 6fc0 99bc 08fd 89b8
000000b0: 4cd0 d836 4617 10b4 6c34 0bbc c119 7fb3
000000c0: d7c5 8633 c0a2 dbb5 b758 19b7 9a3d 6833
000000d0: 53ce c4bb ded3 bdb8 471a 3c38 d556 8e34
000000e0: 9e32 1eb4 b245 5db2 d0f5 2436 8990 bfb4
000000f0: f842 8fb1 6c06 1f39 3e26 9728 74b0 b634
00000100: 261a 25af 1788 e7b4 0fdb 4fba eee9 5634
00000110: f005 00ae 661c fa30 76a9 c638 9034 ca35
00000120: f5d8 38b4 70e6 d7b3 54e4 7536 1b3d cfab
00000130: 7414 5dbc bde9 e6b7 e7b8 0c2b 2bcd fdb8
00000140: defa aab0 482e 3535 b3e8 8933 fa9a 2434
00000150: f4d9 5d35 abff e0ad 047e fd37 274a 0a32
00000160: c560 8233 5fde 1b2e 974c 9937 83e9 64b0
00000170: 2ddc 2638 cc89 eab5 6244 e6b2 0926 84b5
00000180: 5a25 8f35 ce21 8535 fa1e 0837 7ac5 1b36
00000190: 854c 11b3 00a2 8434 84ce de3d 10bf 36b2
000001a0: e9c6 8bb5 ced8 2031 64c7 c034 1b2c 42b7
000001b0: 29c9 6ab8 0c8a 38b3 e81f 9eae 8a9d 4036
000001c0: cc53 e334 a54b a035 9674 2432 8121 93b5
000001d0: f4fb 91b5 b153 56be 4680 3db9 301b ceae
000001e0: 2cb5 89b8 92ad 0539 9a80 4eb2 26fa 1ab6
000001f0: 1cfb 0c37 8d2d 53ba 3463 6134 16ef 81b7
00000200: e0a4 372f f2d0 c3b6 e389 20b0 505e e138
00000210: 4e30 8b3e df87 36b4 6c87 143d d10f f6b7
00000220: 47f3 b7b4 8208 0837 5a55 a8b9 fcb3 1dbc
00000230: da68 5fb9 60c0 3ab9 d974 0f33 b630 4a35
00000240: c8f7 adb5 8503 c0b7 d3bd 17ba 56ab 3237
00000250: 5daa 3cb7 e4d7 b8b4 0207 b835 a3b1 09b7
00000260: 8ce5 e632 fec3 b636 7a21 ba34 f245 fdb6
00000270: ad72 9fb9 aa67 08b7 bf7f b9b7 d873 00b1
00000280: 141d 7624 50f4 7f38 9304 0bb6 669a 0bbc
00000290: 293c 40b8 7949 90b8 99e2 a02f 0c56 942d
000002a0: 25c9 39bc b8a6 e634 8898 8f35 de7b 9338
000002b0: 08ff 14b9 895f bbb4 8ce6 9bb3 5806 6cbc
000002c0: 3a30 3f33 04bf 6f3a 4ce8 8bba 75e3 af35
000002d0: ccd3 a8b9 0ac8 27bc fc00 56b7 dce3 14b4
000002e0: 84af b932 2300 f8bd 61d8 7c3a d661 d5bb
000002f0: 64fe e7b1 e8b3 bfb6 5f4a ae38 59b4 54b2
00000300: 19c9 91bb 64a1 d23b 3010 993c da40 4f31
00000310: fe0d ca3a ee1c 0536 320a 3ab1 7e67 11b9
00000320: de64 a531 d0a7 abb7 0412 b437 06ff 90b4
00000330: 9348 2732 0009 63b2 a4ac 03bb c417 29b1
00000340: d637 3334 1472 2fb9 ed26 44b5 bcdb b3af
00000350: 57f2 bab1 8eac 772c 92a4 a3b3 f46b c6bc
00000360: 44d2 b2b4 e50f 0339 b40c 5bb2 66ad f8b2
00000370: b087 f23e 6900 30b3 3666 8bb5 e571 b6bb
00000380: 2bca 3037 e471 78b5 c594 81ba cf07 0bb7
00000390: 04b6 c5b6 1c29 0bb3 461b f5ab 84d8 513e
000003a0: 54b5 1535 424c eab0 8ba1 53b3 cc70 a1b9
000003b0: c136 bc2f 1c9f 5736 5eb4 9cb5 c167 b7b0
000003c0: f78c 1938 8c07 1aaf a8b8 fbb6 963c cbb3
000003d0: d003 6039 c12f 9fbe c010 7d33 1e4f 38ac
000003e0: 3b72 85b8 2450 e0b4 0b25 bdb6 9edb 9a2d
000003f0: 5dc2 ed39 4522 ac34 c5d9 bc39 0d67 c931

fc2.weight f4 [256, 256]
9.595948e-16 -1.2765541e-15 -5.396833e-15 -1.6837629e-11 7.433416e-13 -3.0114673e-08 -1.8431347e-13 1.8786955e-07
2.2966165e-10 -1.8961444e-09 9.767585e-08 -1.7211991e-13 3.703861e-14 6.510587e-11 -1.7355094e-09 8.485622e-11
-5.3610558e-20 9.2053355e-08 -5.89789e-07 0.0035867756 3.81194e-14 -3.7508444e-15 1.4883069e-08 -2.4516797e-16
1.6604557e-10 -1.2569388e-11 -5.5913194e-09 -5.6328187e-09 -3.967044e-11 9.686379e-20 5.796824e-05 5.5685234e-07
0.00013473805 0.0028194275 3.596956e-12 -1.4795411e-10 1.3729292e-21 -1.6612596e-08 3.1877022e-08 -1.1079803e-06
1.3035502e-07 9.1979955e-06 1.456145e-05 9.2940855e-09 -1.7530424e-12 1.7394258e-10 -1.0692669e-05 1.8300597e-14
1.9407479e-13 -1.643767e-10 -1.608665e-11 8.2891915e-05 -2.5837285e-10 -7.688996e-09 9.218711e-09 1.2849251e-11
-2.924289e-15 8.949166e-14 0.0002386499 -0.00021807232 5.9262533e-15 1.0465514e-07 -1.8709021e-19 -5.2335523e-12
1.6829328e-15 -1.0118285e-11 9.258312e-27 -7.774337e-11 2.7927513e-16 2.7130404e-14 0.0007792992 -2.47905e-09
2.0351044e-19 2.5143833e-13 2.10938e-13 1.1816293e-15 0.00021851709 -9.1836615e-11 -2.3594194e-18 1.01501335e-10
-1.7271766e-17 5.1678153e-06 8.646469e-15 1.1926082e-15 -2.34471e-06 1.5387656e-16 -6.461542e-10 8.0766875e-14
-4.1612425e-15 -2.5442517e-15 0.00017548056 2.8985983e-08 -8.5929733e-13 5.8323606e-14 2.5380953e-15 6.1390157e-15
-1.9566584e-10 8.8702917e-13 -1.0832669e-12 -9.981896e-07 8.517268e-15 9.933177e-08 1.7874095e-06 -3.025949e-12
-2.866408e-14 -9.721418e-17 -3.3740808e-13 1.0464771e-10 2.70779e-40 3.2459829e-18 4.940198e-22 -4.7272836e-10
6.329283e-07 -4.1813842e-14 6.7234285e-19 -2.483513e-10 -9.132498e-14 -2.7514527e-10 2.6545524e-07 4.4571467e-16
-2.0871955e-06 -3.0415467e-06 1.6992217e-11 2.8970186e-13 0.00015454543 1.3419752e-08 3.3939255e-16 -8.8865e-41
9.004371e-19 -4.315912e-10 -2.1430755e-13 -4.25439e-09 -3.8546503e-05 -2.3749262e-06 2.3424686e-06 8.754816e-11
-4.382518e-15 -1.3629348e-06 0.0011123223 -0.0015890262 8.943246e-10 7.720117e-13 -8.9922823e-13 1.31569635e-08
-7.516162e-09 -1.7580966e-13 8.258445e-09 7.82865e-11 -1.6462035e-20 6.275462e-17 -1.9430666e-12 -5.047185e-11
1.5750942e-11 -3.1278154e-11 -2.42151e-12 -0.00048292306 -0.00015037437 -8.173857e-11 -7.389567e-11 5.667203e-12
-8.406188e-26 1.4366417e-08 -7.330003e-11 -1.372163e-05 2.7762432e-09 -3.27427e-06 1.2312203e-11 -3.0483787e-16
7.6463493e-07 -1.4809362e-11 2.5243488e-12 6.4434316e-09 8.319671e-06 -8.985388e-13 -6.9340154e-12 -7.6365177e-07
5.5779383e-14 -7.526309e-07 4.1030682e-05 -1.6288108e-10 -3.2464897e-12 3.946286e-05 -7.6922396e-10 2.4867326e-09
0.00020189394 1.0670796e-05 1.1910444e-09 7.285257e-09 1.2292623e-16 7.542921e-12 -3.6578164e-11 4.676309e-13
6.912539e-06 -6.634376e-05 -2.9534601e-06 -3.7734657e-14 -1.077186e-06 -2.8482924e-07 2.531231e-05 3.2597258e-12
7.069585e-15 -0.0014381957 2.2183386e-10 1.4401334e-17 1.4165763e-10 5.4104745e-14 0.00012041883 1.1741211e-15
-4.003395e-14 7.771294e-26 -8.834448e-09 -9.452617e-15 -3.8104645e-16 -2.1243842e-19 -2.0136977e-16 -5.349242e-07
5.5443587e-11 -0.0005834908 -3.4230951e-13 -4.6987453e-16 6.257679e-05 5.301337e-09 4.1351657e-14 9.813211e-07
-1.6826804e-07 0.000346747 -1.0776914e-06 -6.4916293e-12 5.144998e-13 -1.9890878e-14 -9.739205e-09 -5.080449e-06
1.7328602e-09 -1.3274174e-16 -8.885773e-16 9.254584e-07 2.2114863e-14 -1.3940868e-13 -5.006242e-14 -3.343486e-22
2.3135851e-11 0.00016655965 1.1180529e-10 -2.9396345e-18 5.1474337e-05 -2.4436778e-10 -1.04296e-14 3.849064e-09
-0.00015995796 8.0468354e-14 1.0822769e-09 -1.0949148e-15 7.0432262e-12 -0.00097611436 -1.769165e-05 6.6747904e-14
00000000: cd4a 8a26 89f8 b7a6 0071 c2a7 f81a 94ad
00000010: 683b 512b 6f57 01b3 be84 4faa 30b9 4934
00000020: 0284 7c2f 534d 02b1 dec1 d133 30ca 41aa
00000030: 9cce 2629 592b 8f2e cf86 eeb0 ce99 ba2e
00000040: 302b 7d9f deae c533 fe51 1eb5 1c10 6b3b
00000050: adac 2b29 6f23 87a7 6eb0 7f32 6854 8da5
00000060: ac91 362f 7e1f 5dad c41d c0b1 cc8a c1b1
00000070: f278 2eae 91b6 e41f ec22 7338 9a7a 1535
00000080: 7848 0d39 25c6 383b 001d 7d2c 61ad 22af
00000090: a078 cf1c 7cb3 8eb2 28e9 0833 eab5 94b5
000000a0: b7f7 0b34 1751 1a37 f44c 7437 d2ab 1f32
000000b0: 02b8 f6ab 7c40 3f2f aa64 33b7 4ed6 a428
000000c0: 4082 5a2a eebb 34af ea7f 8dad 42d6 ad38
000000d0: bf0a 8eaf 9018 04b2 5260 1e32 e20b 622d
000000e0: 9cb7 52a7 6e84 c929 183e 7a39 58aa 64b9
000000f0: 0a84 d527 c6be e033 8ce0 5ca0 a623 b8ac
00000100: 4389 f226 b400 32ad 3861 3714 a0f5 aaae
00000110: bcfd a025 745e f428 e249 4c3a e95b 2ab1
00000120: 4243 7020 158c 8d2a bd7e 6d2a 6d4a aa26
00000130: bc21 6539 6bf3 c9ae 2c18 2ea2 2c34 df2e
00000140: ce4d 9fa3 3267 ad36 cdc2 1b28 7adf ab26
00000150: d059 1db6 5868 3125 0f9d 31b0 efde b529
00000160: b0ec 95a7 2955 37a7 3401 3839 dafc f832
00000170: e6de 71ab 4555 8329 98e3 3627 6d2e dd27
00000180: 0a23 57af 30ad 792b ce74 98ab 89f9 85b5
00000190: f76e 1928 3850 d533 ece6 ef35 a7ee 54ac
000001a0: 6f17 01a9 2029 e0a4 a1f1 bdaa 6c1f e62e
000001b0: d2f2 0200 e282 6f22 ee4e 151c 4df1 01b0
000001c0: 80e6 2935 1450 3ca9 ca70 4621 5788 88af
000001d0: 44a5 cda9 4143 97af e483 8e34 f077 0026
000001e0: bf11 0cb6 601d 4cb6 1277 952d 7016 a32a
000001f0: 790d 2239 b28c 6632 80a5 c325 b8f7 0080
00000200: 8de1 8421 1045 edaf f249 71aa 032e 92b1
00000210: feac 21b8 ec60 1fb6 4e33 1d36 3c85 c02e
00000220: 98e5 9da7 15ee b6b5 58cb 913a df46 d0ba
00000230: 80d4 7530 4e4d 592b 391c 7dab f008 6232
00000240: 6e20 01b2 aff1 45aa 06e1 0d32 6227 ac2e
00000250: c27a 9b9e cab3 9024 2dbb 08ac 40fa 5dae
00000260: f88b 8a2d 1290 09ae 0c66 2aac d630 fdb9
00000270: d0ad 1db9 b9be b3ae 907f a2ae a065 c72c
00000280: 8c20 d095 2cd0 7632 4030 a1ae f435 66b7
00000290: 30c8 3e31 88bb 5bb6 3c99 582d 21ba afa5
000002a0: 5041 4d35 b843 82ad a0a2 312c 0665 dd31
000002b0: b794 0b37 8bea 7cab 0ff8 f3ac c0fd 4cb5
000002c0: 4035 7b29 6708 4ab5 5c18 2c38 f316 33af
000002d0: 8f73 64ac ec84 2538 5371 53b0 10e3 2a31
000002e0: 7eb3 5339 b806 3337 26b2 a330 cc51 fa31
000002f0: 6bb9 0d25 4cb2 042d 5adf 20ae 5ca0 032b
00000300: 42f2 e736 0922 8bb8 0f34 46b6 19f1 29a9
00000310: d493 90b5 a2ea 98b4 c655 d437 0062 652c
00000320: 6ab5 fe27 d781 bcba aee8 732f 30d4 8423
00000330: 14c1 1b2f 86aa 7329 5e89 fc38 6c35 a926
00000340: 004c 34a9 6d68 c015 50c6 17b2 8048 2aa8
00000350: 88a8 dba5 93cd 7aa0 de29 68a5 b697 0fb5
00000360: eed7 732e 68f5 18ba 00b4 c0aa 9f6e 07a6
00000370: a93b 8338 0e27 b631 373b 3a29 f0b5 8335
00000380: 2bad 34b4 98cb b539 32a5 90b5 6667 e4ac
00000390: 9ed1 102b 3e29 b3a8 7a51 27b2 b978 aab6
000003a0: 9929 ee30 720a 19a5 b70e 80a6 046d 7835
000003b0: 6731 c728 d1f5 1caa 0a76 61a9 f119 ca9b
000003c0: 4e81 cb2d 84a6 2e39 c8dc f52e 20e8 58a2
000003d0: 26e6 5738 b557 86af 0ae2 3ba8 ba40 8431
000003e0: 63ba 27b9 d932 b529 3cbf 9430 3acb 9da6
000003f0: becf f72c ede1 7fba 8768 94b7 8c4d 9629

fc2.bias f4 [256]
2.5486042e-06 -3.199449e-06 -4.798323e-07 2.5015965e-09 -0.00862164 0.00045779135 0.0074957614 0.002655569
-4.8868897e-06 0.105395965 0.0014275211 -1.791576e-06 -9.346074e-08 -7.480477e-06 1.821233e-06 0.010883921
0.019658644 0.00026601934 -2.6248892e-07 -0.00040164564 7.0395804e-06 -6.086719e-05 -9.8091715e-11 -1.2479569e-07
-1.2805369e-06 2.6787385e-08 0.13251388 -1.102187e-06 2.6354474e-09 2.2785396e-05 -2.259884e-06 0.004816415
-1.0721241e-05 0.01954364 -2.3045106e-06 -1.2855659e-20 0.74724454 -1.420064e-08 0.008584268 0.00014908783
-1.8904314e-09 1.5838364e-08 -1.0659089e-06 -7.007485e-05 1.9908972e-10 -6.5707e-09 -2.5557786e-18 -3.6972358e-06
0.00074145565 -0.004015218 -2.6770987e-05 -9.80514e-08 1.6794738e-07 -0.009283186 -3.1943313e-05 9.89252e-10
-0.00024594337 1.1302604e-08 -0.00025148733 6.5542616e-10 -3.009433e-05 0.007996988 -0.007735817 -4.7258964e-11
0.0006879672 6.865928e-08 0.06725236 -0.0067494605 0.0011923666 0.0061209654 -5.452942e-05 1.7679655e-06
2.1131498e-05 -3.571491e-06 -1.8801427e-07 -3.0227515e-05 0.014504118 0.00012814524 1.1436093e-06 0.0076104333
-1.4677101e-07 0.24766219 1.1807672e-05 -1.4088118e-06 -5.610758e-13 -1.5083007e-08 -1.0159259e-06 0.00574555
0.0051256856 0.0037218581 1.3215812e-08 0.03737982 4.977312e-12 -0.00037444642 0.007313546 0.0014118864
-2.9638897e-05 -2.4919125e-05 -7.8214333e-07 4.3962565e-08 0.43080312 1.2527663e-09 1.96473e-07 -0.0057803313
-0.012307994 -0.00063527614 2.868257e-07 -0.0003866048 -5.6120945e-05 -1.8647976e-06 -1.9844106e-11 -1.2678406e-07
8.6773646e-08 -2.6740415e-06 2.9577455e-05 0.00024219489 -1.3228416e-08 -1.3647345e-06 3.8772657e-07 3.2337916e-06
-0.0041490477 -3.667567e-05 -5.117721e-05 -6.7767616e-07 -7.815353e-05 -1.5857659e-06 -4.0734976e-12 -3.8353033e-07
-2.021883e-18 -4.938153e-05 9.90442e-06 -1.2885487e-11 -1.5113976e-05 -1.8320188e-05 -3.3557797e-05 -3.421481e-10
-8.958733e-06 6.116661e-08 -4.2859168e-21 -1.2722307e-07 7.563765e-12 3.3649647e-07 -2.303345e-07 0.75704026
-1.46829375e-08 0.18473555 8.0484756e-07 -0.00033545817 -3.814453e-08 3.2776857e-09 -6.827122e-09 0.010117803
0.002225398 -6.4896284e-08 -1.9349967e-07 1.6160995e-05 -0.02160666 -7.648226e-06 -8.2883e-07 -6.342282e-08
3.7522582e-10 0.046945132 -1.1002779e-06 9.238561e-05 1.6930375e-06 1.701469e-05 -3.241917e-09 -9.5462165e-05
-1.7616338e-10 -2.0291372e-05 1.1969213e-06 4.3922865e-11 8.763956e-06 6.024e-06 0.16430694 -4.1072727e-07
1.1718021e-06 -0.0024981285 2.1728074e-06 -1.2092721e-07 0.00023191693 0.00014390128 4.3312062e-10 1.8972401e-05
-4.6903788e-05 0.0011242403 2.0557973e-06 0.38220537 0.0010238698 9.59123e-10 -5.953638e-06 1.0537167e-09
0.0051549254 0.00017588824 2.602452e-09 0.0004736639 1.7460673e-08 0.0047185677 6.3781376e-06 6.3624393e-06
0.18430224 0.6215066 -2.3171942e-05 1.2611747e-07 5.868633e-08 -0.00019048969 -2.7649137e-06 3.156336e-05
2.5567135e-09 -0.00012775374 5.395661e-08 -2.8415913e-08 3.5213202e-07 8.700014e-07 -6.573736e-09 1.4908238e-07
-3.417966e-11 1.8899172e-22 -0.0004646741 5.8383043e-10 -0.015762541 0.00079429784 -2.7328033e-08 -0.00093032443
-0.00072795374 2.7181805e-08 0.0015186175 3.4217302e-09 -4.8354445e-07 -2.8165337e-10 1.4890248e-23 8.2091066e-07
5.3926186e-05 2.3812589e-07 -2.0928579e-07 2.0644155e-05 4.0937226e-05 0.05472938 -0.00013332609 -2.3481487e-05
-0.010019163 1.743389e-05 -0.00038753168 0.16890107 0.3898398 0.2428702 -7.236182e-08 2.5214318e-05
0.41794077 -2.1497769e-11 3.247255e-06 0.29842183 0.02760908 1.2385271e-07 -0.0020255637 -0.00010006319
00000000: b008 2b36 1eb6 56b6 d3cd 00b5 8de8 2b31
00000010: c741 0dbc b703 f039 019f f53b 0e09 2e3b
00000020: 10fa a3b6 d7d9 d73d a91b bb3a 1576 f0b5
00000030: 96b4 c8b3 cf00 fbb6 1771 f435 7952 323c
00000040: 2a0b a13c 8378 8b39 34ec 8cb4 f793 d2b9
00000050: 8935 ec36 a64b 7fb8 bab4 d7ae 94ff 05b4
00000060: eade abb5 151a e632 b8b1 073e dbee 93b5
00000070: 481b 3531 4423 bf37 83a8 17b6 04d3 9d3b
00000080: 61df 33b7 fc19 a03c 31a7 1ab6 27d6 729e
00000090: 6b4b 3f3f 13f7 73b2 08a5 0c3c 7654 1c39
000000a0: d2e8 01b1 ee0c 8832 5a10 8fb5 26f5 92b8
000000b0: c6e6 5a2f 7dc4 e1b1 4b95 3ca2 071e 78b6
000000c0: 3f5e 423a 1792 83bb 4292 e0b7 5490 d2b3
000000d0: 0655 3434 8118 18bc dffa 05b8 36f6 8730
000000e0: f6f1 80b9 612d 4232 0fda 83b9 8429 3430
000000f0: 1573 fcb7 cc05 033c bd7c fdbb ddd8 4fae
00000100: b258 343a d771 9333 9bbb 893d 942a ddbb
00000110: 2f49 9c3a 6192 c83b 85b6 64b8 d54a ed35
00000120: 8c43 b137 c0ad 6fb6 f8e0 49b4 1891 fdb7
00000130: aea2 6d3c ba5e 0639 1e7e 9935 f160 f93b
00000140: 1c98 1db4 289b 7d3e 9119 4637 6816 bdb5
00000150: c6ed 1dab e28f 81b2 f35a 88b5 2b45 bc3b
00000160: 5ef5 a73b 6bea 733b c10b 6332 951b 193d
00000170: a41f af2c 5951 c4b9 78a6 ef3b 0c0f b93a
00000180: 0ca1 f8b7 6a09 d1b7 7bf4 51b5 5ad1 3c33
00000190: 3a92 dc3e cc2d ac30 16f6 5234 ef68 bdbb
000001a0: 78a7 49bc a988 26ba 06fd 9934 38b1 cab9
000001b0: 6863 6bb8 f549 fab5 f48c aead 2322 08b4
000001c0: 5158 ba33 af73 33b6 1a1d f837 b2f5 7d39
000001d0: 3043 63b2 ec2b b7b5 bc28 d034 1e04 5936
000001e0: bcf4 87bb 33d4 19b8 1ca7 56b8 8de9 35b5
000001f0: 5be6 a3b8 80d6 d4b5 ce52 8fac 02e8 cdb4
00000200: 4a30 15a2 041f 4fb8 292b 2637 13af 62ad
00000210: 0892 7db7 4eae 99b7 69c0 0cb8 1019 bcaf
00000220: 774d 16b7 b35a 8333 d8ea a19d d09a 08b4
00000230: 2b10 052d b9a7 b434 de51 77b4 64cd 413f
00000240: 3e40 7cb2 512b 3d3e b40c 5835 6fe0 afb9
00000250: 5bd4 23b3 a83d 6131 0094 eab1 24c5 253c
00000260: fcd7 113b 1c5d 8bb3 c9c4 4fb4 7991 8737
00000270: 7300 b1bc e150 00b7 c47c 5eb5 1033 88b3
00000280: 5748 ce2f 8a49 403d 43ad 93b5 26bf c138
00000290: 533c e335 c5ba 8e37 68c8 5eb1 dc32 c8b8
000002a0: 95b1 41af 6437 aab7 e7a5 a035 c02c 412e
000002b0: e808 1337 c421 ca36 1440 283e ed81 dcb4
000002c0: d046 9d35 a4b7 23bb 8cd0 1136 38d8 01b4
000002d0: ba2e 7339 35e4 1639 4f1c ee2f ec26 9f37
000002e0: 8fba 44b8 3f5b 933a 54f6 0936 6cb0 c33e
000002f0: 5f33 863a 24d2 8330 5cc5 c7b6 5cd2 9030
00000300: a6ea a83b a46e 3839 d2d6 3231 1856 f839
00000310: 6dfc 9532 379e 9a3b c903 d636 f07c d536
00000320: bab9 3c3e 0e1b 1f3f 5e61 c2b7 e86a 0734
00000330: 4d0e 7c33 30be 47b9 db8c 39b6 e662 0438
00000340: 2eb2 2f31 a2f5 05b9 ecbd 6733 4117 f4b2
00000350: a80c bd34 0a8a 6935 32df e1b1 7413 2034
00000360: e052 16ae 1b7a 641b 819f f3b9 6a7b 2030
00000370: 7220 81bc 6d38 503a fbbe eab2 04e1 73ba
00000380: 26d4 3eba 6c7d e932 590c c73a b723 6b31
00000390: eccc 01b5 30d7 9aaf 7802 9019 8d5c 5c35
000003a0: cd2e 6238 8caf 7f34 0ab8 60b4 fc2c ad37
000003b0: 03b4 2b38 ea2b 603d 73cd 0bb9 1cfa c4b7
000003c0: 6a27 24bc fe3e 9237 9f2d cbb9 67f4 2c3e
000003d0: 1599 c73e f7b2 783e 5565 9bb3 5683 d337
000003e0: 55fc d53e ac18 bdad 6beb 5936 bfca 983e
000003f0: 702c e23c 60fc 0434 52bf 04bb 04d9 d1b8

fc3.weight f4 [256, 256]
-3.8644283e-13 -2.3116432e-13 1.1047451e-19 1.1295491e-18 1.8416393e-10 2.6585532e-13 3.3967825e-11 4.2003147e-11
-2.134323e-11 3.1317815e-10 8.200516e-10 6.6926394e-15 -1.1064529e-12 -1.2988123e-11 -9.3899055e-17 1.0407884e-10
8.964186e-11 1.6240929e-12 2.8634014e-12 5.5659335e-11 -3.3722016e-12 5.609595e-13 -9.2876526e-18 2.930242e-16
-1.7613929e-12 2.8385668e-16 -5.039311e-09 -2.3576268e-14 3.765129e-16 -1.5343358e-13 -1.047843e-12 -5.103205e-12
-6.6217444e-14 2.7949533e-11 -6.3625434e-18 9.913e-42 -5.5804845e-09 2.4223483e-16 1.6866397e-11 9.444617e-11
3.5866012e-17 -3.3607822e-16 -3.558531e-12 7.1996046e-12 1.3616758e-18 -1.2491743e-33 -9.4004e-40 -1.331235e-12
-7.559966e-11 -7.973793e-12 5.2998174e-32 -4.2088453e-15 -1.3864349e-13 8.2340024e-11 -8.240419e-12 3.9774153e-17
-1.4520527e-14 -1.2699206e-19 -8.5624025e-12 2.1322384e-16 -1.3884562e-11 -6.8932325e-11 6.7714273e-10 3.6392085e-16
-5.287205e-16 -3.0940362e-15 1.285145e-10 -8.583851e-11 -2.9153836e-11 -9.7542335e-11 -1.7168166e-12 -5.850613e-13
-6.378885e-13 4.209677e-14 -5.127697e-16 -1.6845332e-11 -3.5234693e-10 3.8859194e-12 -3.6089325e-13 4.2553944e-10
2.5760373e-14 -1.5163977e-09 -1.43878095e-11 -2.7956032e-12 -1.3594344e-21 -3.0162625e-17 1.0143706e-13 8.159698e-11
1.2824268e-10 6.553191e-11 3.747921e-17 -4.6691687e-12 8.797826e-17 5.2220164e-13 -1.3305823e-09 -9.328991e-11
-4.465224e-11 -4.672523e-14 8.788494e-12 8.7248497e-13 1.5374194e-09 2.620344e-16 -4.360697e-15 5.360206e-10
1.1379193e-08 6.9354977e-12 3.9511625e-16 1.0207535e-08 8.046466e-11 -1.6907545e-13 -2.4478884e-15 1.1217798e-12
4.660009e-17 1.2292854e-14 2.8513483e-12 -6.679866e-16 -7.162161e-16 -3.3067511e-12 2.3285582e-16 -5.3717594e-13
-1.0428765e-12 1.0956125e-14 4.7207984e-13 -8.25254e-15 4.613098e-12 -3.430651e-15 -1.072e-41 2.9191105e-13
-1.1349e-40 -1.6270295e-12 9.595106e-12 -3.0471117e-20 2.5519123e-11 -1.7388755e-12 -3.7518865e-13 1.7982298e-15
4.997649e-14 -2.4482662e-13 -1.24936e-40 4.0042956e-16 1.9671857e-19 -5.614685e-15 -1.3708585e-13 -7.455442e-09
2.7289106e-15 -3.515164e-09 1.9801084e-14 3.1412921e-12 1.9233285e-15 -3.011099e-17 -3.636907e-15 -4.12654e-10
-2.7203987e-08 -6.6816574e-16 -5.463081e-16 -1.5316509e-13 -4.963816e-10 -1.9312796e-15 -7.48773e-13 8.285103e-15
-8.617825e-16 -2.1062097e-10 -4.7230293e-14 -9.01271e-14 -3.7349484e-14 3.4489024e-13 -5.4266827e-17 -1.1950824e-12
-8.7839e-41 -3.503645e-11 1.5101046e-14 8.485752e-17 5.0585255e-14 -1.1776126e-13 2.2250994e-09 8.161317e-15
-2.4924355e-13 1.9494112e-10 -6.233577e-12 -3.137604e-15 1.9866901e-09 -1.8039842e-13 1.6872807e-15 -1.5721474e-12
-4.18526e-12 1.2919572e-10 4.3612457e-12 2.6040633e-08 2.754369e-14 2.1756928e-12 -9.7992765e-33 3.2876946e-16
1.1598478e-09 -1.3344527e-12 -4.7523313e-16 -8.374408e-12 1.7500714e-16 -1.0879815e-11 -3.0606938e-15 -1.709538e-17
9.1933255e-10 2.4277294e-10 -1.1185055e-15 1.6448722e-12 2.1621943e-15 1.7955883e-10 -1.7399183e-16 -3.7828126e-14
3.0611182e-17 2.12693e-12 -7.639921e-17 4.807162e-16 -5.6355152e-14 1.03830356e-13 -1.0771699e-20 2.3068263e-15
3.8419138e-17 -3.7029716e-34 -3.2017453e-12 -6.5701674e-19 9.339596e-11 -3.967631e-12 -6.582672e-17 -5.479856e-12
-1.2545545e-10 1.5270906e-17 -3.196426e-11 -5.8855705e-19 8.8012486e-11 4.9313075e-21 2.412447e-39 1.2614962e-12
-3.1935067e-13 9.70502e-17 -1.4982742e-16 -3.672718e-15 -1.1227283e-11 1.462663e-10 -7.1372655e-13 -3.191885e-11
1.182525e-09 -3.4100366e-12 1.1154155e-12 -6.9463852e-09 -4.44531e-08 -2.7812858e-10 4.594813e-15 -1.7176813e-14
3.700687e-08 5.463629e-22 -2.843509e-16 -1.3071952e-10 -1.5519788e-08 2.596096e-13 -1.5864519e-09 2.549911e-11
00000000: 488c d9aa 4a22 82aa df6c 0220 29b1 a621
00000010: 8a7d 4a2f caa9 952a 5f64 152e 57bb 382e
00000020: aebc bbad e82b ac2f 006a 6130 b420 f127
00000030: 2bb8 9bab 4e7d 64ad 3884 d8a4 2edf e42e
00000040: e21f c52e 1d92 e42b 747e 492c d7ca 742e
00000050: 2f4c 6dac 64e5 1d2b b353 2ba3 bdea a825
00000060: dee4 f7ab daa1 a325 4026 adb1 2c5b d4a8
00000070: 7f0b d925 38c0 2caa 8678 93ab 968d b3ac
00000080: c21b 95a9 c1d8 f52d 86bc eaa2 a21b 0000
00000090: 76be bfb1 8da3 8b25 c05b 942d 78b0 cf2e
000000a0: 1d67 2524 64bc c1a5 cc68 7aac 4650 fd2c
000000b0: a8f2 c821 008e cf88 733c 0a80 cc5a bbab
000000c0: d33e a6ae c546 0cad 5497 890b bfa3 97a7
000000d0: 4419 1caa 5011 b52e 8cf7 10ad 086d 3724
000000e0: 0eca 82a8 ffec 15a0 a2a1 16ad 92d4 7525
000000f0: 8242 74ad 7395 97ae af21 3a30 3dc9 d125
00000100: b064 18a6 e5f2 5ea7 9e4d 0d2f c9c2 bcae
00000110: 4d38 00ae 747f d6ae d69e f1ab 1cae 24ab
00000120: b68c 33ab 4596 3d29 bacb 13a6 512c 94ad
00000130: 6cb4 c1af 40b9 882c 332a cbaa 5af1 e92f
00000140: 6007 e828 8069 d0b0 ef1c 7dad 1cb9 44ac
00000150: 926e cd9c be19 0ba4 7c6a e429 046f b32e
00000160: 1b01 0d2f 301b 902e a4d7 2c24 2248 a4ac
00000170: 33dd ca24 98fc 122b b4df b6b0 8d25 cdae
00000180: f461 44ae 866e 52a9 dc9b 1a2d 2b95 752b
00000190: 234d d330 740d 9725 551c 9da7 1957 1330
000001a0: 387e 4332 6905 f42c dec4 e325 375d 2f32
000001b0: 94f1 b02e ae5c 3eaa 9263 30a7 60e0 9d2b
000001c0: ade7 5624 c872 5d28 53a5 482c b688 40a6
000001d0: 6c6f 4ea6 22b1 68ac 743b 8625 9b33 17ab
000001e0: 96c5 92ab 355e 4528 f0e0 042b 20aa 14a8
000001f0: 184f a22c 5734 77a7 e21d 0080 d154 a42a
00000200: 5d3c 0180 eafb e4ab 84cc 282d 52e5 0f9f
00000210: f577 e02d 98b9 f4ab 6236 d3aa 7c93 0127
00000220: f812 6129 3cd3 89aa 455c 0180 f9d4 e625
00000230: 8a3e 6820 544a caa7 4e58 1aaa 6115 00b2
00000240: 84a3 4427 6b8f 71b1 315a b228 7d0c 5d2c
00000250: 2697 0a27 c8dc 0aa4 8c08 83a7 e3db e2af
00000260: 33ae e9b2 ee95 40a6 6c76 1da6 d572 2caa
00000270: c071 08b0 d229 0ba7 c8c2 52ab 4b40 1528
00000280: 5364 78a6 8894 67af d2b4 54a9 bcf2 caa9
00000290: 0635 28a9 ec27 c22a f642 7aa4 6231 a8ab
000002a0: dcf4 0080 8917 1aae a404 8828 0aab c324
000002b0: d4d0 6329 5f96 04aa 5de8 1831 6e05 1328
000002c0: c84f 8caa 0c57 562f 1253 dbac 9416 62a7
000002d0: 3986 0831 4e1c 4baa ac29 f326 9442 ddab
000002e0: 7941 93ac 5d0d 0e2f 9c72 992c f5af df32
000002f0: 6d17 f828 cc19 192c e485 4b8a cf85 bd25
00000300: 8468 9f30 bace bbab 04fa 08a6 fb52 13ad
00000310: fec4 4925 5566 3fad d68b 5ca7 53ad 9da3
00000320: 47b4 7c30 4177 852f 9231 a1a6 c47e e72b
00000330: 72cd 1b27 516d 452f 5399 48a5 dc5c 2aa9
00000340: 4e2b 0d24 5dab 152c 222a b0a4 988e 0a26
00000350: 11cd 7da9 20ce e929 bd78 4b9e 6f39 2627
00000360: 502d 3124 cc1a f687 844d 61ac c8ea 41a1
00000370: 4061 cd2e 3e99 8bac 3dc9 97a4 28ce c0ac
00000380: 92f0 09af 68d9 8c23 8f94 0cae 1db6 2da1
00000390: a08a c12e ae4c ba1d ec44 1a00 318a b12b
000003a0: 48c7 b3aa 54c8 df24 40bd 2ca5 d852 84a7
000003b0: 3083 45ad 4ed2 202f 6be5 48ab 6e61 0cae
000003c0: 6686 a230 c2f5 6fac 14fb 9c2b 0dad eeb1
000003d0: b3ec 3eb3 1ee7 98af ab8b a527 09b7 9aa8
000003e0: 7cf1 1e33 c820 251c c9ea a3a5 46ba 0faf
000003f0: 6050 85b2 b025 922a 500a dab0 e44a e02d

fc3.bias f4 [256]
-1.4162504e-08 -0.00053917925 0.21942133 -0.0013978593 -9.239938e-11 -2.0909505e-07 -1.0639356e-07 -6.1943806e-09
-0.0007742012 -1.8899979e-10 -1.0926942e-19 -1.11818224e-07 -0.04537937 -0.0006927061 -2.0642594e-12 -9.723491e-05
-0.0025741507 0.0009464527 -0.0017732457 2.9216185e-11 1.5355614e-07 -1.5590279e-12 1.0157343e-07 7.700404e-07
-0.00012220739 -9.005973e-08 6.0158975e-11 -4.7488797e-05 1.702981e-06 7.112003e-07 0.3122461 1.860555e-10
1.1780487e-09 0.0003675879 1.3711705e-05 0.5720421 0.00089925306 -0.0010040884 0.15211298 0.37866947
6.055435e-06 -8.534987e-08 -1.9182007e-05 0.10134938 -6.175353e-07 7.203012e-07 4.3167478e-07 0.007895005
-0.001047282 -0.00010886831 -6.153587e-13 -1.1369515e-20 -0.0005494459 0.27427718 0.0002708631 8.291536e-12
-2.0462503e-09 0.032959484 0.16063109 2.1792788e-10 -0.00011872619 0.026042288 4.957499e-09 -9.350036e-05
-8.612216e-11 0.0001998562 0.07889623 -1.2310113e-10 2.5480061e-34 -1.6464339e-05 0.0013420952 -7.0479967e-12
-0.0049575916 6.529348e-05 0.000979444 -0.0008787549 -6.495043e-06 -1.59227e-20 -1.3206192e-06 2.0225211e-07
-0.020430686 -0.00055600016 -2.373446e-14 1.2200438e-06 1.3661642e-09 0.1359571 6.589368e-10 -1.2121808e-10
1.3183366e-05 -0.0049821422 -4.6549324e-08 -0.0008652296 7.7465296e-07 -7.878163e-07 4.157655e-07 3.1771553e-05
0.0019094327 -1.3625207e-09 1.5655453e-11 -0.009122692 -4.341834e-15 2.6372478e-09 1.9199138e-08 -8.532861e-10
-3.1402125e-29 -5.4184756e-07 0.29932013 -0.0031188321 -5.413032e-12 1.0836678e-07 4.2027295e-06 0.24096715
-1.505348e-05 9.382621e-06 -2.1995515e-07 0.0037958608 4.728238e-10 0.0007175282 -0.00041115453 7.1175876e-10
-2.0429128e-13 -3.0599057e-21 8.787867e-05 -7.2089565e-09 -4.0277294e-14 4.8378103e-12 -0.002592582 -1.2172093e-07
-4.2675424e-20 -0.056171104 7.9604655e-07 -8.8082736e-08 -5.9000006e-11 -5.0232925e-12 1.4245811e-08 0.00014331925
2.8221624e-05 -0.00050699455 1.5036439e-07 3.5905767e-05 0.00060544466 -8.643962e-12 -0.00076421583 5.9190955e-15
-7.772377e-07 0.003196693 0.053513277 0.004656614 -2.0428424e-06 2.534629e-09 3.3233757e-08 0.45327413
4.93787e-07 0.0006434418 -3.1072711e-06 4.4528497e-06 -7.174129e-07 -3.5991454e-06 0.089354746 -3.0385743e-09
0.007052256 -0.00016166567 0.17737797 0.56254876 -3.9335774e-12 -1.9935775e-05 -8.740936e-17 -3.6393286e-07
-4.0236797e-10 0.13111651 1.0852054e-06 -0.00017881529 0.018151836 2.08154e-40 2.060566e-07 -0.00012909988
9.066859e-09 1.134168e-07 -4.946384e-07 0.2840116 -4.3507328e-07 3.3761907e-20 0.001432785 0.0005414765
3.86916e-08 -3.1217984e-05 0.0064428416 1.1966738e-24 0.0013081002 -0.0009399191 2.3687787e-09 -5.163461e-21
-9.027257e-07 2.0565381e-05 0.0010824201 -4.0787316e-05 -6.115792e-05 -1.4101732e-07 -2.32716e-40 -6.3913564e-07
6.8095105e-06 3.3095498e-07 1.77296e-40 1.5400885e-05 -1.9611218e-05 -0.00084356725 -1.7658945e-11 0.016176002
0.00013833179 0.00083710277 4.9139725e-08 0.45881894 -1.6438065e-08 3.2075111e-09 1.9722606e-07 1.025341e-06
-0.010562712 0.026346527 -1.4030663e-38 7.69697e-06 2.7280305e-09 4.5716348e-08 -0.0005136743 0.59904754
-1.2050089e-06 -1.2714932e-05 -5.1747344e-07 -7.902005e-19 -6.157241e-09 9.594728e-14 0.5343678 -1.995248e-12
-0.0007841525 2.3931503e-11 -7.284982e-06 -8.048e-42 2.313047e-15 -0.0034493022 8.54793e-10 3.5049623e-06
2.4537634e-08 -4.7584413e-06 -3.637544e-07 0.0108021265 2.411793e-09 0.28638655 4.074903e-05 -0.00054978265
0.0010117507 0.25070417 2.8708013e-12 -2.1026121e-08 -2.7117052e-11 0.012986177 -0.00019239956 1.2328434e-06
00000000: 5a4f 73b2 b557 0dba fcaf 603e 6038 b7ba
00000010: 3a30 cbae 9c83 60b4 7a7a e4b3 59d6 d4b1
00000020: c3f3 4aba b6ce 4faf a800 01a0 b820 f0b3
00000030: b8df 39bd b896 35ba 6442 11ac 98ea cbb8
00000040: 15b3 28bb 5e1b 783a 416c e8ba 807e 002e
00000050: 31e1 2434 e669 dbab 9520 da33 c6b4 4e35
00000060: cc24 00b9 dc66 c1b3 7e4a 842e b52e 47b8
00000070: fb91 e435 50e9 3e35 b9de 9f3e f891 4c2f
00000080: e7e8 a130 d0b8 c039 530b 6637 5a71 123f
00000090: dabb 6b3a 9e9b 83ba 81c3 1b3e f7e0 c13e
000000a0: ca2f cb36 9649 b7b3 0ce9 a0b7 4490 cf3d
000000b0: b4c4 25b5 b95a 4135 eec0 e734 0d5a 013c
000000c0: f444 89ba 3b50 e4b8 4435 2dab 9ac3 569e
000000d0: b108 10ba 0f6e 8c3e a102 8e39 c2dd 112d
000000e0: 049e 0cb1 8600 073d 7a7c 243e 3f9d 6f2f
000000f0: a3fc f8b8 a356 d53c 9f56 aa31 a015 c4b8
00000100: 7762 bdae 7d90 5139 5994 a13d e359 07af
00000110: 1458 a907 e61c 8ab7 3ee9 af3a b6fa f7ac
00000120: 4b73 a2bb 2cee 8838 b060 803a 3e5c 66ba
00000130: ffef d9b6 ba62 969e 2140 b1b5 a32a 5934
00000140: 415e a7bc 8ac0 11ba f0c7 d5a8 63c0 a335
00000150: a1c3 bb30 5738 0b3e 8e20 3530 db47 05af
00000160: 202e 5d37 3d41 a3bb 86ed 47b3 93d0 62ba
00000170: bff1 4f35 537a 53b5 6036 df34 7242 0538
00000180: ee45 fa3a 6f43 bbb0 f2b4 892d 5877 15bc
00000190: 5a6e 9ca7 f43a 3531 5aeb a432 ac8c 6ab0
000001a0: 4a3a 1f90 7b73 11b5 7d40 993e 5265 4cbb
000001b0: 4274 beac 44b7 e833 2c05 8d36 18c0 763e
000001c0: 348e 7cb7 0d6a 1d37 d02c 6cb4 fac3 783b
000001d0: 04f8 0130 8118 3c3a 3a90 d7b9 92a5 4330
000001e0: f402 66aa 2f33 679d 804b b838 a7b2 f7b1
000001f0: 8f64 35a9 1f37 aa2c 4fe8 29bb 65b2 02b4
00000200: 6c87 499f ac13 66bd e7af 5535 ff27 bdb3
00000210: 0dbe 81ae ccbd b0ac bdbd 7432 f847 1639
00000220: 7abd ec37 d4e7 04ba d973 2134 8699 1638
00000230: b4b6 1e3a f210 18ad a855 48ba 0542 d527
00000240: 5ea3 50b5 9c7f 513b bd30 5b3d 8296 983b
00000250: c417 09b6 aa2d 2e31 e7bc 0e33 8c13 e83e
00000260: c98c 0435 a6ac 283a 8386 50b6 b069 9536
00000270: 3d94 40b5 d988 71b6 9fff b63d 2acf 50b1
00000280: 9c16 e73b cc84 29b9 92a2 353e 3203 103f
00000290: 8466 8aac c03b a7b7 618d c9a4 8d62 c3b4
000002a0: 4234 ddaf 6843 063e 60a7 9135 5d80 3bb9
000002b0: 29b3 943c 4044 0200 6840 5d34 fc5e 07b9
000002c0: 78c4 1b32 8c8f f333 4bc7 04b5 f869 913e
000002d0: 0494 e9b4 a46f 1f1f 49cc bb3a dff1 0d3a
000002e0: dd2d 2633 0ef0 02b8 791e d33b 222d b917
000002f0: 8f74 ab3a e764 76ba ffc7 2231 ee11 c39d
00000300: d652 72b5 d283 ac37 fedf 8d3a 0c13 2bb8
00000310: e941 80b8 8c6a 17b4 b888 0280 1191 2bb5
00000320: 407d e436 1bae b134 3bee 0100 2631 8137
00000330: c582 a4b7 d722 5dba 6954 9bad 8983 843c
00000340: 280d 1139 0471 5b3a b30d 5333 51ea ea3e
00000350: b033 8db2 226b 5c31 16c5 5334 739e 8935
00000360: 3a0f 2dbc acd4 d73c c8c7 9880 3c22 0137
00000370: 0578 3b31 a859 4433 19a8 06ba 2e5b 193f
00000380: cabb a1b5 3852 55b7 81e8 0ab5 dd39 69a1
00000390: aa8f d3b1 d70d d829 54cc 083f 3167 0cac
000003a0: 958f 4dba f480 d22d 8571 f4b6 6f16 0080
000003b0: 30ac 2627 b00d 62bb b6f6 6a30 cb36 6b36
000003c0: d4c6 d232 b3aa 9fb6 064a c3b4 67fb 303c
000003d0: b6bc 2531 42a1 923e f0e9 2a38 4a1f 10ba
000003e0: b89c 843a 4c5c 803e c203 4a2c ee9c b4b2
000003f0: 2c86 eead f9c3 543c ddbe 49b9 2d78 a535

action_heads.0.weight f4 [2, 256]
1.6710829e-11 6.2610945e-07 -0.0051510977 -6.1961964e-07 -4.4675496e-11 3.5367768e-12 -0.00027194346 -7.656896e-09
3.846526e-06 -8.2932413e-13 -2.9325437e-10 -1.1694217e-08 -0.07935981 -6.282291e-06 -3.0550735e-18 -1.3278763e-08
2.2729808e-05 -8.31015e-08 -7.2899024e-06 -7.1384443e-12 -3.344909e-09 6.3169705e-14 2.9570746e-08 -1.7462005e-16
4.5447308e-07 -6.1172482e-15 -9.620892e-11 7.7870754e-07 4.3855968e-09 -1.4462123e-08 -0.009363356 6.3545884e-11
-3.7569578e-10 -1.4223733e-06 5.620077e-07 -0.045418095 1.618862e-08 -9.4149493e-07 -0.0051280987 -0.009837474
-7.1195666e-07 -4.049357e-09 -6.764084e-07 -0.0020625107 -2.7512474e-06 -2.2269216e-08 1.2061498e-09 3.7885897e-05
-0.03011577 1.9367249e-07 -4.3495845e-15 -2.89859e-21 5.734612e-07 -0.774375 -1.833176e-08 -2.8862156e-13
7.3043e-41 -0.0008425267 -0.0015284831 9.547972e-12 -5.9475155e-07 -4.700299e-06 1.00327e-12 1.6336681e-06
2.024487e-12 -1.1937121e-06 -0.002867263 -4.0057132e-20 -4.2781883e-23 1.0871224e-08 1.6675689e-05 7.2258584e-13
-1.3139725e-05 -2.6951955e-07 8.1459007e-07 -7.916148e-06 1.8005913e-08 1.9272e-40 2.5014792e-06 -5.1460045e-09
-0.0003252573 -0.028193695 4.045741e-16 -1.3613061e-08 -1.1842876e-15 -0.00042546267 6.633481e-10 8.769849e-14
-1.357549e-07 4.2171476e-07 -2.6144555e-09 1.3036126e-07 2.8065594e-10 9.4023955e-12 2.878952e-06 -0.0018315893
-0.00072721 -3.5735e-41 4.3468495e-13 7.101233e-08 -2.452979e-07 3.981342e-19 -4.1197532e-07 1.7180914e-10
1.93515e-40 5.390776e-09 -0.027236843 -7.049347e-05 -2.3671942e-14 3.588051e-10 -2.9211043e-07 -0.007650289
5.992748e-08 -1.4279874e-07 1.3468944e-10 9.170988e-05 1.1018937e-10 2.410028e-07 2.6018466e-07 -7.5882367e-10
-7.5323685e-09 3.3300423e-21 -8.274573e-09 1.4123375e-11 1.4884271e-19 -1.5468223e-16 4.5564448e-05 3.6006e-41
-0.06266612 -0.08364831 4.357736e-08 1.488285e-07 -4.7416064e-12 8.700264e-12 -1.0580593e-08 -0.004718674
1.12169694e-07 1.773311e-06 2.9247516e-13 4.822539e-07 -1.4920482e-07 -1.3969312e-14 -6.985883e-08 -1.96473e-40
9.698894e-08 -0.00021247455 -0.0013192825 1.4146342e-05 -0.0037940494 1.5033901e-11 -6.5536945e-09 -0.06887016
6.460492e-08 -3.254172e-07 -7.079516e-10 1.3017086e-08 -0.009341053 3.0314802e-09 -0.0022071605 -3.481687e-14
-0.1450735 -8.671371e-08 -0.54274285 -0.12963717 2.2472336e-12 -4.1543817e-06 4.093844e-28 -0.008436581
-0.003278619 -0.00371117 2.3083647e-10 -7.3536836e-07 1.9246476e-05 -1.21662e-40 -2.601632e-08 -3.3847698e-09
-2.1920478e-08 8.003608e-09 1.6344441e-09 -0.0023303973 -2.2281763e-10 -1.18445e-40 -0.00018865473 -1.6999984e-05
-8.527508e-13 -2.2249465e-06 0.00030264704 -7.2727913e-09 -2.1269088e-06 4.6126752e-07 -5.941645e-10 -3.1663564e-08
3.2557274e-10 -1.1869614e-07 4.5297256e-06 -3.9828194e-09 3.085381e-07 -1.0249258e-08 4.6733555e-31 -7.617881e-09
-1.6705185e-06 -5.429254e-10 1.0278791e-37 -1.3075505e-08 3.5676076e-12 -1.0667752e-07 -5.5452777e-14 -0.00040412476
1.3294715e-06 -4.192575e-06 -1.5065107e-09 -0.006316328 -1.6098038e-08 -5.202128e-07 -1.0593085e-08 -5.1552324e-10
-0.098051175 -0.002373193 -1.6980814e-21 -0.00013302025 -6.4360833e-10 -2.0793661e-10 -2.4321465e-05 -0.4681941
-2.1989952e-09 1.5405855e-07 -2.0825807e-08 -0.021248668 2.4435139e-14 5.153249e-18 -0.104331605 -2.7014812e-08
4.973872e-07 -4.6621293e-14 8.136987e-07 -6.5753e-41 -0.021996792 6.9686444e-05 -6.0479155e-13 -6.327024e-06
-2.8417497e-09 -0.007864836 9.823655e-09 -0.0005078715 -1.2009633e-11 -0.0093889125 -5.223184e-07 1.7284665e-07
2.921871e-05 -0.06664023 3.731667e-14 8.1055546e-10 5.1593346e-14 -0.0049350252 1.7854742e-06 -9.134214e-09
00000000: 71fd 922d ea11 2835 8aca a8bb f053 26b5
00000010: 237c 44ae e8e0 782c a293 8eb9 628b 03b2
00000020: 6811 8136 1a6f 69ab e237 a1af b6e7 48b2
00000030: 6587 a2bd 78cc d2b6 b56c 61a2 9e20 64b2
00000040: e4ab be37 8875 b2b3 c99b f4b6 6429 fbac
00000050: 43dc 65b1 db3e 8e29 c202 fe32 be52 49a5
00000060: 4efe f334 a865 dca7 cf90 d3ae 6008 5135
00000070: 1eb0 9631 1775 78b2 c368 19bc 27bd 8b2e
00000080: 7b8a ceaf 60e8 beb5 e0dc 1635 5308 3abd
00000090: 270f 8b32 0abb 7cb5 9c09 a8bb 5b2d 21bc
000000a0: 4a1d 3fb5 8522 8bb1 6e92 35b5 302b 07bb
000000b0: 12a2 38b6 864a bfb2 a0c5 a530 ace7 1e38
000000c0: 59b5 f6bc 4af4 4f34 d6b5 9ca7 e202 5b9d
000000d0: f4ef 1935 713d 46bf f777 9db2 c07a a2aa
000000e0: 9dcb 0000 02dd 5cba 6257 c8ba 3ef8 272d
000000f0: 04a7 1fb5 43b7 9db6 9c32 8d2b 6944 db35
00000100: ea75 0e2c a337 a0b5 b1e8 3bbb 1a2a 3d9f
00000110: 68e1 4e9a 26c4 3a32 c5e2 8b37 cc63 4b2b
00000120: b072 5cb7 7cb2 90b4 34aa 5a35 99cf 04b7
00000130: 6cab 9a32 3a19 0200 16df 2736 bcd0 b0b1
00000140: 4c87 aab9 77f6 e6bc 9938 e925 e0de 69b2
00000150: 80ac aaa6 a210 dfb9 f956 3630 bd7a c529
00000160: 06c4 11b4 0968 e234 fda9 33b1 6ef9 0b34
00000170: d04a 9a2f a068 252d 0534 4136 f011 f0ba
00000180: 3da2 3eba 9d63 0080 b4b4 f42a 717f 9833
00000190: 7db1 83b4 5704 eb20 752d ddb4 f9e7 3c2f
000001a0: 711b 0200 c439 b931 cd1f dfbc e5d5 93b8
000001b0: c837 d5a8 5441 c52f 5ad3 9cb4 47af fabb
000001c0: 7bb1 8033 3854 19b4 b517 142f 5e54 c038
000001d0: 1a4f f22e 2c63 8134 82af 8b34 7895 50b0
000001e0: b567 01b2 639c 7b1d f527 0eb2 0776 782d
000001f0: f3b8 2f20 2356 32a5 741c 3f38 5f64 0000
00000200: 1857 80bd ce4f abbd d029 3b33 abcd 1f34
00000210: 98d4 a6ac 810e 192d f1c5 35b2 1b9f 9abb
00000220: f1e1 f033 8102 ee35 1da6 a42a 3c74 0135
00000230: 1c35 20b4 15a6 7ba8 4c05 96b3 b023 0280
00000240: 3c48 d033 b4cb 5eb9 c6eb acba 1456 6d37
00000250: 96a5 78bb 563d 842d e82e e1b1 cc0b 8dbd
00000260: eebc 8a33 00b5 aeb4 aa99 42b0 c0a1 5f32
00000270: 370b 19bc 5d52 5031 02a6 10bb 1ecd 1ca9
00000280: 268e 14be 5e37 bab3 32f1 0abf 9bbf 04be
00000290: 9022 1e2c de65 8bb6 35bd 0112 9639 0abc
000002a0: 19de 56bb 1a37 73bb b1ce 7d2f 2166 45b5
000002b0: 7e73 a137 2553 0180 7e7a dfb2 8099 68b1
000002c0: a44b bcb2 3e80 0932 e4a2 e030 94b9 18bb
000002d0: 96fd 74af 2d4a 0180 9ed1 45b9 309b 8eb7
000002e0: 2c07 70ab 4a50 15b6 99ac 9e39 26e4 f9b1
000002f0: 04bc 0eb6 20a4 f734 9c52 23b0 75fe 07b3
00000300: 4afc b22f e5e5 feb3 0cfe 9736 40d9 88b1
00000310: 27a5 a534 b714 30b2 b8a8 170d ccdf 02b2
00000320: 9436 e0b5 fb3c 15b0 5ce8 0b02 aea2 60b2
00000330: 4e0c 7b2c 9616 e5b3 b3bc 79a9 b5e0 d3b9
00000340: 4b70 b235 f2ad 8cb6 a20d cfb0 33f9 cebb
00000350: f647 8ab2 c0a4 0bb5 e1fc 35b2 b9b4 0db0
00000360: 0ecf c8bd 9287 1bbb ac4d 009d 5a7b 0bb9
00000370: e9e9 30b0 f4a0 64af f305 ccb7 23b7 efbe
00000380: 221d 17b1 4b6b 2534 6fe4 b2b2 b011 aebc
00000390: 9817 dc28 101f be22 cfab d5bd 330e e8b2
000003a0: 3084 0535 b1f6 51a9 f36c 5a35 4bb7 0080
000003b0: 9e32 b4bc a024 9238 d33b 2aab b94c d4b6
000003c0: 9748 43b1 83db 00bc e4c4 2832 ae22 05ba
000003d0: 9446 53ad f4d3 19bc 7235 0cb5 ba97 3934
000003e0: b41a f537 ac7a 88bd 310f 2829 c5cd 5e30
000003f0: 145b 6829 feb5 a1bb 6da4 ef35 b3ec 1cb2

action_heads.0.bias f4 [2]
-0.40375352 -0.0073996964
00000000: c8b8 cebe 2779 f2bb
