shanghai_road_delivery/results_centralized/centralized_episode_50.pth_centralized_actor.pth (torch, 922066 bytes, 20 tensors)

fc1.weight f4 [256, 364]
00000000: e45b cd33 5182 1cb5 a055 6335 1ed2 6335
00000010: 87e8 6335 0c98 6335 7d0e 3b80 eedc f000
00000020: d4bc a3aa 3d76 32a7 c466 5a25 b0b8 5333
00000030: 22fa 9530 585d 5bb4 0c64 2032 2272 9cb1
00000040: b8fa dd30 9f59 2700 e4a4 162f b463 15b1
00000050: 4c0e d433 ca0a 02b2 e0d1 b033 4029 83ad
00000060: 43e5 b2b0 f903 3700 c4e6 d4b0 51d1 7980
00000070: 3c58 92b0 fa6d 2221 582a 5f2c 0fa8 6980
00000080: 0d6b 2c2d 4e11 461b 4017 76b1 fc0a 9b1b
00000090: b91b 8030 f67d 6335 a028 2133 b43b 6335
000000a0: 40ed 13b3 1c5f 75b2 cc82 5ab2 e0fd b5af
000000b0: 56ad 12b3 a2c6 b0b2 c04a 78af 56d6 5932
000000c0: 9f42 a428 a102 6335 937a b780 717d 6335
000000d0: a246 a934 7ee8 10b5 f2f5 6235 6074 6335
000000e0: 1fea 6235 8c85 6635 cc27 5d27 f03d 9480
000000f0: 7146 f3a3 f551 3680 6a06 1227 8c45 ae33
00000100: b475 9dbb 4233 1f0f 42a0 f8b1 6bb5 38b1
00000110: f4b9 d631 1e59 2180 ee16 66b8 8689 23b1
00000120: 1e82 cb33 6882 0f01 ee2d bc33 16e3 1380
00000130: fc80 2031 4ee3 01ae a644 9cba a68c 98a9
00000140: fb26 9a32 d35f cea5 72a4 83ac 4671 46ad
00000150: 168e 92ac 487f 2000 bac2 c130 64b9 1880
00000160: 902c 6f30 fa31 6335 2360 80b2 47a2 6235
00000170: 69b7 e7b2 290c afb2 f932 89b2 ad73 16b2
00000180: b613 bbb2 2f9d afb2 a0bd d62f ac25 3031
00000190: 62df b534 cfa8 6235 695f 0480 c43a 6335
000001a0: 8bcb 0fb5 e982 d3b4 5711 6335 22eb 6335
000001b0: 2a79 6335 84b2 5a35 a896 5f18 57d2 b700
000001c0: 90c4 2500 ab23 fd90 3853 04a3 00d2 5233
000001d0: 1c96 cab3 b788 41aa 231a 1c32 6e45 35b1
000001e0: 82c4 e831 09bf 731a bc50 dd31 68ec 02b1
000001f0: f821 2b34 188c e237 e814 1134 aaae 6899
00000200: 7ba9 52b0 e229 0080 c6ba 3e30 ff52 a300
00000210: c032 d6af c86f aa81 6940 24b1 9261 0100
00000220: d28e 29ad 40ed 00ae 6a47 3431 00f5 9a1c
00000230: 5c0f 1b31 1cf1 6235 98b1 0732 4fe3 6235
00000240: feff 7fb3 bf15 9fb2 d853 3bb1 6821 2832
00000250: 2203 7db3 7038 6531 1301 83b2 49aa 97b2
00000260: 20b7 0434 4624 6335 2085 1a10 a067 6335
00000270: c8c7 64b4 9c03 a434 6900 6335 1b97 6235
00000280: 14f0 6235 ee88 6335 97d2 0731 b869 7280
00000290: 2163 2600 7d66 c100 2be2 5f2d 907f 3c33
000002a0: fea7 24b1 78d8 b20f 1d4d 1a32 11f7 95b1
000002b0: 7890 d930 e3c3 ad80 544d 8430 98fe 4bb0
000002c0: a8fc 7234 462c cdae a8b5 4434 0d25 0c00
000002d0: 1082 56af b179 c831 bc43 2ab5 9807 0980
000002e0: 7034 0b33 b6aa 0b00 0087 1d31 4e0a 0000
000002f0: 70c7 152c 02a2 4638 6672 76b1 4d40 b8ab
00000300: 9212 3231 c606 6335 e282 9c32 93ec 6235
00000310: 2992 efb3 38fe a7b2 3064 8ab2 d0cf c930
00000320: 6c91 dbb3 b897 5fb1 9128 87b2 c6ef 3732
00000330: 5055 0732 6a7b 6035 d6d9 a238 4041 6335
00000340: 921d af32 f32f c5b3 88ea 6235 d96a 6335
00000350: dd57 6335 6408 6435 be16 9bb7 e42d 3b80
00000360: 51c5 2c00 869c b89a 2aa3 519c 20e3 4333
00000370: 7466 d8b5 d82c b98f cb85 3232 2ef5 37b1
00000380: 0c69 1031 4145 f5a4 4456 60b7 8eb9 59b1
00000390: 8309 3534 7049 cda2 056f 04b2 203e 5380
000003a0: b609 2532 3c54 a0a8 7de2 9639 c457 bfb7
000003b0: 0b78 e6b2 914d 6b00 2a6f c430 7827 10b4
000003c0: 5ff6 9fac c270 bb19 f613 8f2d acf8 0201
000003d0: 9d95 9631 a27f 6235 ce8e 0833 7a3e 6335
000003e0: 8fb0 07b2 b013 aab2 7c54 41b2 1885 2a32
000003f0: 7fdb 06b3 8ab4 acb2 b060 e4b0 cd06 6232
9.562771e-08 -5.8304164e-07 8.468869e-07 8.486985e-07 8.490246e-07 8.4785347e-07 -5.423492e-39 2.2119774e-38
-2.9085642e-13 -2.476656e-15 1.8943304e-16 4.9295238e-08 1.0912269e-09 -2.0429923e-07 9.335974e-09 -4.553173e-09
1.6151125e-09 3.613734e-39 1.3701001e-10 -2.1739028e-09 9.87462e-08 -7.569449e-09 8.233815e-08 -1.4911294e-11
-1.3016365e-09 5.052377e-39 -1.5490618e-09 -1.1187184e-38 -1.0647976e-09 5.503329e-19 3.1713712e-12 -9.703015e-39
9.800838e-12 1.6383768e-22 -3.5810928e-09 2.5649697e-22 9.321105e-10 8.4747387e-07 3.7522682e-08 8.465097e-07
-3.4441882e-08 -1.4282502e-08 -1.271901e-08 -3.3104097e-10 -3.4150922e-08 -2.0579424e-08 -2.2582025e-10 1.2679797e-08
1.823655e-14 8.4567915e-07 -1.6849867e-38 8.474663e-07 3.1530095e-07 -5.39825e-07 8.454946e-07 8.473344e-07
8.453225e-07 8.5876013e-07 3.0691485e-15 -1.3613872e-38 -2.6375946e-17 -4.988517e-39 2.0265047e-15 8.115157e-08
-0.004805291 7.849177e-30 -7.235969e-09 -2.6878648e-09 6.24936e-09 -3.06254e-39 -5.4857628e-05 -2.3797795e-09
9.476592e-08 2.6358514e-38 8.762787e-08 -1.826338e-39 2.3356383e-09 -2.953309e-11 -0.0011922314 -6.7745546e-14
1.7945686e-08 -3.5800237e-16 -3.741501e-12 -1.1280149e-11 -4.1653443e-12 2.984396e-39 1.4097943e-09 -2.270558e-39
8.701102e-10 8.4636815e-07 -1.494488e-08 8.4427705e-07 -2.6975345e-08 -2.0378211e-08 -1.5972079e-08 -8.757451e-09
-2.1778629e-08 -2.044416e-08 3.906111e-10 2.5632785e-09 3.387641e-07 8.443721e-07 -4.01569e-40 8.4649605e-07
-5.3567845e-07 -3.9397062e-07 8.458932e-07 8.4906253e-07 8.4740407e-07 8.1471103e-07 2.8898136e-24 1.6881352e-38
3.468427e-39 -9.984586e-29 -7.173357e-18 4.908543e-08 -9.433663e-08 -1.7189276e-13 9.086338e-09 -2.6378433e-09
6.774429e-09 5.040554e-23 6.441125e-09 -1.9051871e-09 1.5937974e-07 2.7006536e-05 1.3511783e-07 -1.2029392e-23
-7.66384e-10 -1.5025e-41 6.938702e-10 1.4998959e-38 -3.8962433e-10 -6.2608536e-38 -2.3901754e-09 1.26837e-40
-9.63825e-12 -2.931455e-11 2.6234042e-09 1.0254196e-21 2.25642e-09 8.454242e-07 7.898414e-09 8.452234e-07
-5.9604638e-08 -1.8519925e-08 -2.7259741e-09 9.786483e-09 -5.8909002e-08 3.3355967e-09 -1.5250896e-08 -1.765615e-08
1.2360078e-07 8.4616875e-07 3.04737e-29 8.4714884e-07 -2.1306835e-07 3.0550007e-07 8.4564687e-07 8.441145e-07
8.454092e-07 8.476335e-07 1.9764792e-09 -1.0507171e-38 3.52531e-39 1.7761017e-38 1.2726302e-11 4.388818e-08
-2.3960633e-09 1.7635536e-29 8.981513e-09 -4.364559e-09 1.5829889e-09 -1.5957812e-38 9.626242e-10 -7.421277e-10
2.2629922e-07 -9.330185e-11 1.8320009e-07 1.115317e-39 -1.9509394e-10 5.834601e-09 -6.34285e-07 -8.29244e-40
3.241115e-08 1.07143e-39 2.2923246e-09 3.697e-42 2.1284884e-12 4.735776e-05 -3.586274e-09 -1.3091833e-12
2.5912965e-09 8.4573946e-07 1.8220309e-08 8.453582e-07 -1.1155891e-07 -1.9556964e-08 -1.6110874e-08 1.4683739e-09
-1.0224434e-07 -3.2537013e-09 -1.5734516e-08 1.070652e-08 7.877432e-09 8.3626094e-07 7.765337e-05 8.465904e-07
2.0386128e-08 -9.182249e-08 8.453285e-07 8.4719574e-07 8.469195e-07 8.494883e-07 -1.848803e-05 -5.434757e-39
4.111546e-39 -7.6353494e-23 -6.9363184e-22 4.5608544e-08 -1.6123072e-06 -1.8259682e-29 1.0391385e-08 -2.6769373e-09
2.101447e-09 -1.06369134e-16 -1.3371526e-05 -3.1683132e-09 1.6860399e-07 -5.5643116e-18 -7.708654e-09 -7.644632e-39
9.606472e-09 -1.78001e-14 0.00028778976 -2.2809843e-05 -2.6830113e-08 9.854224e-39 1.4292472e-09 -1.3425404e-07
-4.5464045e-12 1.938089e-23 1.6266082e-11 2.4055642e-38 4.3825836e-09 8.437729e-07 3.1794848e-08 8.4655005e-07
-7.898179e-09 -1.9799558e-08 -1.1253288e-08 9.925564e-09 -3.1398937e-08 -2.0105535e-08 -1.6616664e-09 1.3156478e-08

fc1.bias f4 [256]
00000000: f2fb 6235 a5f4 e13d abb2 98b8 3b3c 8339
00000010: 2836 f136 ac7d d936 5186 46b9 eaf5 59b1
00000020: 0b66 762e 1459 3038 b40b 6d3d 20a2 b8b4
00000030: 35ba 3bb8 c4c8 9abb 017f 0f35 dbaa be39
00000040: 9697 b7b6 7e00 723b ef8d 1d37 c682 98b9
00000050: c70c 4cbb 18a6 4638 33d8 1eb8 514b 223d
00000060: 801a 91b7 dcc8 c5b6 90b9 3d39 fa2c 0236
00000070: 1db9 92b5 144f 3eb2 1911 2339 c84f 2bb9
00000080: e008 9ab8 e679 3ab8 82e7 23b4 6a08 3438
00000090: b40f c237 3a0f a739 9ac6 98b7 8a85 0437
000000a0: 0af2 b037 c051 32bc 1cb1 15ba dcdf 773d
000000b0: 0695 c6b2 f806 0132 1231 14ba 0f16 9833
000000c0: 819a 8a38 7459 503a 38dc d634 1b7b 3838
000000d0: c560 9131 a43d 7eb3 8840 0e39 adbc c1b7
000000e0: be21 cf35 006c 4bb6 7758 8bb3 7f51 a1b5
000000f0: 1556 0a3c 7675 a5b6 7001 7b34 c4c6 cb38
00000100: 96a3 903d 3dcf 3d3d 906e 7bb4 fccb 05ba
00000110: 5be5 23b6 80dd 82b4 416a b533 4814 9eb3
00000120: bc9b 66b8 8130 9035 e2b5 33b3 befb a236
00000130: 001f ce38 e2da 3b33 ec0a 1736 c02b a1b1
00000140: b153 223d 37d2 adaf ce73 52ba 7cb0 2036
00000150: 314d debb 04ce deb4 e061 af34 c8d8 82ba
00000160: 4290 0832 9690 583c fa59 f436 5a33 8136
00000170: 2aae 58b7 0eec 69ab 8773 96b8 8bd1 9235
00000180: 41c2 92b7 33a9 86b4 1caf f1ba d08c 49b4
00000190: 80ec 8533 5cf7 153a 8e05 ab35 4b01 94b8
000001a0: dc85 7eb8 6385 b537 7b5e 2836 0a8a 8e38
000001b0: ce18 8bb7 38cd 843c b08d b3b6 5451 3bb4
000001c0: 1584 81b5 84c1 9dba 290e 8f3d 601f d1b4
000001d0: 956e 0bb3 03e3 07af 0ac8 cb36 740c 17b7
000001e0: 9c70 7b33 0665 ce34 e015 08b6 e276 66b3
000001f0: 8e4c 0132 e64c 56b6 fe36 04ba 15a1 153a
00000200: 3e1b 0baf 7bc4 53b6 a2cb 82b4 6e27 4039
00000210: 4c2d e13a c9d7 0db3 547d dc35 48f7 b5b5
00000220: a8a9 f230 5670 ccba e8ea 1c31 a7c2 7b38
00000230: 52a8 05ad c42d b638 6eea 413c f55c 0032
00000240: 748b 1b32 b899 ff34 3a3a 03b3 34db 6a35
00000250: f11c 45b5 c4cc 9d30 436b 70af 4de2 80ba
00000260: 1331 e83b 782d 5bb2 ef2e 0c36 902e 3137
00000270: 0084 2fb4 1f17 0138 90e8 a3b3 0e2f 052f
00000280: d497 15b8 394f 70ad 9d3e 8f36 3362 ce39
00000290: 7fd4 3cb9 3fcd 1936 e475 ef35 59c6 6535
000002a0: fc08 a83a a8bf ba35 de66 95b5 77ae 0836
000002b0: 1e53 9ab6 e832 8637 6d8c 08b4 ae6d 8eb8
000002c0: 30de 5931 0019 ab34 b5d8 6bb9 752e 00b3
000002d0: de9c 7c3b 512a 803b d862 eeb7 0427 db35
000002e0: d1f7 0b36 ea54 80b3 2e99 0835 0a29 7db7
000002f0: ac32 8138 767a b9b7 dc62 81ba a217 1d38
00000300: 343c 0fb5 4078 66b8 b48d a1b6 f298 08be
00000310: 0c34 263d 26eb 3c36 88f3 2937 07fa ae36
00000320: 1870 5fb1 5ee3 beb7 d3c1 822e 8996 aa38
00000330: c830 db32 33a9 63b5 6ca6 89b8 b834 37b7
00000340: eec4 5f3d 8aeb 9034 5b5c 7837 fa24 37b1
00000350: c4fd 6cb2 01c8 edb4 acc3 d4a7 ce41 07b7
00000360: 24c5 d6b7 787d b3b6 c77c fc3b 2db5 c5b2
00000370: 2899 02b6 e072 3036 32a5 3a3a 134e 0eb6
00000380: aac2 be3a 396e 23ba a162 d532 bcb0 c237
00000390: d086 5c37 c8b8 87b7 0047 2235 c957 4b38
000003a0: 7286 5ab4 a505 46b6 ec6a 5cb7 eb61 f93c
000003b0: 8928 26b6 d4c3 d3b6 4f80 6836 a5d0 9035
000003c0: 4a69 6bb5 1e49 52b4 006b f4b5 1a51 b137
000003d0: 1fe8 21b6 7d6f bfb8 3851 b938 5261 0cb9
000003e0: 60f8 313a 0066 7335 d99c 6638 2090 7bb6
000003f0: d8ae 9cb6 7ec3 16b3 7078 88ba a8c0 1438
8.455819e-07 0.1103299 -7.281204e-05 0.00025031142 7.1886643e-06 6.481734e-06 -0.00018932788 -3.1717442e-09
5.6024557e-11 4.204463e-05 0.05787249 -3.4390632e-07 -4.4757693e-05 -0.00472364 5.3456466e-07 0.0003636692
-5.471472e-06 0.0036926563 9.390976e-06 -0.00029089133 -0.0031135546 4.7361566e-05 -3.7871487e-05 0.03962261
-1.7297687e-05 -5.8944406e-06 0.00018093572 1.939769e-06 -1.0931723e-06 -1.1077436e-08 0.00015551261 -0.00016337552
-7.344945e-05 -4.4459382e-05 -1.526478e-07 4.292318e-05 2.3133915e-05 0.00031864067 -1.8212293e-05 7.898905e-06
2.1093543e-05 -0.0108837485 -0.000571029 0.060516223 -2.3118002e-08 7.510373e-09 -0.0005653064 7.082064e-08
6.6091314e-05 0.00079479 4.0020836e-07 4.398367e-05 4.231057e-09 -5.9195045e-08 0.00013566215 -2.3095252e-05
1.5432522e-06 -3.0312221e-06 -6.4887836e-08 -1.2019153e-06 0.008443375 -4.9310574e-06 2.337672e-07 9.716817e-05
0.070624515 0.046340216 -2.3416419e-07 -0.00051039434 -2.4422395e-06 -2.437555e-07 8.447797e-08 -7.3611375e-08
-5.4981312e-05 1.0742953e-06 -4.1842107e-08 4.857283e-06 9.82862e-05 4.3738403e-08 2.250711e-06 -4.6906905e-09
0.039630596 -3.1617883e-10 -0.00080281205 2.3944585e-06 -0.0067841043 -4.1500618e-07 3.2667504e-07 -0.0009982819
7.949042e-09 0.013218066 7.2822413e-06 3.8504777e-06 -1.2915154e-05 -8.310582e-13 -7.174076e-05 1.0938833e-06
-1.7495013e-05 -2.5082554e-07 -0.0018439027 -1.8770811e-07 6.236314e-08 0.00057207583 1.274211e-06 -7.057431e-05
-6.0682985e-05 2.1638994e-05 2.5088946e-06 6.7967994e-05 -1.6581642e-05 0.016211137 -5.3511103e-06 -1.7445319e-07
-9.64969e-07 -0.0012035822 0.06985123 -3.8952112e-07 -3.2464033e-08 -1.2358829e-10 6.073159e-06 -9.003201e-06
5.854291e-08 3.8443994e-07 -2.0278312e-06 -5.365917e-08 7.526195e-09 -3.1933246e-06 -0.0005043595 0.0005707902
-1.2651655e-10 -3.1555817e-06 -2.436255e-07 0.00018325236 0.0017179637 -3.3025376e-08 1.6427753e-06 -1.3557519e-06
1.7656037e-09 -0.0015597444 2.2834516e-09 6.0024347e-05 -7.597549e-12 8.686961e-05 0.011835678 7.471717e-09
9.053895e-09 4.7609296e-07 -3.055377e-08 8.7490776e-07 -7.3430334e-07 1.1481451e-09 -2.186598e-10 -0.0009833068
0.007085928 -1.2757816e-08 2.0888945e-06 1.0560863e-05 -1.6346166e-07 3.077753e-05 -7.632582e-08 1.2112997e-10
-3.566577e-05 -1.36600115e-11 4.2690212e-06 0.00039364546 -0.00018008238 2.2918246e-06 1.7841198e-06 8.559778e-07
0.001282006 1.3913859e-06 -1.1131303e-06 2.036713e-06 -4.5992338e-06 1.599775e-05 -1.2717074e-07 -6.791517e-05
3.1703955e-09 3.1869422e-07 -0.00022492076 -2.9844575e-08 0.0038545649 0.0039112945 -2.8417839e-05 1.6328127e-06
2.0856862e-06 -5.97591e-08 5.0886854e-07 -1.508953e-05 6.160638e-05 -2.2110744e-05 -0.0009871381 3.7453727e-05
-5.335926e-07 -5.4948265e-05 -4.8146703e-06 -0.13339594 0.04057698 2.8151057e-06 1.01298865e-05 5.214711e-06
-3.2514489e-09 -2.2755641e-05 5.946146e-11 8.134271e-05 2.5517139e-08 -8.4810307e-07 -6.5636676e-05 -1.09199245e-05
0.054631166 2.6993467e-07 1.4803455e-05 -2.6651024e-09 -1.3794708e-08 -4.4290212e-07 -5.905397e-15 -8.061948e-06
-2.5602589e-05 -5.349222e-06 0.0077053043 -2.3016208e-08 -1.9460658e-06 2.629291e-06 0.0007119953 -2.1205094e-06
0.0014553864 -0.0006234381 2.4841315e-08 2.32089e-05 1.314441e-05 -1.61793e-05 6.045302e-07 4.8480728e-05
-2.0351743e-07 -2.9507585e-06 -1.31379165e-05 0.030442199 -2.4759522e-06 -6.3110874e-06 3.464538e-06 1.078956e-06
-8.769754e-07 -1.9584374e-07 -1.8210558e-06 2.113781e-05 -2.4125982e-06 -9.128356e-05 8.8366156e-05 -0.00013387695
0.0006789025 9.0672984e-07 5.498235e-05 -3.7485806e-06 -4.669517e-06 -3.5102396e-08 -0.001041187 3.5465375e-05

fc2.weight f4 [256, 256]
00000000: 8988 202e a547 193b 12da 87af 9953 1430
00000010: 5641 51b3 212e 7530 804f 5730 b03d 0ea9
00000020: 5041 2129 7b4c 8aae 69e1 0a37 0078 e5ab
00000030: 962d 512d 048b e6b4 4e8a c5ad adad 5f33
00000040: 9574 cab1 db2e ae36 5090 5ab0 a4cf 82b4
00000050: 751c 4334 7eba 2b35 939c 0ab0 48d4 95b7
00000060: dc6c 35ae fb16 af2a ae6b 9d31 efd3 a531
00000070: 9c70 1c2e 927e 06ae a9fb 28b6 e0ab 9c30
00000080: 7f5e ff33 b5cb dd30 3bb4 5d27 62c9 0bb4
00000090: a30c 9b31 c178 0a33 4eaa 3034 39a8 bc31
000000a0: c24a 922f ba53 3a36 7ac0 cfb4 362d 8938
000000b0: c04e c126 68de 5a29 f121 59b4 7644 73ad
000000c0: aa09 c334 31e1 8432 be80 a4ad 4dac b9b3
000000d0: d32f 132c d572 a428 fff0 0436 7335 99af
000000e0: 1c84 f32d e248 5fb5 ea30 c0ac fd0d 322d
000000f0: 5ab8 f835 e0ab 27af 8814 3fb1 88fd 3136
00000100: f0c6 7339 4919 0e35 4970 92b0 c927 e831
00000110: 6c5b 3a31 26f2 992e 30c1 fb2d 08da ed29
00000120: 0630 342f d438 92ae c04b 7dad dd37 ee2c
00000130: 2850 d5b2 a91b e12b a31c 7f30 d9bb 402d
00000140: 4d65 9bb6 936d 662a fcae 0fb4 4bd9 b32e
00000150: 9424 93b2 0909 2f2f a683 602f 2723 2e35
00000160: a7a4 16ac 361f 1937 a230 b0b1 7559 1c30
00000170: c33d e32e cd63 4da1 5e80 19b0 9ab9 0faf
00000180: 0737 c9b0 5a98 deab aefb 8933 09c9 4aae
00000190: 018a ab2d 0e9b 92b5 5f86 1130 4249 f933
000001a0: e554 cdb2 5a0b 2eb1 f88f e1ac a67c 3834
000001b0: d5b3 0a2f 57ce 4137 12ab 67b2 23a8 0bae
000001c0: f56d d72f e0e6 c238 dc28 67ba d2bf e22f
000001d0: 76ab 222d 87e3 50a9 942c dbb0 e7c5 0aaf
000001e0: 2db5 7daf 6680 de2c 6f5b 86ae b47f e02d
000001f0: 430a 642b 57ea 0531 a84b f2b4 2b46 0637
00000200: 4997 8aaa 8215 10af 6839 65ae eef8 09b2
00000210: c487 d938 009e 0529 808c 25b0 b344 e12e
00000220: 6418 ad2b d058 86b4 c3af b0ac 46cd de33
00000230: 1346 2025 8897 07af c543 b435 4402 faad
00000240: f481 7eac 289e 832c c3b7 8aac 7306 efaf
00000250: ca20 99ae be54 7b29 7656 c727 a866 1434
00000260: df8c 4bb4 c63e bb30 1af6 cfb2 53b9 e02b
00000270: e4c3 4caf a158 99b2 8acd 98ae ea1a a628
00000280: d0f4 79ae ecb5 d3a6 24f3 0cad 43d9 6fb2
00000290: eaf9 2c33 d03f 1faf 2268 8baf c3ea 7c2e
000002a0: 5f7f ed35 ac0c 1cae 4e05 122d 98ee b9ad
000002b0: 0d7e 122b 3b88 64ae 8e1d 7fae accf 0132
000002c0: 8dde 972a 63b9 5c32 6511 82b0 acf7 452a
000002d0: 2bec b337 40c0 28b7 2cc4 5fad 2822 842d
000002e0: a99b 662f c0e5 ebab 9345 34ae 28b2 10b0
000002f0: 6c93 5bb0 0447 4433 4836 9e34 5d06 18b1
00000300: 7da2 dfab 3850 5633 a62a 922f d5f3 93b8
00000310: c258 2eb9 8a0a 632f 3256 5c31 0252 6bb0
00000320: 21f8 9d2a c2ca 8fae 9429 4924 097c c3b3
00000330: fe32 ccaa 57bd 4a2d c470 e9b1 5005 d1b0
00000340: e5b0 8aba 7c2e dfad fd72 3f31 6866 b2ab
00000350: e264 822e 187b fab1 295a c1a1 881e 0eb3
00000360: 8a84 c0b2 aac2 74b0 9afc 18b5 9dad c52a
00000370: 9be6 e82c 8a50 682f 2308 0733 4996 2b30
00000380: f96d 8233 80ac 4731 2605 51aa 1d3b 1f32
00000390: e9ad cd2d b828 e4ae 38fc a0b0 af90 e5b3
000003a0: b601 592b 1c49 a4ab d31f 3cb1 9c31 8438
000003b0: 64e0 172f 99f1 6532 8c66 ea2f a21d 91b0
000003c0: 4e39 0130 b7f9 a42e f8a4 c9b1 5fff aab2
000003d0: 220e 2d31 1050 3e2e f4d1 c236 e109 a433
000003e0: afab 8736 0c4d 0b2f a2d5 96ac 89b3 cead
000003f0: 4ada 28b1 f105 882a 1967 8332 531b c031
3.6501056e-11 0.002338865 -2.4711305e-10 5.3960886e-10 -4.8721027e-08 8.9196034e-10 7.832952e-10 -3.158384e-14
3.580583e-14 -6.289099e-11 8.277923e-06 -1.6304735e-12 1.1890397e-11 -4.2941986e-07 -2.2457727e-11 5.207919e-08
-5.8922276e-09 5.191059e-06 -7.951302e-10 -2.4365465e-07 1.8171143e-07 6.3973846e-07 -5.0426613e-10 -1.7861035e-05
-4.1251322e-11 3.110219e-13 4.581543e-09 4.826226e-09 3.557031e-11 -3.058049e-11 -2.5180436e-06 1.1399344e-09
1.18915516e-07 1.6137763e-09 3.0767614e-15 -1.3018646e-07 4.5125303e-09 3.2240454e-08 1.6453234e-07 5.490645e-09
2.6610364e-10 2.7764895e-06 -3.86968e-07 6.54109e-05 1.341341e-15 4.859863e-14 -2.0222048e-07 -1.3828152e-11
3.6328612e-07 1.5469228e-08 -1.8701814e-11 -8.646075e-08 2.0916504e-12 1.8257458e-14 1.980981e-06 -2.7868516e-10
2.768457e-11 -8.318003e-07 -5.4623988e-12 1.0121235e-11 1.8531093e-06 -1.5249624e-10 -2.7805829e-09 2.652263e-06
0.00023248396 5.2935917e-07 -1.0654811e-09 6.7566117e-09 2.711853e-09 7.000649e-11 2.8621189e-11 1.0562737e-13
1.6387966e-10 -6.649406e-11 -1.4398205e-11 6.770569e-12 -2.4832914e-08 1.5994889e-12 9.2809155e-10 1.0955647e-11
-4.631153e-06 2.046612e-13 -1.3381572e-07 8.1785766e-11 -1.7129686e-08 1.5919367e-10 2.0419452e-10 6.4871205e-07
-2.1407682e-12 9.1267775e-06 -5.127803e-09 5.6879595e-10 1.0333736e-10 -6.9588787e-19 -5.5843496e-10 -1.3071713e-10
-1.4640315e-09 -1.5816335e-12 6.42534e-08 -4.6108038e-11 1.9501735e-11 -1.0922975e-06 5.2941646e-10 1.16082916e-07
-2.3903747e-08 -2.5326785e-09 -6.4108684e-12 1.7181682e-07 1.2614916e-10 1.1551739e-05 -1.3484867e-08 -3.1754276e-11
3.91864e-10 9.293645e-05 -0.0008818039 4.1245457e-10 9.246706e-12 -4.6382626e-14 -1.5947017e-09 -1.2621336e-10
-2.3074583e-10 6.3238746e-12 -6.1098564e-11 2.5522563e-11 8.1016113e-13 1.9487254e-09 -4.513106e-07 8.00336e-06
-2.46187e-13 -1.3104365e-10 -5.211956e-11 -8.03105e-09 0.00010372655 2.9668976e-14 -6.0226313e-10 1.0244019e-10
1.2299159e-12 -2.5024065e-07 -5.0217343e-12 1.03750196e-07 1.390153e-16 -1.2332013e-10 1.3430769e-06 -2.8422716e-11
-3.616771e-12 3.740803e-12 -3.9425976e-12 -4.347843e-10 -6.963459e-11 5.5806698e-14 5.5327337e-15 1.382092e-07
-1.8957097e-07 1.3623882e-09 -2.4209886e-08 1.5967595e-12 -1.8623286e-10 -1.7851848e-08 -6.948671e-11 1.8441374e-14
-5.6833482e-11 -1.4690376e-15 -8.012067e-12 -1.39610306e-08 4.0274166e-08 -1.4483637e-10 -2.5357944e-10 5.7506677e-11
1.7694946e-06 -3.5481548e-11 8.300317e-12 -2.1138022e-11 5.204455e-13 -5.1962195e-11 -5.8006537e-11 7.556007e-09
2.6977414e-13 1.28478375e-08 -9.463689e-10 1.7583043e-13 2.1448437e-05 -1.0058342e-05 -1.2719641e-11 1.5021831e-11
2.097368e-10 -1.6761523e-12 -4.0989056e-11 -5.264007e-10 -7.9881235e-10 4.5699394e-08 2.9469288e-07 -2.2122528e-09
-1.5890203e-12 4.9898716e-08 2.658755e-10 -7.0549235e-05 -0.00016626998 2.0649274e-10 3.206321e-09 -8.560904e-10
2.8060976e-13 -6.538904e-11 4.3620145e-17 -9.102957e-08 -3.6273062e-13 1.15244125e-11 -6.7940125e-09 -1.5208261e-09
-0.0010581283 -2.5372808e-11 2.7859521e-09 -1.2676084e-12 5.929636e-11 -7.2899518e-09 -1.3102054e-18 -3.308972e-08
-2.2412014e-08 -8.9043317e-10 -5.6991996e-07 3.5114698e-13 6.619439e-12 2.112889e-10 3.1439537e-08 6.2423006e-10
6.0736006e-08 2.9056366e-09 -1.8564715e-13 9.268459e-09 2.3383033e-11 -1.0375473e-10 -1.1713217e-09 -1.0689961e-07
7.709626e-13 -1.1673193e-12 -2.737569e-09 6.303491e-05 1.381309e-10 1.3384487e-08 4.2637216e-10 -1.0558561e-09
4.701136e-10 7.502215e-11 -5.8686247e-09 -1.9906734e-08 2.5182847e-09 4.3272108e-11 5.8060923e-06 7.638642e-08
4.0433e-06 1.2669349e-10 -4.2869744e-12 -2.3499218e-11 -2.45713e-09 2.4162576e-13 1.529729e-08 5.591042e-09

fc2.bias f4 [256]
00000000: 4cd1 5d38 0ea9 c737 905d 9c33 63f6 3d37
00000010: 8871 6e35 23b9 4eb5 94a7 8d37 783c b135
00000020: 738f 0534 5682 e338 ec7e 4e3d 0bcd c6b5
00000030: 1e9f 3a35 deaf 9236 5adb a8b0 78d6 5333
00000040: 1953 53b5 80f8 cc2f 1e34 9b36 f5e0 0136
00000050: f2d0 98ba cdd1 dcb1 fe28 b0b4 b7bb d9b2
00000060: 20b6 6333 fbc4 a2b4 5378 17b7 d247 713b
00000070: 2405 5a3e 6f06 033a a56f 95b6 d6fc f1b3
00000080: 9320 1bb8 0073 6b36 53b2 c7b2 80bc 0c37
00000090: f7fa cc32 9787 d33d bec5 ea2e 83f6 0334
000000a0: a215 2030 c07c 26b7 0280 3bb6 7024 3935
000000b0: a414 ca32 2f4d 093e 8ab3 3736 dcc9 d2b3
000000c0: 9ca0 083a 502f 1335 9df7 43b7 2447 8033
000000d0: 1eee 1831 3ad2 f1b6 d0bc f439 125e bd37
000000e0: 2ac0 42b4 91ed 3bb1 e108 d730 5238 3834
000000f0: dd15 acb7 5077 42b3 4020 89b5 792c 34b4
00000100: 0c93 0c3e 76ce 2431 8a7f 2f33 563a ed31
00000110: 146f 51ae fe53 93b6 6cd6 8933 a2f0 beb4
00000120: 6666 f0b6 567e 8eb4 4be4 a732 da4f 6eb7
00000130: fa84 5a33 2781 8538 df91 9fb2 b6a3 54b1
00000140: 0492 aab0 0237 2c38 2b23 dc33 3ef5 04b6
00000150: 3171 4635 55ea 5431 aabe 36b3 e292 9ab7
00000160: e8c6 5735 a2df 84b0 c81b c4b5 247d b2b1
00000170: f053 cdb3 b2d1 47b6 7885 23b0 bc48 0934
00000180: 97e8 94af 2c2d 3736 1bed 46b3 056a 5ab8
00000190: c76b 9f30 d361 333e ba19 aa35 c194 03b1
000001a0: 4ae1 7cb8 90f1 13b5 df49 0939 9741 91b4
000001b0: cf6b 2232 973d aeb7 8d70 afb5 ee96 dab3
000001c0: 3efd a5b6 9700 ba35 2af6 ac30 5974 8bb3
000001d0: 6e8a d5b6 27f0 c9b7 1f25 3a35 4086 69b6
000001e0: 2ee7 2936 d541 dab6 9801 c035 5c11 2f34
000001f0: eef4 b835 e8f6 c6b7 b7c9 d834 c266 4033
00000200: dd34 733d e4bb fc36 d031 1b34 e2d7 0034
00000210: fdfa ddb3 7795 46b4 f4c1 8238 79b4 42b7
00000220: 6ad4 37b2 0bfe d736 a412 1e34 fc20 1637
00000230: 8aa5 acb3 ef55 9f35 912d 4c37 0383 8236
00000240: 3b99 1e3e b830 0532 91ef 82b9 6a91 e234
00000250: d5f6 3cb3 f61d d53a 3944 9b33 88d9 32b0
00000260: 8a96 5f36 4bbc b033 38ca a833 f625 1338
00000270: 9371 7835 41e6 3b35 b8d1 7232 d6e2 e1b3
00000280: 4f28 14b7 e440 1035 7b0f 71af a629 bcb6
00000290: a201 62b3 8478 05b2 c03e 84b8 4995 2036
000002a0: 7cf1 7c33 487a 9bb4 d861 e9aa 5342 8b3d
000002b0: 24a5 51b3 1e06 5933 4ab4 6ab6 d42a 48b8
000002c0: 6955 09b9 57fa cfb4 4bb5 a437 7d4a 42b0
000002d0: d57a 96b5 611c 8833 e129 64b4 7929 c235
000002e0: 28a4 5335 9604 af37 cd07 a134 e7c0 9737
000002f0: 3827 a035 f096 06b9 f42d 55af b8c8 c1b4
00000300: ad55 06b8 60ee eeb1 4071 1634 8811 0db3
00000310: 3683 f830 f024 5d31 1cf0 8632 583d a035
00000320: 7ba3 112e 4692 9633 e891 cf3b 2e6f 7439
00000330: 8c05 ea33 1e13 03b5 e8f8 a835 5cfa f0b4
00000340: 75ff 7a37 0896 2cb7 4a2b 5736 aa46 93b6
00000350: d6f2 9ab9 d8d9 39b5 cdcf 1835 aa36 2bb8
00000360: 7cfc ad36 a8b2 0faf 1060 3335 4755 0eb6
00000370: a6b3 5f36 5ecf 85b4 c495 a5b6 1f30 9db2
00000380: 80c8 49b5 f1b5 3931 b468 50b7 65fb 4ab7
00000390: a055 b035 5ee9 5ab6 0885 cf34 927e baaf
000003a0: 178c f0b2 3b3f 7f30 93f9 2b33 6636 7a39
000003b0: c005 6533 6aac 10b5 45a8 c534 985a c9b6
000003c0: b4a5 a1b4 d0ea f5b2 909b ebb4 62cd d933
000003d0: 0fac 7834 fa59 f6b6 72bd 46b8 4013 ee33
000003e0: 1fd3 30b2 a606 fa32 a58c b736 7b83 aa35
000003f0: 4148 2c36 42bf d135 3038 cb35 6e97 8d38
5.288543e-05 2.380137e-05 7.281335e-08 1.1322644e-05 8.882712e-07 -7.701039e-07 1.6886544e-05 1.3205126e-06
1.2438777e-07 0.000108484805 0.05041401 -1.4811825e-06 6.9521946e-07 4.3716127e-06 -1.2285952e-09 4.9322324e-08
-7.872455e-07 3.7283954e-10 4.625427e-06 1.935344e-06 -0.001165895 -6.4266943e-09 -3.281238e-07 -2.5347488e-08
5.3018198e-08 -3.0318174e-07 -9.0283165e-06 0.003681649 0.21291023 0.0004998212 -4.453543e-06 -1.12684276e-07
-3.6985217e-05 3.5084668e-06 -2.3247742e-08 8.388539e-06 2.3862851e-08 0.10328596 1.0676214e-10 1.2290006e-07
5.8238403e-10 -9.923417e-06 -2.7939682e-06 6.8970894e-07 2.3525281e-08 0.1340835 2.737363e-06 -9.815605e-08
0.0005211921 5.4830616e-07 -1.1680558e-05 5.973405e-08 2.2254265e-09 -7.2068333e-06 0.00046679983 2.257436e-05
-1.8137567e-07 -2.7347122e-09 1.5645832e-09 1.7156825e-07 -2.0514179e-05 -4.527766e-08 -1.0216681e-06 -1.6779985e-07
0.13727969 2.39825e-09 4.086136e-08 6.90424e-09 -4.7619755e-11 -4.3907194e-06 6.418563e-08 -3.556534e-07
-7.164478e-06 -2.6541483e-07 1.9545174e-08 -1.4204497e-05 5.0878022e-08 6.365991e-05 -1.857637e-08 -3.094312e-09
-1.2410628e-09 4.1059226e-05 1.0250945e-07 -1.9812283e-06 7.3925463e-07 3.0983263e-09 -4.2548585e-08 -1.8426628e-05
8.038319e-07 -9.667824e-10 -1.4611223e-06 -5.1947087e-09 -9.5613245e-08 -2.977537e-06 -5.9488725e-10 1.278558e-07
-2.7086308e-10 2.7295418e-06 -4.6316114e-08 -5.207399e-05 1.1599405e-09 0.17517786 1.2673474e-06 -1.9147566e-09
-6.02913e-05 -5.5113287e-07 0.00013092857 -2.7056078e-07 9.454154e-09 -2.0771096e-05 -1.3071273e-06 -1.017887e-07
-4.9468645e-06 1.3858252e-06 1.2584611e-09 -6.4938554e-08 -6.36401e-06 -2.4072897e-05 6.934442e-07 -3.479785e-06
2.5317527e-06 -6.50457e-06 1.4305579e-06 1.630446e-07 1.3780352e-06 -2.3718414e-05 4.0379902e-07 4.479694e-08
0.059376586 7.5320586e-06 1.4453622e-07 1.1999467e-07 -1.0336769e-07 -1.8494562e-07 6.23501e-05 -1.1605321e-05
-1.0700299e-08 6.437074e-06 1.4721678e-07 8.9483765e-06 -8.0394855e-08 1.1871433e-06 1.2169957e-05 3.8895537e-06
0.1548814 7.752696e-09 -0.00024974023 4.2201583e-07 -4.3996653e-08 0.0016259539 7.2301596e-08 -6.5065153e-10
3.3317215e-06 8.229889e-08 7.859893e-08 3.5082885e-05 9.255247e-07 6.999799e-07 1.41339385e-08 -1.051864e-07
-8.8308725e-06 5.373861e-07 -2.1924322e-10 -5.607685e-06 -5.262121e-08 -7.769021e-09 -6.3059386e-05 2.3928753e-06
5.889295e-08 -2.895997e-07 -4.1457007e-13 0.0679976 -4.88118e-08 5.0529813e-08 -3.497366e-06 -4.7723603e-05
-0.00013097156 -3.87389e-07 1.9634745e-05 -7.0682643e-10 -1.121162e-06 6.3381556e-08 -2.124939e-07 1.4466196e-06
7.8842504e-07 2.0863761e-05 2.9994263e-07 1.809043e-05 1.1932343e-06 -0.00012835464 -1.9388563e-10 -3.6095093e-07
-3.202788e-05 -6.9538117e-09 1.4011039e-07 -3.2845065e-08 1.8081667e-09 3.218073e-09 1.5708842e-08 1.1938782e-06
3.3114383e-11 7.011526e-08 0.006334532 0.00023311071 1.0897483e-07 -4.882912e-07 1.2589417e-06 -4.4885644e-07
1.4960639e-05 -1.0286931e-05 3.2062694e-06 -4.3891678e-06 -0.00029554096 -6.9234875e-07 5.69268e-07 -4.0820487e-05
5.185195e-06 -1.3069246e-10 6.6822486e-07 -2.1209287e-06 3.3334159e-06 -2.492406e-07 -4.934818e-06 -1.8299088e-08
-7.51701e-07 2.7024465e-09 -1.2422144e-05 -1.2098671e-05 1.3137942e-06 -3.262037e-06 3.8653548e-07 -3.3923137e-10
-2.8003383e-08 9.2858315e-10 4.0041026e-08 0.00023862123 5.3323447e-08 -5.3895076e-07 3.6816542e-07 -6.0008133e-06
-3.0109152e-07 -2.8628534e-08 -4.3885348e-07 1.0142209e-07 2.3159394e-07 -7.341846e-06 -4.7383313e-05 1.108624e-07
-1.0292552e-08 2.9106854e-08 5.470198e-06 1.2704253e-06 2.5672055e-06 1.5627377e-06 1.5141031e-06 6.75161e-05

fc3.weight f4 [256, 256]
00000000: 704c 5b2e 7c0a 872e 90ab 882b ace7 6f31
00000010: 4002 e9ac 0e5a a12b 52d7 bcb3 6ce6 212e
00000020: f0f6 ee2b 824a 1032 68a0 8636 0e5a 992e
00000030: c139 4631 43e2 f92e c418 0426 783c e42c
00000040: 8f8e 3bb0 7cf8 1a27 7e1b f530 d37a 712c
00000050: 72ef 1834 3fc1 82aa 6ba8 bcad f607 1e2d
00000060: ab30 912e 1ead ef2b a030 88ad 3d86 bc30
00000070: e03f 6a37 94b1 dcb2 9b52 50b0 be28 92ae
00000080: 6ba6 942f 222a d92f f309 a1a8 ce2f 53b2
00000090: e911 812d 991e 8db7 cf86 38a7 d063 832a
000000a0: 0f75 1aa9 a660 5f2b aea8 90b0 a014 f72e
000000b0: 7d77 3f2f 6db5 0036 50fc 22ae 0488 44ad
000000c0: 62c4 0030 bfa4 502e d050 99a9 28f4 542e
000000d0: 14c4 332b 026f 8db3 2a9a 09b4 d238 292e
000000e0: be86 b7ab 8f0f 2c2b 6aa9 2029 88ef 24ad
000000f0: 00fe 89b0 4846 15ac bcae f8b8 08d3 fd2a
00000100: c001 83b7 0d3b 0329 b6b9 572a b7f1 fa28
00000110: 7352 3228 34cf 16ae 10b6 df2a ba73 a930
00000120: fc69 f8b1 3454 952f ec6b 03ac 9536 0cb0
00000130: 2d6b ca2b 291a 8aaf ce9f a62c b635 3bac
00000140: 671d 58aa 6f98 f1b0 f013 3bb1 0293 f4ae
00000150: 1e55 c02f b3a6 1a2a a983 c5ab 7dda de2e
00000160: e1f9 812f 6054 94aa cade bb2d 7c8c 6e2e
00000170: 48fe 17af bec7 bb2e f060 f72a 3cbd 9aad
00000180: 0d68 1f2c aa11 c02f f786 fd2e f9c1 2e30
00000190: f8c3 d329 5e2b 6ab7 a4fa c1ae 084c 502a
000001a0: ad4b 1eaf 3ca2 b7ad 0c48 99ab 55f7 a62c
000001b0: 4930 2b2b 600b 0732 ccfa 0b2f eeca 1a2d
000001c0: 7488 b32e a093 52ac a55c 24a9 712d 402c
000001d0: 77dc 22a9 5ee8 df2a c0f5 41af 2179 0319
000001e0: b474 e1af e37d 0d2b aff2 0a2e d647 9c2d
000001f0: c1b1 792c f8a6 9ab2 d252 33ad affe 282b
00000200: c8ab 56b8 d94e 2f2b 8098 12ae 7336 c42d
00000210: c315 4d2d c054 702c f003 1e2f 39a5 9c2d
00000220: cfff ec29 fa4d a4b0 38fb 28ae 92e0 c3b0
00000230: e4c7 b52f 14a4 e92b 81a3 c3b0 09d7 cc2d
00000240: b5fc 9db7 6ffe 87aa af29 e42f b9a6 a62e
00000250: 3aef f92d 6274 00b3 ec75 4bab 5aac b828
00000260: 4204 782b 0839 d5ac 6537 eb30 6037 5231
00000270: 26d0 612e c296 00b2 2349 6f2d 12ec 192b
00000280: 780d 0d2f b0da 0c2c c6b6 ccab fac4 e92d
00000290: a0d6 8eac 89ed 0324 c164 1030 4863 4caf
000002a0: d80d a529 fb60 e0b0 a36f a926 806a a3b5
000002b0: 9246 592e ca8d 702c 6840 e82e 90c2 82ae
000002c0: 8ee4 0931 9420 4130 b633 04b0 2356 2d2b
000002d0: 2a46 4db1 c464 162a 4f1f 48ac db53 32af
000002e0: a271 64ad 9ce8 8a2c a517 9d30 71be 10b2
000002f0: b11f 2b2e f0e6 4330 8e47 402c 7869 abaf
00000300: 1576 822f c02b a92b 32c3 302e 66be 532e
00000310: d70b 7bab 61db 252d b6f1 ce29 5b99 1830
00000320: 1cd8 0b2a a89c 9a2d de79 5535 bf7d bc30
00000330: 5e1e a9ae 08ec 2faf e83e 4e2c e2d3 97af
00000340: 40ba c3ad 60df 991a f2df ce2f c8a1 8caf
00000350: eb5b 3ab5 49c5 42af 3ef8 e2aa 8170 212f
00000360: dca1 8a2e 6751 d324 93af 57b7 9192 f228
00000370: 1a1f 2a2d 36c0 1b2e 5431 e0b0 608d 362b
00000380: bc77 392e 2fb9 3936 6601 e3af 1183 a52e
00000390: 510d 50b1 aabc b22f 0312 f42d 0ca7 542a
000003a0: a297 402c 7bdc e0a8 028f f3ad 73aa 48b0
000003b0: bb1a 162a 5eca 54ad 38d8 252d b2d6 2f2e
000003c0: 5830 a02c 36ae a52e 59ba 0639 6f24 c7ac
000003d0: 7024 76b1 a547 552d f820 b0ae 1c8a 7d2c
000003e0: 141e f3ad ea2e cf2b 528b fbae 8099 5f2e
000003f0: 01db f12d 304f dcae dabd 912c f087 4535
4.9862725e-11 6.1409516e-11 9.710999e-13 3.4910768e-09 -6.622508e-12 1.1464733e-12 -8.793599e-08 3.6811817e-11
1.6979456e-12 8.398844e-09 4.012185e-06 6.9736314e-11 2.8845621e-09 1.1363401e-10 4.5830263e-16 6.486863e-12
-6.823279e-10 2.1506497e-15 1.783391e-09 3.431634e-12 1.4243213e-07 -2.322673e-13 -2.1447918e-11 8.983028e-12
6.602482e-11 1.7030021e-12 -1.5483004e-11 1.3716953e-09 1.3962359e-05 -2.5692124e-08 -7.578735e-10 -6.6465486e-11
2.703929e-10 3.9502007e-10 -1.7878905e-14 -1.2292686e-08 1.4673556e-11 -1.6822758e-05 -2.560821e-15 2.3339533e-13
-3.42964e-14 7.935964e-13 -1.0525321e-09 1.1235923e-10 1.74138e-10 1.917909e-06 -3.7058634e-11 -1.1171512e-11
4.6845205e-10 4.744005e-11 -6.8085836e-14 4.8420074e-11 6.386569e-13 -6.586016e-08 -1.2815204e-07 3.8476618e-11
-1.304033e-12 6.1128267e-13 3.567408e-14 -9.375507e-12 -1.0040253e-09 -2.1213187e-12 -0.00011858108 4.508826e-13
-1.5617232e-05 2.913906e-14 1.9160267e-13 2.7860403e-14 9.898863e-15 -3.4290085e-11 3.973909e-13 1.232926e-09
-7.229799e-09 2.7162772e-10 -1.8676128e-12 -5.100927e-10 1.438271e-12 -2.5120642e-10 4.7357456e-12 -2.6604114e-12
-1.9194855e-13 -1.7578382e-09 -2.7223415e-09 -1.1121949e-10 3.4985076e-10 1.3735783e-13 -1.4034235e-12 1.01342025e-10
2.3642513e-10 -2.6348628e-13 2.1358377e-11 5.423971e-11 -1.3823709e-10 8.539257e-11 4.3943278e-13 -1.759181e-11
2.2653019e-12 3.4937148e-10 1.15290825e-10 6.3576483e-10 9.4042775e-14 -1.3957584e-05 -8.8211466e-11 1.850049e-13
-1.4396902e-10 -2.0876738e-11 -1.0891301e-12 4.745463e-12 6.0818413e-13 7.860621e-09 1.2731077e-10 8.798946e-12
8.1642165e-11 -2.9924743e-12 -3.649567e-14 2.7310066e-12 -3.616245e-14 3.9773995e-13 -1.7640556e-10 6.797003e-24
-4.1010184e-10 5.0267966e-13 3.1593114e-11 1.7767048e-11 3.5483701e-12 -1.8003888e-08 -1.0193362e-11 6.0039034e-13
-5.118156e-05 6.228191e-13 -3.3332004e-11 2.23068e-11 1.1657733e-11 3.4153097e-12 1.4371415e-10 1.780852e-11
1.0524881e-13 -1.1954733e-09 -3.8421905e-11 -1.4251944e-09 3.306574e-10 1.6601187e-12 -1.4234588e-09 2.328761e-11
-1.8833534e-05 -2.4157366e-13 4.1502576e-10 7.578422e-11 2.841426e-11 -2.9908172e-08 -7.2283737e-13 2.050285e-14
8.811321e-13 -6.060156e-12 1.7114244e-09 3.05905e-09 5.134395e-11 -7.484859e-09 1.3601817e-11 5.468413e-13
1.282866e-10 2.0016593e-12 -1.4545802e-12 2.6576508e-11 -4.059711e-12 2.8607297e-17 5.2530075e-10 -1.8588964e-10
7.3298735e-14 -1.6325709e-09 1.175699e-15 -1.2175442e-06 4.9402767e-11 3.418476e-12 1.05615794e-10 -5.946277e-11
2.0066042e-09 7.025929e-10 -4.8094806e-10 6.1581485e-13 -2.987131e-09 1.3357636e-13 -2.843909e-12 -1.6218797e-10
-1.2985531e-11 3.9480207e-12 1.1429974e-09 -8.4252045e-09 3.8909046e-11 7.126877e-10 2.7324562e-12 -3.117966e-10
2.3730765e-10 1.2020315e-12 4.0191135e-11 4.8144953e-11 -8.9189544e-13 9.427876e-12 9.190168e-14 5.551521e-10
1.2420658e-13 1.7577342e-11 7.9526023e-07 1.371454e-09 -7.6906245e-11 -1.6000012e-10 2.930928e-12 -2.7617292e-10
-2.2251645e-11 6.36402e-23 3.7630304e-10 -2.5580804e-10 -6.942416e-07 -1.7714287e-10 -4.0317917e-13 1.4682834e-10
6.3042654e-11 9.1644564e-17 -1.2855878e-05 2.693096e-14 9.670287e-12 3.5413637e-11 -1.6312165e-09 6.4855586e-13
4.2170475e-11 2.767494e-06 -4.1292053e-10 7.5266134e-11 -3.0275553e-09 3.2512065e-10 2.7747587e-11 1.8887339e-13
2.7369014e-12 -2.4964614e-14 -2.768941e-11 -7.30018e-10 1.333195e-13 -1.2095739e-11 9.427174e-12 3.998108e-11
4.5528407e-12 7.5342774e-11 0.00012848656 -5.659965e-12 -3.5818424e-09 1.21235565e-11 -8.00941e-11 3.6030129e-12
-2.7639259e-11 1.4721256e-12 -1.1438907e-10 5.0840665e-11 2.7495785e-11 -1.0018508e-10 4.1422256e-12 7.3586034e-07

fc3.bias f4 [256]
00000000: d0f1 9fb5 c6b3 e9b3 f253 913c 6ad5 b6bb
00000010: 57f5 433b 9649 0180 7dcf d031 1fa6 aa39
00000020: aade 3e2d 68de 17b7 59b7 d833 3220 af34
00000030: cee9 0d34 b340 e138 8191 a2b6 840c 2b35
00000040: 37a1 763b 39de a43d a610 2a3b c7cf a02f
00000050: 76d8 9330 4142 58b4 f452 6730 ad43 0080
00000060: 32e9 c53b 7b4b 92b9 e15d 0180 ee1a d72e
00000070: 9a19 3eb5 7e59 85b1 349f abb9 fef0 5335
00000080: 3209 3538 744c b32a 92a9 dd33 84f5 0337
00000090: 97e8 bf3a 94db 84b5 e5ef fbb2 0dec a9af
000000a0: 9d9a 1a2e fca9 1f35 75db 7eae 7878 242f
000000b0: 9559 2ab8 fc3c 9f2e a05d 3938 b4a7 8838
000000c0: a2e8 5eb8 639b 622b 33b2 7638 2b05 473b
000000d0: 1f1f 8e3a 2c42 9e2d e77c fe32 6ec0 bd3a
000000e0: 9a02 433a 6051 b52f e6a4 d53a fb54 8030
000000f0: 4872 8133 371b 4339 d9e3 9b35 90a2 5cb6
00000100: 8df7 36b4 4d65 18b7 88a4 f6ad 22c9 4fa7
00000110: c5d5 6326 8d21 93b5 dc38 4632 487a 94ae
00000120: 7688 15b2 eedc 1530 296d cf3b 9bb2 31ad
00000130: 7d44 263a 7a98 ef3a cb27 92bc 3b91 7229
00000140: 1a69 0425 6896 2934 04c3 0080 eff5 583a
00000150: 250d 2231 9ff7 1aba 54a6 c638 3441 9e35
00000160: ad6f a7b3 2d53 23ab 1294 d8b6 46ea c0b3
00000170: 7722 333b dca5 213b a0f1 beaf dfb9 ca2d
00000180: 6bbe 5b39 e0a6 1132 9530 b03c b924 173c
00000190: d442 0fb2 909a ab31 5cac cd36 6452 0db1
000001a0: 0dc7 8bb6 71b7 6633 ac83 a3bb 6852 983a
000001b0: 15bb 1b3b a5d1 4bb3 dee1 cb30 be3e e2bb
000001c0: 49df 993b 0ff9 f9ae bb82 573b 376d 0e3b
000001d0: d240 2db4 cd85 8f31 7cf4 4034 be30 0080
000001e0: ecb2 8331 6d39 7fb6 38f0 e12e 6a3d 6db9
000001f0: ca7b a7b1 7010 d2b9 1c58 4b3b 8c2e e339
00000200: b2cd b43a 08b1 aa39 46be 3ebb 8293 99b7
00000210: cf90 542d 5f4c 743b 927e 0080 cc69 0f32
00000220: 64e7 59b1 d118 6e38 fcd6 4eb1 d6e7 61b5
00000230: 800c 1639 b4b5 a036 c845 bf34 9136 4831
00000240: b4b4 e738 7432 db3b a7cd a0b5 20f3 fb35
00000250: 721b 0533 26e2 86b7 37fc 392f d8c7 8a3b
00000260: 5814 bd36 ec70 9b39 2037 54bb 7b10 15ae
00000270: a33a 5631 a1f3 c3b8 c60f 213b 562a b834
00000280: b723 2eb5 8cb6 2fb1 7476 9d38 2ed9 8138
00000290: 62c1 35b1 083e c637 0bb2 eaae 9fa1 f230
000002a0: 4922 c333 c435 2e3a 7858 de35 471b 8336
000002b0: dbcb 9633 6726 ad3b 02a9 0080 daf6 94ba
000002c0: 6cb3 9eb1 dbfe 0d3a d250 c830 a78d 3b2e
000002d0: 2542 e22f 194d 1c39 d30d 07b4 40c3 ba34
000002e0: 5a80 7a2f 9e53 26b8 d14e 1eac 6418 5a13
000002f0: 5c22 bbaf f6b5 e329 e03d 0c33 f938 56bc
00000300: 3473 cb35 04b2 0b33 1e93 c52e 52fc d4b5
00000310: 006e 87ac 11cb 702e c0bf 34ae e543 6a30
00000320: c933 3929 8787 69b0 80be fabb 266e ceb5
00000330: 3600 fa36 309b 4bb4 135d b02d 76b5 7bbb
00000340: 6e52 6333 9556 8f37 39a4 15ab f0bf bb36
00000350: eba2 5e3b acde b53c a9ce ddb0 445c 5d3b
00000360: 80a6 4a2f 6acb 8fb7 464d 3734 f09a 7cb1
00000370: e372 0534 c0dd a83a ab28 283b 18b9 053a
00000380: 40f2 c337 3eac abb5 d872 a3b7 60bd 1bb6
00000390: cdb8 0080 5a43 dc33 5807 cd31 8981 a9ad
000003a0: 4ecb 3a3c 2aae 2eb5 ae3a 2fb5 d3db ccb4
000003b0: b041 2d36 3290 9eb0 b1f7 a82f e6f3 abb4
000003c0: 05a0 3d2c 4733 db34 2387 1eb1 4a0b a634
000003d0: 0f31 9537 a3ca 0180 1cf2 e5bb c0ae 643b
000003e0: 4685 62b5 cc9a 563b 5b87 0080 7601 bc2e
000003f0: 8b50 8e32 7340 e3b5 66ed 0db8 7041 d137
-1.19168e-06 -1.08826086e-07 0.017740224 -0.00557964 0.0029900873 -1.18233e-40 6.0771854e-09 0.00032548697
1.0849691e-11 -9.052084e-06 1.00916346e-07 3.2619715e-07 1.3216706e-07 0.00010740887 -4.844915e-06 6.3720677e-07
0.0037632713 0.08050198 0.0025949865 2.9251465e-10 1.075718e-09 -2.014067e-07 8.4155194e-10 -2.4277e-41
0.006039762 -0.00027903527 -1.25513e-40 9.781852e-11 -7.081777e-07 -3.8809835e-09 -0.00032734277 7.8954315e-07
4.3162327e-05 3.1849837e-13 1.0321959e-07 7.865372e-06 0.0014641461 -9.898672e-07 -2.9329337e-08 -3.0908645e-10
3.515287e-11 5.9479476e-07 -5.794783e-11 1.4958512e-10 -4.061459e-05 7.241316e-11 4.4194632e-05 6.5162225e-05
-5.314558e-05 8.050697e-13 5.881693e-05 0.003036807 0.0010843015 1.7991907e-11 2.962629e-08 0.0014476904
0.00074390473 3.298153e-10 0.0016299754 9.337379e-10 6.027818e-08 0.00018606787 1.1614712e-06 -3.2877178e-06
-1.704013e-07 -9.083492e-06 -2.8040029e-11 -2.8836055e-15 7.904616e-16 -1.0962118e-06 1.1538045e-08 -6.751982e-11
-8.703969e-09 5.4519844e-10 0.0063301516 -1.01009435e-11 0.0006342603 0.0018279694 -0.01784124 5.3860762e-14
1.1484785e-16 1.5794069e-07 -6.9958e-41 0.0008276393 2.3581574e-09 -0.0005911532 9.472357e-05 1.1790894e-06
-7.796857e-08 -5.802466e-13 -6.4545393e-06 -8.983311e-08 0.0027333775 0.002466551 -3.4732484e-10 2.3047285e-11
0.00020956404 8.478054e-09 0.02150754 0.009225064 -8.3388905e-09 4.9943267e-09 6.1295414e-06 -2.0565034e-09
-4.1656954e-06 5.3717887e-08 -0.0049900617 0.0011621239 0.0023762633 -4.745529e-08 1.4834389e-09 -0.006904452
0.004695807 -1.1367451e-10 0.0032884318 0.0021732578 -1.6135462e-07 4.177059e-09 1.7970336e-07 -1.7485e-41
3.832943e-09 -3.8031387e-06 1.0274487e-10 -0.0002262496 -4.874413e-09 -0.00040066568 0.003102786 0.00043331494
0.0013794212 0.00032556825 -0.002910511 -1.830771e-05 1.2082959e-11 0.0037276966 -4.5405e-41 8.347751e-09
-3.1709186e-09 5.6766734e-05 -3.009915e-09 -8.41564e-07 0.00014309771 4.7895246e-06 3.5627295e-07 2.9134848e-09
0.00011048597 0.006689364 -1.1980782e-06 1.8771716e-06 3.0991437e-08 -1.6079353e-05 1.6915257e-10 0.004235249
5.6350073e-06 0.00029648037 -0.003238149 -3.3893315e-11 3.117443e-09 -9.343704e-05 0.0024576052 3.4303474e-07
-6.4872023e-07 -2.5569618e-09 7.508407e-05 6.191652e-05 -2.6448892e-09 2.3632325e-05 -1.0672715e-10 1.7653753e-09
9.0866315e-08 0.0006645585 1.6566037e-06 3.9072797e-06 7.0220004e-08 0.005284119 -6.0629e-41 -0.0011365071
-4.618803e-09 0.00054166996 1.4574886e-09 4.264469e-11 4.115616e-10 0.0001490604 -1.2577884e-07 3.4787263e-07
2.2782967e-10 -3.965536e-05 -2.2496902e-12 2.7527494e-27 -3.4039516e-10 1.011239e-13 3.2652565e-08 -0.013075107
1.5158207e-06 3.2525364e-08 8.984656e-11 -1.5868666e-06 -3.8491432e-12 5.475004e-11 -4.109757e-11 8.522519e-10
4.112317e-14 -8.49575e-10 -0.007652104 -1.5380253e-06 7.450605e-06 -1.8962305e-07 2.0050217e-11 -0.003840772
5.2927525e-08 1.7087246e-05 -5.316334e-13 5.5953788e-06 0.0033971618 0.022200905 -1.6138603e-09 0.0033776918
1.8430946e-10 -1.714165e-05 1.7071315e-07 -3.6758898e-09 1.2428386e-07 0.001288347 0.0025659006 0.00051011285
2.3358618e-05 -1.2790622e-06 -1.9484592e-05 -2.320703e-06 -6.6294e-41 1.02567995e-07 5.96712e-09 -1.92706e-11
0.011401011 -6.5073493e-07 -6.527797e-07 -3.8157904e-07 2.5817244e-06 -1.1536996e-09 3.0735017e-10 -3.2028692e-07
2.6947344e-12 4.0829238e-07 -2.3068842e-09 3.0928123e-07 1.7785029e-05 -1.64528e-40 -0.007017387 0.0034894198
-8.43855e-07 0.0032746075 -4.8556e-41 8.54951e-11 1.6567602e-08 -1.6931575e-06 -3.3838114e-05 2.4945213e-05

action_heads.0.weight f4 [2, 256]
00000000: 02e7 6cb6 58e5 04b4 bfa9 3bbd b7fd 5fbe
00000010: 02df 72bb 31d3 efbc d71b 86b2 e5cf 89ba
00000020: 8801 d8b0 e4b9 b336 ab65 05b4 c259 dbb4
00000030: 12a5 1fb4 604f b338 d71b 31b6 ec7e a732
00000040: 25f0 d3bc eefb 7abe f9b0 9db8 6bfa 1daf
00000050: 53d2 2cb3 a5bf cfb4 d876 cf33 4b34 0000
00000060: c2e5 6ebb db2d e5bc 5665 ecbc 310e 22af
00000070: 4630 b0b7 ae8d 67b1 e3cf dbbc aafe 1cb7
00000080: 6014 62b9 9cbd 23ba daf2 ec32 3491 a735
00000090: 18de c4b9 a68d 77b5 4ec3 b7b2 b186 0eb1
000000a0: 2f72 4aaf f5de a5b4 00f2 1a2e 9943 04b8
000000b0: 6739 e3bb fe9f c9b0 1361 7839 aec3 09ba
000000c0: 78e8 4b38 27b8 c6ae b559 f338 e285 4fbb
000000d0: 047a adb9 7254 e6b0 3a29 6034 e7e0 32ba
000000e0: dbc6 efbc 4f20 cfbc b117 65ba 2289 cdaf
000000f0: 73ae 5ab3 f8b6 c8b7 a2a4 8234 5ed1 96b7
00000100: e206 63b4 6a04 6134 6f26 f9ae 495a 87b1
00000110: 06bc 9425 74d8 83ba 81a3 3bb2 a713 92b1
00000120: a161 0fb3 c491 2db0 a6fc 85bb 508d 5cb0
00000130: a753 e2b8 4f7b 9bbb ffcd 2bbe 10f6 28b8
00000140: 4510 94b9 371f 0db4 2fcf 1dbb 1481 99b8
00000150: 2346 01b4 ad32 24b9 8149 d034 5ee0 38b6
00000160: 0f2c 6ab4 e1b5 162b c108 a6b5 33d9 d435
00000170: f9ba b0bc da3f 87ba 5e9e 292f d046 82af
00000180: 8d0e edbc b118 9fb3 1b09 bbbc 5aa0 53bd
00000190: 7e9c 96b1 bb88 f7b1 757d 27b6 ea84 2db0
000001a0: 3205 53b7 e617 88bc 1d67 9abe 6e90 31bb
000001b0: e5d5 4abb 67c3 e6b3 cb1d 15b4 9c4d 82bd
000001c0: faaf 49bc 2d43 c1ae 8d46 26bb 9cb1 6fba
000001d0: 4a24 5bb5 41a0 cfb2 8a33 15b6 5d27 f3ba
000001e0: ef39 a4b2 3a82 4b35 35bb b1af bc48 9336
000001f0: 321e eebc 47a0 5cbb 0622 39bb 0369 4cb9
00000200: 664f 4dba 7221 9db9 af39 8dbb e25b 22b7
00000210: f56c 59ac 89fc 62bb 5172 0fb8 9068 d32f
00000220: dd6c f4b2 9d9d a8b7 6c98 e2b3 b70c 2033
00000230: c52c 1dba 9198 2935 2857 1fb4 8b63 31bc
00000240: 650a 2ab9 0a6e 4abb 728b a935 dca8 c535
00000250: 3345 85b4 32b8 0db7 1dfb 8fb1 2c82 24bb
00000260: f0b6 bdb8 c8e0 e9bc 1884 9dbb 9c1c 7f2e
00000270: ee9e 7abc 300c 43b7 8b95 1dbb 9b58 a7b5
00000280: f772 a3b5 1255 8f33 6843 123a c3ed adb8
00000290: 46b0 52b1 79dc 1cb9 b249 1cb0 8880 cb1a
000002a0: bb48 79bc 7827 8fb9 9322 9437 1403 f934
000002b0: 946a c0b3 9d3d 08be b7ab 79bb 14ed bab9
000002c0: 456d 5db2 faf8 e1bc 16ae f734 2fc2 a02e
000002d0: 4aec 02b1 5e47 87b5 5064 89b4 ac10 acb4
000002e0: 9d7a 12b1 00a5 1e37 5ead b8bc fd60 0100
000002f0: 70d5 5232 b1a0 432b 279e 3735 2a93 8fbb
00000300: 8d43 88b5 7c9d c333 aa12 62bc c428 8c37
00000310: d8bc 8fac 5803 7fae 4930 09b0 116d 36b0
00000320: 6869 56a2 fa67 21b0 c616 4abd 59f0 8db6
00000330: 24b4 57b6 a931 87b5 bcb0 a8b1 7e45 23bd
00000340: 8bce 39b3 37ef 02b6 9559 8b2b dc31 19b4
00000350: f171 0cbc 34dd 53bd bc4e 4cb3 de92 6ebb
00000360: b235 12b0 7ca6 2c34 5287 1fb4 683d 94b1
00000370: 09ea 16b4 1ca4 8bbc 47b2 d7ba dc0b bfb7
00000380: eaaa 57b8 381e c1ba 3d8c 1ab7 58b1 3139
00000390: e648 babb 75ed 7eb6 8129 36bc 68cf 63ae
000003a0: 515d 13bc 36e1 51b5 680c c2b5 2a94 cbb5
000003b0: b35f e8b5 f58c 8cb2 7962 adb3 3014 c933
000003c0: f025 8cae b533 dcb7 c84c 3ab0 4402 49b3
000003d0: f114 94b9 3c2b b7bc 69e8 cc3b b7ea 9cbb
000003e0: 9ea7 c2b5 66ab 91bb 7e94 56bb 9ca4 2cae
000003f0: 3d1d 2333 c0e2 63b5 2fb1 89b7 1d74 1fb5
-3.5301205e-06 -1.2376893e-07 -0.04581618 -0.21874128 -0.0037059193 -0.029275509 -1.5612313e-08 -0.0010514228
-1.5716504e-09 5.356256e-06 -1.2423577e-07 -4.0857236e-07 -1.4868081e-07 8.55017e-05 -2.639126e-06 1.9499076e-08
-0.025871346 -0.24510166 -7.519307e-05 -1.4368033e-10 -4.023816e-08 -3.8696194e-07 9.660806e-08 1.8759e-41
-0.0036452864 -0.027975967 -0.028856914 -1.4738856e-10 -2.1003314e-05 -3.369546e-09 -0.026832527 -9.357618e-06
-0.0002156063 -0.00062462105 2.7584452e-08 1.2484729e-06 -0.00037549506 -9.2220796e-07 -2.1392818e-08 -2.0740283e-09
-1.8412359e-10 -3.0895868e-07 3.5230485e-11 -3.1534208e-05 -0.006934333 -1.4670147e-09 0.00023687286 -0.0005255294
4.8615475e-05 -9.0367096e-11 0.00011603852 -0.0031665494 -0.0003308804 -1.6758703e-09 2.0876624e-07 -0.0006823674
-0.029269626 -0.02528396 -0.0008739187 -3.7386721e-10 -5.091574e-08 -2.392706e-05 2.4334173e-07 -1.7978888e-05
-2.1143526e-07 2.0956364e-07 -1.1330036e-10 -3.9392813e-09 2.5801317e-16 -0.0010059015 -1.0922009e-08 -4.2513935e-09
-3.3383575e-08 -6.314418e-10 -0.004088956 -8.023635e-10 -0.00010792101 -0.004744924 -0.167778 -4.0283485e-05
-0.00028240882 -1.3143004e-07 -0.002407979 -7.319651e-05 -1.2039577e-07 -0.00015659137 3.87965e-07 -2.7548735e-06
-2.1808977e-07 5.3543113e-13 -1.2370512e-06 1.5858444e-06 -0.02157353 -0.0010318712 1.5426724e-10 -2.3697178e-10
-0.028937602 -7.408506e-08 -0.02283149 -0.051666595 -4.3833657e-09 -7.2041906e-09 -2.4957965e-06 -6.3125916e-10
-1.257779e-05 -0.016612958 -0.30156794 -0.0027094143 -0.0030950245 -1.0745753e-07 -1.3887545e-07 -0.06362459
-0.0123100225 -8.788557e-11 -0.0025371641 -0.00091435923 -8.1636665e-07 -2.4170847e-08 -2.223273e-06 -0.001855116
-1.9118458e-08 7.58129e-07 -3.232913e-10 4.389409e-06 -0.029067133 -0.0033664869 -0.002824904 -0.00019494076
-0.00078319607 -0.00029970292 -0.004309855 -9.677346e-06 -3.0898038e-12 -0.0034635386 -3.4200322e-05 3.8454973e-10
-2.8454844e-08 -2.0100555e-05 -1.05516705e-07 3.7264467e-08 -0.0005995746 6.317942e-07 -1.4839736e-07 -0.010826956
-0.00016216336 -0.0030888342 1.2632065e-06 1.4726788e-06 -2.482353e-07 -8.447141e-06 -4.190396e-09 -0.0025102003
-9.046297e-05 -0.028549567 -0.0048070066 5.8005697e-11 -0.015296681 -1.1625743e-05 -0.0024045433 -1.2468257e-06
-1.2177906e-06 6.6744306e-08 0.00055795023 -8.2935694e-05 -3.0659222e-09 -0.00014959452 -5.6857197e-10 8.4166486e-23
-0.015215094 -0.00027304492 1.7659075e-05 4.6382104e-07 -8.960083e-08 -0.13304754 -0.0038096735 -0.00035653322
-1.2888738e-08 -0.027584542 4.6134e-07 7.3104515e-11 -1.9051805e-09 -1.0079054e-06 -2.5591225e-07 -3.2049627e-07
-2.1315494e-09 9.455951e-06 -0.022543605 1.26628e-40 1.2272139e-08 6.950092e-13 6.8402954e-07 -0.004381557
-1.015245e-06 9.109041e-08 -0.013798395 1.6708284e-05 -4.0852703e-12 -5.7983257e-11 -4.9908927e-10 -6.6366207e-10
-2.905821e-18 -5.871922e-10 -0.049338125 -4.2301076e-06 -3.2142352e-06 -1.0072737e-06 -4.909536e-09 -0.039861195
-4.326152e-08 -1.951075e-06 9.901408e-13 -1.4267374e-07 -0.008572088 -0.051724628 -4.756906e-08 -0.0036403458
-5.3190796e-10 1.6079315e-07 -1.4857258e-07 -4.314348e-09 -1.405498e-07 -0.017046027 -0.0016456329 -2.2774497e-05
-5.141917e-05 -0.0014733737 -9.211767e-06 0.00016946101 -0.0056849597 -3.7987168e-06 -0.011118294 -5.1798038e-11
-0.008994416 -7.818629e-07 -1.4457737e-06 -1.51678e-06 -1.7313199e-06 -1.6362245e-08 -8.073852e-08 9.363464e-08
-6.373202e-11 -2.6250122e-05 -6.777552e-10 -4.680102e-08 -0.00028244362 -0.022359483 0.0062532914 -0.0047887224
-1.4502909e-06 -0.004445481 -0.0032742317 -3.9254475e-11 3.7977987e-08 -8.4894054e-07 -1.641418e-05 -5.940108e-07

action_heads.0.bias f4 [2]
00000000: 3552 8bbc 98cb 0d39
-0.017006973 0.00013522652
