shanghai_road_delivery/results_centralized/centralized_episode_100.pth_centralized_critic.pth (torch, 919188 bytes, 7 tensors)

fc1.weight f4 [256, 378]
00000000: b0bb da35 f1d3 8935 131b 05b7 37d9 04b7
00000010: 15e6 04b7 ac6f 04b7 2072 d41b 69d0 0bab
00000020: e034 c033 78be 6fa9 38d8 492c 66f9 6634
00000030: 23f1 a21a 4cae cc9e fbdf b61c 9569 629d
00000040: 5773 b71c 8ad9 92b3 9e61 e11a efc6 509d
00000050: ee58 86b5 3acd 3a9a f31e 66b5 56e1 209a
00000060: 3422 d633 abc7 189d b3d6 e49b 9209 67ba
00000070: 384b 931c 0044 4cab fd16 c39c f253 2d2b
00000080: 8b80 4f9c d0e0 35b2 607d ed9b ebae 482f
00000090: 3416 229d 181b 05b7 c6a5 b51c 181b 05b7
000000a0: 70d6 a8bb f864 dfb5 588b a29d 7b79 639c
000000b0: 1de1 99bc 54c1 83b5 0655 909d 060e b29c
000000c0: 5077 9137 241b 05b7 7ecb 97ad 181b 05b7
000000d0: 8a55 b934 4af2 1db5 0f1b 05b7 1fd1 03b7
000000e0: c341 04b7 092b fcb6 9fb6 589c 7ecf 7f3a
000000f0: 8cf7 6d29 eae1 0634 181e a5b0 1cfa 6634
00000100: c4ed a21a a513 299f f4df b61c 9569 629d
00000110: 4b73 b71c a8bc ab26 e264 e11a 02c7 509d
00000120: e758 86b5 49df 0100 7051 50b3 2378 3b00
00000130: b475 8f33 ad47 fa38 6314 0b34 7653 3133
00000140: ab62 359d fe05 6591 fd16 c39c c6c8 3aab
00000150: 0580 4f9c 0000 0bb3 4e83 ed9b 4258 293a
00000160: 0716 229d 181b 05b7 5ca5 b51c 181b 05b7
00000170: a578 35bc 88e2 5bb5 4141 a59d a458 081d
00000180: bc70 3abc b087 e0b5 d827 429d b021 be1c
00000190: 1857 f332 a6be 05b7 c4ef e82f 181b 05b7
000001a0: 9027 a636 cf87 adb4 101b 05b7 dc2c 02b7
000001b0: 0a9c 02b7 e558 01b7 369f 2d2d 28a0 972d
000001c0: 26d3 9ab3 c779 8ba1 16ac cb2c e2f9 6634
000001d0: 23f1 a21a a96e 0aaa dddf b61c 8369 629d
000001e0: 7673 b71c 2020 a8b3 be63 e11a 02c7 509d
000001f0: d958 86b5 a85c 7f1a 12ef 3134 50c3 081b
00000200: 8612 eb34 edc9 2015 909a deb0 445c f52c
00000210: e762 359d fc83 102f ea4a 931c 58a4 a6b9
00000220: 5280 4f9c fcea 5cb0 ba7e ed9b bb70 0e32
00000230: 0716 229d 181b 05b7 76a5 b51c 181b 05b7
00000240: 147b 44ba b1fd 88b5 6954 aa9d c073 ec9c
00000250: 4c89 1fba 246e 8ab5 9b98 d99c c834 2a1a
00000260: 60fe 8333 8d79 04b7 e329 b8ab 181b 05b7
00000270: 9120 d935 62f3 e034 121b 05b7 16b1 06b7
00000280: 9caa 06b7 4f69 06b7 f21c 4291 847c daac
00000290: e0d7 74b1 b18f b8ba be25 0d2f 44f9 6634
000002a0: 23f1 a21a e8aa 8c23 25e0 b61c 7469 629d
000002b0: 4b73 b71c 9a6b ce36 9066 e11a 79c6 509d
000002c0: de58 86b5 1ce1 a599 6f70 7eb5 be55 1780
000002d0: bf15 51b4 b275 5cb3 2388 14ad 868d 5eab
000002e0: ab62 359d 1c7a 822c 4c4b 931c f366 36b4
000002f0: a116 c39c 1009 023a a07e ed9b 12e4 0fa6
00000300: 1316 229d 181b 05b7 76a5 b51c 181b 05b7
00000310: e861 9abc 8b3e a5b5 fcf2 7b9d 466a d19a
00000320: 5458 78bc d85d 53b5 d354 7e9d 90e4 be1c
00000330: 04e0 a933 d4c8 04b7 77cf eca6 181b 05b7
00000340: a797 8d36 4081 98b2 111b 05b7 64f3 04b7
00000350: 53e2 04b7 ccce 05b7 e848 5c99 b99a c4a9
00000360: e64e 5d35 5c02 5cac 9de2 1ab5 44f9 6634
00000370: 83f3 a21a de9d 422a f4df b61c 9569 629d
00000380: 2d73 b71c 56ef b6aa 3c65 e11a c8c6 509d
00000390: cd58 86b5 a0ba 0194 4be3 65b5 6a59 831b
000003a0: 173c ec33 2012 ee80 f47b 022d 200b 23b3
000003b0: c962 359d 56d3 b62c 564b 931c 934f 97b6
000003c0: fd16 c39c 64f8 042c e280 4f9c ccbe 23a9
000003d0: 1316 229d 181b 05b7 76a5 b51c 181b 05b7
000003e0: 7e2e 9bbd 929b d7b4 69c7 409e f6cc c59b
000003f0: 0453 80bd 1d1a ecb4 aead 7d9d 1bb5 e51c
1.629689e-06 1.0268978e-06 -7.9337215e-06 -7.918387e-06 -7.921383e-06 -7.893814e-06 3.514621e-22 -4.967195e-13
8.9503146e-08 -5.3233866e-14 2.8683843e-12 2.151115e-07 6.739121e-23 -2.1671428e-20 1.2101647e-21 -2.9965436e-21
1.2139739e-21 -6.838225e-08 9.321553e-23 -2.7631417e-21 -1.000966e-06 -3.862968e-23 -8.5726714e-07 -3.326925e-23
9.971373e-08 -2.0220258e-21 -3.7858182e-22 -0.0008813377 9.747088e-22 -7.256973e-13 -1.290996e-21 6.1578444e-13
-6.8656693e-22 -1.0586703e-08 -3.9289383e-22 1.8252037e-10 -2.1452e-21 -7.933726e-06 1.2020427e-21 -7.933726e-06
-0.005152516 -1.664418e-06 -4.302512e-21 -7.526501e-22 -0.0187841 -9.816526e-07 -3.8204395e-21 -1.1782677e-21
1.7340906e-05 -7.933737e-06 -1.7257081e-11 -7.933726e-06 3.4521173e-07 -5.8839635e-07 -7.933718e-06 -7.856898e-06
-7.883124e-06 -7.515195e-06 -7.1704437e-22 0.0009758397 5.2839284e-14 1.256191e-07 -1.2013883e-09 2.1511408e-07
6.738576e-23 -3.580339e-20 1.210164e-21 -2.9965436e-21 1.2139727e-21 1.1916644e-15 9.3220804e-23 -2.7631455e-21
-1.0009652e-06 1.71935e-40 -4.850284e-08 5.461391e-39 6.6803665e-08 0.000119342796 1.29528e-07 4.128693e-08
-2.400616e-21 -1.8066761e-28 -1.290996e-21 -6.6359104e-13 -6.8656016e-22 -3.236346e-08 -3.9293215e-22 0.000645999
-2.145191e-21 -7.933726e-06 1.202032e-21 -7.933726e-06 -0.011076127 -8.1913504e-07 -4.3742607e-21 1.8045276e-21
-0.011379417 -1.6728791e-06 -2.5696285e-21 1.2581853e-21 2.8328529e-08 -7.971807e-06 4.2370918e-10 -7.933726e-06
4.951791e-06 -3.2322575e-07 -7.933719e-06 -7.7590485e-06 -7.7849345e-06 -7.709697e-06 9.869263e-12 1.7237836e-11
-7.2095915e-08 -9.451241e-19 5.7887124e-12 2.1511326e-07 6.739121e-23 -1.2295255e-13 1.2101617e-21 -2.99654e-21
1.213977e-21 -7.828953e-08 9.321896e-23 -2.7631455e-21 -1.0009636e-06 5.280761e-23 1.6571383e-07 1.1312765e-22
4.378564e-07 3.2471034e-26 -1.6196555e-09 6.9735624e-12 -2.4006282e-21 1.3143614e-10 9.747009e-22 -0.00031784433
-6.8656405e-22 -8.0369467e-10 -3.9290256e-22 8.29112e-09 -2.145191e-21 -7.933726e-06 1.2020346e-21 -7.933726e-06
-0.0007495147 -1.0206624e-06 -4.5085903e-21 -1.5647091e-21 -0.00060858275 -1.0313856e-06 -1.4399303e-21 3.5197812e-23
6.1464334e-08 -7.896114e-06 -1.3085612e-12 -7.933726e-06 1.6177238e-06 4.1900336e-07 -7.933721e-06 -8.028253e-06
-8.0267455e-06 -8.0115415e-06 -1.5312821e-28 -6.2097567e-12 -3.5629384e-09 -0.0014080909 1.2837284e-10 2.1511102e-07
6.739121e-23 1.5251212e-17 1.210169e-21 -2.9965369e-21 1.2139727e-21 6.151805e-06 9.322352e-23 -2.7631179e-21
-1.0009642e-06 -1.7151521e-23 -9.4785986e-07 -2.142975e-39 -1.9472553e-07 -5.1329785e-08 -8.443054e-12 -7.9066647e-13
-2.400616e-21 3.708379e-12 9.747108e-22 -1.6987524e-07 -1.2909867e-21 0.0004960457 -3.929019e-22 -4.9922184e-16
-2.1451934e-21 -7.933726e-06 1.2020346e-21 -7.933726e-06 -0.018845513 -1.231166e-06 -3.3345193e-21 -8.661207e-23
-0.015157778 -7.8740186e-07 -3.3660473e-21 1.2632227e-21 7.910424e-08 -7.914572e-06 -1.6432023e-15 -7.933726e-06
4.219782e-06 -1.7753905e-08 -7.93372e-06 -7.924482e-06 -7.920508e-06 -7.975566e-06 -1.1388457e-23 -8.7309886e-14
8.244373e-07 -3.126519e-12 -5.7699236e-07 2.1511102e-07 6.7395044e-23 1.7285433e-13 1.210164e-21 -2.9965436e-21
1.2139696e-21 -3.2495767e-13 9.322137e-23 -2.7631338e-21 -1.0009622e-06 -6.549641e-27 -8.56399e-07 2.1729915e-22
1.1000537e-07 -2.186335e-38 7.417168e-12 -3.7961513e-08 -2.4006221e-21 5.196214e-12 9.747118e-22 -4.5094143e-06
-1.290996e-21 1.8896213e-12 -6.865713e-22 -3.635876e-14 -2.1451934e-21 -7.933726e-06 1.2020346e-21 -7.933726e-06
-0.07577227 -4.0160063e-07 -1.02056324e-20 -3.272337e-22 -0.06265834 -4.3977425e-07 -3.3574061e-21 1.5200763e-21

fc1.bias f4 [256]
00000000: 181b 05b7 bb3f 10b9 cf3b aa35 e713 cebb
00000010: 5f53 c638 2c99 76bc 85ea 92bb 58f3 b3b8
00000020: 2889 6ead 9772 cfb5 0d19 a83c 6c3a e23b
00000030: 42b2 93b8 572f f4b7 7213 4337 f3df 38b7
00000040: 3538 7cbc bdd8 14ba 0669 fbbe 7a8b 72b5
00000050: 42a6 e6b6 0df8 47bc d867 aeba 9730 e3a0
00000060: d999 63b8 3047 65b7 6860 003c 5bb1 80b5
00000070: bd4a 96b6 2c9b 0ab8 de21 15b8 93e3 56b6
00000080: 0847 8ab8 91b6 86b4 40b1 7ab3 eafa aab1
00000090: d82b b0ba 267b 3fbb 1437 2bba b700 89b8
000000a0: 9678 ad30 3473 243b d657 a0bc 8d0b 16b5
000000b0: 718f eaba 4915 92b9 fe13 32b8 6aa3 84b8
000000c0: 4663 88b1 cb19 d4ba 986d dbb9 b081 02ae
000000d0: b81b 0d39 c413 2338 7e28 b9b2 8dcc 6cbc
000000e0: 6631 0fba e594 95ba e116 92bc 44c9 b9b9
000000f0: 7f25 5fb5 74cf a73d adfa a0bc c6ae eb3e
00000100: d347 adbb b8c6 c9bb 19de 89ba ce69 59be
00000110: cd64 0abd 5c91 d4b5 9e0c 5cb6 e9b8 68b9
00000120: 6517 80b0 4f7d 20bd e49e b1bb d01a feb8
00000130: b56a ffb9 047c 8abc 8b60 47bc 78e3 41bf
00000140: 16e4 bbb7 f0cb 9cbc 8c1f f8bb 107d fe35
00000150: 3f11 6739 152b 82b2 472e f4bb b8c9 b0b8
00000160: 1c6d 6eb6 ac62 f8b5 4d3a 37b9 a84d b8b5
00000170: f245 1eaa 8f4d 6e3d 9cb2 04bc 34f1 f0b7
00000180: f1c5 f1b6 1e6c 7c34 d446 91ba 9ee6 7eb9
00000190: 8632 a7b4 ac07 58bd 8bc9 1dba 0f19 1cbb
000001a0: 79cc 65b3 ec16 5db7 d96a 1ab3 e86a 07bc
000001b0: e57b c4bc b325 f9b7 55ee 313f 83d7 a63b
000001c0: 1f1a 53b2 6280 11b6 ad2b 13bb a9ed 983b
000001d0: c8bb c9b1 4855 0ab6 77c1 81bb 6088 a13b
000001e0: 36d8 5732 78e6 f6b9 5783 d19f 270b 54b5
000001f0: 442d afb6 ddc6 44b7 de67 75b1 1753 34bd
00000200: 099d e6b2 beec 5238 3c9e 56ae 7c7f 42b4
00000210: d78f d2ba 4c46 86b7 30a8 603a 4204 32b5
00000220: 95fe d1b0 fb35 2fb9 b5c8 86a4 0f24 87b4
00000230: 5de9 85ac 6b30 7ab4 9f39 80b0 0b7e b83a
00000240: cc0c e3bc ac53 04b7 9d4f 9cbc ee61 473d
00000250: a345 6fb1 e753 3534 7ced 082d f773 febe
00000260: 86aa 2db8 c6a3 aabb 400f 3d39 7953 5eb9
00000270: 4896 c4bc 90fd 60bd e4d2 e631 23ae f3b5
00000280: c275 9cb4 8890 90b8 bbc9 8eb4 6091 cfb0
00000290: 5cde fdb9 ac52 7fb7 4321 a2b2 cd2b 0a3f
000002a0: ecb7 5bb7 586a ceb6 9a94 52bc 1939 afb6
000002b0: 7201 aab9 52ad c4ba 9d57 29bb 7fd3 c7b2
000002c0: b44a f4b6 01ab 433f 29ae bcbb c055 c2bc
000002d0: 1ad2 6cb6 f059 94b9 bf33 d3b4 66a8 be31
000002e0: 9d7a 98b8 aed0 76b5 6861 95b8 2b7a e4b5
000002f0: 8fe4 0eb5 d3fd c2ba bd7c 8cb7 2835 fb34
00000300: d6e2 98b1 4481 77bc 2835 4037 949c 51b5
00000310: cafd f337 7f89 77b3 e144 05bd d97b 85bb
00000320: 9a50 a13c 40e0 1035 4e86 daba 2ecd 65b0
00000330: 5f87 ee3a 4b83 e8aa 8094 65b5 fb5f 1cb4
00000340: 6569 bebb ab0d f4b7 6504 98b9 91d7 a6b0
00000350: 601f 34b5 f62d 85be b49d 18b5 591d d3b3
00000360: bd14 8b3c 73c6 18b4 a2b7 2abf c4d6 00b8
00000370: 40ee beba cb0f bbb8 df39 9bbb 6499 1c34
00000380: bcac 5bb2 86a8 40b0 9900 0b3a a1b1 cfb7
00000390: 2696 25b8 e591 63b7 3269 5f3f 00a1 67ba
000003a0: 7ed3 e4b7 2962 9ab2 68d8 78bd f6be a2bb
000003b0: 4706 81b7 d835 693e 7065 32bb 9ac7 4c39
000003c0: 8b09 4caf 99a3 33b1 77bc 56b2 0efe 193c
000003d0: 3b2b 63bf f927 cbba 5b42 83b6 70dc 33b9
000003e0: bf73 92b7 99ba 48a5 dcd2 7cba 7908 14b9
000003f0: deae 0eb7 6f19 77b3 1280 5cb5 e8b2 4fb2
-7.933726e-06 -0.00013756652 1.2683394e-06 -0.0062889936 9.456905e-05 -0.015051167 -0.0044835233 -8.5807114e-05
-1.35591885e-11 -1.5456052e-06 0.020519758 0.006903937 -7.042709e-05 -2.9109111e-05 1.1627433e-05 -1.1019397e-05
-0.01539426 -0.00056780485 -0.49103564 -9.035499e-07 -6.873889e-06 -0.012205136 -0.0013306094 -3.848745e-19
-5.42643e-05 -1.3666038e-05 0.007835485 -9.58836e-07 -4.479049e-06 -3.304628e-05 -3.555591e-05 -3.202095e-06
-6.5935834e-05 -2.509228e-07 -5.836887e-08 -4.976177e-09 -0.0013440801 -0.002921769 -0.00065313396 -6.532802e-05
1.2621679e-09 0.002509308 -0.019573133 -5.5896163e-07 -0.0017895532 -0.0002786315 -4.2457126e-05 -6.324689e-05
-3.969407e-09 -0.0016182003 -0.0004185259 -2.9673763e-11 0.00013457134 3.8880637e-05 -2.1555248e-08 -0.014453066
-0.0005462378 -0.0011412172 -0.017833175 -0.00035435904 -8.312854e-07 0.081938654 -0.019650782 0.4603178
-0.005288103 -0.0061577223 -0.0010518461 -0.21231768 -0.033787537 -1.5837536e-06 -3.2789899e-06 -0.00022194129
-9.319875e-10 -0.039182004 -0.0054205526 -0.00012116658 -0.00048716893 -0.016904838 -0.012169014 -0.75737715
-2.2398348e-05 -0.019140214 -0.00757212 1.8960873e-06 0.00022036301 -1.5153583e-08 -0.0074518058 -8.429907e-05
-3.5528274e-06 -1.8506157e-06 -0.00017473959 -1.3731669e-06 -1.4057486e-13 0.058179434 -0.008099224 -2.8722548e-05
-7.205403e-06 2.3508662e-07 -0.001108373 -0.00024309239 -3.1142935e-07 -0.05274169 -0.0006019107 -0.0023818647
-5.3504184e-08 -1.3177963e-05 -3.5953096e-08 -0.0082652345 -0.023984859 -2.9700668e-05 0.6950429 0.005091609
-1.2287756e-08 -2.1681412e-06 -0.0022456453 0.004667003 -5.871218e-09 -2.0613243e-06 -0.0039598304 0.0049295872
1.2563808e-08 -0.0004709249 -8.8732227e-20 -7.8992383e-07 -5.220676e-06 -1.1728812e-05 -3.5711234e-09 -0.044024553
-2.6846935e-08 5.0288385e-05 -4.8798507e-11 -1.8114036e-07 -0.0016064596 -1.600678e-05 0.0008569984 -6.6316363e-07
-1.5279108e-09 -0.0001670941 -5.845325e-17 -2.5171946e-07 -3.805996e-12 -2.3300679e-07 -9.329603e-10 0.001407565
-0.027716063 -7.8872945e-06 -0.019080931 0.048677377 -3.4818661e-09 1.6887462e-07 7.783437e-12 -0.4969785
-4.1405227e-05 -0.0052075116 0.00018030126 -0.00021202666 -0.023997441 -0.054929316 6.7178565e-09 -1.8155591e-06
-2.9142944e-07 -6.893376e-05 -2.659634e-07 -1.510255e-09 -0.0004842159 -1.5218433e-05 -1.8874408e-08 0.53973085
-1.309624e-05 -6.1516585e-06 -0.012852812 -5.2220535e-06 -0.00032426004 -0.0015005267 -0.0025839575 -2.3262826e-08
-7.2804633e-06 0.76432806 -0.005758066 -0.02372253 -3.5289036e-06 -0.00028295768 -3.9339463e-07 5.5488725e-09
-7.270763e-05 -9.194581e-07 -7.123017e-05 -1.7022879e-06 -5.323172e-07 -0.0014876671 -1.6747386e-05 4.679107e-07
-4.4495705e-09 -0.015106503 1.1456468e-05 -7.808642e-07 2.9086037e-05 -5.763422e-08 -0.03253639 -0.0040736017
0.019691754 5.3970507e-07 -0.0016672106 -8.360129e-10 0.0018198303 -4.1302581e-13 -8.5525244e-07 -1.456355e-07
-0.005810904 -2.9093431e-05 -0.00028994973 -1.2139357e-09 -6.710088e-07 -0.26011628 -5.68539e-07 -9.8307915e-08
0.016977662 -1.4228299e-07 -0.6668645 -3.0717594e-05 -0.0014566854 -8.9197965e-05 -0.0047371234 1.4584435e-07
-1.2786753e-08 -7.008868e-10 0.0005302518 -2.4759038e-05 -3.9478902e-05 -1.3564223e-05 0.8726989 -0.00088359416
-2.7278202e-05 -1.7972598e-08 -0.060753256 -0.004966612 -1.5380921e-05 0.22774446 -0.0027221106 0.00019529313
-1.8557082e-10 -2.6140923e-09 -1.2499291e-08 0.00939895 -0.8873784 -0.0015499584 -3.911829e-06 -0.0001715289
-1.7458455e-05 -1.7410457e-16 -0.00096444576 -0.00014117536 -8.504574e-06 -5.75323e-08 -8.2142753e-07 -1.2089664e-08

fc2.weight f4 [256, 256]
00000000: 0c99 ee15 83ce f6b2 e224 ee1c 85fb b4ab
00000010: 8211 b227 2593 2a27 a3a0 2637 4b8a c024
00000020: cdb1 0729 4a17 731b d859 ebad 9a57 7626
00000030: 939d b1af f83d c529 84bf 150f 3355 b11d
00000040: 1a26 60b0 be07 ecae 2089 8c33 ee55 b2ad
00000050: 0d99 36ad bae8 1b25 f304 23b6 3f2d 0280
00000060: 0010 37a1 166b c0b4 248e bb2e f5da 8f25
00000070: fd69 f09a 8023 08ae 36da d328 886a da30
00000080: 543f 9baf 6f90 1ead 9192 5530 b4bf d9a5
00000090: 9516 74b2 f1b2 24b7 78fc 6d9c 67b9 4cab
000000a0: d9bc d822 c1ee 2cb4 a267 92b0 6d95 8213
000000b0: 3ccc bab5 6abf 97b2 bac8 d630 9376 64ad
000000c0: 1328 1625 ec5b 242e 5c0c 0080 7c55 1297
000000d0: 40dd 0f33 126c f1ab 2a5d 03a8 8241 c2ac
000000e0: b5dd 94a2 78ba 25a6 f2ed 7e30 f2a4 078f
000000f0: d604 5319 9c1f 4830 d0be f026 371e 06b9
00000100: 87f8 b1ad 4598 0f34 ed16 47b1 c5ab 60b3
00000110: 6e2f 1538 80ea 0080 6022 a514 568c d631
00000120: 9ec2 2d17 97f8 32b0 74b3 1835 a9ab 8033
00000130: dc51 f6ab 078d a0b6 0c76 e637 4fb4 dc35
00000140: 78be c1a7 145c 63b8 d45f 7fb0 7ede 6b31
00000150: e203 94b5 8b16 c9a2 4b60 69ba dbf7 76a8
00000160: 31b5 702a 43ca bba5 3928 a19e d86c dbab
00000170: ef5b e49b 3bce 61a1 c015 3a30 7634 5028
00000180: 9ab4 4ab2 4486 a02c 0bfa 19a4 aba0 479e
00000190: fe1c 1f29 bde6 3a33 18fd 5735 047f 962c
000001a0: 5ee6 b2af 95be 4caa e286 372d 4454 beac
000001b0: ce08 62ab de3d c831 f9a0 1abc 7c5c 85a0
000001c0: d6a7 69a9 e06c ed2d 3229 d4a8 9228 8a01
000001d0: ae1c 57a8 dede ba33 c6a5 5a96 dd5c 5bab
000001e0: 085a c02e 3360 a2b2 7866 0080 7240 7c94
000001f0: c5d4 412b 7451 23a8 fcca 92a0 f7b2 8337
00000200: b417 0f28 9f1c 7933 b75d 451b 8224 981c
00000210: 467a 9cb3 bc5e 20a8 c538 342b 60cc dea6
00000220: 4059 38a8 f07c d9b2 2caa d281 be20 d225
00000230: 8720 e38d 876d 07ad 9865 8e1c a104 5ead
00000240: 5bfb 2d38 92f2 ff19 85c9 7c26 31a3 722f
00000250: 06ae 0f29 82d9 00af 2ef1 eeac 8d68 c438
00000260: d0bd 9c32 e6b0 d9b3 b67b d4b3 621f 5eb6
00000270: bb92 4734 de15 2fb9 85a4 86a5 9f8a 3eb9
00000280: aa95 d9a8 c6dd 1000 f642 782a c8c5 5422
00000290: 421a 0b36 ceba 4bba c8f3 4da5 3afc a42c
000002a0: 3ef3 f7b0 6865 602c 1ebe c1a8 b59a 6b2f
000002b0: 40a4 1fb0 1290 5636 5dc0 15ac 3ebb b1af
000002c0: 5593 9124 0669 7fbb 4023 52a2 7261 36b7
000002d0: e629 0daa 07dd 8d9a d613 45af ac22 2428
000002e0: d432 1cae 7aed 0000 15c0 2d33 fa4a dc24
000002f0: 9d97 929d 8247 12a7 e6be 5bac 31c3 0100
00000300: 212f 2216 aba1 2bb9 2bc4 af31 cc71 9520
00000310: 5b58 4528 f281 281f d7d2 e0b6 5fa1 fdb7
00000320: 207f 01b7 714f 34b5 9508 d733 cc59 899e
00000330: 5561 e82a 4cad 3095 c643 0180 9d79 f428
00000340: 6cb5 a831 2586 8e2d 1269 e62a 7a75 0129
00000350: 8013 051b e621 531f 9418 e6ab d6a0 8890
00000360: 0ea6 752b b8ad 79af f8c4 523a 9cd6 25b0
00000370: 50b3 af9c 7970 2a32 cfbd b531 875d feac
00000380: 5037 dc13 e60e 001a 8a9e 1bac 060d 71a8
00000390: 23aa 0f17 645a 8d26 79c0 8ebb 408a b7b3
000003a0: 36f9 a79c 28c2 4da9 f243 0f36 5d0a 88a4
000003b0: bb8d d0a1 661c 04b1 e8e8 20b8 cd92 38b6
000003c0: 70ce c894 b983 7629 980c 99ab 7e35 2939
000003d0: 973e 9e3a e82b 74ae ed7d f615 ce5f 831f
000003e0: 5e98 873b 54a4 5180 b282 e5a8 d198 e7b4
000003f0: 4851 8e2c 43b2 b82c 687d b92d 451e 0280
9.63689e-26 -2.873208e-08 1.5759053e-21 -1.285958e-12 4.9423907e-15 2.3672006e-15 9.931772e-06 8.3501004e-17
3.013024e-14 2.0108014e-22 -2.6756306e-11 8.5467117e-16 -3.2308076e-10 8.759307e-14 7.383152e-30 4.6939604e-21
-8.154487e-10 -1.0733413e-10 6.544201e-08 -2.0274418e-11 -1.0379486e-11 1.3522958e-16 -2.4291774e-06 -1.99902e-40
-6.202399e-19 -3.5840702e-07 8.529025e-11 2.4954917e-16 -9.9432907e-23 -3.095435e-11 2.352034e-14 1.5891866e-09
-2.8239333e-10 -9.013331e-12 7.769723e-10 -3.7773403e-16 -1.4207804e-08 -9.816825e-06 -7.874303e-22 -7.2732656e-13
5.8746868e-18 -1.6105606e-07 -1.0652352e-09 3.296396e-27 -1.391752e-06 -1.7665759e-08 1.5627599e-09 -1.2986628e-11
1.3024004e-16 3.7370926e-11 -4.434e-42 -4.728304e-25 3.3496008e-08 -1.7154075e-12 -7.2921625e-15 -5.5210845e-12
-4.035022e-18 -5.7498587e-16 9.27428e-10 -6.687781e-30 1.0909421e-23 7.2804496e-10 1.6705065e-15 -0.00012790492
-2.0232939e-11 1.3373308e-07 -2.8971343e-09 -5.2310288e-08 3.556854e-05 -8.4123e-41 1.6674301e-26 6.244174e-09
5.6144956e-25 -6.510929e-10 5.688555e-07 5.991689e-08 -1.7502072e-12 -4.7847893e-06 2.7473106e-05 1.6443754e-06
-5.3774768e-15 -5.4206772e-05 -9.290464e-10 3.4323473e-09 -1.1027989e-06 -5.4505027e-18 -0.00089025934 -1.3709488e-14
2.1379145e-13 -3.2576387e-16 -1.7063174e-20 -1.5591096e-12 -3.7778847e-22 -7.650591e-19 6.7697314e-10 1.1557695e-14
-1.17990115e-08 4.56238e-12 -3.338838e-17 -1.0568198e-20 3.533024e-14 4.3516355e-08 8.046204e-07 4.277358e-12
-3.2541697e-10 -1.8184961e-13 1.0432296e-11 -5.40948e-12 -8.030355e-13 5.8277996e-09 -0.009437793 -2.2592277e-19
-5.1881967e-14 2.699213e-11 -2.3554594e-14 5.075141e-38 -1.19411164e-14 8.701839e-08 -1.7662209e-25 -7.7933303e-13
8.747142e-11 -1.8903028e-08 -3.6759e-41 -1.2735458e-26 6.886265e-13 -9.06598e-15 -2.4867686e-19 1.5699754e-05
7.943234e-15 5.800086e-08 1.6325739e-22 1.0067953e-21 -7.2865575e-08 -8.9023264e-15 6.402763e-13 -1.545974e-15
-1.0233405e-14 -2.531894e-08 -7.7386e-38 3.645138e-16 -1.3997786e-30 -7.6981815e-12 9.423033e-22 -1.2620267e-11
4.1480507e-05 2.6464355e-23 8.7703173e-16 2.2067749e-10 3.190332e-14 -1.1718806e-10 -6.791143e-12 9.3654824e-05
1.8247107e-08 -1.01370276e-07 -9.894522e-08 -3.3098845e-06 1.85867e-07 -0.00016697447 -2.3356777e-16 -0.00018171452
-2.4156746e-14 1.548925e-39 2.2050057e-13 2.8836062e-18 2.0727898e-06 -0.00077716715 -1.7863512e-16 4.689163e-12
-1.8040749e-09 3.1888606e-12 -2.1509755e-14 2.1428088e-10 -5.8077276e-10 3.1972345e-06 -2.1280957e-12 -3.2329156e-10
6.3133316e-17 -0.003897251 -2.8478968e-18 -1.0870734e-05 -1.2537852e-13 -5.867332e-23 -1.7924093e-10 9.111347e-15
-3.5515438e-11 8.519e-41 4.04544e-08 9.5536806e-17 -3.8802643e-21 -2.0300335e-15 -3.1227742e-12 1.61857e-40
1.3101127e-25 -0.00016368057 5.115472e-09 2.5316886e-19 1.0954856e-14 3.5682872e-20 -6.700265e-06 -3.0235095e-05
-7.718598e-06 -6.717083e-07 1.0013279e-07 -1.4542578e-20 4.1279016e-13 -3.5679624e-26 -1.16148e-40 2.7142183e-14
4.910069e-09 1.6203103e-11 4.0929114e-13 2.874565e-14 1.1007803e-22 4.4709028e-20 -1.6349305e-12 -5.389035e-29
8.727193e-13 -2.2708135e-10 0.0008040215 -6.033163e-10 -1.162688e-21 9.920876e-09 5.289372e-09 -7.229498e-12
5.559035e-27 2.6481814e-23 -2.2114832e-12 -1.33810115e-14 4.6420535e-25 9.808341e-16 -0.0043564406 -8.546749e-08
-1.1115553e-21 -4.5687548e-14 2.134821e-06 -5.8998154e-17 -1.4132144e-18 -1.922467e-09 -3.8363884e-05 -2.7503586e-06
-2.0276264e-26 5.4737224e-14 -1.0874799e-12 0.00016137023 0.0012073097 -5.5518173e-11 9.9557285e-26 5.5639154e-20
0.0041380366 -7.497625e-39 -2.5480787e-14 -4.3138292e-07 4.0449068e-12 5.2493856e-12 2.1087757e-11 -1.9453e-40

fc2.bias f4 [256]
00000000: 9a30 0aba 0217 a93c 91d8 70b6 c655 8d38
00000010: e275 07b8 5482 1fbb ee8b 63b9 9b3b 71b9
00000020: 2cb6 59ba 095a 0037 00f3 0db1 7b40 aa3b
00000030: f3a7 93be dbe6 073e b055 753d cff5 e23d
00000040: 915f bf3b 379e 333e 5da5 f43d 3a6c 93b6
00000050: 30f5 9eb9 925e dcb8 ff9f a53d cb5b c33b
00000060: 90df f137 d16a ff3d 4e8c 19bc 615d d23e
00000070: 670d 81ba 1609 88b7 406a 3235 d3c4 c93d
00000080: 12cc 9b3d f095 0eb4 0762 233b 29ec 06bb
00000090: 5bb5 6bbc eb4d 813e 1d8d 43bc 1f15 6a3d
000000a0: b7dc c7bc b266 32b9 b406 653d 1d00 a03e
000000b0: 71aa 1f3d e60d 48bb 290d 1abd 8a9e 8434
000000c0: 3e91 923d 0b12 58bd b520 3fb9 d70a b038
000000d0: cc05 efb9 869e 2bba 0306 543e 4e75 3abb
000000e0: be9f e439 50ea 8cbc 73da 443b dfd6 5bbb
000000f0: e98b 91bd 907a deb8 a6d5 823d 122e 43ba
00000100: 26ff 5abc dcdf c5b5 bacb e53e 4081 103d
00000110: 2759 5cba a58a 3fb9 7ae2 55bb ee2d a73c
00000120: d361 cf3d 8005 57b9 12a9 513e c032 243d
00000130: 920e 673e 3097 8c37 30a5 7a3e 5d8a 273e
00000140: 6d8b be3b 2ffd c8bc 4f2d 5eb9 d60e b0b8
00000150: 0c62 bfbb 940b 683e 9305 a8b8 db70 c6b6
00000160: 67e1 dd3a fe34 14b8 771c 6ebc 7fd0 d4b9
00000170: 22a5 f33b 3ca4 b637 36f8 1439 e69e ff3c
00000180: 2069 063e 1a79 09b9 c9e2 adb7 24f4 103e
00000190: e705 54b8 3e54 343e 6629 9b3e ca32 893c
000001a0: 6b4a 5c3a f147 f3bb e5ef 22b8 98be cb3c
000001b0: 1804 953b 94c2 40bc 4cab 80b8 6501 abba
000001c0: aaab 5a3e 1432 af3d 9858 623e 4dd8 f5bb
000001d0: ccb6 53b7 d42b fdb9 7242 cf3d 1507 0f3c
000001e0: ad61 d5bc 78bc 42ba 2d52 3cbb fbbd a4bd
000001f0: 6810 bcb3 2628 e63d 9ca7 553d c39e 16b9
00000200: d961 f83d 6212 d03c bafb 47b9 9abd cab8
00000210: 97d9 9d3c f4b6 033d 8f0f 1eba 8138 b23c
00000220: ce48 823e de7e f93b c267 7cba c664 d7b5
00000230: 0e16 0838 b148 85b8 24ab 423b ab37 14b8
00000240: 2974 0f3e ca9d 42bb 805b 11bd 325e 243e
00000250: 2155 8fb7 4e80 133e 7c05 7abb 497c df3d
00000260: a87e aa3d 799c 8fbc 02a6 ad3d def2 a43c
00000270: ee99 02b9 cfe1 59ba 2bf4 8e3e 70f1 e03c
00000280: ea34 d9b9 a152 833b 5c74 843c 421b 8fb6
00000290: 16ec 2aba 9bfc f7ba 42e6 9bb8 e6c3 a7bc
000002a0: b9e1 98b8 6017 65bb 1c92 39bc f809 633c
000002b0: 39dd 5e39 dd9f 96ba 3c61 f6b6 a84c b33e
000002c0: ca0f 15b5 fd85 ad3d 5d16 fab8 ce34 93b9
000002d0: 1545 243d c142 bb3e 23dd 873e ac5c 16b8
000002e0: 1b0d c4b8 b531 7dbd 1d8e 063e fac7 87ba
000002f0: 25c4 543e 1fd1 a8b7 0c7e 4e3e 907b a0bc
00000300: 152b 6dbd 8e2b dfba 2f54 55b4 9b5d 6dba
00000310: cc6a 9fb6 14ba 0eb8 ab36 1cba 5099 c1b9
00000320: 5c4c 0238 43b9 cbb8 61f3 0d3e ec7b 44bc
00000330: 709a bf3d 0beb 0abb 350a 213e c8b9 feb8
00000340: c389 b5ba 01e8 0dbe a86a b03e b809 dab9
00000350: a7f2 6cbb 7d91 0a3e e226 97b9 b027 aeba
00000360: 127e bf3b 81f1 6db8 0789 9b39 ba96 0c3c
00000370: d69c c0bc a58e e3b9 a04b 94b6 26a5 bab8
00000380: 1f57 feba 9d00 f136 1008 b03e cbe0 1aba
00000390: 3e0c a5b9 2ae7 3cbb d48f 283d 8a83 a03c
000003a0: 1c7e 123e cced b0b7 940e 9dbb 6b4a 8a3c
000003b0: c1c3 a0b7 bf6e 49b5 9d08 90ba 6051 7a3e
000003c0: f236 d6ba f961 89b9 00e9 313e cad2 853a
000003d0: 5091 e2bc 7271 f8bc 1590 b33a 3fe6 b63d
000003e0: a0a5 c43e e146 10b9 158b 07bd 9ec8 f1ba
000003f0: 2b60 f9b9 bdf9 88b8 ebb2 3a3e bd08 08b8
-0.00052715244 0.020640854 -3.5888845e-06 6.7393805e-05 -3.2296295e-05 -0.0024339156 -0.00021700535 -0.00023005756
-0.0008305039 7.6503575e-06 -2.065633e-09 0.005195675 -0.28839073 0.13271658 0.05989617 0.110820405
0.00584025 0.17540823 0.11945603 -4.3935406e-06 -0.00030318787 -0.000105080326 0.080871575 0.0059618703
2.8833543e-05 0.124715455 -0.00937183 0.41086867 -0.0009845913 -1.6216694e-05 6.646478e-07 0.09851994
0.07607283 -1.3279328e-07 0.0024930255 -0.002058754 -0.0143865 0.2525476 -0.0119354995 0.05714905
-0.024397237 -0.0001701366 0.055914596 0.31250086 0.038980905 -0.0030525862 -0.037610207 2.4702268e-07
0.07156609 -0.052751582 -0.00018227364 8.394353e-05 -0.0004558995 -0.0006546754 0.20705418 -0.0028451267
0.00043606566 -0.017201573 0.0030037432 -0.0033544821 -0.07106764 -0.00010608614 0.063884065 -0.00074455247
-0.013366496 -1.4742795e-06 0.44881994 0.035279512 -0.0008405619 -0.00018266829 -0.0032636211 0.020407643
0.1012608 -0.00020506047 0.20474651 0.04008746 0.22564152 1.6759703e-05 0.24477077 0.16361375
0.0058149607 -0.02453479 -0.00021188449 -8.3950974e-05 -0.0058405455 0.22660667 -8.0119025e-05 -5.913998e-06
0.0016928137 -3.5335303e-05 -0.014533154 -0.00040591133 0.007435457 2.1772568e-05 0.00014206846 0.031203698
0.1312604 -0.00013110452 -2.0728812e-05 0.14155632 -5.0550236e-05 0.17610261 0.30305022 0.01674785
0.0008403423 -0.0074243476 -3.884723e-05 0.024871156 0.004547607 -0.011765141 -6.135422e-05 -0.001304668
0.21354547 0.085544735 0.22104108 -0.0075025917 -1.2619141e-05 -0.00048288575 0.10120095 0.008729716
-0.026047552 -0.0007428597 -0.0028735504 -0.080440484 -8.7574165e-08 0.112381265 0.052161798 -0.00014364258
0.12128038 0.02539939 -0.00019071894 -9.667427e-05 0.019268794 0.0321569 -0.000602954 0.021755459
0.2544617 0.0076140007 -0.0009628498 -1.6048077e-06 3.2445467e-05 -6.355474e-05 0.0029704059 -3.5337795e-05
0.14009155 -0.00296961 -0.03548765 0.16051558 -1.708657e-05 0.14404413 -0.0038150242 0.109123774
0.08324939 -0.017530667 0.08478929 0.02013534 -0.0001245511 -0.0008311541 0.2792066 0.027458876
-0.0004142889 0.004007653 0.016168766 -4.2649053e-06 -0.0006520165 -0.0018919887 -7.433865e-05 -0.020479154
-7.289969e-05 -0.003495656 -0.011326339 0.013857357 0.00021253982 -0.0011491735 -7.342691e-06 0.35019422
-5.55298e-07 0.08472822 -0.000119250944 -0.00028077367 0.040104944 0.36574367 0.265359 -3.5849094e-05
-9.3484494e-05 -0.061814982 0.1314015 -0.001035928 0.20777948 -2.012454e-05 0.2016527 -0.01959017
-0.057902414 -0.001702653 -1.9867797e-07 -0.0009054781 -4.751002e-06 -3.4028737e-05 -0.0005959074 -0.00036926055
3.106553e-05 -9.714302e-05 0.13862373 -0.011992436 0.093556285 -0.0021197225 0.1572655 -0.00012146268
-0.001385026 -0.13858034 0.34456372 -0.0004158744 -0.0036155374 0.13532062 -0.00028829934 -0.0013286974
0.005843886 -5.673012e-05 0.00029665997 0.008580858 -0.023512285 -0.00043403092 -4.4195476e-06 -8.8999324e-05
-0.0019404626 7.182431e-06 0.3438115 -0.00059081306 -0.00031480374 -0.0028824308 0.04115279 0.019593973
0.1430592 -2.1091568e-05 -0.0047929976 0.016881188 -1.9164641e-05 -7.503949e-07 -0.0010988895 0.24445105
-0.0016343279 -0.00026203672 0.17374039 0.0010209915 -0.027657181 -0.030327532 0.0013699556 0.08930635
0.38407612 -0.00013759315 -0.033091623 -0.0018446629 -0.00047564632 -6.531503e-05 0.18232314 -3.2433065e-05

fc3.weight f4 [256, 256]
00000000: 2240 ef83 d6e0 8e2b 4bbd d328 200a 86b0
00000010: 4211 ed9b d4cc eeaf 06e0 e5a2 f815 3030
00000020: cf7c 7e2f 79df 0080 81db 88a8 c44a 0180
00000030: d08a 87a9 a9f2 7bbd e854 79ae e484 ae38
00000040: 3239 6b29 702c 08be 96f5 2a33 aca6 c3ad
00000050: e888 671c 4ece 812b 4d22 35bc 9b52 5bb1
00000060: df6f da2f 8a1c 08b0 3eba 4e22 d82f 7cbc
00000070: abe6 0180 2e80 7930 74e2 0000 915d 14b8
00000080: de9b 772f 32fd a220 3bc4 5638 8899 e32a
00000090: e2c8 fc25 625a 87b1 7e34 1630 ba59 942e
000000a0: b57e b02d a066 a92c cf5f 90ad 0e85 0fbd
000000b0: 9b2f 68bd 8571 832e 2f7d 0000 0ba6 1a19
000000c0: 4e48 18b0 049d 0000 24cd 332f fd84 03ac
000000d0: 9cd7 cf26 d178 9eab 56be 27af ee23 c82a
000000e0: 7662 8ca0 8450 302b 6055 572f 14ae cfad
000000f0: 04fa 20b1 c75a 06ac 87d6 0100 af5a 0200
00000100: 361e 22af 0b9e 0180 4052 8bb3 54e3 74af
00000110: e092 2798 d851 45ab 04aa 0080 52f0 7698
00000120: 70af 9130 d76b a2ae 7c61 a5bb 97c3 89b1
00000130: dc9e 7832 39b5 90a6 3d88 64be d842 07be
00000140: 26b4 9d2f ba24 862f 1e0d 2519 48ae e7ae
00000150: ca10 f52c 0029 e7b0 9433 992e 10e2 492f
00000160: 3b68 352d a02b 3aaa 38c8 8f30 04b7 8fa6
00000170: 04d9 3daf 06a0 c126 b8b1 f42a 7cae 89bc
00000180: 14b9 90b1 9390 992c c0fd 1981 0b2d 39be
00000190: 8cbe b4ad 6631 23b9 1ae2 39b6 6a8f 91b5
000001a0: 4843 3eb0 48dd c630 11a4 b82f 14c4 3bb6
000001b0: 2d52 222d e0ac 60a1 089a 90a6 4849 51b0
000001c0: 44d1 62b9 791d ff2d 28c3 c630 6082 6a2c
000001d0: 4408 0113 7166 0080 ee7a a3b1 d7b8 18af
000001e0: 7548 1730 3dde 0080 9076 08ac 48b1 9615
000001f0: 668e 8cac ea08 59af 3c12 7730 30a5 f92a
00000200: a6e4 72be 5476 daaf 479a b52b eff0 1cac
00000210: 7abb bd2c 9c3c e1ac 244a 8fac 7ea2 0380
00000220: ee77 a122 c211 752f 700a b0af 2433 2bab
00000230: c817 be8d 80b6 23ae 2ac9 9c14 04f0 032a
00000240: 8735 2dbc 6305 1526 6f01 e32e 54cd f9b8
00000250: 1fb3 8aa5 6687 a530 6576 a62c 70a3 2cbc
00000260: 5b8b d6ba 2cde ebaa 83ce dc36 8156 79b2
00000270: 2587 04af 3077 a72e 0750 3238 ba89 ec2f
00000280: 8810 10ab 46f9 cc23 bda5 5f31 2a65 a028
00000290: 2327 94a9 e479 822b b1f8 83a6 4f50 1baf
000002a0: 3741 0522 9697 582e f824 1daf c050 9ba8
000002b0: eb6c 63a5 e8bb 7b29 f4e7 8fae 750f 50b1
000002c0: 7697 d32d 3fca e9bb d71f 1a2d 5029 3f2b
000002d0: 40ae 8f2b 585a a7b8 f83a 07be 96e3 1db0
000002e0: 02b6 4fae 9b79 c7ad d6b8 0330 0872 36a8
000002f0: 6af5 c3bd 40f0 0080 4e23 8731 1e16 0e2f
00000300: 8823 79bc 70f1 0080 aa88 791b c89a ddaf
00000310: b1ca e8aa 9514 b299 84c9 7a18 8561 8095
00000320: 7216 fb2a fab8 0080 36eb 61be 8a7b 0130
00000330: 9d2c 1931 140c b3ac a82d 123a 3f3d 30ae
00000340: 781b 2f2b f9bd 8bbc e3ca c7b4 5f25 9b25
00000350: 2340 55af 9ade 9cbc 62ef 0eb1 131d 5cad
00000360: 4f58 6eae 1ae1 bd2e 96a5 882f 139a e2ae
00000370: 7a6a 442f 2f33 9caf a70e d72e 3c33 1daa
00000380: e3e2 41af 7202 dbaa 8867 d7bb cf2e 0080
00000390: 5a61 c0a9 1efb 94ac d407 342d e59b eebb
000003a0: 5d4d d1b8 d395 8fa4 6cf3 70ac 3187 16aa
000003b0: 96f0 a89c fbe5 4225 cbad 8a30 15e0 91bd
000003c0: 420e 0a96 b75c cfad c0ab bcbd 4b22 41b0
000003d0: 4e16 0d30 9663 4aaa 75a4 c72f bad7 cf2a
000003e0: f84d 9ca9 7e91 08ad 9ef8 d0ac f0d5 372e
000003f0: 2042 0080 dace 54ad c44b 24b1 5c62 259d
-1.4061882e-36 1.0152111e-12 2.3507799e-14 -9.752661e-10 -3.9219514e-22 -4.3437487e-10 -6.230777e-18 6.4059646e-10
2.3145506e-10 -8.0167e-41 -1.5194228e-14 -1.18656e-40 -6.0192845e-14 -0.061510716 -5.6691457e-11 8.321719e-05
5.223009e-14 -0.13298202 3.980457e-08 -2.224295e-11 7.6608436e-22 9.223262e-13 -0.011055541 -3.191565e-09
3.9733458e-10 -4.951707e-10 2.8016802e-18 -0.015392266 -1.74584e-40 9.0767827e-10 8.1236e-41 -3.537309e-05
2.2519894e-10 2.7611418e-19 5.120433e-05 4.0429834e-13 4.3851155e-16 -3.9392924e-09 5.464428e-10 6.7461994e-11
2.0065153e-11 4.8146626e-12 -1.6413452e-11 -0.035039 -0.056686025 5.9773554e-11 4.4907e-41 7.9951455e-24
-5.540003e-10 5.6327e-41 1.6352836e-10 -1.8690043e-12 1.4421951e-15 -1.1260109e-12 -1.5256182e-10 3.5552068e-13
-2.3782079e-19 6.26395e-13 1.9584467e-10 -2.3610482e-11 -2.3425182e-09 -1.9092937e-12 1.68793e-40 2.16202e-40
-1.4744547e-10 -1.4853e-40 -6.487653e-08 -2.2272434e-10 -2.1658397e-24 -7.010204e-13 -6.099e-41 -3.1916086e-24
1.0600001e-09 -7.386063e-11 -0.0050470214 -4.0094608e-09 1.447162e-08 -1.0041128e-15 -0.22317596 -0.13209093
2.8686137e-10 2.4400554e-10 8.532949e-24 -1.05356224e-10 6.9651828e-12 -1.6819115e-09 6.9667966e-11 1.8361157e-10
1.0311803e-11 -1.6535254e-13 1.0461525e-09 -9.972225e-16 -1.7266549e-10 1.343544e-15 4.3466424e-13 -0.016806833
-4.2119925e-09 4.3645725e-12 -2.8283719e-38 -0.18083589 -2.054825e-11 -0.00015563294 -2.7698757e-06 -1.0845081e-06
-6.921721e-10 1.4469288e-09 3.358598e-10 -2.7979304e-06 9.2268805e-12 -7.612295e-19 -1.0033757e-15 -7.6137896e-10
-0.00021630997 2.9003232e-11 1.4461863e-09 3.3325773e-12 1.6286164e-27 -3.6749e-41 -4.7579e-09 -1.3889988e-10
5.503645e-10 -7.9724e-41 -1.9392578e-12 6.086422e-26 -3.9948487e-12 -1.9739202e-10 8.988399e-10 4.4345907e-13
-0.23720035 -3.9738046e-10 1.2903644e-12 -2.2302678e-12 5.392517e-12 -6.4016136e-12 -4.0725357e-12 -3.33798e-40
4.376612e-18 2.2288929e-10 -3.202163e-10 -6.0822376e-13 -1.1715379e-30 -3.7224e-11 1.583132e-26 1.171841e-13
-0.010571844 5.170206e-16 1.03230195e-10 -0.000119114906 -2.406056e-16 1.2043813e-09 4.731148e-12 -0.010537013
-0.0016368435 -4.1898548e-13 6.580552e-06 -1.4513376e-08 -1.2053343e-10 7.615453e-11 4.251304e-05 4.302601e-10
-5.118202e-13 2.2223296e-17 3.2544982e-09 1.7807441e-14 -6.5793094e-14 9.270887e-13 -9.157359e-16 -1.4125699e-10
1.8059386e-18 4.924735e-11 -1.4292201e-10 -1.7243477e-14 -1.9726014e-16 5.589618e-14 -6.54409e-11 -3.027677e-09
2.4055185e-11 -0.0071347053 8.760956e-12 6.7914164e-13 1.0209125e-12 -7.9800084e-05 -0.13206089 -5.7439686e-10
-4.7228006e-11 -2.2677684e-11 4.792019e-10 -1.0127756e-14 -0.095682934 -8.6185e-41 3.933031e-09 1.2922682e-10
-0.015206225 -8.6611e-41 2.0640956e-22 -4.0309645e-10 -4.1352124e-13 -1.8413082e-23 3.2413482e-24 -5.185265e-26
4.460213e-13 -6.6357e-41 -0.22062382 4.7105486e-10 2.228979e-09 -5.088827e-12 0.00055762613 -4.0072164e-11
6.221061e-13 -0.01705836 -3.7214258e-07 2.6913538e-16 -1.9395023e-10 -0.019149113 -2.0799793e-09 -1.2512008e-11
-5.419337e-11 8.634711e-11 2.4855912e-10 -1.0304659e-10 1.7863924e-10 -2.8412603e-10 9.779671e-11 -1.3962177e-13
-1.7633854e-10 -3.8903912e-13 -0.006573621 -1.6792e-41 -8.5434006e-14 -4.2342926e-12 1.0233554e-11 -0.0072817677
-9.980307e-05 -6.2270176e-17 -3.4241178e-12 -1.336958e-13 -1.1179497e-21 1.6904738e-16 1.0090216e-09 -0.071228184
-1.115205e-25 -2.3574349e-11 -0.09212446 -7.0261724e-10 5.13272e-10 -1.7975755e-13 3.6314743e-10 3.6920277e-13
-6.941317e-14 -7.763011e-12 -5.9393176e-12 4.1799397e-11 -2.3721e-41 -1.2096735e-11 -2.3908209e-09 -2.1888419e-21

fc3.bias f4 [256]
00000000: e4b7 72b0 64d6 b137 10de fc38 30a9 37bd
00000010: 7571 0000 0d17 beac 9f8f c835 c95c a610
00000020: 4891 1008 ff93 0080 0dd6 54ac 8c67 1d38
00000030: 7681 6c3b c0bd 03bb 6096 9835 2700 2fb4
00000040: a73c d02c d8bb 0100 a437 c5b5 a4a6 948b
00000050: e900 a53b 4693 f80e d8ea 0180 0eea fc3c
00000060: 8126 0000 7cb5 fd35 008e 7609 7a8b 1ab4
00000070: d92e 0080 10a8 190e bcd7 9207 5c36 913b
00000080: 630a 631d ab61 7e1d bd7a 0100 0117 0080
00000090: c412 0000 d208 0180 e0d4 20bc ce92 c0bc
000000a0: a807 1333 ce14 7308 34e2 eeaf 6280 8737
000000b0: b311 9222 e05a c3bb 70ae a83c 2bcc 5d34
000000c0: 462e 3894 a6fa 0180 4833 faa6 0b1b 841c
000000d0: 2b30 2538 7c1b 8829 9883 2f2b b610 e6b4
000000e0: ef1c 0000 7229 d9b6 ccf2 b01b fb9f 0080
000000f0: dd7e 81b3 0bc9 9faf 296b 4e3b 3af0 b439
00000100: f93f d2ba 8f6f 0b36 9818 edbc b862 22bc
00000110: 87a0 deaf 81e5 0080 8086 0000 ed96 628f
00000120: f032 4e08 174c 3997 2dfc dc36 c4fd 0000
00000130: c916 9530 4635 362c 32d9 0000 93a5 a229
00000140: 9bb4 ab2d 2716 0f2b a27b 84ad 05ef f63c
00000150: bfc9 9595 5a2a 11b3 3833 448d 7c4d af39
00000160: 1353 9e1f bd4c 0000 12ec 088c 60ea 7730
00000170: c780 09b8 f2ff 192a 8c0f 910d 0343 06ba
00000180: 60d4 0eb7 1af9 0000 d885 149c 02bd 0000
00000190: de82 5c08 1969 0000 1c9f ac2d de6c 94bc
000001a0: c73b 0080 b6b5 8030 22ae bb34 aaec 99bb
000001b0: 481f 8fbc 2195 c836 e13e 21bb d3bd 93b6
000001c0: 96d1 c9bc 583d 96b7 96ac bcab ad2f d0b2
000001d0: 05a2 ad2d 234f 2f11 beb9 0100 0f66 1e3d
000001e0: 7a2e 313c 9ee8 8183 cffc 6889 2394 2487
000001f0: 10cc 0080 3935 a330 f134 151a 0ae4 0080
00000200: 0e52 809b 3224 34bb 3677 aca3 57d1 0080
00000210: 4c9b 9c1e 6c57 8886 94cc 0080 b567 c33e
00000220: 4acd 4cba 73e8 1d08 fcdd a4a0 dc09 b518
00000230: 7bce 0080 ea03 8b3a 370f 0f08 d43e 6991
00000240: f5ad 0080 63ab 0080 1eb5 cc37 f854 879d
00000250: 26ea 3b30 6e5f 3b28 7556 f2ab fb18 0080
00000260: 8f74 8b1b dfe4 88b7 0dcb 648b a52b c13e
00000270: 4eca 8527 51ce 8c29 e522 a29c 911a 54ae
00000280: 83a1 d715 68aa b791 3f79 5b3b 1fc6 1334
00000290: c897 7c03 8468 343c 25d5 ec85 589e 7937
000002a0: 5517 0d80 a893 249b b797 c3b8 b96e 092d
000002b0: 2fcc 3e98 2667 902f aae8 0180 eb63 beb8
000002c0: 6000 2f8e a534 9e8b 0c8c f838 3c51 f22d
000002d0: 706c 0080 062b 2c1d 76bb 01b5 c649 0e13
000002e0: acdd 27a4 6047 5416 15c6 0000 c447 8fae
000002f0: 4053 13b9 29c9 0000 ff97 4190 20c4 3306
00000300: 5383 9f3d 3ac6 6aaf e802 5231 8cc5 cd36
00000310: 5426 07bb da1c 6a1d 34cd 5220 e7d6 8c36
00000320: 3636 ab30 ba1f ee3b fa0a 0280 8805 6baf
00000330: 6b2c aba3 c477 e4b6 1212 0100 2adb df85
00000340: 2f38 bb2d 2cba 0080 759b 5dbc aeb0 e6ac
00000350: a10d 0280 e0d7 0000 bebe 7b1c 8e7e 1cbc
00000360: c8ae 8935 29db 1487 64cd 1c1d 020f 3089
00000370: 3ada 102c 9d2e 4aae 4007 ae2f 0912 e1bd
00000380: 3c23 203c 5ee3 05ba c6f8 b231 51ed de30
00000390: a6b2 e8aa 26dc 811b 103e 0080 08fd 0100
000003a0: ffaa 2200 69c8 fcba 6f35 0100 f85c 1ba4
000003b0: 88f1 2a18 3219 0200 488d 0638 95a0 cc21
000003c0: fccf a1bc 0927 7018 0d31 0200 ad54 0000
000003d0: c852 0200 8d88 0000 e4e5 8726 b178 25a4
000003e0: ec8a 07bd 26a1 753d b907 1e32 85b1 bc39
000003f0: 3f6c 8d30 b40b 8f94 6e8e 591a 19f6 9dbd
-8.830041e-10 2.1199878e-05 0.00012057659 -0.044839084 4.0701e-41 -5.402684e-12 1.494296e-06 6.5618413e-29
4.35042e-34 -5.3091e-41 -3.0245834e-12 3.7528152e-05 0.0036087907 -0.0020102113 1.1368647e-06 -1.62982e-07
5.9184493e-12 1.59221e-40 -1.4693837e-06 -5.725826e-32 0.005035509 6.127854e-30 -1.76082e-40 0.030873325
1.3813e-41 1.8902788e-06 2.9677941e-33 -1.4393109e-07 -1.6806e-41 1.8939625e-30 2.2094436e-34 0.004431529
3.004857e-21 3.3667113e-21 1.35866e-40 -8.252e-42 6.732e-42 -9.5e-41 -0.009816378 -0.023507502
3.4233068e-08 7.314961e-34 -4.3452675e-10 1.6153037e-05 3.959212e-18 -0.005961761 0.02059099 2.0656505e-07
-9.298752e-27 -1.81751e-40 -1.7361135e-15 8.742018e-22 3.9383925e-05 6.044381e-14 6.235511e-13 -4.2852997e-07
1.038e-41 -6.471929e-06 2.9273661e-22 -5.739e-41 -6.030107e-08 -2.906478e-10 0.0031496978 0.00034511258
-0.0016040794 2.077755e-06 -0.028942391 -0.009911232 -4.0495626e-10 -8.233e-41 4.825e-41 -1.11717275e-29
6.2050747e-34 -5.9872763e-25 6.585868e-06 9.1034e-41 1.0847653e-09 2.5893328e-12 7.7915e-41 7.222968e-14
1.9520654e-11 5.083455e-13 -1.5061567e-11 0.03014327 -6.049892e-26 -3.3798962e-08 -6.0458815e-31 0.0003343633
6.705304e-20 2.7529e-41 -1.0548099e-31 9.0191143e-10 -3.278328e-05 1.3677929e-13 8.940058e-31 -0.000512168
-8.513307e-06 8.9361e-41 -4.914208e-22 6.7803e-41 6.6357675e-34 3.7702e-41 1.9624795e-11 -0.018118318
-2.1444e-41 9.364871e-10 3.4958163e-07 -0.004697402 -0.01747097 5.9778254e-06 -0.002460413 -4.40304e-06
-0.024636071 -1.7909959e-05 -1.3406106e-12 -2.4236067e-08 1.9739774e-11 1.3829452e-28 1.58467e-40 0.03867155
0.0108143035 -7.635345e-37 -2.8044854e-33 -1.2381522e-34 -7.3204e-41 1.1874938e-09 3.0855244e-23 -8.1805e-41
-2.122885e-22 -0.0027487394 -1.8698765e-17 -7.5097e-41 1.6581372e-20 -5.128597e-35 -7.3389e-41 0.3816506
-0.0007812573 4.751871e-34 -2.7929578e-19 4.679736e-24 -7.4071e-41 0.0010606025 4.305038e-34 -1.839982e-28
-6.2404e-41 -6.1482e-41 2.4403034e-05 -3.582206e-21 6.836295e-10 1.0401278e-14 -1.7219131e-12 -8.961e-42
2.3070945e-22 -1.631904e-05 -4.406396e-32 0.3772861 3.7134255e-15 6.253039e-14 -1.0729281e-21 -4.8226815e-11
8.709263e-26 -2.897733e-28 0.0033489016 1.3762518e-07 7.423038e-37 0.011011247 -2.227163e-35 1.4878424e-05
-1.202231e-39 -1.3613472e-22 -9.326584e-05 7.812134e-12 -2.466001e-24 2.626674e-10 -1.753e-40 -9.078517e-05
-2.1570596e-30 -6.0938597e-32 0.00011851647 2.754829e-11 -3.89e-41 2.2786253e-21 -4.8329036e-07 1.7959293e-27
-3.6400116e-17 1.7147746e-25 7.1058e-41 -6.515635e-11 -0.00014050025 7.2163e-41 -3.8179632e-29 3.3810248e-35
0.0778872 -2.13526e-10 3.0560674e-09 6.1324736e-06 -0.002062221 3.0984558e-21 1.7855588e-19 4.197343e-06
1.2457295e-09 0.0072669657 -1.87609e-40 -2.137509e-10 -1.8558669e-17 -6.808872e-06 9.8318e-41 -2.1051327e-35
2.128439e-11 -6.6786e-41 -0.013525833 -6.5566086e-12 -1.8856e-40 7.7441e-41 8.329546e-22 -0.009551657
1.0258163e-06 -1.1198688e-34 2.0752613e-21 -2.1192286e-33 2.058477e-12 -4.5970883e-11 3.1655567e-10 -0.10989768
0.0097740255 -0.0005107428 5.208764e-09 1.6220075e-09 -4.133544e-13 2.1483527e-22 -2.2264e-41 1.82606e-40
3.183749e-39 -0.0019285801 1.11004e-40 -3.3689015e-17 2.2093927e-24 1.9271e-40 3.2079668e-05 1.3866083e-18
-0.019752495 3.103898e-24 2.01267e-40 3.0376e-41 2.13367e-40 4.8985e-41 9.429819e-16 -3.58809e-17
-0.03309147 0.059968136 9.198566e-09 0.00035990417 1.0289866e-09 -1.4443926e-26 4.4989602e-23 -0.07712955

fc4.weight f4 [1, 256]
00000000: 7c0c a23f a5c8 ae3e b1ce 7c3e 3d48 5cbf
00000010: ea83 94bc df43 d23a edb5 6bbd be85 e4ba
00000020: 7288 bf3c 2d64 043d b157 b83e fa59 8ebf
00000030: 1ebc ddbd a65f 1fbd b11e 72be c0eb 05bf
00000040: c319 1e3e 58ad 093a 0458 023d a51d 4cbe
00000050: 835a a3be 2741 ebbe 7d5e 493e 5b9a 873e
00000060: 7187 03be b1ff 9fbd 1c0e acbe ba04 a5be
00000070: 81d0 c9bd 0aef 02bc b2c7 4fbd 04a5 83bd
00000080: 4cbd c9bc 9c3c 13bf 4348 f13b e2c7 303e
00000090: 364b 3b3d 6799 8f3d 31ff 6e3e 83df acbd
000000a0: 551a db3c 03af 00be 7196 983e 7655 f1be
000000b0: 4ca9 c3bd f042 61be 17dd 43be d4d3 123e
000000c0: 0183 ba3d 7977 e8bd 9b39 00bf fe9c 10bc
000000d0: 538c 0c3e 2606 a7bd 9a2b 643f 1a4c 573e
000000e0: 6581 313e fe24 f5be ed24 e83e a896 b7bd
000000f0: 10a7 0ebe 77da 383e bfb3 2ebe 7950 5d3c
00000100: de69 f4bc d4c7 b73e 5bb3 23bf 15e6 ae3e
00000110: 220a 20be e354 8ebd 5dac 80bd 81a3 08be
00000120: 2844 30bc 6b05 a4be a85d 06bf 3c0d e23d
00000130: 7869 053f 6225 e3be 07eb 6f3d ae9e 34bd
00000140: 8a03 9f3d 257e 143e 0e06 8e3c 0ae2 6dbf
00000150: a3a2 94be 4e9a 403f 36e2 aabd b549 923e
00000160: 98f3 423e 9ab6 48bd 2528 8f3e d357 0bbf
00000170: a5e5 bc3c aa11 edbe 636e 9f3d ae2c aa3e
00000180: b08b 65bf 95d1 99bc a026 30bf 716a abbc
00000190: 1dc8 62bc 9bee f43d 47cb adbe d2c6 3abe
000001a0: 2a86 9abb b6a1 82bd 1d48 64bd e250 c0be
000001b0: e31b b0be 2a3c 1fbe f2bc 773d 3b79 623f
000001c0: ca7b eabe a428 50bf cd22 0e3f 2131 5b3e
000001d0: 84ec 2bbe fbb9 61be 0578 243d 239d 163f
000001e0: 435a 21bf 34b6 2b3e ad93 923d 1270 223c
000001f0: 3f9a 89bc e8e9 ba3c 86a0 173d 1c3a 5e3c
00000200: 0224 0abe 419f e6be d11b 66be 6c44 823a
00000210: fd97 2cbe 6a9d bebd 11ca 513e ce70 003e
00000220: 4b1c 78bf 4308 d63d eca9 493f 8931 c73e
00000230: 1e8b 593c 9678 a43c c199 0bba 43b5 18bd
00000240: 6ee5 673b 656c 0dbe 62ec 1c3e 1d3c 703f
00000250: 91e7 6dbe 7834 473e 35d2 5ebe d1a7 da3e
00000260: bbfc 413c c7d7 edbc bc35 3ebc e1f8 8f3e
00000270: 7344 7cbe 1382 ecba 6c19 0abf 3b40 63be
00000280: 88c7 5cbe 0f34 163c 275c 5cbe 24b7 3bbe
00000290: 4103 633d 3f0d 433d 3e0c 983e a6d6 a8be
000002a0: 2dfb 7f3c 009d febd 258f 26be deef 933e
000002b0: b481 863e 86e7 2cbf 412b f73c 15e5 28bd
000002c0: 87de 23be f367 a3bb ee05 2cbd 5fe3 ccbc
000002d0: 434c 403b b950 5fbe d99c 6a3d 5017 d83c
000002e0: f726 83bd 265d bd3b 39cd 58bd a526 04be
000002f0: bba1 ad3e 008c b73d 32ca 87be 590e 92bc
00000300: e8fb e43e d69b cf3e 4916 a03e 4b61 e13a
00000310: c959 89bd 8a09 093f 0f04 3ebc 838a 1f3f
00000320: 4919 bcbe 8213 f53e ad59 4d3b d9cf b43e
00000330: eb12 833d 3b2d b4ba 9b2f 3fbd e004 9abe
00000340: ffa0 b5bc 7613 bfbe caed 523d 5978 903c
00000350: 2eab f4be 47ab 193d 32d1 e2bd 5ce2 613f
00000360: c633 75be 4c28 e63e 4443 c7bd fc63 353e
00000370: 7836 65bd 2948 063c a899 ee3e 7e8b f5bc
00000380: faa7 6b3e 207b 17bf 72de 373f 34b3 5fbd
00000390: 7f9b b93e d000 8cbb 3e0a ebbc 1cd1 223f
000003a0: 9865 26be 5fee 5ebe 8778 a8bd d597 fa3d
000003b0: 9354 69be bebc e3bd 8070 6f3e 9ba7 a2bd
000003c0: af63 84be 5ad7 fdbc 4c27 2c3c ef3b c43d
000003d0: bc2a 79be ade3 be3c f829 46be 3185 08be
000003e0: 20f9 6b3d 4e2c 2b3f a85a 21be 1e6a 2c3f
000003f0: 25ec 8c3f cce5 13bf 970f d33d 5bdd c4be
1.266006 0.34137455 0.24688222 -0.86047727 -0.018129308 0.0016041956 -0.057546545 -0.0017434878
0.023380492 0.032322098 0.36004403 -1.1121209 -0.10826896 -0.038909577 -0.2364452 -0.5231285
0.15439515 0.00052519655 0.03182222 -0.19933183 -0.31904992 -0.45948145 0.1966495 0.2648495
-0.12844636 -0.07812441 -0.33604515 -0.3223017 -0.09854222 -0.007991562 -0.050727554 -0.064279586
-0.024626397 -0.5751436 0.0073633506 0.17263749 0.045726024 0.07011681 0.23339535 -0.08441069
0.026745955 -0.12566762 0.29802278 -0.47135514 -0.09553775 -0.21998191 -0.19127308 0.14338619
0.09107018 -0.113509126 -0.500879 -0.008826492 0.13725404 -0.081554696 0.8912903 0.21025124
0.17334516 -0.47879785 0.45340672 -0.08964282 -0.13930917 0.18052088 -0.17060755 0.013507956
-0.029835638 0.35894644 -0.6394555 0.34159914 -0.15628865 -0.069497846 -0.06282876 -0.13343622
-0.010758437 -0.32035384 -0.5248666 0.110376805 0.5211406 -0.44364458 0.05857375 -0.04409664
0.07764347 0.14501245 0.017336871 -0.92923033 -0.29030332 0.7523545 -0.083439276 0.2857186
0.19038236 -0.049002267 0.27960315 -0.54430884 0.023058722 -0.4630254 0.077847265 0.33237213
-0.8966627 -0.018776694 -0.6880894 -0.020924779 -0.013841656 0.11959573 -0.3394415 -0.18239906
-0.0047157006 -0.063785 -0.055732835 -0.3756171 -0.34396276 -0.15550295 0.060482927 0.88466233
-0.4579757 -0.8131201 0.5552185 0.2140546 -0.16789442 -0.22043602 0.040153522 0.5883352
-0.63028353 0.16768724 0.07157073 0.009914415 -0.016797183 0.022816613 0.03701832 0.013563659
-0.13490298 -0.45043376 -0.22471549 0.0009938604 -0.16854854 -0.09307368 0.20487238 0.12543032
-0.9691817 0.104507945 0.78774905 0.3890498 0.013277797 0.020077031 -0.00053253403 -0.03728224
0.0035384553 -0.1381088 0.15324548 0.93841726 -0.23232867 0.19453609 -0.21759875 0.4270616
0.011840041 -0.029033555 -0.011609491 0.28119567 -0.24635486 -0.0018044136 -0.5394504 -0.2219247
-0.2156049 0.009167685 -0.21519528 -0.18331581 0.055423025 0.047620054 0.2969684 -0.32976264
0.01562385 -0.12432289 -0.16265543 0.28893942 0.2627083 -0.67540777 0.030171992 -0.041234095
-0.16002856 -0.004986757 -0.041997842 -0.025010763 0.002934233 -0.21808137 0.057278488 0.026378304
-0.06403916 0.0057789264 -0.05293009 -0.12905367 0.33912453 0.0896225 -0.2652145 -0.017829107
0.4472344 0.4054858 0.31267002 0.0017195133 -0.06706578 0.5353018 -0.011597647 0.6232073
-0.3673804 0.47866446 0.0031333969 0.35314825 0.06400093 -0.001374639 -0.04667626 -0.30081844
-0.022171495 -0.37319535 0.051496305 0.017635511 -0.4778685 0.03751686 -0.11075057 0.8823602
-0.23945531 0.4495262 -0.09729627 0.17713922 -0.05596015 0.008195915 0.46601605 -0.029973742
0.23013297 -0.5917225 0.718238 -0.05461426 0.36251447 -0.004272558 -0.028691407 0.63600326
-0.16249692 -0.21770619 -0.08226114 0.12235991 -0.22786169 -0.11119984 0.23382759 -0.079421245
-0.25857303 -0.030986477 0.010507416 0.09581744 -0.24332708 0.023301924 -0.19351947 -0.13332058
0.05761063 0.6686448 -0.15757239 0.6734942 1.1009566 -0.5777252 0.10305708 -0.3845013
