shanghai_road_delivery/results_centralized/centralized_episode_300.pth_centralized_critic.pth (torch, 919188 bytes, 7 tensors)

fc1.weight f4 [256, 378]
0	0xb7f34574	-2.9000199e-05
1	0xbb7d1c88	-0.0038621742
2	0xbd087899	-0.033318136
3	0xbd071ef5	-0.032988507
4	0xbd076cb9	-0.03306267
5	0xbd066d22	-0.03281892
6	0x30fb856a	1.8300572e-09
7	0xb911cde6	-0.00013904981
8	0x3035b880	6.6109607e-10
9	0xabb5ea6c	-1.2925889e-12
10	0xab532e69	-7.5026666e-13
11	0xbcadb7bf	-0.021205781
12	0x3b18e316	0.0023328713
13	0xaaf28f8a	-4.3087436e-13
14	0xbb385cfb	-0.0028131593
15	0xbcaa0e4b	-0.020758769
16	0xbcc44da2	-0.0239628
17	0x312a84e4	2.4813795e-09
18	0xba41c978	-0.0007392387
19	0x3b000b56	0.0019538007
20	0x3a59db51	0.0008310574
21	0xaf96df92	-2.7443697e-10
22	0xba92c9b0	-0.0011199024
23	0x3049ba2a	7.338793e-10
24	0xba38e9b7	-0.0007053869
25	0xba320288	-0.00067905383
26	0xb293df34	-1.7214553e-08
27	0xbaafd284	-0.0013414179
28	0x3bcdf61e	0.006285443
29	0x3889f6c2	6.578631e-05
30	0x3c02fe86	0.007995253
31	0x31ad944b	5.0518216e-09
32	0xb5b1c745	-1.3245523e-06
33	0x2dcc492c	2.322461e-11
34	0x3bd32ebf	0.0064447816
35	0xb9389390	-0.00017602579
36	0x3bafe454	0.005367795
37	0xbd08789a	-0.03331814
38	0xbca106ea	-0.019656617
39	0xbd08789a	-0.03331814
40	0x3ee89bd8	0.454314
41	0xbe2fd134	-0.17169648
42	0xbce01686	-0.02735449
43	0xbce804bd	-0.028322572
44	0x3e1798f1	0.14804436
45	0xbde1cf34	-0.11025849
46	0x3b528f58	0.0032128897
47	0x3b957739	0.0045613316
48	0xaf6a12b0	-2.1288815e-10
49	0xbd0877e0	-0.033317447
50	0x38fdfaa6	0.00012110667
51	0xbd08789a	-0.03331814
52	0xbd2667d4	-0.040626362
53	0xbc7d4780	-0.015458941
54	0xbd087895	-0.03331812
55	0xbd05d61f	-0.032674905
56	0xbd06698e	-0.03281551
57	0xbd04b1a7	-0.032395985
58	0xb2696d5b	-1.35872495e-08
59	0xb08708e3	-9.825069e-10
60	0x2a76410e	2.187176e-13
61	0xac628b42	-3.2193835e-12
62	0x3b303680	0.0026887953
63	0xbcadb7bf	-0.021205781
64	0x3b18e316	0.0023328713
65	0xb6dfeb10	-6.6732828e-06
66	0xbb385cfb	-0.0028131593
67	0xbcaa0e4b	-0.020758769
68	0xbcc44da2	-0.0239628
69	0x2bea50d9	1.664914e-12
70	0xba41c978	-0.0007392387
71	0x3b000b56	0.0019538007
72	0x3a59db51	0.0008310574
73	0x3caa08b4	0.020756103
74	0xb6ec6500	-7.045106e-06
75	0xb1ade075	-5.0604805e-09
76	0xba56d6f9	-0.00081954856
77	0x2d31c9d6	1.0106102e-11
78	0x3a70672c	0.0009170647
79	0x2aee6173	4.2344912e-13
80	0xb60d2a7f	-2.1035373e-06
81	0x3a91cf3a	0.001112438
82	0x3c02fe86	0.007995253
83	0x37d6182e	2.5522048e-05
84	0xb5b1c745	-1.3245523e-06
85	0x35a693a4	1.2410933e-06
86	0x3bd32ebf	0.0064447816
87	0x318e8ecd	4.1489785e-09
88	0x3bafe454	0.005367795
89	0xbd08789a	-0.03331814
90	0xbca106ea	-0.019656617
91	0xbd08789a	-0.03331814
92	0xbd3a00ba	-0.04541085
93	0xbe298d83	-0.16557889
94	0xbce49c39	-0.027906524
95	0xbce19838	-0.027538404
96	0xbf49267f	-0.78574365
97	0xbdebd335	-0.11514894
98	0x3b5676da	0.003272465
99	0x3b5bb618	0.0033525284
100	0x37ec37d4	2.815939e-05
101	0xbd06df62	-0.03292788
102	0x3a258174	0.00063135405
103	0xbd08789a	-0.03331814
104	0xbb3bd563	-0.0028661124
105	0x3b6c9ba0	0.0036103502
106	0xbd087895	-0.03331812
107	0xbd07da93	-0.033167433
108	0xbd07f15f	-0.033189174
109	0xbd073c2a	-0.03301636
110	0xb15316a4	-3.071741e-09
111	0x301a00b2	5.602586e-10
112	0x362c3b3c	2.5664476e-06
113	0xafc27ad7	-3.5375677e-10
114	0xb8550052	-5.0783456e-05
115	0xbcadb7bf	-0.021205781
116	0x3b18e316	0.0023328713
117	0x2f1d7bb0	1.432301e-10
118	0xbb385cfb	-0.0028131593
119	0xbcaa0e4b	-0.020758769
120	0xbcc44da2	-0.0239628
121	0x388a5ae4	6.5972825e-05
122	0xba41c978	-0.0007392387
123	0x3b000b56	0.0019538007
124	0x3a59db51	0.0008310574
125	0x3245907a	1.1499759e-08
126	0x3ae1d7b2	0.001723042
127	0xb25149ee	-1.2182211e-08
128	0xbabb8ff2	-0.0014309867
129	0xb08373b4	-9.564389e-10
130	0xb1511f5f	-3.0431335e-09
131	0x339b893c	7.242713e-08
132	0xb60d2a7f	-2.1035373e-06
133	0x30b919f1	1.3467895e-09
134	0x3bcdf61e	0.006285443
135	0xb898259e	-7.2549316e-05
136	0xb5b1c745	-1.3245523e-06
137	0xaf1317f0	-1.3378076e-10
138	0x3bd32ebf	0.0064447816
139	0xb94dadc8	-0.00019615062
140	0x3bafe454	0.005367795
141	0xbd08789a	-0.03331814
142	0xbca106ea	-0.019656617
143	0xbd08789a	-0.03331814
144	0xbf98439f	-1.1895636
145	0xbe354f56	-0.17706046
146	0xbcc9671c	-0.0245853
147	0xbcd0f566	-0.02550764
148	0xbf239343	-0.6389658
149	0xbde8b6ea	-0.11363013
150	0x3b598520	0.003319092
151	0x3bb0b80d	0.0053930343
152	0xb93f50b4	-0.00018245244
153	0xbd07950e	-0.033101134
154	0x3a9a04a1	0.0011750647
155	0xbd08789a	-0.03331814
156	0x3b0a5284	0.0021106312
157	0xbb4187c8	-0.0029530395
158	0xbd087899	-0.033318136
159	0xbd0a949b	-0.033833127
160	0xbd0a96d2	-0.03383524
161	0xbd0a0c35	-0.033703048
162	0x332292b0	3.7851976e-08
163	0xb171263e	-3.5091854e-09
164	0xad5eb9f1	-1.2660526e-11
165	0x2a1b3b24	1.3787284e-13
166	0x3a328568	0.000681004
167	0xbcadb7bf	-0.021205781
168	0x3b18e316	0.0023328713
169	0x800260be	-2.18376e-40
170	0xbb385cfb	-0.0028131593
171	0xbcaa0e4b	-0.020758769
172	0xbcc44da2	-0.0239628
173	0x2bcf77b4	1.4741459e-12
174	0xba41c978	-0.0007392387
175	0x3b000b56	0.0019538007
176	0x3a59db51	0.0008310574
177	0x000132e8	1.10097e-40
178	0x3acf4a7e	0.0015815047
179	0xae118e83	-3.309576e-11
180	0x3bc2ab2c	0.0059408154
181	0x2bc131bd	1.372728e-12
182	0xbc357c97	-0.011077068
183	0x038f5183	8.423499e-37
184	0xb60d2a7f	-2.1035373e-06
185	0x333dbadf	4.417495e-08
186	0x3bcdf61e	0.006285443
187	0x2efe134b	1.155401e-10
188	0x3c02fe86	0.007995253
189	0xa9c96d59	-8.945162e-14
190	0x3bd32ebf	0.0064447816
191	0x388b2afd	6.636044e-05
192	0x3bafe454	0.005367795
193	0xbd08789a	-0.03331814
194	0xbca106ea	-0.019656617
195	0xbd08789a	-0.03331814
196	0x3ea3bbd5	0.31979242
197	0xbe20fd92	-0.1572173
198	0xbcbf22a3	-0.023331946
199	0xbcedb31e	-0.029016074
200	0xbeb85dde	-0.36009115
201	0xbdf979eb	-0.12181457
202	0x3af41014	0.0018620514
203	0x3b8f9d69	0.0043827784
204	0x39801fba	0.000244377
205	0xbd062dee	-0.032758646
206	0xb084d455	-9.664612e-10
207	0xbd08789a	-0.03331814
208	0xbbd7c715	-0.0065850117
209	0xbb1fe870	-0.0024400018
210	0xbd087899	-0.033318136
211	0xbd07aed4	-0.033125713
212	0xbd07fb37	-0.03319856
213	0xbd050284	-0.032473102
214	0x321ef89a	9.253336e-09
215	0xaabd05bc	-3.3577123e-13
216	0x3714186b	8.827173e-06
217	0xb602dc32	-1.949968e-06
218	0xb22a04a4	-9.8963575e-09
219	0xbcadb7bf	-0.021205781
220	0x3b18e316	0.0023328713
221	0x2e800c84	5.822989e-11
222	0xbb385cfb	-0.0028131593
223	0xbcaa0e4b	-0.020758769
224	0xbcc44da2	-0.0239628
225	0x2c397fe9	2.6361086e-12
226	0xba41c978	-0.0007392387
227	0x3b000b56	0.0019538007
228	0x3a59db51	0.0008310574
229	0xb19c62c4	-4.551426e-09
230	0xba1e0015	-0.0006027234
231	0xb001b9a8	-4.719376e-10
232	0x3b5f2c84	0.0034053633
233	0x38935dda	7.0269874e-05
234	0xbb3cf1c9	-0.0028830639
235	0x3851c6d2	5.001465e-05
236	0xb60d2a7f	-2.1035373e-06
237	0x2bd8b441	1.5397754e-12
238	0x3bcdf61e	0.006285443
239	0x2b94f13e	1.0582991e-12
240	0x3c02fe86	0.007995253
241	0x3885a2ab	6.3722335e-05
242	0xb5b1c745	-1.3245523e-06
243	0x294bbeb8	4.5240477e-14
244	0x3bafe454	0.005367795
245	0xbd08789a	-0.03331814
246	0xbca106ea	-0.019656617
247	0xbd08789a	-0.03331814
248	0xbf2cb14c	-0.67458034
249	0xbe2ec140	-0.17065907
250	0xbce0621f	-0.027390538
251	0xbce1b862	-0.02755374
252	0xbeef742d	-0.46768323
253	0xbdcf5cf7	-0.101251535
254	0x3b65a4c0	0.0035040826
255	0x3b97964c	0.004626071

fc1.bias f4 [256]
0	0xbd08789b	-0.033318143
1	0xb668cc6a	-3.4689679e-06
2	0x3a0e172a	0.0005420322
3	0x3bb2ab01	0.005452514
4	0xb6b9aa6a	-5.5332684e-06
5	0xb39763e0	-7.0496526e-08
6	0xac127c34	-2.0816794e-12
7	0xbbf9203c	-0.0076027196
8	0xb9917e42	-0.00027750625
9	0xb8f7d3ee	-0.00011817353
10	0xbbd61acb	-0.0065339557
11	0xbd55923c	-0.052141413
12	0xb678b481	-3.7059947e-06
13	0x3238144d	1.07148255e-08
14	0xb86d1fc2	-5.653478e-05
15	0xbe93e2ea	-0.2888406
16	0xaa8bcc45	-2.48331e-13
17	0xb1cd8ce4	-5.9823027e-09
18	0xb75885a1	-1.2905716e-05
19	0xaf14773d	-1.3502884e-10
20	0xba936149	-0.0011244203
21	0xb60ef174	-2.1300193e-06
22	0xb1c904d2	-5.850418e-09
23	0xbcc9e643	-0.02464593
24	0xbde81cb0	-0.11333597
25	0xbd151ad3	-0.036402535
26	0xac047230	-1.8821715e-12
27	0xb870b25b	-5.7386565e-05
28	0xbb29cbac	-0.0025908751
29	0xbb5e3b3b	-0.0033909816
30	0xb0f9c12c	-1.8172037e-09
31	0xbc887341	-0.01665652
32	0xba4af657	-0.0007742396
33	0xb32811b2	-3.9131642e-08
34	0xb8d55cec	-0.000101739395
35	0xb647d050	-2.9774565e-06
36	0xadda3552	-2.480741e-11
37	0xbb07f331	-0.0020744319
38	0xbb841f5e	-0.0040320596
39	0xbb91354c	-0.0044314023
40	0xb5eeb17a	-1.7784034e-06
41	0xb8783b94	-5.9183294e-05
42	0xb8c9e424	-9.6269214e-05
43	0xba95a9ff	-0.0011418461
44	0xb31729dd	-3.51955e-08
45	0xb4351997	-1.6866248e-07
46	0xbe85ab36	-0.26107186
47	0xb67e3abc	-3.7883137e-06
48	0xb73e953e	-1.1359631e-05
49	0xba2a9118	-0.0006506606
50	0xb66cc1d9	-3.5279575e-06
51	0xb73c28b4	-1.121515e-05
52	0xb77269a2	-1.4448919e-05
53	0xb9554b0a	-0.00020341217
54	0xb0ef0a56	-1.7392476e-09
55	0xb54e90cf	-7.6951704e-07
56	0xb5aeb200	-1.3015815e-06
57	0xb2385c27	-1.0731163e-08
58	0xb797ea9d	-1.8109853e-05
59	0xb94aea1e	-0.00019351437
60	0xbd031afc	-0.032008156
61	0x9caea3c4	-1.1556687e-21
62	0xbaa453c2	-0.0012537169
63	0xb957a22e	-0.00020564414
64	0xb714e545	-8.874868e-06
65	0xb9bdefb3	-0.0003622748
66	0x3958fd20	0.00020693662
67	0xb542dad0	-7.2589046e-07
68	0xb89f8bc4	-7.607744e-05
69	0xb078eceb	-9.0558555e-10
70	0xbb445b70	-0.0029961728
71	0xbae83be7	-0.0017718048
72	0xb9c95a79	-0.00038405115
73	0xae70a446	-5.4715586e-11
74	0x3a13770a	0.0005625343
75	0xbae6e732	-0.0017616509
76	0xba4d697c	-0.0007835848
77	0xb5ffd948	-1.9062218e-06
78	0xbeeaaef9	-0.4583662
79	0xb4a2322d	-3.021136e-07
80	0xb453e40e	-1.9733872e-07
81	0xb525370c	-6.1547394e-07
82	0xb7e6b011	-2.7500124e-05
83	0xada51a94	-1.8770131e-11
84	0xb949f80b	-0.00019261257
85	0xb9b90066	-0.00035286247
86	0xbada5b4f	-0.0016659292
87	0xac6924d1	-3.3131729e-12
88	0xbb29e373	-0.0025922924
89	0xbbd4fb38	-0.006499674
90	0xb4b20f41	-3.3166182e-07
91	0xbb832cc7	-0.0040031406
92	0xb262d8ee	-1.32042555e-08
93	0x336aa3e0	5.4631414e-08
94	0xbeee5e81	-0.46556476
95	0xbcda98e0	-0.026684225
96	0x3e59d670	0.21273208
97	0xbe00302d	-0.12518378
98	0xb519d6d6	-5.730957e-07
99	0xb5d0074f	-1.5499335e-06
100	0xb2d93ba9	-2.5289255e-08
101	0xbd4be9d3	-0.04978354
102	0xbcd85dd0	-0.02641192
103	0xb21898ae	-8.88228e-09
104	0xb79d2533	-1.873318e-05
105	0xbde43ee4	-0.11144808
106	0xb4ca50d0	-3.768423e-07
107	0xa82761ee	-9.291597e-15
108	0xb51ffdbe	-5.960136e-07
109	0xb8bb20d3	-8.922969e-05
110	0x3f10b965	0.5653289
111	0xba28fc1c	-0.00064462586
112	0xbb975bdc	-0.004619105
113	0xb32641bd	-3.8709675e-08
114	0xb37ea092	-5.928502e-08
115	0xb49ec11c	-2.95703e-07
116	0xb806038e	-3.19514e-05
117	0xb73d5e05	-1.12871685e-05
118	0xb40549e8	-1.2413477e-07
119	0xb1c960ff	-5.860897e-09
120	0xbb169de3	-0.0022982291
121	0x399ad020	0.00029528234
122	0xb89094da	-6.894181e-05
123	0xafb62c64	-3.3137149e-10
124	0xb38d1e7f	-6.5713714e-08
125	0xb65950de	-3.238259e-06
126	0x3ce9a076	0.028518897
127	0xb9829bfe	-0.00024911755
128	0xb169ac87	-3.4004033e-09
129	0xbe94902a	-0.29016238
130	0xb0d78263	-1.5680367e-09
131	0x350ba4d9	5.202142e-07
132	0xbe3c9cda	-0.18419209
133	0xb898ffdf	-7.2955845e-05
134	0xba37f83b	-0.0007017885
135	0xadc438ac	-2.2307788e-11
136	0xb846945b	-4.7345045e-05
137	0xbe0a65c3	-0.13515382
138	0xb614bd8b	-2.2164047e-06
139	0xb7fc3187	-3.0063804e-05
140	0xb2c98338	-2.3459151e-08
141	0xb1966307	-4.3768327e-09
142	0xb6cdb6e7	-6.1307687e-06
143	0xbbc1c31f	-0.005913153
144	0xb5c712c5	-1.4832118e-06
145	0xb0f83445	-1.8059231e-09
146	0x3833d423	4.2874493e-05
147	0xb71ece56	-9.465575e-06
148	0x9cfd3b98	-1.675754e-21
149	0xbaaa263a	-0.0012981363
150	0xaf813fb6	-2.3510233e-10
151	0xbd2ba497	-0.041905012
152	0xb88bad7c	-6.6603505e-05
153	0xbc797162	-0.0152247865
154	0xb8996bd7	-7.315695e-05
155	0xba2713a9	-0.0006373474
156	0xb1b74abf	-5.3344986e-09
157	0xb8154d84	-3.559656e-05
158	0xaabdaef5	-3.3694545e-13
159	0xb6bf3703	-5.698648e-06
160	0xb9da8564	-0.00041679584
161	0xbcf10a1d	-0.029423768
162	0xaf000b9f	-1.1645661e-10
163	0x3da3ce5d	0.07998345
164	0xb89eed51	-7.578231e-05
165	0xbb119cbc	-0.0022218665
166	0xb8a67ff4	-7.93933e-05
167	0xbb0cd228	-0.0021487568
168	0xbaedbb0d	-0.001813741
169	0xaf0e82fe	-1.2961363e-10
170	0xb21fffda	-9.313192e-09
171	0xb9e2acd0	-0.00043234834
172	0xacc8c943	-5.7066864e-12
173	0xb0d203bf	-1.5280576e-09
174	0xbf39599a	-0.72402346
175	0xb78d0024	-1.6808575e-05
176	0xb8b1cc95	-8.478124e-05
177	0x3f16eab7	0.58951896
178	0xbc25716f	-0.010097845
179	0xbc960098	-0.01831083
180	0xb7fa9458	-2.98714e-05
181	0xb9db22dd	-0.0004179691
182	0xbe525134	-0.20538789
183	0xb975077e	-0.00023367812
184	0xb507e9d0	-5.063166e-07
185	0xbb0a0f0d	-0.00210661
186	0xb6c41027	-5.8431356e-06
187	0xbac4a354	-0.0015002289
188	0xb68c135a	-4.174578e-06
189	0xba648bc2	-0.00087183353
190	0xa72c7faa	-2.3939002e-15
191	0xb9c0115c	-0.00036634027
192	0x3bbc481e	0.0057459017
193	0xb41d9606	-1.4676343e-07
194	0x18c46928	5.0770993e-24
195	0xbda60355	-0.08106104
196	0xb941fc34	-0.00018499867
197	0x3960225d	0.00021375106
198	0xba7d143f	-0.0009654201
199	0xb7070a05	-8.04896e-06
200	0xb9366939	-0.00017396071
201	0xb9c2d55e	-0.00037161534
202	0xb894b1cf	-7.0903094e-05
203	0xb9cd6309	-0.00039174434
204	0xb42822eb	-1.5658922e-07
205	0xb97d4f82	-0.00024157579
206	0x3b812cfe	0.003942131
207	0x3e10f0e0	0.14154387
208	0xb988be71	-0.0002608183
209	0x3707886e	8.078392e-06
210	0xb4b4374e	-3.3567852e-07
211	0xb998981e	-0.00029105035
212	0xb7491682	-1.1985774e-05
213	0xb98cf299	-0.0002688363
214	0xba4ce81e	-0.00078165706
215	0xb30aad78	-3.2288398e-08
216	0xb686aaf8	-4.0134146e-06
217	0xb8c0fd58	-9.2024624e-05
218	0xac328023	-2.5366452e-12
219	0xb49ea632	-2.9550716e-07
220	0xb72c6fae	-1.0278001e-05
221	0x3e348b3e	0.17631242
222	0xaa38d93c	-1.6417851e-13
223	0xb4571906	-2.0032539e-07
224	0xb99b28e4	-0.0002959437
225	0xaf482510	-1.8203061e-10
226	0xacffae90	-7.2669162e-12
227	0xb95783ec	-0.00020553143
228	0xb9027779	-0.00012442273
229	0xb36e9b12	-5.555473e-08
230	0x3f1dd6e4	0.6165602
231	0xb12573dd	-2.407652e-09
232	0xb9a1d8b8	-0.0003086978
233	0xb6edf58e	-7.0917367e-06
234	0xb249d44d	-1.17480115e-08
235	0xba27491d	-0.0006381439
236	0xae150ea2	-3.3891674e-11
237	0xb4f0ebbe	-4.487501e-07
238	0xb7ee7400	-2.8425828e-05
239	0x34a4b857	3.0681505e-07
240	0xbc3cc85f	-0.011522382
241	0x9ec0bbb3	-2.0406421e-20
242	0xabcad423	-1.4411843e-12
243	0xbd812a24	-0.06306866
244	0xb620a6f7	-2.3939044e-06
245	0xb19e89e4	-4.6140816e-09
246	0xbe6118ea	-0.2198216
247	0xb3d9e256	-1.014602e-07
248	0xb8389196	-4.4004606e-05
249	0x39161aa2	0.00014315036
250	0xb7aa32d3	-2.0289246e-05
251	0xbaefdc6a	-0.0018299941
252	0xbe09e9e8	-0.13468134
253	0xb99dce1a	-0.0003009893
254	0xab9e5a27	-1.1251598e-12
255	0x3a87ae1e	0.0010351574

fc2.weight f4 [256, 256]
0	0x32502af4	1.211696e-08
1	0x27a59488	4.5957738e-15
2	0xb6b77c4f	-5.4682964e-06
3	0x8ec69a6c	-4.895947e-30
4	0x8fc0f570	-1.9027201e-29
5	0xacd6d7b0	-6.106192e-12
6	0x943a61ac	-9.4098626e-27
7	0xab616c18	-8.008607e-13
8	0xa86f12a0	-1.3271204e-14
9	0x20f09940	4.0758994e-19
10	0x2f30b767	1.6072264e-10
11	0x397e1ad6	0.00024233325
12	0x36ea43f0	6.9816524e-06
13	0x00017c22	1.36366e-40
14	0xad9bf3c6	-1.7729717e-11
15	0xb5b165f3	-1.3217199e-06
16	0x1cadc2ea	1.1498564e-21
17	0x2a09e773	1.2248344e-13
18	0xb6d9da68	-6.49253e-06
19	0x800bbb7f	-1.077451e-39
20	0xb0a2f9fe	-1.1858103e-09
21	0x3282ed33	1.5241858e-08
22	0x297c01f2	5.5956928e-14
23	0x2a52ae42	1.8712205e-13
24	0x3c2aa3ed	0.0104150595
25	0x2ceb6a7b	6.6909234e-12
26	0x9c846f5f	-8.763816e-22
27	0x80056835	-4.9656e-40
28	0x36e2a596	6.7546016e-06
29	0x260aab1d	4.811027e-16
30	0xaf2d9465	-1.5786979e-10
31	0x0fb11643	1.7462122e-29
32	0x28a7c36b	1.8625474e-14
33	0x00033892	2.958e-40
34	0x26a16cc2	1.1201098e-15
35	0x2e8332fd	5.9662476e-11
36	0x161a552b	1.2466895e-25
37	0xaeba0647	-8.459416e-11
38	0xa60848e1	-4.728325e-16
39	0xa5b47098	-3.130132e-16
40	0x92a17164	-1.0188481e-27
41	0x801db1fa	-2.727075e-39
42	0xaf7aa757	-2.2796819e-10
43	0x3633c391	2.6786913e-06
44	0xad80173c	-1.4562233e-11
45	0x000658f5	5.82925e-40
46	0xba6c7292	-0.0009019758
47	0xb30b77e7	-3.247251e-08
48	0x346577e0	2.1370897e-07
49	0x871e15e7	-1.1893035e-34
50	0x296fe348	5.3265796e-14
51	0xa3e0c5a4	-2.4369833e-17
52	0x1010bade	2.854295e-29
53	0x33b294d0	8.31584e-08
54	0x80026665	-2.20403e-40
55	0x124d7ba2	6.4838983e-28
56	0x166f26ed	1.9318549e-25
57	0x145c1087	1.1110421e-26
58	0x34baa271	3.4763391e-07
59	0x2fa4834a	2.9924713e-10
60	0xb2c10c75	-2.2473822e-08
61	0x0000e64e	8.2618e-41
62	0x27fe8ea4	7.0653813e-15
63	0x0993ae78	3.5553032e-33
64	0x2baa321e	1.2093137e-12
65	0x363c7ac3	2.808564e-06
66	0xab3ac0ba	-6.6347936e-13
67	0x939ed3ec	-4.009378e-27
68	0x2e69b6e8	5.314052e-11
69	0x80013ed1	-1.1437e-40
70	0xb4c3a566	-3.6441924e-07
71	0xb6199e78	-2.2891018e-06
72	0xac7fca58	-3.6350003e-12
73	0x80014118	-1.15187e-40
74	0x2fa11ffe	2.930846e-10
75	0xb5528d2d	-7.8436534e-07
76	0xb5766f64	-9.1804236e-07
77	0xa8222762	-9.001346e-15
78	0x801ff11e	-2.933397e-39
79	0x80012848	-1.06286e-40
80	0x292d0206	3.8415472e-14
81	0x35edfdf5	1.7731787e-06
82	0x2bfe7f32	1.8083089e-12
83	0x12d914ac	1.3699721e-27
84	0xb2d08d96	-2.4278773e-08
85	0x2ad687b0	3.8108188e-13
86	0x8dd91546	-1.3378779e-30
87	0x1b7e61d5	2.1041999e-22
88	0x3622fefb	2.42883e-06
89	0x36ac793c	5.140113e-06
90	0x2f18bfdf	1.3892486e-10
91	0xb09e8b07	-1.1535527e-09
92	0x103f8de3	3.7777414e-29
93	0x3466bb1b	2.1488488e-07
94	0xaa108c28	-1.2838396e-13
95	0x2ba05e98	1.1394939e-12
96	0x0d6c18e2	7.2753066e-31
97	0x39d51b79	0.00040646995
98	0x1ebf409e	2.0249637e-20
99	0xb0343b01	-6.556747e-10
100	0x0000e3cb	8.1717e-41
101	0xb4e9d490	-4.3554292e-07
102	0xb006a2d4	-4.898031e-10
103	0xa61fcec7	-5.544444e-16
104	0x329ab6f4	1.8011157e-08
105	0x39bdfd0f	0.00036237433
106	0x29c8030f	8.882315e-14
107	0x80002ec8	-1.6782e-41
108	0x32fa8bee	2.9167463e-08
109	0x26f9575c	1.7301525e-15
110	0xbd10d221	-0.035356645
111	0x09360d00	2.1913566e-33
112	0x36cbc1fa	6.0724533e-06
113	0x00002c98	1.5997e-41
114	0x2e7fe437	5.8182983e-11
115	0x8001a816	-1.52133e-40
116	0x97a15076	-1.0424692e-24
117	0x144a6526	1.0218342e-26
118	0x2caa913c	4.847815e-12
119	0x801407be	-1.839487e-39
120	0x99043f86	-6.8370685e-24
121	0xae90d8e8	-6.586892e-11
122	0x00011980	1.00983e-40
123	0x2c22580a	2.3070456e-12
124	0x26ce93f1	1.4334221e-15
125	0xb420e414	-1.4984136e-07
126	0xade30884	-2.5810694e-11
127	0x270695db	1.8677472e-15
128	0x8002484b	-2.09605e-40
129	0x2f9c5299	2.8434924e-10
130	0x1519581a	3.0967604e-26
131	0x000162ab	1.27231e-40
132	0x2821bd4a	8.978341e-15
133	0x2d34c8a5	1.0276367e-11
134	0x3184e16e	3.867334e-09
135	0xa505295f	-1.1549928e-16
136	0x28ccb2c4	2.2726077e-14
137	0xb675fc15	-3.6654576e-06
138	0x000b4f62	1.038668e-39
139	0xa2db3e28	-5.942588e-18
140	0x8d75d459	-7.575206e-31
141	0x830b5916	-4.0950694e-37
142	0x0885843e	8.035736e-34
143	0x3000a5c8	4.680172e-10
144	0x0d6c9606	7.29037e-31
145	0x925d8e8e	-6.9911016e-28
146	0x124f7cf5	6.5471704e-28
147	0xa70cbfde	-1.9532914e-15
148	0x0008ffd1	8.26454e-40
149	0xb08acef3	-1.009964e-09
150	0x9206637b	-4.2405564e-28
151	0xb0617324	-8.201815e-10
152	0x9121c600	-1.2761674e-28
153	0xa6cdf2ca	-1.4290541e-15
154	0x0000db1e	7.8604e-41
155	0x0e439060	2.410512e-30
156	0x9b023033	-1.0768922e-22
157	0x300577c1	4.85553e-10
158	0x8001e224	-1.7296e-40
159	0xad1579d8	-8.496724e-12
160	0xb5ab5218	-1.2764385e-06
161	0xb695daa4	-4.465999e-06
162	0x0b1cf190	3.022624e-32
163	0x00004af7	2.6892e-41
164	0x1aa53990	6.83354e-23
165	0xb65db2ea	-3.3035708e-06
166	0x1164028c	1.7986813e-28
167	0xb534e6a5	-6.739086e-07
168	0x30b2a3a0	1.299771e-09
169	0x8000192e	-9.033e-42
170	0x801e9336	-2.807874e-39
171	0x00010271	9.2711e-41
172	0x163c998c	1.523497e-25
173	0xa12f88e5	-5.9473485e-19
174	0xb1e77d27	-6.737213e-09
175	0x8000f5f3	-8.823e-41
176	0xaa87a645	-2.409619e-13
177	0xbd472945	-0.048623342
178	0x36dd1800	6.589107e-06
179	0x2edb124a	9.962216e-11
180	0x351c8ff0	5.8323985e-07
181	0xb6517554	-3.121172e-06
182	0x37d27bc8	2.5091591e-05
183	0x19a35112	1.6886549e-23
184	0x00005147	2.9157e-41
185	0x94bf373c	-1.9307858e-26
186	0x883c9a93	-5.6755893e-34
187	0xb7ab2de1	-2.0406153e-05
188	0x83964dbe	-8.834056e-37
189	0xb610144c	-2.1469486e-06
190	0x8b283ff8	-3.2403748e-32
191	0xb7d14104	-2.4945017e-05
192	0x0633f4ac	3.3845915e-35
193	0x0017d6e7	2.189309e-39
194	0x0000f75c	8.8736e-41
195	0xabe478d1	-1.6233908e-12
196	0xb4d515cf	-3.969021e-07
197	0x98516c1b	-2.7067196e-24
198	0xabef4842	-1.7002027e-12
199	0x37b96e88	2.2105189e-05
200	0xb22d1ad0	-1.0076022e-08
201	0xb640124b	-2.8620877e-06
202	0x138b7e8c	3.5213318e-27
203	0x80026420	-2.19589e-40
204	0x0ba44dbd	6.328747e-32
205	0x0043eba8	6.237516e-39
206	0xb4297eb5	-1.5785447e-07
207	0x22024226	1.7653304e-18
208	0xb5f77e30	-1.843966e-06
209	0x0003447e	3.00077e-40
210	0xa86d51ae	-1.3173854e-14
211	0xadc3bdfe	-2.2253307e-11
212	0xb4c753ba	-3.7127558e-07
213	0x83ad8a56	-1.01997865e-36
214	0x19be882f	1.9700544e-23
215	0x3b428b7a	0.0029685185
216	0x000122e2	1.04349e-40
217	0x8007dbd4	-7.21708e-40
218	0x930d7592	-1.7854669e-27
219	0x00c8859e	1.8415032e-38
220	0xa89234ce	-1.6232157e-14
221	0x2cbd49e5	5.379907e-12
222	0x986624dd	-2.9745414e-24
223	0x8bf203f3	-9.322095e-32
224	0xa16f2ad0	-8.103301e-19
225	0x000186d9	1.4021e-40
226	0x805337df	-7.642389e-39
227	0xa7c310c5	-5.4141554e-15
228	0x330d64b3	3.2920706e-08
229	0x2d4aff51	1.1539062e-11
230	0xbcfccb70	-0.030858725
231	0x00004bc4	2.718e-41
232	0x163949ac	1.4967428e-25
233	0xacfae754	-7.13111e-12
234	0xa1f6cbc0	-1.6723541e-18
235	0xb467b04d	-2.157769e-07
236	0x002a7658	3.899545e-39
237	0x2386f892	1.4633583e-17
238	0x2b89d730	9.794162e-13
239	0xa7f4955e	-6.788555e-15
240	0xb6084b85	-2.0309537e-06
241	0x00002f23	1.691e-41
242	0x11a601ec	2.6191367e-28
243	0xb9218e27	-0.00015407112
244	0xa3c184c6	-2.0981334e-17
245	0x2b313033	6.294992e-13
246	0x370b8432	8.315825e-06
247	0x2e237b3c	3.7171363e-11
248	0x8be7f1fe	-8.934207e-32
249	0x35378efa	6.838087e-07
250	0x1f80fce6	5.4628494e-20
251	0xaa876c6b	-2.4056047e-13
252	0xba0070ca	-0.00048996194
253	0x80026497	-2.19756e-40
254	0x99a6b474	-1.7236882e-23
255	0x0012605c	1.687606e-39

fc2.bias f4 [256]
0	0x3937996c	0.00017509394
1	0x3d3d8916	0.046273313
2	0x3e9daa86	0.30794162
3	0xb78d02ee	-1.6809874e-05
4	0xbb324b97	-0.00272057
5	0xba0d8e68	-0.00053999433
6	0xb99e6446	-0.00030210818
7	0x3b0500f2	0.0020294753
8	0x38ff9120	0.00012186379
9	0xbba262a9	-0.004955609
10	0x36328140	2.65993e-06
11	0x3da922ad	0.08258567
12	0x3ed76498	0.42068934
13	0x3e805dc1	0.2507153
14	0x3cbe35df	0.023219047
15	0x3e5a1563	0.21297221
16	0x3a9387f9	0.0011255733
17	0x3ec23149	0.37928227
18	0x3eaa7488	0.3329203
19	0x3e9c5115	0.3053061
20	0x3e11d5aa	0.14241663
21	0x3e0d42b4	0.13794976
22	0x3a8cc81c	0.001074079
23	0x3f06e542	0.5269357
24	0xbab9818b	-0.0014152987
25	0x3eaf9798	0.34295344
26	0xbb42fe87	-0.002975376
27	0x3e7e815d	0.24854036
28	0x3d3cf0d3	0.046128105
29	0x3c896fdf	0.016776977
30	0x3bb04a06	0.005379918
31	0x3ebdd7e1	0.37078765
32	0x3e49220f	0.19641899
33	0x39fa26b3	0.0004771255
34	0x39b626e1	0.00034742712
35	0xba839a5e	-0.0010040512
36	0x3e9cb602	0.3060761
37	0x3eade189	0.33961132
38	0x3909d153	0.00013143317
39	0x3ed220b6	0.4104058
40	0xba31d35d	-0.000678351
41	0xba30ea85	-0.00067488133
42	0x3ab8279f	0.0014049894
43	0x3e531043	0.20611672
44	0x3e696ef8	0.22796237
45	0x3b0b5f4b	0.0021266516
46	0x3e77efcc	0.24212569
47	0x3be847f6	0.0070886565
48	0x3f42adcf	0.7604646
49	0x3ae2544c	0.0017267554
50	0x3af76799	0.0018875479
51	0x39ba2430	0.00035503646
52	0xb6c65f7b	-5.911975e-06
53	0xb9d374ac	-0.00040331983
54	0x3f8a6a28	1.0813646
55	0xb9e7c5f6	-0.00044207246
56	0x39cc3928	0.00038952497
57	0x3bdfdb14	0.006831536
58	0x3afc86a7	0.0019266204
59	0x3f3e5f86	0.7436451
60	0xbdccb802	-0.09996034
61	0x3c3f29f6	0.011667719
62	0x37ce2558	2.4574503e-05
63	0x3b266e6e	0.002539541
64	0x3cf7349b	0.030176451
65	0xba3e15ca	-0.00072511716
66	0x3f26a46d	0.65094644
67	0x3dcdf337	0.10056155
68	0x3ed1a3f7	0.40945408
69	0x3eb9e06b	0.3630403
70	0x39753bde	0.00023387323
71	0xbaa67031	-0.001269823
72	0x3fc06240	1.5029984
73	0xb8d53824	-0.000101670885
74	0x3f322cd4	0.6959965
75	0x37e77a54	2.759431e-05
76	0x39f4599e	0.00046606077
77	0x3bbd72dc	0.0057815146
78	0x3e867f55	0.26269022
79	0x3ea594ab	0.32339987
80	0x3db62c11	0.08895124
81	0x3d85d654	0.065350205
82	0xbb811445	-0.003939184
83	0x3edbfbac	0.42965448
84	0x3ad2d8c0	0.0016086325
85	0x3f8e58ff	1.112091
86	0x38b6dc70	8.719496e-05
87	0xbaf5bc31	-0.0018748102
88	0x3f4f4c01	0.8097535
89	0x3a4df0d0	0.0007856013
90	0x3c0d01c6	0.00860638
91	0xb9a1ecb4	-0.0003088467
92	0x3e00b7ba	0.12570086
93	0xb965d9ea	-0.00021920321
94	0xbab06572	-0.0013457967
95	0x3aa37c57	0.0012472969
96	0x3fa25fc9	1.2685481
97	0x3b0f5ca5	0.0021875289
98	0xba85499e	-0.0010169034
99	0x3e993572	0.29923588
100	0x3edc9f3d	0.4309024
101	0x3f3ca55a	0.73689806
102	0x3f06b7a0	0.5262394
103	0x3e802478	0.25027823
104	0xb8309315	-4.209865e-05
105	0xb7f54b28	-2.9241273e-05
106	0xb8ac8141	-8.2256745e-05
107	0xb9cf7f70	-0.00039577065
108	0x3d7fa7b6	0.0624158
109	0x3adebb22	0.0016993026
110	0x3852c195	5.024819e-05
111	0xb9042f62	-0.00012606152
112	0x3ec5a43a	0.38601857
113	0xbaaa99d0	-0.001301581
114	0x3ea675b4	0.32511675
115	0x3ca5cb09	0.020238416
116	0xb9da579c	-0.00041645474
117	0xba4820f0	-0.00076343026
118	0x3e68a01c	0.22717327
119	0xbab4edb1	-0.0013803748
120	0xb7585e56	-1.2896568e-05
121	0x3c89e991	0.016835006
122	0x3951c874	0.00020006468
123	0xba034838	-0.0005008015
124	0x3989a3d2	0.00026252732
125	0x3ac67814	0.0015141987
126	0x3e304c79	0.17216672
127	0x3ace66f5	0.0015747236
128	0x3eddd07f	0.43323132
129	0x3ae90571	0.0017778111
130	0x38bc582b	8.980961e-05
131	0x3eec3a57	0.4613826
132	0x3f9746de	1.1818502
133	0x3ec41196	0.38294667
134	0x3b5d3807	0.0033755319
135	0x3d0f1759	0.034934375
136	0x3f33b160	0.7019253
137	0x3c300d9c	0.010745432
138	0xbba0d05a	-0.00490765
139	0x3b30364e	0.0026887837
140	0xb6f00bc4	-7.153927e-06
141	0x389c1be8	7.4438576e-05
142	0x3b119905	0.002221645
143	0x37cf0ffe	2.468377e-05
144	0x3f7dd150	0.9914751
145	0x3a432a21	0.00074449374
146	0x396350af	0.00021678464
147	0x3eaf1c0b	0.34201083
148	0xb73dfb10	-1.1323733e-05
149	0xb91008b4	-0.00013736152
150	0x3f2e997d	0.68202955
151	0x3e94dcc1	0.29074672
152	0x39e8fdca	0.00044439576
153	0xb9ac2e64	-0.0003284096
154	0x3ea49b25	0.32149616
155	0x3ad1da8f	0.001601057
156	0xb7f21fc2	-2.8863436e-05
157	0x39852451	0.00025394795
158	0x3edce577	0.43143818
159	0x393cb5fd	0.00017996873
160	0x3b5cc6b4	0.0033687772
161	0xb8369350	-4.3529377e-05
162	0x3e7c9b1b	0.24668543
163	0xbb5956df	-0.0033163351
164	0x3ee8f6ad	0.455007
165	0x35b05a7a	1.3139354e-06
166	0xbb0ffdc2	-0.002197132
167	0x39248156	0.0001568844
168	0xbb4b47cc	-0.0031018136
169	0xb913c232	-0.00014091356
170	0xba18efb3	-0.0005834058
171	0x3f3f6cc3	0.7477533
172	0x38f64853	0.000117436655
173	0x39256fd2	0.00015777283
174	0xbcad28fd	-0.021137709
175	0x3ea5e5a0	0.32401752
176	0x3a74cf38	0.00093387393
177	0x3e6ad049	0.22931017
178	0x3d0b85dd	0.03406321
179	0x3790463d	1.7198845e-05
180	0x3f7b176c	0.98082614
181	0x3ecba917	0.39777443
182	0x3ede0a47	0.43367216
183	0x397d4086	0.00024151997
184	0x3beaaa68	0.0071614273
185	0x39abc744	0.00032764126
186	0x3f3353d8	0.7004981
187	0x3df6cab5	0.12050382
188	0x3ed392fc	0.41323078
189	0x3b820fe9	0.003969182
190	0x3efa1b90	0.48849154
191	0xba49b6e6	-0.00076947955
192	0x3af38822	0.001858
193	0x39576368	0.0002054103
194	0x38b573b3	8.652303e-05
195	0x3ec0d2a5	0.3766071
196	0xbbd3b80d	-0.0064611495
197	0x3a7205d5	0.00092324364
198	0xba18533a	-0.00058107416
199	0x3d4880fb	0.04895113
200	0x3f138636	0.57626665
201	0x3ad31083	0.0016102943
202	0x3f751e20	0.9574909
203	0xbd786345	-0.060641546
204	0xb6b0dda8	-5.271013e-06
205	0xbcb30b91	-0.021856101
206	0x3eed8468	0.4639008
207	0x3a24ee70	0.00062916335
208	0x3b657166	0.0035010218
209	0x3f3e0b99	0.74236447
210	0x3ecb42e8	0.39699483
211	0x3ad9775a	0.0016591356
212	0x3a8f94ad	0.0010954343
213	0x3eb5fc5e	0.35544103
214	0x3f6aeee1	0.9177075
215	0x3ab56ee8	0.0013842257
216	0x3ea9d916	0.33173436
217	0xb9cd18c0	-0.00039119087
218	0x39c993ac	0.00038447732
219	0x39b0b275	0.00033702297
220	0x3ede5d19	0.43430403
221	0x3a27f860	0.0006407555
222	0x3a1f080b	0.0006066567
223	0x3b59c0c6	0.0033226474
224	0x3a17a73f	0.00057851145
225	0x3b80fc92	0.0039363587
226	0x3f3d5481	0.7395707
227	0x3de64997	0.11244505
228	0x38d65c5a	0.00010221517
229	0x3ad57b23	0.0016287308
230	0xb913509c	-0.00014049042
231	0x3bafe4df	0.0053678597
232	0x3eafe24b	0.34352335
233	0xb938d442	-0.0001762668
234	0x3e8f25e2	0.2795859
235	0x3bdc4dc5	0.006723138
236	0xb91601fe	-0.00014305857
237	0xb7eec1d0	-2.8462062e-05
238	0x3714ab50	8.861374e-06
239	0x3e52e432	0.20594862
240	0xbb0a2bad	-0.0021083162
241	0x3da36571	0.07978333
242	0x3e9a33d7	0.30117676
243	0x3c557f43	0.01303083
244	0x3f653b12	0.8954326
245	0x3b32a796	0.0027260534
246	0x3ea61ed5	0.32445398
247	0x3a39551f	0.0007069874
248	0x3a91344b	0.0011078207
249	0x3a9811db	0.0011602001
250	0xb83e2c22	-4.5340632e-05
251	0x3dca59c5	0.098804034
252	0xba440182	-0.00074770313
253	0x3b63abba	0.0034739808
254	0x3ed0082a	0.4063123
255	0x3b95a695	0.0045669773

fc3.weight f4 [256, 256]
0	0xb5ae2fad	-1.2977886e-06
1	0x3a9d8536	0.0012017849
2	0xbe17c94c	-0.14822882
3	0xa9b06092	-7.8327224e-14
4	0x335e745d	5.1794235e-08
5	0x338383ef	6.1241614e-08
6	0x3ce9eae6	0.028554391
7	0xb99d058f	-0.00029949515
8	0x321d4028	9.15319e-09
9	0x33eea13d	1.1112068e-07
10	0xb110a6da	-2.1049602e-09
11	0x3ca1af11	0.019736798
12	0xbea0f5d2	-0.31437546
13	0xbc8dfd2d	-0.017332638
14	0x357d66f8	9.4399684e-07
15	0xbd91e6de	-0.071241125
16	0x355abcaa	8.148587e-07
17	0xbe05409f	-0.13012932
18	0xbd2dd2a5	-0.042437214
19	0xbea47da3	-0.32127103
20	0x3b9cec0a	0.0047888802
21	0x3bee3c60	0.007270381
22	0x361e3eac	2.3580315e-06
23	0xbde0a8b9	-0.10969681
24	0xb8a26dc1	-7.745205e-05
25	0xbcc59c4a	-0.024122376
26	0x3b2ac98f	0.002606008
27	0xbe32e956	-0.17471823
28	0x39710c2e	0.00022988088
29	0xb8cc46f2	-9.7406926e-05
30	0xb9b51dfd	-0.00034545353
31	0xbbe454c8	-0.0069681145
32	0xbe3d09f2	-0.18460825
33	0x328edd38	1.6631574e-08
34	0xb745c6fc	-1.1788445e-05
35	0xb8f36f57	-0.000116078816
36	0x3c2ce182	0.010551812
37	0xbd88a221	-0.06671549
38	0x3a45819c	0.0007534267
39	0xbe12fc51	-0.14354064
40	0x38d7b015	0.00010284797
41	0x37456a97	1.1766932e-05
42	0xb3dbb582	-1.0230998e-07
43	0xbd31d50b	-0.043416064
44	0xbd8ac79d	-0.067763545
45	0x0b790884	4.7962062e-32
46	0xb87a9e2b	-5.975195e-05
47	0x392baba3	0.0001637177
48	0xb8654e77	-5.467093e-05
49	0x3754bf93	1.2680789e-05
50	0xb760cb58	-1.3398785e-05
51	0xb2646188	-1.3293523e-08
52	0x15329e09	3.607148e-26
53	0x32b5064b	2.1074035e-08
54	0xb5e41239	-1.6992627e-06
55	0xb2559c20	-1.24337305e-08
56	0xb6e9c808	-6.967228e-06
57	0x35a03546	1.1936434e-06
58	0xb70ffaf1	-8.581891e-06
59	0x3949cef0	0.00019245944
60	0x38e3501e	0.000108391265
61	0x35d650aa	1.5967719e-06
62	0xb86460cd	-5.444959e-05
63	0x37a147ce	1.9226132e-05
64	0x3b9f6739	0.0048646
65	0x3281586e	1.505779e-08
66	0x3a6668ac	0.0008789401
67	0xbdcea8a6	-0.10090761
68	0xbac00c78	-0.0014652153
69	0xbc1bd71b	-0.009511734
70	0x378679dc	1.603079e-05
71	0x3440cc95	1.795582e-07
72	0x371fa039	9.514443e-06
73	0xb5a10cae	-1.1999125e-06
74	0xbd00f5ac	-0.03148429
75	0x370680ee	8.017041e-06
76	0x38453968	4.7021924e-05
77	0xb5c96c6f	-1.5007225e-06
78	0xbd098a67	-0.033579256
79	0xbd70722c	-0.058702633
80	0xbb005678	-0.001958279
81	0x3bb1639d	0.005413486
82	0x3a4e535a	0.0007870697
83	0xbacc38ae	-0.0015580857
84	0x368c5829	4.1825883e-06
85	0x38bca081	8.994435e-05
86	0x3323cf8c	3.8140158e-08
87	0x37093c29	8.1798435e-06
88	0x3cbe5488	0.023233667
89	0x31044e9f	1.925322e-09
90	0xb6e18d46	-6.721969e-06
91	0xb5bbd365	-1.399411e-06
92	0xb5f7cf74	-1.8463311e-06
93	0x351f97a2	5.945277e-07
94	0xb42a1b88	-1.58425e-07
95	0x35155096	5.5624093e-07
96	0x3991ac25	0.00027784813
97	0xb4bd3abd	-3.524673e-07
98	0xaf767dc7	-2.2418255e-10
99	0xbe3d257e	-0.18471333
100	0xba505cd6	-0.0007948404
101	0x367cd3ce	3.7674213e-06
102	0x34b140eb	3.3016053e-07
103	0xbc72f766	-0.014829492
104	0x361878fd	2.272019e-06
105	0xb291c9c2	-1.697197e-08
106	0x144e4e8a	1.0415831e-26
107	0xb5df95c9	-1.6658388e-06
108	0x3acebe7e	0.0015773324
109	0x34d82e52	4.0266838e-07
110	0xaf08be62	-1.2436766e-10
111	0x330b6537	3.2455514e-08
112	0x3c19ccea	0.009387234
113	0x3ba25441	0.0049538915
114	0x3d1abf02	0.037779815
115	0xb80cff84	-3.361657e-05
116	0x35d655ac	1.5969176e-06
117	0xb4ddbf58	-4.130368e-07
118	0xbdba4cff	-0.09096717
119	0x289376c6	1.6371788e-14
120	0xb1bf29c2	-5.563579e-09
121	0xb227b105	-9.760929e-09
122	0xb8c602c8	-9.441894e-05
123	0x3285ffe1	1.5599598e-08
124	0xb6103456	-2.1488136e-06
125	0x80010598	-9.3842e-41
126	0xbe191ddb	-0.14952795
127	0x392365fd	0.00015582885
128	0xbbfac024	-0.0076522995
129	0x34b9d529	3.461403e-07
130	0xb48ecac4	-2.6597093e-07
131	0x3d949270	0.07254493
132	0x38c4baad	9.3807794e-05
133	0x3beb0c14	0.0071730707
134	0x37089688	8.14128e-06
135	0x3c94f53b	0.018183341
136	0x38261b72	3.9603045e-05
137	0xb9999f0d	-0.00029300936
138	0xba8125e3	-0.000985321
139	0xb70d7bd6	-8.433088e-06
140	0xafd325c4	-3.840751e-10
141	0xb7469cc4	-1.18382195e-05
142	0xb74ee626	-1.2332142e-05
143	0xb2bd43b2	-2.203328e-08
144	0x3a25c983	0.0006324278
145	0xb77608fc	-1.4664834e-05
146	0x38595c04	5.1822528e-05
147	0xbcb22e99	-0.021750735
148	0xad28c388	-9.593111e-12
149	0x1264e158	7.222187e-28
150	0x3be0a305	0.006855371
151	0xbe56e044	-0.20983988
152	0x33c621b8	9.226227e-08
153	0x2a8895f8	2.4262515e-13
154	0xbd2d4afd	-0.042307843
155	0xb492f730	-2.7374472e-07
156	0x8d29ab78	-5.2283544e-31
157	0x38097496	3.2771924e-05
158	0xbe4f7e58	-0.2026304
159	0x80020064	-1.83811e-40
160	0x36461d59	2.9521382e-06
161	0xb3cbec44	-9.4959006e-08
162	0xbe2d28c8	-0.16910088
163	0xb3d486e9	-9.896559e-08
164	0x3b3fad8b	0.0029247727
165	0xb40c3376	-1.3057237e-07
166	0x341a8302	1.4390028e-07
167	0xb468cf45	-2.1682088e-07
168	0x3abe8fd2	0.0014538711
169	0xb3035dd7	-3.058616e-08
170	0x069ec894	5.972772e-35
171	0x3c00d836	0.007864049
172	0x30644a72	8.305171e-10
173	0xb44fa441	-1.9338133e-07
174	0x27601221	3.1096072e-15
175	0xbd81d510	-0.063394666
176	0x3518d500	5.693437e-07
177	0xbc7092f4	-0.014683474
178	0xb718932f	-9.094175e-06
179	0x2fa46822	2.9905417e-10
180	0x3b2e2e80	0.002657801
181	0xbdd5dfc4	-0.104430705
182	0xbd82ca37	-0.06386226
183	0x34bf2b0e	3.560785e-07
184	0x2f996e19	2.7908767e-10
185	0xb3eab210	-1.09288635e-07
186	0xba3e7a60	-0.000726616
187	0xbce74a21	-0.02823359
188	0xbd11f1fa	-0.035631157
189	0xb714a09a	-8.85888e-06
190	0xbb1cd757	-0.0023932063
191	0x3bb2f8db	0.005461795
192	0x38a99208	8.0857484e-05
193	0xb5813d3c	-9.62907e-07
194	0xb4bea08c	-3.550707e-07
195	0xbe13981b	-0.14413492
196	0xb88ef657	-6.816972e-05
197	0x3a47bcec	0.0007619399
198	0xb3a237c0	-7.553854e-08
199	0x3a3c239e	0.0007176938
200	0xbd13c0bc	-0.036072478
201	0xb2bc26c3	-2.1903707e-08
202	0xbc8276c8	-0.01592578
203	0xb30a510c	-3.220434e-08
204	0x133db75c	2.3945557e-27
205	0xbb24e57c	-0.0025161197
206	0xbd9b44b0	-0.075814605
207	0xb1ef2271	-6.959731e-09
208	0x38e4e5b5	0.000109146735
209	0x3acd1b93	0.0015648477
210	0xbe13da75	-0.14438803
211	0x30d95053	1.5811658e-09
212	0xb64e05fa	-3.069987e-06
213	0xbe6402fd	-0.22266765
214	0x3aaefed4	0.0013351091
215	0x368df5e0	4.230751e-06
216	0xbe27d17d	-0.16388507
217	0xb2c4cc26	-2.2910239e-08
218	0xb622c2f3	-2.4253357e-06
219	0x3809a979	3.282118e-05
220	0xbdd924b8	-0.10602707
221	0xb39dc5a9	-7.3468364e-08
222	0x335aeebf	5.097422e-08
223	0x3177a950	3.6039474e-09
224	0xb1046aee	-1.926931e-09
225	0xb55a76e6	-8.138435e-07
226	0x3cda60ae	0.026657429
227	0x3c8a36f5	0.016871909
228	0x350016ee	4.7717083e-07
229	0xb82aaae9	-4.069033e-05
230	0xb3557af8	-4.9704767e-08
231	0xb3f64556	-1.146788e-07
232	0xbd47915d	-0.048722614
233	0xaaeed8bd	-4.2427685e-13
234	0xbe40826a	-0.18799749
235	0x38527ff2	5.018706e-05
236	0x33089aca	3.1805747e-08
237	0x336d1776	5.52022e-08
238	0xb487c78c	-2.52909e-07
239	0xba8fb092	-0.0010962656
240	0xb2b28df1	-2.0786475e-08
241	0xb8bd93d4	-9.0397574e-05
242	0xbdc9e5eb	-0.098583065
243	0xb6416fde	-2.8824356e-06
244	0x3d6e9aea	0.058253206
245	0x3a655550	0.00087483693
246	0x3cddd569	0.027079301
247	0xb37f42f4	-5.9432708e-08
248	0xb982a028	-0.00024914858
249	0xb595bb89	-1.1155945e-06
250	0xb572481e	-9.025697e-07
251	0x3cd04699	0.025424289
252	0xb2dba9b2	-2.5572124e-08
253	0xb62c4d69	-2.5675056e-06
254	0x3c827c3d	0.015928382
255	0x31e5a2cd	6.6832855e-09

fc3.bias f4 [256]
0	0x3b223096	0.0024748198
1	0x90de4ff2	-8.7686736e-29
2	0xadceb572	-2.3500066e-11
3	0xb1b9efa2	-5.4114517e-09
4	0x9e0ea660	-7.551823e-21
5	0xb32a0976	-3.9589814e-08
6	0x38e3cd50	0.00010862446
7	0x39046a50	0.00012628105
8	0x36dc92aa	6.573585e-06
9	0x25bb5d10	3.250239e-16
10	0x99c2e94b	-2.0153356e-23
11	0x1ff0fb14	1.0205933e-19
12	0x93f80db3	-6.261751e-27
13	0x3bf2631c	0.0073970687
14	0xb851d66b	-5.0029175e-05
15	0xaeadd0fb	-7.9042516e-11
16	0x31e759cf	6.733195e-09
17	0xaa6a3eda	-2.0805181e-13
18	0xb70bd2a5	-8.33409e-06
19	0x32b55d10	2.1113493e-08
20	0x34a21301	3.018868e-07
21	0x33a6a874	7.760619e-08
22	0x39396011	0.00017678762
23	0x93b6e8f2	-4.617296e-27
24	0x9bffe05c	-4.23312e-22
25	0x2c1ad1ac	2.2001108e-12
26	0x2179dad0	8.465408e-19
27	0x800057c5	-3.1486e-41
28	0xba1bd728	-0.00059448415
29	0x381977d0	3.6589627e-05
30	0x32177f54	8.818308e-09
31	0xa6906e34	-1.0021878e-15
32	0x9f004790	-2.716425e-20
33	0xb0ad34d1	-1.2602418e-09
34	0xbc289a59	-0.010290706
35	0xb49dd9eb	-2.9402085e-07
36	0x3c67fa5a	0.01415881
37	0x3c28ac03	0.010294917
38	0x394a49b6	0.0001929168
39	0x36542614	3.1612626e-06
40	0x86996036	-5.769357e-35
41	0x35511b29	7.789809e-07
42	0xbba65d4f	-0.005077041
43	0x367f6c84	3.8061125e-06
44	0x1a9d722a	6.511812e-23
45	0x2cd2f7c9	5.9960687e-12
46	0x1481c9b2	1.3105226e-26
47	0xa9a61ad4	-7.376535e-14
48	0x38339846	4.281874e-05
49	0xb296cb16	-1.7554651e-08
50	0x069cc16a	5.8964874e-35
51	0x102f1918	3.4531996e-29
52	0x9286d02f	-8.50791e-28
53	0xbcc83fa5	-0.02444441
54	0xb6defabe	-6.645306e-06
55	0xb79c4c20	-1.8632098e-05
56	0x3b4080d9	0.0029373674
57	0xaec01622	-8.735081e-11
58	0x224790ff	2.704629e-18
59	0x33ba7060	8.681741e-08
60	0xb88bc8f2	-6.6654655e-05
61	0x2e8ec602	6.4925856e-11
62	0xb20d1e1e	-8.214128e-09
63	0x1c903997	9.544007e-22
64	0x36c4d171	5.8656374e-06
65	0x38c379e8	9.3210314e-05
66	0xbe99b238	-0.30018783
67	0x8e7fec7c	-3.154504e-30
68	0x2a1619ac	1.3331583e-13
69	0x340e2df6	1.3241501e-07
70	0xaec0b558	-8.763362e-11
71	0xbba60060	-0.0050659627
72	0x3c12ec9d	0.008967546
73	0x373758fd	1.0928369e-05
74	0xb7658fa0	-1.3682904e-05
75	0x95c465d0	-7.93244e-26
76	0x85adffdb	-1.6362828e-35
77	0xb585798a	-9.944645e-07
78	0xba0a8a2c	-0.00052848714
79	0xb8d462fe	-0.000101273865
80	0x2c716014	3.4301494e-12
81	0xbad23a41	-0.001603909
82	0x37e2825c	2.7002003e-05
83	0xb2b32d8e	-2.0859058e-08
84	0x318e73d4	4.145912e-09
85	0x376ecaf7	1.4233162e-05
86	0xbb0fc276	-0.0021935976
87	0xaca81274	-4.776896e-12
88	0x9802287c	-1.6822546e-24
89	0x313896c8	2.6861233e-09
90	0xb91f3527	-0.00015183222
91	0xb465cac8	-2.1401058e-07
92	0x31506e04	3.033052e-09
93	0x3aa167ce	0.0012314261
94	0x37da39c4	2.6014524e-05
95	0x9f45cf5b	-4.1887893e-20
96	0x3bb9e3a2	0.005672888
97	0x3ace3c6a	0.0015734558
98	0xadc45bf6	-2.2323459e-11
99	0x9a634d50	-4.7004952e-23
100	0x8893e7f7	-8.901775e-34
101	0x9a09357f	-2.837415e-23
102	0x3b3df6df	0.0028986258
103	0xb8baf18e	-8.914164e-05
104	0xbb5a5de2	-0.0033320119
105	0xa3a70a66	-1.811058e-17
106	0x82a64c99	-2.4435473e-37
107	0xbd6f161e	-0.058370702
108	0x931db03c	-1.9903076e-27
109	0xb6e86bc8	-6.926686e-06
110	0x2684bc8e	9.210448e-16
111	0xa6c79bcc	-1.3850628e-15
112	0x1b1cf5e8	1.2983474e-22
113	0x0e91d6e8	3.5952207e-30
114	0xa7d0de20	-5.7972426e-15
115	0x277b3900	3.4864147e-15
116	0xb64f543a	-3.089443e-06
117	0x399d0679	0.00029950196
118	0x8227cd36	-1.2328115e-37
119	0x1a7c72aa	5.2205003e-23
120	0xaa0c3220	-1.2451888e-13
121	0xae6f8e50	-5.4468707e-11
122	0x2fb12006	3.2218866e-10
123	0xbbd3531a	-0.0064491155
124	0x9b8b1479	-2.300885e-22
125	0x3357b794	5.022555e-08
126	0x2e0053ab	2.9178143e-11
127	0xb3e8601e	-1.08208255e-07
128	0xb5f0ea36	-1.7949558e-06
129	0xa9a19b27	-7.176751e-14
130	0x32d75478	2.5067706e-08
131	0x1e2529f8	8.743706e-21
132	0x299c6088	6.944537e-14
133	0xb7b65ed1	-2.1740243e-05
134	0xbb5b5fda	-0.003347388
135	0xbbcce0d3	-0.006252387
136	0x019e37de	5.81202e-38
137	0x395409ba	0.00020221519
138	0xb770e837	-1.43591815e-05
139	0x3b4dd063	0.0031404726
140	0x371b04e2	9.239857e-06
141	0x3d40593b	0.046960097
142	0x36eb2354	7.0076585e-06
143	0xa6d40b92	-1.4713591e-15
144	0xb70381ac	-7.8384e-06
145	0x31fd3cb4	7.3701703e-09
146	0xb6d2ca57	-6.282043e-06
147	0x089d78e8	9.477519e-34
148	0x38c9e5e4	9.627247e-05
149	0xaca4da1a	-4.6853745e-12
150	0x391a7ff6	0.00014734254
151	0xb09cc2f8	-1.1405907e-09
152	0x9c29dad3	-5.6200233e-22
153	0x24f23a88	1.05049926e-16
154	0x347af260	2.337124e-07
155	0x3f7b69a9	0.982081
156	0x8e9e83ca	-3.9076915e-30
157	0xb6f267e2	-7.2242556e-06
158	0xb8c73834	-9.499528e-05
159	0x2b4c5de6	7.260567e-13
160	0x3c605fa2	0.013694676
161	0x39f98e86	0.0004759917
162	0x2760f6cb	3.1220031e-15
163	0x2f68a287	2.1158018e-10
164	0x3c29a3ee	0.010354025
165	0x35da57b0	1.6267786e-06
166	0x27a3272d	4.5284063e-15
167	0xb9c63688	-0.00037806132
168	0x301f5464	5.796379e-10
169	0x172af4c9	5.5238925e-25
170	0x880170e3	-3.8952223e-34
171	0x36bcff0d	5.6325284e-06
172	0x3c16c5ca	0.00920243
173	0x3b80f0b8	0.003934946
174	0x2d9939a6	1.7419687e-11
175	0x39d3598c	0.00040311774
176	0xad105e9a	-8.206458e-12
177	0x37ef8e8a	2.8557395e-05
178	0x9aad2db8	-7.1624986e-23
179	0xada3d6a9	-1.8626283e-11
180	0x2ce741ef	6.572735e-12
181	0xbe62afcd	-0.22137375
182	0x8000e8f7	-8.3572e-41
183	0x8000bce3	-6.776e-41
184	0x8efd2f2d	-6.2414744e-30
185	0xad1e3013	-8.991935e-12
186	0xb0d720e0	-1.5652653e-09
187	0xba0fff27	-0.0005493038
188	0x2790b32d	4.016229e-15
189	0x3ba3f382	0.0050033936
190	0x34c616c9	3.6896952e-07
191	0xb61a48ee	-2.299024e-06
192	0xbaa2c135	-0.0012417199
193	0x8323c3de	-4.812624e-37
194	0xb9b9a9a6	-0.00035412348
195	0x2f9e669d	2.8812944e-10
196	0xb6a3fb58	-4.887039e-06
197	0xb62f6483	-2.6135538e-06
198	0x2b20668c	5.698573e-13
199	0xb25787ec	-1.2545552e-08
200	0x263439c8	6.2528353e-16
201	0x35ad0c58	1.2893097e-06
202	0x3b8810e3	0.0041524037
203	0x3a84dba7	0.0010136262
204	0xad193649	-8.709097e-12
205	0x368f1f8a	4.2654037e-06
206	0x32f17ca7	2.8112778e-08
207	0xbc834ba0	-0.016027272
208	0xaee66de9	-1.0478713e-10
209	0xbc8d8642	-0.017275933
210	0x9a813d36	-5.345204e-23
211	0xacd46f14	-6.0377345e-12
212	0x3c75df0d	0.015006793
213	0xb98813b6	-0.00025954627
214	0x2e81d6d1	5.9044e-11
215	0x3b874df7	0.004129167
216	0xbb2f3a4a	-0.0026737624
217	0xaa2f1d0c	-1.55532e-13
218	0xb6da8d6b	-6.5133695e-06
219	0x3ac1d208	0.0014787326
220	0x3bb9a9da	0.005666
221	0x33317240	4.1314934e-08
222	0x354d38b7	7.645098e-07
223	0x2eef35be	1.0878008e-10
224	0x3a5503f4	0.0008125894
225	0xaa539c1e	-1.8794729e-13
226	0xb2341fd4	-1.0484616e-08
227	0x018b6bc8	5.1215194e-38
228	0x2cffb60e	7.267748e-12
229	0xb2f07208	-2.7991533e-08
230	0x29d2cf98	9.361885e-14
231	0xb86d1f1c	-5.6534176e-05
232	0x1f8415ae	5.594004e-20
233	0x3a454ebe	0.0007526687
234	0x3c005e0d	0.007834923
235	0x2d5f8eee	1.2707819e-11
236	0x1e853bb0	1.4106609e-20
237	0xa600317a	-4.4475974e-16
238	0xbaa09c38	-0.0012253588
239	0x2304d110	7.200005e-18
240	0xb4bb46b6	-3.4882913e-07
241	0x879ca413	-2.3568705e-34
242	0x272e15de	2.4159205e-15
243	0x90504aeb	-4.1078482e-29
244	0x3433e5d2	1.6754282e-07
245	0xb6d3384e	-6.2948448e-06
246	0x9b455a2c	-1.6324594e-22
247	0x2aaf5088	3.1142124e-13
248	0x3d11868e	0.035528712
249	0x192484cb	8.5054186e-24
250	0x0daad341	1.0527916e-30
251	0xab62ee61	-8.0622146e-13
252	0xa6b07342	-1.2243694e-15
253	0xb0685837	-8.452647e-10
254	0x34d43b18	3.9531074e-07
255	0x37852de8	1.5876212e-05

fc4.weight f4 [1, 256]
0	0x3eaec5e2	0.34135348
1	0x3efd48dd	0.49469653
2	0x3e756f0b	0.23968141
3	0xbcf5dcce	-0.030012514
4	0x3e2ed1d2	0.17072228
5	0xbe01f2e7	-0.12690316
6	0x3df67ec1	0.12035895
7	0xbba7b23b	-0.0051176823
8	0x3e5a93f6	0.21345505
9	0xbe43d1bb	-0.19122975
10	0xbd12980b	-0.03578953
11	0x3d65457b	0.055974465
12	0x3db5c8a9	0.088761635
13	0x3eebb101	0.4603348
14	0xbe5fed75	-0.21867926
15	0xbdd6d913	-0.10490622
16	0xbd1209a5	-0.03565373
17	0xbcd05b5a	-0.025434185
18	0xbed6bd04	-0.41941082
19	0x3f035166	0.5129608
20	0xbde9e43f	-0.114204876
21	0xbea0d693	-0.31413707
22	0x3bcc736e	0.006239346
23	0xbe74dcb3	-0.23912315
24	0xbea11dc3	-0.3146802
25	0x3e7bdb26	0.24595317
26	0xbf44338d	-0.7664116
27	0xbc6874b5	-0.014187981
28	0x3d8c26ca	0.06843336
29	0xbb83bc3a	-0.004020241
30	0xbef8643d	-0.48513976
31	0xbe00cf14	-0.12578994
32	0x3eb2ae3a	0.3489855
33	0xbe2adad3	-0.16685037
34	0x3d5cb93a	0.053887583
35	0xbd8d0b96	-0.068869755
36	0x3de402e6	0.11133365
37	0xbeb7705d	-0.35827914
38	0xbd07d0be	-0.033158056
39	0xbc9ab5c8	-0.018885508
40	0x3e02a630	0.12758708
41	0xbcb00dd5	-0.02149097
42	0x3e26584f	0.16244625
43	0x3cbec616	0.023287814
44	0xbf403560	-0.75081444
45	0xbc4bcd7a	-0.012439126
46	0x3e811db1	0.25217965
47	0x3e317cf6	0.17332825
48	0x3f52cc72	0.8234321
49	0xbcbdf3c1	-0.02318752
50	0xbdcf0837	-0.10108989
51	0xbe77c229	-0.2419516
52	0x3f0eea49	0.5582624
53	0x3cfbdf13	0.030746019
54	0x3ee09477	0.4386327
55	0xbec01411	-0.3751531
56	0xbd43f0e8	-0.047837168
57	0x3dcc5ae2	0.09978272
58	0xbe49e964	-0.19717938
59	0xbc8d485d	-0.01724642
60	0x3cbdf612	0.023188625
61	0x3f57cc60	0.84296227
62	0xbdecb422	-0.11557795
63	0xbe3f63d0	-0.18690419
64	0xba4c3bf0	-0.0007790914
65	0xbd3b86f2	-0.04578299
66	0xbdbe2f1e	-0.09286331
67	0xbd40e6cb	-0.0470951
68	0x3f5e865d	0.8692377
69	0x3d15d69f	0.03658163
70	0xbe910197	-0.28321525
71	0xbd8b91b0	-0.06814897
72	0x3eceb6de	0.40373892
73	0x3d2c6719	0.04209051
74	0x3e86e0c1	0.2634335
75	0xbe1466ac	-0.14492291
76	0xbded6692	-0.11591829
77	0xbbf3bdda	-0.0074384036
78	0xbcbd76bf	-0.023127912
79	0xbd8438d6	-0.06456153
80	0xbdf20c50	-0.11818755
81	0x3c13c9d5	0.0090202885
82	0xbf2372ec	-0.6384723
83	0x3b21141f	0.0024578643
84	0x3c618b19	0.013766074
85	0x3eb49f31	0.35277703
86	0xbdc9cb30	-0.09853208
87	0xbe1bf3e7	-0.1522976
88	0xbced9b7f	-0.02900481
89	0xbbd21a6d	-0.0064118416
90	0xbc085938	-0.008322053
91	0x3e98403d	0.2973651
92	0x3c188aef	0.009310468
93	0xbcc0a9b2	-0.023518417
94	0xbebd2a4b	-0.3694633
95	0x3c683611	0.014173047
96	0x3d9b41af	0.075808875
97	0xbe012ad6	-0.12613997
98	0xbe447180	-0.19183922
99	0xbde2b31f	-0.11069321
100	0xbe7317b2	-0.23739508
101	0xbd2bd46c	-0.04195063
102	0xbdf46803	-0.11933901
103	0xbc9d83ef	-0.01922795
104	0xbd26e266	-0.040743254
105	0x3a66ec62	0.00088090275
106	0x3e079a49	0.13242449
107	0xbe6e076a	-0.23245016
108	0xbdb779f7	-0.0895881
109	0xbe6c0fb9	-0.23052873
110	0xb9bada13	-0.00035639163
111	0xbce550d1	-0.027992638
112	0x3de8dc40	0.11370134
113	0xbe11c98d	-0.14237042
114	0x3e68d7fa	0.22738639
115	0xba78b167	-0.0009486884
116	0x3df16bee	0.11788164
117	0xbf17ea5d	-0.59341985
118	0xbc944e06	-0.01810361
119	0xbd0e7604	-0.034780517
120	0xbee64dbf	-0.4498119
121	0x3db9ea34	0.09077874
122	0x3ef0ac2c	0.47006357
123	0xbe4576ec	-0.19283646
124	0x3e1eec7a	0.15519896
125	0x3dd14328	0.10217887
126	0xbdf9bd1e	-0.12194274
127	0x3d9e5615	0.077312626
128	0xbe9b4244	-0.30323994
129	0xbda120cb	-0.07867583
130	0xbe76c246	-0.24097547
131	0xbdf60a84	-0.120137244
132	0xbf04af2f	-0.5182981
133	0xbec95d35	-0.39328924
134	0x3da65910	0.08122456
135	0xbeade66c	-0.3396486
136	0xbdc1ebb2	-0.094687834
137	0xbf05ccc6	-0.52265584
138	0x3e8d73fa	0.27627546
139	0xbe1edffc	-0.15515131
140	0xbf961d3e	-1.1727674
141	0xbf1a137c	-0.6018598
142	0xbf0f9329	-0.56083924
143	0xbdd88099	-0.10571403
144	0xbe6f37f9	-0.23361196
145	0x3d526a0c	0.051370665
146	0xbae7a53b	-0.0017673144
147	0x3d0bdcb9	0.034146044
148	0x3d8611b6	0.06546347
149	0xbd9588f7	-0.073015146
150	0xbde2a6de	-0.11066984
151	0x3a4bc2ff	0.0007772892
152	0xbeefa951	-0.46808866
153	0xbd400918	-0.046883672
154	0xbeeb22b2	-0.45924908
155	0x3f1b4411	0.60650736
156	0x3db3a5f7	0.0877189
157	0xbc9a044f	-0.018800883
158	0x3cc1e50b	0.023668787
159	0xbb63d283	-0.0034762926
160	0x3eb971e9	0.3621972
161	0xbcbe275b	-0.023212126
162	0x3d543357	0.051806774
163	0xbf4de684	-0.80429864
164	0x3ea39aff	0.3195419
165	0x3952faa8	0.00020120537
166	0x3dff05f8	0.1245231
167	0xbccd96d9	-0.025096344
168	0xbe808f9c	-0.25109565
169	0xbecec194	-0.40382063
170	0xbd45777f	-0.048209663
171	0x3c9981d1	0.01873866
172	0xbd22de20	-0.039762616
173	0xbe85637c	-0.26052463
174	0x3db92de4	0.09041956
175	0xbec4f768	-0.38470006
176	0xbf532230	-0.8247404
177	0xbc9d8f88	-0.01923348
178	0xbd169034	-0.036758617
179	0xbe432ea1	-0.19060756
180	0xbc2871ff	-0.010281085
181	0x3f046e02	0.5173036
182	0xbd75a21b	-0.05996905
183	0x3c218df8	0.009860508
184	0x3d101d3f	0.03518414
185	0xbe61b883	-0.22043042
186	0x371746a8	9.016752e-06
187	0xbe7a1ea2	-0.24425748
188	0x3da15b13	0.07878699
189	0xbf4a1b99	-0.7894836
190	0xbc62502d	-0.013813061
191	0xbf86f0b6	-1.0542209
192	0x3d92ed67	0.07174187
193	0x3f48c3fe	0.7842406
194	0x3f5d8eed	0.8654621
195	0xbc99bb3a	-0.018766034
196	0x3f02e382	0.511284
197	0xba288c8f	-0.0006429636
198	0xbdbad4ee	-0.09122644
199	0xbe17ccda	-0.14824238
200	0xbe8c2b86	-0.27376956
201	0xbeb3983a	-0.35077077
202	0x3ddb9340	0.10721445
203	0x3d56ca15	0.052438814
204	0xbf6c2673	-0.9224617
205	0x3df5a276	0.119938776
206	0x3eba3ef5	0.36376157
207	0xbf4c8fae	-0.7990674
208	0x3f52ed7a	0.8239361
209	0xbe58033b	-0.21094982
210	0xbdb36762	-0.08759953
211	0xbe4d5544	-0.20052058
212	0xbe0cf66c	-0.13765877
213	0xbb7ddffe	-0.0038738246
214	0xbe46d07d	-0.1941547
215	0xbe20fa5d	-0.15720506
216	0xbed39e2e	-0.4133162
217	0xbd1d0b22	-0.038340695
218	0x3d9cb2e6	0.0765131
219	0xbd4ffa09	-0.05077556
220	0x3e8a41f0	0.2700343
221	0xbd9270d1	-0.07150424
222	0xbb48a81b	-0.0030617777
223	0xbd11f61e	-0.035635106
224	0x3bbb197d	0.0057098255
225	0x3d433912	0.04766185
226	0xba17e897	-0.00057948515
227	0xbd6d8130	-0.05798453
228	0x3d017a1e	0.0316106
229	0xbc30043e	-0.010743199
230	0x3e08177e	0.13290212
231	0xbdf444ba	-0.11927171
232	0x3e1b5377	0.15168558
233	0x3d182403	0.03714372
234	0x3eb1917e	0.34681314
235	0x3dad4ea6	0.084622666
236	0xbf585667	-0.8450684
237	0xbd174e6e	-0.03694003
238	0xbb240e9b	-0.002503312
239	0xbe257a3c	-0.1615991
240	0x3e1bbcc7	0.15208732
241	0x3dc5f17c	0.096652
242	0x3cec582f	0.028850643
243	0xbc7e53be	-0.015522895
244	0xbdc924ec	-0.098214954
245	0xbb1e1ea5	-0.0024127152
246	0xbdaa4d9d	-0.08315585
247	0xbe3076f4	-0.17232877
248	0xbd9288c1	-0.0715499
249	0xbea1157a	-0.31461698
250	0x3c40b3a1	0.011761577
251	0xbc9c1886	-0.019054662
252	0xbacc7836	-0.001559979
253	0xbed6a870	-0.41925383
254	0xb905d994	-0.00012764923
255	0xbe3baa07	-0.18326579
