shanghai_road_delivery/results_centralized/centralized_episode_250.pth_centralized_actor.pth (torch, 922090 bytes, 20 tensors)

fc1.weight f4 [256, 364]
000000 10 4f 87 b6 9e 5c 34 b6 e8 e2 a6 b6 b2 ca a6 b6
       -4.0325176e-06 -2.6876e-06 -4.973601e-06 -4.9707824e-06
000010 76 d3 a6 b6 86 f6 a5 b6 5a 01 cb 3a 12 27 3f 3b
       -4.971803e-06 -4.9460823e-06 0.0015488074 0.0029167575
000020 fd 24 0e bb dc da d1 aa 48 4f 0a 2d 88 87 7e b6
       -0.0021689527 -3.7277722e-13 7.861996e-12 -3.792784e-06
000030 2c d9 c3 37 70 71 e7 ba 93 4c c4 37 f2 8d d8 36
       2.334694e-05 -0.0017657708 2.3400678e-05 6.4538262e-06
000040 66 c4 6b b7 4e ae 03 ad 40 1b 2f b6 36 dd cf 37
       -1.4052819e-05 -7.485191e-12 -2.6092894e-06 2.4779332e-05
000050 93 ff 68 b5 dc a5 8c b4 68 b7 14 b5 74 aa 96 b2
       -8.6798644e-07 -2.619771e-07 -5.540119e-07 -1.7539811e-08
000060 b7 7f 18 36 e4 ce 02 2c f8 92 c7 b4 34 f0 3e 2d
       2.2724105e-06 1.8588958e-12 -3.7173572e-07 1.0853585e-11
000070 b9 0a d7 37 74 09 f3 33 6d 42 fb 37 58 1a a1 ac
       2.563499e-05 1.1317289e-07 2.9952464e-05 -4.57882e-12
000080 b2 77 0a 38 26 70 87 36 ef 65 40 38 3c 07 05 2f
       3.301324e-05 4.0363693e-06 4.58713e-05 1.209885e-10
000090 e9 03 32 b6 eb e2 a6 b6 27 c4 e0 37 eb e2 a6 b6
       -2.6526343e-06 -4.9736022e-06 2.6794221e-05 -4.9736022e-06
0000a0 16 a9 69 b8 10 96 93 b6 02 a1 c3 37 f2 1f 07 37
       -5.5709002e-05 -4.398411e-06 2.3320787e-05 8.054065e-06
0000b0 e7 62 2a b7 b1 a4 a8 37 be e9 d6 37 df f2 6c 37
       -1.0155817e-05 2.0103851e-05 2.5619633e-05 1.4123244e-05
0000c0 25 fd 8e 32 eb e2 a6 b6 4c 46 56 b6 eb e2 a6 b6
       1.6646093e-08 -4.9736022e-06 -3.1929403e-06 -4.9736022e-06
0000d0 f0 37 d7 b5 fe bc 24 b6 ea e2 a6 b6 d4 a9 a6 b6
       -1.6035028e-06 -2.4547912e-06 -4.973602e-06 -4.966956e-06
0000e0 40 ab a6 b6 af d0 a7 b6 88 60 4a b7 e4 66 0d bb
       -4.9671216e-06 -5.001282e-06 -1.2062614e-05 -0.002157622
0000f0 16 e1 5b b2 09 12 22 ad 85 69 45 b4 84 87 7e b6
       -1.2798656e-08 -9.2126385e-12 -1.8385443e-07 -3.792783e-06
000100 88 e0 b8 3a 1c 53 a3 ae 58 60 c3 37 6a d5 d7 36
       0.0014105001 -7.427145e-11 2.3290675e-05 6.432344e-06
000110 f6 b3 6b b7 f8 56 d7 af 5b ea ac b5 b4 37 c3 37
       -1.4048992e-05 -3.9170067e-10 -1.2883205e-06 2.327175e-05
000120 8c ff 68 b5 e2 9c 5e 32 0e f7 68 b5 8a 04 7c ac
       -8.6798605e-07 1.2957772e-08 -8.6786247e-07 -3.5813874e-12
000130 dc 5d 11 34 4d 05 8b b6 e0 02 c1 30 0c 22 9b 2d
       1.3538323e-07 -4.14314e-06 1.4043415e-09 1.763658e-11
000140 c2 31 f9 37 07 d2 90 ae 38 0e 0e 38 e2 67 d9 2d
       2.9706283e-05 -6.58567e-11 3.386868e-05 2.4716177e-11
000150 09 ac 17 38 3c cb a3 3a ff 3d a5 37 3e ac 13 b4
       3.6161426e-05 0.0012496482 1.9698402e-05 -1.3753103e-07
000160 ab f2 3e b6 eb e2 a6 b6 30 1b 1e 38 eb e2 a6 b6
       -2.8453458e-06 -4.9736022e-06 3.7695456e-05 -4.9736022e-06
000170 59 b6 64 b8 c0 8c a5 b6 75 cd b7 37 28 61 1d 37
       -5.452926e-05 -4.9337687e-06 2.1910973e-05 9.38055e-06
000180 8c 3a 9a b7 74 8d d2 37 78 8b 00 38 87 47 f2 37
       -1.8385494e-05 2.509982e-05 3.064747e-05 2.8881956e-05
000190 82 a6 f3 33 51 dd a6 b6 e8 5e 27 b6 eb e2 a6 b6
       1.1345857e-07 -4.97295e-06 -2.4940182e-06 -4.9736022e-06
0001a0 e1 e6 99 b6 60 81 27 b6 ea e2 a6 b6 58 fd a6 b6
       -4.586633e-06 -2.4960245e-06 -4.973602e-06 -4.9766786e-06
0001b0 aa fc a6 b6 4f 7e a5 b6 b8 5f 8d af 1c 10 82 32
       -4.9765995e-06 -4.9320874e-06 -2.5715763e-10 1.5141318e-08
0001c0 e9 ef 8a 2d e5 90 98 b6 14 cf b2 36 88 87 7e b6
       1.5795325e-11 -4.546821e-06 5.3289205e-06 -3.792784e-06
0001d0 f2 ff 73 37 b0 a6 8e ae ec c3 cc 37 68 d7 d7 36
       1.4543521e-05 -6.487022e-11 2.4409928e-05 6.432576e-06
0001e0 2e ac 6b b7 d5 e6 06 2d e0 b9 96 b5 9d 67 c4 37
       -1.404718e-05 7.668273e-12 -1.1229968e-06 2.341327e-05
0001f0 96 ff 68 b5 04 4d c9 39 75 aa 61 b5 30 31 38 ae
       -8.679866e-07 0.0003839509 -8.406708e-07 -4.1880444e-11
000200 6a db af b4 b8 35 3c 35 33 22 d1 b4 c0 6d 02 b7
       -3.2755935e-07 7.011363e-07 -3.8954167e-07 -7.774157e-06
000210 ae 86 1c 38 70 33 33 b0 d3 27 d0 37 92 61 01 00
       3.731873e-05 -6.519292e-10 2.4814077e-05 1.26837e-40
000220 42 74 6b 39 30 1b 23 b2 a5 af 4f 37 46 de c2 b3
       0.00022454656 -9.4940305e-09 1.2379057e-05 -9.07426e-08
000230 ca 33 3f b6 eb e2 a6 b6 9b 94 53 38 eb e2 a6 b6
       -2.8491363e-06 -4.9736022e-06 5.044472e-05 -4.9736022e-06
000240 84 5d c8 b8 40 5d b2 b6 d0 8a b6 37 7b f3 5c 37
       -9.554162e-05 -5.315669e-06 2.176073e-05 1.3169712e-05
000250 a5 42 c0 b7 3c fd bd 37 00 82 9b 37 db 32 b8 b7
       -2.2919217e-05 2.2648477e-05 1.8537976e-05 -2.195819e-05
000260 3b 1a 09 34 36 c0 a6 b6 72 4d 73 34 eb e2 a6 b6
       1.2768662e-07 -4.969562e-06 2.2659313e-07 -4.9736022e-06
000270 b0 eb 3a b6 e1 66 07 b6 ea e2 a6 b6 98 1d a7 b6
       -2.7853348e-06 -2.017645e-06 -4.973602e-06 -4.980433e-06
000280 01 1d a7 b6 3b e9 a6 b6 b4 12 c0 ac 86 51 c6 b6
       -4.9803643e-06 -4.974337e-06 -5.4590447e-12 -5.9103504e-06
000290 7f 90 96 bb 76 82 25 35 2c 5a c0 30 87 87 7e b6
       -0.004594862 6.1657136e-07 1.3995467e-09 -3.7927837e-06
0002a0 9b 6b 7e 37 b6 0c 6c ae 9e 64 d0 37 a9 26 d9 36
       1.5164634e-05 -5.3671477e-11 2.4842386e-05 6.4716046e-06
0002b0 cc c4 6b b7 fb e7 df 39 79 c1 0c bb b4 37 c3 37
       -1.4052912e-05 0.00042706713 -0.0021477623 2.327175e-05
0002c0 94 ff 68 b5 0c 11 89 35 ac 46 4b b5 a0 58 1a b3
       -8.679865e-07 1.0212257e-06 -7.5726234e-07 -3.5936523e-08
0002d0 d2 30 be b5 f3 66 75 2f dc 3f d0 b7 50 57 2e 2d
       -1.4170312e-06 2.2319195e-10 -2.4825269e-05 9.910142e-12
0002e0 ac 17 2b 3a 18 0c 63 30 3b 94 c9 37 4e 0a 00 00
       0.00065266597 8.2599305e-10 2.4030092e-05 3.697e-42
0002f0 14 03 8d b9 26 d8 46 3b bc b2 39 37 85 1d 56 b6
       -0.0002689591 0.0030341237 1.1068474e-05 -3.1905668e-06
000300 c6 8b 3a b6 eb e2 a6 b6 ae a4 0a 38 eb e2 a6 b6
       -2.7797519e-06 -4.9736022e-06 3.3055134e-05 -4.9736022e-06
000310 cb 87 92 b8 90 fe 1b b6 42 58 b7 37 ee e9 38 37
       -6.987116e-05 -2.3244975e-06 2.1856398e-05 1.1021721e-05
000320 52 d7 d3 b6 60 f5 a8 37 08 47 01 38 4a 0d 85 37
       -6.3133566e-06 2.0141422e-05 3.082215e-05 1.5861024e-05
000330 9c a9 f8 33 4a e5 a6 b6 af 42 19 b2 eb e2 a6 b6
       1.1579252e-07 -4.9738783e-06 -8.920934e-09 -4.9736022e-06
000340 34 6f 11 b6 77 67 fb b5 e8 e2 a6 b6 dc e7 a6 b6
       -2.1671412e-06 -1.873107e-06 -4.973601e-06 -4.9741775e-06
000350 29 e9 a6 b6 00 1d a6 b6 23 16 f1 30 8b 41 0f b9
       -4.974329e-06 -4.9505616e-06 1.754135e-09 -0.0001366196
000360 b8 ce f2 ba b4 68 1d bb fa 35 91 2f 87 87 7e b6
       -0.0018524742 -0.0024018707 2.64137e-10 -3.7927837e-06
000370 f6 3a 7b 37 7c a0 4a b6 25 20 d3 37 58 d7 d7 36
       1.4974494e-05 -3.019376e-06 2.5168129e-05 6.4325686e-06
000380 ae a5 6b b7 ec f3 93 af ef e7 06 38 1e a4 cf 37
       -1.4045667e-05 -2.691246e-10 3.2164095e-05 2.4752746e-05
000390 94 ff 68 b5 d2 38 ce b8 bd 86 13 b5 96 b5 69 a9
       -8.679865e-07 -9.833429e-05 -5.495784e-07 -5.1893894e-14
0003a0 0d 2f 5a 34 bc b2 24 35 ef 50 39 34 f4 31 21 2c
       2.0319949e-07 6.1354854e-07 1.7258911e-07 2.2907206e-12
0003b0 8c ba f1 37 d1 46 17 30 70 98 ce 37 13 6d 65 b9
       2.8816306e-05 5.5034116e-10 2.4628098e-05 -0.00021879775
0003c0 e2 0e 0c 38 44 37 36 ae 7c 68 d2 37 d2 ee eb 2d
       3.339246e-05 -4.1431095e-11 2.5082605e-05 2.6822464e-11
0003d0 8e 66 3e b6 eb e2 a6 b6 92 0d 1c b9 eb e2 a6 b6
       -2.83719e-06 -4.9736022e-06 -0.00014882375 -4.9736022e-06
0003e0 61 03 a6 b8 20 80 68 b6 85 8a b5 37 9c aa dc 36
       -7.916126e-05 -3.4645273e-06 2.1641385e-05 6.5763725e-06
0003f0 a9 23 aa b7 8a 00 eb 37 b6 0e 08 38 fc f9 15 39
       -2.0282185e-05 2.8014434e-05 3.2438627e-05 0.00014302874

fc1.bias f4 [256]
000000 eb e2 a6 b6 c2 93 76 b8 04 c1 37 3a e2 13 ef 3b
       -4.9736022e-06 -5.878858e-05 0.00070096576 0.0072960714
000010 5a 53 b8 b5 7d b4 75 b5 78 c2 f1 b5 d2 71 d6 3e
       -1.3733327e-06 -9.153226e-07 -1.8012497e-06 0.41883713
000020 c6 80 95 b1 f6 1e 40 b4 c2 87 50 b8 7b fe 68 ba
       -4.3511106e-09 -1.7892657e-07 -4.97175e-05 -0.0008888018
000030 15 d6 e4 b5 67 7c 0d 31 76 8e 12 b8 bb 64 9e b1
       -1.704963e-06 2.0588915e-09 -3.494179e-05 -4.609857e-09
000040 1b 3e e5 b6 b5 e1 a0 34 5f db c1 33 c8 ec 01 b4
       -6.831962e-06 2.9966546e-07 9.027166e-08 -1.2100202e-07
000050 8e 9e 7d b9 31 1a 29 b5 74 a7 f1 b9 74 dc e3 3b
       -0.00024187026 -6.299552e-07 -0.00046091864 0.0069537703
000060 8d 04 01 3d 7c 01 ae 38 b8 60 68 b7 5e 4f e3 3b
       0.03149848 8.297243e-05 -1.3850797e-05 0.0069369515
000070 bb a4 f5 33 b2 29 bb 38 96 a7 3b 38 a6 03 bf b5
       1.1438666e-07 8.924621e-05 4.474035e-05 -1.4231671e-06
000080 bf 20 b7 b9 f2 cb ad b8 f4 16 8c 3d 36 2e 8c b9
       -0.00034928878 -8.2872706e-05 0.068403155 -0.0002673731
000090 57 d8 52 b1 48 13 47 3a 3a 9f 11 b6 88 1c 30 b7
       -3.0681997e-09 0.00075941207 -2.1699366e-06 -1.049706e-05
0000a0 da ab 64 3b e7 67 eb 3a ba 3d 75 b6 1a 56 8f b7
       0.003489247 0.0017960042 -3.6543775e-06 -1.7087023e-05
0000b0 4e 66 88 b6 b8 c0 60 b6 60 12 77 38 96 9c 8a b7
       -4.0650257e-06 -3.3490778e-06 5.8906502e-05 -1.6523798e-05
0000c0 96 52 19 39 90 e6 95 3a ce 2c 88 b6 4a 95 e5 39
       0.00014621983 0.0011436511 -4.058332e-06 0.00043789513
0000d0 e5 06 13 3d 16 0a 5b b7 f3 71 44 b5 3c c0 84 39
       0.035895247 -1.30557655e-05 -7.318151e-07 0.00025320228
0000e0 ba 29 e3 b3 14 18 02 b3 7c cb c3 32 6b 05 c2 b6
       -1.0578101e-07 -3.0289883e-08 2.2793522e-08 -5.7822813e-06
0000f0 af 28 22 b9 03 75 ba b6 b4 f7 77 b7 96 d4 c1 b2
       -0.0001546468 -5.556854e-06 -1.478002e-05 -2.256483e-08
000100 09 56 a9 b7 31 83 e4 3c 34 1c ff 3a 4c 03 50 3e
       -2.0186433e-05 0.027894588 0.0019463361 0.20313758
000110 a6 06 01 3a ca 06 6b b1 cf 86 38 b5 47 c3 5f b5
       0.000492195 -3.420086e-09 -6.8741514e-07 -8.335814e-07
000120 88 02 e3 b7 06 69 e2 36 25 89 45 b3 22 1d a5 3b
       -2.7061687e-05 6.747551e-06 -4.599237e-08 0.0050388733
000130 b2 f3 8b b2 9f ca 34 b6 39 9a 56 b9 9d 9e 4b b7
       -1.629255e-08 -2.6940031e-06 -0.00020466083 -1.2136673e-05
000140 94 76 1c b9 db f1 6d 36 69 07 e6 b8 ef 80 6f 36
       -0.00014921493 3.545653e-06 -0.00010968635 3.5688824e-06
000150 7e df 00 3a 42 95 03 b8 aa b7 60 b9 b4 d5 51 b9
       0.00049161154 -3.137184e-05 -0.00021430725 -0.00020011404
000160 64 ce 28 36 b3 3d f7 b5 d4 38 38 b6 18 38 de 36
       2.5154086e-06 -1.8420891e-06 -2.7451215e-06 6.6226457e-06
000170 04 39 87 39 52 90 c6 b6 a4 ed e3 3a ca 4a 50 37
       0.00025791686 -5.917661e-06 0.0017389548 1.2415179e-05
000180 cc 30 36 b3 59 7a 46 b5 a9 99 88 b7 36 2e fe bb
       -4.2419558e-08 -7.393879e-07 -1.6284017e-05 -0.0077569736
000190 9a b0 e1 b9 42 47 26 b7 04 aa ac 39 25 24 ed 36
       -0.00043046923 -9.910962e-06 0.00032933068 7.067358e-06
0001a0 8b 10 67 b7 db ce 66 b9 47 1b 16 3d e6 4a aa b8
       -1.3772525e-05 -0.00022011569 0.036647107 -8.1201826e-05
0001b0 80 a3 cf b9 b5 68 18 b7 b4 5c 75 36 0a 29 6a b8
       -0.00039603934 -9.084285e-06 3.6561805e-06 -5.5828168e-05
0001c0 20 a6 11 3a fe 15 d7 b7 d9 65 6d 3e f8 31 72 b9
       0.00055560656 -2.5640238e-05 0.23183383 -0.00023097533
0001d0 b3 2c 86 33 73 7d b2 3a 17 7f f0 3a ce 08 46 3c
       6.247992e-08 0.0013617709 0.0018348423 0.01208706
0001e0 b4 a5 2a b6 b1 37 58 b4 58 cd 66 38 5b d2 63 37
       -2.5428426e-06 -2.0136828e-07 5.5027514e-05 1.3579232e-05
0001f0 fe 64 7e 39 c6 05 62 3c 3e 40 9d 37 57 a7 89 b7
       0.0002426095 0.013795322 1.8745774e-05 -1.6409596e-05
000200 fc 06 7c b8 04 53 af b2 0b da 41 ba 4f 57 86 b8
       -6.0087987e-05 -2.0410432e-08 -0.00073948567 -6.4058804e-05
000210 b9 01 a4 b8 9f ff f2 37 e1 31 60 b7 41 5b 05 b5
       -7.82045e-05 2.8967681e-05 -1.3363054e-05 -4.9679153e-07
000220 2a 74 c8 b9 81 af 70 38 ba 10 9b 35 90 a0 aa b8
       -0.00038233522 5.738391e-05 1.1553268e-06 -8.136139e-05
000230 ae b6 1c b5 e4 0d ce 39 c6 44 e7 39 26 41 1f b6
       -5.838036e-07 0.0003930173 0.00044110994 -2.3730768e-06
000240 c8 68 12 35 f8 95 ee b5 a0 64 51 b7 04 95 01 b2
       5.4541715e-07 -1.7776028e-06 -1.2480799e-05 -7.5426705e-09
000250 9b 92 6e b5 56 4b 97 39 c2 4d f8 39 f6 84 22 bb
       -8.887525e-07 0.00028857094 0.0004736018 -0.002479849
000260 93 19 43 38 b5 4c b1 3e ae d7 83 33 18 10 a9 39
       4.651544e-05 0.34628835 6.139395e-08 0.00032246183
000270 e6 59 fe b6 34 bc 81 b7 51 b3 48 ba 3e e8 00 ba
       -7.5802554e-06 -1.5465637e-05 -0.0007656115 -0.0004917419
000280 b1 2c 58 b8 c8 80 77 35 32 83 e5 34 00 da 1c b9
       -5.1540035e-05 9.220207e-07 4.275003e-07 -0.0001495853
000290 fd 52 c4 35 91 fe ed b4 84 86 11 b2 2a 1c ad b8
       1.4627291e-06 -4.4329911e-07 -8.470696e-09 -8.254529e-05
0002a0 8a 67 6e b5 66 c4 af b4 fd db ef 3a 66 89 94 39
       -8.881258e-07 -3.273919e-07 0.0018299815 0.0002833113
0002b0 1d 83 48 b8 9b 98 d9 39 a6 d6 6e b6 63 92 db 39
       -4.7805825e-05 0.00041503165 -3.5589705e-06 0.00041880002
0002c0 fb 45 13 3a b0 1f 69 35 97 5f 8b 36 a6 a1 bb b7
       0.0005618033 8.6845375e-07 4.153651e-06 -2.236741e-05
0002d0 84 87 92 37 53 33 44 b5 11 dd 9e b7 24 6b a6 39
       1.746766e-05 -7.3090376e-07 -1.893801e-05 0.00031741813
0002e0 70 c6 fe 38 46 48 1e b9 4e 61 4f b7 2e e9 5f 3a
       0.00012148626 -0.00015094978 -1.2360817e-05 0.00085415214
0002f0 00 45 bd b5 86 ba c1 b9 a0 3a 27 33 e6 48 ca b9
       -1.4101679e-06 -0.000369508 3.8936037e-08 -0.00038582756
000300 4e ea 2f b6 78 16 36 35 90 8b 80 b8 19 d0 41 39
       -2.6213415e-06 6.783298e-07 -6.129511e-05 0.00018483437
000310 c6 46 94 36 5e af 09 ba 2a 41 54 b5 24 8c 8d 39
       4.418983e-06 -0.0005252267 -7.907098e-07 0.0002699803
000320 2e 61 c0 b9 39 ee 34 30 c3 2e d7 35 e4 88 37 b6
       -0.00036693498 6.5822153e-10 1.6032358e-06 -2.7348806e-06
000330 46 49 07 38 7a a2 05 b7 d7 01 79 39 3a c8 44 bb
       3.225475e-05 -7.965247e-06 0.00023747176 -0.003002657
000340 0c 93 d5 36 e5 59 09 3b bf 11 b7 39 c7 e4 94 38
       6.365013e-06 0.0020958122 0.00034917702 7.099803e-05
000350 f8 82 98 b1 66 d9 08 b9 35 79 d3 b5 74 31 88 b8
       -4.4386717e-09 -0.00013050958 -1.5756001e-06 -6.494197e-05
000360 b6 fd 8a b3 ee 9f 04 b5 37 c0 34 39 3e 50 3a 39
       -6.4722755e-08 -4.940656e-07 0.00017237743 0.00017768235
000370 82 54 f7 b6 67 27 7e b9 b8 a2 5a 3b 97 9a df 3d
       -7.3710116e-06 -0.00024238006 0.0033361148 0.109181575
000380 95 ba dd b6 e5 81 e9 b0 e2 2d 00 38 14 f0 c6 b4
       -6.6080343e-06 -1.69899e-09 3.056031e-05 -3.7055054e-07
000390 e3 7b 08 b8 60 37 5f 34 e2 d2 87 32 7c 5b 76 b5
       -3.2540305e-05 2.0788639e-07 1.5811967e-08 -9.177527e-07
0003a0 ec af f4 b8 99 3f a7 b6 20 9b 38 b7 c9 9c f1 b6
       -0.00011667595 -4.9843916e-06 -1.10033725e-05 -7.200612e-06
0003b0 ce e6 cd b5 42 52 43 b8 1c 1f 31 31 da e7 36 35
       -1.5340863e-06 -4.656823e-05 2.5774574e-09 6.813767e-07
0003c0 14 eb 43 38 65 b0 f7 36 a4 9e 14 b9 e6 ac 15 b7
       4.6710556e-05 7.3817087e-06 -0.00014173478 -8.921348e-06
0003d0 c7 bb 1d bb 8b 7b 9a b8 aa dd f5 b8 c6 52 b7 37
       -0.0024068223 -7.366304e-05 -0.000117237985 2.1853844e-05
0003e0 b0 bb 8a b1 f7 39 7b b5 35 53 37 38 9a e1 e9 3c
       -4.037666e-09 -9.3589136e-07 4.3708093e-05 0.028549958
0003f0 cb 4b 1b b9 6c 06 59 b5 d4 d6 28 b6 17 3d 23 b7
       -0.00014810187 -8.0848145e-07 -2.5158997e-06 -9.729781e-06

fc2.weight f4 [256, 256]
000000 bc 92 a6 b0 2c a7 df 30 5a c7 2f b2 37 5b 07 b9
       -1.2119794e-09 1.6272899e-09 -1.0231668e-08 -0.00012908583
000010 d0 1f ce 29 fe d8 7c b8 ca 24 ba 2e 31 d6 9c b5
       9.153756e-14 -6.028357e-05 8.464836e-11 -1.1685244e-06
000020 57 41 46 25 db 7e d8 2a 4a b5 11 b7 19 5c 1d 32
       1.71959e-16 3.8457331e-13 -8.684883e-06 9.159543e-09
000030 88 5b f2 2a e6 14 3a 2a 4a e0 81 2f 91 36 7c a9
       4.3051348e-13 1.6527369e-13 2.362433e-10 -5.600257e-14
000040 72 72 10 2f 05 28 8d ab 1a d4 a3 14 02 fd ce 2e
       1.3137383e-10 -1.002976e-12 1.6542453e-26 9.4127386e-11
000050 e2 ce 85 bb ac b2 33 2f 8a 21 58 2e a9 71 b8 35
       -0.0040835002 1.6343432e-10 4.9142503e-11 1.3742148e-06
000060 ec 7c df b4 be d8 d2 ad 80 32 81 b8 31 a4 1f ad
       -4.162788e-07 -2.3970489e-11 -6.160606e-05 -9.074561e-12
000070 d7 c2 a5 2e 44 5b ba b0 5e ea db ad 58 cf 96 ae
       7.537942e-11 -1.355922e-09 -2.5001497e-11 -6.858042e-11
000080 72 27 01 3b 64 42 ad 33 8c 75 a7 b6 a0 bd 1f 31
       0.001970735 8.068017e-08 -4.990672e-06 2.3245335e-09
000090 ec 26 51 24 98 b6 c9 2b 9b 93 3a af a8 8d a4 ac
       4.535262e-17 1.4332589e-12 -1.6969041e-10 -4.6768873e-12
0000a0 90 1f 3c 2b ab 74 90 b1 4c 71 9b 2c c4 2e 6e b4
       6.683482e-13 -4.204215e-09 4.4179434e-12 -2.218249e-07
0000b0 1f ec 2e af 72 ae b2 3b 98 00 37 ad 2c bf 07 99
       -1.5909095e-10 0.0054529244 -1.04024775e-11 -7.017943e-24
0000c0 fd bf 47 34 d0 8a 82 30 a0 01 c5 2e 87 f6 ff b0
       1.8603164e-07 9.498198e-10 8.9588115e-11 -1.8623759e-09
0000d0 92 80 ee b5 b3 97 c0 2f 8c 44 8d ad e0 77 7e 2f
       -1.7769801e-06 3.5032385e-10 -1.6060285e-11 2.3143754e-10
0000e0 81 55 dd ab eb 66 9b ac 74 0d 62 a9 48 38 d1 28
       -1.5726727e-12 -4.416791e-12 -5.019375e-14 2.322807e-14
0000f0 47 1c 0b ae 90 c7 9f ad 40 2b 0c 29 5c 65 df 2d
       -3.1630056e-11 -1.816483e-11 3.1123758e-14 2.5397177e-11
000100 18 4d 97 af 19 2e 4b 36 e2 62 5c 34 c5 3d 38 38
       -2.7521518e-10 3.027619e-06 2.052507e-07 4.3926546e-05
000110 24 96 84 3b e2 40 04 39 28 14 f1 2d 1d 74 20 ad
       0.0040462185 0.00012612672 2.7407479e-11 -9.120729e-12
000120 28 a4 9a 2e 47 2c ab af 5a 70 1b 2c 30 1c 2e 39
       7.032269e-11 -3.113618e-10 2.2089192e-12 0.00016604434
000130 1f 65 b9 ae c6 52 5b ab 2c 1f 22 30 49 02 72 ab
       -8.430789e-11 -7.79193e-13 5.8979555e-10 -8.597884e-13
000140 10 e1 6a b7 19 04 4e ae 4f 7f b0 2b da d0 b2 ba
       -1.3999888e-05 -4.6842617e-11 1.2540887e-12 -0.0013642565
000150 fb 29 7c 35 b8 01 ba 2f e0 62 92 aa 00 6a db ac
       9.3938405e-07 3.3834424e-10 -2.6003418e-13 -6.2361227e-12
000160 66 4f 52 27 97 4a 48 b2 66 af 8e 1b 54 25 01 2a
       2.9186396e-15 -1.1658492e-08 2.3605278e-22 1.1470452e-13
000170 c3 5b 4b 2f 44 c1 b8 2d 73 f2 1f 30 22 68 8b 30
       1.8495343e-10 2.1004205e-11 5.8188404e-10 1.0143177e-09
000180 89 e6 ed 2b 18 cc 85 aa 64 64 aa 2a e4 04 2f b8
       1.6903849e-12 -2.3767164e-13 3.0267726e-13 -4.1727806e-05
000190 d4 b0 ef af ae 80 df 2f e2 93 89 2b 85 67 03 30
       -4.359949e-10 4.0654896e-10 9.775481e-13 4.780463e-10
0001a0 df 63 6e a9 bc 84 59 ae 96 a2 5c b6 94 c1 d1 2c
       -5.293324e-14 -4.945798e-11 -3.2877192e-06 5.9616288e-12
0001b0 14 af b1 2d c8 04 de 2b 2c a1 a4 b0 39 0b 3a ac
       2.020032e-11 1.5775376e-12 -1.1978378e-09 -2.643842e-12
0001c0 e0 41 a8 ac 08 42 fd 2b d9 b5 1c 38 ba 51 91 2e
       -4.7821608e-12 1.7995059e-12 3.7362657e-05 6.608354e-11
0001d0 78 06 2e 2b 6e de 6e 34 f7 ae 2d 2c c6 7a 6e 36
       6.1826195e-13 2.2246397e-07 2.4681904e-12 3.5536227e-06
0001e0 59 a5 7c 2a 6a a5 dd a6 8d 72 1a ac 76 92 1c ab
       2.2439463e-13 -1.5379791e-15 -2.1948305e-12 -5.562559e-13
0001f0 40 51 16 31 ac 11 09 b6 e2 db d8 af 3c f9 15 ad
       2.1874058e-09 -2.0424877e-06 -3.9446407e-10 -8.5250106e-12
000200 97 7b 6e 2d 0a 27 16 a9 17 ed 80 ad 08 78 e8 a8
       1.3556176e-11 -3.3340552e-14 -1.4657204e-11 -2.580923e-14
000210 cc e3 b8 36 70 1b ac a9 c1 c9 b0 ac a0 77 ac 28
       5.5101464e-06 -7.643094e-14 -5.02462e-12 1.9147715e-14
000220 bc ae ea ba b2 77 7f 31 e5 20 03 b8 44 ad ac 2d
       -0.0017904858 3.7175423e-09 -3.126347e-05 1.9631081e-11
000230 64 cf 81 2c 62 a0 20 2b 42 0d ca b2 70 c0 1a ad
       3.6894255e-12 5.7065995e-13 -2.3521924e-08 -8.796616e-12
000240 30 fd 89 a9 83 ab 4b 38 b4 3f 4d 2b ce d6 51 25
       -6.127943e-14 4.8558704e-05 7.2919036e-13 1.8200639e-16
000250 02 1e c1 30 29 4f d4 af 7a 72 21 33 ee a8 15 b9
       1.4051127e-09 -3.8618822e-10 3.758985e-08 -0.00014272679
000260 f6 69 76 29 9e 23 6d b5 38 fa 65 29 b2 66 12 af
       5.471488e-14 -8.834121e-07 5.1065245e-14 -1.3315107e-10
000270 56 04 47 b0 23 a4 a0 2f e5 aa af 31 f6 af 13 ac
       -7.240194e-10 2.9220457e-10 5.112599e-09 -2.0987634e-12
000280 80 20 db ab 80 5b ba 2a 14 95 04 b7 50 4f 51 ae
       -1.5569906e-12 3.3103728e-13 -7.902523e-06 -4.7591542e-11
000290 1c 2f b0 2d 60 5c 98 27 fe 03 48 80 ac 29 07 b6
       2.0029804e-11 4.228863e-15 -6.613588e-39 -2.0140824e-06
0002a0 da 05 2c b3 35 db 20 2b dc 39 3f 2e 35 f6 9d 37
       -4.0052193e-08 5.714763e-13 4.347976e-11 1.8830508e-05
0002b0 50 8c 58 31 dc c8 1f ae 9e 4e 8b 30 a0 72 b5 af
       3.1511895e-09 -3.6330813e-11 1.0135925e-09 -3.3005154e-10
0002c0 00 9b e8 30 48 a5 44 ac af 5d 8b ac ce 2b a2 2c
       1.6924275e-09 -2.7945025e-12 -3.9610186e-12 4.6091802e-12
0002d0 f6 86 e6 ab f5 98 ea a9 df 38 3b b4 a5 a6 91 af
       -1.6379942e-12 -1.0418221e-13 -1.7436422e-07 -2.6493754e-10
0002e0 0c 9b 36 b2 20 4d 4f 2b 70 76 1a 29 70 ce 47 2e
       -1.0629048e-08 7.3648206e-13 3.4297597e-14 4.5430715e-11
0002f0 14 45 4e b0 12 1d 78 30 ca 13 2f 27 84 1e cd b3
       -7.504053e-10 9.0263186e-10 2.4296856e-15 -9.551607e-08
000300 d3 ed a3 31 05 76 9c ba e8 97 84 ad 2f 38 57 b1
       4.770962e-09 -0.0011937028 -1.5074123e-11 -3.1318554e-09
000310 21 71 cd ac 32 1c 96 2f b6 56 37 2c e8 53 18 39
       -5.8390103e-12 2.7304875e-10 2.6053998e-12 0.00014527107
000320 a0 d8 a5 2e 52 8b f6 23 04 d1 1a b4 95 6b 05 2b
       7.5418116e-11 2.6730378e-17 -1.4418407e-07 4.740039e-13
000330 9d da 93 b8 db 38 00 ac a0 4e b0 2e 34 bf eb af
       -7.050226e-05 -1.8221455e-12 8.01752e-11 -4.288211e-10
000340 4c ce 2e 35 54 40 00 32 f3 34 a6 ae c8 75 2b 2e
       6.512025e-07 7.465207e-09 -7.558212e-11 3.898551e-11
000350 60 b8 16 2f c4 e2 96 31 2f 4d 1a b7 ea b7 2d b6
       1.3707924e-10 4.391355e-09 -9.197086e-06 -2.588606e-06
000360 10 c7 ff 29 2d 48 18 2e 36 11 84 b3 c8 cf 80 ad
       1.1358807e-13 3.4624904e-11 -6.1498596e-08 -1.4644189e-11
000370 a0 ee 5c 30 09 ec 0a 2f 30 2e 90 b3 74 7a 6f 38
       8.037464e-10 1.2634883e-10 -6.713924e-08 5.7096084e-05
000380 5a d1 c5 aa b2 a5 f5 a9 24 89 db 2e 90 64 1d aa
       -3.5139497e-13 -1.0908929e-13 9.983328e-11 -1.3979291e-13
000390 a6 bf bf 2c 6e 5d 81 33 26 6e a9 28 6d 28 8c 38
       5.4498238e-12 6.0240254e-08 1.8810538e-14 6.68325e-05
0003a0 c0 4d 56 2e 17 de dd 30 2c ac c3 2e 00 b9 0d ac
       4.8727022e-11 1.6142988e-09 8.898157e-11 -2.014e-12
0003b0 16 46 8d a8 48 3a e0 2e c5 e3 92 ac 02 59 3a b5
       -1.568454e-14 1.01966935e-10 -4.174857e-12 -6.9419923e-07
0003c0 e8 75 58 2d e4 4f a2 3b 14 17 74 af 64 7d 5e ab
       1.2304359e-11 0.0049533714 -2.219987e-10 -7.904426e-13
0003d0 51 02 01 32 20 fa 70 39 13 2c 9b ae c6 18 6c ab
       7.509315e-09 0.00022981362 -7.056413e-11 -8.3878423e-13
0003e0 cc 94 79 26 7c 85 4d ac b2 c5 d7 b2 ec 7e 09 b5
       8.6590886e-16 -2.920635e-12 -2.5119196e-08 -5.122117e-07
0003f0 d8 37 92 2d 72 5c 8b b1 ee ca c8 2e fc af b7 b0
       1.6623078e-11 -4.0559422e-09 9.1309946e-11 -1.336502e-09

fc2.bias f4 [256]
000000 47 62 e5 b5 2c 9f a7 39 7d af 01 b9 a8 47 af 3b
       -1.7090432e-06 0.00031971314 -0.00012367773 0.0053491183
000010 ec 08 78 3a b8 78 82 af b5 81 f1 b6 e3 ba ab 31
       0.00094617787 -2.3732638e-10 -7.1974596e-06 4.9980016e-09
000020 d4 59 8a 39 36 a1 fd 3c 75 1f b1 b3 0c 31 1b b6
       0.00026388338 0.03096066 -8.247927e-08 -2.312535e-06
000030 a2 40 1f b7 af 37 28 3a 2e 3d e3 b2 de e5 90 39
       -9.492187e-06 0.0006416989 -2.64541e-08 0.00027637085
000040 3c a2 2b b3 08 90 02 b7 92 b5 9a 33 82 18 21 38
       -3.996159e-08 -7.782139e-06 7.204211e-08 3.8408216e-05
000050 14 bd 01 bb a7 c7 30 ba f1 de 8d b6 1a 10 3a 3e
       -0.0019796537 -0.00067436177 -4.2280813e-06 0.18170205
000060 01 ca ae b7 0e 36 f2 3c 6d e0 54 39 0a c8 63 b6
       -2.0836482e-05 0.02956679 0.000203015 -3.3942074e-06
000070 04 0d 5e 3b 62 9a 55 3b 58 fc bd ba cb 9f 51 3d
       0.003388227 0.003259324 -0.001449476 0.05117778
000080 32 7d b7 3b 51 e5 ad 39 50 3d ec b6 79 4e b1 39
       0.0055996412 0.00033167985 -7.040486e-06 0.00033818537
000090 a6 a5 bd 38 cd 66 9d 3a d8 01 02 39 dd 71 79 39
       9.043077e-05 0.0012008786 0.00012398453 0.00023788908
0000a0 58 0f 53 3e 2c 10 52 bd 62 a2 cb bd 25 d5 aa b7
       0.20611322 -0.051284954 -0.099430814 -2.0364832e-05
0000b0 6a a1 5a b3 d5 f8 e6 bb ea 02 cc 3b 30 90 7e b7
       -5.0903886e-08 -0.007048706 0.0062259333 -1.5173151e-05
0000c0 b9 b5 6a ba 3c 2d 71 b7 92 28 ce b4 b1 b6 59 36
       -0.00089534704 -1.4375251e-05 -3.840001e-07 3.244186e-06
0000d0 26 2d 76 3d 29 07 87 3b 6c 55 f9 b8 bd 49 44 b9
       0.06010165 0.0041207266 -0.00011889156 -0.00018719486
0000e0 29 95 3c b8 09 3c 3c 3e 52 58 22 39 4c 20 90 3e
       -4.496161e-05 0.18382277 0.00015482426 0.2814964
0000f0 e7 cb 18 3a 3a 93 19 38 0e 9a ec 34 d8 1d b7 36
       0.00058287237 3.6615158e-05 4.4070515e-07 5.4572993e-06
000100 0d 6c 58 b7 b5 b0 32 b8 b0 7a 8b ba 7e d3 63 37
       -1.2899761e-05 -4.260308e-05 -0.0010641422 1.3579496e-05
000110 da b0 8d b7 da 19 e3 b5 9e d6 34 38 1a fd b2 ba
       -1.6890863e-05 -1.6920342e-06 4.3115222e-05 -0.0013655752
000120 cc 89 08 3d 0a 7d 85 b7 42 6e 91 36 56 c0 03 b4
       0.03333454 -1.5913061e-05 4.3341724e-06 -1.2270297e-07
000130 61 2b 2d 39 29 60 b8 b5 f9 8f de 3b e8 0c c3 b8
       0.00016514726 -1.3737055e-06 0.006792065 -9.3007286e-05
000140 65 a4 ae 32 ec 0a 2d 3b c2 0a 0d 3c 04 e6 8b b8
       2.0331024e-08 0.0026404215 0.008608522 -6.67088e-05
000150 37 82 35 3c e0 b1 74 b6 1d 56 9b b7 a8 b3 f1 37
       0.011078409 -3.646237e-06 -1.851754e-05 2.8813098e-05
000160 fc 4b 0e 3b b8 44 1f 3a f2 a4 14 b6 24 71 7b b3
       0.002171277 0.00060756085 -2.214973e-06 -5.8543392e-08
000170 cb e7 86 3c 5a 69 f9 bc 0e 93 b0 b9 2b 68 b0 36
       0.01646795 -0.030445743 -0.000336789 5.2573355e-06
000180 5d 94 c0 39 ea 90 8e 34 f6 6b 0a b7 e0 9c 64 3c
       0.00036731633 2.6555e-07 -8.250578e-06 0.013953418
000190 75 66 c1 b4 83 d3 78 3a f7 ef f3 36 d0 1e 7d b0
       -3.60236e-07 0.0009491967 7.2699e-06 -9.208465e-10
0001a0 c1 79 09 3d a2 65 ba b9 12 af 8d b5 34 2f 13 ba
       0.03356338 -0.00035552407 -1.0556271e-06 -0.0005614639
0001b0 9e 28 bc 3d a6 19 cb 3a 28 ec 67 bc 05 7b c9 35
       0.091874346 0.0015495315 -0.014155425 1.501147e-06
0001c0 18 f9 85 36 40 5d 3c b4 68 ef 25 3a 3b ee a2 39
       3.992707e-06 -1.7542789e-07 0.0006329925 0.00031076543
0001d0 70 f7 fc b7 48 e5 5d b8 77 9d 9c b4 48 7a 7b b5
       -3.0155963e-05 -5.290404e-05 -2.9171835e-07 -9.368273e-07
0001e0 c5 02 30 39 a3 e2 9e 36 98 df 78 32 54 e4 cc b2
       0.000167857 4.735151e-06 1.4486339e-08 -2.3852557e-08
0001f0 d4 04 82 b6 56 86 14 b9 dd a4 fc 3a 4c 6b e2 36
       -3.874864e-06 -0.00014164424 0.0019275207 6.747816e-06
000200 f4 d1 d7 b9 e2 36 28 b6 1c d3 91 b9 da 7a 50 39
       -0.00041164423 -2.5065897e-06 -0.00027813844 0.00019882192
000210 2f 4c 8a 38 c8 fd 32 3e b5 62 85 ba 7a d9 47 39
       6.594543e-05 0.17479622 -0.0010176512 0.00019059135
000220 18 e8 14 3a 12 c9 16 bb 62 44 62 3c b6 e7 f7 ba
       0.00056803366 -0.002300803 0.013810249 -0.001891366
000230 e3 75 36 b3 cd 8d 8a b6 b3 94 4f 3c 21 db 7d 36
       -4.2482394e-08 -4.1292283e-06 0.01266973 3.7827488e-06
000240 46 d1 dd b8 5c 3f 2c ba 74 ac 68 3d 48 1a d2 ba
       -0.000105770814 -0.00065707206 0.05680509 -0.0016029561
000250 5c ba 19 bc 2c ca ca b7 3c 36 28 b7 88 e5 3c ba
       -0.00938281 -2.417442e-05 -1.0026208e-05 -0.00072058337
000260 64 37 ff 3b 14 67 0a b8 c4 69 42 b8 9c f3 2a 3e
       0.0077885855 -3.2997763e-05 -4.6351706e-05 0.16694492
000270 9e 90 15 37 b7 23 62 b6 57 81 9b 3c 10 6f ba 36
       8.914763e-06 -3.3697413e-06 0.018982572 5.5561613e-06
000280 30 28 40 b9 1e c1 24 3c a6 eb 03 38 b8 2d ab b8
       -0.00018325518 0.010055808 3.14523e-05 -8.162431e-05
000290 07 e9 13 3a 7e 43 7c 3e fd 0b 8e 39 3b c7 13 b8
       0.0005642329 0.24635121 0.00027093283 -3.523308e-05
0002a0 8d e4 ba 3b 5b 74 81 3c 6c 2b af 35 0a 12 35 b8
       0.005703515 0.015802553 1.3051153e-06 -4.3170563e-05
0002b0 2e 3d f6 bd 1e 16 44 b9 cc bc 36 b9 1d 4d 4a bb
       -0.12023388 -0.00018700256 -0.00017427205 -0.0030868717
0002c0 bd 2c 66 b8 69 88 3a 3a 5e 75 f5 b3 f4 63 a4 b5
       -5.487794e-05 0.00071156636 -1.14300505e-07 -1.2248042e-06
0002d0 90 8a b2 b3 4a 1a b8 b3 99 2f 91 b2 f9 b4 96 ba
       -8.313975e-08 -8.5729496e-08 -1.6901867e-08 -0.0011498026
0002e0 8d 4d 29 b4 a6 7e cd b8 7e 06 d4 b9 79 2a d8 b9
       -1.5767564e-07 -9.798752e-05 -0.00040440628 -0.00041230375
0002f0 78 00 b1 36 a4 88 a1 bd 84 7c 73 3e 51 a1 46 3b
       5.2750656e-06 -0.0788739 0.23777968 0.0030308554
000300 29 40 a0 37 42 21 03 b9 84 4b e4 3c 34 65 4f 39
       1.9103363e-05 -0.00012505523 0.02786804 0.0001977876
000310 32 8f da 3d ae d5 ce b5 2e 3d 98 3c 4c 2d b5 1d
       0.106718436 -1.5410385e-06 0.01858386 4.7957137e-21
000320 4d de 13 37 32 e0 37 b5 6e 6c b8 37 4b 56 49 3d
       8.813641e-06 -6.849906e-07 2.1985e-05 0.04915456
000330 fb 75 9e ba 83 08 5e 3a e4 bd 46 3d f0 e6 32 ba
       -0.0012089604 0.0008469896 0.048520938 -0.00068245735
000340 7c 4d 45 39 5e 9f 51 b9 a6 74 5a bb fa 4c 07 3d
       0.00018816249 -0.00019991162 -0.0033333688 0.033032395
000350 53 a6 cd 3a 60 de d2 37 e9 9f 14 36 52 3b 10 b9
       0.0015689827 2.5137502e-05 2.2146799e-06 -0.00013755009
000360 c7 02 e6 31 70 23 8d 34 2c 93 d3 b8 2d dd 9a b9
       6.6941968e-09 2.628908e-07 -0.00010088677 -0.00029537958
000370 06 39 fe 39 45 cd 03 b9 b8 5a 31 ba 4e e3 55 bb
       0.0004848914 -0.00012569602 -0.00067655323 -0.0032636705
000380 73 c7 38 3a 40 05 af 3d a7 1b 33 37 12 81 5a ba
       0.0007048763 0.08545923 1.067567e-05 -0.0008335273
000390 79 0d 41 3b c2 8c 86 bd 37 bc 0a 39 46 b1 9e 3c
       0.0029457493 -0.06569816 0.00013230821 0.01937164
0003a0 f0 2e 40 b6 61 3c 74 b5 e0 fc f3 b9 f6 18 18 b3
       -2.863755e-06 -9.0984946e-07 -0.00046536978 -3.541296e-08
0003b0 4a f4 a3 b8 4c 96 c6 3c b2 6c b2 ba 46 fc 23 b8
       -7.817948e-05 0.024241589 -0.0013612716 -3.9097176e-05
0003c0 6e be 6e b8 00 68 c2 ad 75 7b 03 b6 6a 36 a0 38
       -5.6920973e-05 -2.2101432e-11 -1.9592383e-06 7.63953e-05
0003d0 fc 3e cf ba e8 5c c7 35 85 8e 0d b6 60 ca 0e b6
       -0.0015811617 1.4853695e-06 -2.1093595e-06 -2.1277447e-06
0003e0 ed 79 11 3c b8 f3 ab bc ce 2b 67 39 e0 d9 8d 3c
       0.008879167 -0.020990238 0.00022046195 0.017315805
0003f0 13 48 a5 3c da 8e 61 b4 a2 f2 5b bc ec 92 d3 b3
       0.02017597 -2.1006727e-07 -0.013424547 -9.852178e-08

fc3.weight f4 [256, 256]
000000 2e d2 15 2f 86 7d 83 ae 1a 21 02 2f c8 7d 46 31
       1.3626142e-10 -5.979488e-11 1.1835191e-10 2.888429e-09
000010 78 4a a8 34 fa cf 4c a8 b0 5e 96 32 94 f7 5d ab
       3.1346622e-07 -1.1369373e-14 1.7505357e-08 -7.8858556e-13
000020 49 6c ab 31 e3 a2 c6 30 30 12 89 2b 22 ac eb 33
       4.9890656e-09 1.4452691e-09 9.739484e-13 1.0974351e-07
000030 24 b6 fd ac 80 f0 39 b2 cc ba 90 2b 66 22 aa 33
       -7.210914e-12 -1.0823101e-08 1.0283662e-12 7.922499e-08
000040 83 64 b1 29 27 57 09 aa e4 e7 b6 2a 03 14 4d af
       7.877815e-14 -1.2198281e-13 3.24906e-13 -1.8651751e-10
000050 12 f6 b7 36 08 9d 07 2f 17 1e 5d b0 85 df 5d 33
       5.4824714e-06 1.2333967e-10 -8.044209e-10 5.1658862e-08
000060 e9 cf 36 ba 2c 6b 81 bb 5f 97 02 32 a0 9c 4a 36
       -0.000697373 -0.0039495435 7.601414e-09 3.0191513e-06
000070 08 91 0f 35 10 41 fc 36 a4 73 f4 2f d8 42 77 b3
       5.34827e-07 7.5177595e-06 4.446551e-10 -5.7569963e-08
000080 d9 a8 25 32 f0 55 9e 33 20 33 28 2e a0 87 4d b6
       9.642656e-09 7.37308e-08 3.8244186e-11 -3.0626325e-06
000090 06 43 61 33 b8 9a 21 34 c0 5c 9d ba d3 a7 0d b5
       5.2447852e-08 1.505058e-07 -0.0012005791 -5.277081e-07
0000a0 ba 9e 01 bb 84 4f cb b2 7e 9e ce 34 04 cb 60 30
       -0.0019778446 -2.366847e-08 3.8485808e-07 8.177923e-10
0000b0 e8 69 06 32 bc 92 ab 31 9e 2b 9b b5 86 01 25 30
       7.823907e-09 4.9934368e-09 -1.1561094e-06 6.0028815e-10
0000c0 88 88 5a ab 0d 32 48 2f 30 28 68 39 ef c3 8c ae
       -7.7638633e-13 1.8207676e-10 0.00022140215 -6.401268e-11
0000d0 e0 2f d6 b1 de a7 aa b4 d8 0d 53 2f a8 29 ae b0
       -6.2336625e-09 -3.1787107e-07 1.9195256e-10 -1.2672006e-09
0000e0 20 33 5d 30 13 45 9c b3 b6 25 a4 ae d5 3c d2 b7
       8.0471985e-10 -7.2768806e-08 -7.4645554e-11 -2.5062278e-05
0000f0 e8 5c d5 34 50 52 ad 2e 4b f7 08 b7 22 46 f4 30
       3.974194e-07 7.881751e-11 -8.163809e-06 1.777327e-09
000100 4f 93 0a b6 e0 19 b9 ab aa 04 ca 2d ea dd b8 38
       -2.0649347e-06 -1.3152222e-12 2.2966812e-11 8.8151384e-05
000110 06 ea bc aa a8 10 21 31 ec 76 35 2d f5 f0 56 38
       -3.3557895e-13 2.3438051e-09 1.0315065e-11 5.1245985e-05
000120 20 bf f5 b0 16 f6 1e aa c0 00 7d b0 20 6f 87 2f
       -1.7880417e-09 -1.4118597e-13 -9.204193e-10 2.4635316e-10
000130 4c 5c 83 b0 18 86 89 30 89 b3 15 b5 a4 f8 6f b5
       -9.557737e-10 1.0006174e-09 -5.5768083e-07 -8.939626e-07
000140 83 46 39 2a a7 30 e1 34 e8 5d b8 37 c1 b0 09 b3
       1.6455764e-13 4.1944915e-07 2.1978238e-05 -3.2058555e-08
000150 40 7f fa b2 ac 85 9a ac f1 81 55 ab a4 36 91 2f
       -2.9161697e-08 -4.391784e-12 -7.585313e-13 2.641417e-10
000160 10 27 d5 39 94 5f 32 b4 36 83 dd 2f ec 8a fb aa
       0.0004065563 -1.6612313e-07 4.0292897e-10 -4.4682953e-13
000170 9d eb 2b b2 d4 83 8e b0 30 0e 11 b9 16 ae 98 2c
       -1.0007082e-08 -1.0369328e-09 -0.00013833563 4.3394273e-12
000180 7c e5 0f 2e e9 6f f7 28 76 f1 bd b5 48 c1 7e 36
       3.271826e-11 2.7471042e-14 -1.4151872e-06 3.7961454e-06
000190 25 ba f6 10 aa 0d bd 31 48 32 2d b2 d4 9c b4 aa
       9.731669e-29 5.5021774e-09 -1.0081358e-08 -3.2083244e-13
0001a0 c1 fe a5 35 c0 62 17 36 4c e5 b8 b6 a7 a9 06 2e
       1.2367601e-06 2.2558233e-06 -5.510321e-06 3.0618754e-11
0001b0 68 7f ba b1 2c c4 77 b3 32 48 2d b2 56 94 37 ae
       -5.427797e-09 -5.7687586e-08 -1.0086341e-08 -4.174113e-11
0001c0 50 bd 7d 2b 3c 23 0c ac d0 43 3e 36 c5 c5 60 31
       9.014638e-13 -1.9914756e-12 2.8351678e-06 3.270871e-09
0001d0 45 e4 a8 ac ff 6e 04 ab e8 fd 80 2f b8 8c 86 b5
       -4.80019e-12 -4.704986e-13 2.3463476e-10 -1.0024733e-06
0001e0 7f e4 82 b1 1f 67 bf 2e 10 fd fc 2a e8 a3 51 33
       -3.809475e-09 8.7039924e-11 4.493979e-13 4.8810676e-08
0001f0 e4 4a 2d ac 27 47 03 32 5f 54 1e b5 08 41 8c ae
       -2.4626351e-12 7.641382e-09 -5.898236e-07 -6.378015e-11
000200 6f c8 c8 30 85 b6 94 ad f8 73 1b 30 64 52 92 30
       1.4608882e-09 -1.6906707e-11 5.6553473e-10 1.0646315e-09
000210 64 0d 93 3a 9f 79 32 b2 e8 5c 2d b5 90 05 4f 34
       0.0011219201 -1.0388617e-08 -6.458272e-07 1.9280401e-07
000220 9d 47 f8 b0 70 af bb 2d a0 11 07 36 cc c9 78 2a
       -1.8064729e-09 2.1337349e-11 2.0126827e-06 2.2096837e-13
000230 7f 9e 5d ab 10 41 9a 28 4c 35 87 33 ee 25 0d 2b
       -7.873493e-13 1.7125651e-14 6.296122e-08 5.01459e-13
000240 5c 8d 54 33 cc f3 2b 3a d4 6c 7f 32 99 0a 87 ae
       4.9488662e-08 0.0006559461 1.4867698e-08 -6.140972e-11
000250 a0 32 db 2c 8d da 81 31 3c ac 70 b1 c5 73 9d 34
       6.229975e-12 3.7792405e-09 -3.50225e-09 2.9327762e-07
000260 c8 2e 12 30 4a 35 0f 2f 50 8e 10 35 67 3f 54 32
       5.318097e-10 1.3024706e-10 5.385127e-07 1.235444e-08
000270 14 40 11 34 b0 02 5d 34 7d 7c 1a b2 26 ff 69 bb
       1.3527489e-07 2.0583207e-07 -8.992285e-09 -0.0035705059
000280 a6 34 37 2f da f3 0b b3 f9 e7 9a ab 56 95 02 b1
       1.6662458e-10 -3.258524e-08 -1.1006743e-12 -1.9002377e-09
000290 92 6f be b2 69 e1 1a 33 50 24 3b b1 35 e9 10 ba
       -2.2169647e-08 3.606093e-08 -2.7232723e-09 -0.00055279146
0002a0 08 65 fb b5 b1 86 55 b6 0b 10 a9 2c 6c f0 9b 30
       -1.8730361e-06 -3.1817874e-06 4.80505e-12 1.1346066e-09
0002b0 da af 49 33 4e f1 80 ae 17 9a 13 30 94 cb 67 2f
       4.6958895e-08 -5.8636304e-11 5.3697263e-10 2.1081653e-10
0002c0 f4 bb ac 2d 80 c1 43 ac 7e 93 a7 2e e4 27 e8 a9
       1.9637604e-11 -2.781858e-12 7.6204806e-11 -1.03097896e-13
0002d0 74 f1 04 b7 aa d9 b0 ac e5 85 e0 ae c2 75 98 ae
       -7.924031e-06 -5.0263864e-12 -1.0210125e-10 -6.933078e-11
0002e0 ff 98 69 b5 6b 7d 1e 2a ae c1 3a 34 80 f5 f7 37
       -8.70219e-07 1.4076732e-13 1.739306e-07 2.9559014e-05
0002f0 74 3b 0c 31 e2 b3 90 33 04 15 db 32 80 0e 84 2f
       2.0406477e-09 6.738243e-08 2.5504512e-08 2.4020963e-10
000300 94 ee 86 af 63 27 48 2e ce bb dd af ce cf af 3b
       -2.4543978e-10 4.5509718e-11 -4.033311e-10 0.0053653484
000310 e4 a5 19 b6 00 4c f1 ab 0b 80 a8 b1 81 35 70 35
       -2.2895338e-06 -1.7145174e-12 -4.9040003e-09 8.9484826e-07
000320 11 1d f3 ae 00 bf 7f aa 57 99 1e af 70 52 7a b2
       -1.1055524e-10 -2.2714816e-13 -1.4424494e-10 -1.4570659e-08
000330 43 ab 78 b2 c7 99 bc b1 dd bb be 33 06 2a 1a 30
       -1.447444e-08 -5.4890026e-09 8.8817366e-08 5.608459e-10
000340 7b 71 66 bb ce ae bb 31 b0 6e c6 37 88 3d a3 ba
       -0.0035162854 5.4622893e-09 2.3654982e-05 -0.0012454251
000350 0c be ff 31 38 bc 26 ad 04 2a d7 b3 2a 63 95 b0
       7.4430826e-09 -9.4778005e-12 -1.001936e-07 -1.0869361e-09
000360 9a 6c 73 28 7b a9 bb 2c 84 af 1e 2d f8 a1 4b 2b
       1.3512759e-14 5.3336758e-12 9.0202325e-12 7.2344864e-13
000370 20 d8 f6 33 1c ad 43 ab 6b bc 5f b3 74 4a 89 29
       1.14945806e-07 -6.9518154e-13 -5.20926e-08 6.096938e-14
000380 b7 1d 0f 31 37 1e 58 b9 9b a3 8d 2f 18 d6 b1 b3
       2.082613e-09 -0.00020610621 2.5764e-10 -8.281148e-08
000390 7c a6 cb b4 71 2a cb 34 38 20 25 b0 f5 97 47 31
       -3.793283e-07 3.7842577e-07 -6.0072436e-10 2.9044689e-09
0003a0 f5 9a 63 ac fc 0e 3e a7 69 20 5a 35 72 10 6f 2f
       -3.2344659e-12 -2.637592e-15 8.125849e-07 2.1742766e-10
0003b0 93 d6 ac 2c dc a3 5c 33 6e 36 f2 2b c5 cd e9 af
       4.9123565e-12 5.137177e-08 1.7210241e-12 -4.252866e-10
0003c0 28 55 2b 2c e6 08 fa 27 60 18 6c b0 a0 9c 2c b7
       2.4347833e-12 6.9398587e-15 -8.589094e-10 -1.0288466e-05
0003d0 1c bc f1 b6 ea 61 24 af 7c 75 b5 b1 fa 0c 37 b9
       -7.2042585e-06 -1.4950499e-10 -5.2811497e-09 -0.00017457074
0003e0 44 e2 09 b2 41 53 8f 31 58 6f 6a af 19 4a cf b8
       -8.025896e-09 4.1713126e-09 -2.1321733e-10 -9.884331e-05
0003f0 9b ef 59 31 3d e3 7b af f8 91 1a 3a d6 c0 29 29
       3.1713856e-09 -2.2909048e-10 0.0005896385 3.7692797e-14

fc3.bias f4 [256]
000000 a7 47 0c b6 c0 30 85 3a 86 6d 12 36 70 41 66 34
       -2.0903333e-06 0.0010161623 2.1819446e-06 2.1444225e-07
000010 56 89 c3 33 54 d2 a0 ba 29 43 89 b6 3e 84 39 34
       9.1053764e-08 -0.0012269714 -4.0907366e-06 1.7277577e-07
000020 de d5 af 2d 6d e3 40 39 e1 07 6f 34 74 3c 7a 35
       1.9990173e-11 0.0001839527 2.2261476e-07 9.322023e-07
000030 c0 ed 7e 38 af 48 c1 b8 51 c0 6c 3e c4 b4 11 3d
       6.077974e-05 -9.2164955e-05 0.23120238 0.035572782
000040 c8 3c 29 39 af 4c 05 38 83 fd 0b 39 1a 60 ac 35
       0.00016139739 3.178109e-05 0.00013350513 1.2842968e-06
000050 3f e6 8f 31 88 b2 63 3a 1c 89 c9 ba 00 fa 9e 3d
       4.1880237e-09 0.0008685966 -0.0015375945 0.077625275
000060 2a 4d 99 39 82 63 77 33 10 f7 7f 3e 0e 84 81 b4
       0.00029239926 5.759967e-08 0.2499659 -2.4124205e-07
000070 25 a7 15 3a a3 b5 52 b9 93 0f 5a 3b d4 38 42 3c
       0.00057088054 -0.00020094826 0.0033273443 0.011854369
000080 ca 19 40 b5 cd 64 22 3d 0c a5 04 bc 57 62 2f 3d
       -7.15631e-07 0.039646912 -0.008095991 0.042818394
000090 d3 a8 bf b7 66 ac 23 38 ce d7 42 3b dc 40 db 35
       -2.284759e-05 3.9022787e-05 0.002973068 1.6335648e-06
0000a0 35 af b7 36 79 ab 85 bb 37 f5 06 ba 8d 3a 52 39
       5.474222e-06 -0.004079279 -0.0005148234 0.00020048973
0000b0 b3 19 62 3a d2 87 72 3e 38 36 68 b4 2c 22 98 ba
       0.00086250453 0.23684624 -2.1626408e-07 -0.0011606864
0000c0 54 91 b9 af 46 6f 5d b5 98 ce 54 b4 14 9a ca b2
       -3.3754566e-10 -8.249084e-07 -1.9819197e-07 -2.3585962e-08
0000d0 60 1d 1d b3 f8 b9 21 bc 70 ed 64 34 70 87 12 34
       -3.6581127e-08 -0.009870999 2.1320534e-07 1.3646581e-07
0000e0 22 a1 14 3d 6a ab 81 39 bc 3b 0b b1 60 05 b5 3c
       0.03628648 0.0002473251 -2.0261117e-09 0.02209729
0000f0 79 f0 98 3e 84 bf ec 32 b2 7a 73 3e 9e 4d 42 3d
       0.29870966 2.7561107e-08 0.23777273 0.047437303
000100 96 e1 f1 b3 06 d0 96 b9 3c 61 88 3e 94 c7 84 33
       -1.1263471e-07 -0.0002876522 0.26636684 6.183032e-08
000110 26 2a 30 bc ef 13 9d 3a 89 e4 9e 3e aa 88 b1 3c
       -0.0107522365 0.001198409 0.31033733 0.021671612
000120 49 6c 8b ba f0 63 9d 3e a0 a8 b3 31 77 a4 61 3c
       -0.001063713 0.3074031 5.228756e-09 0.013772122
000130 02 b9 1c 37 80 76 b9 b8 ce 58 cd 34 21 ff 98 3e
       9.3414e-06 -8.84356e-05 3.824884e-07 0.29882148
000140 71 7f 26 3c 34 e0 6d b4 fb 76 bd 3e fa a0 9c 3e
       0.01016222 -2.215391e-07 0.37004837 0.30591565
000150 62 cf a9 ba 5b 2f d1 b8 42 b3 35 33 b0 f3 3b 39
       -0.0012955482 -9.974717e-05 4.230538e-08 0.0001792449
000160 0c a6 00 34 66 00 8a 32 f6 a5 2d 3c 5a 43 44 3a
       1.1981336e-07 1.6065496e-08 0.01059865 0.0007486843
000170 6a fa e4 bb 5b 07 6e 3c 28 b7 d7 3d c9 0d 84 3a
       -0.0069878595 0.014528121 0.10532981 0.0010074909
000180 35 1d ae 3c 9c 99 89 b7 be b9 1b 37 2c 65 fb a8
       0.021254161 -1.6403203e-05 9.281966e-06 -2.7910474e-14
000190 f9 28 a4 3b e4 5f 85 36 b0 7b 38 b5 dc e9 1f bc
       0.005009767 3.974872e-06 -6.872533e-07 -0.009760346
0001a0 bd 4b 6b 38 6b 15 aa b5 d4 90 26 38 2a 77 e1 3c
       5.6098903e-05 -1.267222e-06 3.9712366e-05 0.027522642
0001b0 f9 7b 58 3e 84 55 84 38 ef 22 14 b6 11 5d 49 3d
       0.21141042 6.310179e-05 -2.2074053e-06 0.04916102
0001c0 08 70 46 33 d1 03 0e 38 8e d8 97 3b ea 00 43 3c
       4.620236e-08 3.3858993e-05 0.0046339696 0.011902073
0001d0 30 0e f0 31 fb 1b a5 3a 54 32 df 3a 4e b2 b6 b4
       6.9865322e-09 0.001259684 0.0017028549 -3.4029875e-07
0001e0 22 4c 31 38 4a 6e 32 b0 f7 87 98 35 04 06 f8 3c
       4.2270993e-05 -6.4912753e-10 1.1364453e-06 0.030276306
0001f0 9d 63 0d 36 59 fb 4f ba ed 44 b8 32 5d cd 31 3c
       2.106862e-06 -0.0007933877 2.1451763e-08 0.010852185
000200 a2 a9 70 3a 0c 51 54 3c 91 38 29 33 bf 93 1f b6
       0.00091805507 0.012958776 3.9399826e-08 -2.3778846e-06
000210 2a 98 b5 33 d9 7e 8b 3e d2 4e 93 3e fd de 3a bc
       8.456148e-08 0.27245215 0.28771073 -0.011405704
000220 c1 0e 66 3a 89 a5 f9 38 cb dd 5d 35 4e 17 94 3e
       0.0008776002 0.000119040786 8.2651667e-07 0.2892403
000230 1f d2 a3 38 61 7a 03 3e 06 d7 88 37 24 b1 3f 39
       7.811584e-05 0.12839653 1.6312591e-05 0.0001828117
000240 c8 7f 94 37 3e f3 5f 3d e4 f4 bb 2f 12 3c b8 bb
       1.7702478e-05 0.054675333 3.4189107e-10 -0.0056223953
000250 9f 5d 5e 15 f7 dc b4 36 e8 7d 88 37 88 66 e8 3a
       4.4906397e-26 5.3901417e-06 1.6271093e-05 0.0017730752
000260 05 63 ef b8 94 e5 c8 3b 04 1a 8d 39 d3 e0 07 3e
       -0.00011414852 0.0061308835 0.00026913 0.13269357
000270 ed c4 0c 3b e2 7c 1f 34 73 32 4a 3d 78 d5 5a 3a
       0.0021479682 1.4853461e-07 0.04936452 0.00083478494
000280 d3 2c 30 ab 07 12 78 3d 87 fa 9c 33 c4 da f0 3b
       -6.2589967e-13 0.060564067 7.309887e-08 0.0073502976
000290 2f 0a 2d 3b f4 99 c7 b8 3a 84 7c 3b 94 b8 a9 38
       0.0026403775 -9.5177355e-05 0.0038530962 8.092928e-05
0002a0 91 d5 08 3d c2 26 62 36 fb c6 fe 39 b0 f7 82 b6
       0.033406798 3.3699184e-06 0.00048594907 -3.9031365e-06
0002b0 e8 41 32 3a 31 cc 1e b7 c8 f7 41 3c 84 29 e9 30
       0.0006799982 -9.465076e-06 0.011838861 1.6964781e-09
0002c0 03 5f 11 37 fd a7 a1 36 2c 58 44 3a 16 b1 91 36
       8.664795e-06 4.8177303e-06 0.0007489945 4.3419523e-06
0002d0 72 73 c5 3c 6a 9b b9 b9 3f f5 bb b3 ef f4 08 3e
       0.0241029 -0.00035401742 -8.752476e-08 0.13374685
0002e0 a8 5f 1f b7 00 f4 ba 3a ad 83 ce 3a fe c7 e7 b6
       -9.49941e-06 0.0014263391 0.0015755795 -6.9076186e-06
0002f0 bc 85 e7 3b da f7 86 36 7b 63 6c b5 88 d9 28 b5
       0.007065503 4.022365e-06 -8.8061614e-07 -6.2901427e-07
000300 d9 93 fa 3c 00 cc 2a 39 40 46 40 3d 1c 11 59 39
       0.030588077 0.0001628846 0.046941996 0.00020701106
000310 9c 5d 1c 37 1c 08 6f 3c a7 99 4d a8 ed 85 35 3d
       9.32012e-06 0.014589336 -1.1413104e-14 0.044317175
000320 ca 06 1d 39 48 34 1e 39 88 b2 26 37 4e d6 30 34
       0.00014975216 0.0001508753 9.935939e-06 1.6469241e-07
000330 0e e3 ba 39 00 10 19 bb 15 9e b8 39 e6 ba 0c 31
       0.00035645853 -0.0023355484 0.00035212995 2.047892e-09
000340 55 d4 aa 38 17 9e 54 3a 9e 24 66 33 fb 0e 9b 3c
       8.1457816e-05 0.00081107154 5.358435e-08 0.018928042
000350 d8 68 4b 37 74 ee af 39 c0 df a5 3e a3 92 27 3d
       1.2124154e-05 0.00033556262 0.3239727 0.040911328
000360 2b 39 6b 39 74 78 a5 34 08 ad 65 b5 60 ba 81 b9
       0.00022432643 3.0821286e-07 -8.556094e-07 -0.00024743658
000370 26 0a 90 35 c5 14 0d 34 f2 9b 9f 3d 93 60 70 39
       1.073179e-06 1.3139204e-07 0.07793416 0.0002292416
000380 be 12 a2 37 e4 92 7b 35 91 b0 e1 3b e3 b8 88 33
       1.9320632e-05 9.371854e-07 0.0068875034 6.366624e-08
000390 b1 fa 32 36 08 8b 3c 39 ea 50 75 bc 5c 77 78 36
       2.6669989e-06 0.0001798087 -0.014972905 3.7024356e-06
0003a0 70 2a a9 39 d4 05 99 3e 74 88 27 b8 ae 29 26 3c
       0.0003226581 0.2988726 -3.9942985e-05 0.010141773
0003b0 b6 f6 60 33 1e 73 1d 35 b1 ff 35 3c b2 8d d3 38
       5.2378446e-08 5.8654575e-07 0.011108325 0.00010087657
0003c0 c0 e5 9b 3e ee 21 72 3c c0 ff a7 b6 b6 06 65 3a
       0.30448723 0.014778597 -5.006761e-06 0.0008736657
0003d0 7a a1 8e 36 28 2d 85 38 73 69 8a bb 5e 36 82 37
       4.250728e-06 6.350345e-05 -0.0042239963 1.5522524e-05
0003e0 fb 5f fa 39 61 77 8d b5 88 82 2d 39 12 2b 93 3e
       0.00047755227 -1.0540062e-06 0.00016547192 0.28743798
0003f0 26 2c 12 3b c0 13 a9 bb de c0 58 3c fa 6a dd 35
       0.0022304147 -0.005159825 0.013229577 1.6496917e-06
