shanghai_road_delivery/results_centralized/centralized_episode_200.pth_centralized_critic.pth (torch, 919188 bytes, 7 tensors)

fc1.weight f4 [256, 378]
0	0xb38242e2	-6.065763e-08
1	0xb4258273	-1.541428e-07
2	0xb42ed495	-1.628235e-07
3	0xb42b3cb7	-1.5947704e-07
4	0xb42b6748	-1.596319e-07
5	0xb42c1dec	-1.6029634e-07
6	0x00021d6a	1.94223e-40
7	0x343dcb98	1.7676064e-07
8	0x363e9826	2.8400768e-06
9	0x2f0f9c20	1.3061241e-10
10	0xb10642a6	-1.9537452e-09
11	0xb42b6928	-1.5963872e-07
12	0x0001d98d	1.69878e-40
13	0x004f3f30	7.277672e-39
14	0x800119b2	-1.01053e-40
15	0x8000197a	-9.139e-42
16	0x000129f5	1.06887e-40
17	0xba03f0ac	-0.00050331163
18	0x80016fc1	-1.31925e-40
19	0x8001bc38	-1.59356e-40
20	0xb41a4ef1	-1.4371086e-07
21	0x80455ce7	-6.369976e-39
22	0xb421fa63	-1.5085384e-07
23	0x80240310	-3.307176e-39
24	0x8001f7c7	-1.80721e-40
25	0xaafeae80	-4.5240547e-13
26	0x80076156	-6.77766e-40
27	0xb03c9a34	-6.861314e-10
28	0x00014889	1.17856e-40
29	0xb1255942	-2.4061397e-09
30	0x8000cf34	-7.433e-41
31	0x3682deab	3.900224e-06
32	0x800069de	-3.7978e-41
33	0x370eb860	8.506788e-06
34	0x8000931a	-5.277e-41
35	0x38b21a94	8.492652e-05
36	0x8000ee3c	-8.5462e-41
37	0xb42ed496	-1.6282351e-07
38	0x00004e9d	2.8201e-41
39	0xb42ed496	-1.6282351e-07
40	0xbd63fc25	-0.055660386
41	0xaf6e6a53	-2.1683748e-10
42	0x102f9670	3.4628557e-29
43	0x800258c3	-2.15513e-40
44	0x15ff206c	1.0304483e-25
45	0x000214ce	1.91134e-40
46	0x8000d39b	-7.591e-41
47	0x80005aba	-3.2547e-41
48	0xa905c52f	-2.9702962e-14
49	0xb42ed460	-1.6282274e-07
50	0x2e0d297b	3.209653e-11
51	0xb42ed496	-1.6282351e-07
52	0xb448eda5	-1.8712906e-07
53	0xb429439b	-1.5763946e-07
54	0xb42ed494	-1.6282348e-07
55	0xb42d01a5	-1.6112479e-07
56	0xb42d2628	-1.6125762e-07
57	0xb42d0a40	-1.611561e-07
58	0x0001d430	1.67954e-40
59	0x3b2106f7	0.0024570802
60	0x30beaa26	1.3872679e-09
61	0x2f06d293	1.226204e-10
62	0xb9fc3fa4	-0.00048112602
63	0xb42b6928	-1.5963872e-07
64	0x0001d98d	1.69878e-40
65	0x80677d4d	-9.504006e-39
66	0x800119b2	-1.01053e-40
67	0x8000197a	-9.139e-42
68	0x000129f5	1.06887e-40
69	0xb31b8b33	-3.621535e-08
70	0x80016fc1	-1.31925e-40
71	0x8001bc38	-1.59356e-40
72	0xb41a4ef1	-1.4371086e-07
73	0x00017b39	1.3604e-40
74	0xb41bda7f	-1.4514988e-07
75	0x80027968	-2.27223e-40
76	0xa61d1ca7	-5.450915e-16
77	0x35983137	1.1339206e-06
78	0x8003c847	-3.47352e-40
79	0x319410e8	4.309289e-09
80	0x000240e9	2.06956e-40
81	0xa6181abf	-5.277184e-16
82	0x8000cf34	-7.433e-41
83	0xbb283261	-0.0025664794
84	0x800069de	-3.7978e-41
85	0x3bdbd608	0.006708864
86	0x8000931a	-5.277e-41
87	0xb728fe20	-1.0072748e-05
88	0x8000ee3c	-8.5462e-41
89	0xb42ed496	-1.6282351e-07
90	0x00005a4a	3.239e-41
91	0xb42ed496	-1.6282351e-07
92	0xbd5c2dfb	-0.053754788
93	0xaf75f120	-2.2368285e-10
94	0x10280c1c	3.3141487e-29
95	0x00003503	1.9017e-41
96	0xb098e05d	-1.1123223e-09
97	0x000141ea	1.15481e-40
98	0x00002ef7	1.6848e-41
99	0x0000ec6e	8.4815e-41
100	0xb2ba1036	-2.1660622e-08
101	0xb42f3fb5	-1.6321322e-07
102	0xaa897c92	-2.4422527e-13
103	0xb42ed496	-1.6282351e-07
104	0xb31bd884	-3.628567e-08
105	0x342574cc	1.5409313e-07
106	0xb42ed496	-1.6282351e-07
107	0xb42da3a4	-1.6171413e-07
108	0xb42e0c59	-1.6209505e-07
109	0xb42cbee0	-1.6088188e-07
110	0x000250d2	2.12664e-40
111	0xb72601c0	-9.8947785e-06
112	0x2dec2b8b	2.684943e-11
113	0xaa24c3ca	-1.4634054e-13
114	0xac473753	-2.8310312e-12
115	0xb42b6928	-1.5963872e-07
116	0x0001d98d	1.69878e-40
117	0x00dc7d15	2.024868e-38
118	0x800119b2	-1.01053e-40
119	0x8000197a	-9.139e-42
120	0x000129f5	1.06887e-40
121	0x2e7a52be	5.691691e-11
122	0x80016fc1	-1.31925e-40
123	0x8001bc38	-1.59356e-40
124	0xb41a4ef1	-1.4371086e-07
125	0x80030f86	-2.81075e-40
126	0xb432b7f3	-1.6644462e-07
127	0x000040a7	2.3193e-41
128	0x22415960	2.6203692e-18
129	0x8004fdf8	-4.58449e-40
130	0x000044f2	2.4733e-41
131	0x36eabde0	6.995848e-06
132	0x00011350	9.8764e-41
133	0x2c09db2c	1.9590536e-12
134	0x00014889	1.17856e-40
135	0xab4bacde	-7.235999e-13
136	0x800069de	-3.7978e-41
137	0x2ce20206	6.423531e-12
138	0x8000931a	-5.277e-41
139	0xaf83ee08	-2.3997893e-10
140	0x8000ee3c	-8.5462e-41
141	0xb42ed496	-1.6282351e-07
142	0x00005a4a	3.239e-41
143	0xb42ed496	-1.6282351e-07
144	0xbe2efb0f	-0.17087959
145	0xaf6ebade	-2.1712362e-10
146	0x0fe3e056	2.2470339e-29
147	0x000142f6	1.15857e-40
148	0xa0d72dc1	-3.6452694e-19
149	0x0000f955	8.9443e-41
150	0x8000363d	-1.9457e-41
151	0x80013690	-1.11409e-40
152	0xb30bf256	-3.2583863e-08
153	0xb42f4d15	-1.6326187e-07
154	0xab4546cc	-7.008671e-13
155	0xb42ed496	-1.6282351e-07
156	0xb3deee1d	-1.0380993e-07
157	0x33b34e16	8.349541e-08
158	0xb42ed494	-1.6282348e-07
159	0xb42f37c7	-1.6318437e-07
160	0xb42f183f	-1.6306966e-07
161	0xb4307034	-1.6432097e-07
162	0x0000c215	6.9624e-41
163	0xab169254	-5.3493776e-13
164	0xaa8cc2e8	-2.500424e-13
165	0x2c85acb8	3.799263e-12
166	0x37754908	1.4620142e-05
167	0xb42b6928	-1.5963872e-07
168	0x0001d98d	1.69878e-40
169	0x800260be	-2.18376e-40
170	0x800119b2	-1.01053e-40
171	0x8000197a	-9.139e-42
172	0x000129f5	1.06887e-40
173	0x3194ec6f	4.3342463e-09
174	0x80016fc1	-1.31925e-40
175	0x8001bc38	-1.59356e-40
176	0xb41a4ef1	-1.4371086e-07
177	0x8011cdec	-1.635074e-39
178	0xb40fb633	-1.3384197e-07
179	0x000cc5b1	1.172944e-39
180	0x25af7500	3.0436943e-16
181	0xb53e52d1	-7.090103e-07
182	0x8000c40d	-7.033e-41
183	0x2bdd6264	1.5730303e-12
184	0x000240e9	2.06956e-40
185	0xb9654348	-0.00021864206
186	0x00014889	1.17856e-40
187	0x37a572f1	1.9723057e-05
188	0x8001c892	-1.63787e-40
189	0xb041899a	-7.0408535e-10
190	0x8000931a	-5.277e-41
191	0x3832f890	4.267e-05
192	0x8000ee3c	-8.5462e-41
193	0xb42ed496	-1.6282351e-07
194	0x00005a4a	3.239e-41
195	0xb42ed496	-1.6282351e-07
196	0xbb767a44	-0.0037609497
197	0xaf7f2bcb	-2.3207673e-10
198	0x102c5843	3.3989013e-29
199	0x00001741	8.342e-42
200	0xaac2055a	-3.4465036e-13
201	0x0001f3df	1.7932e-40
202	0x80012bfd	-1.07616e-40
203	0x8000a0f7	-5.7743e-41
204	0xb42a8d24	-1.588383e-07
205	0xb42b335e	-1.5944303e-07
206	0x359aede4	1.1543129e-06
207	0xb42ed496	-1.6282351e-07
208	0x32e83bcf	2.7035552e-08
209	0xb3d92e88	-1.0113314e-07
210	0xb42ed494	-1.6282348e-07
211	0xb42f0868	-1.6301203e-07
212	0xb42f03d9	-1.6299545e-07
213	0xb42f33a8	-1.6316937e-07
214	0x00022b9d	1.99316e-40
215	0xb3e8c018	-1.08382835e-07
216	0xa9be0bf0	-8.439766e-14
217	0xb622a974	-2.4238516e-06
218	0x37a6fbf0	1.990606e-05
219	0xb42b6928	-1.5963872e-07
220	0x0001d98d	1.69878e-40
221	0x80ab49ff	-1.5730415e-38
222	0x800119b2	-1.01053e-40
223	0x8000197a	-9.139e-42
224	0x000129f5	1.06887e-40
225	0xb1e2d35b	-6.601494e-09
226	0x80016fc1	-1.31925e-40
227	0x8001bc38	-1.59356e-40
228	0xb41a4ef1	-1.4371086e-07
229	0x00436c88	6.191912e-39
230	0xb41a62d9	-1.4378328e-07
231	0x8012adc6	-1.715377e-39
232	0x0001073c	9.4431e-41
233	0x315c5414	3.2062006e-09
234	0x00018286	1.38658e-40
235	0xab5b10d4	-7.7827783e-13
236	0x00011350	9.8764e-41
237	0xb20a6d26	-8.057475e-09
238	0x00014889	1.17856e-40
239	0xb1ac0cdb	-5.0073203e-09
240	0x8000cf34	-7.433e-41
241	0xad1fb3ae	-9.0780005e-12
242	0x800069de	-3.7978e-41
243	0xb39cb8e2	-7.297946e-08
244	0x8000ee3c	-8.5462e-41
245	0xb42ed496	-1.6282351e-07
246	0x00005a4a	3.239e-41
247	0xb42ed496	-1.6282351e-07
248	0xbdd10f35	-0.10207979
249	0xaf6f4f11	-2.1765013e-10
250	0x10380aa6	3.6295805e-29
251	0x0000f009	8.6108e-41
252	0xa5a2223c	-2.8125718e-16
253	0x80006762	-3.7087e-41
254	0x800087b2	-4.8678e-41
255	0x80001f4e	-1.123e-41

fc1.bias f4 [256]
0	0xb42ed496	-1.6282351e-07
1	0xb1870dad	-3.930572e-09
2	0xbc51dcec	-0.01280902
3	0x319c4436	4.5479522e-09
4	0xbe4a1bc6	-0.19737157
5	0xbc2d93ec	-0.010594349
6	0xbf54a1df	-0.83059496
7	0xbb5cb9ad	-0.0033680007
8	0x3568996c	8.6649993e-07
9	0xbf08bef3	-0.53416365
10	0xb9db6e94	-0.00041853322
11	0xbba605e3	-0.0050666197
12	0xba8559a1	-0.0010173806
13	0xb1c46b58	-5.7165543e-09
14	0xbb927f87	-0.004470769
15	0xb4c6854c	-3.697736e-07
16	0xb8bf5513	-9.123436e-05
17	0xb1ce6188	-6.006477e-09
18	0xbc52e922	-0.012872966
19	0xba9b96c8	-0.0011870498
20	0xb3321206	-4.1460247e-08
21	0xbb915b4f	-0.0044359337
22	0x3cfe812c	0.031067453
23	0xbdacd4cd	-0.08439026
24	0xbbf83236	-0.007574345
25	0xbb965bc9	-0.0045885784
26	0xb52de716	-6.4783796e-07
27	0xbb9ded62	-0.004819558
28	0xb139c5cc	-2.7033478e-09
29	0xb9301618	-0.00016792899
30	0xb952077e	-0.00020029952
31	0xb5f838a7	-1.8493928e-06
32	0xbc13db31	-0.009024427
33	0xb2e31dfc	-2.6439913e-08
34	0xba8a2281	-0.0010538847
35	0xaf990786	-2.7835884e-10
36	0xb703706a	-7.834382e-06
37	0xb99be1ca	-0.0002973213
38	0xbaae02fd	-0.0013276037
39	0xbea2d221	-0.3180094
40	0xbca34ab2	-0.019933078
41	0xb6532ac9	-3.1466354e-06
42	0xb5612da1	-8.388543e-07
43	0xb5bfa67b	-1.4279061e-06
44	0xb8f02372	-0.00011450694
45	0xbbb2475a	-0.0054406347
46	0xbc37b1fd	-0.011211869
47	0xba717f4e	-0.000921239
48	0xb8ff62a8	-0.00012177724
49	0x9f3900a9	-3.917582e-20
50	0xb9e63381	-0.00043907392
51	0xb7e61565	-2.74281e-05
52	0xbd4028b8	-0.046913832
53	0xb03f29c4	-6.954475e-10
54	0xb6009191	-1.9158217e-06
55	0xb97d0c79	-0.00024132607
56	0xb99c30f4	-0.00029791112
57	0xb8e1b22a	-0.00010762022
58	0xbcf6c7ef	-0.030124633
59	0xbe00a04e	-0.12561151
60	0xbca17cda	-0.019712854
61	0xb814a3b6	-3.5438417e-05
62	0xbbe4c4f4	-0.0069814865
63	0xa6311d24	-6.1448704e-16
64	0xbe96fabe	-0.29488176
65	0xb58a7aca	-1.0317538e-06
66	0xb80bd440	-3.3337856e-05
67	0xb73898a0	-1.100279e-05
68	0xb506a07e	-5.0152437e-07
69	0xb1a19c8f	-4.7035154e-09
70	0xb7051d46	-7.9342335e-06
71	0xb7e36e48	-2.7111862e-05
72	0xb7967372	-1.7935152e-05
73	0xab36d26f	-6.4951424e-13
74	0xb3ed067e	-1.10373534e-07
75	0xbaa478cc	-0.0012548207
76	0x395d2234	0.00021088944
77	0xbd9393a1	-0.07205892
78	0xb45d4d06	-2.061025e-07
79	0xb52106c0	-5.9986996e-07
80	0xbb5138ce	-0.0031924727
81	0xbaab833f	-0.0013085379
82	0xb759a433	-1.29724385e-05
83	0xba14aa5b	-0.0005671137
84	0xb5c075bf	-1.4339383e-06
85	0xbd134a48	-0.035959512
86	0x3d508af0	0.05091375
87	0xb629780f	-2.5252846e-06
88	0xbb9575a7	-0.0045611444
89	0xb68ef9d7	-4.261015e-06
90	0xba02f8d5	-0.00049961853
91	0xb7d32bc1	-2.5173535e-05
92	0xaf0d527c	-1.285318e-10
93	0xb63b08ac	-2.787022e-06
94	0xb56f81b7	-8.92232e-07
95	0xb817b7aa	-3.6172256e-05
96	0xb949df78	-0.00019252102
97	0xb886945e	-6.4172535e-05
98	0xbc45b4f6	-0.01206707
99	0xb5afc525	-1.3095893e-06
100	0xb9e113e3	-0.0004293016
101	0xb6778e84	-3.6888823e-06
102	0xb3f454b4	-1.1377543e-07
103	0x37cebd66	2.464531e-05
104	0xb4572594	-2.0037106e-07
105	0xaf0d2aaf	-1.283904e-10
106	0xbb217700	-0.002463758
107	0xb6bb7a71	-5.5872883e-06
108	0xbcbad1c7	-0.022805108
109	0xb76367c9	-1.3554419e-05
110	0x3f26e59f	0.65194124
111	0xb83e46c3	-4.5365432e-05
112	0xb91e7fdf	-0.0001511569
113	0xbb2ccbbf	-0.002636656
114	0xbd16ba21	-0.0367986
115	0x3744d525	1.1732137e-05
116	0xbbcfbc08	-0.0063395537
117	0xb4fdbf9c	-4.7264336e-07
118	0xb3cc9d90	-9.528151e-08
119	0xb4dc2fae	-4.1012885e-07
120	0xb70c3cd4	-8.358813e-06
121	0xb992659c	-0.00027922995
122	0xb661872a	-3.3606289e-06
123	0xb82cc8e5	-4.1195093e-05
124	0xb69b47b6	-4.627708e-06
125	0xb42c61ae	-1.6054284e-07
126	0xba3ce6a2	-0.0007205998
127	0xb1f97c19	-7.260962e-09
128	0xbc045f29	-0.008079329
129	0xbcece1f0	-0.02891633
130	0xac8a3039	-3.9275497e-12
131	0xb6588807	-3.2265687e-06
132	0xb87b18d2	-5.986618e-05
133	0xbcd188db	-0.025577953
134	0xb6bcbf45	-5.6251033e-06
135	0xb49a2dca	-2.871805e-07
136	0xba856eac	-0.0010180078
137	0xb7f5e6e1	-2.9313787e-05
138	0xba7600b2	-0.0009384259
139	0x3c842f53	0.016135847
140	0xbad963a2	-0.0016585479
141	0x3ebc8ee3	0.36827764
142	0xbb0a2e39	-0.002108468
143	0xbb64957c	-0.0034879139
144	0x364170b3	2.882484e-06
145	0xb4ef4255	-4.4565482e-07
146	0xbd4550f7	-0.048172917
147	0xb4c514b2	-3.6709167e-07
148	0xba958e1d	-0.0011410151
149	0xb9cb20ea	-0.000387437
150	0xb72a7cac	-1.0161817e-05
151	0xb707ddb3	-8.098245e-06
152	0xbc9cebb2	-0.019155357
153	0xb713dbc4	-8.813051e-06
154	0xba847a4b	-0.0010107247
155	0xb9d8a626	-0.0004132252
156	0xad77956a	-1.4073501e-11
157	0xb7f3f4c7	-2.908184e-05
158	0xb76e3c2d	-1.4199916e-05
159	0xb6c0cbd0	-5.745773e-06
160	0xbb564533	-0.0032695055
161	0xb884f2f9	-6.339508e-05
162	0xb8c48457	-9.3706585e-05
163	0xb7c12856	-2.3026176e-05
164	0xb2c2cd3f	-2.2677908e-08
165	0x3a891a33	0.0010460078
166	0xb79c3beb	-1.862455e-05
167	0xbc497730	-0.012296483
168	0xbc63a413	-0.013894099
169	0xb931db53	-0.0001696174
170	0xb66f3904	-3.5646963e-06
171	0x3cd87f9a	0.026428033
172	0xbb28ee28	-0.0025776718
173	0xba905934	-0.0011012913
174	0xb6daf182	-6.5250215e-06
175	0xb84b3e66	-4.8457085e-05
176	0xa89619be	-1.666451e-14
177	0x3f1a90b6	0.6037706
178	0xb5a92f6b	-1.2605282e-06
179	0xbbf5fdae	-0.0075070476
180	0xb853b521	-5.047501e-05
181	0xb43eda16	-1.7774468e-07
182	0xbbba16db	-0.005678994
183	0xb3a566f0	-7.7021355e-08
184	0xb7245677	-9.795293e-06
185	0xbd666bd9	-0.056255195
186	0xb44bec8e	-1.8991906e-07
187	0xb84ef28f	-4.9340128e-05
188	0xbd0b31ba	-0.03398297
189	0xb6b9b5bd	-5.5345868e-06
190	0xba8eeaf4	-0.0010903762
191	0xb63f04c3	-2.846399e-06
192	0xbcad953b	-0.021189323
193	0xb9264b46	-0.00015859035
194	0xb6aa6579	-5.078208e-06
195	0x3d392564	0.045201674
196	0xb85380fa	-5.042644e-05
197	0xb7040d84	-7.87096e-06
198	0xbc11d5bc	-0.008901056
199	0xb88842c4	-6.4974214e-05
200	0xbc4cb6b6	-0.012494734
201	0xb8dc762d	-0.000105124294
202	0xb9577f13	-0.00020551337
203	0xbe1a81f3	-0.15088634
204	0xb5839d6f	-9.80608e-07
205	0x3badf02e	0.0053081727
206	0xbb7d7523	-0.0038674555
207	0xb980cde4	-0.00024567463
208	0xb6dfa2aa	-6.6648545e-06
209	0x38ea8693	0.00011183056
210	0x3b7fd523	0.0039036951
211	0xbdd9ee87	-0.106411986
212	0xba72338a	-0.00092392473
213	0xb9007344	-0.00012249971
214	0xbba4ac76	-0.0050254418
215	0xb5c0475d	-1.4325884e-06
216	0xba984030	-0.0011615809
217	0xb958af11	-0.00020664583
218	0xb45d3f73	-2.0605312e-07
219	0xbc365569	-0.011128762
220	0x3e955019	0.29162672
221	0xb6483e11	-2.983845e-06
222	0xbbd9b952	-0.0066444064
223	0xb7839379	-1.568509e-05
224	0xbccfc319	-0.025361584
225	0xbbb2376d	-0.005438736
226	0xb9ca3f4e	-0.00038575608
227	0xbc98566a	-0.018595893
228	0x3bbf5a70	0.0058396384
229	0xbaf6854e	-0.0018808038
230	0x3f2646e1	0.649519
231	0xb79d44de	-1.8747927e-05
232	0xbde6e779	-0.11274619
233	0xb86579f0	-5.4711418e-05
234	0xb6bf5492	-5.702089e-06
235	0xb851d9e2	-5.0032402e-05
236	0xbd7be85a	-0.061500885
237	0xbc5f1bd5	-0.0136174755
238	0xba57e1fd	-0.0008235274
239	0xb8f9edbb	-0.00011917526
240	0xac9d6784	-4.473701e-12
241	0xb1f91cb2	-7.250116e-09
242	0xbbfa055b	-0.007630033
243	0xbc4ababf	-0.012373625
244	0xa26910b9	-3.1586241e-18
245	0xaac17314	-3.4363538e-13
246	0xbd8c2fc6	-0.068450496
247	0xb7da935c	-2.6056245e-05
248	0xba281b80	-0.0006412789
249	0xafbed5d2	-3.4712727e-10
250	0xb5a7349f	-1.2457784e-06
251	0xb5deb9d7	-1.6594375e-06
252	0xb48ffe8f	-2.682104e-07
253	0xbabce61f	-0.0014411843
254	0xab532d7a	-7.502537e-13
255	0xb660f985	-3.352384e-06

fc2.weight f4 [256, 256]
0	0x00008236	4.6711e-41
1	0xa124b6b7	-5.580718e-19
2	0x2a4f12b8	1.8391788e-13
3	0x9f63315c	-4.810995e-20
4	0xa9f869a6	-1.10317395e-13
5	0xad4a8950	-1.151286e-11
6	0xbe9f2529	-0.31083038
7	0xb922c6b4	-0.00015523547
8	0x33e7cfc7	1.079457e-07
9	0xbc1507b8	-0.009096079
10	0xb7f670f6	-2.9378087e-05
11	0x34d25edc	3.9184567e-07
12	0x286ead40	1.3249222e-14
13	0x8817909f	-4.560991e-34
14	0xb8fa5538	-0.00011936802
15	0xa68d5e60	-9.809421e-16
16	0x0d45bb35	6.0930654e-31
17	0x000149af	1.18268e-40
18	0x23002858	6.947437e-18
19	0xb32d8fa0	-4.0410328e-08
20	0x32b47d5d	2.1011767e-08
21	0x8e301589	-2.1704044e-30
22	0x328ad862	1.6163714e-08
23	0x3d01184c	0.031517312
24	0xb2cf6738	-2.414491e-08
25	0xb623c0a8	-2.4401033e-06
26	0x9f13b9fc	-3.1282303e-20
27	0xb58b9288	-1.0398953e-06
28	0x0d7649d4	7.589347e-31
29	0xb737bbe6	-1.09513985e-05
30	0x32513275	1.2176874e-08
31	0x37893d23	1.6360142e-05
32	0xbbef2fc6	-0.007299396
33	0xa40d1c4c	-3.059847e-17
34	0x9ca7b8a4	-1.1098861e-21
35	0x9efe9a4c	-2.6957112e-20
36	0xb48502d6	-2.4775244e-07
37	0x3809a756	3.281919e-05
38	0x3a11d454	0.00055629504
39	0xbc81550f	-0.01578763
40	0x34f254b4	4.5137642e-07
41	0x1cc42e04	1.2982087e-21
42	0x8df06d2e	-1.4817426e-30
43	0x2ca8bc94	4.7957836e-12
44	0x2f94fc85	2.710047e-10
45	0x2e66f9fd	5.251798e-11
46	0xaf2b19da	-1.5561544e-10
47	0x9254eeed	-6.7189904e-28
48	0xabdc9f95	-1.5676233e-12
49	0x0ce37041	3.5042448e-31
50	0xb8089dfe	-3.257207e-05
51	0x001279a1	1.696671e-39
52	0x990d1ed0	-7.295752e-24
53	0x23ef34a7	2.5934731e-17
54	0x21a21b12	1.0984712e-18
55	0x38093956	3.2716744e-05
56	0x349640fb	2.7986957e-07
57	0x000032b4	1.8189e-41
58	0xafa70e30	-3.0387204e-10
59	0x38b6be8a	8.713927e-05
60	0x8f09c293	-6.792095e-30
61	0x327560f1	1.4282919e-08
62	0xb9301537	-0.00016792571
63	0x80003293	-1.8143e-41
64	0xbaeac008	-0.0017910013
65	0xa1d3e0ff	-1.4357472e-18
66	0x2d2fef12	1.0000683e-11
67	0x34125a78	1.3630222e-07
68	0xab697e18	-8.295322e-13
69	0x80015d8e	-1.25397e-40
70	0xb5448cc2	-7.322052e-07
71	0x012b7f3c	3.1499026e-38
72	0x321118c7	8.4457445e-09
73	0xa739f8b7	-2.5808736e-15
74	0xab123846	-5.1947715e-13
75	0xb904eb6f	-0.00012676207
76	0x8776f262	-1.8578213e-34
77	0x3984434c	0.00025227142
78	0x2d1c62c8	8.889507e-12
79	0x077110e0	1.8135784e-34
80	0x375792da	1.284919e-05
81	0x30279872	6.0970884e-10
82	0xb30c4e18	-3.2667316e-08
83	0xb71d5742	-9.3782455e-06
84	0x9f83cc30	-5.581846e-20
85	0xbadb892a	-0.0016749252
86	0xb9ce9114	-0.00039399473
87	0xaa7282c8	-2.1539292e-13
88	0x36f10920	7.183422e-06
89	0x219299ce	9.934057e-19
90	0x9e0a96a7	-7.336813e-21
91	0xb6c3d9fb	-5.836829e-06
92	0xa9ed2404	-1.0531162e-13
93	0x9b808406	-2.1261142e-22
94	0x3382e5d6	6.095404e-08
95	0x35dd4128	1.6484746e-06
96	0x3c0645e8	0.008195378
97	0x2dd9d6a9	2.4765372e-11
98	0x3bf82742	0.0075730393
99	0x2f489d5d	1.8245801e-10
100	0xb72f59d0	-1.0451724e-05
101	0x2c65ea28	3.267284e-12
102	0x0c225d78	1.2508153e-31
103	0xb1e8cdda	-6.7754913e-09
104	0x2a596355	1.9307934e-13
105	0x0c0ce620	1.0854458e-31
106	0xb9bab9d8	-0.0003561515
107	0xaa186ebb	-1.353873e-13
108	0x34d772aa	4.01303e-07
109	0x2e8fa680	6.5324635e-11
110	0xbec5ee1f	-0.38658234
111	0x21b9085b	1.2538299e-18
112	0x8001b052	-1.55087e-40
113	0x2703f576	1.8312967e-15
114	0xb022c13d	-5.9209865e-10
115	0xa1922e7b	-9.905648e-19
116	0x3a62dbe6	0.0008653983
117	0xb30dfaac	-3.3057105e-08
118	0xa9221eca	-3.599793e-14
119	0x961b4223	-1.2541669e-25
120	0x361c8cb9	2.3327723e-06
121	0xb49a00f0	-2.8685417e-07
122	0x9c535be7	-6.9932825e-22
123	0x11a73466	2.6380247e-28
124	0x33950b18	6.940371e-08
125	0x8000f8b1	-8.9214e-41
126	0xaa062799	-1.1915329e-13
127	0x297d5cff	5.6257946e-14
128	0x3b6d450b	0.0036204483
129	0xba9ce5d6	-0.0011970352
130	0x00001543	7.627e-42
131	0xaaec6371	-4.1991023e-13
132	0x000221d0	1.958e-40
133	0xbb6689ea	-0.0035177418
134	0xb01b6a6e	-5.6539917e-10
135	0x80031cfe	-2.85907e-40
136	0x3240032a	1.117659e-08
137	0x241aa56c	3.3533545e-17
138	0xa59333df	-2.5535584e-16
139	0x3302b023	3.042818e-08
140	0xa866cbc2	-1.2811748e-14
141	0x38206ec7	3.8250142e-05
142	0x38367185	4.3497905e-05
143	0x35150056	5.5507314e-07
144	0x000101d7	9.2496e-41
145	0xa3260bf7	-9.001412e-18
146	0xb93cbee7	-0.00018000194
147	0xa9dd7148	-9.834023e-14
148	0xad007ffd	-7.304377e-12
149	0xba914e1c	-0.00110859
150	0xb412afe6	-1.3661301e-07
151	0xaf3831ae	-1.6752352e-10
152	0xb4458302	-1.8394715e-07
153	0x35dd7f50	1.6502836e-06
154	0x23bb0130	2.0275084e-17
155	0x0000b00e	6.3157e-41
156	0x900dd4d4	-2.7971304e-29
157	0x1e49c8e0	1.0682391e-20
158	0x0498f184	3.5956825e-36
159	0xb4892e15	-2.5551768e-07
160	0x377234ba	1.44366e-05
161	0xb02305d8	-5.930736e-10
162	0x34142156	1.3795702e-07
163	0x93ce3d16	-5.2061946e-27
164	0x060f52f2	2.695625e-35
165	0xb4eaf953	-4.3767304e-07
166	0x9d7e512b	-3.3658583e-21
167	0xac338035	-2.55086e-12
168	0xb71ee245	-9.470216e-06
169	0xa59f604f	-2.7647365e-16
170	0x9a62baa4	-4.6886472e-23
171	0xb683229b	-3.908133e-06
172	0xa606923e	-4.6688784e-16
173	0xa780e91c	-3.5779874e-15
174	0x0d0cbdb1	4.3369163e-31
175	0x9e283784	-8.905326e-21
176	0x97711300	-7.789528e-25
177	0xbe9771ad	-0.29578915
178	0x000acecd	9.92541e-40
179	0x324b22ea	1.1824094e-08
180	0xb79b9ce7	-1.8550503e-05
181	0x339745aa	7.044157e-08
182	0xb46a2383	-2.1805867e-07
183	0xa26b6feb	-3.1907688e-18
184	0x22d5ca8a	5.7948212e-18
185	0x3cb3c18c	0.021942876
186	0x2844e6e0	1.0930249e-14
187	0x38156676	3.5619792e-05
188	0xb2b25c95	-2.0764029e-08
189	0x34c55542	3.6756143e-07
190	0xb9a3cdc0	-0.00031243078
191	0xa05f18ec	-1.8897081e-19
192	0x360e0768	2.116396e-06
193	0x37bbea90	2.2401364e-05
194	0x1f30d4e1	3.744554e-20
195	0x30907b10	1.0512355e-09
196	0xb73375f4	-1.06966945e-05
197	0xb2db6b88	-2.5543855e-08
198	0x37d8435e	2.5780577e-05
199	0xb57a4d4d	-9.3244745e-07
200	0x34703b2a	2.2373266e-07
201	0x91806f52	-2.0263446e-28
202	0xaf3c65a4	-1.713461e-10
203	0xbc35a6c0	-0.01108712
204	0xb0bcbc6f	-1.3732356e-09
205	0xa7fa4383	-6.9462135e-15
206	0xb903d5a5	-0.00012572722
207	0x2e101dcc	3.2768274e-11
208	0x36b2419d	5.312452e-06
209	0x95ae7f45	-7.0478836e-26
210	0x33e04ccc	1.0444782e-07
211	0xbda33a70	-0.079701304
212	0xb71a9398	-9.21348e-06
213	0xb1d88f1c	-6.302697e-09
214	0xb54c2d76	-7.6062076e-07
215	0x2235b97e	2.4628273e-18
216	0x3e818dac	0.253034
217	0x89930bff	-3.5400244e-33
218	0x270cd2fb	1.9543276e-15
219	0xb58425be	-9.845751e-07
220	0x3056d41e	7.8154183e-10
221	0x1dd75229	5.6994978e-21
222	0xb4917498	-2.7093188e-07
223	0x8a843d50	-1.2734201e-32
224	0xb39cbc70	-7.298593e-08
225	0x358e08f0	1.0582426e-06
226	0xa705c733	-1.8565444e-15
227	0xb5352d58	-6.749374e-07
228	0xb1fe8960	-7.4079907e-09
229	0x0001bab0	1.58806e-40
230	0xbefd9c66	-0.49533385
231	0x321d9246	9.1718615e-09
232	0x26f7de2e	1.719929e-15
233	0x35813ed8	9.629539e-07
234	0x1d28ffc4	2.2366843e-21
235	0x34b30430	3.3344395e-07
236	0x319500c5	4.3365582e-09
237	0x3633cbe2	2.6791754e-06
238	0x362e9e44	2.6020143e-06
239	0xae03baf0	-2.9951985e-11
240	0x8889aec6	-8.286477e-34
241	0xa628feae	-5.8631864e-16
242	0x37517ea8	1.248686e-05
243	0x3b86a82e	0.004109404
244	0x07095c04	1.0333775e-34
245	0x03464f13	5.8277743e-37
246	0xbc4eeb1d	-0.012629298
247	0x19dc2673	2.2762996e-23
248	0xb007ce72	-4.940609e-10
249	0x2bc36c68	1.3885672e-12
250	0xb303d6eb	-3.069628e-08
251	0x2fd8e4a0	3.945262e-10
252	0x9eb7d22a	-1.94628e-20
253	0x37de6700	2.6512425e-05
254	0x26303409	6.1132787e-16
255	0xa38d127c	-1.5295079e-17

fc2.bias f4 [256]
0	0x3b374dc0	0.0027969927
1	0xbaf90c88	-0.0019000927
2	0x3edd31a6	0.4320194
3	0xbbea1e44	-0.007144721
4	0xbac1bf72	-0.0014781787
5	0xbb4f7dd7	-0.00316607
6	0xb699062e	-4.5604747e-06
7	0x3e3404f4	0.17580014
8	0xb723762c	-9.743071e-06
9	0xbd7178ab	-0.05895297
10	0x3e9675b3	0.29386672
11	0xb6b7aaf4	-5.4737266e-06
12	0x3e0acfca	0.13555828
13	0x3e8834fa	0.26602918
14	0xba45e1d3	-0.0007548604
15	0x3e66976f	0.22518705
16	0xb88c998f	-6.704323e-05
17	0x3e478906	0.19485864
18	0x3e1fab75	0.1559275
19	0x3ad9e6b3	0.001662454
20	0x3d0d2d26	0.034466885
21	0x3eae9c42	0.3410359
22	0x3a9461f7	0.00113207
23	0x3e7817f4	0.24227887
24	0xbd217f17	-0.039427843
25	0x3d5eca6a	0.054392256
26	0xb89fcac9	-7.6194825e-05
27	0x3e7a72fd	0.24457927
28	0xbdb8b2bd	-0.090184666
29	0xb95e8a7d	-0.00021223161
30	0xbe18fc49	-0.14939989
31	0x3da7b074	0.08187953
32	0x3d91fc8c	0.071282476
33	0x3d9f1a3c	0.07768676
34	0xbb6dd866	-0.0036292314
35	0xbc8415b1	-0.016123625
36	0xb9042976	-0.00012603946
37	0x3e469e7f	0.19396399
38	0xba08ffb0	-0.00052260887
39	0x3d2e233b	0.042514067
40	0x3f510092	0.81641495
41	0xbd36a470	-0.044590414
42	0xbd1d76b8	-0.038443297
43	0x3eba734a	0.36416084
44	0x3e04f60d	0.12984486
45	0xb8767b38	-5.8765727e-05
46	0x3e69f74e	0.22848246
47	0xbde0d982	-0.10978986
48	0x3eb32a06	0.34993
49	0x3e80d9d2	0.25166184
50	0xbb77e35c	-0.0037824726
51	0xbca542f8	-0.020173535
52	0xbc1db98b	-0.009626756
53	0xb9b947ff	-0.0003533959
54	0x3f823e5c	1.017528
55	0x37fa106d	2.9809971e-05
56	0x3de4fca0	0.11180997
57	0xba3b92c4	-0.00071553537
58	0x3c8b8392	0.017030511
59	0x3ee35b8e	0.44405788
60	0x3e1fc864	0.15603787
61	0xbabc6cd2	-0.0014375693
62	0x393a8b39	0.00017790207
63	0x3cde09b8	0.027104244
64	0x39c54b4b	0.00037630866
65	0x3c560c3c	0.01306444
66	0x3ef4593b	0.47724327
67	0x3e867588	0.26261544
68	0x3e9f04c2	0.31058317
69	0xbd39ca68	-0.045359045
70	0x3bb43a72	0.0055001313
71	0xbda62f89	-0.08114535
72	0x3f371739	0.7151981
73	0x3e54f768	0.20797503
74	0x3f3b52f0	0.7317343
75	0xb628cb5d	-2.5152324e-06
76	0xb2c5c796	-2.302458e-08
77	0xbb051093	-0.0020304068
78	0x3ec53ef6	0.38524598
79	0x3ed34a4f	0.4126763
80	0x3e139d56	0.14415488
81	0x3d6a8b85	0.057261962
82	0xbba98c07	-0.0051741633
83	0x3e9762ed	0.29567662
84	0xbbd87d10	-0.0066067055
85	0x3ea15106	0.31507128
86	0xbcfd1f7c	-0.030898802
87	0x3acd5bf3	0.0015667662
88	0x3eaac95d	0.33356753
89	0xb8e1081a	-0.00010730345
90	0xbb4d9c13	-0.0031373545
91	0xbbdbdcd0	-0.0067096725
92	0x37a087f0	1.9136787e-05
93	0xbe0064a4	-0.12538391
94	0xb9522850	-0.00020042178
95	0x39fb9abf	0.00047989746
96	0x3f5238b7	0.8211779
97	0xb58f0edc	-1.0658655e-06
98	0xbae20232	-0.0017243086
99	0x3e874b8a	0.2642482
100	0x3dfb56cf	0.12272417
101	0x3ed857fe	0.42254633
102	0x3f1db17a	0.6159893
103	0x3e9c1758	0.3048656
104	0xbb309831	-0.0026946182
105	0xbe0c6dfa	-0.13713828
106	0x3cdb6014	0.026779212
107	0xbc6bd5c9	-0.014394232
108	0xbaa1fe53	-0.001235912
109	0xbaabd281	-0.0013109
110	0xbc3127c2	-0.010812702
111	0xbc21fc4f	-0.009886815
112	0x3ea800d1	0.32813123
113	0x3c0e18e9	0.008672931
114	0x3e8095ad	0.25114194
115	0xba41185f	-0.00073659973
116	0xbd5ad5bc	-0.05342649
117	0xb20a37ac	-8.0453155e-09
118	0x3e4425af	0.19155
119	0xb9a2f511	-0.00031081637
120	0xb57d3beb	-9.4337037e-07
121	0xb8fc3995	-0.00012027022
122	0xbe09c156	-0.13452658
123	0x398f9d9e	0.0002739252
124	0xb46195bd	-2.1009232e-07
125	0x3be3cb95	0.006951759
126	0x3defb222	0.11703898
127	0x3cba4b34	0.022740938
128	0x3e839e2c	0.25706613
129	0xbe09a084	-0.13440138
130	0xb5fd82c0	-1.8888022e-06
131	0xbdb79f1e	-0.08965896
132	0x3f0d6b5a	0.5524193
133	0xb85be841	-5.2429972e-05
134	0xb9b7252d	-0.00034932178
135	0xbbf52a76	-0.0074818684
136	0x3e38398e	0.17990705
137	0x3c721cf4	0.014777411
138	0xbc1efb85	-0.009703522
139	0xb82ee9b1	-4.1702475e-05
140	0x3c131b98	0.008978747
141	0xba901e5e	-0.0010995378
142	0xb83aded5	-4.4553384e-05
143	0x3e27fc21	0.16404773
144	0x3f6223c7	0.8833584
145	0xba7a4ff5	-0.00095486577
146	0xb4bb1c4c	-3.4852053e-07
147	0x3e62a210	0.22132134
148	0x3ef11b18	0.47090983
149	0x3ca9d79e	0.020732697
150	0xba855bb3	-0.0010174423
151	0x3e0fb2fe	0.14033124
152	0xba000f54	-0.00048850966
153	0xb5a2f8b6	-1.2142325e-06
154	0x3eb9b117	0.3626792
155	0xb7cfa87d	-2.4754781e-05
156	0xbb21efc2	-0.0024709557
157	0x3d5d3bfa	0.054012276
158	0x3ed57b8e	0.41695827
159	0xb97089e1	-0.00022939547
160	0xbbf132c5	-0.0073607885
161	0x3ae9c3d8	0.0017834855
162	0x3df80e62	0.12112118
163	0xb281f4be	-1.5128872e-08
164	0x3cbbee16	0.022940677
165	0xbb9a5794	-0.004710147
166	0x3b62c9fd	0.0034605258
167	0x3e4f8a9e	0.20267722
168	0xbb126784	-0.0022339532
169	0xbcbdcd2a	-0.023169119
170	0x3e9e9780	0.3097496
171	0x3f0e2a13	0.5553295
172	0x3e341be6	0.17588767
173	0xb5166df2	-5.6039346e-07
174	0x3ba98506	0.0051733283
175	0x3f60cd1d	0.8781298
176	0x3eeb4522	0.45951182
177	0x3e80562d	0.25065747
178	0x3b05fd3a	0.0020445124
179	0xbae42080	-0.0017404705
180	0x3f22e113	0.63624686
181	0x3e0bf9e7	0.13669549
182	0x3e6e83d1	0.23292471
183	0xb6d307c0	-6.2891922e-06
184	0xb5ae395f	-1.2980707e-06
185	0x3c66ab2e	0.014078898
186	0x3f110f18	0.56663656
187	0x3e893358	0.26796985
188	0x3e010a19	0.12601508
189	0xb99f2b05	-0.00030358895
190	0xb8580884	-5.1506344e-05
191	0xba204220	-0.0006113369
192	0x3c3c2c7a	0.011485213
193	0xbc70d147	-0.014698333
194	0x3a3f245a	0.00072914886
195	0x3e849f55	0.2590281
196	0xb9dc779d	-0.0004205079
197	0x3f2014e9	0.62531906
198	0xb43c9510	-1.7563093e-07
199	0xbc8945e3	-0.016756957
200	0x3f1fb277	0.6238169
201	0xb7369787	-1.0883326e-05
202	0x3f3d6c7c	0.7399366
203	0x385e0e80	5.294243e-05
204	0x3dab61cb	0.08368262
205	0xbe015863	-0.12631373
206	0x3f151176	0.5822977
207	0x3d8d8503	0.069101356
208	0xbcaed4c0	-0.021341681
209	0x3f0e7e10	0.55661106
210	0x3e4f208d	0.20227261
211	0x3ba2400c	0.0049514826
212	0x38a8324e	8.020234e-05
213	0xb99c1958	-0.0002977352
214	0x3e8427ee	0.25811714
215	0x3d23a0bb	0.039948206
216	0xbc88ce5c	-0.016699962
217	0xbba398fa	-0.0049926015
218	0xbdc2faa8	-0.09520465
219	0xb5133637	-5.484066e-07
220	0x3e198a37	0.14994131
221	0xb8002b32	-3.0557807e-05
222	0xba76de11	-0.0009417246
223	0xbbd3af5e	-0.0064601144
224	0xb179684e	-3.629356e-09
225	0xbbaff1ff	-0.0053694244
226	0x3ed409b5	0.41413656
227	0x37153a67	8.89469e-06
228	0x39c2b35a	0.0003713619
229	0x3c24dc95	0.0100623565
230	0xb7ce5840	-2.4598208e-05
231	0xbac0d52a	-0.0014711965
232	0x3ddc6d58	0.10763043
233	0xb9072a97	-0.00012890469
234	0x3e96f043	0.2948018
235	0xba9a608a	-0.0011778038
236	0xba18090d	-0.00057996885
237	0xb99c9b5a	-0.00029870385
238	0x3e1d78ea	0.15378156
239	0x3e64e5db	0.22353308
240	0xbd8ca8bb	-0.0686812
241	0xb71f9ea0	-9.514071e-06
242	0x3f38c450	0.7217455
243	0xb97ea287	-0.00024283874
244	0x3f65b1e9	0.89724594
245	0x38cf2c4c	9.87878e-05
246	0x3ce91c47	0.028455867
247	0xb9e997ba	-0.00044554268
248	0x3b277f5a	0.0025558085
249	0xb923d062	-0.0001562252
250	0xbd528f38	-0.051406115
251	0xbd1dc3fa	-0.038516976
252	0xb97d99d6	-0.00024185269
253	0xb8c04d38	-9.1696566e-05
254	0x3eadcc8c	0.3394512
255	0xb60edb97	-2.1287467e-06

fc3.weight f4 [256, 256]
0	0x27452a48	2.7362163e-15
1	0x23368dc6	9.8962615e-18
2	0xbb391a9f	-0.0028244627
3	0x1e4f40d4	1.0971895e-20
4	0x0002307e	2.01067e-40
5	0x2c9ff4e9	4.5462423e-12
6	0x296e75cd	5.2948792e-14
7	0xac0b06ab	-1.975679e-12
8	0x0001f543	1.79819e-40
9	0xa86a0ae6	-1.2991973e-14
10	0x2d3b41c8	1.0644326e-11
11	0x209c4128	2.6470545e-19
12	0xbcb2272b	-0.021747192
13	0xbb98c2fd	-0.0046619163
14	0x800170d9	-1.32318e-40
15	0xbb2153c3	-0.0024616576
16	0xbd6b9966	-0.05751934
17	0xbc97f59a	-0.01854973
18	0xbd1e53d8	-0.03865418
19	0xa3356860	-9.834132e-18
20	0x2b937b72	1.0479241e-12
21	0x00007c19	4.4518e-41
22	0x1d5b6a3d	2.9039333e-21
23	0xbb57a5bc	-0.0032905182
24	0x1fe0c892	9.5199506e-20
25	0xb9d88ce4	-0.00041303702
26	0xa5dfe020	-3.8836207e-16
27	0xbb911121	-0.0044270908
28	0xa7cbe0cc	-5.6587544e-15
29	0x22602572	3.0377484e-18
30	0x2d2cc681	9.821145e-12
31	0xbd7e178c	-0.062034175
32	0xba1bd736	-0.00059448497
33	0x1b00825d	1.0630034e-22
34	0x9f342db4	-3.8154287e-20
35	0x3a5ec437	0.0008497866
36	0x9ec6c220	-2.1044354e-20
37	0xb9131c49	-0.0001402955
38	0x0000a450	5.8944e-41
39	0xbdbd8e00	-0.092556
40	0x1ed91ca2	2.2987611e-20
41	0x27b85733	5.11648e-15
42	0x80013365	-1.10272e-40
43	0xbd371fd4	-0.044708088
44	0xbae3d539	-0.0017382271
45	0xa7067196	-1.865781e-15
46	0xba7eac27	-0.0009714984
47	0xaca83aa8	-4.7813593e-12
48	0xba486f5a	-0.0007645987
49	0x00003b45	2.1262e-41
50	0xa5b3c330	-3.1183814e-16
51	0x0000cc26	7.3235e-41
52	0xa6cac3fe	-1.406969e-15
53	0x2e050c23	3.025148e-11
54	0xb576ef95	-9.199078e-07
55	0x21d5a8cb	1.4478121e-18
56	0x2c5b4cbc	3.1164368e-12
57	0x8000b5a9	-6.5167e-41
58	0x34eab01a	4.3714027e-07
59	0xaae8f536	-4.1381628e-13
60	0x1e41da69	1.0262501e-20
61	0x26a8111f	1.1661982e-15
62	0x80010dac	-9.674e-41
63	0x2b93424e	1.0463381e-12
64	0xa20ff3a1	-1.950909e-18
65	0x261bbb89	5.4030585e-16
66	0xb6b8e00e	-5.5097107e-06
67	0xb93ab8b4	-0.0001780715
68	0xb7350260	-1.0788994e-05
69	0xa5972243	-2.621754e-16
70	0x27e70237	6.411778e-15
71	0xa1b3bac9	-1.2178953e-18
72	0xab0a9d81	-4.924603e-13
73	0x800026c7	-1.391e-41
74	0x35241624	6.112698e-07
75	0x9e3848ba	-9.755918e-21
76	0x18c54a2e	5.099821e-24
77	0x9d6d491e	-3.140449e-21
78	0xb9d55fc6	-0.00040697883
79	0xbce68fb9	-0.028144704
80	0xae15beaa	-3.404802e-11
81	0x260e0945	4.927871e-16
82	0x240c24dc	3.0388882e-17
83	0xb8c19c3d	-9.232059e-05
84	0xa79a46f9	-4.2820535e-15
85	0xb9be457c	-0.00036291394
86	0x800ff7d0	-1.466431e-39
87	0xa6152c31	-5.175465e-16
88	0x2cebc3d3	6.7008426e-12
89	0x2467c578	5.0257403e-17
90	0xa4a628c0	-7.206006e-17
91	0x24339207	3.8938128e-17
92	0x243b52dd	4.061935e-17
93	0x2cd2203d	5.972138e-12
94	0x246b9119	5.1080405e-17
95	0xa4d86f96	-9.38641e-17
96	0xba4c9514	-0.0007804197
97	0x9e0991cc	-7.28287e-21
98	0x9d54cb94	-2.8163214e-21
99	0xbc1cd991	-0.009573356
100	0xbc76ea92	-0.015070574
101	0x322c89cc	1.0043049e-08
102	0xb69c15f7	-4.6517193e-06
103	0xbdeb6f76	-0.11495869
104	0x1d043f86	1.7502895e-21
105	0xa793ebb0	-4.105623e-15
106	0xa7c0444c	-5.3364753e-15
107	0xabd3755a	-1.5025023e-12
108	0x0012c8cd	1.725073e-39
109	0xa19e1cc0	-1.0714107e-18
110	0x2c0ad7d6	1.9730793e-12
111	0xa7e9e7a0	-6.492162e-15
112	0x2dce4d75	2.3453886e-11
113	0x0000893a	4.9228e-41
114	0xb92f32aa	-0.00016708174
115	0x29b860d0	8.188036e-14
116	0xa34569f8	-1.0701831e-17
117	0x80025ad7	-2.16258e-40
118	0xb9415dda	-0.00018440877
119	0xa48326f8	-5.687821e-17
120	0x1d2d779a	2.2958192e-21
121	0x228b49a6	3.7754004e-18
122	0x26553a73	7.3978434e-16
123	0xa6074807	-4.693515e-16
124	0x8001d328	-1.67584e-40
125	0x80002487	-1.3104e-41
126	0xbdb9429f	-0.0904591
127	0xac891363	-3.8959266e-12
128	0xba99aa4c	-0.0011723726
129	0xa09ae661	-2.6241067e-19
130	0xa103f420	-4.4707623e-19
131	0x0008ec59	8.1947e-40
132	0xbb85fa35	-0.004088665
133	0x26413ab0	6.703986e-16
134	0x0001a2b9	1.5021e-40
135	0x00150d56	1.93333e-39
136	0x2c8355f2	3.7327858e-12
137	0x202267be	1.3756259e-19
138	0x9cb130f6	-1.1725534e-21
139	0x07825e05	1.9615486e-34
140	0xad275a6d	-9.5129295e-12
141	0x2a603f7e	1.9917225e-13
142	0x2403c4de	2.857285e-17
143	0x8000360e	-1.9391e-41
144	0xbb5802a0	-0.003296055
145	0x00007318	4.1288e-41
146	0x1ed9bb9a	2.3053359e-20
147	0xb6efe9d2	-7.1499753e-06
148	0xa4bd2664	-8.203072e-17
149	0x1c1f4dd5	5.270928e-22
150	0xa197caf3	-1.0285878e-18
151	0xbc300f39	-0.010745817
152	0x969d46e6	-2.540946e-25
153	0xa7718c93	-3.3521674e-15
154	0xb514ce90	-5.5434884e-07
155	0x2c0b5846	1.980209e-12
156	0x28096c01	7.628447e-15
157	0x98ff7988	-6.603867e-24
158	0xb85d7d25	-5.2807056e-05
159	0x26a81ba6	1.1664836e-15
160	0x8000236b	-1.2706e-41
161	0x238e1612	1.5405018e-17
162	0xbd2eedbe	-0.042707197
163	0x800207a2	-1.86409e-40
164	0x27850e56	3.693046e-15
165	0xaa2aa92e	-1.5157729e-13
166	0x27e286ce	6.2873756e-15
167	0xacc91c10	-5.715879e-12
168	0xa6bed937	-1.3242775e-15
169	0x2f0ba684	1.2701135e-10
170	0x281129c0	8.05817e-15
171	0xa7cffe80	-5.772997e-15
172	0x2431df8a	3.8570102e-17
173	0x9dc15b6f	-5.1181215e-21
174	0x267db398	8.8020403e-16
175	0xb8ef0e01	-0.000113990165
176	0x8001afd8	-1.54916e-40
177	0xb72e4eb9	-1.0389537e-05
178	0x2c233cbb	2.3197405e-12
179	0x298c3e80	6.228091e-14
180	0x308aa8b9	1.0088775e-09
181	0xb593b2e9	-1.1004423e-06
182	0xbd79990a	-0.060936965
183	0xac1981b5	-2.181461e-12
184	0xa5ef1290	-4.147247e-16
185	0x1f43c85d	4.1458593e-20
186	0xb5515a27	-7.7989756e-07
187	0xadf79292	-2.814574e-11
188	0xbddb428e	-0.10706054
189	0x240517de	2.8859994e-17
190	0x25850c79	2.3080274e-16
191	0x278965b8	3.8135422e-15
192	0x1908d479	7.073944e-24
193	0x26d463d7	1.4737517e-15
194	0x2aea350c	4.160356e-13
195	0xbb906e9f	-0.0044077183
196	0x209c1950	2.6444178e-19
197	0xaa871e0a	-2.400166e-13
198	0x98c31ae3	-5.0433467e-24
199	0xa72ac3c6	-2.3698368e-15
200	0xabf7ba82	-1.7602172e-12
201	0x9b23c71c	-1.354738e-22
202	0xb99328ce	-0.00028068427
203	0x8075f8f8	-1.0834066e-38
204	0xa672328e	-8.402913e-16
205	0xabc1bd8b	-1.3766084e-12
206	0xb9117382	-0.00013871308
207	0xac888366	-3.8799406e-12
208	0x24dd3186	9.592737e-17
209	0xb9e620bf	-0.00043893416
210	0xb64f5207	-3.089315e-06
211	0x26a0a6ac	1.1147407e-15
212	0x24800a2d	5.552839e-17
213	0xbd3062d7	-0.04306301
214	0x37db5203	2.6145024e-05
215	0x281aa40e	8.584291e-15
216	0xb7df59f7	-2.6625565e-05
217	0xa66c11fa	-8.190331e-16
218	0x2aee2038	4.229965e-13
219	0xa76a5bb6	-3.252374e-15
220	0xbd351f6b	-0.044219416
221	0xa56a9203	-2.0345735e-16
222	0xac484635	-2.8460682e-12
223	0xa9d9e778	-9.676889e-14
224	0x2003ac64	1.1153171e-19
225	0xaa3f3798	-1.6983496e-13
226	0xb23fa078	-1.115415e-08
227	0xab3e2998	-6.7559283e-13
228	0xa22a5b66	-2.3087682e-18
229	0x274b2012	2.8189295e-15
230	0xa9e8f7ea	-1.0345876e-13
231	0x2b970127	1.0729515e-12
232	0xbbc47a8a	-0.005996053
233	0xbcb1a124	-0.021683283
234	0xbbf9e4fc	-0.007626174
235	0xabb15630	-1.2600528e-12
236	0x800000dd	-3.1e-43
237	0xa6905db3	-1.0017404e-15
238	0xa919a140	-3.4112687e-14
239	0xbc5fc908	-0.013658769
240	0x29a51a88	7.3320744e-14
241	0x28856244	1.4808582e-14
242	0xba2a8192	-0.0006504293
243	0xa705c60a	-1.8564815e-15
244	0xb726b6aa	-9.936901e-06
245	0x18ae5beb	4.507076e-24
246	0x25c3bac0	3.3953655e-16
247	0x277542a8	3.4036715e-15
248	0xa2f0556f	-6.5142587e-18
249	0xa6ef8d50	-1.6622259e-15
250	0x000063b1	3.5763e-41
251	0xbd626355	-0.05527051
252	0x0029aa62	3.826377e-39
253	0xa5b5ef78	-3.1560765e-16
254	0xb8182d1f	-3.6281646e-05
255	0xaa6ea128	-2.1194559e-13

fc3.bias f4 [256]
0	0xac93eacd	-4.2040594e-12
1	0x3c9ae421	0.018907608
2	0xbe8d42db	-0.2759007
3	0x99eccfed	-2.4485809e-23
4	0x20d09d4a	3.5340656e-19
5	0x19d36756	2.1858626e-23
6	0x38450935	4.6977035e-05
7	0xab50ca94	-7.417758e-13
8	0x397c0963	0.0002403609
9	0x2a36bc7a	1.6230238e-13
10	0xb7949212	-1.7710994e-05
11	0x3991039a	0.0002765924
12	0x2e88fe7f	6.2297716e-11
13	0x3894ee76	7.101607e-05
14	0xb6691e0f	-3.4737202e-06
15	0x3c9072a6	0.017632794
16	0x1b6495f4	1.890817e-22
17	0xbdca2b49	-0.09871537
18	0x180f5ab0	1.8528102e-24
19	0xaecf679e	-9.431676e-11
20	0xafe103a3	-4.0929846e-10
21	0xb00d5b67	-5.142539e-10
22	0x00007ac3	4.4039e-41
23	0x3dde6fcc	0.10861167
24	0x2be65aa6	1.6367643e-12
25	0x1d3689c3	2.415872e-21
26	0xae149bdd	-3.378974e-11
27	0xbba1e7c3	-0.004940958
28	0xb12c5933	-2.5079998e-09
29	0x2e6192b8	5.128939e-11
30	0xb61a5af4	-2.300073e-06
31	0x1cd20e5e	1.3900348e-21
32	0x9bbdb881	-3.138666e-22
33	0x9185b849	-2.1097275e-28
34	0xb7e4a1e5	-2.7255106e-05
35	0x39b05dd2	0.00033639238
36	0xba11d7c9	-0.00055634655
37	0xaef63416	-1.1196037e-10
38	0x39834cbb	0.00025043436
39	0xacbde04b	-5.3966046e-12
40	0x8000bb9d	-6.7303e-41
41	0x2ee2a4b0	1.03065445e-10
42	0x3886620c	6.4078806e-05
43	0xabe3ae23	-1.6177653e-12
44	0xb8a8f685	-8.056782e-05
45	0x25afee27	3.051904e-16
46	0xba404434	-0.0007334382
47	0x8a0638db	-6.462559e-33
48	0x2ed27c92	9.5718225e-11
49	0x3a52e31b	0.00080447056
50	0x2eed23c2	1.0783864e-10
51	0xba08babe	-0.0005215815
52	0x2c49e31b	2.8689887e-12
53	0x30d8e76a	1.578184e-09
54	0xaad65b61	-3.8077443e-13
55	0xaf20cb6c	-1.4624185e-10
56	0x3dbb0e3c	0.09133574
57	0xaee46c86	-1.0387517e-10
58	0x2e48c587	4.5650175e-11
59	0x00024c63	2.11073e-40
60	0x2d98bcc0	1.7364221e-11
61	0xb119abe8	-2.2362148e-09
62	0x1d32de40	2.3673004e-21
63	0x3824ce26	3.9292638e-05
64	0x0000ce48	7.4e-41
65	0xbbe0e6b8	-0.0068634413
66	0x2f72256e	2.202307e-10
67	0x2d848696	1.506643e-11
68	0x37cc47d6	2.4352146e-05
69	0xac078fd0	-1.9264486e-12
70	0xb51afcae	-5.773717e-07
71	0x3b8582d8	0.0040744357
72	0x00026a83	2.2188e-40
73	0xafbb5698	-3.407663e-10
74	0xaa7f1a43	-2.2657661e-13
75	0x2fd5fc16	3.8923592e-10
76	0xbbda1a9c	-0.006656004
77	0xae913a5b	-6.6042026e-11
78	0x374e586a	1.2299142e-05
79	0x3aea5ba9	0.00178801
80	0x3b1d00a8	0.002395669
81	0xb8330b1a	-4.2687265e-05
82	0xbc0598a8	-0.008154072
83	0x0988409a	3.280156e-33
84	0x97f55118	-1.5853225e-24
85	0x30f87ac6	1.8079269e-09
86	0xb106ccf0	-1.961606e-09
87	0x2381a2d4	1.4055168e-17
88	0x1a31112a	3.6616607e-23
89	0x37ed1b0e	2.82652e-05
90	0x2af7a768	4.3992175e-13
91	0x0001eeff	1.77571e-40
92	0x2ed03e3a	9.4697986e-11
93	0xaf5cf0fe	-2.0094501e-10
94	0x2d94e344	1.6926578e-11
95	0x2e080c26	3.093361e-11
96	0xbc92ea2f	-0.017933933
97	0x3209eede	8.028762e-09
98	0x2d00baea	7.317461e-12
99	0xba36cffc	-0.0006973741
100	0x335425fa	4.9394636e-08
101	0x3a3c8f37	0.00071929715
102	0xbb316b43	-0.002707199
103	0x0d7ff3cc	7.88714e-31
104	0x2eee26e4	1.0829895e-10
105	0x2ce52f12	6.5137973e-12
106	0x8000b51e	-6.4973e-41
107	0xbc9d59e7	-0.019207908
108	0x38022260	3.102643e-05
109	0xbac08f94	-0.0014691227
110	0xb304634c	-3.0823955e-08
111	0xa5019c49	-1.1241918e-16
112	0x3e862eb2	0.262075
113	0x0001e46e	1.7378e-40
114	0xa59b60a1	-2.6953692e-16
115	0x2bcb5889	1.4448591e-12
116	0xb7ef77ee	-2.8546867e-05
117	0x37de47e4	2.6497939e-05
118	0x369d55bc	4.6889454e-06
119	0xaacdbfaa	-3.654831e-13
120	0x1ac5903d	8.171032e-23
121	0x3da4e849	0.080521174
122	0xb9c13904	-0.0003685431
123	0x2d55755a	1.21337055e-11
124	0xb2360372	-1.0594578e-08
125	0x2cbd9ba0	5.388981e-12
126	0x80000d0b	-4.679e-42
127	0xacbd6608	-5.383031e-12
128	0x3e0acaec	0.13553971
129	0x2785758a	3.704235e-15
130	0x36042d11	1.9695765e-06
131	0xbb153040	-0.0022764355
132	0x3be7e206	0.0070765046
133	0x39e9a954	0.00044567382
134	0x2e60a139	5.1074898e-11
135	0x2e844ffd	6.016874e-11
136	0x1d9bcac7	4.1237825e-21
137	0x3a0f358b	0.00054629956
138	0xb0d227fd	-1.5290876e-09
139	0x38850a15	6.343812e-05
140	0x2e80146e	5.824395e-11
141	0x11ca30c8	3.1900044e-28
142	0x3ce50129	0.027954655
143	0x0c5b643d	1.6901311e-31
144	0xbbe502b0	-0.0069888458
145	0xb73c550a	-1.1225473e-05
146	0xae357926	-4.1262237e-11
147	0x2f034d3d	1.1941821e-10
148	0xade4759a	-2.5972825e-11
149	0xb7b0b333	-2.1064281e-05
150	0x3b89cb67	0.0042051557
151	0x3557ca82	8.038843e-07
152	0xbbbbf795	-0.005736301
153	0xbab7b3c4	-0.0014015366
154	0xb92455d9	-0.0001567224
155	0x3f408d65	0.7521575
156	0x000247aa	2.09379e-40
157	0x361b82c2	2.317291e-06
158	0x3b6da1f1	0.0036259855
159	0x11624f4c	1.7852692e-28
160	0x2feb29d8	4.2775983e-10
161	0xbda9a734	-0.082838446
162	0xae99570b	-6.9730964e-11
163	0xaf37e0a6	-1.6723564e-10
164	0xbcd50dc8	-0.026007548
165	0x2c8d9291	4.023733e-12
166	0x193773ef	9.484291e-24
167	0xaddf350d	-2.5375724e-11
168	0xba144cfe	-0.00056572247
169	0x2d4c9ab6	1.163041e-11
170	0x3aa9415b	0.0012913154
171	0xbb392f92	-0.0028257114
172	0x2e6df6e9	5.410686e-11
173	0xb009e59c	-5.0166604e-10
174	0x397a85fc	0.00023891771
175	0xb384823e	-6.17042e-08
176	0x8aa3913c	-1.575096e-32
177	0x32bb50b7	2.180637e-08
178	0x2e964bfc	6.834708e-11
179	0xb5b38740	-1.3375902e-06
180	0x185515a8	2.7540538e-24
181	0xaebbad96	-8.5346105e-11
182	0xb5252f00	-6.1535684e-07
183	0xb3edacc3	-1.1067598e-07
184	0x3a127631	0.000558707
185	0x80002c83	-1.5968e-41
186	0x80024e1d	-2.11693e-40
187	0x80004c94	-2.7471e-41
188	0xaeff9836	-1.16230955e-10
189	0x3a044ec3	0.0005047137
190	0x3992d8b6	0.00028008752
191	0x00015187	1.21082e-40
192	0xbc0761cb	-0.008263062
193	0x804d2177	-7.083338e-39
194	0x1f2270d4	3.4398164e-20
195	0xbcf53fd8	-0.02993767
196	0x0004098d	3.70768e-40
197	0x3a42a3f8	0.0007424946
198	0x39263a01	0.00015852602
199	0x2e73c8ac	5.5430036e-11
200	0x026a1c37	1.7199702e-37
201	0x0b6a8628	4.516769e-32
202	0x11163e64	1.1852139e-28
203	0xaf1ea951	-1.443017e-10
204	0xb734ead2	-1.0783509e-05
205	0x87c07ef6	-2.896357e-34
206	0xbcfbec8f	-0.030752448
207	0x3104f0ae	1.9345339e-09
208	0xbdd3fff8	-0.103515565
209	0xaf5f4b32	-2.0308447e-10
210	0x89d8d43d	-5.2199696e-33
211	0xae88165f	-6.188538e-11
212	0xada39066	-1.859508e-11
213	0xb193c16c	-4.3002526e-09
214	0xbb09a372	-0.0021001962
215	0x30802425	9.323499e-10
216	0x8001ee24	-1.77264e-40
217	0x2a9f1293	2.8256962e-13
218	0x3b45952d	0.003014873
219	0x30e13f57	1.6388907e-09
220	0xadc0f613	-2.1937152e-11
221	0x0054a988	7.774998e-39
222	0xb4e06a60	-4.180065e-07
223	0x3cd6bd48	0.026213303
224	0xbb0715a4	-0.0020612264
225	0x34964780	2.79917e-07
226	0xb8892ad7	-6.5406486e-05
227	0xb7331e81	-1.0676334e-05
228	0x2f75104a	2.2288407e-10
229	0xae8c6860	-6.3850036e-11
230	0x37856bf3	1.5905103e-05
231	0xaf91d7f6	-2.6528796e-10
232	0xbb087e0c	-0.0020827083
233	0x9c7803d6	-8.2061275e-22
234	0x899995ea	-3.697439e-33
235	0xb35185e4	-4.8783377e-08
236	0xb5640d48	-8.4955946e-07
237	0xbb2eda13	-0.0026680275
238	0x2d20b7bb	9.135743e-12
239	0x3b8ba7ef	0.0042619626
240	0xb8dbcac0	-0.00010480499
241	0x11a4d4ff	2.6005907e-28
242	0xad06d991	-7.665328e-12
243	0xaeb7e352	-8.362257e-11
244	0xaf1f6c25	-1.4499386e-10
245	0xb9accea8	-0.00032960367
246	0xb8ad46d1	-8.2624734e-05
247	0x3b7d59d7	0.0038658285
248	0xa2e6068c	-6.2348557e-18
249	0xb6a551b6	-4.9268956e-06
250	0xba0431b7	-0.00050428085
251	0xae4761bf	-4.5334177e-11
252	0x3ea64d12	0.32480675
253	0x1b283437	1.3913506e-22
254	0x92bb93df	-1.1837812e-27
255	0x3a09cc56	0.00052565837

fc4.weight f4 [1, 256]
0	0xbe5b1ce1	-0.21397735
1	0x3ed5d163	0.41761312
2	0x3e2a79cf	0.16648029
3	0xbe96d4b2	-0.2945915
4	0x3ddeffaf	0.108886115
5	0xbd509590	-0.050923884
6	0x3e4b9de5	0.1988445
7	0xbc7d6b10	-0.01546742
8	0xbf35f7ea	-0.7108141
9	0x3e093be6	0.13401756
10	0xbea56e91	-0.32310918
11	0xbd1d8593	-0.038457464
12	0xbee91b7e	-0.45528787
13	0xbc52795e	-0.012846319
14	0xb9e4a977	-0.0004361381
15	0x3f3ce7ea	0.7379137
16	0xbeb38b31	-0.35067132
17	0xbf1ca0ca	-0.61182845
18	0xbe3a1dbd	-0.18175407
19	0xbea15dad	-0.3151678
20	0x3f21465d	0.6299799
21	0x3e566d22	0.20940068
22	0x3d5c6d0b	0.05381493
23	0x3da4e4d9	0.08051462
24	0x3d8e406a	0.0694588
25	0xbee1c61d	-0.4409646
26	0x3df0becc	0.117551416
27	0x3bef1dd3	0.0072972565
28	0xbd926540	-0.07148218
29	0xbe09d296	-0.13459238
30	0xbe2cdd4e	-0.16881296
31	0xbe9a4ded	-0.30137578
32	0x3bcdbe48	0.006278787
33	0x3d4983c1	0.049197916
34	0xbcb842f5	-0.022492865
35	0xbc66c289	-0.014084467
36	0xbdc287c4	-0.094985515
37	0x3f586ada	0.8453804
38	0xbdce43a5	-0.10071496
39	0xbe0d98f9	-0.13827886
40	0x3a527a73	0.00080291106
41	0xbe8b2ab7	-0.27181026
42	0xbe82730f	-0.25478408
43	0xbe394510	-0.18092752
44	0x3f106fb9	0.56420475
45	0x3f23917c	0.63893867
46	0xbe478be9	-0.19486965
47	0xbdbac1ab	-0.091189705
48	0xbd4da087	-0.05020192
49	0xbd57aecc	-0.052656934
50	0x3d49c73e	0.049262278
51	0xbc17d2d0	-0.00926657
52	0x3d3aba32	0.045587726
53	0xbdc6b7c3	-0.097030185
54	0xbc9c35d0	-0.019068629
55	0xbe5f9e0b	-0.21837632
56	0x3e92d971	0.2868152
57	0xbeab9bce	-0.33517307
58	0xbe9a2263	-0.3010436
59	0x3dbe9e72	0.09307565
60	0xbe79fb33	-0.24412231
61	0x3e611c2a	0.219834
62	0x3de4b856	0.11167972
63	0xbf4c8a6d	-0.7989872
64	0xbd6a324c	-0.057176873
65	0xbb846455	-0.004040281
66	0xbe28ab7f	-0.1647167
67	0x3c9438b0	0.018093437
68	0x3e16bead	0.14721175
69	0x3dd8bfed	0.10583482
70	0xbe2e6fc9	-0.1703483
71	0x3d0f3215	0.03495987
72	0x3dd1c168	0.102419674
73	0xbe22a156	-0.15881857
74	0xbea3a798	-0.319638
75	0xbe88f637	-0.26750347
76	0xbea6b1fc	-0.32557666
77	0xbf541dcf	-0.82857984
78	0xbdd4386c	-0.10362324
79	0xbd67d432	-0.05659885
80	0x3de525b6	0.111888334
81	0xbe5c2ec3	-0.21502213
82	0x3e27ffbc	0.16406149
83	0x3bf02c9d	0.007329537
84	0xbc52a033	-0.012855577
85	0xbe61a4a8	-0.22035468
86	0x3e16b28e	0.1471655
87	0xbda7a6f9	-0.081861444
88	0xbc524c45	-0.012835567
89	0xbec43a79	-0.3832586
90	0x3f250d22	0.64473164
91	0xbda302c1	-0.0795951
92	0x3f0d3664	0.5516112
93	0x3af7e675	0.0018913286
94	0xbdd9c625	-0.10633496
95	0xbc5dbe51	-0.0135341445
96	0xbe9a0acc	-0.30086362
97	0xbde6f22f	-0.112766616
98	0xbb1d5f36	-0.002401305
99	0xbf1d5a42	-0.6146585
100	0xbd5fe3c1	-0.054660562
101	0x3c6cb435	0.014447262
102	0xbe67042b	-0.22560184
103	0xbebb9b88	-0.36642098
104	0x3f1385d7	0.576261
105	0xbc0c2073	-0.008552658
106	0xbc8de7b3	-0.017322397
107	0x3ef770b5	0.48328176
108	0xbe684b29	-0.22684921
109	0xbe7c56e4	-0.24642521
110	0xbd06a29b	-0.032869916
111	0xbe639f7b	-0.22228806
112	0x3e89cfd6	0.2691638
113	0xbc7b2f4d	-0.015331102
114	0x3dc02578	0.093821466
115	0xbb204c02	-0.0024459367
116	0xbecd10f0	-0.40051985
117	0xbdbb9ef8	-0.0916118
118	0xbede1cf7	-0.43381473
119	0x3e8c2ee2	0.2737952
120	0xbe3b0428	-0.18263304
121	0xbf8ebdb3	-1.1151642
122	0x3b7b8987	0.0038381533
123	0x3c70f916	0.014707824
124	0x3c55157b	0.01300561
125	0x3d3876c5	0.045035142
126	0x3e3c1508	0.18367398
127	0xbe7ac54c	-0.24489325
128	0x3d93ecc7	0.07222896
129	0xbe6b7b60	-0.22996283
130	0x3d8640ac	0.06555304
131	0xbd7aa851	-0.061195675
132	0xbe4580f0	-0.19287467
133	0xbd51e8c9	-0.05124739
134	0xbee8ea2c	-0.4549116
135	0xbe0a3f39	-0.1350068
136	0xbba6e10c	-0.0050927456
137	0x3c545226	0.012959039
138	0xbd1d36c0	-0.03838229
139	0x3e019383	0.12653928
140	0x3c5da506	0.013528114
141	0xbe7717b4	-0.24130136
142	0x3f091850	0.5355272
143	0xbe2a0a65	-0.16605528
144	0xbf2d075a	-0.6758934
145	0xbc1f4e15	-0.009723206
146	0x3de94c0d	0.11391459
147	0x3cb2f8f3	0.021847224
148	0xbeedc07a	-0.4643591
149	0xbbf72390	-0.007542081
150	0xbb55dc3c	-0.003263249
151	0xbdd6cbbc	-0.10488078
152	0x3e5099e5	0.20371206
153	0xbdb843ce	-0.08997308
154	0xbd078347	-0.03308418
155	0x3f00c3a6	0.50298536
156	0xbdef94cb	-0.11698302
157	0x3eba6e49	0.36412266
158	0x3bd12ba8	0.006383378
159	0x3d12fdc6	0.03588655
160	0x3f78aafd	0.9713591
161	0xbd8ca9ed	-0.06868348
162	0x3e940c48	0.2891562
163	0x3d1ddebf	0.038542505
164	0xbf02b97d	-0.5106428
165	0xbb3fc76b	-0.002926315
166	0xbe934de7	-0.28770372
167	0xbe1b992d	-0.1519515
168	0xbd99bd78	-0.075068414
169	0xbe8f8e62	-0.28038317
170	0xbecd4c5c	-0.4009732
171	0x3d0c8541	0.03430677
172	0x3e89ba8d	0.2690014
173	0xbd229c33	-0.039699744
174	0xbe525d81	-0.20543481
175	0xbd42916d	-0.04750197
176	0xbe0333e3	-0.12812762
177	0xbd3a1ada	-0.045435764
178	0xbf32b1a6	-0.6980232
179	0x3db057ac	0.08610472
180	0x3e3afa3b	0.18259518
181	0x3f45f8a0	0.77332497
182	0xbccae9fc	-0.024769776
183	0xbc341e14	-0.010993499
184	0xbc0a2648	-0.0084319785
185	0x3d91d307	0.071203284
186	0xbb3d685f	-0.0028901321
187	0x3d4e74c4	0.050404325
188	0xbca9ee68	-0.020743564
189	0xbda6ca3f	-0.08144044
190	0xbc5cce27	-0.013476885
191	0xbcb0ae95	-0.021567622
192	0xbebe7fb0	-0.37206793
193	0x3eaac847	0.33355924
194	0xbd34a8a2	-0.044106133
195	0x3e5db282	0.21650127
196	0xb9b9e796	-0.00035458495
197	0xbdd16ebc	-0.10226199
198	0x3c86d8da	0.016460825
199	0x3db36ffd	0.087615944
200	0xbe9f566a	-0.31120616
201	0xbe20a4b6	-0.15687832
202	0xbe1a1d70	-0.15050292
203	0xbebd469d	-0.36967936
204	0x3b8b78af	0.00425633
205	0xbc2efaae	-0.010679884
206	0x3cc54118	0.02407889
207	0x3b7f245b	0.0038931582
208	0x3e2ea917	0.1705669
209	0xbc92cf56	-0.017921131
210	0xbd9e957f	-0.07743358
211	0x3e66c774	0.22537023
212	0x3dedf103	0.11618235
213	0xbd070df4	-0.03297229
214	0xbe09fbde	-0.13474986
215	0xbef971e4	-0.48719704
216	0xba99b09d	-0.0011725608
217	0xbe16e1d3	-0.14734583
218	0xba46aed4	-0.0007579152
219	0x3ee319a5	0.44355503
220	0xbee7f43a	-0.45303518
221	0x3d103efd	0.03521632
222	0xbd0ca029	-0.034332428
223	0x3f358348	0.70903444
224	0xbdd33e67	-0.10314637
225	0xbd983184	-0.07431319
226	0xbe0df5bb	-0.1386327
227	0xbc9039e0	-0.017605722
228	0xbe2534ee	-0.16133472
229	0x3def822a	0.11694749
230	0x3ef42741	0.47686198
231	0xbd29a7d5	-0.041419823
232	0xbe078c6e	-0.13237163
233	0xbf1bcfab	-0.6086375
234	0xbd31f6ab	-0.04344813
235	0x3ea65714	0.3248831
236	0x3d1d7fc7	0.038451936
237	0xbc1cb5ea	-0.009564856
238	0xbcaca693	-0.021075523
239	0xbf196db9	-0.5993305
240	0xbd538223	-0.05163778
241	0x3d435a8f	0.047693785
242	0xbcbcec1f	-0.02306181
243	0xbde4876e	-0.11158644
244	0x3e123b7a	0.14280501
245	0xbc8bc742	-0.017062787
246	0xbd3d120e	-0.046159796
247	0x3ced2681	0.028949024
248	0x3d0649c9	0.03278521
249	0xbe1b3d93	-0.15160207
250	0xbd6c5ee8	-0.057707697
251	0xbe1ea1ec	-0.15491456
252	0x3e2f086e	0.1709306
253	0x3e86c7a6	0.26324195
254	0x3e20a4d7	0.15687881
255	0xbde03c5d	-0.109490134
